M_2_AST/MotionMixer-main/h36m/run_for_longging/exp242/model.pt (torch, 870893 bytes, 184 tensors)

Mixer_Block.0.mlp_block_token_mixing.fc1.weight f4 [20, 10]
0.16393328 -0.16945422 -0.07772097 0.1137923 0.380319 -0.22491015 0.54748404 -0.6273364
0.75570273 -0.5600552 -0.009969325 -0.051005464 -0.025860978 -0.37481508 0.20448837 -0.28605366
0.45771754 -0.74295557 0.90663534 0.26190254 -0.41263846 -0.082198955 0.65309805 0.39451253
0.7871472 -0.05572426 0.20523559 -0.47700334 0.07999986 0.124260545 -0.011669844 0.16865166
0.12182866 0.2977801 -0.31600702 -0.22317939 -0.6650453 0.83372784 -0.56376106 0.3813436
-0.25521258 -0.018531172 -0.28215963 0.40794984 -0.39365172 0.46769667 -0.38959882 0.086279266
-0.15495254 0.5536196 0.3572032 0.1374562 -0.27432168 -0.1941359 -0.41979066 0.35195217
-0.60570353 0.6335509 -0.74064237 0.049039587 -0.45492083 0.25545335 0.045938827 0.077472284
-0.5602478 0.46650618 -0.3198432 0.62869436 -0.76495785 0.13267383 0.36827442 -0.11063197
0.4319275 -0.37104875 0.13110922 -0.6809061 -0.34197998 0.27888072 0.5364011 -0.30284423
-0.20977218 0.048737474 0.09028463 -0.4270745 -0.48136756 0.75657564 -0.18012564 0.21981032
0.06030268 0.5451256 -0.115074016 -0.09972026 0.5066987 0.027173698 0.19628355 -0.5328914
0.2553501 -0.06537673 -0.37353632 0.13825953 -0.12843986 0.3133111 0.3904976 -1.0597256
-0.59280944 -0.29863343 0.25486585 -0.82617843 0.28754166 -0.46040767 0.3404115 -0.071661375
0.34378248 0.045418654 0.5490284 -0.16733897 0.57681745 -0.52346677 0.44128722 -0.20424516
0.23954828 -0.37280253 -0.02786954 -0.27031088 0.12713514 -0.6690917 0.4872924 -0.9541004
0.48252195 -0.40797085 0.24174981 -0.14551872 0.0021725178 -0.11929497 0.78678846 -0.5434444
-0.04893346 0.623811 -0.55739725 -0.5028403 -0.28764993 0.4821763 -0.6959841 0.47954547
0.011122195 -0.45629814 0.10507801 0.03459456 0.62589514 0.18384413 0.47624823 -0.31808752
0.007150087 -0.4927746 0.2061443 -0.41394153 0.4706781 -0.45969644 0.029333582 0.106531486
-0.39374146 0.044355452 0.03177852 -0.34948882 0.36482897 0.17952031 0.37487513 0.23995306
0.09752993 -1.1365359 -0.2018847 0.19354247 0.036643393 0.35804102 -0.30579874 0.3182921
-0.64474 0.7312827 -0.36848867 0.032705527 0.069854155 -0.3161004 -0.47436717 -0.45848712
0.8991068 0.19136119 0.018291587 -0.0060558617 0.25852436 -0.27181962 -0.43215877 0.5127348
-0.45204878 0.68222433 -0.07528267 0.2794613 -0.10584347 -0.39785472 0.17659868 -0.4783459
00000000: 20de 273e 6885 2dbe 2c2c 9fbd f00b e93d
00000010: 2cb9 c23e d94e 66be ea27 0c3f 1e99 20bf
00000020: bc75 413f c75f 0fbf 6156 23bc 1beb 50bd
00000030: 67da d3bc c3e7 bfbe 6665 513e a075 92be
00000040: f459 ea3e 5632 3ebf 4119 683f 1718 863e
00000050: 5945 d3be ed57 a8bd 6f31 273f 8cfd c93e
00000060: 7b82 493f 1f3f 64bd 4729 523e c839 f4be
00000070: f7d6 a33d 507c fe3d e032 3fbc 05b3 2c3e
00000080: 4e81 f93d a276 983e accb a1be 2389 64be
00000090: 6940 2abf 306f 553f a552 10bf 783f c33e
000000a0: 39ab 82be afce 97bc 3a77 90be cdde d03e
000000b0: b88c c9be f075 ef3e 7f79 c7be 2fb3 b03d
000000c0: e1ab 1ebe 04ba 0d3f 56e3 b63e 51c1 0c3e
000000d0: e473 8cbe 90cb 46be cdee d6be 1333 b43e
000000e0: 630f 1bbf 6430 223f bd9a 3dbf bcdd 483d
000000f0: 62eb e8be c8ca 823e 5a2a 3c3d caa9 9e3d
00000100: 666c 0fbf e6d9 ee3e 7dc2 a3be 1df2 203f
00000110: 47d4 43bf a6db 073e 778e bc3e 0493 e2bd
00000120: 9a25 dd3e 1afa bdbe 7f41 063e dd4f 2ebf
00000130: 0018 afbe 74c9 8e3e 9551 093f 660e 9bbe
00000140: 85ce 56be f2a0 473d 26e7 b83d 82a9 dabe
00000150: cf75 f6be f1ae 413f db72 38be f515 613e
00000160: f1ff 763d 5a8d 0b3f edab ebbd 233a ccbd
00000170: 02b7 013f 609b de3c 8efe 483e 926b 08bf
00000180: 40bd 823e 3ce4 85bd 2740 bfbe e893 0d3e
00000190: bd85 03be 506a a03e 4def c73e 17a5 87bf
000001a0: 5cc2 17bf 7be6 98be c77d 823e 6e80 53bf
000001b0: a938 933e 8eba ebbe 6b4a ae3e 33c3 92bd
000001c0: 4204 b03e e908 3a3d 208d 0c3f e85a 2bbe
000001d0: 4faa 133f eb01 06bf 66f0 e13e a525 51be
000001e0: 254c 753e f9df bebe a94e e4bc 3066 8abe
000001f0: b72f 023e 9849 2bbf 647e f93e ec3f 74bf
00000200: 1e0d f73e 8ee1 d0be 438d 773e dc02 15be
00000210: cd60 0e3b ec50 f4bd f86a 493f 2c1f 0bbf
00000220: 746e 48bd 14b2 1f3f 96b1 0ebf 24ba 00bf
00000230: da46 93be d0df f63e 042c 32bf fc86 f53e
00000240: de39 363c e99f e9be 2433 d73d 06b3 0d3d
00000250: aa3a 203f a341 3c3e cfd6 f33e 5edc a2be
00000260: 474b ea3b f44c fcbe 7e17 533e 25f0 d3be
00000270: b8fc f03e 555d ebbe fb4c f03c 2e2d da3d
00000280: 7b98 c9be 10ae 353d 322a 023d 33f0 b2be
00000290: ddca ba3e 2cd4 373e a2ef bf3e 41b6 753e
000002a0: c6bd c73d 027a 91bf ddba 4ebe ff2f 463e
000002b0: 6217 163d 2751 b73e a791 9cbe 2ff7 a23e
000002c0: ae0d 25bf 5835 3b3f 8caa bcbe 3bf6 053d
000002d0: b20f 8f3d e9d7 a1be 41e0 f2be d3be eabe
000002e0: dd2b 663f 30f4 433e 3dd8 953c 4070 c6bb
000002f0: 4e5d 843e f12b 8bbe ea43 ddbe 9642 033f
00000300: f072 e7be 41a6 2e3f cd2d 9abd 8d15 8f3e
00000310: 76c4 d8bd 9db3 cbbe 49d6 343e c1e9 f4be

Mixer_Block.0.mlp_block_token_mixing.fc1.bias f4 [20]
0.19042231 0.44634342 0.06858309 0.3311351 0.41035518 0.37429512 0.17674418 0.42170796
0.6309504 0.3358657 0.03194987 0.09617637 0.1039088 0.51443225 0.41302788 0.089756526
0.38004023 0.3055494 0.43188608 0.30612978
00000000: 11fe 423e 2087 e43e 4b75 8c3d 8a8a a93e
00000010: 131a d23e 9ca3 bf3e 6dfc 343e 1bea d73e
00000020: f785 213f 97f6 ab3e dedd 023d 1ef8 c43d
00000030: 23ce d43d d5b1 033f 6478 d33e 45d2 b73d
00000040: a294 c23e f970 9c3e 2c20 dd3e 0bbd 9c3e

Mixer_Block.0.mlp_block_token_mixing.fc2.weight f4 [10, 20]
0.3536102 0.116243236 0.7717512 0.07203806 -0.44952977 -0.6942504 0.40464073 -0.010275773
-0.026100721 0.73925006 0.25151083 0.59536916 0.62113905 -0.2606921 -0.5600832 0.6539267
0.3332677 -0.020204643 -0.05302679 -0.24092066 0.26585028 0.0032492804 0.20236373 -0.13488181
0.2417058 -0.4724141 -0.06294485 -0.6927581 -0.2664396 0.06849899 -0.19989233 -0.18954279
0.22818309 -0.060421415 0.45885932 -0.46286494 0.13529739 -0.03424018 0.025483707 0.5268524
0.010766796 0.17124625 -0.1510927 -0.470916 -0.23723744 -0.13332553 -0.83048826 -0.18566912
0.22015989 -0.06168845 -0.40473196 -0.03419056 -0.2866266 0.5472719 0.26923364 0.25163105
0.20537457 -0.68398446 0.76979876 -0.28060246 -0.43263838 0.040323876 -0.501474 -0.16010873
0.29501277 0.13176763 0.284266 -0.44263402 0.9205421 -0.4884209 0.2687088 -0.5274071
-0.7618785 -0.5288517 -0.21746236 -0.6048588 0.3602955 0.24930432 0.116284765 0.1070448
1.0912832 0.9366723 -0.19518434 -0.2705598 -0.09931056 -0.4078705 -0.21997689 0.056203537
-0.052032694 0.008698535 0.5295219 0.78059226 0.5561084 -0.49832618 0.17010592 0.6999794
0.17717774 -0.4323612 -0.48687634 -0.53203934 -0.5865261 -0.32464823 -0.2200875 1.293286
0.1558512 0.34345907 0.3809595 0.35353065 -0.13443756 0.23500232 -0.5940814 -0.16226843
-0.50654393 0.18990296 0.35508877 -0.23489851 -0.52471864 0.8377793 -0.29111454 -0.5393423
0.6397693 0.4227048 0.39201933 -0.1621922 -0.28916657 -0.59113616 -0.8521952 0.45497492
-0.111699566 0.11126851 -0.24083532 0.4698447 0.21548373 -0.041009568 0.41345438 -0.15117377
0.15060312 -0.19609721 0.44564602 0.45227066 0.54133254 0.15244305 0.082286395 -0.3646294
0.5216439 0.072197296 -0.02034357 -0.29525605 -0.0011126172 -0.17963633 0.5138892 0.74964637
0.80257857 -0.42609003 -0.21892165 0.7415086 -0.4592155 -0.25223318 0.217594 -0.61764926
-0.21514966 -0.5437659 0.12907588 0.2276635 0.021539345 0.43109578 0.61831206 -0.378061
-0.12933575 0.21286306 0.08155156 -0.17446113 -0.028853614 0.49244657 -0.4664934 0.16956866
0.109325245 0.12997055 0.22837327 -0.21595459 0.6019844 -0.5414848 0.00901921 -0.20259762
-0.72853476 0.010483959 0.43053877 0.37144274 -0.62001276 0.040574703 0.6921816 0.29954308
0.5334247 0.69676447 -0.4389969 -0.10155623 1.154192 0.19422916 0.38543975 0.13984618
00000000: 650c b53e ef10 ee3d 7d91 453f b188 933d
00000010: c428 e6be 65ba 31bf 122d cf3e b75b 28bc
00000020: 2ed1 d5bc 7e3f 3d3f 07c6 803e 1d6a 183f
00000030: f802 1f3f 6f79 85be 9d61 0fbf bd67 273f
00000040: 10a2 aa3e 3584 a5bc 9f32 59bd e8b3 76be
00000050: 871d 883e e1f1 543b 7038 4f3e 751e 0abe
00000060: ba81 773e 43e0 f1be 3be9 80bd 9858 31bf
00000070: c56a 88be 3349 8c3d 93b0 4cbe 8117 42be
00000080: d4a8 693e 727c 77bd 9cef ea3e a2fc ecbe
00000090: 668b 0a3e 6e3f 0cbd 35c3 d03c cddf 063f
000000a0: 3767 303c 2d5b 2f3e 0bb8 1abe e71b f1be
000000b0: 5fee 72be 7d86 08be e19a 54bf 0c20 3ebe
000000c0: 9871 613e 07ad 7cbd 0739 cfbe 670b 0cbd
000000d0: b9c0 92be 031a 0c3f fed8 893e c9d5 803e
000000e0: b64d 523e 9b19 2fbf 8811 453f 20ab 8fbe
000000f0: c782 ddbe a62a 253d 9a60 00bf 8bf3 23be
00000100: ea0b 973e 18ee 063e 508b 913e eda0 e2be
00000110: a6a8 6b3f 4e12 fabe 3394 893e 2704 07bf
00000120: 780a 43bf d362 07bf 74ae 5ebe 07d8 1abf
00000130: a778 b83e a249 7f3e b526 ee3d 4e3a db3d
00000140: 2baf 8b3f c1c9 6f3f 67de 47be d086 8abe
00000150: 5663 cbbd 67d4 d0be 9f41 61be ae35 663d
00000160: 3c20 55bd 4d84 0e3c bf8e 073f e5d4 473f
00000170: 1f5d 0e3f 9c24 ffbe 3f30 2e3e da31 333f
00000180: 156e 353e 725e ddbe db47 f9be bb33 08bf
00000190: 9326 16bf 4b38 a6be 9e5e 61be 658a a53f
000001a0: 7597 1f3e ded9 af3e 200d c33e f801 b53e
000001b0: 00aa 09be 73a4 703e b815 18bf b229 26be
000001c0: ddac 01bf ec75 423e 32ce b53e 3c89 70be
000001d0: f653 06bf b478 563f f70c 95be 5612 0abf
000001e0: ecc7 233f c36c d83e c2b6 c83e b615 26be
000001f0: a40d 94be b354 17bf 7729 5abf 79f2 e83e
00000200: bec2 e4bd bfe0 e33d 899d 76be 7c8f f03e
00000210: c4a7 5c3e a6f9 27bd 4bb0 d33e 4ccd 1abe
00000220: b437 1a3e b5cd 48be b72b e43e 0590 e73e
00000230: c594 0a3f 081a 1c3e c585 a83d b4b0 babe
00000240: 748a 053f 2ddc 933d 8fa7 a6bc cd2b 97be
00000250: 3dd5 91ba 96f2 37be 3e8e 033f d3e8 3f3f
00000260: ca75 4d3f 7928 dabe ff2c 60be 82d3 3d3f
00000270: 4b1e ebbe b524 81be f6d0 5e3e 431e 1ebf
00000280: 3150 5cbe 3e34 0bbf 782c 043e 9f20 693e
00000290: 4873 b03c 96b8 dc3e b349 1e3f 3691 c1be
000002a0: 9770 04be c6f8 593e 8104 a73d f0a5 32be
000002b0: 6a5e ecbc f521 fc3e 39d8 eebe 68a3 2d3e
000002c0: eae5 df3d 0017 053e afda 693e 3323 5dbe
000002d0: a61b 1a3f bf9e 0abf 4fc5 133c c075 4fbe
000002e0: 4181 3abf e9c4 2b3c 946f dc3e be2d be3e
000002f0: 28b9 1ebf a931 263d d032 313f b65d 993e
00000300: 858e 083f 285f 323f 34c4 e0be b6fc cfbd
00000310: 90bc 933f 02e4 463e 5c58 c53e d633 0f3e

Mixer_Block.0.mlp_block_token_mixing.fc2.bias f4 [10]
-0.48093837 0.113167845 0.2891517 0.12740593 -0.16953345 -0.09610705 -0.5224107 0.009770099
-0.075865686 -0.31110314
00000000: 8e3d f6be 8bc4 e73d b10b 943e b376 023e
00000010: 2d9a 2dbe c6d3 c4bd b5bc 05bf c412 203c
00000020: 785f 9bbd e948 9fbe

Mixer_Block.0.mlp_block_token_mixing_DynaMixerOperation.fc_ND.weight f4 [1, 66]
0.009343933 -0.0020740326 0.02463198 -0.0039870706 -0.06578039 0.07350968 0.07944566 -0.0018468432
0.080928266 -0.0052808733 -0.026526269 -0.024782747 0.07433831 0.024954703 -0.03583764 -0.00956586
-0.041316625 -0.02159418 0.011026566 -0.027484441 0.009168735 0.057036724 -0.0069488725 0.013236552
-0.07614418 0.03871069 0.00032591826 -0.015937902 0.08643932 0.023885747 0.053879872 0.02225843
-0.08038036 -0.06379213 0.039681163 -0.0070870738 -0.043857064 -0.028903332 0.03854411 -0.01879782
-0.048109774 0.009805547 -0.026669633 -0.0036097728 0.07790074 0.007057017 -0.011100804 0.029150648
-0.0283517 0.112066545 -0.04854463 -0.039953172 0.062199257 0.063135944 0.039160196 0.09275068
0.014815577 -0.0029520942 0.031584293 0.019034404 0.062590346 0.015084628 0.026071314 -0.021237118
-0.036568467 0.021985378
00000000: 4c17 193c 7eec 07bb 02c9 c93c f9a5 82bb
00000010: deb7 86bd 3e8c 963d 68b4 a23d c611 f2ba
00000020: b8bd a53d 2d0b adbb 9e4d d9bc 3005 cbbc
00000030: af3e 983d ce6d cc3c 7dca 12bd 20ba 1cbc
00000040: 9f3b 29bd 47e6 b0bc c5a8 343c 0d27 e1bc
00000050: 7638 163c 579f 693d 5eb3 e3bb 1fde 583c
00000060: 7bf1 9bbd 1a8f 1e3d 02e0 aa39 3490 82bc
00000070: 1907 b13d 0bac c33c 24b1 5c3d 5057 b63c
00000080: 759e a4bd 73a5 82bd b788 223d af3a e8bb
00000090: 77a3 33bd aec6 ecbc 6ee0 1d3d e3fd 99bc
000000a0: c10e 45bd 72a7 203c 467a dabc f091 6cbb
000000b0: 6c8a 9f3d 8d3e e73b 26e0 35bc 57cd ee3c
000000c0: d341 e8bc 2583 e53d bcd6 46bd f0a5 23bd
000000d0: a6c4 7e3d 6b4d 813d 7166 203d 12f4 bd3d
000000e0: 09bd 723c ec77 41bb 885e 013d 0aee 9b3c
000000f0: 5e2f 803d 8425 773c 8293 d53c 77f9 adbc
00000100: d1c8 15bd ae1a b43c

Mixer_Block.0.mlp_block_token_mixing_DynaMixerOperation.fc_Nd.weight f4 [100, 10]
0.8080079 0.036408823 0.5850385 0.30271828 0.7208493 0.41695538 0.76779073 0.5017463
0.94905823 0.5183701 0.045049217 0.3335577 -0.08555093 0.29305604 0.2981388 0.23516604
-0.051808566 0.04802111 -0.022763696 -0.032516338 -0.20881219 -0.10793839 0.126046 -0.055524852
0.059704486 0.050523143 -0.00036672864 0.0008351092 -0.1042685 -0.11249937 -0.053463556 0.04593836
-0.124263085 0.037152495 0.03704494 0.27348685 -0.097139575 -0.0732575 -0.019853216 0.0262225
-0.057329103 -0.31717253 -0.23171364 -0.33139476 -0.15479617 -0.15733397 0.019287575 -0.08119884
-0.049125075 -0.052291095 -0.075098746 0.044399325 0.029716931 0.005132237 0.06620331 0.31530887
-0.1577142 -0.11680737 -0.05397775 -0.004609032 -0.11629406 0.18224716 -0.105243355 -0.043855805
-0.056086328 0.113935284 -0.11993838 -0.07294334 -0.086287566 0.11152801 -0.19438393 -0.21834886
-0.14282255 -0.086844906 -0.05289196 -0.07901747 -0.17030734 0.16029343 0.017593808 -0.12770094
-0.03498539 0.45191574 -0.029959133 0.20517224 0.09521139 0.04811079 -0.15313272 0.04562083
-0.08462137 0.044325393 0.015598591 0.31115243 -0.21901008 -0.03656765 -0.021047134 -0.032169484
-0.007996769 -0.063476406 0.034930702 -0.019230125 -0.43796355 -0.09172499 0.038355947 0.0801658
-0.021223104 0.06942202 0.046069425 -0.15670325 0.14387369 -0.22984739 0.35872456 -0.20314041
0.2316358 0.19514251 0.025412545 0.55870235 -0.04142765 0.49282873 0.651401 1.0963058
0.09598309 0.1590417 0.19901368 0.3952174 0.21733505 0.29249007 0.14794591 0.27895075
0.1450869 0.14916329 -0.23765258 -0.34674862 -0.109248504 -0.19899449 -0.2182643 -0.30964065
-0.27588788 -0.29262638 0.11326406 -0.17879507 0.059468146 0.14291187 -0.3761526 0.015304976
-0.21616955 -0.023800766 0.16210097 -0.100864545 -0.016310759 -0.07017367 0.010218872 -0.37638286
0.008346406 -0.051995188 -0.14150085 -0.2832205 -0.28421935 -0.17901014 -0.025832286 -0.22483261
0.033045195 -0.03241043 0.10431374 0.20734611 -0.21913989 0.07002648 -0.18311098 0.10810412
0.0077653117 -0.14998133 -0.0025753991 -0.34423727 -0.06220022 -0.22314224 -0.20422845 -0.24899991
-0.2739808 -0.26860195 -0.031484447 -0.24430932 0.15481159 -0.07122655 -0.09732675 -0.098780885
0.13551973 -0.1338371 0.1453171 -0.058114447 -0.29561535 -0.03824471 0.14302196 0.12737569
-0.07079622 0.002942522 -0.31846786 -0.080760725 0.06940883 -0.16536035 0.14115992 -0.19105902
-0.22424461 -0.17419136 0.07670351 -0.07754247 0.08972571 -0.17500281 -0.009120134 -0.20011483
-0.20798434 -0.16198303 0.6422073 0.28636727 0.40622362 0.16676758 0.14025775 0.30729413
0.36127767 0.38502192 0.2903691 0.31476557 0.16135505 -0.19658256 0.13740873 0.09422736
0.3563811 0.10355325 0.38197994 0.15070945 0.087254256 0.21928865 -0.110557735 -0.085568324
-0.07661457 -0.28183824 -0.30286348 -0.20564865 -0.24258496 -0.15335432 -0.15528964 -0.18998466
0.39391145 -0.057036016 -0.11711789 0.7009239 -0.09200696 0.09926413 -0.015045599 0.1257517
-0.09566224 0.044989094 0.042635053 -0.049394462 -0.17683184 0.15468532 -0.05193229 -0.071076915
00000000: 9bd9 4e3f 6b21 153d 15c5 153f e4fd 9a3e
00000010: 9489 383f 2d7b d53e ef8d 443f 7272 003f
00000020: 7bf5 723f e7b3 043f 8785 383d 13c8 aa3e
00000030: 5335 afbd 710b 963e a6a5 983e 5ecf 703e
00000040: 3835 54bd c9b1 443d ee7a babc da2f 05bd
00000050: ddd2 55be cd0e ddbd 3412 013e 076e 63bd
00000060: b18c 743d 5bf1 4e3d 7c45 c0b9 3beb 5a3a
00000070: b98a d5bd 1266 e6bd 9afc 5abd dd29 3c3d
00000080: a57d febd 372d 183d 6fbc 173d 7806 8c3e
00000090: 1df1 c6bd 0708 96bd 36a3 a2bc 91d0 d63c
000000a0: ecd1 6abd 7064 a2be 5746 6dbe 93ac a9be
000000b0: e382 1ebe 281c 21be fa00 9e3c 944b a6bd
000000c0: 6037 49bd 302f 56bd 5fcd 99bd 11dc 353d
000000d0: ec70 f33c 532c a83b 9a95 873d 2a70 a13e
000000e0: d57f 21be b438 efbd c617 5dbd 5d07 97bb
000000f0: 952b eebd 009f 3a3e d489 d7bd 25a2 33bd
00000100: c7ba 65bd e756 e93d 41a2 f5bd 5163 95bd
00000110: 89b7 b0bd cc68 e43d 950c 47be d896 5fbe
00000120: 1340 12be bedb b1bd 3da5 58bd e9d3 a1bd
00000130: 0c65 2ebe f623 243e e420 903c 09c4 02be
00000140: d74c 0fbd 8061 e73e db6c f5bc ac18 523e
00000150: 30fe c23d d20f 453d d3ce 1cbe e8dc 3a3d
00000160: f84d adbd 8b8e 353d 3c91 7f3c 5f4f 9f3e
00000170: 2e44 60be f6c7 15bd 0a6b acbc 26c4 03bd
00000180: e104 03bc ebff 81bd 7f13 0f3d 7f88 9dbc
00000190: c23c e0be 50da bbbd 201b 1d3d f82d a43d
000001a0: 13dc adbc 222d 8e3d 4bb3 3c3d d176 20be
000001b0: a053 133e 1d5d 6bbe bfaa b73e 0a04 50be
000001c0: ef31 6d3e 70d3 473e f82d d03c 1e07 0f3f
000001d0: 0ab0 29bd 0c54 fc3e 37c2 263f c053 8c3f
000001e0: c892 c43d d4db 223e 3eca 4b3e ef59 ca3e
000001f0: 148d 5e3e 42c1 953e 227f 173e a2d2 8e3e
00000200: a991 143e 43be 183e 335b 73be 0989 b1be
00000210: aebd dfbd 36c5 4bbe ad80 5fbe 3889 9ebe
00000220: 2d41 8dbe 20d3 95be fdf6 e73d 0e16 37be
00000230: df94 733d 7d57 123e 1397 c0be b9c1 7a3c
00000240: 8d5b 5dbe d3f9 c2bc ccfd 253e 1292 cebd
00000250: 249e 85bc 37b7 8fbd 0e6d 273c 41b5 c0be
00000260: 5dbf 083c e8f8 54bd 99e5 10be 4702 91be
00000270: 3385 91be 6f4e 37be 3b9e d3bc 853a 66be
00000280: 665a 073d cdc0 04bd 71a2 d53d 8a52 543e
00000290: 3566 60be 0b6a 8f3d 7281 3bbe b165 dd3d
000002a0: 2874 fe3b b594 19be 07c8 28bb de3f b0be
000002b0: a8c5 7ebd 667f 64be 4321 51be d5f9 7ebe
000002c0: 3647 8cbe 3286 89be d6f5 00bd 392c 7abe
000002d0: ee86 1e3e 3adf 91bd 3f53 c7bd a24d cabd
000002e0: afc5 0a3e 980c 09be 02ce 143e 6a09 6ebd
000002f0: e55a 97be 7ca6 1cbd 5974 123e c66e 023e
00000300: 9cfd 90bd 54d7 403b 380e a3be e165 a5bd
00000310: 3726 8e3d 3954 29be 3a8c 103e faa4 43be
00000320: 61a0 65be 385f 32be bb16 9d3d 96ce 9ebd
00000330: 1dc2 b73d f033 33be 9d6c 15bc e7ea 4cbe
00000340: d9f9 54be e1de 25be b367 243f bb9e 923e
00000350: 8bfc cf3e 1fc5 2a3e ba9f 0f3e a855 9d3e
00000360: 63f9 b83e 9821 c53e 42ab 943e f428 a13e
00000370: 423a 253e f04c 49be e0b4 0c3e 46fa c03d
00000380: 9577 b63e ba13 d43d e092 c33e 9453 1a3e
00000390: 5cb2 b23d 348d 603e 186c e2bd 723e afbd
000003a0: 1ae8 9cbd 1a4d 90be ec10 9bbe 8f95 52be
000003b0: 3168 78be ea08 1dbe 3f04 1fbe 578b 42be
000003c0: c3ae c93e 999e 69bd 81db efbd c06f 333f
000003d0: 256e bcbd fe4a cb3d d181 76bc 0ec5 003e
000003e0: 91ea c3bd 7c46 383d 18a2 2e3d d951 4abd
000003f0: 6813 35be d465 1e3e f4b6 54bd c690 91bd

Mixer_Block.0.mlp_block_token_mixing_DynaMixerOperation.fc_Nd.bias f4 [100]
-0.79009044 0.2904249 0.04565044 0.28248927 -0.18348968 0.21346214 0.10588976 0.026046755
-0.075356394 -0.13915074 -0.22194043 -0.6834612 -0.2635903 -0.11954072 -0.03133964 0.08619857
0.4869208 0.11951256 -0.009416297 0.27582526 0.29631487 -0.5543169 0.22137047 0.025761371
0.08039539 0.35434854 0.059319545 -0.093578674 0.022091046 0.14150698 -0.13381128 0.22757223
-0.5000105 0.4828766 -0.49437296 0.4622144 0.08370878 0.08512772 -0.123347856 -0.15056881
-0.21954738 0.08476803 -0.0060082083 0.15813777 -0.2246262 0.25825727 -0.19652802 0.2320049
-0.17484018 0.14200267 -0.28493077 -0.39868778 0.2956019 -0.019761885 0.098027244 0.20961887
0.20016411 0.006871285 0.1292846 -0.111944474 0.37002417 -0.76896334 0.028345497 -0.41382393
0.095797256 -0.16587995 0.29801428 -0.14468946 -0.007163922 -0.220352 -0.01745776 0.100752965
-0.2726491 -0.19312339 -0.18013516 -0.14390878 -0.20484833 0.15078247 0.13879596 0.014664944
0.69087446 -0.033295225 0.09434605 -0.050155323 -0.21768464 -0.25395018 -0.17357637 -0.14313191
0.012810979 0.21492432 0.38840184 -0.49775764 -0.34021896 -0.12116613 -0.27879417 -0.1329091
-0.08529676 0.2226046 -0.12861545 0.051904183
00000000: 5e43 4abf 93b2 943e f5fb 3a3d 6fa2 903e
00000010: b8e4 3bbe d295 5a3e bbdc d83d 0160 d53c
00000020: 7454 9abd 887d 0ebe 5a44 63be 50f7 2ebf
00000030: 4ff5 86be c4d1 f4bd ff5d 00bd e088 b03d
00000040: af4d f93e 00c3 f43d d046 1abc f838 8d3e
00000050: 95b6 973e b6e7 0dbf f1ae 623e 8309 d33c
00000060: 57a6 a43d 2c6d b53e 0df9 723d 2da6 bfbd
00000070: 48f8 b43c 35e7 103e d305 09be b208 693e
00000080: b000 00bf 9a3b f73e 741e fdbe 5ea7 ec3e
00000090: 826f ab3d 7157 ae3d cd9d fcbd b62e 1abe
000000a0: 07d1 60be dc9a ad3d 81e0 c4bb deee 213e
000000b0: 6904 66be 4c3a 843e a43e 49be b192 6d3e
000000c0: 4e09 33be 2669 113e 72e2 91be ce20 ccbe
000000d0: 2259 973e ade3 a1bc 82c2 c83d 54a6 563e
000000e0: d2f7 4c3e 8428 e13b 2f63 043e 2543 e5bd
000000f0: cf73 bd3e c8da 44bf d134 e83c bbe0 d3be
00000100: 5a31 c43d 6fdc 29be 5495 983e 7929 14be
00000110: 55bf eabb f4a3 61be 9403 8fbc 9257 ce3d
00000120: aa98 8bbe 23c2 45be 5a75 38be d35c 13be
00000130: c3c3 51be b866 1a3e 8720 0e3e 3c45 703c
00000140: 26dd 303f 9360 08bd 8038 c13d ab6f 4dbd
00000150: b9e8 5ebe c205 82be 01be 31be 2c91 12be
00000160: 24e5 513c 1f15 5c3e 9bdc c63e 17da febe
00000170: 2e31 aebe f325 f8bd 1cbe 8ebe 5319 08be
00000180: 11b0 aebd 76f2 633e c5b3 03be 7b99 543d

Mixer_Block.0.mlp_block_token_mixing_DynaMixerOperation.fc_out.weight f4 [66, 66]
0.15347904 -0.17073308 -0.24193789 -0.06274368 0.07515924 -0.016016057 -0.094428375 0.16847815
-0.21045461 -0.15651937 -0.06880818 0.07246654 0.2901727 0.19888635 0.20423168 0.26851952
0.10866959 -0.12540542 -0.1909979 -0.1228232 0.07732383 -0.12214755 0.111399464 0.0061723413
0.15678293 -0.1351854 0.060760204 0.20568688 0.055625893 -0.06301273 -0.18646412 -0.107626006
0.121852465 0.35641372 -0.10579482 0.16568637 0.13059744 0.057074416 0.13831843 -0.23332335
-0.17147045 0.123117015 0.20054123 -0.06922912 0.022996735 0.21059735 -0.07353392 -0.16554445
-0.08756454 -0.12362774 0.050524954 0.02623242 -0.08663528 -0.3486657 -0.06313695 -0.12198411
0.09309778 0.13881883 0.37996337 0.031371456 -0.20262864 0.115644984 -0.18858738 0.13218096
0.2539152 0.020165952 0.23215076 0.38443953 0.025317375 -0.035632186 -0.02330014 -0.068988144
-0.018212574 -0.16041616 0.27670673 -0.00628521 0.042205174 0.061611988 -0.063703634 0.19463919
-0.12903328 0.11254689 0.1594846 -0.13453516 -0.045261208 -0.21338204 -0.11073676 -0.19835876
-0.058900166 -0.12006302 0.05336864 -0.1674418 0.12640902 -0.012409787 0.2131898 -0.25405747
0.11597064 -0.05258433 -0.0576011 0.30945516 0.07805168 0.15031402 -0.061590068 0.074796095
0.15005197 0.09197252 0.045950584 -0.25775588 0.007585876 0.040458992 0.03224637 0.25227848
-0.20844208 -0.0724919 0.0056365444 0.14165957 0.15707451 0.077568404 0.040644165 0.066047765
-0.16681932 0.22600704 0.23951222 -0.038777355 0.13343467 -0.26046094 0.2290197 -0.027645027
-0.1090298 -0.24138734 0.14519142 -0.14558621 0.10268578 -0.20719874 -0.09437747 -0.01571263
0.088174865 -0.12789893 -0.039873682 -0.13853884 -0.1422668 0.18983552 0.4089347 0.03863836
-0.05013682 -0.06886872 0.14888005 0.1452487 0.18634301 0.14843088 -0.087900475 0.22133236
0.17787412 -0.23920254 0.10424675 -0.09766082 -0.12088316 -0.098348655 0.00025294922 0.33987033
-0.086739406 -0.2557233 -0.12919281 0.05097431 -0.003237079 0.086605914 0.06794882 0.14470153
0.088371806 -0.0021155714 -0.008279537 0.13490044 0.017209692 0.117181025 0.2788261 -0.19227557
0.02624494 -0.12230534 -0.05495111 0.051779114 0.13493557 -0.16784942 -0.06433583 0.06108956
-0.27420905 -0.16829582 -0.00213611 -0.088852264 -0.07491093 0.07526484 0.08939725 0.17634428
-0.011298752 0.10787755 -0.08954962 -0.22773817 0.023006674 -0.10955812 0.24874897 -0.069049895
-0.023673547 -0.017226605 0.091434784 -0.24479102 0.06931652 -0.25888848 -0.06494743 0.15555885
-0.09439254 0.06600292 -0.07504422 -0.12010227 -0.025775287 0.199786 -0.034368724 -0.1707895
-0.12645943 -0.0025047227 -0.23137036 0.01620404 0.09283146 -0.20379567 -0.03521359 0.17263879
-0.14420642 0.11890384 0.0059383507 0.25089258 -0.12455988 -0.08993094 -0.016673284 -0.13366815
-0.1609819 0.32687014 0.041156724 -0.023017544 0.124572486 -0.21069299 0.015173571 0.18721704
0.072791375 -0.20208201 -0.0083853165 -0.02727502 -0.033206183 0.069597065 0.11515612 -0.05195621
-0.1454211 0.054822773 0.110163346 -0.009716239 -0.021663345 -0.2807153 -0.10903479 -0.3491429
00000000: 9c29 1d3e a7d4 2ebe 91be 77be c27f 80bd
00000010: 16ed 993d 1b34 83bc aa63 c1bd 8985 2c3e
00000020: 6a81 57be 9d46 20be 4eeb 8cbd 5669 943d
00000030: 8491 943e dda8 4b3e 1c22 513e 647b 893e
00000040: 298e de3d 476a 00be f494 43be bb8a fbbd
00000050: f55b 9e3d 7f28 fabd 6725 e43d 5a41 ca3b
00000060: b48b 203e 0b6e 0abe b1df 783d 959f 523e
00000070: fad7 633d d10c 81bd 73f0 3ebe 066b dcbd
00000080: c98d f93d dc7b b63e f4aa d8bd b0a9 293e
00000090: 56bb 053e ddc6 693d 59a3 0d3e 51ec 6ebe
000000a0: f395 2fbe c624 fc3d ae5a 4d3e ffc7 8dbd
000000b0: a663 bc3c d5a6 573e f498 96bd 7c84 29be
000000c0: 0a55 b3bd 8a30 fdbd 41f3 4e3d 5fe5 d63c
000000d0: d66d b1bd 5084 b2be f24d 81bd ced2 f9bd
000000e0: 0daa be3d 8626 0e3e 8f8a c23e 5b7f 003d
000000f0: e27d 4fbe 47d7 ec3d 0d1d 41be 725a 073e
00000100: 2c01 823e 1133 a53c eeb8 6d3e 42d5 c43e
00000110: 6266 cf3c 0ef3 11bd efdf bebc a849 8dbd
00000120: 8932 95bc 2244 24be 81ac 8d3e 2af4 cdbb
00000130: 55df 2c3d da5c 7c3d 0d77 82bd 7f4f 473e
00000140: 4d21 04be fc7e e63d ee4f 233e 96c3 09be
00000150: d163 39bd d280 5abe f4c9 e2bd 8f1e 4bbe
00000160: 4d41 71bd 9ae3 f5bd 1399 5a3d dd75 2bbe
00000170: 5e71 013e 6b52 4bbc 6d4e 5a3e d213 82be
00000180: 0482 ed3d ab62 57bd 22ef 6bbd e870 9e3e
00000190: 8fd9 9f3d ebeb 193e de45 7cbd b22e 993d
000001a0: 39a7 193e 175c bc3d ae36 3c3d 94f8 83be
000001b0: f192 f83b 54b8 253d c514 043d a52a 813e
000001c0: d771 55be a276 94bd c3b2 b83b 350f 113e
000001d0: 24d8 203e 2fdc 9e3d 7f7a 263d 0d44 873d
000001e0: afd2 2abe 646e 673e b142 753e 01d5 1ebd
000001f0: 19a3 083e 235b 85be 2484 6a3e d377 e2bc
00000200: 044b dfbd 3e2e 77be 0fad 143e 8d14 15be
00000210: ec4c d23d e82b 54be fa48 c1bd c6b7 80bc
00000220: 0695 b43d f0f7 02be 9652 23bd 20dd 0dbe
00000230: 63ae 11be 3e64 423e e45f d13e 4243 1e3d
00000240: 445c 4dbd 0b0b 8dbd 0374 183e 13bc 143e
00000250: b4d0 3e3e 44fe 173e 2a05 b4bd f3a4 623e
00000260: a224 363e 83f1 74be 527f d53d 6502 c8bd
00000270: 9791 f7bd 056b c9bd 459e 8439 7c03 ae3e
00000280: 6ea4 b1bd 2aee 82be 1f4b 04be 70ca 503d
00000290: 2c25 54bb 715e b13d c028 8b3d a32c 143e
000002a0: 47fc b43d 66a5 0abb e5a6 07bc 5723 0a3e
000002b0: 57fb 8c3c 9bfc ef3d 4bc2 8e3e e3e3 44be
000002c0: a1ff d63c 397b fabd 6a14 61bd 5616 543d
000002d0: 8d2c 0a3e b8e0 2bbe 81c2 83bd 0c39 7a3d
000002e0: 2165 8cbe bd55 2cbe fbfd 0bbb 2df8 b5bd
000002f0: e76a 99bd 7424 9a3d e815 b73d 9893 343e
00000300: 671e 39bc e8ee dc3d cb65 b7bd 3234 69be
00000310: 7e78 bc3c 0260 e0bd 0db8 7e3e 086a 8dbd
00000320: 07ef c1bc cf1e 8dbc 2942 bb3d 7faa 7abe
00000330: d2f5 8d3d 088d 84be 2803 85bd d24a 1f3e
00000340: e050 c1bd 8a2c 873d c9b0 99bd 2ef8 f5bd
00000350: b226 d3bc b494 4c3e 38c6 0cbd 71e3 2ebe
00000360: 957e 01be 4626 24bb 5aec 6cbe 56be 843c
00000370: 6c1e be3d d0af 50be 203c 10bd 39c8 303e
00000380: d9aa 13be db83 f33d 7f96 c23b fe74 803e
00000390: 4019 ffbd b62d b8bd 6996 88bc 4ee0 08be
000003a0: 70d8 24be 865b a73e f493 283d 4a8f bcbc
000003b0: dc1f ff3d e7bf 57be 929a 783c d3b5 3f3e
000003c0: a513 953d 96ee 4ebe 9162 09bc dd6f dfbc
000003d0: 3503 08bd e888 8e3d f9d6 eb3d 09d0 54bd
000003e0: 45e9 14be d88d 603d 529d e13d dc30 1fbc
000003f0: 5477 b1bc eab9 8fbe a24d dfbd dcc2 b2be

Mixer_Block.0.mlp_block_token_mixing_DynaMixerOperation.fc_out.bias f4 [66]
0.24648951 0.15837476 0.5019625 0.36411896 -0.28162774 -0.033258867 -0.3819352 0.30579534
-0.30362198 0.3755281 -0.33891168 0.38363525 -0.19510183 0.3908766 -0.052362353 0.71179956
0.24951787 -0.2549717 -0.3825097 0.33995593 -0.28142747 -0.38377258 -0.46490481 -0.34330148
-0.2204001 0.19709115 0.5569506 0.33008674 0.13040726 0.43181825 0.36877877 0.3742402
-0.006696836 0.05064406 -0.15511604 0.2500488 -0.07962674 0.23868501 -0.4137578 -0.12547086
-0.04426532 0.14180492 0.24670906 -0.5623364 -0.2533419 -0.13436288 -0.5079743 -0.33799195
0.035105657 -0.16265632 -0.21548848 -0.48450616 -0.28008306 -0.43152627 0.3955922 -0.013508066
0.18890134 -0.25064296 -0.03926091 -0.09830646 -0.33518615 -0.029190011 -0.41738275 0.13618527
0.0988238 -0.35920465
00000000: bf67 7c3e fe2c 223e 9d80 003f cd6d ba3e
00000010: 8331 90be 733a 08bd 038d c3be 3591 9c3e
00000020: 5774 9bbe 3845 c03e d585 adbe d76b c43e
00000030: c6c8 47be fa20 c83e e879 56bd 7f38 363f
00000040: 9d81 7f3e a78b 82be 50d8 c3be b40e ae3e
00000050: 4317 90be d77d c4be 0108 eebe 36c5 afbe
00000060: 90b0 61be 43d2 493e 5194 0e3f 2101 a93e
00000070: 7b89 053e 4817 dd3e 92d0 bc3e 699c bf3e
00000080: 2271 dbbb 2570 4f3d bdd6 1ebe 6506 803e
00000090: 5813 a3bd d869 743e 10d8 d3be 6f7b 00be
000000a0: 8d4f 35bd 4f35 113e 4da1 7c3e 47f5 0fbf
000000b0: 08b6 81be 6c96 09be 9b0a 02bf 480d adbe
000000c0: f3ca 0f3d 618f 26be 03a9 5cbe 3111 f8be
000000d0: 0c67 8fbe 03f1 dcbe 108b ca3e ef50 5dbc
000000e0: 5a6f 413e 4654 80be 0cd0 20bd e654 c9bd
000000f0: 859d abbe e41f efbc 31b3 d5be 2774 0b3e
00000100: 2264 ca3d ace9 b7be

Mixer_Block.0.mlp_block_token_mixing_DynaMixerOperation.LN.weight f4 [10]
1.7247411 1.0514205 0.67582655 0.93669814 0.53841645 0.5409455 0.62009764 0.68620086
0.46276477 0.6565611
00000000: 51c4 dc3f f294 863f f802 2d3f 73cb 6f3f
00000010: a9d5 093f 677b 0a3f b8be 1e3f dcaa 2f3f
00000020: 81ef ec3e 6314 283f

Mixer_Block.0.mlp_block_token_mixing_DynaMixerOperation.LN.bias f4 [10]
0.26865163 0.056379426 0.047605544 -0.012710401 -0.12771168 -0.0225061 -0.068034545 -0.21536982
0.04217219 -0.0003356792
00000000: b58c 893e 1dee 663d 08fe 423d 493f 50bc
00000010: dac6 02be b65e b8bc b255 8bbd e889 5cbe
00000020: bfbc 2c3d 19fe afb9

Mixer_Block.0.mlp_block_channel_mixing_DynaMixerOperation.fc_ND.weight f4 [1, 10]
-0.5992036 0.34948966 -0.04898105 0.079687856 0.005319171 0.07544594 0.008180054 0.068519935
-0.050612897 -0.074984625
00000000: 6865 19bf 4ff0 b23e 5aa0 48bd 6333 a33d
00000010: 714c ae3b 6783 9a3d a205 063c 2e54 8c3d
00000020: 784f 4fbd 8a91 99bd

Mixer_Block.0.mlp_block_channel_mixing_DynaMixerOperation.fc_Nd.weight f4 [484, 22]
-0.013211333 -0.17312087 -0.18033865 -0.28841358 -0.44748044 0.19508007 -0.1763161 0.12023437
-0.15477158 0.2406033 -0.023794187 0.20609054 -0.0056641875 0.036647744 0.058475718 -0.010772245
-0.059718803 0.20327212 0.023250518 0.15902695 -0.35787532 0.115193956 0.331119 -0.188315
0.028322645 0.17161225 0.36499965 0.089985326 0.26604766 -0.17892942 0.23998475 -0.15746465
-0.0065959557 -0.047145747 0.25903636 -0.001709025 0.088094085 0.00088047 -0.0048933495 -0.2215935
0.08756394 -0.12193551 0.18242557 0.06481668 -0.32883027 0.3309971 0.01877114 0.027501365
-0.15281318 -0.03181986 -0.1946313 -0.07181977 0.36021352 -0.10548056 0.16093883 -0.24817136
0.06999031 0.22567089 -0.17011276 0.02063099 0.058805835 0.15778477 0.08491297 0.0052050054
-0.32700568 -0.103030466 -0.05534746 -0.13533634 0.122248694 0.007983354 0.15638626 0.11037852
-0.111250564 -0.18203753 0.28300902 -0.24862637 0.1748241 0.10258098 -0.16340263 0.30501163
0.0433468 0.21394485 -0.043103952 -0.3044555 -0.010705137 0.12080221 -0.23371339 -0.45874086
-0.15500976 0.07576863 0.2813674 0.23365636 0.18511298 -0.026429407 0.03392539 0.18406805
0.44506076 0.07881803 0.18670337 -0.16486056 -0.09278399 0.05673856 -0.015786653 -0.26386416
0.08208354 0.17869583 -0.015639476 0.23770396 -0.09790687 0.23844427 0.10441343 -0.1642821
0.047925595 0.15313564 0.28998563 -0.07263419 -0.038646746 0.06875118 -0.21643448 0.26691523
0.037167277 0.3405624 -0.28390735 0.2537975 0.4639998 -0.07045848 0.11054884 0.056584615
0.14944702 -0.1283749 -0.054845847 -0.062914126 0.13885854 -0.1671434 0.07928293 0.021859527
-0.24591541 -0.10688549 -0.14226148 -0.33268997 0.12174061 -0.008308385 0.034452576 -0.2584783
-0.32924724 -0.08002776 -0.13973176 -0.0715843 -0.18439658 -0.22213168 -0.33253184 0.16365026
0.42786527 -0.31739765 0.047220033 0.35829893 -0.059576076 -0.10855443 -0.22314449 -0.018795276
0.26036736 -0.17390245 0.22927375 -0.08020108 -0.19679123 0.0033979244 -0.2958988 0.040579505
0.32966545 0.24932323 0.15762535 -0.41639876 -0.19196646 -0.04375577 -0.040558044 -0.11455012
0.14716043 0.39345437 -0.077497944 0.028952241 0.027411891 0.4411337 -0.10446882 -0.12928806
0.023315046 0.092494845 0.02253839 0.13108523 -0.008525187 -0.1061004 -0.2873586 0.21052077
-0.35178432 0.11371854 -0.055559665 0.15186107 0.014353925 0.24489188 0.20912318 0.083975025
0.43008417 0.12559412 -0.076379985 -0.13912061 -0.084621266 0.06420784 0.07921722 0.015503463
-0.04270506 0.16995014 0.30415046 0.26357558 0.23225722 -0.032957375 0.29763082 -0.063616686
0.14158207 -0.07182098 0.2112176 -0.115561426 0.29982987 -0.54147947 -0.003037995 0.2653982
-0.29546198 -0.4199265 0.19982226 0.29374757 -0.20946412 -0.4134378 -0.08482337 -0.07042228
-0.03866591 -0.19710839 -0.451236 -0.16051236 0.025121365 -0.21921246 -0.21848543 0.16656904
-0.22570175 -0.12194326 0.00428012 0.10947515 -0.26740277 0.15530047 -0.08064992 0.31046686
0.117532074 -0.14326087 -0.59988844 0.07690889 0.20127533 0.10849403 -0.002110018 0.08737328
00000000: 5974 58bc 9946 31be b2aa 38be f2aa 93be
00000010: 281c e5be 12c3 473e 358c 34be 703d f63d
00000020: 717c 1ebe b660 763e 07ec c2bc 6609 533e
00000030: a69a b9bb f21b 163d 3c84 6f3d 127e 30bc
00000040: b49b 74bd 9126 503e df77 be3c f6d7 223e
00000050: 6f3b b7be cfea eb3d 6e88 a93e a6d5 40be
00000060: e404 e83c 1fbb 2f3e 3ce1 ba3e 3a4a b83d
00000070: 6637 883e 4639 37be 90be 753e 6a3e 21be
00000080: e322 d8bb e61b 41bd 6aa0 843e 5d01 e0ba
00000090: ac6a b43d 57cf 663a 6458 a0bb 68e9 62be
000000a0: b954 b33d 53b9 f9bd c5cd 3a3e 9cbe 843d
000000b0: 715c a8be 7478 a93e efc5 993c 8b4a e13c
000000c0: 0f7b 1cbe 8b55 02bd 6d4d 47be 3e16 93bd
000000d0: e86d b83e 3106 d8bd 26cd 243e a220 7ebe
000000e0: 1457 8f3d 4516 673e 0a32 2ebe 5202 a93c
000000f0: 63de 703d 5592 213e dae6 ad3d c08e aa3b
00000100: 4a6d a7be a301 d3bd 05b4 62bd 9c95 0abe
00000110: 865d fa3d 9dcc 023c b823 203e 220e e23d
00000120: 56d7 e3bd 0c68 3abe 8fe6 903e e997 7ebe
00000130: 1705 333e fa15 d23d 0553 27be 7c2a 9c3e
00000140: 6a8c 313d 5c14 5b3e c58d 30bd 97e1 9bbe
00000150: 9964 2fbc 2667 f73d 9052 6fbe 15e0 eabe
00000160: e1ba 1ebe 952c 9b3d 630f 903e 9d43 6f3e
00000170: 428e 3d3e 7c82 d8bc 5af5 0a3d 567c 3c3e
00000180: 01df e33e 596b a13d 2b2f 3f3e 35d1 28be
00000190: 8805 bebd b166 683d 0353 81bc 3419 87be
000001a0: 6a1b a83d 0afc 363e 5c1e 80bc ab68 733e
000001b0: 6683 c8bd bc2a 743e b5d6 d53d 9139 28be
000001c0: a14d 443d 97cf 1c3e ff78 943e 3cc1 94bd
000001d0: 0d4c 1ebd 6bcd 8c3d 00a1 5dbe 1da9 883e
000001e0: b73c 183d 325e ae3e 4e5c 91be bff1 813e
000001f0: 6291 ed3e 894c 90bd 6e67 e23d 45c5 673d
00000200: a408 193e b674 03be 0aa6 60bd 1fd9 80bd
00000210: ef30 0e3e a427 2bbe 175f a23d c012 b33c
00000220: 40d1 7bbe c8e6 dabd feac 11be 5756 aabe
00000230: 2453 f93d e41f 08bc 251e 0d3d 4557 84be
00000240: 1893 a8be 98e5 a3bd d815 0fbe ca9a 92bd
00000250: 75d2 3cbe 7d76 63be 9d41 aabe ef93 273e
00000260: 2811 db3e f281 a2be cb69 413d f572 b73e
00000270: 0b06 74bd c951 debd fd7f 64be 8df8 99bc
00000280: df4e 853e 7c13 32be bdc6 6a3e 7740 a4bd
00000290: a483 49be b6af 5e3b 0c80 97be b236 263d
000002a0: e9c9 a83e 974e 7f3e 8a68 213e 3832 d5be
000002b0: db92 44be 4039 33bd 3120 26bd 4199 eabd
000002c0: 39b1 163e da72 c93e 3eb7 9ebd 402d ed3c
000002d0: e78e e03c 47dc e13e c0f3 d5bd 1764 04be
000002e0: 32ff be3c f06d bd3d 6ea2 b83c 353b 063e
000002f0: 3aad 0bbc 2b4b d9bd ab20 93be c292 573e
00000300: 131d b4be 44e5 e83d 8892 63bd 7881 1b3e
00000310: ba2c 6b3c f0c4 7a3e 6324 563e 19fb ab3d
00000320: fe33 dc3e bf9b 003e 1c6d 9cbd a275 0ebe
00000330: ea4d adbd 667f 833d a33c a23d 3d02 7e3c
00000340: 80eb 2ebd 6907 2e3e 9cb9 9b3e 61f3 863e
00000350: d6d4 6d3e 50fe 06bd 1163 983e 7749 82bd
00000360: e4fa 103e e116 93bd 6d49 583e 78ab ecbd
00000370: 4d83 993e 669e 0abf 1919 47bb 46e2 873e
00000380: cb46 97be 9b00 d7be 359e 4c3e 1566 963e
00000390: c37d 56be 1fae d3be e0b7 adbd 8e39 90bd
000003a0: 2560 1ebd c8d6 49be 6808 e7be 5a5d 24be
000003b0: 52cb cd3c 3b79 60be a5ba 5fbe 1391 2a3e
000003c0: 5c1e 67be 63bd f9bd 4040 8c3b 8234 e03d
000003d0: 04e9 88be 1607 1f3e c92b a5bd 83f5 9e3e
000003e0: a8b4 f03d fab2 12be 4a92 19bf 6882 9d3d
000003f0: 1f1b 4e3e 1e32 de3d 3a48 0abb c3f0 b23d

Mixer_Block.0.mlp_block_channel_mixing_DynaMixerOperation.fc_Nd.bias f4 [484]
-0.23230384 0.3242991 -0.27830577 -0.030279696 0.24311465 0.35208988 -0.21127823 -0.019705752
-0.01323084 0.16581015 -0.28537127 0.037122846 -0.20334266 -0.22349685 0.10371375 0.025007904
-0.09690476 -0.018612439 0.3526336 0.1311001 0.12114123 -0.05396813 0.13161822 0.06744024
-0.2508917 -0.1835941 0.032421976 0.10017256 -0.32698083 -0.11547203 0.0032613345 0.33727762
-0.07039208 0.25181943 0.49039584 -0.1965522 0.10724365 -0.04944734 -0.073891476 -0.14568043
-0.026960056 0.14278369 0.17658217 -0.27317473 -0.18423557 -0.43221134 0.16443664 -0.06940256
0.117323115 -0.16555126 0.3797043 -0.057090238 -0.22382194 0.02207679 0.43874693 -0.07970979
-0.10926371 0.039055336 -0.3860587 -0.08197963 0.11833154 -0.12480646 -0.10724169 -0.21810487
0.03560138 0.2947784 -0.34028983 -0.25908607 0.14742737 0.0057353987 0.0022752983 0.05576794
0.46053204 -0.18546595 0.17175718 -0.21516296 -0.044094566 -0.077512935 -0.122159906 -0.12528121
-0.30397832 -0.24268013 -0.01369219 -0.3242363 -0.4107646 -0.012489474 0.3922548 0.27760923
-0.061001603 -0.16517638 0.20202433 0.15964423 -0.4588243 0.09333013 -0.004330376 -0.106356904
0.20380355 0.18423223 -0.11801025 -0.19828044 0.15773858 0.023132352 0.25816303 -0.13847995
-0.067321144 -0.023961252 0.08713799 0.18309993 -0.3006538 -0.0010040533 -0.014710317 0.046835303
0.024011098 0.42105675 0.008503936 -0.27788228 -0.03637744 -0.23611838 0.10827959 0.042075492
-0.18539576 -0.051811635 -0.09843727 -0.024239415 -0.21508284 -0.17815793 0.30100518 0.091177374
-0.26460856 -0.15671523 0.27134755 -0.10474286 0.11626283 0.43681985 -0.23168336 -0.10056591
-0.02888181 0.1398752 0.13894008 0.009714455 0.09491214 -0.015394192 0.026054818 0.08006674
-0.00452564 -0.052394215 0.29871938 0.052159894 -0.0051077884 0.0767889 0.18422493 0.25392905
0.06397187 -0.12614891 0.40639293 -0.053444523 -0.050803054 -0.16506578 -0.07478942 0.19947797
0.083830625 -0.12269439 0.23467487 0.06427403 -0.1341047 -0.14652114 0.43209106 -0.055578213
0.1950771 -0.094058685 -0.192625 -0.19451082 -0.03883315 0.011919503 -0.14014867 -0.28743282
-0.21318346 -0.46901983 0.3004627 0.11573625 0.3378601 -0.2747083 0.42611775 0.1429527
-0.40756088 0.22354516 0.35730976 0.011593406 -0.077028476 0.22538571 -0.26749277 -0.2929436
0.39174765 0.014629985 -0.15971556 -0.2989497 0.2427232 0.25870186 -0.20592743 -0.1399625
-0.16773304 -0.06694496 0.050039742 0.0037024845 0.39629415 0.08027219 -0.17787154 0.10006549
0.16031139 0.02211988 0.03581228 -0.16418025 0.04894828 -0.15367787 0.11938003 -0.051313125
-0.3253761 -0.29767892 -0.18477614 0.13392954 0.16751616 -0.035573334 0.15443414 0.025932971
0.18796761 -0.15790716 0.044185437 0.08778111 0.27123982 -0.3017677 0.2008869 0.00034727162
0.08733942 -0.025278907 -0.101366304 -0.065043755 -0.1569988 -0.27066317 -0.10519077 -0.05691201
0.24659337 -0.053209685 0.12849435 0.005432946 -0.3605644 -0.17048298 -0.20320827 0.27023125
-0.12266854 -0.123731956 0.18723483 0.05572303 -0.29056746 -0.050609443 -0.049492978 0.023892874
00000000: 0fe1 6dbe 880a a63e 187e 8ebe 200d f8bc
00000010: 0cf3 783e 2045 b43e 5259 58be f56d a1bc
00000020: 2ac6 58bc 23ca 293e 2f1c 92be 200e 183d
00000030: 0f39 50be 5cdc 64be e067 d43d 60dd cc3c
00000040: 0176 c6bd 1d79 98bc 648c b43e 1b3f 063e
00000050: e518 f83d b00d 5dbd edc6 063e 1c1e 8a3d
00000060: e074 80be 1700 3cbe e8cc 043d 4527 cd3d
00000070: 086a a7be 9a7c ecbd 1dbc 553b a7af ac3e
00000080: b929 90bd 7aee 803e 2a15 fb3e fb44 49be
00000090: 8fa2 db3d 4b89 4abd 6a54 97bd 402d 15be
000000a0: 56db dcbc e335 123e f5d1 343e 8fdd 8bbe
000000b0: 40a8 3cbe ce4a ddbe 1462 283e ee22 8ebd
000000c0: 1a47 f03d 4586 29be 9a68 c23e 74d7 69bd
000000d0: 9431 65be 62da b43c 70a3 e03e e33e a3bd
000000e0: a7c5 dfbd 7df8 1f3d 7ca9 c5be f0e4 a7bd
000000f0: ce57 f23d 889a ffbd 88a1 dbbd e256 5fbe
00000100: c1d2 113d 32ed 963e 783a aebe eea6 84be
00000110: 33f7 163e 03f0 bb3b 2c1d 153b ec6c 643d
00000120: dbca eb3e c9ea 3dbe 1de1 2f3e ae53 5cbe
00000130: 819c 34bd 1abf 9ebd f92e fabd b849 00be
00000140: 0ca3 9bbe 2481 78be 3555 60bc 4d02 a6be
00000150: bd4f d2be a7a0 4cbc 9fd5 c83e cc22 8e3e
00000160: d1dc 79bd ff23 29be 77df 4e3e c779 233e
00000170: 05eb eabe de23 bf3d d4e5 8dbb a6d1 d9bd
00000180: e1b1 503e 60a7 3c3e 5caf f1bd 070a 4bbe
00000190: 3986 213e 0f80 bd3c f22d 843e b0cd 0dbe
000001a0: abdf 89bd 634a c4bc 6775 b23d 8c7e 3b3e
000001b0: 4bef 99be 709a 83ba 8b03 71bc 60d6 3f3d
000001c0: ecb2 c43c c094 d73e 1854 0b3c 9646 8ebe
000001d0: 8300 15bd 04c9 71be b1c1 dd3d 5a57 2c3d
000001e0: 63d8 3dbe 7038 54bd 7b99 c9bd bd91 c6bc
000001f0: ad3e 5cbe 086f 36be 5a1d 9a3e 34bb ba3d
00000200: c67a 87be f579 20be 11ee 8a3e 6d83 d6bd
00000210: 351b ee3d daa6 df3e 673e 6dbe 80f5 cdbd
00000220: 8c99 ecbc 723b 0f3e 4f46 0e3e 6129 1f3c
00000230: 4c61 c23d ec37 7cbc ea70 d53c 08fa a33d
00000240: d24b 94bb 519b 56bd bff1 983e 9da5 553d
00000250: 3c5f a7bb 8043 9d3d 76a5 3c3e fd02 823e
00000260: af03 833d 2e2d 01be bc12 d03e a5e8 5abd
00000270: dd16 50bd 0107 29be 322b 99bd f443 4c3e
00000280: 64af ab3d 3247 fbbd 9c4e 703e 1aa2 833d
00000290: be52 09be a309 16be 0a3b dd3e fba5 63bd
000002a0: 4bc2 473e d7a1 c0bd 7d3f 45be d82d 47be
000002b0: 820f 1fbd 054a 433c 2283 0fbe 652a 93be
000002c0: c44c 5abe 5e23 f0be 3fd6 993e 2107 ed3d
000002d0: 00fc ac3e 91a6 8cbe 1b2c da3e 3162 123e
000002e0: d2ab d0be 06e9 643e 4ef1 b63e 45f2 3d3c
000002f0: 1bc1 9dbd 83cb 663e d0f4 88be b4fc 95be
00000300: 2693 c83e 9bb2 6f3c 7a8c 23be ef0f 99be
00000310: 6e8c 783e 9274 843e a4de 52be 5452 0fbe
00000320: 36c2 2bbe 701a 89bd 79f6 4c3d 62a5 723b
00000330: 11e7 ca3e bf65 a43d f523 36be 23ef cc3d
00000340: ab28 243e c034 b53c e6af 123d de1e 28be
00000350: fe7d 483d bb5d 1dbe 847d f43d b62d 52bd
00000360: b297 a6be 5f69 98be f535 3dbe d324 093e
00000370: 5b89 2b3e 58b5 11bd fc23 1e3e 6271 d43c
00000380: 957a 403e 6ab2 21be cafb 343d 95c6 b33d
00000390: f2df 8a3e 4c81 9abe 4cb5 4d3e 0212 b639
000003a0: 03df b23d b615 cfbc 2399 cfbd a935 85bd
000003b0: 4bc4 20be 5d94 8abe 426e d7bd 911c 69bd
000003c0: f982 7c3e 66f2 59bd 0694 033e db06 b23b
000003d0: e69b b8be 1793 2ebe d415 50be c05b 8a3e
000003e0: a539 fbbd 2e67 fdbd 7dba 3f3e d53d 643d
000003f0: 42c5 94be d94b 4fbd 26b9 4abd fdba c33c

Mixer_Block.0.mlp_block_channel_mixing_DynaMixerOperation.fc_out.weight f4 [10, 10]
0.4692714 -0.252779 0.013195564 -0.33055934 -0.23553818 -0.3723219 -0.22515057 -0.38640276
-0.31353086 -0.15953028 0.013274418 -0.04734966 -0.042286273 -0.18926744 -0.17157178 -0.27196944
-0.23159981 -0.41394934 -0.08638354 -0.04137723 -0.33480313 -0.31171712 -0.089854434 -0.13134474
-0.056847304 -0.13442577 -0.050939545 -0.19210587 -0.025838781 -0.18705893 -0.10798882 0.40590712
-0.004413126 0.23093946 0.12016281 0.044049397 0.017857382 0.08522231 -0.11802833 0.06354622
-0.13915926 0.45495972 0.20270373 0.4331021 0.28351092 0.11967931 0.044308532 0.22313014
0.07556586 0.20927237 0.12860069 -0.2327741 0.071442425 -0.09919959 -0.068005435 -0.045252442
0.0288532 -0.047796246 -0.001342112 -0.07125515 -0.6315204 0.2266698 -0.090861514 -0.15417486
-0.20792538 -0.012620092 0.023280688 -0.23077382 -0.04127312 0.08275907 0.5951777 0.20157649
0.118734896 -0.048323818 0.013847569 -0.021063682 0.040486265 -0.06727823 0.21619943 0.38944975
-0.46986312 0.43550047 -0.001773938 -0.0461405 -0.11623019 -0.17527828 -0.19758183 -0.108391345
-0.12739693 -0.1901738 -0.9932014 0.10473651 -0.20353161 0.038658887 -0.040114656 0.08319651
0.04520646 0.14792098 0.09174369 0.23720002
00000000: 5744 f03e 406c 81be 3532 583c 133f a9be
00000010: ec30 71be faa0 bebe df8d 66be 95d6 c5be
00000020: 1e87 a0be e85b 23be f27c 593c b8f1 41bd
00000030: 5f34 2dbd 53cf 41be 83b0 2fbe 943f 8bbe
00000040: 8028 6dbe 2bf1 d3be dae9 b0bd 2c7b 29bd
00000050: 516b abbe 6399 9fbe 9a05 b8bd 3c7f 06be
00000060: b8d8 68bd e9a6 09be fca5 50bd 67b7 44be
00000070: daab d3bc 608c 3fbe 3e29 ddbd 0fd3 cf3e
00000080: fc9b 90bb 657b 6c3e eb17 f63d 246d 343d
00000090: a549 923c 0989 ae3d d6b8 f1bd 8524 823d
000000a0: c47f 0ebe 7bf0 e83e 9191 4f3e 8fbf dd3e
000000b0: 5828 913e 6d1a f53d dd7c 353d 3a7c 643e
000000c0: 46c2 9a3d 7f4b 563e e6af 033e 555c 6ebe
000000d0: 6850 923d 2829 cbbd 6f46 8bbd a05a 39bd
000000e0: 8c5d ec3c ffc5 43bd cee9 afba 38ee 91bd
000000f0: 52ab 21bf 211c 683e 9a15 babd 04e0 1dbe
00000100: 64ea 54be 81c4 4ebc 24b7 be3c f94f 6cbe
00000110: 010e 29bd 967d a93d 915d 183f 116a 4e3e
00000120: 482b f33d 32ef 45bd eae0 623c be8d acbc
00000130: edd4 253d 2bc9 89bd 6263 5d3e f565 c73e
00000140: e691 f0be ebf9 de3e 7b83 e8ba d2fd 3cbd
00000150: 180a eebd 267c 33be e452 4abe 48fc ddbd
00000160: 5774 02be ecbc 42be 7242 7ebf 1880 d63d
00000170: 976a 50be c858 1e3d 444f 24bd ef62 aa3d
00000180: 692a 393d 9978 173e 1ee4 bb3d 90e4 723e

Mixer_Block.0.mlp_block_channel_mixing_DynaMixerOperation.fc_out.bias f4 [10]
-0.7250149 -0.92696035 -0.02932614 0.0376484 0.2762986 -0.5621489 0.35391966 -0.20273277
-0.4849591 0.17192304
00000000: 949a 39bf 464d 6dbf 603d f0bc 3535 1a3d
00000010: 0377 8d3e fee8 0fbf f534 b53e 2e99 4fbe
00000020: 8f4c f8be 980c 303e

Mixer_Block.0.mlp_block_channel_mixing_DynaMixerOperation.LN.weight f4 [22]
0.9746648 1.1269413 1.0026637 0.90195453 1.0257075 1.0920317 0.9806587 1.190242
1.0590885 1.156063 1.0806408 1.0480616 0.7920787 1.2184815 1.0106999 0.8412077
1.1708467 0.9739051 1.1463047 1.0734901 0.9416085 1.0875756
00000000: a283 793f 9d3f 903f 4957 803f 7ee6 663f
00000010: 624a 833f b2c7 8b3f 730c 7b3f da59 983f
00000020: 3690 873f dff9 933f 7052 8a3f e226 863f
00000030: abc5 4a3f 34f7 9b3f 9d5e 813f 6359 573f
00000040: 4ede 953f d851 793f 1dba 923f 2068 893f
00000050: 410d 713f ad35 8b3f

Mixer_Block.0.mlp_block_channel_mixing_DynaMixerOperation.LN.bias f4 [22]
0.11614358 0.2041017 -0.16377553 -0.1816031 -0.1416193 0.11777992 -0.0711151 0.025768789
-0.027673077 0.10170172 -0.08855444 -0.21394038 0.07772645 -0.023999536 0.12942038 0.079412274
-0.21921211 -0.028819015 0.10628089 0.051037565 -0.119967595 -0.24424006
00000000: afdc ed3d 0900 513e c6b4 27be 2af6 39be
00000010: a604 11be 9936 f13d cba4 91bd 1119 d33c
00000020: a6b2 e2bc fe48 d03d 085c b5bd 3013 5bbe
00000030: 0c2f 9f3d ad9a c4bc c786 043e e7a2 a23d
00000040: 2479 60be db15 ecbc cca9 d93d c40c 513d
00000050: 92b1 f5bd 111a 7abe
