M_2_AST/MotionMixer-main/h36m/run_for_longging/exp228/model.pt (torch, 870893 bytes, 184 tensors)

Mixer_Block.0.mlp_block_token_mixing.fc1.weight f4 [20, 10]
000000 df 21 f4 3d c0 04 1c be 1f 8e 64 3b 95 36 e4 3d
       0.11920523 -0.15236187 0.003487475 0.11143223
000010 c1 bf f4 3e 1d 9d 94 be 91 bd 12 3f 25 88 dc be
       0.47802547 -0.29026118 0.57320505 -0.4307262
000020 79 09 33 3f 5b d4 d6 be 9d 1c 5e 3c 3c 3c 7b bd
       0.6993633 -0.4195889 0.013556627 -0.06133674
000030 a2 b8 cf bc 5b 56 a3 be 25 e4 bf 3d a2 f0 bf be
       -0.025356594 -0.31901821 0.09369687 -0.37488276
000040 2a c3 4f 3f 91 7b 49 be 3e 44 6a 3f 12 a9 21 3e
       0.8115717 -0.19676043 0.9151038 0.15787151
000050 54 bc d3 be b4 42 83 3c 4b f8 7c bd 4b 51 08 3f
       -0.4135462 0.016023017 -0.061760228 0.53249043
000060 e9 e9 64 3e fd 0a 3b 3e 6e 2d a9 be 22 9e 62 bf
       0.22354855 0.1826591 -0.33042473 -0.8852254
000070 07 2f ba be 00 9a 6d be 85 18 5e be e2 65 b1 3e
       -0.36364004 -0.23203278 -0.21689041 0.34648043
000080 61 3c a3 bd e6 42 9c 3e 03 9f a4 be 69 b0 80 be
       -0.07970501 0.3051979 -0.32152566 -0.2513459
000090 5c 68 0f bf 19 8e 7e 3f 19 c6 e3 be 3b 37 fd 3e
       -0.56018615 0.99435574 -0.44487074 0.494562
0000a0 c0 7b c9 be 49 8f ad 3d 91 97 86 be ca d4 e3 3e
       -0.39352226 0.08474595 -0.2628751 0.44498283
0000b0 0d f1 d2 be 1b 04 18 3f be c1 6c be 1a 01 b8 3d
       -0.41199532 0.59381264 -0.23120782 0.08984585
0000c0 46 4d 83 be da 41 f5 3e 90 d6 07 3e ac d9 b5 3e
       -0.25644892 0.47901803 0.13265443 0.35517633
0000d0 25 b8 bb be b0 ef 12 3d c0 78 ba be c5 66 23 3f
       -0.3666393 0.035873115 -0.3642025 0.6382869
0000e0 ab f2 fc be aa 17 35 3f f0 a3 26 bf 79 f1 8b 3e
       -0.4940389 0.70739233 -0.650939 0.27332667
0000f0 7e 3f cd be a5 14 83 3e 23 96 27 3d 1a 95 d5 bd
       -0.40087503 0.25601688 0.040914666 -0.104288295
000100 5f 4f 43 bf 71 40 a2 3e 19 8f e8 be 68 6e fd 3e
       -0.76292986 0.3168979 -0.45421675 0.49498296
000110 95 18 6b bf 9b 08 07 3e 9d af 0a 3f 66 cf 39 be
       -0.91834384 0.13186876 0.54174215 -0.18145522
000120 89 2a e5 3e 52 93 7c be 09 47 4b 3e 50 9f 1c bf
       0.44759014 -0.24665573 0.19851317 -0.6118059
000130 48 fe 4c bf d7 ad 05 3f db 15 dd 3e 48 a0 80 3c
       -0.800755 0.52218384 0.43180737 0.015701428
000140 5f 56 84 bd cb b9 ed 3d 27 cd d8 bc 7d 05 02 bf
       -0.064617865 0.11607703 -0.026465012 -0.50789624
000150 ba fe c0 be 17 ef 85 3f 45 4e 54 be 60 4f 87 3e
       -0.3769434 1.046359 -0.20732982 0.26427746
000160 27 81 2f 3f 8a 1e 60 3e b5 ab 1e be 19 d9 9b be
       0.68556446 0.2188665 -0.15495189 -0.3043907
000170 7f 21 2a 3e a0 c4 65 3e f0 93 11 bc e7 93 68 bf
       0.1661434 0.22438288 -0.008885369 -0.9085068
000180 7d ed 82 3d 1e b9 ba bd 08 b1 f8 be 5a bc 92 3e
       0.063929535 -0.091173396 -0.48572564 0.28659326
000190 9e 89 e9 3d aa ca d4 bd 46 6f 69 3d 08 e6 51 bf
       0.114032015 -0.103902176 0.056990884 -0.81991625
0001a0 97 85 bc be ac 71 14 bf af 0f 09 3f cf 20 99 bf
       -0.3682067 -0.5798595 0.53539556 -1.1963137
0001b0 41 7c cf 3e e9 d6 14 bf 51 67 b9 3e 1e 8e c7 bd
       0.40524486 -0.58140427 0.36211637 -0.097439036
0001c0 31 e3 8d 3e c3 ca 01 3d c3 09 1a 3f a6 c4 4a be
       0.27712396 0.03168751 0.60171145 -0.19801578
0001d0 12 48 d8 3e c4 f3 1f bf 64 f5 02 3f 58 81 66 bd
       0.42242485 -0.6248133 0.51155686 -0.056275696
0001e0 cb b8 28 3e 65 b8 e2 be c6 4c 2a 3e ce 11 d8 bd
       0.16476743 -0.44281307 0.16630849 -0.10550271
0001f0 d2 88 38 3e 73 68 26 bf 95 06 30 3f 9d 37 51 bf
       0.18020943 -0.65003127 0.68760043 -0.81725484
000200 5a 7f 98 3e ff 6b 9f be 73 bb 86 3e 5f 77 b8 be
       0.29784662 -0.31137082 0.26314887 -0.36028573
000210 23 97 82 3d 06 e2 b3 be a5 0c 56 3f c0 e3 e9 be
       0.06376483 -0.3513338 0.83613044 -0.45681572
000220 b1 f7 a1 bd dc 9d 78 3f 8e c2 f1 be cb 67 85 be
       -0.079085715 0.97115874 -0.47218746 -0.2605575
000230 96 60 f0 be 3a 18 b9 3e c8 7c 2f bf de 4d 22 3f
       -0.4694869 0.36151296 -0.68549776 0.63400066
000240 77 2f c4 bd d9 7c ba be 88 ee e3 3d cf 5f 19 3e
       -0.09579366 -0.36423376 0.111294806 0.14977954
000250 c2 ee e8 3e a5 92 1d 3e c7 51 e7 3e 5c 8a bf be
       0.45494658 0.15387972 0.4517958 -0.37410247
000260 9f 34 62 3e d2 e3 f3 be bd 6e 2e 3e ef 27 f1 be
       0.22090386 -0.4763475 0.17034431 -0.4710078
000270 09 b3 ef 3e cf 96 ad be 80 54 00 bc 57 be 70 3c
       0.4681628 -0.3390412 -0.007832646 0.014693818
000280 0f 72 17 be b2 f0 d5 bd 0d d1 86 3e 30 50 36 bf
       -0.14789604 -0.104462996 0.26331368 -0.71216106
000290 a8 6c a6 3e 1d 07 0e 3e c8 c1 81 3e 75 8b 3d 3f
       0.32504773 0.13869901 0.25343156 0.7404092
0002a0 35 6e 9e 3c d1 c6 56 bf 74 87 7a be df 04 56 3e
       0.01933966 -0.8389712 -0.24465734 0.20900296
0002b0 5f c6 31 bd f4 cd a5 3e cb db cf bd 3e 5a e4 3e
       -0.043402072 0.32383692 -0.10149344 0.446001
0002c0 4f 7e 57 bf 75 3e 61 3f 68 bd b4 be 3b 76 a8 3d
       -0.84177107 0.87985927 -0.35300756 0.08225676
0002d0 75 6b a5 3e 0a 36 2e bf 08 18 28 3e 06 fa 1d bf
       0.32308546 -0.6805121 0.16415417 -0.6170963
0002e0 f0 68 34 3f c3 2a 17 3f 3e 8b 16 bf 30 b0 a2 be
       0.7047262 0.59049624 -0.58806217 -0.31775045
0002f0 9c a1 81 be 89 0c af be c0 5f d8 be 6e 87 be 3e
       -0.2531861 -0.3418925 -0.4226055 0.372127
000300 e1 46 fa be 23 e4 fc 3e 9b 1d 33 bc 39 c0 ed 3e
       -0.488822 0.49392805 -0.010932351 0.46435717
000310 a2 e3 b4 be e1 d9 56 be d7 12 7c 3e e5 be cf be
       -0.3532992 -0.20981552 0.24616562 -0.40575328

Mixer_Block.0.mlp_block_token_mixing.fc1.bias f4 [20]
000000 da 8e 90 3e a5 e2 1e 3f 86 37 18 3f 4f b4 fd 3e
       0.28233987 0.6206458 0.5945972 0.49551627
000010 c8 77 a8 3e af ff 88 3e fc 30 95 3e 30 1c b5 3e
       0.32903886 0.2675757 0.29138935 0.35373068
000020 77 0b 05 3f 0d 86 f9 3e 1e b5 78 3e fe 6b 9e 3e
       0.5197062 0.48735085 0.2428784 0.30941767
000030 53 fb 6e 3e 3c e7 3d 3f bf 99 de 3e 76 93 62 3e
       0.2333806 0.7418096 0.43476674 0.22126564
000040 ed 2a f1 3e 6b 7a 60 3e 90 9b f1 3e 1f 69 a2 3e
       0.47103062 0.21921699 0.47188997 0.31720826

Mixer_Block.0.mlp_block_token_mixing.fc2.weight f4 [10, 20]
000000 23 18 ba 3d 97 03 19 be 25 f4 0b 3f 95 3f 50 be
       0.09086635 -0.14942776 0.5466941 -0.20336755
000010 85 36 16 bf 32 a9 3c bf 85 df 99 3e cb 3c a5 3d
       -0.5867694 -0.7369567 0.30053344 0.08068236
000020 9b d3 12 be 3e ef 41 3f 72 96 11 3e 93 a2 48 3e
       -0.14338534 0.7575568 0.14217547 0.19593267
000030 76 bf 02 3f 18 09 b0 bc 29 96 11 bf 37 0e e5 3e
       0.51073396 -0.021488711 -0.5686975 0.44737408
000040 88 1e 5a 3e 16 ca 88 be b1 ab 77 3e 76 a3 a2 be
       0.21300709 -0.2671668 0.24186589 -0.31765336
000050 ce 04 11 3e 7c d3 2e 3d ee 49 f7 3e e5 13 a7 bd
       0.14161989 0.042682156 0.4829859 -0.081580915
000060 06 11 11 3e 67 9f ae be 25 d9 0d be a2 25 1c bf
       0.1416665 -0.3410599 -0.13852365 -0.60994923
000070 92 79 7c be 88 9f 93 3e e6 7b bf bd 3a 93 d6 be
       -0.2465575 0.2883265 -0.093498036 -0.419092
000080 91 76 15 3e 2b 7b 1f bd ca 27 13 3f d3 df 34 bf
       0.1459601 -0.03893582 0.5748259 -0.7065403
000090 ed 52 4a 3d 8d 67 4a bd 02 38 b8 bd 12 96 07 3f
       0.04939549 -0.04941516 -0.08995058 0.52963364
0000a0 80 52 46 3e b8 00 8b 3e c1 cf 8e be 9e 40 da be
       0.19367409 0.27148986 -0.2789288 -0.42627424
0000b0 0b 74 a7 be df c4 4b be 3e d7 6e bf 0c b0 00 be
       -0.3270572 -0.19899319 -0.93297184 -0.12567157
0000c0 a8 c7 cc 3d 5e 9d a3 bd be e1 83 be 41 b2 db 3d
       0.09999019 -0.07989 -0.25758165 0.107273586
0000d0 1c 2a f8 bd 3a 22 22 3f 9f d8 f7 bc 29 ee e4 3e
       -0.12117407 0.63333476 -0.03025466 0.44712952
0000e0 28 79 a7 3e 2b 6f 2f bf f1 24 2f 3f 75 99 fb be
       0.32709622 -0.68529004 0.68415743 -0.49140516
0000f0 41 0e 3b bf 8d 73 22 3e c3 88 79 be 1b 67 43 be
       -0.73068625 0.15864392 -0.24368577 -0.190823
000100 55 c7 b6 3e 31 92 bb 3e 4a 18 75 3e a7 95 79 be
       0.35698953 0.36634973 0.23935047 -0.24373494
000110 61 0c 7b 3f c7 de 1a bf 5d 70 e5 bc 8f 5a 2f bf
       0.98065764 -0.6049618 -0.02800768 -0.68497556
000120 e7 87 40 bf cc 49 7d be c7 5d d0 be 4d 31 be be
       -0.7520737 -0.24735183 -0.40696546 -0.3714699
000130 51 f9 1a 3f 9a 89 8a 3e c8 f3 06 3e a6 9c 3b bd
       0.60536677 0.27058107 0.13178933 -0.04580369
000140 62 5e 9c 3f 77 13 9d 3f ed 08 dc be 76 8a 69 bd
       1.2216303 1.2271565 -0.4297556 -0.057016812
000150 6c 24 3e be 3f bc af be 56 92 06 be b2 69 a4 be
       -0.18568581 -0.34323308 -0.1314176 -0.3211189
000160 41 19 98 3b f5 cc 3f bd 4c 00 81 3f a7 d4 15 3f
       0.0046416824 -0.04682632 1.0078216 0.58527607
000170 85 89 14 3f 88 f4 ec be 7d b2 1e 3e 33 95 1f 3f
       0.5802234 -0.46280313 0.15497775 0.62337035
000180 07 e4 92 3e 17 1a 01 bf ca a6 6a bf af 36 14 bf
       0.28689596 -0.50430435 -0.9166075 -0.5789594
000190 c9 7a 24 be 22 ae 27 be 4e ba db be 13 a0 b3 3f
       -0.16062464 -0.1637502 -0.42915577 1.4033226
0001a0 b4 ba a4 3e 42 b7 9f 3e 0b cf f6 3e 76 19 6a 3e
       0.32173693 0.31194502 0.48204836 0.22861275
0001b0 e3 8a 9a be 59 ac d2 3e c9 2c e0 be a8 75 33 bd
       -0.30184087 0.41147116 -0.43784168 -0.043813378
0001c0 4b 72 e6 bd 8e 09 93 3e 90 77 04 3f 9a 7c 01 be
       -0.112522684 0.28718227 0.5174494 -0.12645188
0001d0 24 69 46 be 98 9c 87 3f 89 2f d9 be 29 8c 18 bf
       -0.19376045 1.0594664 -0.4241908 -0.5958887
0001e0 38 61 9a 3e f3 e4 ba 3c fb 45 4c 3e 70 b8 d4 bc
       0.30152297 0.02281425 0.1994857 -0.025966853
0001f0 df 3e 84 be 31 93 03 bf 9f f3 3a bf c3 49 27 3f
       -0.25829217 -0.5139647 -0.73027986 0.65346926
000200 59 4a b4 3e f1 6c db bd 84 51 ac be 84 86 9d 3e
       0.35212973 -0.10714138 -0.3365594 0.3076669
000210 ab 5b e5 bd af 39 18 be 7b fc 93 3e e4 8f c4 be
       -0.11199125 -0.14865755 0.28903565 -0.3839103
000220 1f b1 b6 3d 85 40 91 3e a6 29 ca 3e ed a9 1d 3f
       0.08920502 0.28369537 0.394849 0.6158741
000230 34 0f 06 3f 13 d2 bf 3d 5e 27 af 3e ec 15 2a bf
       0.5236695 0.0936624 0.34209722 -0.664397
000240 9e 32 30 3f 0a 5e 92 bd 83 a9 b2 3c 4d 92 4e bf
       0.68827236 -0.07146843 0.021809345 -0.8069199
000250 63 cb ef bd 19 89 91 bd f4 e6 68 3f cf c1 64 3f
       -0.11708715 -0.071062274 0.90977407 0.8935823
000260 87 d4 52 3f 4a a0 20 bf 23 f8 2f be 4e 19 02 3f
       0.8235554 -0.6274458 -0.171845 0.5081986
000270 bd b2 14 bf 8f eb ed be a5 b1 92 3e ee 81 af bd
       -0.5808523 -0.4646878 0.28651157 -0.08569704
000280 66 ba 62 bc ca 0a 00 bf 60 da 9e 3d cd 34 74 3e
       -0.013838386 -0.5001646 0.077564955 0.23848267
000290 0f 1c 13 bd b2 16 b2 3e 14 b6 38 3f 71 e1 26 bf
       -0.03591543 0.3478294 0.7215283 -0.65187746
0002a0 fc 6e b0 be 24 8c a3 3e 2f 26 35 3e a8 e8 43 3d
       -0.34459674 0.31942856 0.17690347 0.0478293
0002b0 0a 4e 8e 3e 27 9a e2 3e 31 72 05 bf a2 a2 a4 3e
       0.27793914 0.44258234 -0.5212737 0.3215533
0002c0 39 26 a2 3e c7 df 7b 3e 23 29 e6 3d 0f 56 7d be
       0.31669787 0.24597083 0.11238315 -0.2473986
0002d0 c6 7b db 3e cd 1b d2 be 2f b4 95 bc 45 a8 de be
       0.4286787 -0.41036835 -0.018274395 -0.43487754
0002e0 72 90 ed be 85 34 ca 3c 34 b3 bc 3e f0 f6 d2 3d
       -0.46399266 0.024683246 0.3685547 0.10301006
0002f0 4c ec 88 bd d3 9d e8 be ad 1c 9d 3e e6 bb 6b be
       -0.06685695 -0.4543291 0.3068594 -0.23020896
000300 ad 69 93 3e b0 be fb 3e d0 5c da be 68 92 67 be
       0.28791562 0.4916892 -0.42648935 -0.22614443
000310 88 7c 84 3f c2 d1 74 3e 98 87 31 3f 00 50 4b 3e
       1.0350504 0.23908141 0.69347525 0.19854736

Mixer_Block.0.mlp_block_token_mixing.fc2.bias f4 [10]
000000 2e f8 07 bf 9a 6a 89 bd 0c ce 7b 3e 75 9c c4 3d
       -0.5311307 -0.06709786 0.2459032 0.09600154
000010 f8 58 24 be 47 60 38 bd be d3 ca be 83 ef cd 3d
       -0.16049564 -0.045013692 -0.3961467 0.10055449
000020 7a c3 40 3d dc 33 06 be
       0.04706142 -0.1310572

Mixer_Block.0.mlp_block_token_mixing_DynaMixerOperation.fc_ND.weight f4 [1, 66]
000000 fc 13 3f bd 33 b5 90 3d e8 06 95 bc ea ac 54 bc
       -0.046649918 0.07065811 -0.01819177 -0.012980679
000010 c7 bc 19 bd ac 39 45 3d 85 66 ee 3b 3a 63 78 3c
       -0.037533548 0.048150703 0.007275405 0.015160376
000020 03 bf a7 ba 35 09 a0 bc a4 8b f1 3c 28 01 b1 bd
       -0.0012798015 -0.01953564 0.029485531 -0.08642799
000030 c7 98 98 3d 54 d2 94 3d 52 ce 78 bd 35 47 8f 3c
       0.07451015 0.072666794 -0.060743637 0.017490009
000040 78 79 0c be 2b d5 47 3b 28 f0 17 3d 35 7d f6 bd
       -0.13718212 0.0030492048 0.037094265 -0.120356
000050 ff c6 1e 3d 70 90 f5 bc b9 11 cb 3b f6 4d 31 3b
       0.038763996 -0.0299761 0.006197181 0.0027054525
000060 21 33 d6 bc d7 5c bc bd 27 4a 10 3d c1 2a ac 3a
       -0.026147427 -0.09197395 0.035226967 0.00131353
000070 2f b9 ab 3d 0f 3b 6c 3d 9f c1 c4 bb fc b4 b7 bc
       0.0838493 0.05767351 -0.0060045267 -0.022425167
000080 fb ab e8 bd e3 19 28 bd bf 91 02 3e a2 0f 02 3c
       -0.11360928 -0.041040312 0.1275091 0.007938297
000090 d6 6c f7 bd fe d8 04 3c f6 03 9f 3d 69 fe bb bc
       -0.12081306 0.008108376 0.07764427 -0.02294846
0000a0 52 d3 98 3d ae 5f 90 3d 35 69 e2 bc a9 f9 95 3d
       0.07462181 0.070494995 -0.027638057 0.073230095
0000b0 3d b9 2d 3d 82 48 1d 3d 60 18 7e 3d b2 b8 a5 3d
       0.042412985 0.038399227 0.062034965 0.080918685
0000c0 42 84 02 3d 26 e0 c5 3d 3a 7a 7d bd 96 f2 8b bd
       0.031864412 0.096618935 -0.061884142 -0.06833379
0000d0 b5 b0 49 3d 19 a1 37 3d 39 b6 bf 3c 03 b5 44 3d
       0.049240787 0.04483137 0.02340232 0.04802419
0000e0 35 77 e4 3b d4 84 9e 3c 49 d7 e2 3c c0 c1 00 bd
       0.0069722184 0.019350447 0.027690547 -0.031434774
0000f0 a8 bd 8a 3d 2c 72 9d 3c 73 65 c5 3d 29 47 26 3c
       0.06774455 0.01921948 0.096384905 0.010148802
000100 3b 49 a8 3d f6 8e fe 3d
       0.082170926 0.124296114

Mixer_Block.0.mlp_block_token_mixing_DynaMixerOperation.fc_Nd.weight f4 [100, 10]
000000 c5 b4 b9 3e f3 90 59 be 2a 8f cc 3e a4 9b aa 3e
       0.3627073 -0.212467 0.39952976 0.3332187
000010 ed 07 22 3f c8 af 9e 3e 22 ed b5 3e 25 96 56 3e
       0.63293344 0.30993485 0.3553248 0.20955713
000020 bc 29 24 3f 85 25 ab 3e 09 c7 c7 3c 20 d3 88 3e
       0.6412618 0.33427063 0.0243869 0.26723576
000030 41 8f 49 be 3a 34 f4 3e 04 c5 ef 3e f2 2d e5 3e
       -0.19683553 0.47696096 0.46829998 0.44761616
000040 14 1c 2a 3e 8c 87 7f 3e 47 6e 3b 3e 46 7e 81 3e
       0.16612273 0.24954051 0.18303786 0.2529165
000050 57 af f0 bd a7 5b 92 bd d6 81 17 be 9d 87 b2 bd
       -0.117521934 -0.071463875 -0.14795622 -0.087172724
000060 56 68 7a 3d 78 c8 31 3d f6 2d a7 bd 4b f6 6d bd
       0.06113466 0.043404073 -0.08163063 -0.05809621
000070 b5 3f 70 bd b3 28 b8 3c 90 c5 32 be 01 84 59 3d
       -0.058654506 0.022480344 -0.17458177 0.053104404
000080 23 a1 ab 3c 37 34 89 be a8 44 f3 bb 29 48 7a 3e
       0.02095086 -0.2679765 -0.007423956 0.2444159
000090 41 30 dd bd 36 6b 68 3d ff ef dc bd ac 5d 8a 39
       -0.10800219 0.05674287 -0.10787963 0.00026391202
0000a0 d7 78 2a bd 65 2e ac bc 1f 55 8b bc 16 2c 59 bd
       -0.041619148 -0.021018216 -0.017008362 -0.05302056
0000b0 2a 65 b7 be f6 87 76 bd 54 d2 6c bd 5d ba b3 bd
       -0.3581937 -0.060188256 -0.057817772 -0.0877578
0000c0 67 84 bf bd c7 4f df bc 90 5a 4a 39 4c 24 cd bb
       -0.093514256 -0.02725972 0.00019297958 -0.0062604304
0000d0 8f f0 91 bb 1d b0 7f 3d 51 24 5e 3e ad 46 77 be
       -0.0044537256 0.062423814 0.21693541 -0.24148054
0000e0 a1 c1 c6 bd 0f 09 e5 3c 51 fd 33 bd d4 b1 bd ba
       -0.097049005 0.027958421 -0.043942753 -0.0014472553
0000f0 5b 64 94 bd e6 5d d6 3d 78 48 51 bd da 05 9a bd
       -0.07245704 0.104671285 -0.051094502 -0.07520647
000100 44 20 90 bb 46 30 2a 3e 51 ba c6 be c0 40 f7 3c
       -0.0043983776 0.16619977 -0.38814023 0.030182242
000110 b1 93 76 3c c6 68 c1 bc f0 84 fd bd bd b4 69 bc
       0.015049861 -0.02360953 -0.123788714 -0.014264283
000120 2b 13 30 bd e9 63 7d 3d b6 01 86 3d 12 c6 f7 3d
       -0.04298703 0.06186286 0.06543295 0.12098326
000130 b2 05 37 3c ba 0a ca be c9 83 e2 3d 65 d9 c6 3c
       0.011170791 -0.3946131 0.11060292 0.024273584
000140 18 c9 b3 bd d3 98 3c bc 61 51 93 3c ab 06 96 3c
       -0.0877859 -0.0115110455 0.01798314 0.018313726
000150 61 a9 f5 3d e7 dd ed 3d 60 4e 65 3d 76 32 18 bd
       0.11995197 0.1161459 0.055982947 -0.0371575
000160 f2 99 db be b0 c3 c0 3c 9e 56 74 bb 47 ce ad 3d
       -0.42890888 0.023530811 -0.0037283073 0.0848661
000170 7e 6e a6 bd 4a f4 cc bd d6 c6 f1 3c 01 a4 ab 3d
       -0.081265435 -0.10007532 0.029513758 0.08380891
000180 36 fd 91 3c 74 8a d9 3d 0c 3c a2 3d ff 2e d5 be
       0.017820936 0.10622111 0.07921609 -0.41637418
000190 e6 16 5e be 3d b8 86 3c f6 43 c5 bc 42 67 40 3e
       -0.21688423 0.016445274 -0.024080258 0.1878939
0001a0 93 ae 1a 3e 07 b2 28 3e 70 5a 8b 3d b1 7b 4e bd
       0.15105657 0.16474162 0.06804359 -0.05041093
0001b0 a7 a7 af 3e ff 7b 1d 3d 5f 24 0e 3e 23 8f f4 bd
       0.34307596 0.03844833 0.13881062 -0.11941364
0001c0 f0 25 a9 3e 64 82 f5 3d 45 73 a8 bd 47 94 a1 3e
       0.33036757 0.11987761 -0.08225111 0.3155844
0001d0 e2 90 f6 bd 25 8f 26 3e 25 bf 51 3e b9 97 83 3e
       -0.12039353 0.16265543 0.20483072 0.25701693
0001e0 bd 9d cb 3d 27 74 67 3e a0 77 c3 3e 79 ce 00 3f
       0.099421956 0.22602902 0.38177204 0.5031505
0001f0 2a 5c 9b 3e 6a 85 bb 3e 83 30 7d 3e 54 37 fc 3e
       0.30343753 0.36625224 0.24725537 0.49260962
000200 5e ab b4 3e b9 1e 20 3e 3c c0 62 be ce 18 f1 be
       0.35286993 0.1563672 -0.22143644 -0.47089237
000210 4a 72 8d be 60 33 8d be 48 35 d5 be 59 fe a9 be
       -0.27626258 -0.2757826 -0.41642213 -0.33201864
000220 d5 7a ad be f6 1c d6 be 2a aa 1a be a4 1f 61 be
       -0.33882776 -0.4181897 -0.15103975 -0.21984726
000230 21 e6 7e 3d 6c ac 3d 3e 9b fe 45 be b5 80 3c 3e
       0.062231187 0.18522805 -0.19335406 0.18408473
000240 a0 de 09 bd 20 6f 54 bb 97 b2 da 3e 46 7a 58 3c
       -0.033659577 -0.0032414868 0.42714378 0.013212746
000250 6a c3 37 bc 85 d4 47 bb 4c f0 f0 3d 87 98 53 be
       -0.011216024 -0.0030491662 0.11764583 -0.20663653
000260 ce 9d 6a 3d 68 9c 03 bd 17 12 93 be 09 7c 85 be
       0.0572794 -0.032131582 -0.2872474 -0.26071194
000270 6a b8 aa be 06 93 87 be 14 02 53 bd 13 c0 70 be
       -0.33343822 -0.26479357 -0.051515654 -0.2351077
000280 4e 47 88 bc ab 7c 81 3d 6c ec 1c be 20 c9 2f 3e
       -0.016635563 0.06322607 -0.15324563 0.17166567
000290 b4 f1 8d bd 0e d9 d1 3c ea e2 a6 bd 63 ce 90 3c
       -0.06930867 0.025616195 -0.08148749 0.017676538
0002a0 97 d0 05 3a bd ab 41 bd 3b 53 b3 bd 7a c5 12 be
       0.00051046297 -0.047282923 -0.08756109 -0.14333144
0002b0 5e d7 a9 3d 95 d1 88 be 2f 16 3a be 57 16 72 be
       0.08293031 -0.26722398 -0.18172525 -0.23641334
0002c0 c4 7a 6e be 7b 41 38 bc 9e 0f b8 bd c8 08 62 be
       -0.23289019 -0.0112460805 -0.08987354 -0.22073662
0002d0 da 59 09 be ad 26 2c be c3 55 b5 3d 04 ea 02 3d
       -0.13413182 -0.16811629 0.088542484 0.031961456
0002e0 28 0d eb 3d 65 f6 88 be 8c 95 8b 3e 8f 14 4d be
       0.11477119 -0.26750484 0.27262533 -0.20027374
0002f0 67 cf c7 3d 62 f3 cc be 36 8c 8f bc 83 ed bf bd
       0.09756356 -0.40029436 -0.017522912 -0.09371474
000300 0a 07 e6 bd b3 fa 2a bd 79 93 10 be 23 a0 d6 bd
       -0.11231811 -0.04174299 -0.14118756 -0.104797624
000310 44 3e 9d bd 04 c6 1c be b1 54 d7 3c 57 e6 c3 bd
       -0.07677892 -0.15309912 0.026285501 -0.09565418
000320 52 3c 5b be 16 2a d6 bd 67 b8 d5 3d ca 8d e8 3c
       -0.21409729 -0.10457246 0.104355626 0.028387923
000330 2c 8c dc 3d 16 28 a7 bb 70 7e 94 3c cf c6 95 3c
       0.10768923 -0.005101214 0.018126696 0.018283276
000340 fd 9c 0e bd 0d 79 fa bc 9d 75 c1 3e ae 0f e4 39
       -0.034817684 -0.0305753 0.37785044 0.0004349923
000350 15 2e e3 bc 3e bd af 3e da 98 e3 bd 28 11 36 3e
       -0.027731935 0.34324068 -0.111131385 0.17779982
000360 24 6b 81 bd 9d 1b f4 3d 46 f1 ef bd 78 05 a3 3d
       -0.063192636 0.11919329 -0.11715941 0.079600275
000370 37 ac 72 3e 8d 11 92 be e2 95 d9 3e ac c6 f4 3d
       0.23698507 -0.28529015 0.42497164 0.11951956
000380 22 f2 a7 3e 72 7a 6a 3d 3c b1 d2 3e d5 42 9e 3e
       0.3280192 0.05724568 0.41150844 0.30910364
000390 0f 34 47 3e dc 36 88 3e 89 b1 65 be e3 22 6a 3d
       0.19453453 0.26604354 -0.22431006 0.057162177
0003a0 ec fe a0 be 20 35 4b be 61 b2 b2 be 2f e3 a0 be
       -0.3144449 -0.19844484 -0.34901717 -0.31423327
0003b0 b6 f2 cf be 89 df ac be e6 be b4 be c3 7a 4f be
       -0.4061486 -0.33764294 -0.35301894 -0.20261674
0003c0 1a ca 6d 3e 4e 93 5b be 67 16 cf 3d 3d fc 44 3e
       0.23221627 -0.21442911 0.10111695 0.19236846
0003d0 8a 82 9e 3e 40 fd d0 bd ef 68 ba 3e 8e 38 b0 bd
       0.30958968 -0.102045536 0.36408183 -0.08604537
0003e0 28 16 29 bd bc f0 0c 3d fa 8b 9b bc b6 eb a2 3d
       -0.041280895 0.03440927 -0.018987644 0.079551145
0003f0 fb 14 17 be b7 dd 35 3e 27 25 5c be 15 d2 46 be
       -0.14754097 0.17760359 -0.21498547 -0.19416077

Mixer_Block.0.mlp_block_token_mixing_DynaMixerOperation.fc_Nd.bias f4 [100]
000000 f9 c4 3c bf 3f a2 4e be a7 ac e7 3d b5 0e c1 3e
       -0.73738056 -0.2017908 0.11312228 0.37706533
000010 bc 04 1e be de 6f 04 3e e5 42 2f 3e 91 5b 33 3e
       -0.15431494 0.12933299 0.17115362 0.17515399
000020 aa 87 16 3c c6 83 d0 bd 75 49 0d bf d8 f1 1e bf
       0.009187618 -0.10181384 -0.5519021 -0.62087774
000030 dd cf 0d bf 5a aa bf 3d 4a 40 eb bd 79 98 51 3e
       -0.553953 0.09358664 -0.114868715 0.2046832
000040 5c 37 ee 3e 97 87 85 3e 91 56 15 be 0f a5 86 3e
       0.4652661 0.2608001 -0.14583804 0.26297805
000050 e0 94 71 3e eb fc 0c ba 62 02 f9 bc a0 60 ad 3e
       0.23591948 -0.0005378264 -0.030396644 0.33862782
000060 5e 55 b2 bd 0a ef 50 3e 53 6c 83 3b b8 de 0f be
       -0.08707689 0.20403686 0.004010716 -0.14049804
000070 81 c0 ca 3d 29 d6 de 3d d9 1a e3 ba d6 27 92 3e
       0.098999985 0.108806916 -0.0017326727 0.28546017
000080 d9 14 81 be 46 fc c2 3e 45 df 0a bf ac ad c0 3e
       -0.25211218 0.38083094 -0.5424693 0.376325
000090 b9 8b 60 be bd 7e 73 3c 37 7b 5d be a1 7b 59 bd
       -0.219283 0.01486176 -0.21629034 -0.053096417
0000a0 fa 48 c6 be 6a e8 02 be 8a 44 63 bd d4 93 9a 3e
       -0.38727552 -0.12783971 -0.055485286 0.3019091
0000b0 5d 53 b7 be 42 b1 82 3e 65 a6 32 be 8a 09 af 3e
       -0.3580579 0.25525862 -0.17446287 0.34186965
0000c0 0f e2 62 bc 71 8f f3 3d b1 e4 0a be fd f1 de be
       -0.013847842 0.11892594 -0.13563801 -0.43543997
0000d0 49 46 3b 3e b6 78 cb 3d a1 84 c2 3d 45 53 17 3e
       0.1828853 0.09935133 0.09497953 0.14777859
0000e0 33 85 55 3e 20 f8 ca 3d d7 59 23 3e b1 51 05 be
       0.20851593 0.09910607 0.1595224 -0.13019444
0000f0 bc 5d 0c 3f 42 6b 8a be f5 d8 4c bd 0c b5 9d be
       0.5483053 -0.27034956 -0.050011594 -0.3080219
000100 6d 84 30 be c4 d5 95 bc 46 76 2c bd 91 3a db bc
       -0.17238016 -0.018290408 -0.04210498 -0.026761325
000110 04 4a f6 3c 73 e1 2e bd ed e6 84 3e 78 be c4 3d
       0.03006459 -0.042695474 0.25957432 0.096066415
000120 f5 c8 93 be ae cc 21 be 47 18 41 be 5c 05 74 be
       -0.28864256 -0.15800735 -0.18856917 -0.2383017
000130 ad c5 6a be 25 d3 62 3d b8 af 79 3d 05 66 cf bd
       -0.2292697 0.055377144 0.060958594 -0.101268806
000140 ab 3c 3b 3f d6 c6 49 bd b5 43 56 3e c0 3e 58 3c
       0.73139447 -0.04926189 0.20924266 0.0131985545
000150 a4 c7 7a be ed 34 c7 bd 72 28 b3 be 42 4f 5e be
       -0.2449022 -0.09726892 -0.34991795 -0.21709922
000160 76 f3 73 be 09 1a aa bd be 4e d8 3e ad a1 c5 bd
       -0.23823342 -0.08305747 0.42247576 -0.09649978
000170 2b 99 d5 be 90 ed 6c be 1f 8f 7c be 4e b6 b2 bb
       -0.4171842 -0.23137498 -0.24663971 -0.0054538613
000180 37 67 81 be d5 ab 2d 3e 65 f2 5f bd df a6 f6 bd
       -0.2527406 0.1696008 -0.054674525 -0.12043547

Mixer_Block.0.mlp_block_token_mixing_DynaMixerOperation.fc_out.weight f4 [66, 66]
000000 15 b0 67 3d 24 74 79 3d 47 40 bd be 6c 50 55 be
       0.05656441 0.060901776 -0.36963102 -0.2083146
000010 88 92 17 3c 5a 25 42 3e 73 d1 2c be eb 39 80 3e
       0.009251244 0.18959561 -0.16876774 0.25044188
000020 10 0a 17 3e cd 9c f6 bb a7 b2 95 bd a9 d6 93 3d
       0.14749932 -0.0075260163 -0.07309466 0.072186776
000030 fa 6a 85 3d 52 0e 43 bd 54 f8 a6 3d 78 d1 39 3c
       0.06514545 -0.04762108 0.081528336 0.011341445
000040 3e 6b a5 3d 12 79 a9 bd 85 54 4c be 34 0c 6d be
       0.080770954 -0.082750455 -0.19954117 -0.23149186
000050 45 d6 99 3e cf 66 02 be 09 64 a5 3d 62 42 43 be
       0.30046287 -0.12734531 0.08075721 -0.19068292
000060 b6 38 d5 3b 86 41 8b bd 5d 21 98 3d ec 11 55 3e
       0.0065070046 -0.06799607 0.074282385 0.20807618
000070 c6 0c 91 bd bc ad da bd 75 dd db 3d 42 7e e8 3d
       -0.070825145 -0.106776685 0.10735599 0.11352207
000080 d9 d3 a5 3e cc e0 af 3e bb 8a 62 bd 57 6d 51 be
       0.3238819 0.34351194 -0.055308085 -0.20451866
000090 2e 9e 94 3d 33 a3 46 bd b8 e7 f4 3d a0 9f c6 be
       0.07256733 -0.048495483 0.11958259 -0.3879366
0000a0 96 67 20 be 10 ca de 3d 44 ea 21 3e b6 49 e9 bc
       -0.15664515 0.10878384 0.15812021 -0.02847753
0000b0 64 26 be 3d 9c 06 85 3e 9a bf 47 3e ff 57 d7 3c
       0.09284666 0.25981605 0.19506684 0.026287077
0000c0 3a 23 a1 bd 99 cb 54 be c3 05 90 3e 25 8e 09 3e
       -0.07868047 -0.20780791 0.28129396 0.1343313
0000d0 55 72 2f bd d6 5f c8 be 6f dd 7c be 2f 72 d6 3d
       -0.042833645 -0.39135617 -0.24693845 0.104709975
0000e0 81 65 73 3e 45 a2 4d 3e 17 ee 56 3e ed ca a9 3c
       0.2376919 0.20081432 0.20989262 0.020726645
0000f0 d4 fa 67 bd 6c 6b 90 3d 3c 05 91 be 6f a0 07 3d
       -0.056635693 0.07051739 -0.28324306 0.033111986
000100 6f fd 4b 3e 7d de c7 3d 9c d5 b6 3e 30 82 a8 3e
       0.19920896 0.09759233 0.35709846 0.32911825
000110 72 41 aa bd 7e fd e1 bd c1 d7 02 bd b3 d2 16 bd
       -0.08313264 -0.11034678 -0.03194404 -0.036822032
000120 4a 63 46 3e 1b 8b 85 bd 5e d2 10 3e 1d e1 1f be
       0.19373813 -0.06520673 0.14142749 -0.15613218
000130 ee 58 2d be 69 2b 4c 3d 2b 2d 80 3d 88 5e 0f 3d
       -0.16928455 0.049846087 0.06258615 0.03500226
000140 11 df b6 bb 42 f9 b2 bd eb 4a 20 3d 7c 95 09 3d
       -0.005580791 -0.087389484 0.039133947 0.033589825
000150 79 18 33 3d 39 95 62 bd 83 6f 14 be 77 b5 12 3e
       0.04372451 -0.05531809 -0.14495663 0.14327036
000160 b3 df be 3d 5c 82 72 3d 68 c6 68 bd 54 95 c6 bc
       0.09320011 0.05920635 -0.05682984 -0.024241127
000170 ea 75 d2 3e f4 95 00 bd 6d a7 9f 3e 00 9e 20 be
       0.41105586 -0.031393006 0.31182423 -0.15685272
000180 3a 91 1f bd 1e 95 2d 3d 47 29 19 be ee 0b b6 3d
       -0.03895686 0.042378537 -0.14957152 0.08888994
000190 19 28 95 3d d3 2b 9e bd 05 ac bc bd 46 3e 7d 3c
       0.07283039 -0.077232026 -0.092124976 0.015456742
0001a0 0e 89 88 3e 15 7f 31 3e 9b d6 fe 3d d2 7d 8a bd
       0.26667064 0.17333634 0.124432765 -0.067622796
0001b0 b9 b0 ec 3c a2 8b 6c 3e cc 57 5f 3d ff c9 27 3d
       0.028892862 0.2310014 0.05452709 0.040964123
0001c0 60 67 00 be ee 42 d0 3b 9b cd 2f 3d 0a 46 02 3e
       -0.12539434 0.006355635 0.04292069 0.1272203
0001d0 51 22 e7 3a df 5c 41 3e 16 fe aa bd d8 cd 86 3c
       0.0017634128 0.18883084 -0.08349244 0.016455576
0001e0 dd b6 c3 bd cd 5e 98 3d 93 8b 1f 3e 17 5a c1 bd
       -0.09556363 0.07439957 0.15580587 -0.094410114
0001f0 52 11 09 be 48 2e 19 be 47 a3 9c bc 20 a3 15 be
       -0.13385513 -0.14959061 -0.019120825 -0.14613008
000200 e5 38 40 be 4d 0a ab bd 82 59 78 bc 95 2e f6 bd
       -0.18771704 -0.08351574 -0.015158059 -0.120206036
000210 99 8c 3c 3e 39 50 02 be 41 6b 8d bd cb 5f a5 be
       0.18413009 -0.12725915 -0.06905223 -0.32299647
000220 23 df 19 3d f8 9e a5 bd e6 5a 4c bc aa 6c 69 3c
       0.037566315 -0.080869615 -0.012472844 0.014247099
000230 65 cc f9 bd c0 7e 8c 3e 9f 61 e5 3d 28 a6 66 bb
       -0.12197188 0.27440453 0.1120026 -0.0035194252
000240 65 7e 99 3d d9 03 a1 bc 56 3d 43 3c 59 7e 0f 3c
       0.07494811 -0.019655155 0.011916479 0.008758151
000250 8f bf 16 bd 66 50 43 bd 40 b7 35 bd 09 07 90 3e
       -0.03680378 -0.047684096 -0.044364214 0.28130367
000260 82 5a b5 bd 8f 6f de 3a 3f fd f5 3d 98 37 cf be
       -0.088551536 0.0016970503 0.120111935 -0.40472102
000270 d6 08 f6 bd 54 a0 9f 3d 3a f5 49 3e c1 36 53 3e
       -0.12013404 0.07794252 0.19722453 0.20626356
000280 e7 e2 27 be cf 89 42 bd 14 22 99 bd 9e a0 05 bd
       -0.1639515 -0.047494706 -0.07477203 -0.03262388
000290 e5 cc ea bd 38 cd 6c 3e 9a 7a 5f bd 0a eb 46 bd
       -0.11464862 0.2312516 -0.05456028 -0.048563994
0002a0 f4 99 ef bd 45 20 17 be 31 e8 0a 3e 09 a3 21 3d
       -0.11699286 -0.14758404 0.13565136 0.039462123
0002b0 b0 76 f1 3d d7 61 5e 3e e6 ba 81 3e ca 17 bb bd
       0.11790216 0.2171701 0.25337905 -0.09135397
0002c0 84 53 96 bc 9f a2 13 bc b2 f3 0d 3e bb 08 22 bd
       -0.01835037 -0.00901094 0.13862494 -0.039559107
0002d0 32 91 60 3d 0e cd 1d be f9 eb 6a 3d ea 07 7a 3d
       0.05482597 -0.15410253 0.057353947 0.061042704
0002e0 c3 bd 95 3c 49 f5 c4 bd 85 9a 96 bd e6 b4 d0 bd
       0.018278962 -0.09617097 -0.07353691 -0.10190754
0002f0 07 e5 05 3e 3b 1b 7a bb d6 0e 6e 3e fc ef c3 bb
       0.13075648 -0.0038163203 0.23247847 -0.005979536
000300 29 33 5d be df e0 f4 bd 6e 77 48 bd 59 7a 9f bc
       -0.21601547 -0.11956953 -0.048942022 -0.01946752
000310 50 92 ef 3d 0b 5f 54 3e 7d de 0b 3c be 8e 71 bd
       0.11697829 0.20739381 0.008536932 -0.05897402
000320 08 95 20 be 6f 5e 3a 3d 9b 2c b6 be 39 33 db bd
       -0.15681851 0.045500215 -0.35580906 -0.10703129
000330 5f 7f 9a 3d 26 9a 6c bd a4 60 cc 3d 37 d2 9c 3d
       0.07543825 -0.057764195 0.0997937 0.07657283
000340 22 e1 e2 bd 78 fb 3c 3c 8d cc bf 3c df 98 86 be
       -0.11078097 0.011534564 0.023412967 -0.26288506
000350 a4 a4 08 3e ff a5 13 3e aa 6e c8 bd d6 ca 49 be
       0.13344055 0.14418791 -0.097867325 -0.19706282
000360 0b 0d 58 bc 1a 76 e5 bd e8 d0 85 be 2a 73 bd 3d
       -0.013186703 -0.11204167 -0.26135945 0.092504814
000370 48 25 62 3d af 96 c8 bd 06 f8 6d be 06 60 9e 3d
       0.055211335 -0.097943656 -0.23239145 0.07733159
000380 16 b2 39 3e b7 0c 0f bd 8a 64 53 bd 10 16 f9 3d
       0.1813434 -0.034924235 -0.051609553 0.12162411
000390 8e 8f 09 3b 21 62 e9 bd f9 e7 18 bd 69 3b a0 be
       0.0020990106 -0.1139567 -0.0373306 -0.31295326
0003a0 4f 67 d4 be f5 b6 f6 bc f7 c8 e2 be e7 9c 4a be
       -0.41485068 -0.030116538 -0.4429395 -0.19786416
0003b0 90 65 35 3d 40 cb d4 be 55 21 3a 3e c0 23 21 3d
       0.04428631 -0.41561317 0.18176778 0.039340734
0003c0 69 2c bb 3d 56 7e 95 3e e4 94 fb 3d ed ed 57 3e
       0.0913933 0.2919795 0.12284258 0.21086855
0003d0 df ae 03 bd d5 d9 07 3e f7 19 fa 3d 85 08 11 3c
       -0.032149192 0.1326669 0.12211984 0.008852129
0003e0 95 53 94 bd b2 52 50 3e 6d b8 b4 3d d0 cd 51 3d
       -0.072425045 0.20344046 0.08824239 0.05122167
0003f0 4a c7 4e 3d 23 74 a0 bd 8d 97 bb 3d fb 9e 96 bd
       0.050483026 -0.07834651 0.091597654 -0.07354542

Mixer_Block.0.mlp_block_token_mixing_DynaMixerOperation.fc_out.bias f4 [66]
000000 50 b8 a1 3e 7e 89 43 bc 03 e5 3b 3e d6 6c a8 3e
       0.31585932 -0.011934636 0.1834908 0.32895535
000010 83 ff 44 be fa be 5e 3d 83 24 0b bd e5 9a 56 3e
       -0.19238095 0.05438135 -0.033970367 0.20957525
000020 b8 ba e0 3c c0 7f 04 3c 0f c9 b0 be b1 74 d9 3e
       0.027432784 0.008087099 -0.34528396 0.4247184
000030 bb aa 23 3e 9a 92 53 3e 63 f2 a8 3e d2 b7 13 3f
       0.15983097 0.20661393 0.32997426 0.5770236
000040 76 ac 94 bd 70 ae cd bd a2 1f 4d be 6a 16 18 3d
       -0.07259457 -0.10043037 -0.20031598 0.03713075
000050 18 1b a6 3b 88 7d 31 be 36 23 52 be 01 54 ea bd
       0.005069148 -0.17333043 -0.20521244 -0.11441804
000060 e1 61 a3 3b c5 0d cb bc 13 ce 07 3e 8d 1e 7d 3e
       0.0049860333 -0.02478684 0.13262205 0.24718685
000070 44 c0 ef 3d 79 d3 1d 3e 01 d1 c6 3e 82 be f5 3e
       0.11706594 0.15412702 0.38831332 0.47996908
000080 00 a8 04 be ed cc 92 be 34 b6 81 be 02 76 84 3e
       -0.12954712 -0.2867197 -0.25334322 0.25871283
000090 9c 15 43 3e 1c a2 18 3e 32 f1 d2 bd 2b 53 e7 3c
       0.19051212 0.1490559 -0.102999106 0.0282379
0000a0 04 61 0c 3e e3 02 97 3d 75 1b c7 3e 71 e0 5a be
       0.13708884 0.073735975 0.38888136 -0.2137468
0000b0 1e 7c 98 bd 46 18 8a bd c6 dc 92 be 66 10 61 be
       -0.074455485 -0.06742911 -0.28684062 -0.21978912
0000c0 bc a6 3b 3e df c7 8e bc 41 57 2b be 06 ed 9f be
       0.18325323 -0.01742929 -0.16732503 -0.31235522
0000d0 be 79 1e be ee 68 8f 3c 86 e3 7e bd e6 e1 ee 3d
       -0.15476128 0.017506089 -0.062228702 0.116641805
0000e0 91 c9 89 3d d8 db ec 3b fd 2c 4f be c2 33 ea bc
       0.06727899 0.007228356 -0.20232005 -0.028589133
0000f0 8d 80 bd 3c 07 0e 68 3e f7 e6 6a be 23 4e 4d be
       0.023132587 0.22661601 -0.22939669 -0.20049338
000100 d2 93 f8 3d 72 d9 27 3d
       0.121375695 0.040978856

Mixer_Block.0.mlp_block_token_mixing_DynaMixerOperation.LN.weight f4 [10]
000000 74 bf ab 3f a2 c1 8f 3f 4a 63 72 3f 4a 7f ff 3e
       1.3417802 1.1230967 0.94682753 0.499018
000010 44 40 63 3f b6 5a 4f 3f ef 00 63 3f 0f 9f 33 3f
       0.88769937 0.8099779 0.886733 0.7016458
000020 b8 13 62 3f 56 15 5d 3f
       0.8831134 0.8636068

Mixer_Block.0.mlp_block_token_mixing_DynaMixerOperation.LN.bias f4 [10]
000000 5d da 08 3f bc 91 73 3e 79 7e 5a 3d 7b 8b 98 be
       0.53458196 0.23786062 0.05334327 -0.29793915
000010 60 2a c0 3a 31 1f 7d be 81 ab 0d bd 37 90 a0 be
       0.0014661066 -0.2471893 -0.034587387 -0.31360027
000020 74 f4 c6 3c 0d c4 38 bc
       0.024286486 -0.011277211

Mixer_Block.0.mlp_block_channel_mixing_DynaMixerOperation.fc_ND.weight f4 [1, 10]
000000 a1 b4 18 bf 53 79 07 3f d5 60 85 3b 55 98 97 3d
       -0.5965062 0.529195 0.004070381 0.07402102
000010 b9 f6 81 3c f2 81 24 3d cb fd d2 bc 93 d2 8a 3c
       0.015864717 0.040162988 -0.025755784 0.016946113
000020 f2 da fe bd 36 26 9e bd
       -0.12444104 -0.07722132

Mixer_Block.0.mlp_block_channel_mixing_DynaMixerOperation.fc_Nd.weight f4 [484, 22]
000000 61 f3 4b 3e ae 7e 23 3d 71 2b 2a 3e 62 d0 a5 bd
       0.1991706 0.039915733 0.16618134 -0.080963865
000010 d9 b2 32 be 34 d8 c5 3d f3 18 21 3d bd 7e 33 3e
       -0.17451037 0.09660378 0.039330434 0.17528816
000020 0e 53 bf bd 7a 10 fb bd 00 a9 be 3c cb 0f a7 3e
       -0.09342013 -0.12259002 0.023273945 0.32629237
000030 bc ab 21 3e 4f 41 54 be 6c 8e 2d 3e c2 6e b4 bd
       0.15788168 -0.20728038 0.16948861 -0.08810188
000040 03 e9 86 bd 1a b4 fa 3e 03 96 6a 3e 6a 92 74 be
       -0.06587412 0.48965532 0.22908787 -0.23883978
000050 d9 c7 a2 be 75 fa 19 3d ff 9b 9c 3e 16 bd 36 bd
       -0.31793097 0.03759237 0.30587766 -0.04461392
000060 58 70 83 3d e1 e0 24 3c 22 dc 84 3e 5a c4 04 be
       0.06417912 0.010063381 0.25949198 -0.12965527
000070 6f ec 44 3d bd 0f bd bd bb 3f 9d 3c 2c 19 7e 3d
       0.048077043 -0.092315175 0.019195428 0.062035725
000080 9d 0f 4c be 99 8f 04 be da a6 13 bd 79 dc d9 3d
       -0.19927831 -0.12945403 -0.036047794 0.10637755
000090 a7 75 74 3e a3 ef ea bd 7a 28 89 3d 00 bd aa be
       0.23873006 -0.11471488 0.066971734 -0.3334732
0000a0 13 7d 53 3e fb 86 d9 3d 5d 61 cb 3c 7d 6b ef bb
       0.20653181 0.106214486 0.0248267 -0.007306515
0000b0 09 d2 3f be 46 62 3c 3e 75 cf 02 3e d8 c1 08 3e
       -0.18732466 0.18396863 0.12774451 0.13355196
0000c0 e0 50 c7 bd 77 4e f0 3c 5f 82 ae be 55 28 30 bc
       -0.097322226 0.02933429 -0.3408384 -0.010751803
0000d0 7a 25 bb 3e 0d 28 9f 3d ef cc 56 3e 75 c4 c8 bd
       0.3655203 0.07771311 0.20976613 -0.09803096
0000e0 28 34 61 be c1 03 65 3e fc df cf bd a2 3d f3 bc
       -0.21992552 0.22364713 -0.101501435 -0.029692475
0000f0 67 38 a0 3e 05 5f 63 3e 6c 40 d0 bd 24 2e 71 bd
       0.31293032 0.22204216 -0.101685375 -0.058881894
000100 db db c5 bd e5 ce 32 3e c7 4c 6d 3d aa 60 f0 bd
       -0.09661075 0.17461737 0.05793455 -0.11737187
000110 2a 95 03 3d 4e df 1f be 95 6c ca bb 5c f3 e7 3e
       0.032124676 -0.15612528 -0.006177495 0.45302856
000120 4f d9 35 3e bf bd d1 be f0 39 45 be 89 be 14 be
       0.17758678 -0.40965077 -0.19260383 -0.14525808
000130 fd a9 1c be 24 61 9e bd 0a 57 1e be ef 67 3f 3e
       -0.1529922 -0.07733372 -0.1546289 0.18691991
000140 fb 4a 2f 3c 8a fd a1 3e f6 15 5d 3d 81 78 1e bc
       0.010699029 0.31638747 0.05397602 -0.009672285
000150 14 3d 1e 3e d6 72 88 bd 0b a7 e1 bd 1e 45 ed bd
       0.15452987 -0.06662528 -0.11018189 -0.11585449
000160 48 e9 14 3e a8 05 a4 3e d1 3f 1a 3e 5c 85 87 3e
       0.14542115 0.32035565 0.15063407 0.26468933
000170 9e 63 7c 3e 1f 91 74 bd 15 da da 3d dc 0b a0 3c
       0.24647376 -0.05970871 0.10686127 0.019536905
000180 2d 51 c2 3e 57 5a d9 3d 7e 75 bd 3e ed 9e a1 3d
       0.37952557 0.10612934 0.37003702 0.07891641
000190 ff bc 34 3e 94 72 80 bd d4 d4 49 3e ca f7 8a 3e
       0.17650221 -0.06271854 0.19710094 0.27142173
0001a0 5a 05 3f bd d3 2a 27 bd d6 79 36 bd 6a 0b 98 3d
       -0.046635963 -0.040812325 -0.044549786 0.07424052
0001b0 69 c7 a0 3e 3e a7 1d 3e 49 77 8f 3d 13 3c e4 3d
       0.31402138 0.15395829 0.07005174 0.11144271
0001c0 0a 9a e8 3d a0 a6 55 bc 40 e1 b3 3d aa 4e 01 3c
       0.113575056 -0.013040215 0.087831974 0.00789229
0001d0 88 e7 67 3e 9d 27 21 3e b4 2e 53 3e 55 f2 42 3d
       0.22646916 0.15737768 0.20623285 0.047594387
0001e0 07 e1 b6 bd d3 a7 e4 3d 0a b8 6b bc c4 fc 0c 3e
       -0.08929639 0.111648224 -0.01438714 0.13768297
0001f0 4d cb 28 3e 09 04 f7 3c e3 41 49 bd be 52 d7 bc
       0.16483803 0.030153291 -0.0491351 -0.026284572
000200 7d 9c 81 bd 90 f8 6f 3e 85 40 52 bd 52 81 b3 3d
       -0.06328676 0.23434663 -0.051331062 0.087649
000210 47 98 92 3d 9f fa 90 be ac 67 43 3d 20 21 46 3e
       0.07157951 -0.2831621 0.04770629 0.19348574
000220 07 b2 a2 bd c0 1b d2 bd a6 b1 a6 be 0d da 92 bd
       -0.07944112 -0.10259199 -0.3255741 -0.07170496
000230 26 33 58 3e 9b 7a da 3e 55 83 93 be 12 19 b2 3d
       0.21113262 0.42671666 -0.28811136 0.08696188
000240 cf bf c0 3e 5d 65 e3 be 97 c8 e7 3d 6b b7 4b bb
       0.37646338 -0.44413272 0.11317556 -0.0031084667
000250 b5 d7 a7 be ab f9 1e be ca 52 16 be 2c b9 24 3e
       -0.3278176 -0.15524928 -0.14680019 0.16086262
000260 e5 fb ca bd 35 e7 d2 be b4 21 85 bd e0 d1 c3 bc
       -0.09911326 -0.41192022 -0.06500569 -0.023903787
000270 51 97 de bd 02 56 72 be 0d 6d 52 3d 86 a0 79 3d
       -0.10868705 -0.23665622 0.05137353 0.060944103
000280 0b 49 a5 3e 70 74 67 3d 13 4f 4b be 3d 8f 8e be
       0.3228229 0.056507528 -0.19854383 -0.27843657
000290 db ae 1d bd 60 f9 83 3d 77 80 54 bd 4a 70 d4 3d
       -0.038496833 0.06444049 -0.051880326 0.1037298
0002a0 81 6f 5e 3e 45 36 18 3e 23 1b 07 3f d4 77 1f 3b
       0.21722223 0.14864452 0.5277578 0.0024332898
0002b0 47 1a 03 3e a5 86 95 3e 95 c1 2c be d1 dc fc 3e
       0.12802993 0.29204288 -0.1687072 0.4938722
0002c0 20 f4 b2 3e 5d ae 10 bd 19 66 87 bd 40 e4 71 3e
       0.34951878 -0.035322536 -0.066112705 0.23622227
0002d0 e9 20 2b be 46 b4 91 3e 05 36 58 be 28 69 b7 bd
       -0.16711773 0.2845785 -0.21114357 -0.08955604
0002e0 18 5b 00 3d 4e d7 da 3e b7 ff 4f be 2e 3e c8 3d
       0.031336874 0.4274239 -0.20312391 0.09777485
0002f0 6d 7f a0 3e 44 50 5c 3d 78 79 63 bd 83 9d e5 3e
       0.31347218 0.053787485 -0.055535764 0.44846734
000300 30 14 6c be ea d1 8d be d9 2c c0 3d 6f 6c 1c 3e
       -0.23054576 -0.27699214 0.09383554 0.15275739
000310 e8 89 34 be 0c d9 6b 3e 52 70 e4 3c 9a b7 24 3d
       -0.17630732 0.23032016 0.02788559 0.04021416
000320 4d d9 94 3d 5f 34 9a 3d 3e e8 a1 be c1 44 8f be
       0.07268009 0.0752952 -0.316225 -0.27982143
000330 50 83 10 be 9f a9 1e be 1a 68 96 bc 3d c8 aa be
       -0.14112592 -0.15494393 -0.018360186 -0.33355895
000340 b3 62 56 be b8 1f 42 bd e7 e8 2a 3d e5 83 85 3e
       -0.20936088 -0.04739353 0.04172602 0.2607719
000350 81 0f 36 be da 7f 54 be 1c c9 aa 3e ed 15 0b be
       -0.17779352 -0.20751897 0.3335656 -0.13582583
000360 44 6f 58 be 9e 39 a9 3e d7 c8 93 be 3b 9e 70 3e
       -0.21136194 0.3305177 -0.28864166 0.2349786
000370 08 24 9a 3e 2e d3 c9 be 8c 6e 0d 3e 8e 06 70 bd
       0.30105615 -0.3941893 0.13811702 -0.0586
000380 d1 42 bd bd da 2c 80 3e cd 4b e1 bc 39 4a 83 3d
       -0.0924126 0.2503422 -0.027501965 0.06410641
000390 49 f3 15 be 3f b3 52 be d6 01 5d be b6 f3 9a 3b
       -0.14643587 -0.2057619 -0.21582732 0.0047287596
0003a0 d5 b7 e8 bc f0 d2 22 be d8 33 97 be a2 a0 9e 3d
       -0.02840797 -0.15900779 -0.2953174 0.07745482
0003b0 9c c9 80 3e db d2 a2 bd 1f ea b8 bb f4 87 ea be
       0.25153816 -0.07950374 -0.005643144 -0.4580685
0003c0 ee 37 b6 bd 5e d8 b2 be f3 82 1e 3e 5a 9c ae bc
       -0.088973865 -0.349307 0.1547964 -0.021314789
0003d0 e8 99 1f be 75 54 07 3e 44 d7 d8 be c4 08 54 be
       -0.15586054 0.13215812 -0.42351735 -0.20706469
0003e0 2c d1 c4 bd 67 07 15 3e c9 4a 42 bd 0b d2 cb bd
       -0.09610209 0.14553605 -0.047434602 -0.09952172
0003f0 eb 8f 8f 3e 3e fb 4c bd bf 74 b8 bd 36 7c 40 3e
       0.28039488 -0.05004429 -0.090066426 0.18797383

Mixer_Block.0.mlp_block_channel_mixing_DynaMixerOperation.fc_Nd.bias f4 [484]
000000 6d d4 f4 bd 44 61 6d 3e d5 9e 8e be fe 54 45 be
       -0.119545795 0.23181635 -0.27855554 -0.19270703
000010 12 92 be 3e 5b ea a1 3e b0 7a 55 bd 88 76 4e 3e
       0.37220818 0.31624112 -0.052118957 0.20162404
000020 53 cc 97 3d 88 99 cf bb 0b 2f 62 be 48 1c a7 bd
       0.074120186 -0.006335441 -0.22088258 -0.08159691
000030 43 d9 e4 be 90 80 25 be f8 33 00 3d 5d c0 93 3e
       -0.44697008 -0.16162324 0.03129956 0.288577
000040 d8 af 8c bc 10 3f 5b be d6 ae 8d 3e 11 5f da 3d
       -0.017173693 -0.21410775 0.27672452 0.10662664
000050 be 6d a4 3c ad 8a 33 be c9 a9 35 bc b5 48 de 3c
       0.02007186 -0.1753337 -0.011087843 0.027134279
000060 a4 5e 1c be de d1 9c be a9 3d f5 3c cc e3 2f 3e
       -0.15270478 -0.30628866 0.029936628 0.17176741
000070 72 b9 95 be ee a0 df 3d 5e f6 77 3e 98 f3 83 3e
       -0.29243046 0.10919367 0.24215075 0.25771785
000080 e0 47 50 be 4c 6b 14 3e 15 28 85 3e 20 23 e2 bd
       -0.20339918 0.14494056 0.26007143 -0.11041856
000090 44 65 f6 3d 6d 79 03 be 2e c0 51 be a7 42 23 be
       0.12031034 -0.12839289 -0.20483467 -0.15943395
0000a0 5c 3c ff bc 80 c4 97 3e 89 59 58 3e 1a d5 ae be
       -0.031156711 0.29642105 0.21127905 -0.3414696
0000b0 87 57 88 bd fc 00 28 be 3b d4 00 3e 15 9e 42 be
       -0.066573195 -0.16406626 0.1258096 -0.19005616
0000c0 56 3b 13 be a9 39 0a 3e 97 46 9c 3e f1 21 3c bd
       -0.14378104 0.13498558 0.30522606 -0.045930807
0000d0 c0 a3 22 be 1d ba 2d 3e a7 52 9d 3e 50 64 19 be
       -0.15882778 0.16965528 0.3072712 -0.14979672
0000e0 24 6d 47 3c d9 f5 ff 3d ac 2a 04 be 9d ea a6 3d
       0.012172017 0.124980636 -0.12906903 0.08150218
0000f0 43 6c f0 bd a1 c0 52 bc 3b d2 90 3d 2e 37 8d be
       -0.11739399 -0.012863309 0.07071348 -0.2758116
000100 87 9a 65 be a2 1c 10 3e 96 bc 78 be 04 b3 80 bd
       -0.22422229 0.14073423 -0.2429069 -0.062841445
000110 73 19 6d be f5 15 59 be d4 51 7f bd 7a 5b a2 3e
       -0.2315424 -0.21199782 -0.062333897 0.31710416
000120 48 e1 49 3d 45 87 80 bb c8 ab ff 3e 7e aa f6 bd
       0.04928711 -0.0039223754 0.49935746 -0.120442376
000130 69 1b 62 be 02 c1 fd bd a3 d8 21 3d 8f 2f fb bd
       -0.22080769 -0.12390329 0.03951324 -0.122649305
000140 26 d4 95 bc 0c 3b de bb b7 d8 5c be b0 c5 3d be
       -0.018289637 -0.0067819413 -0.21567045 -0.18532443
000150 7f 67 92 be 42 ca 8b 3c 56 8b a2 3e d1 01 e2 bd
       -0.28594586 0.017064217 0.3174693 -0.11035503
000160 7c 39 98 be d9 d9 72 3e 7b 1c 59 bd ea bd 2e be
       -0.29731357 0.23715915 -0.053005677 -0.17064634
000170 95 02 3c be b6 5d 1e 3e 63 61 c8 bd df a7 40 be
       -0.1836036 0.15465435 -0.097842 -0.18814038
000180 b8 a4 b1 3e ae ea 3b 3e 6d ca 11 be d7 c3 19 be
       0.34695983 0.18351242 -0.14237376 -0.15016113
000190 ea 44 d1 3d 56 b2 30 3e e2 dd 21 3e d5 21 8d bd
       0.102182224 0.1725553 0.15807298 -0.068912186
0001a0 81 14 e6 bd 91 c2 0c 3e 4b 90 05 3e 1a de 8e 3e
       -0.112343796 0.13746096 0.13043325 0.27903825
0001b0 b5 37 dc be d1 21 cc 3d 12 f1 3f be 79 02 61 bd
       -0.4301125 0.099673875 -0.18744305 -0.054934
0001c0 d6 a1 dd 3d b7 51 8d 3e 35 ec 7c bd 76 81 83 be
       0.108218834 0.27601406 -0.061748702 -0.25684708
0001d0 04 88 f7 3d a6 23 65 be df ac a6 3d 27 54 63 3e
       0.1208649 -0.2237688 0.08138441 0.2220007
0001e0 52 75 95 bc 42 e3 37 bd 40 67 e6 bd 4d 8b d6 bd
       -0.01824442 -0.044894464 -0.11250162 -0.10475788
0001f0 b1 bc 21 be d0 aa 5d be 00 37 96 3d 10 1d 85 3e
       -0.15794636 -0.21647191 0.07334709 0.25998735
000200 18 26 10 be 08 56 14 be c1 08 a4 3e c2 71 97 bd
       -0.14077032 -0.14485943 0.3203793 -0.073947445
000210 b2 8b 3e 3d 96 7a 54 3e 6e de 95 bd 88 f7 09 be
       0.046519943 0.20749888 -0.07317816 -0.13473332
000220 f8 ee 00 be 56 c2 a7 3d ef 36 21 3e 07 d0 35 3e
       -0.1259116 0.081913635 0.15743612 0.17755137
000230 b9 f3 02 be c6 8d 1d 3e f3 c7 8c 3d ab 6e 10 3e
       -0.12788285 0.15386114 0.06874075 0.14104716
000240 42 73 04 3d e7 7d cd 3d a4 41 46 3d 5a ea b7 3c
       0.03233648 0.100337796 0.048402444 0.022450615
000250 0a 86 59 3e 09 89 ec 3d 59 7f 26 3e 6a 36 03 3c
       0.21242538 0.11549575 0.16259517 0.008008579
000260 d1 58 37 bd 75 bc 1d 3e 6f a3 19 3e b1 b0 6a bd
       -0.044762436 0.15403922 0.15003751 -0.057297412
000270 bb 37 00 be c2 d0 d8 bd 8e f9 f3 3d 15 cb 8e 3d
       -0.1252126 -0.105866924 0.11912833 0.069723286
000280 e9 7f 6f bd 7c a5 b5 3d 32 27 fc 3c eb 67 23 3e
       -0.058471594 0.08869454 0.030780409 0.1595761
000290 76 01 45 be 2c ac a8 bd 35 f1 93 3e 39 53 9a bd
       -0.19238839 -0.08235964 0.28894964 -0.07535405
0002a0 e6 b6 47 3e 0b f3 a0 bc 48 46 01 be d8 2a 2d 3d
       0.19503364 -0.019647142 -0.12624466 0.042277187
0002b0 ac 47 21 bd 8a d1 8f bc a3 4f ff 3c 53 18 17 be
       -0.039374992 -0.01755597 0.031165903 -0.14755373
0002c0 4e 7d d1 3d 87 e3 60 be 03 7d 77 3e 3e 41 85 3e
       0.10228978 -0.21961795 0.24168782 0.26026338
0002d0 41 f1 1f 3e e9 e4 e6 bd f8 88 f2 3e e6 b5 9c 3d
       0.15619375 -0.1127413 0.47370124 0.07651882
0002e0 95 fe 51 be 17 78 57 bd fc 2f 0f 3e 28 80 37 3e
       -0.20507272 -0.05260476 0.13983148 0.17919981
0002f0 47 b2 44 be cc 72 aa 3d 15 fc 9c 3d 4d 21 92 be
       -0.19208632 0.08322677 0.07665268 -0.2854103
000300 03 3b 14 3e 0f 36 21 bd e3 f6 b3 bc 8f 41 28 be
       0.14475636 -0.039358195 -0.02196831 -0.16431259
000310 fa 3a f3 3d c6 e7 b0 3e be 8d 29 be ab 8b e8 3c
       0.11876483 0.3455183 -0.16557977 0.028386911
000320 51 3d ee be aa 63 ed bd 19 47 36 3e 1c 08 99 3d
       -0.46531156 -0.11591275 0.17800559 0.0747225
000330 e3 a4 51 3e bc 33 46 bc 5b b7 05 bd 02 8f a2 be
       0.20473056 -0.012097295 -0.032645565 -0.3174973
000340 78 88 49 3e 59 70 c5 bd 42 44 ee 3c ea 8c ab be
       0.19680965 -0.09640569 0.029085282 -0.33505946
000350 68 9d 7c 3e e8 88 e7 3d 12 df d6 bd 1a 9f 04 3d
       0.2466942 0.1130541 -0.10491766 0.032378294
000360 72 db 80 bd 8b b0 6f be ee bb 00 bf d3 df c3 3e
       -0.06291856 -0.2340719 -0.5028676 0.38256702
000370 7d f1 aa 3d 74 db 05 bf 76 6e a1 3e 3b 7b 95 3d
       0.083468415 -0.52287984 0.31529588 0.07298895
000380 89 f4 09 3e a9 d7 57 be bb 6d e8 3d 7b 0b 11 3d
       0.13472189 -0.21078362 0.113490544 0.03541134
000390 b4 a6 6d 3e 1a 7b 17 be 7d d8 10 3e bd 76 04 3e
       0.23208123 -0.14793053 0.14145084 0.1293592
0003a0 ad 37 57 3e 09 f1 5e be 8b b8 c5 bc d2 0d 71 be
       0.21017332 -0.21771635 -0.024135849 -0.23540428
0003b0 cd 60 81 bd 26 94 78 be f6 86 71 3d 43 17 c3 be
       -0.063172914 -0.24275264 0.0589666 -0.38103685
0003c0 67 5e eb 3e 3a 54 8c 3d b1 cf 54 bc 5a 36 a7 bd
       0.4597046 0.068520024 -0.012988971 -0.081646636
0003d0 dc c8 50 be ac 93 b4 3d be 3c c9 be 04 e3 81 3e
       -0.20389122 0.08817229 -0.39304155 0.25368512
0003e0 0c a3 3a be 99 27 41 39 42 03 b2 bc 2a f1 94 3d
       -0.1822626 0.00018420666 -0.02173007 0.07272561
0003f0 66 d5 e8 be 4e bc 19 be d9 7f 88 bd b3 bc 0e 3e
       -0.4547531 -0.15013239 -0.0666501 0.1393917

Mixer_Block.0.mlp_block_channel_mixing_DynaMixerOperation.fc_out.weight f4 [10, 10]
000000 dc 89 71 3e ff 87 21 be e5 ff 0f bd b9 c9 6f be
       0.23587745 -0.15774535 -0.03515615 -0.23416795
000010 46 77 67 be 53 36 8c be 07 ea 9b bd 3d 5e c1 be
       -0.22604093 -0.27385196 -0.076129965 -0.3776721
000020 4d 16 42 be 19 05 a0 bd df 52 4d 3e 1c 30 d2 bd
       -0.1895382 -0.07813472 0.20051144 -0.102630824
000030 b5 5b 3d be ea 31 a5 bd d6 90 44 bd 6d cd 10 be
       -0.18492015 -0.08066161 -0.04798969 -0.14140864
000040 9a c9 aa bd 28 22 48 be 71 b0 aa 3d cf 26 af 3c
       -0.08339234 -0.1954428 0.08334435 0.02138081
000050 2e 35 b6 be ae 0d c3 be 99 77 a1 3d f9 d7 d5 bd
       -0.35587448 -0.38096374 0.078841396 -0.10441584
000060 d0 d6 00 3e 23 38 7b 3c 44 e0 20 3e 07 6f 8c bd
       0.12581944 0.015333208 0.1571055 -0.06857114
000070 5a 9c 98 3d f9 c5 82 bd 17 2b c6 be 7e 8a e5 3e
       0.07451697 -0.063854165 -0.3870475 0.44832224
000080 a7 00 70 bc ea 5a 9c 3d f4 69 24 be 13 43 fb bd
       -0.014648593 0.07634528 -0.16056043 -0.12268653
000090 fc 1c 2e be 28 51 95 3e cc 75 22 be 59 1a 06 3e
       -0.17003244 0.2916348 -0.15865248 0.13095988
0000a0 55 dc af bd 26 8c dd 3e 0e 81 45 bd cb cb ab 3e
       -0.08586947 0.43270987 -0.04821878 0.3355392
0000b0 41 f4 61 bd 96 34 51 bd a7 09 b5 bd 73 25 77 3e
       -0.05516458 -0.05107554 -0.08839732 0.2413538
0000c0 0d 74 01 bc d9 96 50 3e ca 00 33 3f fe ba f7 be
       -0.007901204 0.20370044 0.6992308 -0.4838485
0000d0 d8 92 b7 3e 2e db 00 bb 2b f5 7a 3d 98 e6 97 bc
       0.3585422 -0.0019661891 0.061268967 -0.018542573
0000e0 86 05 e1 3d b3 ba f1 bd 1a 9b 0e 3d fc 01 1d bd
       0.10987382 -0.11803188 0.034815885 -0.03833197
0000f0 e2 fe 6e bf f8 ef c1 3e 40 a8 93 bc 31 0d 84 bd
       -0.9335767 0.37878394 -0.018024564 -0.064478286
000100 ed dd 0c be 54 91 0f bc cf 39 4e 3d f7 62 37 be
       -0.13756533 -0.008762676 0.0503481 -0.17908846
000110 ac 95 ae 3d 94 e7 a5 3d e2 b4 a5 3d 30 47 19 3e
       0.085246414 0.08100811 0.08091141 0.14968562
000120 e8 6d 86 3e 2c a3 6c 3d 05 d7 2b 3e c1 0f db 3d
       0.26255727 0.0577728 0.16781242 0.10696364
000130 be ae 27 3d 95 11 ce 3d 74 0a a9 3d 81 4d 0c 3e
       0.04093813 0.10061947 0.08253947 0.1370144
000140 37 79 08 bf 53 8e ff 3e 67 f2 04 be a5 a6 73 bd
       -0.5330996 0.49913272 -0.12983094 -0.059485096
000150 5c 68 30 be 7d 92 5c be 8e 39 ff bd c5 bd 06 be
       -0.1722731 -0.21540256 -0.124621496 -0.13158329
000160 0f 8d 83 bd 5a 9b ce bd 62 1c 52 bf c7 3c 7d 3e
       -0.06423389 -0.10088225 -0.8207456 0.24730216
000170 12 da 9d bd 75 8f 92 3e a1 a7 f5 3c 93 c7 89 3e
       -0.07707609 0.28625074 0.029987158 0.26910076
000180 f7 01 e3 3c 66 62 81 3e c5 87 13 be c0 3e 53 3e
       0.027710898 0.25270385 -0.1440726 0.20629406

Mixer_Block.0.mlp_block_channel_mixing_DynaMixerOperation.fc_out.bias f4 [10]
000000 42 a6 20 bf 53 96 c6 be 14 a6 82 3d b8 e9 0f 3d
       -0.6275369 -0.38786563 0.06379333 0.035135
000010 b5 0e 1f 3e 5f 16 d7 be 21 b0 92 3e f8 0d c9 be
       0.15532954 -0.42009255 0.2865 -0.3926847
000020 2a b6 01 bf b8 5f 36 be
       -0.50668585 -0.17809951
