M_2_AST/M_2_AST/h36m/run_for_longging/exp186/model.pt (torch, 955837 bytes, 212 tensors)

Mixer_Block.0.mlp_block_token_mixing.fc1.weight f4 [20, 10]
-0.61459064 0.5508323 -0.52810377 0.2112675 0.31615645 0.101040564 -0.05936203 -0.07427176
-0.055619787 -0.44200706 -0.21172565 0.19867612 -0.118803665 0.34088683 -0.59765273 0.36880723
-0.0051933355 0.22925045 0.028869713 -0.37980554 -0.17634283 0.25585666 -0.14639546 0.3497559
-0.20971414 0.29438666 -0.29025456 0.33691102 -0.615049 0.336834 -0.19601905 -0.2669214
0.5668186 -0.42556605 -0.256874 -0.2907647 0.7162011 -0.10862249 -0.103968404 0.42346448
-0.044768684 -0.34419057 -0.028407887 0.71965003 0.053034905 -0.49414164 -0.48169437 -0.060926598
0.17924674 -0.6139175 -0.3498639 -0.14214894 -0.15988734 -0.06901436 0.97936255 -0.14313792
-0.49259153 -0.17345375 0.010656144 0.37730372 0.18514778 -0.25430435 0.14402007 -0.13779993
0.7548235 -0.35162887 0.61062646 -0.4329872 0.4565794 -0.27442873 0.14796303 0.51476246
-0.4060187 -0.11943333 -0.29845548 -0.31438133 0.44283924 0.06872086 0.70098734 0.028953163
0.24334995 0.28271484 0.19255629 -0.73806554 0.1775543 0.07019671 -0.56463444 0.9004205
-0.00073811423 -0.08443377 0.10635157 -0.15986976 0.7175553 0.04329661 -0.59066415 -0.079943545
-0.27358148 0.80958223 -0.018535927 -0.3016047 -0.0974905 0.10086076 -0.1973347 -0.07412649
-0.3932276 0.51605785 -0.29414326 0.3474248 -0.26600498 -0.009970456 0.08873432 -0.4175101
0.091877006 -0.76038814 0.2975556 0.8507822 0.3521602 -0.30193776 0.11593978 -0.44909295
-0.072689 0.42726937 0.10388187 -0.01355008 -0.58663344 -0.015297558 -0.4011141 0.15977767
-0.37930956 0.6942541 -0.41820088 0.16650333 -0.60475653 0.18053856 -0.00445757 0.46245357
-0.341004 0.69495916 -0.66245943 0.4815429 0.08681888 0.47231814 -0.45601553 0.29587725
0.09414642 -0.09795395 -0.45695522 0.15237625 0.8146468 -0.20052767 -0.59094733 0.31571355
-0.45260304 0.5346875 -0.25551367 -0.39577806 0.033055905 -0.4255914 0.35498208 0.53147155
-0.08877336 0.048907932 0.37040168 0.06683119 -0.24984929 0.05634801 -0.18385266 -0.019166812
-0.49041736 0.30711886 0.022222461 0.45156127 -0.23445807 0.5151283 -0.4339963 -0.12871131
-0.39516988 0.41731212 -0.3346506 0.05165233 0.0443212 -0.47023562 0.3637543 0.42954594
-0.12884088 0.43865567 -0.4212201 -0.83537936 -0.46353757 -0.26286048 0.18005954 0.31484443
-0.30953526 -0.053494964 -0.06783583 0.40529227 -0.6992548 -0.51265496 0.03726019 0.22893815
00000000: d055 1dbf 5803 0d3f cf31 07bf 8256 583e
00000010: 42df a13e 5bee ce3d 9a25 73bd cb1b 98bd
00000020: 93d1 63bd c04e e2be 9cce 58be c171 4b3e
00000030: 564f f3bd b888 ae3e c5ff 18bf 4dd4 bc3e
00000040: db2c aabb a1c0 6a3e 2d80 ec3c df75 c2be
00000050: 3793 34be a5ff 823e b1e8 15be 3513 b33e
00000060: 4ebf 56be d9b9 963e 3f9c 94be 9a7f ac3e
00000070: da73 1dbf 8275 ac3e 38b9 48be eca9 88be
00000080: 061b 113f cbe3 d9be fd84 83be 1cdf 94be
00000090: f558 373f 7875 debd 63ed d4bd 56d0 d83e
000000a0: 5e5f 37bd bf39 b0be a8b7 e8bc fc3a 383f
000000b0: 213b 593d 2200 fdbe a5a0 f6be 2b8e 79bd
000000c0: 758c 373e b329 1dbf 5c21 b3be 7e8f 11be
000000d0: 82b9 23be 6757 8dbd 81b7 7a3f bf92 12be
000000e0: f534 fcbe dc9d 31be 1b97 2e3c f42d c13e
000000f0: 6197 3d3e 2e34 82be ff79 133e 6d1b 0dbe
00000100: 1d3c 413f b308 b4be 0452 1c3f 80b0 ddbe
00000110: c6c4 e93e ec81 8cbe 9f83 173e 79c7 033f
00000120: afe1 cfbe 7699 f4bd 28cf 98be 97f6 a0be
00000130: d3bb e23e 86bd 8c3d e873 333f 2f2f ed3c
00000140: bb30 793e 00c0 903e 7a2d 453e ddf1 3cbf
00000150: cbd0 353e 4bc3 8f3d e28b 10bf f581 663f
00000160: 027e 41ba 9deb acbd dace d93d e6b4 23be
00000170: b4b1 373f c957 313d c435 17bf 71b9 a3bd
00000180: df12 8cbe c840 4f3f a8d8 97bc ee6b 9abe
00000190: 19a9 c7bd 1690 ce3d 1c12 4abe a1cf 97bd
000001a0: 2155 c9be 5e1c 043f f299 96be aae1 b13e
000001b0: ce31 88be 205b 23bc 57ba b53d e2c3 d5be
000001c0: 032a bc3d cca8 42bf 3559 983e ddcc 593f
000001d0: 574e b43e 9697 9abe d671 ed3d 83ef e5be
000001e0: f8dd 94bd 0dc3 da3e 05c0 d43d 2801 5ebc
000001f0: 9c2d 16bf 9ca2 7abc d45e cdbe c29c 233e
00000200: dd34 c2be a3ba 313f 6d1e d6be d97f 2a3e
00000210: 53d1 1abf 1adf 383e cf10 92bb b7c6 ec3e
00000220: 1498 aebe d8e8 313f f196 29bf ca8c f63e
00000230: 19ce b13d afd3 f13e de7a e9be 397d 973e
00000240: d7cf c03d 159c c8bd 09f6 e9be 8508 1c3e
00000250: b18c 503f 2057 4dbe 5348 17bf 35a5 a13e
00000260: 96bb e7be 48e1 083f b0d2 82be 6ca3 cabe
00000270: a165 073d 1ee7 d9be 36c0 b53e 850e 083f
00000280: cfce b5bd af53 483d 4aa5 bd3e cade 883d
00000290: 7ed8 7fbe 2ccd 663d df43 3cbe b803 9dbc
000002a0: fc17 fbbe af3e 9d3e e10b b63c 0a33 e73e
000002b0: c715 70be 73df 033f c334 debe e6cc 03be
000002c0: b553 cabe efa9 d53e 5357 abbe 6591 533d
000002d0: 268a 353d b9c2 f0be 013e ba3e 72ed db3e
000002e0: ddee 03be 7a97 e03e 29aa d7be 6cdb 55bf
000002f0: cc54 edbe a695 86be 8761 383e 4a33 a13e
00000300: 687b 9ebe 891d 5bbd 83ed 8abd 7882 cf3e
00000310: 5d02 33bf 5b3d 03bf 249e 183d c36e 6a3e

Mixer_Block.0.mlp_block_token_mixing.fc1.bias f4 [20]
0.0769319 0.42675632 0.4620571 0.5413203 0.34672946 0.43024203 0.2696547 0.48574862
0.53072196 0.43101102 0.38040125 0.7085596 0.138191 0.7088924 0.35089457 0.13992779
0.326549 0.40065867 0.52593756 0.352577
00000000: 798e 9d3d ce7f da3e c092 ec3e f893 0a3f
00000010: 8686 b13e af48 dc3e 2e10 8a3e 0bb4 f83e
00000020: 65dd 073f 7aad dc3e f4c3 c23e 2964 353f
00000030: f181 0d3e f979 353f 74a8 b33e 3b49 0f3e
00000040: 6e31 a73e 2223 cd3e d8a3 063f f984 b43e

Mixer_Block.0.mlp_block_token_mixing.fc2.weight f4 [10, 20]
0.09542692 -0.20568681 -0.29525283 0.5060863 0.4249547 0.566001 -0.08950485 -0.59884053
-0.0031506696 0.56659555 -0.385088 0.07814609 -0.09228441 -0.25360706 -0.38700634 0.33452144
0.29212025 -0.7101171 0.60815233 -0.66757965 0.1270132 0.43610042 0.12133178 -0.15556838
0.3797102 0.28703004 -0.20722465 0.044513006 -0.59495604 -0.37697786 0.20724452 -0.13905697
-0.32786322 0.5170476 0.2577295 0.588204 -0.35873598 0.05130994 0.20449069 -0.25244617
-0.33690226 -0.3551029 -0.3419711 -0.032058682 -0.13589785 0.32669535 1.1108015 0.13520879
-0.056406893 -0.5147895 -0.118611194 0.23628074 -0.48179913 0.37241647 0.0852045 -0.30290338
-0.4667215 -0.28174874 -0.35016763 -0.15654883 -0.33342525 0.17230771 -0.10482909 -0.021168478
-0.5965143 -0.18083854 -0.22522417 0.13709967 0.47209096 0.05004233 0.8181673 0.5001898
0.31073052 0.45490834 -0.03874774 -0.66013086 -0.051389337 -0.36637303 -0.3103016 0.2963475
-0.6565244 0.21283022 -0.46394086 0.6418805 -0.21570231 -0.6536935 0.16876352 0.4552981
-0.20606081 0.2970509 -0.003668079 0.14288585 0.15149495 -0.34148344 -0.21324725 0.006202578
-0.15363796 -0.32674846 -0.19498213 -0.59751785 -0.53072774 0.06214813 0.4893663 -0.12877849
0.30470794 -0.06339516 -0.05268087 0.17053567 -0.051198523 0.31004947 -0.16385101 -0.6209649
0.41369972 0.18561548 0.28525895 0.060925134 -0.044971462 0.81109136 -0.5311785 -0.3476934
-0.12828554 -0.37058383 -0.29671043 -0.48909372 0.2561799 0.47700638 0.104297526 -0.10319902
0.27662432 -0.070007026 -0.25205413 -0.08010206 -0.16793184 -0.08171444 0.5222242 4.4505923e-05
-0.24431838 -0.049121305 -0.07028616 0.3819849 -0.53677094 -0.45168626 -0.27070907 0.02223963
0.023517372 0.26049516 0.34601974 -0.48105642 -0.8259367 -0.668806 -0.23609063 0.46575326
-0.42334428 -0.44906515 -0.24925083 0.15739647 -0.20149317 -0.490845 0.7728598 0.7115729
-0.28130275 -0.15555155 0.38925582 0.1826773 -0.39308318 0.009680867 0.4042278 -0.55418795
-0.09785572 -0.09011242 0.13610673 0.06148806 0.1591105 0.3611363 -0.8121206 -0.7286087
0.26330662 0.010402897 0.054920472 -0.27454585 0.4618778 0.5962954 -0.42553785 -0.40255606
0.70950055 -0.439254 0.39036685 -0.15604155 0.25324488 0.7027825 0.42050204 0.5392877
-0.90415746 -0.3024232 0.039928727 -1.0250921 -0.4582893 -0.11904773 0.26730108 -0.4532299
00000000: 306f c33d 909f 52be 612b 97be df8e 013f
00000010: aa93 d93e 71e5 103f 524e b7bd 9d4d 19bf
00000020: 777b 4ebb 680c 113f 412a c5be 0f0b a03d
00000030: 9cff bcbd c9d8 81be b225 c6be 6546 ab3e
00000040: c990 953e 3cca 35bf dfaf 1b3f 80e6 2abf
00000050: c00f 023e 8e48 df3e cc7c f83d 514d 1fbe
00000060: 6069 c23e 9af5 923e b332 54be 4553 363d
00000070: 0a4f 18bf 3e03 c1be e837 543e f364 0ebe
00000080: b0dd a7be 3b5d 043f 1ff5 833e 8a94 163f
00000090: 3eac b7be 5f2a 523d 0266 513e a040 81be
000000a0: 747e acbe 0cd0 b5be d616 afbe f74f 03bd
000000b0: ce28 0bbe 9d44 a73e be2e 8e3f 2c74 0a3e
000000c0: ea0a 67bd 3fc9 03bf 6dea f2bd 94f3 713e
000000d0: 60ae f6be 5fad be3e b27f ae3d 2716 9bbe
000000e0: 1ff6 eebe 5f41 90be 2c49 b3be 564e 20be
000000f0: b7b6 aabe 6f71 303e a2b0 d6bd 8469 adbc
00000100: 29b5 18bf bd2d 39be 2aa1 66be db63 0c3e
00000110: e8b5 f13e 30f9 4c3d 6a73 513f 700c 003f
00000120: 1218 9f3e bfe9 e83e f3b5 1ebd 56fe 28bf
00000130: a07d 52bd 3f95 bbbe dadf 9ebe dcba 973e
00000140: fc11 28bf 2af0 593e a889 edbe 4852 243f
00000150: 11e1 5cbe 7558 27bf 58d0 2c3e d51c e93e
00000160: 9b01 53be 0e17 983e 2764 70bb ab50 123e
00000170: 7e21 1b3e ebd6 aebe 7d5d 5abe ff3e cb3b
00000180: 4553 1dbe 934b a7be 65a9 47be eef6 18bf
00000190: c6dd 07bf 0a8f 7e3d 388e fa3e 82de 03be
000001a0: ae02 9c3e 52d5 81bd e5c7 57bd e7a0 2e3e
000001b0: 8bb5 51bd cebe 9e3e 8fc8 27be 8ef7 1ebf
000001c0: 73d0 d33e fc11 3e3e 760d 923e a28c 793d
000001d0: ff33 38bd afa3 4f3f 50fb 07bf df04 b2be
000001e0: 495d 03be 2abd bdbe 6eea 97be 7e6a fabe
000001f0: 032a 833e 2e3a f43e f199 d53d 025a d3bd
00000200: b4a1 8d3e d85f 8fbd 3d0d 81be 8d0c a4bd
00000210: 53f6 2bbe e659 a7bd 7cb0 053f dfab 3a38
00000220: 992e 7abe 6c33 49bd 31f2 8fbd 8693 c33e
00000230: d269 09bf 6c43 e7be 619a 8abe e22f b63c
00000240: 81a7 c03c 9f5f 853e 8029 b13e 074d f6be
00000250: 9670 53bf df36 2bbf bec1 71be 3677 ee3e
00000260: 95c0 d8be deeb e5be 9c3b 7fbe 8a2c 213e
00000270: 3a54 4ebe 0950 fbbe 24da 453f a429 363f
00000280: ea06 90be e848 1fbe 8a4c c73e c20f 3b3e
00000290: 3342 c9be 809c 1e3c f2f6 ce3e 43df 0dbf
000002a0: 9468 c8bd dc8c b8bd 905f 0b3e e7da 7b3d
000002b0: dded 223e dbe6 b83e 23e7 4fbf 1a86 3abf
000002c0: 20d0 863e ea70 2a3c 4af4 603d 4691 8cbe
000002d0: 3f7b ec3e d1a6 183f 19e0 d9be d41b cebe
000002e0: d4a1 353f e6e5 e0be 2ade c73e 5bc9 1fbe
000002f0: 50a9 813e 8ee9 333f 0b4c d73e c20e 0a3f
00000300: dd76 67bf 37d7 9abe 4e8c 233d 3836 83bf
00000310: e5a4 eabe 4ccf f3bd b0db 883e c00d e8be

Mixer_Block.0.mlp_block_token_mixing.fc2.bias f4 [10]
0.15906848 -0.30980706 0.29339337 -0.4780412 0.54922694 -0.14481275 0.14067467 0.75656617
-0.028219862 -0.13853236
00000000: d9e2 223e 089f 9ebe a837 963e d1c1 f4be
00000010: 239a 0c3f cb49 14be 050d 103e 52ae 413f
00000020: 572d e7bc 6ddb 0dbe

Mixer_Block.0.mlp_block_token_mixing_DynaMixerOperation.fc_ND.weight f4 [1, 66]
-0.021741297 -0.05773779 0.03205799 -0.009250122 0.05076333 -0.02446646 -0.025264118 0.006609464
0.13107155 0.029611558 0.010766867 -0.018236315 0.055743072 -0.05026493 0.014454669 -0.070786856
0.0130094 0.0020096458 0.000543993 -0.036504228 -0.058332916 -0.047987465 -0.021788843 0.044737004
-0.027878461 -0.022863047 0.04350934 -0.024921581 0.0062301476 -0.0006353526 -0.08701326 -0.06838168
0.07530785 0.024999045 -0.023335159 0.025509782 -0.034688283 0.0068830424 -0.039824583 0.07400459
-0.05282026 -0.043765772 -0.06596647 0.008446149 0.024340438 -0.049003292 -0.027968552 0.0021710217
-0.02939728 -0.014827902 0.036475018 -0.03368858 -0.0363836 0.12230654 -0.040000975 -0.028207347
-0.03465563 0.008143697 0.07584985 -0.015178244 -0.02388323 -0.04864252 -0.02512502 -0.00018677248
0.03917486 0.019821217
00000000: ce1a b2bc 767e 6cbd 3d4f 033d d38d 17bc
00000010: 36ed 4f3d e36d c8bc b2f6 cebc 3494 d83b
00000020: 9f37 063e f093 f23c 8367 303c 5364 95bc
00000030: d952 643d 99e2 4dbd 47d3 6c3c b3f8 90bd
00000040: 6125 553c 43b4 033b c19a 0e3a 7585 15bd
00000050: 7fee 6ebd 818e 44bd 847e b2bc 263e 373d
00000060: 5f61 e4bc 494b bbbc da36 323d 5828 ccbc
00000070: 4426 cc3b cb8d 26ba 0234 b2bd b20b 8cbd
00000080: 013b 9a3d ccca cc3c 6029 bfbc e4f9 d03c
00000090: 4d15 0ebd 258b e13b 1a1f 23bd b88f 973d
000000a0: 0f5a 58bd bd43 33bd 6e19 87bd b761 0a3c
000000b0: 9965 c73c adb7 48bd 4e1e e5bc b347 0e3b
000000c0: 91d2 f0bc bbf0 72bc d466 153d 09fd 09bd
000000d0: f806 15bd da7b fa3d 10d8 23bd 1813 e7bc
000000e0: 10f3 0dbd 246d 053c 2b57 9b3d 2bae 78bc
000000f0: c3a6 c3bc 613d 47bd fcd2 cdbc 5bd8 43b9
00000100: d175 203d 1b60 a23c

Mixer_Block.0.mlp_block_token_mixing_DynaMixerOperation.fc_Nd.weight f4 [100, 10]
0.06151796 -0.44304663 -0.20769837 -0.25770852 -0.12887219 -0.2310261 -0.113741904 -0.18203709
0.08883378 -0.12551929 0.38155138 0.08187908 -0.11106442 -0.10021277 -0.110697426 0.08586541
-0.025527403 -0.032123003 0.0946742 -0.05743177 -0.10383666 0.2158648 0.33842307 0.18127754
0.008111669 0.29522058 0.2348797 0.48801544 0.3745673 0.46318936 -0.227401 0.29278514
-0.040456936 -0.09707666 -0.13960256 0.11241699 -0.21263209 -0.081297114 0.014874825 -0.090212144
-0.046258006 0.28684717 0.27894914 0.13916121 -0.15913488 0.2346826 0.18658827 -0.12374595
-0.03692556 -0.07275959 -0.28405043 0.18626125 -0.014475975 0.0774633 0.010186819 -0.32127014
0.13221537 0.16549852 0.2385915 0.000103648745 -0.29042968 0.18972261 0.25299954 0.057912968
0.3651379 0.33444667 -0.57266533 0.18370707 -0.092667356 0.19464613 -0.358477 0.08922782
0.007191716 0.09837449 -0.030059837 0.061107624 0.2699736 -0.5368061 0.30746746 -0.011165307
-0.3177272 0.0730567 0.18279733 0.09033611 0.16847637 0.12724815 -0.10330962 0.39184752
-0.3744499 0.007160599 0.35421136 -0.06029376 0.33497077 -0.4355589 -0.14920741 -0.23101953
-0.015858585 -0.2702184 0.2376883 -0.10514861 -0.019591717 -0.3261736 -0.16348231 -0.07285397
-0.22131422 -0.07338713 -0.22768334 -0.022484984 -0.19693345 -0.111562856 0.1399932 -0.11598312
-0.034584697 -0.24685836 -0.19846629 -0.23075785 -0.19129635 -0.14508545 -0.09359254 -0.19343269
-0.106762655 -0.1818859 0.11514988 0.1431206 -0.36700526 -0.14617509 -0.3869133 0.103270136
-0.35762924 -0.116652414 0.23819621 0.3890176 0.14918901 0.45898157 0.41987252 -0.015469361
0.4444631 -0.018866569 0.3627753 -0.19293387 -0.06833293 0.07547491 -0.24777673 0.14163354
0.09229333 -0.05349077 -0.09497628 0.08069256 -0.30147204 -0.11748423 0.1598549 0.14362197
0.24467477 0.057062432 0.35241085 0.075714916 0.05379694 0.28529605 0.29252535 -0.50663215
-0.050531685 0.068986304 -0.08645722 -0.11004434 -0.24304235 0.13456702 0.16094846 0.066050544
0.19806543 -0.021776916 -0.0026734765 -0.1033897 0.07157451 0.17356186 0.19497769 -0.06932755
0.5178132 -0.28220528 0.1366201 -0.15575726 -0.18731083 -0.0133815035 -0.23467618 0.24061975
0.15586442 -0.16129754 0.10881134 -0.07120052 0.30669165 -0.075926326 -0.13673374 0.11245143
-0.029096587 0.31034014 -0.029639024 0.041521292 0.19147271 -0.020671383 0.17320731 -0.090558864
0.26908267 0.12699983 0.31202054 0.37830576 0.49100995 0.79039234 0.29103106 0.27752054
0.37751582 0.26036155 -0.17374057 0.06511955 -0.12704843 -0.13841654 -0.19010407 -0.22545628
-0.06653415 -0.27496266 -0.014629222 -0.0074697416 0.15081094 -0.24721424 -0.09801228 0.042953994
-0.16332974 -0.08426471 -0.11410689 -0.13406174 -0.055346996 -0.032143213 -0.14133042 0.2305051
-0.30141214 0.004165021 -0.25407767 -0.029400589 -0.0033752474 -0.12915124 0.065541334 0.026367893
0.079065 -0.15766637 0.104146495 0.3107978 0.35644376 -0.08292545 0.23279412 -0.01432786
0.1626401 0.05910374 -0.008748009 0.2737849 -0.19304717 0.21523187 0.002782011 0.08372881
00000000: 42fa 7b3d 02d7 e2be e2ae 54be 5ff2 83be
00000010: 12f7 03be 1b92 6cbe 84f1 e8bd ee67 3abe
00000020: 7cee b53d 2188 00be b45a c33e 38b0 a73d
00000030: be75 e3bd 5a3c cdbd 55b5 e2bd 34da af3d
00000040: d81e d1bc 6993 03bd 8ce4 c13d 933d 6bbd
00000050: 51a8 d4bd aa0b 5d3e ca45 ad3e d2a0 393e
00000060: cee6 043c 2727 973e 4e84 703e 29dd f93e
00000070: 49c7 bf3e 2827 ed3e cfdb 68be efe7 953e
00000080: 2cb6 25bd 21d0 c6bd f9f3 0ebe e13a e63d
00000090: 3abc 59be 1a7f a6bd 8ab5 733c 25c1 b8bd
000000a0: 0979 3dbd a2dd 923e 6cd2 8e3e 4780 0e3e
000000b0: 41f4 22be a350 703e ff10 3f3e 846e fdbd
000000c0: 423f 17bd fb02 95bd 0f6f 91be 45bb 3e3e
000000d0: a42c 6dbc 14a5 9e3d 9ee6 263c 857d a4be
000000e0: 7763 073e 7278 293e 5551 743e ff5d d938
000000f0: 33b3 94be a546 423e 2889 813e 2636 6d3d
00000100: 5bf3 ba3e 983c ab3e 329a 12bf b51d 3c3e
00000110: 62c8 bdbd 5151 473e 4c8a b7be 13bd b63d
00000120: 7da8 eb3b 9178 c93d 0c40 f6bc fd4b 7a3d
00000130: fb39 8a3e 206c 09bf 606c 9d3e b1ee 36bc
00000140: 24ad a2be c09e 953d 392f 3b3e 2302 b93d
00000150: 1285 2c3e 574d 023e fe93 d3bd 3da0 c83e
00000160: e6b7 bfbe 75a3 ea3b 315b b53e 97f6 76bd
00000170: 4a81 ab3e 9301 dfbe d4c9 18be 6290 6cbe
00000180: dde9 81bc 115a 8abe 9064 733e 2858 d7bd
00000190: cf7e a0bc 3a00 a7be e867 27be 7634 95bd
000001a0: 32a0 62be fe4b 96bd d225 69be 6e32 b8bc
000001b0: eca8 49be 117b e4bd 615a 0f3e 8f88 edbd
000001c0: afa8 0dbd 70c8 7cbe bf3a 4bbe c94b 6cbe
000001d0: 31e3 43be 4891 14be 72ad bfbd 3813 46be
000001e0: 61a6 dabd 4c40 3abe b3d3 eb3d 358e 123e
000001f0: 1de8 bbbe ecae 15be 8019 c6be 4b7f d33d
00000200: 2e1b b7be 76e7 eebd b5e9 733e 512d c73e
00000210: 01c5 183e a2ff ea3e 88f9 d63e 3473 7dbc
00000220: ab90 e33e 108e 9abc afbd b93e 7590 45be
00000230: 23f2 8bbd 9792 9a3d 2fb9 7dbe 6208 113e
00000240: 4904 bd3d 2319 5bbd ed82 c2bd 2442 a53d
00000250: 8b5a 9abe 929b f0bd 01b1 233e a311 133e
00000260: 068c 7a3e 4cba 693d 326f b43e 6c10 9b3d
00000270: 2e5a 5c3d 5312 923e e2c5 953e a5b2 01bf
00000280: 50fa 4ebd b148 8d3d 7c10 b1bd ed5e e1bd
00000290: 18e0 78be f0cb 093e accf 243e 8245 873d
000002a0: aad1 4a3e 8165 b2bc 7e35 2fbb fbbd d3bd
000002b0: a895 923d 33ba 313e 3ba8 473e 9afb 8dbd
000002c0: 688f 043f 367d 90be 24e6 0b3e d57e 1fbe
000002d0: 69ce 3fbe 183e 5bbc f44e 70be 0665 763e
000002e0: ec9a 1f3e 2f2b 25be 7bd8 de3d 94d1 91bd
000002f0: b006 9d3e 437f 9bbd ee03 0cbe ef4c e63d
00000300: f75b eebc e7e4 9e3e 8acd f2bc 3b12 2a3d
00000310: 6c11 443e 0857 a9bc 425d 313e ed76 b9bd
00000320: 34c5 893e 3e0c 023e 28c1 9f3e 4bb1 c13e
00000330: a865 fb3e 2757 4a3f 0602 953e 2c17 8e3e
00000340: c149 c13e 1c4e 853e 0ce9 31be 665d 853d
00000350: fc18 02be 11bd 0dbe a4aa 42be 03de 66be
00000360: 0e43 88bd e8c7 8cbe 68af 6fbc bcc4 f4bb
00000370: 2f6e 1a3e bb25 7dbe aaba c8bd 87f0 2f3d
00000380: e93f 27be fa92 acbd e0b0 e9bd 7b47 09be
00000390: 88b3 62bd 9aa8 03bd ecb8 10be 8709 6c3e
000003a0: b152 9abe ba7a 883b 7816 82be 81d9 f0bc
000003b0: 4133 5dbb 3940 04be 893a 863d 7b01 d83c
000003c0: d5ec a13d 4b73 21be c24a d53d e420 9f3e
000003d0: cc7f b63e d1d4 a9bd 9561 6e3e 67bf 6abc
000003e0: 208b 263e c316 723d cf53 0fbc 892d 8c3e
000003f0: 28ae 45be be65 5c3e 6652 363b 037a ab3d

Mixer_Block.0.mlp_block_token_mixing_DynaMixerOperation.fc_Nd.bias f4 [100]
0.37019235 0.026401633 -0.10591378 -0.018897947 -0.21564373 0.18064868 -0.14455992 -0.045177914
-0.1347052 -0.64089787 0.40418455 -0.10825036 -0.18001229 -0.3374945 -0.22309811 -0.23881145
-0.30245072 -0.43008766 -0.3557533 0.16717915 -0.40646076 0.19135658 0.34359044 -0.19741027
0.17134963 0.056528922 -0.1743905 -0.40276366 -0.28596205 0.34200048 0.34036353 -0.691879
0.2637381 -0.08708676 0.06244339 0.0665929 -0.006932029 -0.024477115 -0.080835305 -0.4316553
0.58315575 0.08734562 -0.2888519 0.20818183 0.051124845 -0.058884468 -0.22797158 0.08847203
-0.008378749 0.0028169174 0.18813929 -0.015094355 -0.010437934 -0.55149156 0.329373 -0.21984002
-0.03414319 -0.39292815 0.2270162 -0.20878367 0.07977513 -0.14164901 -0.25906956 -0.23834929
-0.41548625 -0.013045153 0.022953708 -0.30986735 -0.06800031 0.0029752385 -0.8010441 0.33236
-0.32178715 0.38672635 0.1640721 0.08181862 0.20335512 0.13031872 0.32009518 -0.015872484
0.44709736 -0.4493498 0.26759544 -0.24173243 -0.033300664 -0.3624534 -0.32213268 -0.100004345
0.1000078 0.16305843 -0.2152699 0.158828 -0.42689764 -0.019568099 -0.31002462 -0.121113665
-0.23288551 -0.17124915 -0.2898425 -0.45169628
00000000: da89 bd3e 3d48 d83c 53e9 d8bd decf 9abc
00000010: b6d1 5cbe f8fb 383e 8407 14be 7a0c 39bd
00000020: 29f0 09be e211 24bf 47f1 ce3e 5db2 ddbd
00000030: 2455 38be 14cc acbe d573 64be fd8a 74be
00000040: d2da 9abe 7334 dcbe 4c25 b6be 0331 2b3e
00000050: a01b d0be fbf2 433e 16eb af3e eb25 4abe
00000060: 4776 2f3e df8a 673d 6c93 32be 0a37 cebe
00000070: 9e69 92be b01a af3e 2144 ae3e fb1e 31bf
00000080: ae08 873e 8b5a b2bd a4c4 7f3d dc61 883d
00000090: 1326 e3bb 3b84 c8bc fb8c a5bd ec01 ddbe
000000a0: b249 153f 43e2 b23d 65e4 93be 9e2d 553e
000000b0: 4968 513d d730 71bd 6271 69be d330 b53d
000000c0: 0547 09bc 089c 383b 96a7 403e 504e 77bc
000000d0: de03 2bbc 8d2e 0dbf 94a3 a83e be1d 61be
000000e0: bbd9 0bbd e12d c9be ef76 683e 63cb 55be
000000f0: 2561 a33d 700c 11be c4a4 84be d611 74be
00000100: 9dba d4be 56bb 55bc 6a09 bc3c efa6 9ebe
00000110: bf43 8bbd 38fc 423b 3a11 4dbf 172b aa3e
00000120: 49c1 a4be ff00 c63e 8402 283e 8590 a73d
00000130: 533c 503e 4572 053e 84e3 a33e 0307 82bc
00000140: f2e9 e43e 2d11 e6be 4502 893e b588 77be
00000150: 4766 08bd 7e93 b9be 93ee a4be 14cf ccbd
00000160: e4d0 cc3d caf8 263e b66f 5cbe cfa3 223e
00000170: 5492 dabe 474d a0bc 8cbb 9ebe 710a f8bd
00000180: 8a79 6ebe f05b 2fbe 3c66 94be bc44 e7be

Mixer_Block.0.mlp_block_token_mixing_DynaMixerOperation.fc_out.weight f4 [66, 66]
-0.35944566 0.15563871 -0.065971665 -0.1106388 0.1972058 -0.030469177 -0.06851745 0.29941052
-0.1651276 -0.2719402 -0.03363488 0.06780223 -0.12156966 0.19182418 0.088630855 0.002736866
0.11056101 0.27812207 -0.013433703 -0.034457177 0.14324707 0.12358978 -0.06958913 0.17590526
-0.2504219 0.28218645 -0.12354399 0.22903225 -0.017082158 -0.35995698 -0.11898315 0.24630834
-0.20263112 0.099848785 -0.24463506 0.37620878 0.017948456 0.3041921 0.34020045 -0.17476997
0.15916991 0.19817188 0.12254437 0.17406182 -0.04809182 -0.1957429 -0.10203099 -0.028332684
-0.3174306 0.14770786 -0.40790775 -0.22516647 0.035836242 -0.07191234 -0.16230504 -0.031162258
-0.10230818 0.16235644 0.062081344 -0.008918634 -0.19325517 -0.05537878 -0.15273574 0.42270383
-0.08202125 -0.077143595 -0.030095646 -0.46835065 -0.05744827 0.18443364 0.09047834 0.024725612
-0.14941199 0.08868708 0.29294652 0.070945494 0.03355484 -0.14180343 0.25209138 0.115950115
-0.08329737 -0.24092844 -0.038460616 -0.4325067 0.047975063 -0.07349016 -0.01253701 0.20134386
0.2213372 -0.031466678 -0.17653531 0.26728362 0.08638147 -0.034337327 0.03435378 -0.058824748
-0.0061008874 0.09067758 0.1444318 -0.011854568 -0.07898073 -0.24893937 -0.038443923 0.07494565
-0.0042557144 -0.07049514 0.029197171 -0.16245852 -0.018242108 -0.02431306 -0.10139108 -0.13309243
-0.033605732 -0.15437193 -0.09723026 -0.023700852 0.19708365 0.015729224 0.04397226 0.012624658
0.10101397 0.105854586 0.3144276 -0.03806428 -0.17549644 -0.1431555 0.468043 -0.19278274
-0.13698728 0.028066214 -0.20923045 -0.20147267 -0.06981543 -0.064654924 -0.028622745 -0.18980484
-0.14280951 0.050098326 -0.09501659 0.039779946 -0.13392551 -0.30039683 -0.20458175 -0.11620274
-0.3297578 0.011856248 0.0039984975 0.075743094 -0.13667205 -0.07394144 0.11742935 0.1344688
0.13691981 0.09133438 0.18387319 0.009157938 0.15177006 0.14467129 -0.2774825 -0.04022983
-0.24187368 -0.31960002 0.20650536 0.037492245 0.06195603 0.16194841 0.1959253 0.2505743
-0.19284633 0.19320197 0.07064907 -0.09483222 0.01723563 0.22384413 -0.4436882 -0.11364257
-0.03762134 -0.16402453 0.030686956 -0.018383617 0.13315585 0.14961489 -0.081436954 0.17223938
0.34264755 -0.083358295 0.021020243 0.05304236 0.06384068 0.065225236 -0.09674963 -0.23257191
-0.009088051 0.38034046 0.12854354 0.3026924 0.15871553 0.06970854 0.09396857 -0.013995593
-0.22823913 -0.20211923 -0.038570356 -0.23821267 0.02248899 0.2207413 -0.101396084 0.2700825
0.14236262 -0.025528977 -0.26381797 -0.14621824 -0.025106408 -0.1546661 -0.11358639 -0.05277111
-0.0060963323 -0.043700512 0.114511475 -0.10961781 0.34187844 -0.011769355 0.09960282 0.0840085
-0.16952486 -0.19752811 0.12742878 0.017926805 0.04182012 0.07255771 0.020555612 0.19566652
0.051211115 -0.09161907 0.04009415 0.07922017 0.09472068 0.17426926 0.0829302 -0.08527769
-0.014132345 -0.068069205 0.105410665 -0.102526754 -0.15523638 -0.17424361 -0.17272314 0.43571106
0.14011173 -0.23467644 -0.065984294 -0.051474445 0.057139378 0.08505868 -0.026646001 0.423772
00000000: 4309 b8be c15f 1f3e 271c 87bd 9896 e2bd
00000010: 51f0 493e 7f9a f9bc e052 8cbd 564c 993e
00000020: 3617 29be bf3b 8bbe bac4 09bd e5db 8a3d
00000030: 84f9 f8bd 8f6d 443e 1884 b53d fe5c 333b
00000040: d06d e23d 0466 8e3e 0919 5cbc f822 0dbd
00000050: 5caf 123e a31c fd3d bf84 8ebd 8220 343e
00000060: 4d37 80be be7a 903e a204 fdbd 6e87 6a3e
00000070: e2ef 8bbc 484c b8be 70ad f3bd 4138 7c3e
00000080: 887e 4fbe 857d cc3d 9d81 7abe 709e c03e
00000090: a408 933c 11bf 9b3e c12e ae3e e6f6 32be
000000a0: 70fd 223e 92ed 4a3e 8bf8 fa3d 433d 323e
000000b0: eefb 44bd d470 48be a0f5 d0bd f219 e8bc
000000c0: 4386 a2be bb40 173e 49d9 d0be 0a92 66be
000000d0: 06c9 123d c746 93bd 4b33 26be fe47 ffbc
000000e0: f386 d1bd c440 263e 0249 7e3d 761f 12bc
000000f0: afe4 45be dcd4 62bd c266 1cbe a36c d83e
00000100: c2fa a7bd 76fd 9dbd 258b f6bc a8cb efbe
00000110: e14e 6bbd 2cdc 3c3e b54c b93d 5e8d ca3c
00000120: 75ff 18be 92a1 b53d 16fd 953e df4b 913d
00000130: cd70 093d eb34 11be 1f12 813e 4177 ed3d
00000140: d097 aabd f2b5 76be e188 1dbd 8571 ddbe
00000150: 8081 443d 0282 96bd 0868 4dbc 162d 4e3e
00000160: 38a6 623e 34e3 00bd acc5 34be 66d9 883e
00000170: c5e8 b03d 4ca5 0cbd 8db6 0c3d 38f2 70bd
00000180: f4e9 c7bb 2bb5 b93d eee5 133e a939 42bc
00000190: a6c0 a1bd f6e9 7ebe 6077 1dbd 1b7d 993d
000001a0: 8573 8bbb c25f 90bd e82e ef3c 875b 26be
000001b0: 7970 95bc 2f2c c7bc 20a6 cfbd 6249 08be
000001c0: 2aa6 09bd ad13 1ebe a920 c7bd 4a28 c2bc
000001d0: 4cd0 493e 93da 803c 421c 343d a7d7 4e3c
000001e0: 6ae0 ce3d 4aca d83d a8fc a03e 4ae9 1bbd
000001f0: 57b5 33be 5b97 12be 55a3 ef3e d768 45be
00000200: 6546 0cbe 1eeb e53c 8240 56be da4e 4ebe
00000210: 64fb 8ebd cd69 84bd 3f7a eabc 335c 42be
00000220: a83c 12be e733 4d3d 0f98 c2bd 4cf0 223d
00000230: c523 09be 9dcd 99be e17d 51be b4fb edbd
00000240: 04d6 a8be b540 423c d405 833b 321f 9b3d
00000250: c2f3 0bbe 9c6e 97bd cd7e f03d 30b2 093e
00000260: b534 0c3e 850d bb3d 4149 3c3e 2d0b 163c
00000270: 9c69 1b3e b624 143e 3012 8ebe 09c8 24bd
00000280: bcad 77be 9da2 a3be 2476 533e 7891 193d
00000290: 9bc5 7d3d ced5 253e a4a0 483e 464b 803e
000002a0: 8279 45be bdd6 453e 76b0 903d 6537 c2bd
000002b0: bc31 8d3c 6537 653e 1a2b e3be 70bd e8bd
000002c0: d618 1abd 0cf6 27be 3663 fb3c 3d99 96bc
000002d0: 025a 083e a534 193e 6bc8 a6bd 855f 303e
000002e0: 806f af3e c1b7 aabd a532 ac3c f242 593d
000002f0: e7be 823d cf94 853d ac24 c6bd 5527 6ebe
00000300: 0ce6 14bc fcbb c23e eba0 033e 80fa 9a3e
00000310: 5386 223e 5ac3 8e3d 9872 c03d c64d 65bc
00000320: 85b7 69be 58f8 4ebe f3fb 1dbd 06ee 73be
00000330: d53a b83c 020a 623e c0a8 cfbd 4148 8a3e
00000340: 82c7 113e 2522 d1bc 2613 87be 3cba 15be
00000350: f4ab cdbc ca60 1ebe fb9f e8bd 8526 58bd
00000360: bec3 c7bb 4fff 32bd fe84 ea3d 4d7f e0bd
00000370: b10a af3e 41d4 40bc 90fc cb3d a60c ac3d
00000380: ed97 2dbe cf44 4abe b17c 023e 3cdb 923c
00000390: 934b 2b3d 2399 943d 3e64 a83c ce5c 483e
000003a0: bfc2 513d c7a2 bbbd c339 243d 2f3e a23d
000003b0: eafc c13d a473 323e 4fd7 a93d 12a6 aebd
000003c0: 5a8b 67bc de67 8bbd 8ce1 d73d 8cf9 d1bd
000003d0: 49f6 1ebe eb6c 32be 56de 30be 8515 df3e
000003e0: 7379 0f3e 054f 70be c622 87bd ded6 52bd
000003f0: fb0a 6a3d 3f33 ae3d b748 dabc a5f8 d83e

Mixer_Block.0.mlp_block_token_mixing_DynaMixerOperation.fc_out.bias f4 [66]
0.17102605 -0.13937712 0.12747905 0.069166064 0.1558763 0.15462214 0.0752358 -0.12470099
0.021208191 0.14720388 0.14018144 0.40030143 0.32234356 0.029287845 0.4043756 -0.14724357
-0.2908279 0.043673966 0.29240674 -0.014232143 0.22424273 0.13009895 0.33351243 -0.035750143
0.28291705 0.23826095 0.42658263 0.44157258 -0.009654766 0.2411376 0.5726384 -0.20986708
0.17236593 0.46327955 0.3318398 -0.42014778 0.17016295 0.5150301 0.5643988 0.23675099
-0.018815525 -0.18453404 0.36364362 0.5228772 0.48166147 0.27064246 0.2544134 0.09445359
-9.3994044e-05 0.3425604 0.5943958 -0.2810972 0.65548533 0.25416866 0.020327011 -0.19404331
0.21324256 0.29779375 0.3169093 0.30925474 -0.17611879 -0.32989365 0.3776642 0.29341966
-0.0013434952 0.3017121
00000000: 7421 2f3e e0b8 0ebe de89 023e f0a6 8d3d
00000010: 099e 1f3e 4455 1e3e 3a15 9a3d 3c63 ffbd
00000020: cdbc ad3c 9dbc 163e b98b 0f3e 4ff4 cc3e
00000030: 370a a53e 10ed ef3c 520a cf3e 05c7 16be
00000040: 65e7 94be 79e3 323d 56b6 953e ef2d 69bc
00000050: e39f 653e a938 053e 24c2 aa3e be6e 12bd
00000060: 81da 903e aefa 733e 0a69 da3e cd15 e23e
00000070: 062f 1ebc c6ec 763e 6e98 123f 65e7 56be
00000080: b280 303e fa32 ed3e e8e6 a93e 9c1d d7be
00000090: 323f 2e3e 03d9 033f 717c 103f da6e 723e
000000a0: 0423 9abc 7ef6 3cbe 7f2f ba3e 48db 053f
000000b0: 559c f63e a691 8a3e 7942 823e e270 c13d
000000c0: ab1e c5b8 1464 af3e 532a 183f f9eb 8fbe
000000d0: e3cd 273f 6522 823e d584 a63c 4ab3 46be
000000e0: 425c 5a3e 6c78 983e f041 a23e a356 9e3e
000000f0: 7c58 34be d2e7 a8be 345d c13e 1a3b 963e
00000100: 3818 b0ba 027a 9a3e

Mixer_Block.0.mlp_block_token_mixing_DynaMixerOperation.LN.weight f4 [10]
1.9809754 1.5430137 0.77945757 0.9132904 0.6476219 0.9258708 0.638236 1.03427
0.69783163 0.06554683
00000000: 9a90 fd3f 7981 c53f 888a 473f 66cd 693f
00000010: 8dca 253f de05 6d3f 6f63 233f f662 843f
00000020: 18a5 323f 6b3d 863d

Mixer_Block.0.mlp_block_token_mixing_DynaMixerOperation.LN.bias f4 [10]
0.116905615 0.27439865 -0.14619912 0.37197036 -0.21090731 0.28260225 -0.14920403 0.2909919
-0.040217295 -0.052733883
00000000: 366c ef3d fb7d 8c3e 39b5 15be e672 be3e
00000010: 16f8 57be 3eb1 903e f1c8 18be e4fc 943e
00000020: e4ba 24bd 7cff 57bd

Mixer_Block.0.mlp_block_channel_mixing_DynaMixerOperation.fc_ND.weight f4 [1, 10]
-0.24070777 -0.20885587 0.11128318 0.28734812 0.28210613 0.041542035 -0.24535702 -0.22939289
0.13281979 0.11731056
00000000: 197c 76be 50de 55be 70e8 e33d 4b1f 933e
00000010: 3770 903e fb27 2a3d df3e 7bbe f8e5 6abe
00000020: e901 083e 8540 f03d

Mixer_Block.0.mlp_block_channel_mixing_DynaMixerOperation.fc_Nd.weight f4 [484, 22]
0.030646348 0.10979288 -0.12806743 0.16005595 0.19190626 -0.18815152 0.07316789 -0.16276741
-0.19194894 0.1883319 -0.182197 0.070530064 0.035090603 -0.14806007 -0.0005378938 0.102667384
0.05181182 -0.02290298 0.034519926 0.04242064 0.044981226 0.13164736 -0.04208775 -0.04151242
-0.19651188 0.19245213 0.16815796 -0.010073284 -0.060151234 -0.17278513 0.03505792 -0.18157607
-0.14156124 -0.18390447 0.011590208 -0.05044546 -0.066015154 -0.20787221 -0.014020413 -0.11276273
0.12012893 0.05430079 0.07721429 0.031233141 0.15756963 0.08663516 -0.16617543 0.10725926
-0.074181736 -0.06768889 -0.032733064 0.2100921 -0.17513332 0.16027999 0.11679467 -0.091039866
0.082307965 0.13358586 0.058799814 0.1889119 0.14144263 0.04868096 0.10083409 0.05035915
-0.11000616 0.20529543 0.14672029 0.05070373 -0.04274062 0.116171435 -0.04381717 -0.005793795
0.116124615 -0.0845074 -0.049141362 -0.13208728 0.19143823 0.04876257 0.14982039 -0.034210846
0.049464013 0.09129067 0.20391837 0.02189861 0.21088387 -0.053396836 0.13750209 0.047152042
-0.042762455 0.20840311 -0.1986028 -0.16440912 0.124659196 0.047737718 0.023054203 0.0300471
-0.013999979 -0.10814166 0.2086169 0.011982674 -0.1462976 -0.05179304 0.04428174 0.034709018
0.1390348 -0.04922081 -0.174149 -0.17714897 0.0038788128 -0.14361589 -0.041641273 0.21098988
-0.12252449 -0.13819255 0.15071814 0.11302608 0.014084663 -0.20654973 0.13061173 -0.19492878
-0.016549053 -0.1396164 -0.03014622 -0.1090495 0.004841552 -0.03695295 0.21072192 0.015152064
-0.17797431 -0.17011963 -0.09574583 0.08466294 0.17030106 0.074780986 -0.1306288 -0.1310075
0.059273586 -0.01976043 -0.029995635 -0.020266986 -0.013281482 -0.12665164 -0.12040347 -0.09398118
0.09869403 0.11730623 -0.15644301 0.11769799 -0.11674516 0.10205035 -0.16317505 -0.038060762
0.10776292 0.099666014 0.17392738 0.099610336 0.1251465 -0.17301999 0.18685025 0.14475198
-0.06381282 -0.21211185 -0.10106964 -0.16987671 -0.11540259 -0.10972962 -0.08566238 -0.12179904
-0.1789495 -0.15366314 0.036993004 -0.15216365 -0.06312226 0.09152236 0.18843725 0.025403382
0.03718756 0.07510572 -0.103969626 0.14865994 0.103665225 0.039401 0.12154856 0.19660276
-0.15224664 0.033763863 0.060513556 0.10863947 0.119550526 -0.1443817 0.068585545 -0.13294612
-0.007188674 0.12560882 0.023455335 -0.15530628 0.17436443 -0.026048936 0.05161902 -0.104315735
0.059973937 -0.06779792 -0.07281858 -0.017796522 -0.02691042 0.2013092 0.039183747 0.06653477
-0.04402812 -0.13506244 -0.19651495 -0.19685856 -0.1311736 0.032055687 0.14657293 0.13851555
-0.08521967 0.053326562 -0.16816169 0.043401808 -0.027282834 -0.20092656 0.073987335 -0.15329693
-0.031177659 0.0366441 0.09076945 0.17087215 0.09040217 0.18331134 -0.07723721 0.14210676
0.107014276 0.09981254 0.17729263 -0.05388781 -0.12429133 0.17299084 0.057309706 -0.0458146
-0.20537136 -0.0041055446 0.21313469 0.15861358 -0.0072206217 -0.1347335 -0.13499475 0.18126562
0.088927686 0.07127621 0.009922214 0.13310237 -0.090629384 0.13880302 -0.022116497 0.14893426
00000000: 0d0e fb3c 17db e03d 1c24 03be b5e5 233e
00000010: 1383 443e cbaa 40be 0cd9 953d 80ac 26be
00000020: 438e 44be 14da 403e da91 3abe 1172 903d
00000030: 2abb 0f3d 0f9d 17be 7101 0dba 4743 d23d
00000040: a238 543d 089f bbbc c464 0d3d 44c1 2d3d
00000050: 3c3e 383d 91ce 063e 3464 2cbd ed08 2abd
00000060: 693a 49be 2c12 453e 9a31 2c3e 6a0a 25bc
00000070: 2461 76bd 96ee 30be e598 0f3d 14ef 39be
00000080: 6ef5 10be 7451 3cbe dbe4 3d3c e69f 4ebd
00000090: f432 87bd 74dc 54be e0b5 65bc 25f0 e6bd
000000a0: 2806 f63d 816a 5e3d 8722 9e3d a5dc ff3c
000000b0: ef59 213e c66d b13d e429 2abe beaa db3d
000000c0: 98ec 97bd 79a0 8abd 1b13 06bd 6222 573e
000000d0: 2656 33be 7020 243e 0b32 ef3d 1c73 babd
000000e0: 1491 a83d bbca 083e 13d8 703d 1f72 413e
000000f0: 56d6 103e b065 473d 1a82 ce3d 6545 4e3d
00000100: e94a e1bd f738 523e d83d 163e b7ae 4f3d
00000110: ca10 2fbd 4aeb ed3d a279 33bd e0d9 bdbb
00000120: bed2 ed3d 3712 adbd 7448 49bd e341 07be
00000130: 6208 443e 43bb 473d 846a 193e ac20 0cbd
00000140: c79a 4a3d 9af6 ba3d facf 503e b764 b33c
00000150: f1f1 573e a4b6 5abd 59cd 0c3e 8022 413d
00000160: af27 2fbd a067 553e 885e 4bbe dd5a 28be
00000170: 524d ff3d a088 433d 2bdc bc3c 5625 f63c
00000180: 2b60 65bc 6079 ddbd ab9f 553e fa52 443c
00000190: 0acf 15be f024 54bd c560 353d 0b2b 0e3d
000001a0: 235f 0e3e c39b 49bd 1e54 32be 8a66 35be
000001b0: ae33 7e3b 0b10 13be 0a90 2abd bb0d 583e
000001c0: 1fee fabd 5982 0dbe db55 1a3e 387a e73d
000001d0: 5cc3 663c c681 53be 15bf 053e 699b 47be
000001e0: e191 87bc 9af7 0ebe 35f5 f6bc 5855 dfbd
000001f0: e2a5 9e3b fa5b 17bd 7dc7 573e 5d40 783c
00000200: e63e 36be d733 2ebe 6416 c4bd c363 ad3d
00000210: 6763 2e3e c626 993d 8ec3 05be d526 06be
00000220: dcc8 723d a0e0 a1bc 68b9 f5bc f306 a6bc
00000230: 939a 59bc f8b0 01be 1896 f6bd 3479 c0bd
00000240: 1820 ca3d 403e f03d 9932 20be a50b f13d
00000250: 1618 efbd c6ff d03d 5c17 27be 9ae5 1bbd
00000260: ceb2 dc3d b21d cc3d 051a 323e 8100 cc3d
00000270: 6726 003e 272c 31be ac55 3f3e dd39 143e
00000280: 4cb0 82bd d933 59be 99fd cebd 29f4 2dbe
00000290: 3158 ecbd ecb9 e0bd c26f afbd c671 f9bd
000002a0: 8a3e 37be df59 1dbe fa85 173d cad0 1bbe
000002b0: 3e46 81bd 1370 bb3d b2f5 403e c11a d03c
000002c0: fc51 183d 07d1 993d 07ee d4bd 503a 183e
000002d0: 6f4e d43d f162 213d 74ee f83d 3c52 493e
000002e0: 8be6 1bbe fa4b 0a3d 10dd 773d 5f7e de3d
000002f0: e8d6 f43d ccd8 13be 9476 8c3d 0723 08be
00000300: f88e ebbb 999f 003e 6725 c03c 9c08 1fbe
00000310: 978c 323e 9464 d5bc 776e 533d 7da3 d5bd
00000320: 3ba7 753d a3d9 8abd e821 95bd 03ca 91bc
00000330: 3e73 dcbc 0024 4e3e 237f 203d 6243 883d
00000340: d456 34bd cf4d 0abe 373b 49be 4a95 49be
00000350: 5f52 06be d34c 033d 3717 163e 05d7 0d3e
00000360: a687 aebd f46c 5a3d 9432 2cbe 18c6 313d
00000370: 4080 dfbc b1bf 4dbe ac86 973d dff9 1cbe
00000380: 4a68 ffbc 2018 163d 55e5 b93d 1cf9 2e3e
00000390: c624 b93d f8b5 3b3e 8b2e 9ebd 6f84 113e
000003a0: 4d2a db3d 846a cc3d 338c 353e 77b9 5cbd
000003b0: 748c febd 8324 313e 95bd 6a3d 17a8 3bbd
000003c0: df4c 52be ce87 86bb fb3f 5a3e 996b 223e
000003d0: f79a ecbb 94f7 09be 103c 0abe b29d 393e
000003e0: b81f b63d 43f9 913d c890 223c fd4b 083e
000003f0: e69b b9bd 6122 0e3e a82d b5bc 3982 183e

Mixer_Block.0.mlp_block_channel_mixing_DynaMixerOperation.fc_Nd.bias f4 [484]
0.07970567 0.03404458 0.19309215 -0.10727135 0.20948932 0.21127184 -0.007909967 -0.045495994
0.011351175 0.039697647 0.18837866 0.20207685 -0.06890164 0.17520703 0.17970222 -0.021353498
0.045084998 0.14196761 -0.010630925 -0.056624275 0.08023368 0.027762553 0.004223371 0.05829702
-0.20677918 0.09769832 0.113166966 -0.08366231 0.036696177 0.16808957 0.20920599 -0.060014777
-0.03975374 0.18337207 -0.0133613385 -0.18748951 -0.079293735 -0.07089673 -0.026977314 0.05540517
-0.21268182 0.20589392 -0.013483714 0.007536943 0.19377948 -0.035124253 -0.11048336 0.009176497
0.07219605 0.07008948 -0.13647756 -0.047329772 0.077108 0.17321035 -0.13911526 0.07078465
-0.08954592 0.15958434 -0.14741494 0.009722524 -0.10410359 0.14006709 -0.075614534 0.18149231
0.1761738 0.06063817 0.016367637 0.16340186 -0.020041067 0.09003651 0.089209214 -0.12135863
-0.059411593 -0.14885458 -0.14068446 0.15521626 0.09487771 -0.20698833 0.099628374 0.0187509
-0.12121196 0.08670363 -0.17103016 0.18033336 0.03798284 0.02675742 -0.11878306 -0.18298323
-0.010694083 -0.1674579 -0.1928047 -0.025084723 0.13174544 -0.0019723703 0.14363149 -0.18395825
-0.17754023 -0.15741447 0.047286972 0.21057397 -0.029090766 0.09010496 0.16362523 -0.06179948
-0.18393357 -0.207223 -0.15920433 0.14959666 -0.05063511 -0.1135956 0.1484686 0.16178098
0.05915942 0.12164497 0.039824445 0.10771514 0.018613504 -0.010897508 0.07324352 0.07689037
-0.19417879 0.0037602496 0.007521719 0.1817834 0.18053654 0.14051944 -0.12847967 0.16657999
0.16979802 0.100399405 0.07639372 0.010573893 0.17886136 0.05128445 -0.10471003 -0.13974482
0.088896245 0.041628692 -0.12397008 0.14741139 -0.033502314 -0.16699447 -0.061266493 -0.1487274
0.17122068 -0.041871715 0.05583375 0.10191605 0.15655497 -0.06597876 0.012556582 0.14067857
0.0057074837 0.06135448 -0.14671373 0.14931506 0.04622575 -0.1498864 0.16195284 -0.08529886
-0.03126407 0.18114707 0.11913686 0.15178166 0.17536362 -0.13646074 -0.062832065 -0.11273391
-0.11842345 0.19569866 0.19741215 0.1947547 -0.0451876 -0.07163739 0.027310563 0.19450505
-0.08650122 0.09209698 0.06477442 0.11281557 0.1973382 -0.16776633 0.16019624 0.21242169
0.1147196 -0.1672527 -0.1726424 0.039586786 -0.02892338 0.05240027 0.1163636 0.10975971
0.015762622 -0.0049643093 0.20512073 -0.20912191 0.19635619 -0.19411287 0.021574207 0.19276957
0.017000863 -0.18142557 -0.13078852 0.009309039 0.11505221 0.088948555 -0.0828196 0.1273739
0.15084103 0.18305089 0.06061395 -0.14972594 -0.02899594 0.1469112 0.10564156 0.17312203
0.19422418 -0.024869073 0.09648702 0.19449246 0.2043732 0.14102681 0.124782816 -0.19257182
-0.014897553 -0.09999589 0.13558975 -0.054870095 0.08140452 0.10220749 0.053182963 0.16974765
0.14842768 -0.15858348 -0.026512414 0.10554656 -0.014491261 0.0069461595 -0.08568808 0.06083453
-0.088504545 -0.10980713 -0.00043503722 0.011562505 -0.14513145 0.08059344 -0.060877 -0.13394684
-0.020071795 0.13989602 -0.12635003 0.09987986 -0.16146979 0.11469314 0.07087061 -0.15832564
00000000: ba3c a33d 5472 0b3d f3b9 453e 15b1 dbbd
00000010: 5e84 563e a557 583e ce98 01bc 025a 3abd
00000020: 47fa 393c 009a 223d 56e6 403e 3ced 4e3e
00000030: 4e1c 8dbd 7969 333e dc03 383e 88ed aebc
00000040: 0cab 383d f55f 113e 552d 2ebc dbee 67bd
00000050: 8e51 a43d 4b6e e33c 3464 8a3b dbc8 6e3d
00000060: ecbd 53be 0f16 c83d 15c4 e73d 2557 abbd
00000070: bb4e 163d ac1f 2c3e 183a 563e 0ed2 75bd
00000080: d1d4 22bd e3c5 3b3e 84e9 5abc 40fd 3fbe
00000090: c164 a2bd 4e32 91bd 87ff dcbc 88f0 623d
000000a0: 43c9 59be dbd5 523e ccea 5cbc 76f8 f63b
000000b0: 216e 463e 73de 0fbd 1a45 e2bd 0559 163c
000000c0: 86db 933d 138b 8f3d c6c0 0bbe dddc 41bd
000000d0: cdea 9d3d 0e5e 313e 3b74 0ebe 8bf7 903d
000000e0: da63 b7bd 146a 233e f1f3 16be 394b 1f3c
000000f0: 4334 d5bd bf6d 0f3e cbdb 9abd 1fd9 393e
00000100: e866 343e bb5f 783d 6c15 863c d152 273e
00000110: 2a2d a4bc 1065 b83d 52b3 b63d e08a f8bd
00000120: 9259 73bd 566d 18be 960f 10be 03f1 1e3e
00000130: 3f4f c23d c0f4 53be f609 cc3d 7d9b 993c
00000140: fa3d f8bd ac91 b13d 8822 2fbe 4fa9 383e
00000150: e593 1b3d 6032 db3c 8844 f3bd f55f 3bbe
00000160: 3c36 2fbc 157a 2bbe 986e 45be 7a7e cdbc
00000170: 47e8 063e e242 01bb 2214 133e 8d5f 3cbe
00000180: 1bcd 35be 4231 21be fcaf 413d b4a0 573e
00000190: c24f eebc f388 b83d 5f8d 273e 7421 7dbd
000001a0: 1559 3cbe 4432 54be 7606 23be de2f 193e
000001b0: c366 4fbd cfa4 e8bd 2708 183e eaa9 253e
000001c0: 2651 723d ff20 f93d f51e 233d c199 dc3d
000001d0: 597b 983c 768b 32bc b300 963d b378 9d3d
000001e0: ced6 46be 856e 763b c178 f63b 6d25 3a3e
000001f0: 92de 383e 54e4 0f3e 2d90 03be f293 2a3e
00000200: 88df 2d3e 349e cd3d 5074 9c3d 1f3e 2d3c
00000210: 6f27 373e a50f 523d 3672 d6bd 4419 0fbe
00000220: 3c0f b63d d982 2a3d 06e4 fdbd 03f3 163e
00000230: b939 09bd 9900 2bbe 93f2 7abd ff4b 18be
00000240: 7954 2f3e ad81 2bbd eeb1 643d 5db9 d03d
00000250: f24f 203e df1f 87bd 1fba 4d3c 0b0e 103e
00000260: d805 bb3b d64e 7b3d 203c 16be 0ce6 183e
00000270: 3657 3d3d d27b 19be f7d6 253e 2bb1 aebd
00000280: c10e 00bd 9e7e 393e 07fe f33d a76c 1b3e
00000290: 8592 333e 5dbc 0bbe 19ae 80bd 09e1 e6bd
000002a0: fe87 f2bd 3b65 483e 6926 4a3e c76d 473e
000002b0: a216 39bd a0b6 92bd 67ba df3c 552c 473e
000002c0: 8d27 b1bd 579d bc3d 73a8 843d d90b e73d
000002d0: 0613 4a3e f0ca 2bbe 7c0a 243e 1285 593e
000002e0: 1cf2 ea3d 4b44 2bbe 2bc9 30be c125 223d
000002f0: b9f0 ecbc aaa1 563d 0a50 ee3d b3c9 e03d
00000300: 9d20 813c a5ab a2bb 2b0b 523e 0e24 56be
00000310: 9911 493e 86c5 46be 64bc b03c 6365 453e
00000320: 6545 8b3c a0c7 39be 6ded 05be f184 183c
00000330: 7ea0 eb3d a92a b63d 539d a9bd 4e6e 023e
00000340: 1276 1a3e b171 3b3e 5546 783d c251 19be
00000350: e588 edbc e46f 163e 9a5a d83d e746 313e
00000360: b4e2 463e 3aba cbbc fd9a c53d 0829 473e
00000370: 3547 513e 5569 103e 228e ff3d 8c31 45be
00000380: de14 74bc a5ca ccbd 0ad8 0a3e 77bf 60bd
00000390: 6ab7 a63d 2952 d13d 61d6 593d 54d2 2d3e
000003a0: 6dfd 173e b563 22be 9030 d9bc cb28 d83d
000003b0: c16c 6dbc 9c9c e33b 3b7d afbd a12d 793d
000003c0: df41 b5bd 90e2 e0bd b515 e4b9 a970 3d3c
000003d0: 579d 14be 2c0e a53d 295a 79bd 5c29 09be
000003e0: 9b6d a4bc e740 0f3e e761 01be d08d cc3d
000003f0: 5658 25be 3de4 ea3d 9c24 913d 1e20 22be

Mixer_Block.0.mlp_block_channel_mixing_DynaMixerOperation.fc_out.weight f4 [10, 10]
-0.095245585 -0.22435695 -0.20381457 0.28174695 -0.14689423 0.20592687 -0.008337283 0.25730616
0.18827423 -0.07918771 -0.27660272 0.11731184 0.11802466 0.1056736 0.0033258807 0.2989899
0.31567985 0.0014545121 -0.301698 0.01777608 0.27756467 0.27981663 0.040087108 -0.18277639
-0.04227453 -0.19746691 -0.13710299 0.3134773 -0.30839744 0.05139305 -0.06183573 0.1451986
-0.0932065 0.061475717 -0.048156325 0.09653699 0.09479865 0.118533656 -0.22801355 0.08719688
-0.11058778 -0.10913519 0.12400635 0.3057093 0.29354155 -0.079316184 -0.22709535 -0.19360165
0.11203656 -0.21205859 0.20427002 -0.07138731 -0.020396607 0.078844935 0.1246719 0.2933112
-0.22967333 -0.18138103 0.30388457 0.00025536143 -0.08285419 0.10491913 0.09337426 -0.26534927
0.14559639 -0.16686136 -0.16252212 -0.16509572 0.3152971 -0.0026183783 -0.23249704 0.10510728
0.12732458 -0.29954287 -0.1653492 -0.22619753 -0.21092074 0.22299065 -0.24669354 0.012812215
-0.007930454 -0.08524472 0.12849459 -0.11448749 0.022357771 0.1682969 -0.18997347 0.11284562
0.014715852 0.29427883 0.3142758 -0.16245389 -0.09769655 -0.2776018 -0.0019774488 -0.17152691
-0.27761757 -0.31089777 -0.13720983 0.23262724
00000000: 1e10 c3bd d4bd 65be c4b4 50be 2341 903e
00000010: 716b 16be 7ede 523e 1999 08bc a2bd 833e
00000020: f6ca 403e 2b2d a2bd df9e 8dbe 3141 f03d
00000030: eab6 f13d 676b d83d 05f7 593b 3415 993e
00000040: caa0 a13e 54a5 be3a 2978 9abe 249f 913c
00000050: f51c 8e3e 2044 8f3e 6132 243d bc29 3bbe
00000060: 0f28 2dbd c434 4abe ba64 0cbe 1980 a03e
00000070: 45e6 9dbe 8581 523d 7647 7dbd f1ae 143e
00000080: 0de3 bebd f6cd 7b3d 913f 45bd 2fb5 c53d
00000090: cb25 c23d c6c1 f23d 627c 69be 4794 b23d
000000a0: d97b e2bd 4582 dfbd 0bf7 fd3d ee85 9c3e
000000b0: 144b 963e 8670 a2bd af8b 68be 833f 46be
000000c0: 6d73 e53d e325 59be 292c 513e 8333 92bd
000000d0: c916 a7bc 7479 a13d fb53 ff3d e32c 963e
000000e0: 7c2f 6bbe f3bb 39be c296 9b3e 08e2 8539
000000f0: 75af a9bd d7df d63d 013b bf3d dcdb 87be
00000100: 3817 153e b4dd 2abe 336c 26be da0e 29be
00000110: 9f6e a13e 1999 2bbb b413 6ebe 7c42 d73d
00000120: 6061 023e af5d 99be 4d51 29be 53a0 67be
00000130: 9bfb 57be a957 643e 3b9d 7cbe 53ea 513c
00000140: bcee 01bc c994 aebd 1694 033e 6b78 eabd
00000150: a527 b73c 0656 2c3e 6888 42be 9b1b e73d
00000160: c21a 713c b7ab 963e c2e8 a03e 505a 26be
00000170: 2115 c8bd d321 8ebe 1698 01bb c0a4 2fbe
00000180: e423 8ebe fe2d 9fbe bc80 0cbe d635 6e3e

Mixer_Block.0.mlp_block_channel_mixing_DynaMixerOperation.fc_out.bias f4 [10]
0.041214895 -0.14147207 0.17206655 0.03783718 0.0475402 0.20633195 0.19839852 0.22092257
-0.25008413 0.08826277
00000000: f3d0 283d 0ede 10be 3732 303e 29fb 1a3d
00000010: 83b9 423d af48 533e fb28 4b3e 8739 623e
00000020: 070b 80be 1cc3 b43d

Mixer_Block.0.mlp_block_channel_mixing_DynaMixerOperation.LN.weight f4 [22]
1.0 1.0 1.0 1.0 1.0 1.0 1.0 1.0
1.0 1.0 1.0 1.0 1.0 1.0 1.0 1.0
1.0 1.0 1.0 1.0 1.0 1.0
00000000: 0000 803f 0000 803f 0000 803f 0000 803f
00000010: 0000 803f 0000 803f 0000 803f 0000 803f
00000020: 0000 803f 0000 803f 0000 803f 0000 803f
00000030: 0000 803f 0000 803f 0000 803f 0000 803f
00000040: 0000 803f 0000 803f 0000 803f 0000 803f
00000050: 0000 803f 0000 803f

Mixer_Block.0.mlp_block_channel_mixing_DynaMixerOperation.LN.bias f4 [22]
0.0 0.0 0.0 0.0 0.0 0.0 0.0 0.0
0.0 0.0 0.0 0.0 0.0 0.0 0.0 0.0
0.0 0.0 0.0 0.0 0.0 0.0
00000000: 0000 0000 0000 0000 0000 0000 0000 0000
00000010: 0000 0000 0000 0000 0000 0000 0000 0000
00000020: 0000 0000 0000 0000 0000 0000 0000 0000
00000030: 0000 0000 0000 0000 0000 0000 0000 0000
00000040: 0000 0000 0000 0000 0000 0000 0000 0000
00000050: 0000 0000 0000 0000
