M_2_AST/M_2_AST/h36m/run_for_longging/exp220/model.pt (torch, 870893 bytes, 184 tensors)

Mixer_Block.0.mlp_block_token_mixing.fc1.weight f4 [20, 10]
000000 6b ac 9b 3d f6 49 b5 be fc c6 a6 3e c9 68 b5 be
       0.076012455 -0.3540799 0.32573688 -0.35431507
000010 0e 27 6d 3f 9c 5e e5 bd 8b db 55 be db 39 77 3d
       0.9263772 -0.11199686 -0.2088453 0.06035791
000020 86 5f c9 bc d0 2b 83 be 96 81 0e 3e 2a d7 ab be
       -0.024581682 -0.25619364 0.1391662 -0.33562595
000030 8d 18 a7 3e 8d 16 b7 be ac b8 71 3e ae 9e c2 be
       0.32635918 -0.35759392 0.23605603 -0.38011688
000040 16 0e 92 3e c7 aa 79 be 16 4a 16 3f 55 61 51 3e
       0.28526372 -0.24381553 0.58706796 0.20447285
000050 b4 66 17 3f 81 80 81 bf bb 8c f7 3e 32 eb 87 bf
       0.5914109 -1.0117341 0.48349556 -1.0618651
000060 96 2c 2a 3e a1 69 11 3f b6 50 02 bd df c3 cf bb
       0.1661857 0.568018 -0.031815253 -0.0063404883
000070 b3 12 2a bf aa ea 03 3f 1d 61 0d bf e2 4c f1 3e
       -0.6643478 0.51529944 -0.5522631 0.4712897
000080 f5 24 06 be 0d ec a0 3e fa ea 80 bf ff 88 62 be
       -0.13100035 0.31430092 -1.0071709 -0.22122572
000090 29 3a 85 3e 4a 78 1f bf 39 27 0f bd d3 44 45 be
       0.26020935 -0.6229292 -0.034949515 -0.19264536
0000a0 20 e4 f6 3e 19 12 0b bd 92 2b f4 3e c3 f7 ed be
       0.4822092 -0.033952806 0.47689492 -0.4647809
0000b0 ca 7b 1a 3e d4 6f f9 be 64 4f 4a 3e 01 91 bf be
       0.15086284 -0.4871813 0.19756848 -0.37415317
0000c0 6d b0 00 3c 06 fe 4f be 46 00 c8 be c4 5d 6b 3e
       0.007854563 -0.20311746 -0.3906271 0.22984987
0000d0 66 28 02 be 24 7d 3a 3e 67 c5 17 bf a7 c8 21 3f
       -0.12710723 0.182118 -0.5928559 0.63196796
0000e0 ed 8b d1 be 7f 3f f7 3e 6f 29 84 3e 41 fc 2a be
       -0.40927067 0.4829063 0.2581286 -0.1669779
0000f0 ec 2d 53 3f d4 d3 5d 3f fd c6 ef 3d 69 81 3a 3e
       0.82491946 0.8665135 0.11707876 0.18213429
000100 89 76 8c be 25 68 57 3e 93 e3 11 bf 84 1b 89 3e
       -0.27434185 0.21035822 -0.56987876 0.26778805
000110 6a 39 05 bf e4 fc fc 3e 86 7d 4b 3e ae 56 2d be
       -0.5204073 0.4941169 0.19872102 -0.16927597
000120 78 85 ae 3d 8a fd 76 be 66 a8 a2 3e 48 c9 af be
       0.08521551 -0.24120155 0.31769103 -0.34333253
000130 3d 1a 54 3f 9d 94 34 bf bc 5a ce 3e 10 32 e7 be
       0.82852536 -0.70539266 0.403036 -0.45155382
000140 1a 30 60 bd c5 4d 74 3e 47 eb 3b bf 90 d6 30 3f
       -0.054733373 0.23857792 -0.7340588 0.69077396
000150 2f cc 83 be 4a fd f4 3e 40 0e 3c 3e 26 46 a2 3c
       -0.25741717 0.47849494 0.18364811 0.01980884
000160 fb b5 cb 3e fe 1c 9c be f9 52 bd be aa 6f dc 3a
       0.39787278 -0.3049087 -0.36977366 0.0016817946
000170 7f b5 8c be 98 58 1f 3e 0e bf 8a be 02 4a bf 3e
       -0.2748222 0.1556114 -0.27098888 0.3736115
000180 fc 86 22 bf 14 a5 05 3f af 30 d0 be 0a a5 80 3e
       -0.6348722 0.52205014 -0.40662143 0.25125915
000190 75 1d 9f be 3d 04 ca bd c3 10 38 be 9b 1b 08 3f
       -0.3107716 -0.0986409 -0.17975144 0.5316712
0001a0 f2 c0 23 bf 48 01 79 3e 84 65 6a 3e f2 74 78 3e
       -0.63966286 0.24316895 0.22890288 0.24263361
0001b0 1e 38 11 bf 1d 43 20 3f d2 42 4f 3b 42 ed 45 3e
       -0.56726253 0.62602407 0.0031625521 0.19328788
0001c0 d8 67 e5 3b 0b 0c dd 3e b7 ca 7a 3e c0 63 33 3f
       0.0070009045 0.4317325 0.24491392 0.7007408
0001d0 41 b0 6b bf a5 09 7b 3f fe 5c 03 bf 3b ed 98 3e
       -0.9206582 0.9806159 -0.5131377 0.29868492
0001e0 b2 01 b9 3e 3a 01 2d be f3 af e6 3e 00 79 0d bf
       0.36134106 -0.16894999 0.45056114 -0.55262756
0001f0 a0 59 47 bb 23 ae 19 3f 5f 1d 09 3f a2 ac 1c 3f
       -0.003041841 0.60031337 0.5356044 0.61200917
000200 f5 cb 27 3f ae 8d d0 3e 1f bf da 3e 2d ba bc bd
       0.6554559 0.40733093 0.4272394 -0.09215198
000210 1b 78 85 bd 3e f7 28 bb 9c 2b 15 3f 7a 0e bf be
       -0.06517049 -0.0025782133 0.5826967 -0.37315732
000220 6c 36 2f 3f b0 9d 1d bf ba 54 8c 3e 61 9d 0e 3d
       0.68442416 -0.6156874 0.2740839 0.034818057
000230 3b 2d 94 be 1e d7 b9 bc a9 22 f1 be 42 ad e2 3e
       -0.28940758 -0.022685584 -0.47096756 0.4427281
000240 14 be b7 be ec ea 80 bd 03 0f 8e bd df 60 c6 be
       -0.35887206 -0.06294808 -0.06936457 -0.38745782
000250 83 37 38 bf a3 58 ea be 13 54 97 3e 7b 5d c9 3d
       -0.71959704 -0.4577075 0.2955633 0.09832283
000260 63 23 81 be 51 3d 80 be ef c2 34 3f 73 02 4c 3d
       -0.2522231 -0.2504678 0.70609945 0.049807023
000270 68 7d bb 3e 14 11 5d bb 2f 90 df 3e cd 77 2f be
       0.36619115 -0.0033732103 0.4366469 -0.17135544
000280 5c 93 51 3d d7 01 ba be 24 d1 64 3e bb ea 24 be
       0.051165923 -0.3632953 0.22345406 -0.16105168
000290 17 d6 18 3f e6 10 19 bf 96 1f f0 3e 1f 61 1f 3e
       0.59701675 -0.5979141 0.46899098 0.15564393
0002a0 37 87 ef 3d 2f 3b a9 be 8c 8c c7 3e e2 f3 bc bd
       0.11695712 -0.33052966 0.38974416 -0.092262045
0002b0 d5 13 bb 3e e8 3f 3a 3e b9 18 2c be b7 1a 71 bf
       0.36538568 0.18188441 -0.16806306 -0.9418139
0002c0 74 1a 34 3f dd e2 64 bf 67 39 28 3f a1 c4 59 3e
       0.70352864 -0.89408666 0.6571259 0.21266414
0002d0 dd 16 e2 be bd 56 d3 3e 21 29 95 be c9 5b 85 3e
       -0.44158068 0.41277114 -0.2913294 0.2604659
0002e0 17 fc 4a bd dc 7c f0 3e 28 0c 88 bf b1 94 4a be
       -0.049556818 0.4697026 -1.062871 -0.19783284
0002f0 11 7a 99 be ed 6d eb be 60 9e 81 be 49 ae 63 3e
       -0.29975942 -0.45982304 -0.25316143 0.22234453
000300 5d 54 9e 3e 02 53 c9 3e 09 e7 ef be 79 2e b5 3e
       0.3092374 0.39321142 -0.46855953 0.35387018
000310 45 30 39 bf 3a 60 2d 3f 94 57 b0 be 24 6c d7 3e
       -0.7233928 0.67724955 -0.34441817 0.42074692

Mixer_Block.0.mlp_block_token_mixing.fc1.bias f4 [20]
000000 22 46 ca 3e ab f6 ce 3e 52 1f 30 3f a9 34 af 3e
       0.39506632 0.40422568 0.6879779 0.34219864
000010 cc 7b 83 3e 29 8f e2 3e 2f 53 27 bd de 67 08 3e
       0.25680387 0.44249848 -0.040850814 0.13320872
000020 c6 b9 c0 3e bb 33 3b 3e 67 47 b9 3e b0 f7 bb 3e
       0.37641734 0.18281452 0.36187288 0.36712408
000030 45 0c 02 3f 9e c9 9c 3e 75 8c 8f 3e c9 27 a8 3e
       0.5079997 0.30622572 0.28036848 0.32842854
000040 83 ac db 3e 4d 31 09 3f 66 bd 2e 3f 54 f3 bc 3e
       0.42905053 0.5359085 0.6825775 0.36904395

Mixer_Block.0.mlp_block_token_mixing.fc2.weight f4 [10, 20]
000000 73 25 38 3f 95 6f ee 3e fd f2 95 3e ac 6a 91 3e
       0.7193214 0.46569505 0.29286948 0.28401697
000010 47 b1 28 3f 62 69 10 be 82 87 23 bf e5 4e 30 3e
       0.65895504 -0.141027 -0.63878644 0.17217596
000020 07 f4 4d bf 72 92 85 be 7c 1a a1 be fd 9a b2 be
       -0.8045048 -0.2608829 -0.31465518 -0.34883872
000030 a5 6b 6a be 2f 7a c3 be aa 9c 84 3e e1 fd 36 bf
       -0.22892626 -0.38179156 0.25900775 -0.7148114
000040 c0 eb 0d 3f 28 82 be 3c c3 f3 70 3e 9a 79 0a be
       0.5543785 0.023255423 0.23530488 -0.1352295
000050 ca f2 23 3e cf bc 23 be 19 8c 7b bd 23 43 bf 3b
       0.16010585 -0.15989994 -0.061412904 0.0058368607
000060 70 00 77 bf 4b e5 e6 3d 99 ee fc be 0c 50 9d be
       -0.9648504 0.11274203 -0.49400786 -0.30725133
000070 e8 6d d1 3e 99 1f cc 3e 20 26 18 3f 69 15 0d bd
       0.40904164 0.39867857 0.59433174 -0.034444246
000080 5c 0b 0d be 52 0f 9a bd 18 99 a2 3e 06 17 0d bd
       -0.13773865 -0.07522453 0.31757426 -0.034445785
000090 09 6a 90 bc ce eb 5a be d6 a2 76 3d 9e 77 23 3c
       -0.017628687 -0.21379015 0.060213886 0.009977249
0000a0 5a 08 00 3f d0 e6 83 3e 75 40 25 3f 02 a0 2b bf
       0.50012743 0.25762033 0.6455148 -0.6704103
0000b0 fd 38 8a be b2 89 c2 be 53 1c b0 be 31 7f 27 bc
       -0.26996604 -0.37995678 -0.3439661 -0.010223196
0000c0 14 88 93 3d ea 63 1b be b3 69 ee bd e0 f2 b0 3d
       0.07203689 -0.15174833 -0.11641254 0.08640075
0000d0 2c 26 c9 3e 55 12 d6 3e b7 6f 80 bd b6 4c 11 3f
       0.39286935 0.4181086 -0.06271308 0.56757677
0000e0 c4 61 b6 3e 1d 10 d9 be aa 4a df be 84 a4 e3 be
       0.35621464 -0.42395106 -0.43611652 -0.44461453
0000f0 61 47 ae be 5c c8 79 be cd 74 66 3f 26 a7 8a 3d
       -0.34038833 -0.24392837 0.90021974 0.06770162
000100 26 a9 f5 be 5e 45 1e 3f 58 32 17 be 74 fe 64 bf
       -0.47980613 0.61824596 -0.14765298 -0.89450765
000110 7d 63 ec 3d 21 40 b3 3e c8 6c de bd 08 3b 10 3d
       0.115424134 0.35009864 -0.10860592 0.035212547
000120 35 25 51 3f 1f 76 43 bf 19 ed 9b 3c bb 81 92 3c
       0.816974 -0.76352113 0.019033955 0.017884126
000130 aa 11 2a bf 47 ab 55 bf 15 63 f2 3d 1b 4f 7e 3e
       -0.66433203 -0.83464473 0.11835305 0.24834864
000140 00 12 c5 be 1e dc 06 3f e0 00 76 3d d3 58 2a 3f
       -0.38490295 0.5267962 0.06005943 0.66541785
000150 42 ff f6 3d d0 39 a8 3d 86 ff 19 bf 6a 2c b9 3e
       0.12060405 0.08214152 -0.6015552 0.36166698
000160 d4 de 10 3e ad cf 7c bf 9a d0 03 3e 69 63 87 bf
       0.14147502 -0.9875439 0.12872544 -1.0577213
000170 0d 08 22 3f 34 e6 dd 3d 9f 1c 6c be 82 fa 3a 3e
       0.63293535 0.108349234 -0.23057793 0.18259624
000180 c8 05 f8 3c 35 09 16 3f d4 e6 02 bf 25 cc d3 be
       0.030276194 0.586078 -0.51133466 -0.41366687
000190 cb 30 dc bd 8f fc a1 bc 27 91 b9 be 31 58 92 bd
       -0.10751494 -0.01977375 -0.36243555 -0.071457274
0001a0 09 03 67 be 0c c1 a0 3e 30 66 e0 3e d3 52 12 bf
       -0.22559752 0.31397283 0.43827963 -0.5715763
0001b0 2b ca 8a be 7b ad 52 3f c8 72 08 3f 09 b7 1f 3f
       -0.27107367 0.8229596 0.5330014 0.62388664
0001c0 c5 3e cb be 2e 56 22 be 1c aa 44 be 8b 15 9d be
       -0.39696327 -0.15853187 -0.19205517 -0.30680498
0001d0 ff 2a 09 3e bd 74 8b 3e 36 45 9b be 89 cf 85 3f
       0.13395308 0.27237502 -0.3032624 1.045396
0001e0 81 96 ff 3e d2 9f 97 3e 82 f4 20 be a8 9d c2 be
       0.49919513 0.2961412 -0.15718272 -0.38010907
0001f0 0e 4d 8e be 1e 42 65 3e 2a cd 64 3e 7c 85 e7 be
       -0.27793163 0.22388503 0.22343889 -0.45219028
000200 dc ca 58 be f9 ec 73 3e 8e 3d 2d bf d6 e1 0b 3f
       -0.21171135 0.23820867 -0.6767205 0.54641473
000210 e8 16 77 3d 86 ce 3f 3c 2b c4 16 bf 13 f0 8d 3e
       0.06032458 0.011706954 -0.5889308 0.27722225
000220 74 b5 a5 3b 3a 96 9f be 91 5c fe 3e 63 86 aa 3e
       0.0050570313 -0.311693 0.49679998 0.33305654
000230 bf cb ae be 44 48 5e be 50 62 22 3f 69 9f 0b 3f
       -0.3413982 -0.21707255 0.6343126 0.54540116
000240 66 de 85 be de 9f 8c bc bc a1 ef bd 23 33 0a bf
       -0.2614624 -0.017166074 -0.1170077 -0.5398428
000250 72 f1 60 3c 42 97 ab 3d db c0 3a 3e ab db 5b be
       0.01372944 0.083784595 0.18237631 -0.21470515
000260 c4 d9 1a 3e 3e 6d 87 be bd 91 e2 3e 7b 5c 99 be
       0.15122133 -0.26450533 0.44251814 -0.2995337
000270 c5 74 5a bf fc 28 c2 3d 04 91 65 3e 3e 34 dd bd
       -0.85334426 0.094804734 0.224186 -0.1080098
000280 c1 bf 6f 3e fa f0 a5 be de a5 cb 3e 79 d4 b4 3d
       0.23412992 -0.32410413 0.39774984 0.088295884
000290 4f fd 0c 3f 7c b4 70 bf f0 a2 36 3e 40 4b af 3e
       0.5507402 -0.940254 0.17835593 0.342371
0002a0 c4 4c 07 bf a5 39 ea be b9 54 b1 3e 52 c4 cb bd
       -0.5285151 -0.45747104 0.3463495 -0.099495545
0002b0 85 2a a6 be 4f 29 c3 3e b7 cd 32 3f a2 ff 01 bd
       -0.32454315 0.38117453 0.69845146 -0.03173793
0002c0 60 7d 51 3e 22 1f b3 bd 78 c2 19 be 94 8d 0a bf
       0.20457983 -0.087461725 -0.1501559 -0.5412228
0002d0 a0 b3 94 3e 60 a3 7f bf c4 1b 2b bf c5 69 21 3f
       0.29043293 -0.99858665 -0.6683924 0.63052016
0002e0 de dd b3 be 9e dd 3c 3f cd 78 2d bf 72 3a 10 bf
       -0.3513021 0.7377566 -0.6776245 -0.5633918
0002f0 9e 1b e2 3e f4 0f 4d 3e 47 ac e3 be 8b f0 da bd
       0.44161695 0.20025617 -0.44467375 -0.10690411
000300 7b e0 42 bd 7b 27 8c bf 72 82 32 3f f4 82 8e bd
       -0.047577363 -1.0949548 0.69730294 -0.06958571
000310 cb ea 0b 3c 3e 2c 62 bf 03 2a 84 3f 3f 85 de be
       0.008539866 -0.8834876 1.0325321 -0.43461034

Mixer_Block.0.mlp_block_token_mixing.fc2.bias f4 [10]
000000 45 fa 8c bc 32 35 83 3e 87 1d 0c 3e 3b c8 b7 bd
       -0.017209182 0.25626522 0.13683139 -0.08973738
000010 d7 81 5c 3c 0b 6f 6e bd 86 30 0a be bf 9f ac bd
       0.013458691 -0.058211368 -0.13495073 -0.08428907
000020 88 d4 85 3e 46 6f a1 3e
       0.2613871 0.31530207

Mixer_Block.0.mlp_block_token_mixing_DynaMixerOperation.fc_ND.weight f4 [1, 66]
000000 fa 5e 60 bd 94 1d 3e bc 3a d4 93 3d 5e b4 8e bc
       -0.054778077 -0.011603732 0.072182134 -0.01741999
000010 39 90 9d 3b 46 ab 02 be 84 5b 30 bd 87 bb 0b bd
       0.0048084524 -0.12760648 -0.043056026 -0.034114387
000020 c7 1a a8 bd 02 b0 ab 3d 27 4e 90 bd d8 e6 af 3c
       -0.082082324 0.0838318 -0.070461564 0.02147238
000030 77 d9 cc bd 04 c7 b7 3c bc dc 83 bd e8 ea 89 3d
       -0.100024156 0.022433765 -0.06438586 0.06734258
000040 75 fd 55 3e 24 07 96 bd d6 a2 00 3d 4b 4a 28 bd
       0.20897467 -0.07325581 0.031405292 -0.041086476
000050 51 6d f0 bc 98 75 95 bd 96 dd ca 3c 10 1f 85 bd
       -0.029349001 -0.0729782 0.024763864 -0.06500065
000060 e9 a4 e1 3c 6d ba b8 3d fa 2e 02 3e bb d5 9e 3c
       0.027544456 0.09019933 0.12713233 0.019389024
000070 cd 47 ff bc 5c be 5e bd 29 30 43 bc 55 81 96 3d
       -0.031162167 -0.05438076 -0.011913338 0.07348887
000080 df 8e 29 3d d8 2e e6 bc b5 2d e0 bc b4 9e 2d 3d
       0.041396018 -0.028098509 -0.027365545 0.04238768
000090 7b b7 01 3e 2f 21 b2 bd 11 ff 80 3e a0 eb 96 3d
       0.12667648 -0.086977355 0.251946 0.07369161
0000a0 a4 a8 f4 3c d9 d6 74 3d a8 03 0e bd ef 68 d4 bc
       0.02986557 0.059775207 -0.034671456 -0.025928942
0000b0 c4 a5 a2 3b 63 d4 bf bd 1e 75 05 bd 07 95 e7 bb
       0.0049636085 -0.093666814 -0.032582395 -0.007067326
0000c0 2e 48 22 3d bd 23 bb bd 68 e7 98 3d 8c b0 35 bc
       0.039619617 -0.09137676 0.07466012 -0.011089455
0000d0 92 f2 cd 3d ad 23 c8 bd d6 03 fc 3d 59 fc 9c bd
       0.10056032 -0.097724296 0.12305419 -0.07665319
0000e0 55 9f 03 bd 6c d7 16 bd 72 09 dd bb 46 54 8d 3d
       -0.032134373 -0.036826536 -0.0067455107 0.069008395
0000f0 51 82 70 bc 4e cd 8c 3d ce 94 54 3d fd 6a f7 bb
       -0.014679507 0.06875096 0.051899724 -0.007550596
000100 2c 21 c9 3c db 48 0d bd
       0.02455195 -0.03449331

Mixer_Block.0.mlp_block_token_mixing_DynaMixerOperation.fc_Nd.weight f4 [100, 10]
000000 a2 dc 0f bf 39 86 ae 3d d9 47 8d bd 7b b1 2a 3d
       -0.56196034 0.08521695 -0.068984695 0.041673165
000010 41 5b a5 bd 80 c8 38 3b ea b8 b4 ba 69 70 ac 3d
       -0.08074046 0.002819568 -0.0013788019 0.08419878
000020 ad ed 17 be 39 53 24 be 8d 4d f9 3e 93 b9 16 bf
       -0.1483676 -0.16047372 0.4869198 -0.58876914
000030 a0 17 f9 bd 46 14 c8 3d 49 cf 3b bd 14 9b 4f bd
       -0.12162709 0.09769492 -0.04585198 -0.050685003
000040 23 df 13 3c c9 f6 55 3d e8 fa c5 bc bf d1 1d bd
       0.009025368 0.052237306 -0.024167493 -0.038530108
000050 db 18 50 3e a9 58 02 3f ca b6 e1 be 6e 6f 90 3e
       0.20321982 0.50916535 -0.4408477 0.28210014
000060 97 bf 82 bd 8a 74 d0 3d 80 37 3e 3d 84 e3 3d 3e
       -0.06384199 0.10178478 0.046439648 0.18543822
000070 21 5f d7 bd 4d 19 25 bd e1 54 19 bd 97 83 88 3e
       -0.10516191 -0.04030733 -0.037434462 0.26662895
000080 5a 25 fc bb 78 63 29 be a4 4d 16 3c a6 4f 28 be
       -0.0076948823 -0.1654185 0.009173784 -0.16436633
000090 5f 02 1b 3d 3a 18 fc 3d ec 16 85 bc 60 bb 91 bd
       0.037844058 0.12309308 -0.016246282 -0.07115817
0000a0 ee 36 00 3e f9 24 67 3e 07 5a f8 3d 65 f2 3e 3d
       0.12520954 0.22572698 0.12126546 0.046617884
0000b0 7e db b4 3d f4 63 15 3d 0b d1 1d bd ab 78 4f 3d
       0.08830927 0.036472276 -0.038529437 0.050652187
0000c0 6f 4e 79 be 2b 06 84 be a9 0e 68 3e 07 30 93 bd
       -0.24346326 -0.25785956 0.22661842 -0.07186895
0000d0 a4 27 c3 3e 08 5c f6 3d e2 63 3d 3d a9 f7 6b be
       0.3811618 0.12029272 0.046237834 -0.23043694
0000e0 5f dd b3 3b e1 a3 b7 3a 42 a7 24 3c d1 47 b0 bc
       0.005489036 0.0014010632 0.010049643 -0.02151862
0000f0 60 fb 9e bd c2 a0 ac 3e 13 b4 8d 3e 30 1b 39 bc
       -0.0776279 0.33716398 0.27676448 -0.011297986
000100 f3 d0 b6 3d 3e d5 d2 3d 43 4d 47 be 73 2f c8 3e
       0.08926573 0.10294579 -0.19463067 0.390987
000110 da 1d 18 be 21 e9 d3 bd e6 aa af bd 4a ba 37 be
       -0.14855137 -0.103472 -0.08577518 -0.17942157
000120 8a 4d 3b 3e 8e ed af bc 60 cf af bb 0f dd 9a 3d
       0.18291298 -0.02147558 -0.005365297 0.07561695
000130 71 e7 69 3b 06 1b 4d be 3b 5a 45 3d c4 6e fc bd
       0.0035690928 -0.2002984 0.048181754 -0.12325814
000140 ad e0 b5 bc c4 04 2d 3e 42 c6 a8 3e fc 4c db 3d
       -0.02220186 0.16896349 0.3296376 0.10708043
000150 c8 2c a9 3d a6 75 10 be 05 a7 82 3e e3 e1 c2 bc
       0.082604945 -0.1410738 0.2551805 -0.023789352
000160 64 e0 06 3b 2f dd 0a 3e 0f 17 1b be c3 1d fc bd
       0.0020580525 0.13560937 -0.15145515 -0.12310364
000170 4a 94 df bd 3e 2c 56 be 59 6d 09 be 47 a8 9e be
       -0.10916956 -0.20915315 -0.13420619 -0.3098776
000180 8b f7 0e be 36 19 2a be bd 6c 3b be d2 c4 59 be
       -0.13961618 -0.1661118 -0.18303199 -0.21266487
000190 1b c5 8f be 5c d2 04 3f 20 d8 c3 3c 1d 04 90 be
       -0.28080067 0.5188348 0.023906767 -0.28128138
0001a0 fe 43 7b 3e 85 4f 04 3e 85 cb 19 3e 2e a3 bd bb
       0.24537656 0.1292096 0.15019043 -0.005787275
0001b0 89 30 fe 3d 78 35 6d 3d fe d4 9d bc 49 a1 54 3d
       0.12411601 0.05791232 -0.019266602 0.051911626
0001c0 51 42 ca 3e cc 03 87 3d 7f 33 15 3e 3f cf 53 3e
       0.3950372 0.06592521 0.14570425 0.20684527
0001d0 bd 91 36 3e 96 80 88 3e b2 da 96 3e 26 3d e7 3e
       0.17829032 0.26660603 0.29463726 0.4516384
0001e0 d2 3b dc bd 73 6d 01 bd fa a1 a5 bd d8 8a bd bd
       -0.10753597 -0.03159852 -0.08087535 -0.09254998
0001f0 53 35 1f be 8a d8 d8 3d 20 40 50 be 24 70 97 3e
       -0.15547685 0.105881765 -0.20336962 0.29577744
000200 26 45 2f be e3 07 96 3d 40 9e 0a 3f 53 d4 5d be
       -0.17116222 0.07325723 0.5414772 -0.21663027
000210 83 f4 01 3e d3 20 06 3f 90 1e d4 3d 23 a0 84 3e
       0.1269093 0.52393836 0.10357392 0.25903425
000220 3d c4 1a 3e 2e e7 da 3e 7a 7c f1 3e 4b 19 06 3c
       0.15113921 0.427545 0.4716528 0.008184741
000230 bf e1 92 3d e6 97 6e be 99 30 9d be a4 3e a8 be
       0.07171964 -0.23300132 -0.3070114 -0.3286029
000240 a8 1a 3b be 05 2d 55 be ed b6 ae be 04 46 d2 bd
       -0.18271887 -0.20817955 -0.34123936 -0.10267261
000250 a5 07 8e be 39 8c 19 be ea 03 01 3f 84 e2 a7 3e
       -0.27740207 -0.14994897 0.503966 0.32790005
000260 bb 47 69 3e 1c 96 4e 3c 32 09 ce bd 76 57 e1 be
       0.22781269 0.012609031 -0.100603476 -0.4401204
000270 35 65 84 be ea 56 28 3d 55 c0 33 3e 28 41 e2 bc
       -0.25858465 0.041098513 0.17553838 -0.02761896
000280 1c a3 66 3d 1b f0 b5 bb 5f 87 b8 3d 36 3b cf be
       0.056307897 -0.0055523044 0.09010195 -0.40474862
000290 99 06 cd 3c cc 99 80 be 51 de fa be e0 2d a2 3c
       0.02502756 -0.25117338 -0.4899774 0.019797266
0002a0 f6 b1 62 be c8 f9 7d be 74 cd bf bc 6d 97 0e 3d
       -0.22138199 -0.24802315 -0.023413397 0.03481238
0002b0 81 63 11 be d9 3c 8c 3d 9c 35 fe 3d 9c 3c 87 bc
       -0.14198114 0.06847543 0.12412569 -0.016508393
0002c0 7a a6 2c 3e f3 48 27 3e c1 c0 ae 3e f5 18 92 bd
       0.16860381 0.16336422 0.34131435 -0.071336664
0002d0 c2 d3 02 be 24 01 90 bd 7d 1a b6 3d 4c a5 61 be
       -0.12776092 -0.070314676 0.08891771 -0.22035712
0002e0 6c 53 eb 3d 71 ea d7 bc 36 6d 7d be 71 60 79 be
       0.11490521 -0.026356908 -0.24748692 -0.24353196
0002f0 51 ba 48 bc 75 d3 5e 3e f0 51 00 be 75 fd e9 3d
       -0.012251453 0.21760352 -0.12531257 0.11425296
000300 3d 6c a0 bd d0 7b 2b be a4 cf 12 bf 76 77 b9 be
       -0.07833145 -0.1674645 -0.57348084 -0.36223954
000310 b8 56 25 3f 35 7b 24 3d 72 bc 35 be da 59 72 bd
       0.6458545 0.040156562 -0.17747667 -0.05916772
000320 bf 4d 1b 3e 8f 73 f2 3d 43 11 0a be 59 e4 28 be
       0.15166377 0.11838447 -0.13483147 -0.16493358
000330 ef 2a ce bd 33 a8 48 bd 59 0a 92 be e3 86 28 be
       -0.10066783 -0.048988532 -0.2852352 -0.16457705
000340 12 4a 73 be 6c 02 45 3d 68 bb 26 be 04 a5 d7 3d
       -0.23758724 0.048098013 -0.16282427 0.10529521
000350 55 e1 1e be b0 bf 0c 3e 56 72 1c 3e 10 f5 2c 3e
       -0.15515645 0.13744998 0.1527799 0.16890359
000360 d1 57 6e 3e 40 c5 bb 3e 3d f3 8a 3e 17 7c 7d 3e
       0.23275687 0.36673927 0.271387 0.24754368
000370 c8 71 ff 3a d6 2f c9 3e 5c 6f 9e 3e a3 d1 22 3e
       0.0019488866 0.39294308 0.30944335 0.15900283
000380 9d f6 74 3e 85 93 04 3e e3 f3 25 3e a3 63 72 3e
       0.239222 0.12946899 0.16206317 0.23670821
000390 2d b9 32 3e ea b6 9a 3e ca db 5b be c8 fc 39 3e
       0.17453451 0.30217677 -0.21470562 0.18162835
0003a0 28 f5 90 3e 37 e5 97 3e 42 3a f8 3c 4c c1 af 3e
       0.2831204 0.29667065 0.030301217 0.3432716
0003b0 ac f1 0b 3e 2a fc 76 3d df cc 00 3e 92 59 23 3e
       0.13666409 0.060299076 0.12578152 0.15952137
0003c0 76 e0 64 3e 33 81 bd be 53 b1 c2 be 6a 85 d8 be
       0.2235125 -0.37012634 -0.38025913 -0.42289287
0003d0 71 c6 c4 bd 84 e8 31 be 03 03 b6 be bf e3 45 be
       -0.09608162 -0.17373854 -0.35549173 -0.1932516
0003e0 db df c8 be 49 89 00 3d e4 11 1e be 6a 88 8e 3e
       -0.39233288 0.031380925 -0.15436512 0.2783845
0003f0 4d cf f9 3d 1d c0 4a 3d f1 1f 86 3d bc c7 e0 3d
       0.121977426 0.04949962 0.06549061 0.10975596

Mixer_Block.0.mlp_block_token_mixing_DynaMixerOperation.fc_Nd.bias f4 [100]
000000 40 f4 8b be c6 e6 a5 3d bc b5 af 3e b3 65 a4 3d
       -0.27334785 0.08100657 0.3431834 0.0802721
000010 59 39 d1 3d 9c 02 a9 3e a6 93 2e 3e a9 e8 2e bd
       0.10216016 0.33009803 0.17048511 -0.04270235
000020 3c d0 2a 3e 1e f7 b3 3d 66 90 13 be 4d 01 fb be
       0.16680998 0.08787368 -0.14410552 -0.4902443
000030 83 c7 d1 3d 10 18 19 bf 66 ad b0 3e 89 77 a0 bd
       0.10243132 -0.5980234 0.34507293 -0.078352995
000040 8f d9 59 3e 10 2c 4b be 24 f2 63 be 5e 22 06 3e
       0.21274398 -0.19841027 -0.22260338 0.13099048
000050 8d a8 5c 3c 84 46 92 be 08 87 dd bd 47 03 bc be
       0.01346792 -0.28569424 -0.10816771 -0.3672125
000060 4d df 85 3e 49 f0 1a be 76 ed 8f 3e ce e6 1f be
       0.26146927 -0.15130724 0.28110856 -0.15615389
000070 01 51 f2 3b 04 4b c1 3e 42 15 33 3e 7d d2 92 3e
       0.0073949103 0.37752545 0.17488578 0.28676215
000080 d9 00 9b be e5 c8 6f 3d d3 70 ca be 48 5e 35 3e
       -0.30274084 0.058541197 -0.39539203 0.17711747
000090 eb 7a 8b 3d cc 0b 88 3e 48 ce 44 3e 74 73 98 3e
       0.06810554 0.265715 0.19219315 0.29775584
0000a0 3e a9 45 3e 4f 8a 9a 3e a5 45 cf 3e e3 44 87 be
       0.19302842 0.30183646 0.40482822 -0.26419744
0000b0 b0 39 83 bd 6f 5c 9f be 66 24 85 3e ca 16 1e bf
       -0.064074874 -0.3112521 0.26004332 -0.61753523
0000c0 3d ff 8c 3d 11 f6 fb bd 1c 9a e0 3e bf 75 a2 bb
       0.0688462 -0.12302793 0.43867576 -0.004957884
0000d0 bd 1e 93 bc e6 a6 21 3b d8 2d e6 ba 57 e1 dc bd
       -0.017958993 0.002466613 -0.001756127 -0.10785168
0000e0 82 15 36 3d bf 20 04 3d ad 6f 1b 3e c2 ab 7b 3e
       0.044454105 0.03225779 0.1517932 0.24577239
0000f0 0a 09 0b 3d e4 2f 37 3e 31 f9 4d be c6 56 49 3e
       0.033944167 0.17889363 -0.2011459 0.19662008
000100 ac ee 18 be 88 ef 9a 3d d5 1f 87 be df 46 df 3d
       -0.14934796 0.07565218 -0.26391473 0.109021895
000110 24 7b da bd 4c 07 ca bd 9a f7 ab bd c7 a5 62 3e
       -0.106680185 -0.09864673 -0.083968356 0.22133552
000120 4c 35 49 3e eb 62 51 bd d8 e2 92 bc fc 74 ac bd
       0.19649237 -0.051119726 -0.017930433 -0.084207505
000130 db a9 84 3e 74 0b eb be 10 2d b3 bd 2a 4c be bd
       0.2591084 -0.45907176 -0.08748829 -0.09291871
000140 9d 1d e4 bc 32 14 0c 3e 87 c8 c3 3d 17 6b 35 3e
       -0.027846152 0.13679579 0.09559732 0.17716633
000150 8f ed 01 be 9a 7a 8e 3e 97 01 e5 bb 31 e7 5d be
       -0.12688278 0.27827913 -0.006988715 -0.21670224
000160 63 32 04 bf 01 43 1b 3e ea fa 25 bd 04 fb 8a 3e
       -0.51639384 0.15162279 -0.040522493 0.27144635
000170 b8 0c c3 bd 0a e4 c2 3e 4d 5d 71 bd bd cd 12 3e
       -0.0952391 0.38064605 -0.05892687 0.14336295
000180 2d e1 f9 bd fb c5 ab bd 05 28 84 be e5 c6 92 3d
       -0.12201152 -0.08387371 -0.25811782 0.07166842

Mixer_Block.0.mlp_block_token_mixing_DynaMixerOperation.fc_out.weight f4 [66, 66]
000000 04 0a b3 3e 44 50 cb 3d b5 aa e0 3d eb 5f 9c 3d
       0.3496858 0.09927419 0.1097006 0.076354824
000010 d3 e8 13 3e 8e 8f 43 bd 80 99 06 3d 4a 1a 87 be
       0.14444284 -0.047744326 0.032861233 -0.26387244
000020 a6 82 33 3e d8 69 da bd a6 0a 46 bc 43 9f f2 bd
       0.17530307 -0.10664719 -0.0120875 -0.11846783
000030 30 0e 1e 3d f9 70 91 3c 79 a6 05 be 54 ec ec 3d
       0.03858775 0.017754065 -0.13051786 0.115685135
000040 07 dd b8 bd ad b9 11 3d 86 03 2c bd 2c b8 8b 3e
       -0.090265326 0.035577465 -0.041995548 0.2728895
000050 af e1 92 3d a6 56 df 3c 42 c7 e1 3c 2b 75 0b be
       0.07171952 0.027262997 0.027560834 -0.13618915
000060 e9 4a 2c 3d 3a 38 c5 3d 9d 2e 84 3e 1e 95 fa bd
       0.042063627 0.09629865 0.25816813 -0.12235473
000070 94 3b c6 3d 12 82 27 3e d0 71 9e bd 93 22 8e bd
       0.096793324 0.16358212 -0.07736552 -0.06940188
000080 2d 6d da bd 65 e4 e8 3c 96 d2 b3 3c eb 89 e0 bc
       -0.10665355 0.02842922 0.021951001 -0.027409514
000090 95 20 9d 3c 70 ad 09 bd 61 17 af bd 6d e5 41 be
       0.019180575 -0.03361267 -0.08549381 -0.18935175
0000a0 74 cf 03 be cf 1d 91 3c 07 6d 9e bc ee 40 96 3d
       -0.12872106 0.01771441 -0.019339098 0.07336603
0000b0 12 d2 5f 3d f7 ab 02 be 26 70 7f 3d f2 c1 80 bd
       0.054643698 -0.12760912 0.062362812 -0.06286992
0000c0 fa 54 99 bd 8e fb 35 bd 71 9f 90 3c f1 32 e2 bc
       -0.07486911 -0.044429354 0.017654153 -0.027612181
0000d0 a6 f2 92 be 09 22 99 be 8f 1a 3b bd 45 be 79 be
       -0.2870075 -0.2990878 -0.045679625 -0.24388988
0000e0 2c be 7b 3e c7 b3 d8 3d 33 a5 3d 3d 9d 76 11 bd
       0.24584264 0.10581165 0.046300124 -0.03551351
0000f0 f4 95 c5 3e f4 48 0f 3e bb 52 2c 3e d6 de 5f bd
       0.38590968 0.13992673 0.16828434 -0.054655872
000100 f7 e0 66 bd 4e 33 24 be 10 0b 67 be 14 30 d7 3e
       -0.056366887 -0.16035196 -0.22562814 0.42028868
000110 31 bc c9 bd 8c 54 d2 be 74 d7 65 bd 8b 3c 25 be
       -0.09850348 -0.4108013 -0.056113675 -0.16136377
000120 1c c1 84 3d b2 0a ee 3d cb 06 90 be ce c9 09 3d
       0.06482145 0.11623134 -0.28130183 0.03363972
000130 04 24 28 be bf 0f 1a 3e 5a 45 49 bc bb 4c b6 be
       -0.16419989 0.15045069 -0.012284601 -0.35605416
000140 d3 7e 9f bd 93 9e 4f 3e eb a1 1b be b7 89 26 be
       -0.07787862 0.20275335 -0.15198486 -0.16263472
000150 ea ed 1b be 4e 36 fa 3c d8 bc 35 be f9 b6 bb 3e
       -0.15227476 0.030543473 -0.1774782 0.36663035
000160 b6 27 ba 3d 1e ee 74 bc 70 12 ba be ec 17 81 bd
       0.090896055 -0.01494935 -0.36342192 -0.06303391
000170 8a c5 27 3d 26 77 cd 3d 9f e6 7d be 29 b2 a9 3e
       0.040959872 0.100324914 -0.24795006 0.33143738
000180 a2 46 0f 39 ff 1b c4 bd ae d0 b9 bd f9 24 3c bd
       0.00013663855 -0.09575652 -0.090730056 -0.045933697
000190 43 04 a1 bc bc da 50 be 0c 72 d2 bd cb 8e 62 3e
       -0.019655352 -0.2039594 -0.10275659 0.22124784
0001a0 dd 47 4f ba 6f 87 54 3c 2b 7e d4 3d 47 bb 3c 3d
       -0.0007907132 0.012971743 0.10375627 0.04607704
0001b0 03 33 51 be a7 91 81 3e 24 aa 34 3e 46 2a c0 3b
       -0.20429616 0.25306436 0.17643028 0.0058644144
0001c0 b8 4a 83 3e dd 51 0b 3d 34 98 11 be f5 ab 80 3e
       0.25642943 0.034013618 -0.14218217 0.25131193
0001d0 e5 1b 0f 3d d6 e7 30 3c 68 ab 92 bd bd 51 88 3d
       0.03493871 0.0107974615 -0.071615994 0.06656215
0001e0 f5 d1 31 bd 0e 96 85 bd d5 75 59 3e ec 88 a6 3b
       -0.04341312 -0.06522761 0.21236356 0.0050822403
0001f0 42 be 48 3e 59 73 6c bc bc 75 14 be e2 8d a9 3c
       0.19603828 -0.014431798 -0.14498037 0.020697538
000200 d8 bc d0 3d 8b 08 2a bd 8e 37 00 bd e1 a5 de 3e
       0.10192269 -0.041512053 -0.03130298 0.4348593
000210 e6 60 e0 3d fe 54 4c be fd 9d b6 3d 08 1e 04 3e
       0.10955982 -0.19954297 0.089168526 0.12902081
000220 11 34 a5 3e de 1b 20 3b 32 20 2b 3e 76 9c d1 bd
       0.32266286 0.0024430673 0.167115 -0.10234921
000230 17 a4 e5 3e 92 a5 19 be b9 2b 8b 3d aa 9e e2 bd
       0.44851753 -0.15004566 0.06795449 -0.11065419
000240 28 cf 4b bd aa a6 78 3e 11 d8 a9 3e 1b 1d 09 3e
       -0.049758106 0.24282327 0.33172658 0.13390009
000250 cd dd c0 3e 75 a6 e2 3d 47 82 5c be a1 7c 04 3e
       0.3766922 0.110669054 -0.21534072 0.12938167
000260 28 9d 26 be 95 18 7a be 19 f0 26 3c 5a 06 59 be
       -0.16270888 -0.2442344 0.01018908 -0.21193829
000270 c2 f3 10 3e eb c8 62 be 91 7e 55 3d 14 3d a0 3d
       0.14155486 -0.22146957 0.052122656 0.0782415
000280 ec 7d 53 bd 52 45 29 be 29 19 2b bd 1d a2 45 3b
       -0.05163376 -0.1653035 -0.04177204 0.0030156441
000290 7f 21 6f 3d 41 07 89 bd ba 11 14 3d f2 1c a4 3d
       0.058381554 -0.06690837 0.036149718 0.080133334
0002a0 fb 88 e7 3d ee c1 85 be f6 62 8c 3c ab 90 44 3e
       0.11305424 -0.2612452 0.017137032 0.19195811
0002b0 ab 4f 77 bb 29 4a 43 bd 32 22 e4 bc 1b 59 c8 bd
       -0.0037736695 -0.047678147 -0.027848337 -0.097826205
0002c0 65 8b 7d bd 3c 48 51 be 83 f4 50 be 03 7e 09 3c
       -0.061900515 -0.20437711 -0.20405774 0.00839186
0002d0 20 a6 bd 3e f5 59 0c be c4 c5 e4 bd 2d 6c 0b 3e
       0.37040806 -0.13706191 -0.11170533 0.13615485
0002e0 a4 b3 4d bd 67 68 b0 bd f1 59 39 be 1c 3f e6 3c
       -0.050220147 -0.08613663 -0.18100716 0.028106265
0002f0 d3 b7 76 be 46 a7 e5 3d 17 82 29 be 31 8b cd 3e
       -0.24093561 0.112135455 -0.16553532 0.40145257
000300 5d f7 ee 3d d1 24 0f 3d 8c a0 6a 3e c3 ad 29 be
       0.116682746 0.03494722 0.22912806 -0.16570191
000310 98 91 50 bd db 0b 9a bd c3 7c 09 3e 86 6b 62 3e
       -0.0509201 -0.075217925 0.13426499 0.2211133
000320 2e 44 27 be 90 85 c9 3e 58 09 56 bc 4c 18 74 bc
       -0.16334602 0.39359713 -0.013063751 -0.014898371
000330 ca 02 b6 3c 78 51 23 3e 30 2e 44 be e9 7d 6f 3e
       0.022218127 0.15949047 -0.19158244 0.23387875
000340 f5 81 0f be e2 12 87 3d 70 3a 46 bc 29 5a 28 3e
       -0.14014418 0.065953985 -0.0120988935 0.16440643
000350 ff fc c9 bd 43 3a 26 be dc 5b cd 3d 14 44 f8 bd
       -0.09862708 -0.16233163 0.100272864 -0.1212236
000360 f8 2d 3e 3e 36 66 f1 bc e8 9e 31 bd 06 33 60 bd
       0.18572223 -0.029467683 -0.043364435 -0.05473616
000370 f5 ce 79 3d 0f fe 04 3e 44 c4 af bd fb a5 86 be
       0.060988385 0.1298754 -0.085823566 -0.26298508
000380 98 6a cc 3c 31 66 31 bd 8c 37 12 be 0b 9e 37 3c
       0.024953172 -0.043310348 -0.14279002 0.011207114
000390 ae b7 45 be 2c e9 04 3e 94 d3 46 be 4c f5 6f 3e
       -0.1930835 0.12979573 -0.19416648 0.23433417
0003a0 b3 3d 01 bc db fb 1d 3e ce be 41 be 19 df ec 3c
       -0.007888245 0.15428106 -0.18920442 0.028914975
0003b0 51 48 27 bd 57 38 ee bc 6d dc 40 be 24 24 22 be
       -0.04084045 -0.0290796 -0.18834086 -0.15834099
0003c0 81 1a 31 3d 06 19 39 be e1 70 ec 3d 8a ad 07 be
       0.043238167 -0.18075952 0.115449674 -0.13249794
0003d0 9f c8 1a 3e a4 0a 50 be 6a 59 be bd f8 82 96 bd
       0.15115593 -0.20316559 -0.09294398 -0.07349199
0003e0 15 8c 2b 3e 29 00 3f be d4 a0 3a 3e b7 9a b6 bc
       0.16752656 -0.18652405 0.18225414 -0.02229057
0003f0 13 dc 01 3e 91 c9 9e 3d 73 ec 85 bd c9 37 03 bd
       0.12681608 0.077532895 -0.0653924 -0.032035623

Mixer_Block.0.mlp_block_token_mixing_DynaMixerOperation.fc_out.bias f4 [66]
000000 3f 3b b7 3e f8 2c f6 3e b6 78 c3 3e d8 e2 87 3e
       0.3578739 0.48081183 0.38178033 0.26540256
000010 f2 83 05 bf f3 6b b9 3d 2e 4d d6 3e 8e 56 c6 3e
       -0.5215446 0.09053793 0.41855758 0.3873791
000020 32 c9 38 be 05 7a f4 bd 48 b7 d3 be 17 e0 22 be
       -0.180455 -0.11937336 -0.4135077 -0.15905796
000030 b5 7c 2b 3f 09 7b c1 be ad 94 9a 3e c1 f4 84 bc
       0.6698716 -0.3778918 0.30191556 -0.016229989
000040 30 72 b9 3b d8 71 d3 3d 42 46 4a be 90 4f 95 3e
       0.005659364 0.10324448 -0.19753364 0.29162264
000050 64 c2 05 be 87 29 59 3e ed 86 b4 3d 81 4a 0e bd
       -0.13062435 0.21207248 0.088147976 -0.03473902
000060 d1 27 8d 3d d5 ef d4 3e e9 dc 73 be a0 59 bb be
       0.0689236 0.41589227 -0.2381474 -0.36591816
000070 81 cb d7 3e 08 0e f0 3e 31 80 15 3d ee 6f ab bc
       0.4214745 0.46885705 0.036499206 -0.020927396
000080 50 21 e6 3d 08 2e 66 bc 83 2a d3 bd a3 66 88 bc
       0.112368226 -0.014049061 -0.10310843 -0.016650504
000090 6c 5a 8f 3e 55 51 31 3e 39 90 a9 3d 7d 04 9e be
       0.27998674 0.17316182 0.082794614 -0.308628
0000a0 37 ce 26 3e 17 c7 6e 3d d1 01 84 bd c9 7a 98 bd
       0.16289602 0.058295336 -0.06445659 -0.074452944
0000b0 20 37 35 3e 22 bc 04 3f 86 52 93 be 3a 8a d8 be
       0.1769681 0.5184957 -0.28773898 -0.42292958
0000c0 5f 72 b7 3e 2f f9 b6 3e b7 4f 13 be 3b 05 3a be
       0.35829446 0.35736987 -0.14385878 -0.18166058
0000d0 35 ec 2f 3c 0d c3 18 3f e5 83 e3 bc 30 03 8d 3d
       0.0107374685 0.59672624 -0.027772853 0.068853736
0000e0 af 5f 0d 3d 81 7a 8d 3d 4b 8f 81 3e b5 5a 93 3e
       0.03451508 0.069081314 0.25304636 0.2878014
0000f0 c3 6e 41 bd fb 38 c6 be 2c 35 02 bf 2a 95 9d be
       -0.04722477 -0.38715348 -0.50862384 -0.30777866
000100 46 2c 2c 3e 10 96 7a bd
       0.16813764 -0.061178267

Mixer_Block.0.mlp_block_token_mixing_DynaMixerOperation.LN.weight f4 [10]
000000 f9 b8 98 3f 72 a2 af 3f b2 2b 9b 3f 7f 13 55 3f
       1.1931449 1.3721449 1.212271 0.83232874
000010 44 f7 0c 3f fb 33 0e 3f 3c 20 04 3f 6b b1 f3 3e
       0.550648 0.55548066 0.51611686 0.47596297
000020 73 51 e7 3e 34 76 f8 3d
       0.45179328 0.121319205

Mixer_Block.0.mlp_block_token_mixing_DynaMixerOperation.LN.bias f4 [10]
000000 40 e5 84 3e 0a 8b 2e 3f 01 9c 4a be 83 2b 19 3e
       0.25956154 0.68180907 -0.19786073 0.14958005
000010 38 9f d9 be 47 f1 62 be ef 47 b1 be 58 d6 c6 bd
       -0.42504287 -0.22162353 -0.34625193 -0.097088516
000020 f0 de bd bd 64 fe 10 be
       -0.092710376 -0.14159542

Mixer_Block.0.mlp_block_channel_mixing_DynaMixerOperation.fc_ND.weight f4 [1, 10]
000000 b9 f0 5f bf c4 7c 74 3e b4 09 96 bd 2b 0a 90 3d
       -0.8747669 0.2387572 -0.073260695 0.070331894
000010 64 2b a2 bb 11 ca 5a 3d 21 af 42 3d 26 0f 7b 3c
       -0.00494902 0.05341536 0.047530297 0.015323436
000020 90 3b b7 3c 52 8d e6 bb
       0.022367269 -0.0070358897

Mixer_Block.0.mlp_block_channel_mixing_DynaMixerOperation.fc_Nd.weight f4 [484, 22]
000000 05 aa 84 3d 0f 16 88 be 9d 7f fe bd 10 3c 6b 3e
       0.06477741 -0.2657933 -0.12426684 0.22972131
000010 c0 8b 83 3e 9c 9c 48 bd 82 07 6d be cd 42 54 be
       0.25692558 -0.04897748 -0.23147395 -0.20728607
000020 88 08 92 3e 25 d2 ac bd a9 45 02 bd 31 8c cc bd
       0.28522134 -0.084385194 -0.031804714 -0.09987677
000030 bc 39 32 3e fe b7 0c be 10 fe 87 bb 23 db 8c 3e
       0.17404836 -0.13742062 -0.0041501597 0.27510938
000040 0d fe 65 3e 22 6d 22 be 57 12 38 3e 28 3d 8a 3b
       0.22460194 -0.15861943 0.17975746 0.004218716
000050 73 ba 28 3e 6c 80 25 3e a2 d1 3a be e1 fb 15 3c
       0.16477375 0.1616227 -0.18244031 0.009154291
000060 cb fc a7 3e 49 96 59 be 72 31 a2 bd 65 ae 1f 3c
       0.32810053 -0.21248735 -0.07919587 0.009746169
000070 cd 5a b6 be d3 11 5c be f4 f0 40 3d 9e 2e 0a 3f
       -0.3561615 -0.21491174 0.04710479 0.5397738
000080 3f b3 5d 3e 4b f2 8c 3e 8a 4c 88 be 70 f7 92 be
       0.21650408 0.27528605 -0.26620895 -0.28704405
000090 a5 23 32 bd 7d 20 2d bd 66 b0 0f 3e 7b 61 cd bd
       -0.043491025 -0.04226731 0.14032134 -0.100283585
0000a0 95 83 52 3e 49 81 07 be 41 62 35 be d8 6e 27 be
       0.20558007 -0.13232912 -0.17713262 -0.16350877
0000b0 27 70 ac 3d e9 f0 51 be 52 42 ae bd fd 8b b8 3d
       0.08419829 -0.20502056 -0.08508743 0.09011076
0000c0 1d 3f 78 bd 50 af 19 3e 10 e1 07 be 09 14 9a bd
       -0.060607065 0.15008283 -0.13269448 -0.07523353
0000d0 e1 a1 ba bd 37 ff fd 3c 9d 62 24 be 79 f9 df 3d
       -0.09112907 0.031005485 -0.16053243 0.10936255
0000e0 f9 2d b3 3e 1a 3d 5b be 62 84 50 3e ba 38 56 3e
       0.34996012 -0.21410027 0.20363 0.20920077
0000f0 41 62 d6 bd 5f f8 53 3c b0 ac 37 3e d0 1c 62 be
       -0.10467959 0.012937634 0.17936969 -0.22081304
000100 3e ea 03 be d7 07 3c 3e 02 cf 8b be 3d 23 2b be
       -0.12882325 0.18362366 -0.27306372 -0.16712661
000110 33 3a 2b 3e 59 48 cc be 04 77 06 3e 2a 21 3c be
       0.1672142 -0.39898947 0.13131338 -0.18372026
000120 22 12 87 bc a6 3b 28 3d 27 15 c7 3c 53 30 e0 be
       -0.016488139 0.04107251 0.024302078 -0.43786868
000130 b6 ee 86 3d 0a 55 aa bd a4 20 cc be 5b 2b 8f 3e
       0.06588499 -0.08317001 -0.39868653 0.27962765
000140 5c 91 fe bd b6 42 8a be 37 26 e8 be 7a 85 49 3e
       -0.12430069 -0.2700402 -0.45341656 0.19679824
000150 fa 70 ac 3d 7c 67 77 be f8 a7 b1 be 74 a9 ea bd
       0.08419986 -0.2416057 -0.34698462 -0.11458102
000160 09 59 a7 3e 15 e8 47 3d a8 5b f0 bc 21 44 b7 3e
       0.32685116 0.048805315 -0.02934058 0.35794166
000170 32 6a f2 bd 9c 16 94 3d f2 3c e6 3d 11 49 04 3f
       -0.118366614 0.07230875 0.11242093 0.5167399
000180 3e 11 29 3e 82 d2 40 3d fd e6 38 be fd 48 67 bd
       0.16510484 0.047075756 -0.18056865 -0.05646609
000190 16 67 9d 3e 95 53 f3 3d 41 ae 80 bd 06 67 8d 3d
       0.3074271 0.118811764 -0.06283236 0.06904416
0001a0 4d 93 9a 3e 61 b9 8f be a7 7d 60 be 1d 96 ef bd
       0.30190507 -0.2807112 -0.21922933 -0.11698554
0001b0 12 11 9c 3e dd 57 6e 3e 82 a4 ba 3c 46 8b b7 be
       0.30481774 0.23275705 0.022783522 -0.35848445
0001c0 f8 c8 8a ba fc 31 64 be a6 cf d9 3d af e1 a9 bd
       -0.0010588458 -0.22284693 0.10635309 -0.08294999
0001d0 9d 5b d4 3c 44 8f 02 bf 76 bd 46 bd 28 61 4c 3e
       0.02592259 -0.50999856 -0.048520528 0.19958937
0001e0 b0 76 54 bd 8b 12 93 3d 23 17 0f bc 67 87 24 be
       -0.051871 0.07181271 -0.008733544 -0.16067277
0001f0 42 74 dd 3d b0 1b 44 be 6e 41 2c be 5b 57 8f 3d
       0.1081319 -0.19151187 -0.16821834 0.069990836
000200 ed 9f 23 3e c6 a3 0d 3e 9b a9 e4 bd 66 c5 c0 3e
       0.15978976 0.13832006 -0.11165162 0.37650603
000210 d3 cb c1 bd 86 13 2a 3e 3a cd e9 3d 2d 60 c0 3e
       -0.094627045 0.1660901 0.11416097 0.37573376
000220 ed 03 26 3e 04 6a 32 be 31 b1 d8 3d 8b 8c b4 3e
       0.16212435 -0.17423254 0.105806716 0.35263476
000230 37 f3 c7 bc 7f 46 4f be c9 46 0a 3e 0b 61 33 be
       -0.024407966 -0.20241736 0.13503565 -0.17517488
000240 c4 66 9c be b9 1a a1 be 34 d0 52 be 52 15 4a 3c
       -0.30547154 -0.314657 -0.20587236 0.012334185
000250 a3 e0 a2 bd 2a 3e 73 bc b5 a9 93 3d 21 d7 24 bd
       -0.07953002 -0.014846364 0.072101034 -0.040244225
000260 48 ad bd 3c 32 74 db bd 09 61 8f be 2a af 9d 3d
       0.023153916 -0.10715522 -0.2800372 0.076994255
000270 e9 b8 ed bd 6c fe 1c be 93 c9 f7 3e 8d fa 1b 3e
       -0.116075344 -0.15331429 0.48395976 0.15232296
000280 5f 57 40 be 71 34 2d 3e 26 82 d8 3c ee 86 81 be
       -0.1878333 0.16914536 0.026429247 -0.25298256
000290 4f ad 5f be f4 b0 1e 3e ca 5a 32 be 67 78 a2 3e
       -0.21843456 0.1549719 -0.17417446 0.31732485
0002a0 27 47 8b bd ad e4 49 3d 47 17 4a bd c4 3d f2 bd
       -0.068006806 0.049290348 -0.049338605 -0.11828187
0002b0 99 7d e0 bd 77 aa 09 3b 6e 95 1c 3e a5 3e eb be
       -0.10961456 0.0021006146 0.15291378 -0.4594623
0002c0 87 d5 85 3d cd 06 b1 3e fb c0 81 be 10 aa 8c be
       0.06534868 0.345755 -0.25342545 -0.27473497
0002d0 02 d1 32 be b9 17 bd bd e7 bd f1 3d 56 c5 b7 3d
       -0.17462543 -0.0923304 0.11803799 0.08973186
0002e0 06 f3 3d bc cd 05 1a 3e ae df 65 3a 87 61 24 3e
       -0.011593586 0.15041275 0.00087689876 0.16052829
0002f0 ad 08 41 3e 6b b8 a3 be 2e 11 dc 3d f1 2c bf 3e
       0.18850966 -0.31976637 0.10745464 0.37338975
000300 26 17 db bb 75 d8 2a 3e 1b b5 98 3d aa 34 c3 bd
       -0.006686109 0.16684134 0.07456418 -0.09531529
000310 9f f1 fb bd d1 29 10 3d 5d 73 20 3d c0 f8 a6 3d
       -0.12301945 0.03519613 0.03917252 0.08152914
000320 34 74 8c be ca 95 15 be 15 3b ea bd 3d bc 80 3e
       -0.27432406 -0.14607921 -0.1143705 0.25143614
000330 5a be 54 3e cb ba ad bd 0b e4 0b bd ea 7e b8 bc
       0.20775738 -0.084828936 -0.034153026 -0.022521455
000340 81 6e 18 3e 09 9c cc 3d a3 de 84 bd 6e 69 67 3e
       0.14885904 0.09990699 -0.06487777 0.22598812
000350 c7 00 66 3e a9 36 aa 3c 60 a5 6c 3d e0 cc be bd
       0.22461234 0.020778017 0.0577749 -0.093164206
000360 1a 63 3c 3c 65 7a 42 3e 51 1a 86 be b5 f0 2b 3e
       0.011498237 0.18992002 -0.26191953 0.16791041
000370 f1 2b 93 bd ec de 3a 3e d2 97 5a be 88 92 08 3e
       -0.071861155 0.182491 -0.21346977 0.13337147
000380 69 c4 20 3e c7 c4 3f bd d7 68 7b 3d 02 32 8e 3e
       0.15699925 -0.04681852 0.06137928 0.27772528
000390 f6 5c 59 be bd 80 25 3e 08 59 a7 bd f4 7c 0f 3e
       -0.21226868 0.16162391 -0.08171278 0.1401251
0003a0 68 56 55 3e a7 4f 75 bd f3 47 01 3e 97 c2 ce 3e
       0.20833743 -0.059890416 0.12625103 0.40382835
0003b0 24 d9 9a 3e 9a 9a d3 be 7b be b9 bd 19 47 ba 3c
       0.3024379 -0.4132889 -0.090695344 0.02273898
0003c0 6f 28 3a 3e af 9e a4 3d b9 8b c5 be db 56 b7 3e
       0.18179487 0.08038079 -0.38583162 0.35808453
0003d0 e3 be a5 be b3 24 87 be 61 89 5e be 75 fb 73 be
       -0.32372198 -0.26395187 -0.21732093 -0.23826392
0003e0 49 7e 29 be 58 37 3a 3e 67 02 11 be 26 29 ed bd
       -0.1655208 0.18185174 -0.14161073 -0.11580114
0003f0 c8 05 1d 3e 7c 3c 13 be a3 93 db bc 1e 29 ee bc
       0.15334237 -0.14378542 -0.026803797 -0.02907234

Mixer_Block.0.mlp_block_channel_mixing_DynaMixerOperation.fc_Nd.bias f4 [484]
000000 91 41 fc 3d 35 72 05 3e 3a f1 6c 3e 3b 14 f8 3c
       0.12317193 0.13031848 0.23138896 0.030283084
000010 f9 fe 14 be 60 16 34 3e c4 3b 8b bd 85 d6 6d bd
       -0.1455039 0.1758666 -0.06798509 -0.05806591
000020 16 0c 40 3e 63 35 8d 3e 74 c2 fe bd 36 93 f9 3d
       0.1875461 0.27579793 -0.12439433 0.121862814
000030 e0 2d 11 be e1 95 ba be f0 9c 2f 3e 4f 9c 0b 3e
       -0.14177656 -0.36442474 0.1714971 0.13633846
000040 3f dd 10 3d 43 c2 be bd 43 38 b8 bd e9 b9 74 be
       0.035367247 -0.09314396 -0.08995106 -0.23899044
000050 99 29 0c 3e b0 b3 f4 3b 82 75 b4 3d 8f d2 da 3d
       0.13687743 0.0074677095 0.08811475 0.10684692
000060 fe 5e 82 bc e0 02 5b 3c 17 29 e9 bc ed a0 eb bd
       -0.015914436 0.013367385 -0.028461976 -0.115053035
000070 f9 2b e3 bc f2 b1 00 3d 4a 01 97 be 41 6c e0 be
       -0.027730929 0.031419702 -0.2949317 -0.4383259
000080 2d d4 a8 3d 42 52 02 3e 09 7c 0f be 25 34 87 3e
       0.08243594 0.12726691 -0.1401216 0.2640697
000090 1e 2d 11 bd a4 d0 a6 bd 8d 46 66 bd 29 d5 19 be
       -0.035443418 -0.08145264 -0.056219626 -0.1502272
0000a0 35 01 1b 3e 92 3a 63 3e 4a 8d 07 bd eb 83 29 3e
       0.15137179 0.22190312 -0.033093728 0.16554229
0000b0 0b 14 ec bd d6 c6 52 bd f3 af 7a 3d 44 9e 3f 38
       -0.115272604 -0.051459156 0.061202955 4.5685345e-05
0000c0 05 24 cd ba b2 3a 0e be 2a 52 08 be 1a 0b 38 be
       -0.0015650993 -0.13889578 -0.13312593 -0.17972985
0000d0 ea 57 d1 bd 35 4b bc 3e cb fd 3a be 7a d3 ef bd
       -0.102218464 0.36776128 -0.18260877 -0.11710258
0000e0 fc 5f 6b bc 42 80 93 bd 01 cb 4e be 0e 35 df bc
       -0.014366146 -0.072021976 -0.20194627 -0.027246978
0000f0 89 cf 6e bd 31 b9 e3 bd f6 7e 19 3e d7 c0 43 3e
       -0.05830339 -0.11119307 0.14989838 0.19116531
000100 16 85 db 3d c5 1e a0 3e 7d a1 87 be 9e 56 e0 bd
       0.107187435 0.31273475 -0.26490393 -0.10954021
000110 1a d5 29 3d 6a 29 50 3e a2 89 21 3e 5a e0 e4 bd
       0.041462995 0.20328298 0.15775159 -0.11175604
000120 dc c3 8e bc c0 01 fd bd 21 ad 39 be e3 d6 3f 3d
       -0.017427377 -0.123538494 -0.1813245 0.04683579
000130 5d e7 22 bd 54 ab 43 3e a0 23 82 be 09 95 4a be
       -0.039771426 0.19108325 -0.25417805 -0.19783415
000140 e4 a8 95 3e 71 13 92 bc 65 69 40 3e 34 1f 9d 3e
       0.29230416 -0.017831536 0.18790205 0.3068787
000150 d8 ac 50 3e 5c 1e 27 bc 67 ba 98 3e 5b 6a 00 3e
       0.20378435 -0.010200109 0.29829714 0.12540571
000160 92 06 c7 3d 09 b1 a8 3e 1d 78 02 be 9e 69 88 3e
       0.0971805 0.32947567 -0.12741132 0.2664308
000170 f3 7d 8b be 0f 1d 5f 3e ef 58 80 3e 87 10 17 3d
       -0.2724453 0.21788429 0.2506785 0.036880996
000180 67 6d 49 3e 0e 33 e2 3d 36 06 f9 bd 75 4b 73 3e
       0.1967064 0.11044894 -0.12159388 0.23759253
000190 e2 f1 59 3d e1 b7 72 bd 0c ec 86 3d d4 11 f3 bd
       0.053209193 -0.05925739 0.06587991 -0.11868635
0001a0 89 7a ba bc d1 91 1a be d4 0a b4 bd 61 1d 59 be
       -0.022763507 -0.15094687 -0.08791128 -0.21202613
0001b0 c3 71 d4 3d 79 b5 ee bd de c0 83 3e b2 ca 17 bd
       0.10373261 -0.11655707 0.25733083 -0.03705854
0001c0 4b f0 6e be 5b 9e 83 be e7 38 4d 3e b1 f6 fe bd
       -0.23333852 -0.25706753 0.20041238 -0.124493964
0001d0 32 8c 8e be 82 f2 17 be 08 77 c4 bd 4b f6 e9 3c
       -0.27841336 -0.14838603 -0.09593016 0.028559824
0001e0 41 e7 95 3e 10 f9 4d be 02 a0 47 3e c1 96 b2 3e
       0.29277995 -0.20114541 0.19494632 0.3488064
0001f0 be d3 21 bd ad 68 33 3e 7d 5b 1f be 3f b5 f3 3b
       -0.039508574 0.175204 -0.15562244 0.0074373777
000200 1a 74 a7 bc 51 d1 6e bd af 9e 4e 3d 8c d5 03 be
       -0.020441104 -0.05830509 0.0504443 -0.1287443
000210 9d 26 0c be e8 2f 15 3e 76 00 b9 3d 19 22 75 3e
       -0.13686605 0.14569056 0.09033291 0.23938788
000220 9e 82 1c be df 59 ce be 64 01 43 be d3 9f 55 3e
       -0.15284202 -0.4030294 -0.19043499 0.2086175
000230 44 d7 27 3e 3d e8 b3 bd 75 95 ae 3e 31 05 11 be
       0.16390711 -0.0878453 0.34098402 -0.14162137
000240 3d ef 1b 3e 12 57 88 3e 3c 3c 0b be b5 5e a9 bc
       0.15227981 0.2662893 -0.13597196 -0.020675043
000250 9a 40 c5 be 3f 93 37 bd fd a2 70 be 40 32 69 3d
       -0.3852585 -0.04481816 -0.23499675 0.056932688
000260 7c 2e c3 3c bc 8b 68 3e f6 18 b3 be 49 80 90 3a
       0.023825876 0.22709554 -0.3497998 0.001102456
000270 b5 50 92 3d 87 ef 7d 3e 6f 34 b1 be 76 62 d4 bd
       0.071443 0.24798404 -0.34610316 -0.103703424
000280 a9 30 40 3c 1e 4a 36 3e 6f 96 09 3e b8 e3 53 3e
       0.0117303515 0.17801711 0.13436292 0.20692337
000290 9d 25 ef be 29 7b 4a 3e bf 1f e6 3e 4e 5a e0 be
       -0.46708384 0.19773544 0.44946095 -0.43818897
0002a0 49 2f 56 3e 7a 42 69 3e e4 e7 f0 bd 11 1b b9 bd
       0.20916475 0.22779265 -0.117629796 -0.09038366
0002b0 df 4a 9c be 94 6d 9f 3d ad 29 19 3e 43 8a 33 be
       -0.30525872 0.07784572 0.14957304 -0.17533211
0002c0 71 9c 2a 3d 73 a4 66 3e 09 e3 90 bd 9a 5a e6 3c
       0.0416531 0.2252367 -0.070745535 0.028119374
0002d0 a8 9c 34 be 81 98 1b bd 34 ac f0 3d 2e 7b 9d bc
       -0.17637885 -0.037987236 0.11751595 -0.019223776
0002e0 6e f3 0c bd c4 77 57 bb 2e c3 9a 3d 3c 2a 6e be
       -0.03441184 -0.0032877782 0.07556759 -0.23258299
0002f0 32 e6 b1 3e 1c c8 18 3d d6 ac e2 3b cc 39 63 3d
       0.34745938 0.037300214 0.0069175763 0.05547504
000300 7a 5b 76 3e 1c 16 16 3c 92 58 82 3e 9d b3 df bd
       0.24058333 0.009160545 0.254582 -0.109229304
000310 98 26 a3 3e 40 bf 88 3e 95 a2 88 3e 9e f2 40 3d
       0.31865382 0.26708412 0.2668654 0.047106378
000320 2b fa ad be 67 e0 3e be 28 97 38 be f7 fb f4 bd
       -0.33979926 -0.1864029 -0.18026412 -0.11962121
000330 ee 43 8d 3e 4c 18 69 3e 46 fd 22 3e 67 1c f8 bb
       0.2759089 0.22763175 0.15916929 -0.007571745
000340 91 01 a9 be e8 3d 4f be 18 0c 3d 3e 78 73 47 be
       -0.33009008 -0.20238459 0.18461645 -0.19477642
000350 79 e2 2b be 3c 44 59 3e d7 8b 48 bd 9d 08 83 3d
       -0.16785611 0.21217436 -0.048961487 0.06398127
000360 48 25 83 bd 0e 3e 1a 3e a9 0b 2e be 45 37 6c 3c
       -0.06403595 0.15062734 -0.16996635 0.014417474
000370 85 d8 63 3c d9 fc 61 3d 7f 3c e5 3d 43 bc 11 3f
       0.013906603 0.055172775 0.11193179 0.5692789
000380 44 95 8d 3e 0a ff 7b be fd 39 53 be a2 fe 2d 3e
       0.27652943 -0.24609008 -0.2062759 0.16991666
000390 ea 15 d7 3c 15 91 89 be 1d 94 26 3e d9 d3 31 bd
       0.026255567 -0.268685 0.16267438 -0.043414924
0003a0 ac 88 ac bd 4b 6f 87 3e 7c 2e 1d be 8a c5 cc 3d
       -0.084245056 0.26452097 -0.15349764 0.09998615
0003b0 c6 a6 d9 bc 4d be b1 3d cc d2 80 3d 33 e9 c5 bd
       -0.026568782 0.08678875 0.06290206 -0.0966362
0003c0 bc 10 8c be e7 1b 5f 3e 75 cc b3 3d 96 9d 8b 3d
       -0.27356517 0.21787988 0.087792315 0.068171665
0003d0 44 8f fb bd 35 03 74 3e d5 f4 ba bd 4a ee 0a 3e
       -0.12283185 0.23829348 -0.09128729 0.13567463
0003e0 0b 3f d9 bd f9 2d 97 3e b9 e6 c6 bd 90 df 0b be
       -0.106077276 0.29527262 -0.097119756 -0.13659501
0003f0 df 3b ac 3a c7 bd 42 bd 38 12 23 be 03 f2 c0 bd
       0.0013140402 -0.047544267 -0.15924919 -0.0942116

Mixer_Block.0.mlp_block_channel_mixing_DynaMixerOperation.fc_out.weight f4 [10, 10]
000000 fd d1 87 3e c7 73 1f 3e ac e6 8e be c8 26 f0 3c
       0.26527396 0.1557151 -0.27910364 0.029315367
000010 a4 ca 6a be f0 9c 2b be 33 81 e2 3c a9 ab 34 be
       -0.22928864 -0.16759086 0.027649498 -0.17643608
000020 2f ef 6b be c6 94 f0 3d ea 66 8b be db c3 c6 3e
       -0.2304046 0.11747126 -0.27226955 0.388213
000030 68 40 22 be 54 43 08 bd fc 22 06 bd 54 2c a8 3d
       -0.15844882 -0.033267334 -0.032748207 0.0821158
000040 ef e4 1e 3e 79 b3 2e 3e 03 31 40 3e f9 ae 9b 3e
       0.15517019 0.17060651 0.18768696 0.3040693
000050 bc b9 d4 3e ae 86 6d bd 8e ec 69 3c 06 a5 86 be
       0.41547954 -0.05798977 0.01427759 -0.26297778
000060 06 39 1c be 84 ab 63 be a6 ae 65 bd 48 5a 47 be
       -0.15256128 -0.22233397 -0.05607476 -0.19468033
000070 3b 45 56 3c 3d a0 06 3e d8 d8 a4 bd 3b c2 a2 be
       0.013078029 0.13147064 -0.08049172 -0.3178881
000080 9a 10 62 be 6f ed 8e 3d a9 ad 18 be 2b 6d 1c be
       -0.22076645 0.069788806 -0.14909996 -0.1527602
000090 c2 ba 32 be da 11 42 bd 97 a3 47 be e0 07 2d be
       -0.17454055 -0.047380306 -0.19495998 -0.16897535
0000a0 b3 35 2c bf 5b 36 97 3e bf c9 d8 3d a8 4d 60 3e
       -0.6726944 0.29533657 0.10585355 0.21904624
0000b0 6a 33 18 3d 4c e9 19 3e 25 16 dd 3d 66 54 70 3e
       0.037158407 0.15030402 0.10795239 0.23469695
0000c0 74 36 15 3e cc ae 80 3e 53 28 3d bf 37 71 af 3e
       0.14571553 0.2513336 -0.73889655 0.34266064
0000d0 a6 48 83 3e b6 38 92 3d 14 c1 a5 3d a6 b5 59 bd
       0.25641364 0.07139723 0.08093467 -0.05315175
0000e0 bf c0 f3 bc 70 48 18 bc 34 c7 c9 bc 3a e2 9b 3e
       -0.029754994 -0.009294614 -0.02463112 0.30446035
0000f0 85 9b ba 3e 09 f1 18 bf a8 e3 69 bd 77 ee 1e bd
       0.36446777 -0.5974279 -0.057101876 -0.038801637
000100 6e 97 4e bc 72 5c 1c be 87 67 67 3e cf 42 b9 3c
       -0.012609346 -0.1526964 0.22598086 0.022614865
000110 a6 a4 d4 3d a5 43 5a bd 16 a9 14 bf 7e 7b b4 3e
       0.10382967 -0.053287167 -0.58070505 0.35250467
000120 89 c7 18 3e d3 ad af 3e e1 a7 84 3e 53 49 2d 3e
       0.14919867 0.34312305 0.2590933 0.16922502
000130 08 ca 23 3d 1c cb 80 3e f1 7d ee 3b 4b b2 89 bd
       0.039987594 0.2515496 0.007278197 -0.0672346
000140 2e 98 93 3f d3 7f 29 be 88 45 e3 3e d1 fe 92 bd
       1.1530817 -0.16552667 0.44388986 -0.071775086
000150 aa dd 55 3e 36 2b 82 be 73 e2 15 3e 11 da 48 be
       0.2088534 -0.25423592 0.14637165 -0.19614436
000160 ec 03 68 3e 84 70 8e 3d 03 a7 93 bd de f2 0a 3f
       0.22657746 0.069550544 -0.07209589 0.54276836
000170 40 7c 69 be 5e d4 ed bd 40 be 87 be 83 47 4a be
       -0.22801304 -0.116127715 -0.26512337 -0.19753842
000180 44 1e b0 bd 96 49 9c be 14 76 e9 bd 90 64 c1 bd
       -0.08599523 -0.30524892 -0.11399475 -0.09443009

Mixer_Block.0.mlp_block_channel_mixing_DynaMixerOperation.fc_out.bias f4 [10]
000000 03 f0 d5 bc 0c f4 ef be 70 38 47 be be e0 29 bd
       -0.026115423 -0.4686588 -0.19455123 -0.041474096
000010 e8 e1 d2 bd 99 cc 11 3e 9c e3 48 bd 22 41 af 3d
       -0.102969944 0.14238204 -0.04904519 0.08557345
000020 90 50 c5 bd 24 02 46 be
       -0.09634507 -0.19336754
