M_2_AST/MotionMixer-main/h36m/run_for_longging/exp241/model.pt (torch, 870893 bytes, 184 tensors)

Mixer_Block.0.mlp_block_token_mixing.fc1.weight f4 [20, 10]
0	0x3d955e30	0.072933555
1	0xbe95b3fe	-0.29238886
2	0x3ef7c82b	0.48394904
3	0xbed7c384	-0.42141354
4	0xbe040820	-0.12893724
5	0x3cbdc7df	0.023166595
6	0x3efd0ca4	0.49423707
7	0x3e72a9f0	0.23697639
8	0x3e50f09e	0.20404288
9	0x392789d3	0.00015977705
10	0x3ebb9bdc	0.3664235
11	0xbe187300	-0.14887619
12	0x3e12fb4c	0.14353675
13	0xbe80dd79	-0.2516897
14	0x3f031fb5	0.51220256
15	0xbf01a373	-0.5064003
16	0x3f00a56d	0.5025242
17	0x3e9ba4c3	0.3039914
18	0x3e078607	0.13234721
19	0x3ba9e249	0.005184446
20	0xbe503ddb	-0.20336096
21	0x3efd74b2	0.49503094
22	0xbe3f344c	-0.18672293
23	0x3e633adf	0.22190426
24	0xbed9d6fe	-0.4254684
25	0x3f29aa4c	0.6627548
26	0xbec50f40	-0.38488197
27	0x3e877fc6	0.2646467
28	0xbe07f789	-0.13278021
29	0x3df413e1	0.11917854
30	0xbed98e00	-0.4249115
31	0x3ee5c4b8	0.44876647
32	0xbe462ffe	-0.19354245
33	0x3eba4fc0	0.3638897
34	0xbf0b596a	-0.5443331
35	0x3e838e72	0.25694615
36	0xbe5c0583	-0.21486478
37	0x3e6594ea	0.22420087
38	0xbd30cb80	-0.043162823
39	0x3d3c80a9	0.046021137
40	0xbdc66430	-0.09687078
41	0x3e83c00b	0.25732455
42	0xbdc3895b	-0.09547683
43	0x3c8ac74c	0.016940735
44	0xbe92770f	-0.2860646
45	0x3ec6b9fd	0.38813773
46	0xbf2e24af	-0.68024725
47	0x3ea86858	0.32892108
48	0xbee2fb0b	-0.44332156
49	0x3d4e4d93	0.05036695
50	0x3e1486ba	0.14504519
51	0xbe248f00	-0.16070175
52	0x3cf7049d	0.030153567
53	0xbed104aa	-0.4082387
54	0x3f0cc52f	0.5498838
55	0x3e2dd2bb	0.16974919
56	0x3e8883c4	0.2666303
57	0xbe9c275f	-0.30498788
58	0x3eb6b20c	0.35682714
59	0xbde5349a	-0.111916736
60	0xbef81aa6	-0.4845783
61	0xbf186d81	-0.5954209
62	0xbec1ed44	-0.37876332
63	0x3e861dec	0.26194704
64	0x3f30c119	0.69044644
65	0x3e40904b	0.18805043
66	0x3ea0da23	0.31416425
67	0xbe4450f9	-0.19171514
68	0x3e89ff76	0.26952714
69	0x3d041dd2	0.032255
70	0x3e8871ea	0.2664941
71	0xbdd0032b	-0.10156854
72	0xbf0bdd7e	-0.54634845
73	0x3d81b69d	0.06333659
74	0xbe947b55	-0.29000345
75	0x3ebfba6f	0.37446925
76	0x3d867961	0.0656612
77	0x3ee4c92a	0.44684726
78	0x3f03193c	0.5121038
79	0x3d11573e	0.03548359
80	0xbe3ec3d7	-0.18629394
81	0xbedb99f1	-0.42890885
82	0xbd3b49a0	-0.04572451
83	0x3e44f5b2	0.1923435
84	0x3ea1789a	0.31537324
85	0xbf2eb014	-0.68237424
86	0x3e1463e6	0.14491233
87	0x3dbdb065	0.0926216
88	0xbd064628	-0.03278175
89	0x3e01ab6e	0.12663051
90	0x3dc97081	0.098359115
91	0x3e107a9a	0.14109269
92	0xbe77d45e	-0.24202105
93	0x3efa3946	0.4887182
94	0xbee0bdfb	-0.43894944
95	0x3df63c11	0.120231755
96	0xbeb10b36	-0.34578866
97	0xbea6a898	-0.32550502
98	0xbd89ffeb	-0.067382656
99	0x3eaf2b0b	0.34212527
100	0xbd8c9d62	-0.06865956
101	0x3ed3c7fa	0.41363508
102	0xbd943ed3	-0.07238545
103	0x3ea4bc6a	0.32175
104	0xbf069ade	-0.5258006
105	0x3e5e60b8	0.21716583
106	0xbef2ea7b	-0.4744452
107	0x3ea160eb	0.31519255
108	0xbec52b10	-0.38509417
109	0x3eade0f0	0.33960676
110	0x3f33e4c7	0.7027096
111	0x3e376c00	0.17912292
112	0x3e1c16d2	0.1524308
113	0xbf08992d	-0.5335873
114	0xbd8bf434	-0.068336874
115	0x3e94d952	0.29072052
116	0x3eeaa89e	0.4583177
117	0x3d9d1799	0.076705165
118	0xbd12e1fd	-0.03586005
119	0x3e9f0fad	0.31066647
120	0x3e2cc974	0.16873723
121	0xbef849ff	-0.48493955
122	0x3e25b768	0.16183245
123	0xbc29a480	-0.010354161
124	0x3ec4788f	0.3837323
125	0xbec4cf37	-0.38439342
126	0x3efb2d46	0.49057978
127	0xbf1495ca	-0.5804106
128	0x3e4d68db	0.2005953
129	0x3c403dce	0.011733485
130	0x3f35e7dc	0.71056914
131	0xbf153240	-0.582798
132	0x3ca5e9b0	0.020253032
133	0xbeb0f49a	-0.34561616
134	0xbddbc4c7	-0.10730892
135	0x3d90537a	0.07047172
136	0x3f0bddc6	0.54635274
137	0x3d16dbb6	0.036830626
138	0xbdb3fa7f	-0.08788013
139	0x3dfb1574	0.12259951
140	0xbf1ff317	-0.624803
141	0x3d98edb9	0.07467217
142	0x3e1e4fc9	0.15460123
143	0x3d7a4796	0.061103426
144	0xbd57f8df	-0.052727576
145	0xbe217471	-0.15767075
146	0xbf0977be	-0.5369834
147	0xbc09c186	-0.008407956
148	0xbeeab473	-0.45840797
149	0x3e23a2f4	0.1598013
150	0xbe5634c4	-0.20918566
151	0x3eaf1bce	0.342009
152	0xbe7c678b	-0.24648874
153	0x3eb8bee5	0.3608314
154	0xbe16cc3a	-0.14726344
155	0x3e51fed8	0.20507371
156	0xbf1ee44a	-0.6206709
157	0x3e9dcb28	0.30819058
158	0xbe5c8a84	-0.21537215
159	0xbde1c1ad	-0.11023269
160	0xbeeef457	-0.46670792
161	0x3ddfb4d2	0.109231606
162	0xbcd5f430	-0.026117414
163	0x3e656865	0.22403105
164	0xbef18f25	-0.47179523
165	0x3e2b2edd	0.16717096
166	0xbe49a0cc	-0.19690245
167	0xbe3c3406	-0.1837922
168	0x3ae62495	0.001755851
169	0xbe5cee63	-0.21575312
170	0xbf526ec7	-0.8220028
171	0xbe91a8d8	-0.2844913
172	0xbea26c1c	-0.31723106
173	0x3e8130e1	0.25232604
174	0xbe288a13	-0.16458921
175	0x3c634663	0.013871762
176	0x3e61c73a	0.22048655
177	0xbe94c7ce	-0.2905869
178	0xbd7157a6	-0.05892148
179	0x3c0bd072	0.008533584
180	0x3cd02a35	0.02541075
181	0xbeeefd9d	-0.46677867
182	0x3d3de3c0	0.046359777
183	0xbef82c5d	-0.48471346
184	0x3eb024ba	0.3440302
185	0xbe64ef0f	-0.22356819
186	0x3e9a6691	0.30156377
187	0xbd95b7a9	-0.07310421
188	0xbcf7cc6c	-0.030248843
189	0xbe192249	-0.14954485
190	0xbdec6bab	-0.115439735
191	0xbe5c5de5	-0.21520193
192	0x3e4cad14	0.19987899
193	0xbeab7b73	-0.33492622
194	0x3e70a462	0.23500207
195	0x3c964747	0.018344535
196	0x3ed61fdd	0.41821185
197	0x3e9cedfa	0.30650312
198	0x3dca658f	0.09882652
199	0xbe8d098b	-0.27546343

Mixer_Block.0.mlp_block_token_mixing.fc1.bias f4 [20]
0	0x3e8e8f9d	0.27843943
1	0x3f1f0c07	0.6212773
2	0x3e98c29d	0.29835978
3	0x3eeca36d	0.46218434
4	0x3f07c496	0.5303434
5	0x3e832f7a	0.2562216
6	0x3e95c58f	0.29252288
7	0x3eda0e2c	0.42588937
8	0x3f10bbf3	0.5653679
9	0x3edc80b5	0.43066946
10	0x3f23600f	0.6381845
11	0x3ebceaf7	0.36898014
12	0x3f2fa4b7	0.6861071
13	0x3e4f29ed	0.20230837
14	0x3e8b5615	0.27214113
15	0x3eae399e	0.34028333
16	0x3daf5faa	0.08563168
17	0x3f153db8	0.582973
18	0x3e929a85	0.28633514
19	0x3ef76762	0.48321062

Mixer_Block.0.mlp_block_token_mixing.fc2.weight f4 [10, 20]
0	0x3d599717	0.053122606
1	0xbeb779a6	-0.35834998
2	0xbe809871	-0.25116304
3	0xbe129989	-0.14316382
4	0x3c84c486	0.01620699
5	0x3dd41e98	0.10357398
6	0x3d6dbeaa	0.05804316
7	0xbf2add53	-0.66743964
8	0x3e9fd6f2	0.31218678
9	0xbcbbe931	-0.022938343
10	0xbe9360fb	-0.28784928
11	0xbefdd86a	-0.49579173
12	0x3e86e9ec	0.26350343
13	0xbe87a919	-0.264962
14	0x3f3707e7	0.71496433
15	0xbbda0337	-0.0066532153
16	0x3db38f1b	0.087675296
17	0x3ed5c243	0.41749772
18	0x3ec7eeb5	0.39049307
19	0x3cee60c8	0.029098883
20	0xbe5575de	-0.20845744
21	0xbf05aac8	-0.52213717
22	0x3e145165	0.14484175
23	0x3eae2c5a	0.34018213
24	0x3e3132c3	0.1730452
25	0xbec8eb4b	-0.39242014
26	0x3f13135f	0.5745143
27	0x3df00905	0.1172047
28	0x3e293576	0.165243
29	0x3e7c973b	0.24667065
30	0x3e8c78cd	0.27435914
31	0xbed62fcf	-0.4183335
32	0xbea55858	-0.32293963
33	0xbe723d77	-0.2365626
34	0x3e69b02d	0.22821112
35	0x3e86c37a	0.26321012
36	0x3ecc7833	0.39935455
37	0x3f328cc9	0.6974607
38	0xbe9c17f5	-0.30487028
39	0xbd4d5514	-0.050129965
40	0xbc9eb472	-0.019373152
41	0x3f072cd4	0.5280278
42	0xbea42942	-0.32062727
43	0xbefd0d9e	-0.49424452
44	0xbe6c8306	-0.23096856
45	0x3eec68c5	0.46173683
46	0x3ec69523	0.38785657
47	0x3e877eaa	0.26463825
48	0x3e8de0d6	0.277106
49	0xbda7d2b2	-0.08194484
50	0xbeece8da	-0.46271402
51	0x3d38a0cf	0.045075234
52	0x3ec6b85e	0.38812536
53	0x3ebf0c83	0.37314233
54	0xbeded4c4	-0.43521702
55	0xbef8a33a	-0.48562032
56	0xbed7b7ae	-0.42132324
57	0x3df76f55	0.12081782
58	0x3f196bac	0.5992992
59	0x3e299186	0.16559419
60	0xbdd362b7	-0.10321563
61	0xbe346113	-0.17615156
62	0x3f211021	0.62915236
63	0x3da03d33	0.07824173
64	0x3f2322d4	0.6372502
65	0x3d7a318b	0.061082404
66	0xbea93432	-0.33047634
67	0x3e81e59b	0.25370488
68	0xbeb16330	-0.34645987
69	0x3c0e77d5	0.008695562
70	0x3ed9f59f	0.42570207
71	0x3e693455	0.2277387
72	0xbf29da86	-0.66349065
73	0x3e4a6af7	0.19767366
74	0x3cdbab9d	0.02681523
75	0x3db54654	0.08851305
76	0xbe031237	-0.12799917
77	0xbd358c37	-0.044323172
78	0xbde683eb	-0.1125563
79	0xbc738410	-0.014863029
80	0x3f0a5143	0.54030246
81	0x3e6319f1	0.22177865
82	0xbe5a7aba	-0.21335879
83	0x3c03bb4c	0.0080402605
84	0xbed9dd59	-0.42551687
85	0x3d088739	0.033332083
86	0x3cfd34da	0.03090899
87	0x3e7971ea	0.24359861
88	0x3d89b328	0.067236245
89	0xbe8aa4ac	-0.2707876
90	0xbecf64ec	-0.40506685
91	0xbdc3a975	-0.09553806
92	0x3e950daa	0.29111987
93	0x3e258734	0.16164857
94	0xbe4149e0	-0.18875837
95	0xbf0b0bb2	-0.5431472
96	0x3c1a6f18	0.009425901
97	0x3e8e6976	0.27814835
98	0x3e2121f6	0.15735611
99	0x3e9ebd6e	0.31003898
100	0x3dd4ba1f	0.10387062
101	0x3f1b7da8	0.6073861
102	0xbef5d23b	-0.48011956
103	0x3cfd1dc3	0.03089798
104	0xbe004acd	-0.12528534
105	0xbeb8f661	-0.36125472
106	0xbe029072	-0.12750414
107	0xbd6cb5ba	-0.057790495
108	0x3f125c0c	0.571717
109	0x3e1c22f2	0.15247706
110	0x3de47141	0.11154414
111	0xbe42aa28	-0.19010222
112	0x3dfc70a0	0.12326169
113	0x3dc48b82	0.095969215
114	0xbca621c1	-0.020279767
115	0xbe1455e1	-0.14485885
116	0xbe1a7016	-0.1508182
117	0xbdc2c112	-0.095094815
118	0xbe084640	-0.13308048
119	0xbd5ecc9e	-0.054394357
120	0xbe2c304a	-0.16815296
121	0xbdb50228	-0.08838302
122	0x3ef3279a	0.4749115
123	0x3ed0e895	0.40802446
124	0x3eb367f9	0.35040262
125	0x3ceb2879	0.028705822
126	0xbe817002	-0.25280768
127	0x3e08a807	0.13345347
128	0xbeeca5aa	-0.46220142
129	0xbdd58041	-0.10424853
130	0x3df8cb52	0.12148155
131	0xbe9a9e72	-0.3019901
132	0xbe976e00	-0.2957611
133	0xbf123d07	-0.5712437
134	0x3e0a499f	0.13504647
135	0x3efc6964	0.49299157
136	0x3e11a911	0.1422465
137	0xbde64b38	-0.112448156
138	0xbdfe62b1	-0.12421168
139	0xbe3ddb56	-0.18540701
140	0xbe24c4e5	-0.16090734
141	0xbeaf4d8a	-0.34238845
142	0x3a93f3e0	0.001128789
143	0xbe4ec49b	-0.20192187
144	0xbe519fc3	-0.204711
145	0x3e9a6f36	0.30162972
146	0x3e96723c	0.2938403
147	0x3dfeab21	0.12434984
148	0xbe058e2d	-0.13042517
149	0x3efafb9a	0.49020082
150	0x3b87007a	0.00411993
151	0xbbe8d159	-0.0071050343
152	0x3f1fc091	0.6240321
153	0x3e2c18f8	0.168064
154	0xbeb7c16b	-0.35889754
155	0xbe8f6a1b	-0.2801064
156	0xbd629f26	-0.055327557
157	0xbdb9a729	-0.090650864
158	0xbd652f45	-0.055953283
159	0xbe8349af	-0.25642154
160	0x3eb7520c	0.35804784
161	0x3ec35c7e	0.38156503
162	0xbf057840	-0.5213661
163	0xbda8f5e2	-0.082500234
164	0xbed3e202	-0.41383368
165	0x3dc656da	0.09684534
166	0x3eafce02	0.3433686
167	0xbe16a0d1	-0.14709784
168	0x3e82207a	0.25415403
169	0xbf33d585	-0.7024768
170	0xbeda594f	-0.42646262
171	0x3e3992cb	0.18122403
172	0x3e486521	0.19569828
173	0x3e07935d	0.13239808
174	0xbd98d17f	-0.07461833
175	0xbe7b9578	-0.24568737
176	0xbea8718a	-0.32899123
177	0xbe264602	-0.16237643
178	0x3ecae9e0	0.39631557
179	0x3efd47fe	0.49468988
180	0xbe6ee1f8	-0.23328388
181	0xbeb13b65	-0.34615627
182	0x3e620d9a	0.22075501
183	0x3e9f5cfb	0.31125626
184	0x3eaf7efb	0.34276566
185	0xbe94e5bd	-0.29081526
186	0xbe05e8ab	-0.13077037
187	0x3c22ffc6	0.009948676
188	0xbe072674	-0.13198262
189	0xbdaf8078	-0.08569425
190	0xbd9bd7f4	-0.07609549
191	0xbee4f9ab	-0.44721732
192	0xbec97a98	-0.39351344
193	0xbeb49513	-0.35269985
194	0xbdba805d	-0.091065146
195	0x3e49e08c	0.19714564
196	0x3d8fde5f	0.07024836
197	0xbe034d6b	-0.12822501
198	0xbe380e3b	-0.17974178
199	0x3e902fb5	0.28161398

Mixer_Block.0.mlp_block_token_mixing.fc2.bias f4 [10]
0	0x3e62a19b	0.2213196
1	0xbe16fe0b	-0.14745347
2	0xbe3aa07d	-0.18225284
3	0xbe3db3c4	-0.18525606
4	0x3d398047	0.04528835
5	0x3e009537	0.12556921
6	0xbe51b639	-0.20479669
7	0xbdc44b53	-0.095846795
8	0x3eced303	0.40395364
9	0xbe62e613	-0.22158079

Mixer_Block.0.mlp_block_token_mixing_DynaMixerOperation.fc_ND.weight f4 [1, 66]
0	0x3b9c249a	0.0047651054
1	0xbd6e4816	-0.058174215
2	0x38306dc9	4.2063915e-05
3	0x3cada27f	0.021195648
4	0x3d0e72a4	0.0347773
5	0x3ba3fa72	0.0050042206
6	0xbd0b750c	-0.03404717
7	0x3cc52ad8	0.024068281
8	0xbdade39b	-0.08490678
9	0x3cbabcc5	0.02279509
10	0xbcd59049	-0.026069777
11	0x3d8ec951	0.06971992
12	0xbc922b6a	-0.017842967
13	0x3cdb91b8	0.026802883
14	0x3d431db0	0.047635734
15	0x3d889444	0.066689044
16	0xbb86eb16	-0.00411738
17	0x3ca5bad9	0.020230697
18	0xbd18319b	-0.037156682
19	0x3bf2f3fd	0.0074143396
20	0xbc726bc6	-0.014796203
21	0xbdb58d70	-0.08864868
22	0xbb6872fb	-0.0035468924
23	0xbd87d1a1	-0.066317804
24	0xbdc12204	-0.09430316
25	0xbb64c4c9	-0.0034907332
26	0x3d1556e1	0.036459807
27	0xbd046acf	-0.032328423
28	0x3e014989	0.12625708
29	0x3ae6776a	0.0017583196
30	0x3b573104	0.0032835612
31	0x3d36f335	0.044665534
32	0xbdc86366	-0.09784584
33	0x3dbb8529	0.09156258
34	0xbd8d9b38	-0.06914371
35	0x3d28d66f	0.041220125
36	0xbaa24c9d	-0.0012382452
37	0x3d415dfb	0.047208767
38	0xbc874e73	-0.0165169
39	0x3dfe6a7c	0.12422654
40	0x3c085261	0.008320422
41	0xbd177775	-0.036979157
42	0x3d8e7e32	0.069576636
43	0xbd605d6c	-0.054776594
44	0x3dd5d01e	0.10440086
45	0xbdb5a85f	-0.08870005
46	0xbd6fe921	-0.05857194
47	0xbd9c03c6	-0.07617907
48	0x3c8ba81c	0.017047934
49	0x3d7dcc3a	0.061962344
50	0x3da8365b	0.082134925
51	0xbd683a63	-0.056696307
52	0xbbd4c1e1	-0.0064928387
53	0xbd394a87	-0.04523709
54	0x3d9870b2	0.0744337
55	0xbcc1397b	-0.02358698
56	0x3c90ef4b	0.017692229
57	0xbdd522ca	-0.10407026
58	0xbdb1873b	-0.08668371
59	0x3cf5f6db	0.030024936
60	0xbde34102	-0.11096384
61	0x3d5c7158	0.05381903
62	0xbd2dc03e	-0.042419665
63	0xbcd4b2f0	-0.02596423
64	0xbcdaabf3	-0.02669332
65	0xbd9a73a4	-0.07541588

Mixer_Block.0.mlp_block_token_mixing_DynaMixerOperation.fc_Nd.weight f4 [100, 10]
0	0x3e7ac7d4	0.24490291
1	0x3f12c590	0.57332706
2	0x3de46e74	0.1115388
3	0x3ee0e3a3	0.43923673
4	0x3e16bf97	0.14721523
5	0x3f01b45e	0.50665843
6	0x3e17d933	0.14828949
7	0x3da39679	0.07987685
8	0x3cc8e823	0.024524754
9	0x3ed223b6	0.4104287
10	0xbebae411	-0.36502126
11	0xbcc19a43	-0.023633128
12	0xbc02b8da	-0.007978642
13	0x3d6f58e7	0.058434393
14	0xbcecc39d	-0.02890187
15	0x3e4c244e	0.19935724
16	0xbdfb4819	-0.12269611
17	0x3d95895d	0.073015906
18	0x3db46334	0.08807984
19	0xbe635889	-0.22201742
20	0x3dd6b19f	0.10483097
21	0xbd92a5d0	-0.071605325
22	0xbe24f0f0	-0.16107535
23	0xbe64c8c6	-0.22342214
24	0xbe3ae875	-0.18252738
25	0xbd826eab	-0.063687645
26	0xbea4ed85	-0.32212463
27	0xbd948dd1	-0.07253612
28	0xbce27b66	-0.027646732
29	0xbdd27960	-0.10277057
30	0xbefda9d8	-0.49543643
31	0x3dc112f3	0.094274424
32	0xbe8e7fa1	-0.27831748
33	0x39d6772d	0.00040906054
34	0xbe41ecb8	-0.18937957
35	0xbdb9e6dc	-0.09077236
36	0xbe5d99cc	-0.216407
37	0x3df9ef3a	0.12203832
38	0xbe89a47a	-0.26883298
39	0x3bb853a6	0.005625206
40	0x3d5a7700	0.053336143
41	0xbd88ce43	-0.06679966
42	0xbd528d5a	-0.051404335
43	0x3c41991d	0.01181629
44	0xbdbdf6f0	-0.09275615
45	0xbe6666b2	-0.22500113
46	0xbe9222c9	-0.28542164
47	0xbe41c192	-0.18921497
48	0x3d22e5a2	0.039769776
49	0xbe6b8886	-0.23001298
50	0xbe884572	-0.26615483
51	0xbe8e3efc	-0.27782428
52	0xbdbe75af	-0.0929979
53	0xbe8522f2	-0.26003224
54	0x3d3c18e6	0.045922183
55	0xbe431ac0	-0.19053173
56	0x3daa9cbb	0.08330675
57	0x3e3445c6	0.17604741
58	0x3e46a829	0.19400086
59	0x3da6d18f	0.08145439
60	0x3da0e6ed	0.078565456
61	0x3da080d8	0.07837075
62	0x3c4526e6	0.0120332
63	0xbca77ffe	-0.020446774
64	0xbdea81f2	-0.11450566
65	0x3da3eed9	0.08004541
66	0xbecddbed	-0.40206853
67	0x3d004929	0.03131977
68	0xbe264006	-0.1623536
69	0xbe8ac0ea	-0.27100307
70	0xbcc709f3	-0.024296736
71	0xbe3b3669	-0.18282475
72	0x3c4d4bf1	0.012530313
73	0xbe0be4d1	-0.13661505
74	0xbdba8603	-0.09107592
75	0xbbf94e4f	-0.007608212
76	0xbdaf36a9	-0.085553475
77	0xbe51cb21	-0.20487644
78	0x3e75b8bf	0.23996256
79	0x3dc68ee4	0.09695223
80	0x3d406881	0.046974663
81	0xbe1a7fa0	-0.15087748
82	0x3deae905	0.11470226
83	0x3e007bc3	0.12547211
84	0x3deaa7f7	0.11457818
85	0xbb791161	-0.0038004743
86	0xbdc5448e	-0.096322164
87	0xbe3ae718	-0.18252218
88	0xbe206979	-0.15665235
89	0xbd554e2a	-0.052076496
90	0xbdc6f644	-0.0971494
91	0xbe420144	-0.18945795
92	0xbda0c05b	-0.07849189
93	0x3c2ca5c7	0.010537571
94	0xbe2edf00	-0.17077255
95	0xbe9700cf	-0.29492804
96	0xbdaf0cf5	-0.08547393
97	0xbdfb6e2b	-0.12276872
98	0x3e5d2140	0.21594715
99	0xbcce9a4f	-0.025220064
100	0xbea7cf48	-0.3277533
101	0xbe8f6c67	-0.28012392
102	0x3d7d1778	0.06178996
103	0xbe145196	-0.14484248
104	0x3e8f87a8	0.28033185
105	0x3ded1e97	0.115781
106	0x3e8db9a7	0.27680704
107	0xbe48ebca	-0.19621196
108	0x3e67c591	0.2263396
109	0xbd0194a0	-0.03163588
110	0x3e6035c1	0.21895505
111	0xbeab39f7	-0.3344266
112	0xbe7ff218	-0.24994695
113	0x3b9e6595	0.004833887
114	0xbea990ff	-0.33118436
115	0x3e073eaf	0.13207506
116	0xbe90bf05	-0.28270736
117	0xbdfb8c73	-0.12282648
118	0xbd4e86f8	-0.050421685
119	0xbdc50bd3	-0.09621396
120	0x3e4fe877	0.20303522
121	0x3ed514a7	0.4161732
122	0x3e2869e4	0.16446644
123	0x3e809a70	0.25117826
124	0x3e282409	0.16419996
125	0x3e00f929	0.12595047
126	0x3ca6bd23	0.02035386
127	0x3de9f468	0.1142357
128	0x3e7c05f3	0.24611644
129	0x3e04ce36	0.12969288
130	0xbde59558	-0.11210126
131	0xbd13cba8	-0.036082894
132	0xbdb43106	-0.08798413
133	0xbedd9d0e	-0.43283886
134	0x3d233da4	0.039853707
135	0xbd95456a	-0.0728863
136	0xbe30f77d	-0.1728191
137	0xbd25698d	-0.040383864
138	0x3df70e8d	0.12063322
139	0x3c27ce2d	0.010242027
140	0xbd32fb1b	-0.043696504
141	0x3ecdcb34	0.40194094
142	0x3e721a98	0.23642957
143	0xbdb19d23	-0.086725496
144	0xbeb99360	-0.3624525
145	0xbe2d8986	-0.16946992
146	0xbce01996	-0.02735595
147	0xbb71f42e	-0.0036919224
148	0x3ccd8b7a	0.025090922
149	0x3e3c552b	0.18391864
150	0x3da5f803	0.08103945
151	0x3d2831b7	0.041063037
152	0x3e412b36	0.1886414
153	0x3d5302fd	0.05151652
154	0xbc8480f1	-0.016174765
155	0xbe87fcad	-0.26559964
156	0xbd5049de	-0.050851695
157	0xbd89e208	-0.06732565
158	0xbe03552b	-0.12825458
159	0xbce4ee15	-0.027945558
160	0xbddfa126	-0.109194085
161	0x3f10e4f5	0.5659936
162	0xbdaf18df	-0.08549666
163	0x3e2d9714	0.16952163
164	0xbea08528	-0.3135159
165	0x3d7e6161	0.062104587
166	0xbea63571	-0.32462648
167	0xbd874592	-0.06605066
168	0xbe3356e4	-0.17513615
169	0xbc049e07	-0.008094317
170	0xbd08fdac	-0.033445045
171	0xbd9480fd	-0.07251165
172	0xbcb1d777	-0.021709187
173	0xbdc8ad07	-0.09798627
174	0x3da583a8	0.08081752
175	0x3ddc9eff	0.107725136
176	0xbc72d961	-0.014822335
177	0xbe8df0aa	-0.27722675
178	0xbe71a212	-0.23596981
179	0x3e452254	0.19251376
180	0xbd7d99db	-0.061914306
181	0x3e26b3bd	0.16279502
182	0x3e58e3da	0.21180668
183	0xbe1b7a42	-0.15183356
184	0x3e503eb1	0.20336415
185	0x3ea02791	0.31280187
186	0xbcc2dc35	-0.023786644
187	0x3e4bc2d6	0.19898543
188	0x3cb4219c	0.021988682
189	0xbd9529c0	-0.07283354
190	0xbd9e7e4e	-0.077389345
191	0x3d832632	0.064037696
192	0xbcb8c01a	-0.022552539
193	0xbda60425	-0.08106259
194	0xbd8e4955	-0.06947581
195	0xbe2c2329	-0.16810288
196	0xbea8d13f	-0.32972142
197	0x3dbe0af6	0.092794344
198	0x3e8cf2e4	0.2752906
199	0xbb4a2635	-0.0030845527
200	0xbda2df86	-0.0795279
201	0xbdacb4f9	-0.08432955
202	0xbe42991a	-0.19003716
203	0xbd04fd00	-0.032467842
204	0xbdd15607	-0.102214865
205	0xbe8f6ba2	-0.28011805
206	0xbd5a29c8	-0.053262502
207	0xbe72f71d	-0.23727079
208	0x3e040a1c	0.12894481
209	0xbe8298ea	-0.2550729
210	0x3e31d2ec	0.17365617
211	0xbe4f2ae7	-0.2023121
212	0xbe5a0dcf	-0.2129433
213	0x3e9d34b4	0.30704272
214	0xbe63d4e6	-0.22249183
215	0x3e60ea62	0.2196441
216	0x3e8a233a	0.2698
217	0x3e41efe9	0.18939175
218	0xbd819f1b	-0.06329175
219	0xbe3489de	-0.17630717
220	0xbda86703	-0.08222773
221	0x3e98a123	0.29810438
222	0x3f0dc464	0.55377793
223	0x3e9225fa	0.285446
224	0x3ea8973b	0.3292788
225	0xbd548f2c	-0.05189435
226	0xbd86cd61	-0.06582142
227	0xbdd50e7a	-0.10403152
228	0xbdad3ae2	-0.08458497
229	0x3e8a32d4	0.26991904
230	0x3e1cccd6	0.15312514
231	0xbe6bee07	-0.23040019
232	0x3ed8438e	0.4223904
233	0x3ebfc63e	0.37455934
234	0x3ea509a4	0.32233918
235	0x3e87a628	0.26493955
236	0xbe50dcdb	-0.2039675
237	0xbe0cbdea	-0.13744321
238	0x3dd549e6	0.10414486
239	0x3e896426	0.2683422
240	0xbe722138	-0.23645484
241	0xbeacac7d	-0.33725348
242	0xbe4fde2a	-0.20299593
243	0x3da0248f	0.07819473
244	0x3e7f237d	0.24915881
245	0xbdab370d	-0.083601095
246	0xbeb554fe	-0.35416406
247	0xbc8dfe10	-0.01733306
248	0x3e084675	0.13308127
249	0xbe26e6e9	-0.16299023
250	0xbe6c23e2	-0.23060563
251	0x3e4995d6	0.19686064
252	0xbe5cb5a7	-0.2155367
253	0x3e836ea1	0.2567034
254	0xbd48d51e	-0.04903137
255	0x3e9ece7b	0.31016907

Mixer_Block.0.mlp_block_token_mixing_DynaMixerOperation.fc_Nd.bias f4 [100]
0	0xbec72af4	-0.38899958
1	0x3dd71467	0.10501938
2	0x3e8f5873	0.2799717
3	0xbe0b5186	-0.13605317
4	0x3e287f7d	0.16454883
5	0x3e557f1f	0.20849274
6	0x3d8a90a8	0.06765872
7	0x3e401573	0.18758182
8	0x3e685e24	0.22692162
9	0x3d7846d4	0.060614422
10	0xbe4a52bc	-0.19758123
11	0xbda8c142	-0.08239986
12	0xbe8ad015	-0.2711188
13	0x3ed22da9	0.4105046
14	0xbe14f4e6	-0.14546546
15	0x3d1866c3	0.037207376
16	0xbebe53ca	-0.371733
17	0x3df46ef3	0.119352244
18	0x3e91b252	0.2845636
19	0xbe4246ae	-0.18972275
20	0x3ea9f7e8	0.3319695
21	0xbd5fc787	-0.054633643
22	0xbef48600	-0.47758484
23	0xbe87342e	-0.26406997
24	0x3d1b51f8	0.03791997
25	0xbea4eee8	-0.3221352
26	0x3e9e3deb	0.30906615
27	0xbe3ec042	-0.18628028
28	0x3e5cb234	0.21552354
29	0xbe107f62	-0.14111093
30	0x3e4805bd	0.19533439
31	0x3e36fdee	0.17870304
32	0xbe0bc534	-0.13649446
33	0x3d7b0373	0.061282586
34	0xbee69e9c	-0.45042884
35	0x3e416f5b	0.18890135
36	0xbea94b7b	-0.330654
37	0x3ed76ab1	0.42073587
38	0x3cb9c574	0.02267716
39	0xbdb8f4ac	-0.090310425
40	0xbdd7e31f	-0.10541367
41	0xbdf21fd8	-0.1182248
42	0xbe75e6af	-0.2401378
43	0xbdce7dae	-0.10082565
44	0xbdc0645a	-0.093941405
45	0xbe8bf7d5	-0.27337518
46	0xbd6b98bf	-0.057518717
47	0xbe579a3e	-0.21054932
48	0x3e08d481	0.13362314
49	0x3e53f15a	0.20697537
50	0x3f0ae083	0.5424883
51	0x3e02af45	0.12762173
52	0xbe2faeb9	-0.17156495
53	0x3e516865	0.2044998
54	0x3d89675e	0.06709169
55	0xbbbd2c83	-0.0057731285
56	0xbe41b669	-0.1891724
57	0xbd5e7ab7	-0.05431625
58	0xbd7cac3f	-0.061687704
59	0xbe04db6f	-0.12974332
60	0xbe031271	-0.12800004
61	0xbe5f11cf	-0.21784137
62	0xbe06deab	-0.13170879
63	0xbed101c4	-0.4082166
64	0xbd6cc269	-0.05780259
65	0xbe9d4698	-0.3071792
66	0x3c6c4e03	0.014422896
67	0x3e85290e	0.26007885
68	0xbe42c55c	-0.19020599
69	0xbe8bff02	-0.27342993
70	0x3e168f2c	0.14703053
71	0xbe3727b5	-0.17886241
72	0x3d5c09cf	0.05372029
73	0xbdbf99d7	-0.093555145
74	0x3e8eeca5	0.2791492
75	0x3e2d0721	0.1689725
76	0x3ea7e5cb	0.32792506
77	0x3cad0eb2	0.021125171
78	0xbdeb37d4	-0.11485258
79	0x3e443179	0.19159497
80	0xbd7eb8e0	-0.06218803
81	0xbe298b33	-0.16557007
82	0x3e33d150	0.17560315
83	0x3b2f83e0	0.0026781484
84	0x3e83e8bb	0.25763497
85	0xbe947b5e	-0.29000372
86	0x3e22a948	0.15884888
87	0x3e3c9c4b	0.18418996
88	0xbe037711	-0.12838389
89	0xbde8b5da	-0.113628104
90	0xbe3a3d22	-0.18187383
91	0x3ea6cd03	0.32578287
92	0xbe980b17	-0.2969596
93	0xbdaaf5b9	-0.08347649
94	0x3e019be3	0.12657122
95	0xbd2831d9	-0.041063163
96	0x3e1c3345	0.15253933
97	0x3e732903	0.23746113
98	0xbe2f5757	-0.17123161
99	0xbe92ee7f	-0.28697583

Mixer_Block.0.mlp_block_token_mixing_DynaMixerOperation.fc_out.weight f4 [66, 66]
0	0x3e609a0f	0.21933769
1	0xbe0af80d	-0.13571186
2	0xbe4eac13	-0.20182829
3	0xbcfa24cb	-0.030535122
4	0xbe51ec3d	-0.20500274
5	0xbc218a3b	-0.009859617
6	0x3d65a57c	0.05606602
7	0xbd40e2cd	-0.047091294
8	0x3e23b803	0.15988164
9	0xbbce2583	-0.006291093
10	0xbd80439e	-0.06262897
11	0xbb3716e8	-0.0027937237
12	0xbdf6f4b2	-0.12058391
13	0xbdafaf02	-0.08578302
14	0x3b591e05	0.0033129465
15	0x3c2737ab	0.010206143
16	0xbe12e207	-0.14344035
17	0xbc75408c	-0.014969002
18	0x3ccc82d0	0.02496472
19	0x3df87eb7	0.12133544
20	0xbdbc24ec	-0.0918673
21	0xbd7acec5	-0.061232347
22	0x3d94efef	0.07272326
23	0x3e89890a	0.26862365
24	0x3c99d833	0.01877985
25	0xbe75f8c2	-0.24020675
26	0xbdfaec8d	-0.1225215
27	0x3d43516a	0.047685064
28	0xbdbc5288	-0.09195429
29	0xbb4fb170	-0.0031691454
30	0x3d8423aa	0.06452115
31	0x3d20979c	0.039207086
32	0x3e06973f	0.13143633
33	0xbe80f945	-0.25190178
34	0xbdbf284c	-0.09333858
35	0x3d090774	0.033454373
36	0x3cfff857	0.031246347
37	0xbda2c687	-0.07948022
38	0x3d42e320	0.047579885
39	0x3e555214	0.20832092
40	0x3dc81ae8	0.09770757
41	0xbd84d99b	-0.064868174
42	0xbddf9a86	-0.10918145
43	0x3cc84dd5	0.024451176
44	0xbd7adf42	-0.06124807
45	0x3de1b30b	0.11020478
46	0x3d386415	0.04501732
47	0x3d54eaa6	0.05198159
48	0xbe01bf08	-0.12670529
49	0xbe3f0bbc	-0.1865682
50	0xbd878f9c	-0.06619188
51	0x3da37bae	0.079825744
52	0x3e444325	0.19166239
53	0xbd0f56cf	-0.034994897
54	0xbd42de7f	-0.04757547
55	0xbda0629a	-0.07831307
56	0xbd913e20	-0.070919275
57	0xbd135faf	-0.035979923
58	0xbd95882c	-0.07301363
59	0xbdd0df09	-0.101987906
60	0x3d62775d	0.055289615
61	0x3d13adcd	0.03605442
62	0x3e068906	0.13138208
63	0xbe09430c	-0.13404483
64	0x3e10bd06	0.14134607
65	0x3cb0d647	0.02158655
66	0xbe064fc1	-0.13116361
67	0xbba632d7	-0.0050719786
68	0xbd143c88	-0.03619054
69	0x3d393b3c	0.045222506
70	0xbcba7c8d	-0.022764469
71	0xbd8ef867	-0.06980973
72	0x3e4ef2a7	0.20209752
73	0xbcd58875	-0.026066044
74	0xbdef2b1f	-0.116781466
75	0xbd8d6fe0	-0.06906104
76	0x3dce0999	0.10060424
77	0x3d05e150	0.032685578
78	0x3dc9c92c	0.098528236
79	0x3dc1881d	0.0944979
80	0x3d5717c3	0.052512895
81	0x3d4f5990	0.050622523
82	0x3d64745d	0.055775035
83	0x3af03600	0.001832664
84	0xbd0d37fb	-0.034477215
85	0xbcc7bd48	-0.024382249
86	0x3be68e79	0.007036027
87	0x3dab9084	0.083771735
88	0x3da3d826	0.080002114
89	0xbd0438df	-0.0322808
90	0xbc829412	-0.015939746
91	0x3d94de62	0.07268979
92	0xbd946961	-0.07246662
93	0x3d0d110b	0.03444008
94	0x3c8e0b41	0.01733935
95	0x3d151325	0.03639521
96	0x3da4fd29	0.08056099
97	0x3d2c5792	0.0420757
98	0xbdca6985	-0.098834075
99	0x3ca4e522	0.02012879
100	0xbce81688	-0.028331056
101	0x3d122383	0.035678398
102	0x3dd39895	0.10331837
103	0x3d6b88da	0.05750356
104	0xbc7cc9c8	-0.015428968
105	0x3ddc659a	0.107615665
106	0x3de6f35b	0.11276885
107	0xbd27e4e9	-0.04098979
108	0xbc60ed12	-0.013728397
109	0x3da4c46a	0.080452755
110	0x3de2edda	0.11080523
111	0xbdfc9a70	-0.12334144
112	0xbe0331e7	-0.12812005
113	0xbdc74832	-0.09730567
114	0x3d2c3b06	0.042048477
115	0xbd396871	-0.04526562
116	0xbe201500	-0.15633011
117	0xbd894ee6	-0.06704502
118	0x3ca59251	0.02021137
119	0x3cd56753	0.026050245
120	0xbd139f22	-0.036040433
121	0xbe7838d6	-0.24240431
122	0x3d9b6610	0.07587826
123	0x3db7916a	0.089632824
124	0x3dbad527	0.09122687
125	0x3d50266a	0.050817885
126	0x3dbfbbe4	0.09362009
127	0xbe2ace54	-0.1668027
128	0x3e04b93c	0.12961286
129	0x3db8fa25	0.09032086
130	0x3d55e0f0	0.05221647
131	0x3e110cc6	0.14165029
132	0x3b8d3c8a	0.0043101953
133	0x3d81b997	0.063342266
134	0xbd31433a	-0.043277003
135	0xbe4087b5	-0.18801768
136	0x3df7db10	0.1210233
137	0xbc099aea	-0.008398751
138	0x3ca6c9fa	0.020359982
139	0xbde5c6df	-0.11219572
140	0x3bf988c0	0.007615179
141	0x3da9986b	0.082810245
142	0x3d419094	0.04725702
143	0x3d34428b	0.044008773
144	0xbcdfe2da	-0.027329851
145	0xbddb0beb	-0.106956325
146	0xbd67dc63	-0.05660666
147	0x3e25cff2	0.16192606
148	0xbda08ac7	-0.0783897
149	0x3c063e70	0.008193597
150	0xbde2687d	-0.11055086
151	0x3d3225a2	0.04349292
152	0x3d2ac38a	0.041690387
153	0x3ceaba31	0.028653236
154	0x3da19b0e	0.078909025
155	0x3d45e830	0.048317134
156	0xbd179c02	-0.037014015
157	0x3d14e5d9	0.036352012
158	0xbbb4379d	-0.0054997937
159	0xbcff490a	-0.031162757
160	0xbcc6e80a	-0.024280567
161	0x3bab0d60	0.0052201003
162	0x3e402547	0.1876422
163	0x3d5ed67f	0.05440378
164	0xbda696b8	-0.08134216
165	0xbd0f3426	-0.034961842
166	0x3d6ddb8c	0.058070704
167	0x3d3e8fe3	0.04652394
168	0x3adc6b41	0.0016816632
169	0x3db10bc9	0.08644826
170	0xbe117884	-0.1420613
171	0xbe3242f6	-0.17408356
172	0x3d2ac85a	0.041694976
173	0xbd0cc273	-0.03436513
174	0x3d6349da	0.055490352
175	0xbd2b99f9	-0.041894887
176	0x3db6bd17	0.08922785
177	0x3e08a519	0.1334423
178	0x3b93d058	0.0045109205
179	0x3dd3d908	0.1034413
180	0xbdc86b26	-0.09786062
181	0x3dcadbad	0.09905181
182	0x3d54ba76	0.051935636
183	0x3e153324	0.1457029
184	0xbe1f0283	-0.15528302
185	0xbdd51831	-0.10405005
186	0xbd3bfbbb	-0.045894366
187	0x3b914533	0.004433298
188	0x3ca7f326	0.020501684
189	0xbcd5ee9d	-0.026114756
190	0x3df63179	0.12021155
191	0x3d1ff013	0.039047312
192	0x3cb80bc2	0.022466544
193	0x3c8afc6d	0.01696607
194	0x3d359eb5	0.044340808
195	0xbd0dcce0	-0.034619212
196	0xbb21f0cf	-0.0024710183
197	0xbc9e8549	-0.019350665
198	0x3e122d0e	0.14275
199	0x3c2eede9	0.010676839
200	0xbda83fc5	-0.08215288
201	0x3dfb25c7	0.12263065
202	0xbd912395	-0.07086865
203	0x3ce1358f	0.027491359
204	0xbe023a46	-0.12717542
205	0xbda6d474	-0.08145991
206	0x3dd54d37	0.10415118
207	0xbdec613f	-0.11541986
208	0x3d87c7ab	0.066298805
209	0xbe30de32	-0.17272261
210	0xbbce3854	-0.006293336
211	0x3e17ec69	0.14836277
212	0xbd26d1c9	-0.04072741
213	0xbba7c05d	-0.005119367
214	0x3bb8a6e3	0.005635129
215	0xba6d862f	-0.00090608274
216	0x3d6917a7	0.056907322
217	0x3da98bf2	0.082786456
218	0x3de0de7d	0.10979936
219	0x3cd96b4c	0.026540421
220	0xbe23c043	-0.15991311
221	0x3cf300fb	0.029663553
222	0x3e82cf7c	0.25548923
223	0x3c6907c6	0.014223045
224	0x3d6e9a0c	0.05825238
225	0xbd81f2c6	-0.063451335
226	0x3ddad596	0.106852695
227	0x3d7f0c73	0.062267732
228	0xbdc82fef	-0.097747676
229	0x3de04a99	0.109517284
230	0x3d9a211b	0.075258456
231	0x3d3c5881	0.04598284
232	0xbd0d7db2	-0.0345437
233	0xbc940726	-0.018069815
234	0x3dbc92b8	0.09207672
235	0xbc469b0a	-0.012121925
236	0x3ded1643	0.11576512
237	0x3d9d0ace	0.076680765
238	0x3e41b65b	0.1891722
239	0x3d2959b4	0.041345313
240	0xbd9790b3	-0.07400646
241	0xbdb7d7bc	-0.08976695
242	0xbdb7800f	-0.08959972
243	0xbd652af0	-0.05594915
244	0x3d1bf710	0.038077414
245	0xbd450fef	-0.0481109
246	0x3e26c3ca	0.16285625
247	0xbdfcee02	-0.12350084
248	0xbca62eae	-0.02028593
249	0xbd210433	-0.039310645
250	0x3c1b950b	0.009495984
251	0x3d9c731c	0.07639143
252	0x3d8ad56e	0.0677899
253	0xbdcc4234	-0.09973565
254	0x3d0ac4f3	0.03387923
255	0x3cf060e1	0.02934307

Mixer_Block.0.mlp_block_token_mixing_DynaMixerOperation.fc_out.bias f4 [66]
0	0x3db7e2a4	0.08978775
1	0xbdb73917	-0.08946436
2	0xbb54910c	-0.0032435087
3	0x3e211a85	0.15732773
4	0x3c00da9c	0.007864621
5	0xbdf1b051	-0.11801208
6	0x3dc5aca0	0.09652066
7	0xbe4caaca	-0.19987026
8	0xbe079e71	-0.13244034
9	0xbe0a26eb	-0.13491409
10	0xbd3b0c69	-0.045666132
11	0xbd44e531	-0.048070136
12	0xbd3de78b	-0.046363395
13	0x3dac1274	0.08401957
14	0x3dc944af	0.098275535
15	0x3e8196c0	0.25310326
16	0xbd087d89	-0.033322845
17	0x3e4af31b	0.198193
18	0xbda5dc78	-0.08098692
19	0x3e3912c7	0.18073569
20	0x3dd116f5	0.10209457
21	0xbe6b5d94	-0.22984916
22	0xbc5ff86c	-0.013670068
23	0xbe30cff0	-0.17266822
24	0xbd87a245	-0.06622747
25	0xbe43b7da	-0.19113103
26	0xbd333dab	-0.043759983
27	0xbd80531f	-0.06265854
28	0xbd450c33	-0.048107337
29	0xbb64a880	-0.0034890473
30	0x3dd3e96c	0.10347256
31	0x3cc81f8a	0.024429101
32	0x3e533bc5	0.20628269
33	0xbd58eea0	-0.052961946
34	0xbe016607	-0.12636577
35	0xbc8db2aa	-0.017297108
36	0xbd8b92c3	-0.06815102
37	0xbd93f210	-0.07223904
38	0x3d9e22a7	0.07721453
39	0x3e358c34	0.17729264
40	0x3da6c11f	0.08142304
41	0x3deaea72	0.11470498
42	0xbe614a7d	-0.22001071
43	0xbe0dff6a	-0.13866964
44	0x3dff62eb	0.12470039
45	0xbe222ba0	-0.15836954
46	0xbd96b16c	-0.07358059
47	0xbe49a916	-0.19693407
48	0x3dcf78b9	0.10130448
49	0x3e85e86f	0.26153895
50	0xbeaaa370	-0.33327818
51	0xbe47d4eb	-0.19514816
52	0xbe591ce5	-0.21202429
53	0xbdc44ba9	-0.095847435
54	0xbb897060	-0.0041943043
55	0xbde5bea8	-0.112180054
56	0x3dab14fe	0.08353613
57	0x3e8c8fce	0.27453464
58	0x3d1d1985	0.038354415
59	0x3e8ed69d	0.27898112
60	0xbd7487f8	-0.059699982
61	0x3e137098	0.1439842
62	0xbc8511fe	-0.01624393
63	0x3c9e47af	0.01932129
64	0xbd60dd47	-0.054898527
65	0xbd2cd252	-0.042192765

Mixer_Block.0.mlp_block_token_mixing_DynaMixerOperation.LN.weight f4 [10]
0	0x3facd76d	1.3503243
1	0x3f6db74a	0.928578
2	0x3f84c06c	1.0371222
3	0x3f71a621	0.9439412
4	0x3f6e68b6	0.93128526
5	0x3f5b389b	0.8563325
6	0x3f7ea9b5	0.994777
7	0x3f64e279	0.8940807
8	0x3f48f4e7	0.7849869
9	0x3f11a7b2	0.5689651

Mixer_Block.0.mlp_block_token_mixing_DynaMixerOperation.LN.bias f4 [10]
0	0x3d7f7aa6	0.062372826
1	0xbea42cab	-0.3206533
2	0x3d09d167	0.033646967
3	0x3deae202	0.11468889
4	0xbdbe268d	-0.09284697
5	0x3e46b046	0.1940318
6	0xbd8b0c98	-0.067895114
7	0x3e3d6723	0.18496375
8	0x3dfbf638	0.12302822
9	0xbc9914e0	-0.018686712

Mixer_Block.0.mlp_block_channel_mixing_DynaMixerOperation.fc_ND.weight f4 [1, 10]
0	0xbe90f8e1	-0.2831488
1	0x3e8127ff	0.25225827
2	0xbebae59d	-0.36503306
3	0x3d8c7628	0.06858474
4	0xbdfaceba	-0.12246461
5	0xbce3ae41	-0.027793052
6	0x3dc71a0c	0.09721765
7	0xbd4b92c7	-0.049700525
8	0x3bde0396	0.00677533
9	0x3db398c1	0.0876937

Mixer_Block.0.mlp_block_channel_mixing_DynaMixerOperation.fc_Nd.weight f4 [484, 22]
0	0xbe60bc77	-0.21946894
1	0x3daa3248	0.08310372
2	0xbe843497	-0.25821373
3	0x3cc54559	0.02408092
4	0x3de38a75	0.11110393
5	0x3e5a2950	0.21304822
6	0xbdda7275	-0.10666362
7	0xbe07a485	-0.13246353
8	0x3daada97	0.08342474
9	0x3ccc3862	0.02492923
10	0x3db3389f	0.08751034
11	0x3dd9e51c	0.10639402
12	0x3dfea160	0.124331236
13	0xbd51a10a	-0.05117897
14	0xbe6ccf50	-0.23125958
15	0xbe40d5ac	-0.1883151
16	0xbc3efa5b	-0.011656369
17	0x3cadba99	0.02120714
18	0xbdcf70d5	-0.10128943
19	0xbe3be055	-0.18347295
20	0x3e09f2cf	0.1347153
21	0xbdbcf83a	-0.09227033
22	0x3e083104	0.13299948
23	0xbe279d02	-0.16368487
24	0xbcd58875	-0.026066044
25	0x3dbe477c	0.09290978
26	0x3e854a74	0.26033366
27	0xbe90a098	-0.28247523
28	0x3d02d0ef	0.031937536
29	0x3d4ee3de	0.05051028
30	0x3e157f34	0.14599305
31	0xbda84567	-0.082163624
32	0xbd7a7e49	-0.06115559
33	0x3d95ad02	0.07308389
34	0xbd63c3bc	-0.05560659
35	0x3da556e4	0.08073214
36	0x3e6dca6e	0.23221752
37	0x3dcf7618	0.101299465
38	0x3df3273b	0.11872717
39	0x3e216581	0.15761377
40	0x3d8f7972	0.07005586
41	0xbdbbf9cf	-0.091785066
42	0xbe069980	-0.13144493
43	0xbd6d1a76	-0.057886563
44	0xbe676833	-0.22598343
45	0x3d418dfb	0.047254544
46	0x3eb261e3	0.34840307
47	0x3affd1d4	0.001951749
48	0x3ec8a2de	0.39186758
49	0x3c98e2a9	0.018662767
50	0x3d530676	0.051519834
51	0x3e10954e	0.14119455
52	0x3e6bbde0	0.2302165
53	0x3d0c8f51	0.034316365
54	0xbe68d05c	-0.22735733
55	0x3e0a8aff	0.13529585
56	0xbd06e23e	-0.032930605
57	0x3e11f53e	0.14253709
58	0x3d3032c6	0.04301717
59	0x3e693295	0.22773202
60	0x3e8db0ec	0.27674043
61	0x3d887e8c	0.06664762
62	0x3ea88253	0.3291193
63	0x3db5b192	0.088717595
64	0x3c8bf7fa	0.017086018
65	0x3e028386	0.12745485
66	0x3c032665	0.008004759
67	0xbd88b516	-0.066751644
68	0x3c45c6ec	0.012071352
69	0xbe3605e9	-0.17775692
70	0x3cc9a445	0.024614463
71	0xbe077777	-0.13229166
72	0x3dba639b	0.091010295
73	0x3e051ae6	0.12998542
74	0x3c8df8bc	0.01733052
75	0xbdb12beb	-0.08650955
76	0xbd1613a0	-0.03663981
77	0xbe629347	-0.22126494
78	0xbe55b8a1	-0.20871212
79	0x3dd8ea7e	0.10591601
80	0x3d30f433	0.043201637
81	0x3c970e47	0.018439425
82	0xbdf674c2	-0.120339885
83	0xbe01f3c2	-0.12690642
84	0xbde0453e	-0.10950707
85	0x3db78e4d	0.089626886
86	0x3e0dbc9b	0.13841479
87	0x3da9af7b	0.08285423
88	0x3d8f577e	0.0699911
89	0x3d950a9b	0.072774135
90	0x3e546a82	0.20743755
91	0x3d55d117	0.052201357
92	0xbb7d3d56	-0.0038641295
93	0x3e7e0858	0.2480787
94	0x3e9f0a62	0.3106261
95	0x3dbe69ec	0.09297547
96	0x3e123f67	0.14281999
97	0xbe13f952	-0.14450577
98	0xbe8eaab1	-0.27864602
99	0xbd225525	-0.03963198
100	0xbd5d5d99	-0.05404434
101	0x3e197800	0.14987183
102	0xbdb712e3	-0.08939149
103	0xbda7310b	-0.08163651
104	0xbd405d40	-0.04696393
105	0xbd847f94	-0.06469646
106	0xbac7940d	-0.0015226618
107	0x3e29b8a9	0.16574349
108	0xbe20c80d	-0.15701313
109	0x3e4db273	0.20087604
110	0x3c098f47	0.008395976
111	0xbe653a6f	-0.22385572
112	0xbe0760a7	-0.13220464
113	0x3dd7409e	0.105103716
114	0xbe58f042	-0.21185401
115	0x3d75389f	0.05986845
116	0x3e97eeb5	0.29674307
117	0xbdeb16b6	-0.11478941
118	0xbd4ecd92	-0.050489016
119	0x3d1a2b98	0.03763923
120	0x3d528a8a	0.051401652
121	0xbcddd536	-0.027079206
122	0x3e02199a	0.12705079
123	0xbda16f5c	-0.07882568
124	0xbcdb0c0f	-0.026739148
125	0x3c5c17e3	0.013433429
126	0xbd93c994	-0.07216182
127	0xbdcacbbf	-0.09902143
128	0xbcb5dbbe	-0.022199508
129	0xbd26231f	-0.040560838
130	0xbda85da1	-0.08220983
131	0xbe94d5fc	-0.29069507
132	0xbd81c58d	-0.06336508
133	0x3d61e668	0.055151373
134	0xbe37a39f	-0.1793351
135	0xbe2c0437	-0.16798483
136	0x3e43982a	0.19101015
137	0xbc3cb572	-0.011517869
138	0xbda711ac	-0.081576675
139	0x3e193926	0.14963207
140	0xbe1f5703	-0.15560536
141	0x3e3402f8	0.17579257
142	0xbdf30d0b	-0.11867722
143	0xbd4d75fa	-0.05016134
144	0xbb396884	-0.0028291056
145	0xbe364206	-0.17798623
146	0xbe8b6f15	-0.27233186
147	0xbe171619	-0.14754523
148	0xbe276563	-0.1634727
149	0xbe127965	-0.14304121
150	0xbdff0d32	-0.12453689
151	0xbd9d7496	-0.07688253
152	0x3db58241	0.088627346
153	0x3e030dc2	0.12798217
154	0x3de1db79	0.11028189
155	0x3d7ef28b	0.062243026
156	0xbd25b4df	-0.040455695
157	0xbe0a1456	-0.1348432
158	0x3e3d5d4e	0.18492624
159	0xbd3af9c5	-0.045648355
160	0xbe05b160	-0.13055944
161	0xbc97decc	-0.018538855
162	0xbe9a895f	-0.3018293
163	0x3e1be394	0.15223533
164	0xbcbd687e	-0.023121115
165	0xbe585eed	-0.21129961
166	0xbe6283aa	-0.22120538
167	0xbe19819a	-0.14990845
168	0xbe92b724	-0.2865535
169	0x3e49a16c	0.19690484
170	0xbd637e57	-0.05554041
171	0xbe23332f	-0.15937494
172	0xbe2e92a2	-0.17048123
173	0x3d011cd7	0.031521644
174	0xbdb75439	-0.08951611
175	0xbc93a65f	-0.018023668
176	0x3de6107d	0.11233614
177	0x3de25b5e	0.11052583
178	0xbd1f9f80	-0.03897047
179	0x3d0a3e60	0.03375089
180	0xbe903c9c	-0.2817124
181	0x3e079cf8	0.13243473
182	0xbd19bb39	-0.037532065
183	0x3dbde891	0.09272874
184	0x3dc3bcb7	0.09557479
185	0xbda4e0ab	-0.080506645
186	0x3e0f025a	0.13965741
187	0x3df81c25	0.12114743
188	0x3e170f08	0.14751828
189	0x3d82dcfa	0.06389804
190	0x3e186059	0.14880504
191	0xbdab25ed	-0.08356843
192	0x3da319bb	0.07963892
193	0xbe5f5e10	-0.21813226
194	0xbca8c86c	-0.020603381
195	0xbd310807	-0.043220546
196	0x3d82f975	0.063952364
197	0x3cd5dec1	0.026107194
198	0x3e1eb2f6	0.15497956
199	0xbcc4efee	-0.024040189
200	0xbc0c8545	-0.008576696
201	0xbd0a0d20	-0.033703923
202	0x3ddcda5f	0.107838385
203	0xbd4f1f75	-0.05056711
204	0xbd39d36c	-0.045367643
205	0x3c66405d	0.014053431
206	0xbd852d49	-0.06502778
207	0xbd5caa19	-0.053873155
208	0x3c83ddcb	0.01609697
209	0x3e011dee	0.12609074
210	0x3cccfa7e	0.025021788
211	0xbe42da67	-0.19028626
212	0x3df6a7f6	0.12043755
213	0x3d77b363	0.06047381
214	0xbe1d8840	-0.15384007
215	0xbe7d09f6	-0.24710831
216	0xbe726f18	-0.23675191
217	0xbe24f5ab	-0.1610934
218	0xbe1b3d8b	-0.15160196
219	0xbdcc3a06	-0.099720046
220	0x3de8c96c	0.11366543
221	0x3c3b3e0d	0.011428368
222	0xbd8845a0	-0.06653905
223	0x3e34cde0	0.1765666
224	0x3d3a2a4e	0.0454505
225	0x3e9394fc	0.28824604
226	0x3e6d3ac9	0.23166956
227	0xbde7d5c0	-0.113200665
228	0x3dec7f69	0.11547739
229	0xbe22c1c2	-0.15894225
230	0xbd8758d3	-0.06608739
231	0xbd3469c5	-0.044046182
232	0x3e5e63ca	0.21717754
233	0xbd962980	-0.07332134
234	0xbdffb20c	-0.124851316
235	0x3d843fb0	0.0645746
236	0x3ea23648	0.31682038
237	0x3d698583	0.057012092
238	0x3ebfff24	0.37499344
239	0x3df992f6	0.12186234
240	0x3dcbc44f	0.09949552
241	0xbd509899	-0.05092678
242	0x3daca1be	0.084292874
243	0xbd0d34c2	-0.034474142
244	0xbce099fa	-0.027417172
245	0xbd904fe0	-0.07046485
246	0xbd3fafa6	-0.04679837
247	0x3e43073d	0.1904573
248	0xbd9bb400	-0.07602692
249	0xbdbe5dc1	-0.09295226
250	0xbdd33664	-0.103131086
251	0x3dcb235c	0.09918854
252	0xbe984490	-0.2973981
253	0x3dd7d6c9	0.10539014
254	0xbc8d9151	-0.017281206
255	0x3d94f443	0.07273152

Mixer_Block.0.mlp_block_channel_mixing_DynaMixerOperation.fc_Nd.bias f4 [484]
0	0x3dbac263	0.091191076
1	0x3e08142d	0.13288946
2	0x3e2fc68c	0.17165583
3	0x3d8405a6	0.0644639
4	0xbdc76eb4	-0.09737912
5	0xbe8a89ec	-0.2705835
6	0xbe151f40	-0.14562702
7	0x3e2a8e60	0.16655874
8	0x3db248a9	0.08705265
9	0xbea4b2d0	-0.32167673
10	0x3e11c4b0	0.14235187
11	0xbd82732c	-0.063696235
12	0xbd8dd691	-0.06925691
13	0x3ca3aaf8	0.019978985
14	0xbe69a42b	-0.22816531
15	0xbc8f7b24	-0.017514773
16	0x3dc9aa57	0.09846943
17	0x3e0bfe4d	0.13671227
18	0x3da28084	0.07934669
19	0xbbbbc171	-0.005729847
20	0x3d6b6ee3	0.057478797
21	0xbcb2199a	-0.021740723
22	0xbe92e355	-0.28689066
23	0x3e38b89a	0.1803917
24	0xbd49aa6a	-0.049234785
25	0x3e8f18bb	0.27948555
26	0xbda3bf13	-0.07995429
27	0x3d95454a	0.072886065
28	0x3d13d144	0.036088243
29	0xbe5c791d	-0.21530576
30	0xb609a3f3	-2.0510022e-06
31	0x3d1217ec	0.035667345
32	0x3d2a1a28	0.04152885
33	0x3e195f86	0.14977846
34	0x3e074f28	0.1321379
35	0x3e825595	0.2545592
36	0xbdab1dd1	-0.083552964
37	0xbe60c4f9	-0.21950139
38	0x3dfa80e7	0.122316174
39	0x3e7bdbfd	0.24595638
40	0xbc2c93cb	-0.010533283
41	0x3d1dccc8	0.038525373
42	0xbdf270df	-0.11837935
43	0xbc95996a	-0.01826163
44	0xbd4c2f47	-0.049849775
45	0xbe9b2a26	-0.30305594
46	0xbd9531d2	-0.07284893
47	0x3d071912	0.032982893
48	0xbda22b91	-0.07918466
49	0x3dfad09c	0.1224682
50	0x3da1da80	0.07903004
51	0x3e05324c	0.13007468
52	0x3eb1570e	0.3463673
53	0x3e21d02b	0.15802066
54	0x3c0685b0	0.0082105845
55	0x3e82196d	0.25410023
56	0x3e7de64e	0.24794886
57	0x3e703d8e	0.23460981
58	0x3d69568f	0.056967314
59	0xbdc58c60	-0.09645915
60	0x3e4ee0da	0.20202962
61	0x3e769fc4	0.24084383
62	0xbe3c9da7	-0.18419515
63	0xbe80f74d	-0.25188676
64	0x3d2ff816	0.042961203
65	0xbea54bc5	-0.3228437
66	0xbd15d6b4	-0.03658171
67	0xbd7ac56f	-0.061223444
68	0x3db6a873	0.08918848
69	0x3e39b2f4	0.18134671
70	0x3e0b377f	0.13595389
71	0x3e1fd69b	0.15609209
72	0xbe8af0f2	-0.27136952
73	0x3d866100	0.0656147
74	0xbca0132d	-0.019540394
75	0x3ddc44b5	0.10755292
76	0xbc839b13	-0.016065156
77	0x3e9f6055	0.31128183
78	0xbe32b9c4	-0.17453676
79	0x3e059057	0.13043343
80	0x3e0f074f	0.13967632
81	0xbe57ea6e	-0.21085522
82	0xbdb672b9	-0.089086
83	0x3e28b548	0.16475403
84	0xbe78ee7a	-0.24309722
85	0xbe9bd239	-0.30433825
86	0x3e6d959d	0.23201604
87	0x3d28b5ba	0.041188933
88	0x3df02bbf	0.11727094
89	0x3d7c0394	0.06152685
90	0x3d37c0c4	0.04486157
91	0xbe5fd411	-0.2185824
92	0xbe4a4471	-0.19752671
93	0xbe473d3c	-0.19456953
94	0x3d9f6411	0.07782758
95	0x3dffa4e8	0.12482625
96	0x3ceec1d8	0.029145166
97	0x3d7c96f9	0.061667416
98	0xbda1bca9	-0.07897312
99	0xbaad5ba4	-0.0013226164
100	0xbe4b0109	-0.19824614
101	0xbe92dce1	-0.28684142
102	0x3e2c5a86	0.16831407
103	0x3e5f081c	0.21780437
104	0x3d1a5f4f	0.03768855
105	0xbe09eaf7	-0.13468538
106	0x3e6a2ab5	0.22867854
107	0x3e198853	0.1499341
108	0x3d0c3adf	0.03423583
109	0x3e51c8c8	0.20486748
110	0x3bb779b7	0.0055992263
111	0x3e1c5432	0.15266493
112	0xbd65e73b	-0.05612872
113	0x3e5cbc95	0.21556313
114	0x3d664f28	0.056227833
115	0x3e16c8b3	0.14724998
116	0xbdd53b45	-0.104116954
117	0x3c515578	0.012776725
118	0x3e4d506d	0.20050211
119	0xbe1f7707	-0.15572749
120	0xbd543086	-0.051804088
121	0x3d5de32c	0.054171726
122	0x3e4987b0	0.19680667
123	0x3ea59649	0.3234122
124	0xbd10b0b5	-0.03532477
125	0xbdc90d1f	-0.09816956
126	0xbd293222	-0.041307576
127	0x3de87dd6	0.11352126
128	0xbd9986d2	-0.07496418
129	0xbe1b1c1a	-0.15147439
130	0x3e3a4b5a	0.18192807
131	0xbe98aab6	-0.29817742
132	0x3e2dfca4	0.16990906
133	0x3d26645d	0.040623058
134	0xbd0a9a24	-0.033838406
135	0x3e86da0e	0.26338238
136	0x3e432a69	0.19059147
137	0xbdef061a	-0.11671086
138	0xbde1e307	-0.1102963
139	0xbe3c2b52	-0.183759
140	0x3e0673b2	0.13130072
141	0xbe505b42	-0.20347312
142	0xbdbc3cc3	-0.09191277
143	0xbd4be366	-0.04977741
144	0x3e30e9cf	0.17276691
145	0x3e65c95d	0.22440095
146	0xbd0f5be8	-0.034999758
147	0xbe5a45bc	-0.21315664
148	0xbe20eb4d	-0.1571476
149	0x3e3f5c17	0.18687473
150	0xbe1d71dc	-0.15375465
151	0xbddca7f7	-0.10774224
152	0x3e8602ca	0.26174003
153	0xbe5dcf69	-0.21661152
154	0xbe72767c	-0.2367801
155	0xbe2e87e5	-0.17044027
156	0xbe4afdb7	-0.19823347
157	0x3d36b48e	0.044605784
158	0x3eb01403	0.34390268
159	0x3e17a181	0.14807703
160	0xbe3dca56	-0.18534216
161	0xbdff37c8	-0.12461811
162	0x3e8f3961	0.27973464
163	0x3c547649	0.0129676545
164	0xbd99eaac	-0.07515463
165	0x3ea20def	0.31651255
166	0x3e42fa82	0.19040874
167	0x3e0be603	0.13661961
168	0x3e08fdfe	0.1337814
169	0xbe39d6c5	-0.18148334
170	0xbc688d38	-0.014193825
171	0x3e2fed7f	0.17180441
172	0xbe1361b2	-0.14392737
173	0xbcfb8c05	-0.030706415
174	0x3d1aa8c2	0.037758596
175	0x3d8ed07c	0.06973359
176	0xbe6cb72c	-0.2311675
177	0xbdfe6a39	-0.12422604
178	0x3d272d67	0.040814783
179	0x3dcbd98b	0.099536024
180	0x3e0ccc64	0.13749844
181	0x3e746fa0	0.23870707
182	0xbe4d40fe	-0.20044324
183	0xbd2cb301	-0.0421629
184	0x3daa2946	0.083086535
185	0xbcad6360	-0.02116555
186	0x3e46d7c2	0.19418243
187	0x3d2d1969	0.04226056
188	0x3e1688ab	0.14700572
189	0x3e9bf7ae	0.30462402
190	0xbdb8d135	-0.09024278
191	0xbe8b44c4	-0.27200902
192	0x3dbf2f8b	0.0933524
193	0x3e261008	0.16217053
194	0xbddd6524	-0.10810307
195	0xbd8fb64f	-0.070171945
196	0x3a9c7e88	0.0011939565
197	0x3dc07caf	0.093987815
198	0x3e84263c	0.2581042
199	0x3c3eeb1b	0.011652733
200	0x3d3f6303	0.046725284
201	0xbdb4f291	-0.08835328
202	0x3d211737	0.03932878
203	0xbe9332f8	-0.28749824
204	0x3e548031	0.20752026
205	0x3d80f38e	0.06296454
206	0xbdccff07	-0.1000958
207	0xbc6d969c	-0.01450124
208	0xbe03bb85	-0.12864502
209	0xbd81bf85	-0.063353576
210	0xbe5c1544	-0.21492487
211	0xbd7ed263	-0.06221236
212	0x3e087201	0.13324739
213	0xbd065630	-0.03279704
214	0x3d3e35f6	0.04643818
215	0x3e169477	0.14705072
216	0xbd808c87	-0.062768035
217	0x3deefa2d	0.11668811
218	0xbd738c81	-0.059460167
219	0xbe5adeec	-0.213741
220	0x3d919efb	0.07110401
221	0x3d510fec	0.051040575
222	0x3e0f63ba	0.14002886
223	0xbd870cf4	-0.065942675
224	0xbe24630a	-0.16053405
225	0xbe3d9238	-0.1851281
226	0x3e87906a	0.26477367
227	0x3ea25677	0.31706592
228	0xbdc1f9ef	-0.09471499
229	0xbdacf8aa	-0.084458664
230	0x3dc61684	0.09672263
231	0xbea648bc	-0.32477367
232	0xb9920219	-0.00027848853
233	0xbec853b1	-0.3912635
234	0xbdb694ac	-0.08915076
235	0x3e20241a	0.15638772
236	0x3dcae5c7	0.09907108
237	0x3d327d48	0.04357651
238	0x3d36230d	0.04446702
239	0xbdbba40b	-0.09162148
240	0xbe1273f7	-0.1430205
241	0x3e5ab919	0.21359672
242	0x3c4d550c	0.012532484
243	0x3e5c77a7	0.21530019
244	0x3c90e856	0.017688911
245	0xbb180505	-0.0023196351
246	0x3e325b03	0.1741753
247	0xbd664e7d	-0.056227196
248	0xbe3926c0	-0.18081188
249	0xbda8105a	-0.08206244
250	0xbd701c65	-0.05862083
251	0x3bf6afb8	0.0075282715
252	0x3de3a078	0.11114591
253	0x3e19f1a2	0.15033582
254	0xbe198476	-0.14991936
255	0xbcf4c4d6	-0.029879015

Mixer_Block.0.mlp_block_channel_mixing_DynaMixerOperation.fc_out.weight f4 [10, 10]
0	0x3dd5ba2e	0.104359016
1	0x3ea46ba3	0.3211337
2	0x3d998dbd	0.074977376
3	0x3e198762	0.1499305
4	0x385eca6c	5.3117445e-05
5	0x3e76b342	0.24091819
6	0x3ecc863b	0.3994616
7	0x3e297a78	0.16550624
8	0x3c4ccd5d	0.012500134
9	0x3ebb2274	0.36549723
10	0xbe74e448	-0.23915207
11	0xbeec0dec	-0.46104372
12	0xbba9b31e	-0.005178823
13	0xbe1d09f6	-0.15335831
14	0xbe8cf599	-0.27531126
15	0x3d92c5cc	0.07166633
16	0xbe901571	-0.28141358
17	0x3d880cc1	0.066430576
18	0x3d4ad0b4	0.04951544
19	0x3d0627e7	0.032752898
20	0xbf2ad7ad	-0.66735345
21	0xbee489ff	-0.44636533
22	0xbe03909d	-0.12848134
23	0x3ddfeae8	0.10933477
24	0xbea54a9f	-0.32283494
25	0xbe0a19ff	-0.13486479
26	0x3e94a188	0.2902949
27	0x3e5a8b66	0.21342239
28	0xbe256bc4	-0.1615439
29	0x3e286971	0.16446473
30	0xb9d880f0	-0.00041294796
31	0x3e95b0fa	0.29236585
32	0x3e78618d	0.24255963
33	0x3ebbf544	0.3671056
34	0xbe8cd45e	-0.27505773
35	0x3e22c887	0.15896808
36	0x3e5feb0e	0.2186701
37	0x3e1f6ff9	0.15570058
38	0x3c39a522	0.011330875
39	0x3e0d4172	0.13794497
40	0x3eb0c801	0.3452759
41	0x3f0dba7e	0.5536269
42	0x3e91c383	0.28469476
43	0x3e86f2a9	0.2635701
44	0x3e0b090f	0.13577674
45	0x3cb8bdfc	0.02255153
46	0xbc6cdd56	-0.0144570675
47	0xbdd50df1	-0.1040305
48	0xbe88de82	-0.2673226
49	0xbca3de3e	-0.020003434
50	0xbf3ce7c5	-0.7379115
51	0x3de0716f	0.10959136
52	0xbebd9166	-0.37024993
53	0x3e288dc6	0.16460332
54	0xbe916b17	-0.28402016
55	0x3e477ad4	0.19480449
56	0xbe051c20	-0.1299901
57	0xbc214db0	-0.009845182
58	0x3d579c13	0.05263908
59	0x3e565b9f	0.20933388
60	0x3f4596c1	0.7718316
61	0xbd3d2707	-0.046179798
62	0x3e6cba4c	0.23117942
63	0xbd7759b8	-0.060388297
64	0x3cb665a3	0.022265261
65	0x3ddc9f3e	0.107725605
66	0x3e76893c	0.24075788
67	0x3d5061ee	0.050874643
68	0x3e825765	0.25457302
69	0xbd142aa2	-0.03617347
70	0xbc16c5d4	-0.009202439
71	0x3e789447	0.24275313
72	0x3dfe7727	0.1242507
73	0x3ea2ff35	0.31835333
74	0xbe6d1579	-0.23152722
75	0xbe7bb9d9	-0.24582614
76	0x3e88c815	0.2671515
77	0x3dca52c6	0.09879069
78	0x3e48f9c9	0.19626535
79	0xbd7b4e83	-0.06135417
80	0x3e3963db	0.18104498
81	0xbd839d28	-0.064264596
82	0xbe4f6371	-0.20252778
83	0xbe709ce4	-0.23497349
84	0xbbcd2878	-0.0062609278
85	0xbe46b064	-0.19403225
86	0xbe90ae8c	-0.2825817
87	0xbe0ed5fa	-0.13948813
88	0xbe3ce24a	-0.18445697
89	0xbe637b73	-0.22215061
90	0xbded06f7	-0.11573594
91	0xbe9c202f	-0.30493304
92	0xbed394f8	-0.41324592
93	0xbdc6107a	-0.096711114
94	0xbe2580a0	-0.16162348
95	0x3db8d28c	0.09024534
96	0xbdcb49e9	-0.099262066
97	0xbd087dcb	-0.03332309
98	0xbe166d41	-0.14690115
99	0x3d24cc80	0.04023409

Mixer_Block.0.mlp_block_channel_mixing_DynaMixerOperation.fc_out.bias f4 [10]
0	0xbe8a542a	-0.27017337
1	0x3eda02fd	0.42580405
2	0xbe6a65cc	-0.22890395
3	0x3c5f5629	0.013631382
4	0xbe191ba9	-0.14951958
5	0x3e99b304	0.3001939
6	0xbeaae5d7	-0.3337848
7	0xbdc284df	-0.094979994
8	0xbe1bae76	-0.1520327
9	0x3ea2d12b	0.31800207

Mixer_Block.0.mlp_block_channel_mixing_DynaMixerOperation.LN.weight f4 [22]
0	0x3f89469a	1.0724671
1	0x3f903ac9	1.126794
2	0x3f6df2b2	0.9294845
3	0x3f865381	1.0494233
4	0x3f888425	1.0665327
5	0x3f725286	0.9465717
6	0x3f7ddea1	0.9916783
7	0x3f83cb10	1.0296345
8	0x3f83c18a	1.0293438
9	0x3f69f190	0.9138422
10	0x3f805ea2	1.002888
11	0x3f82a7b9	1.0207435
12	0x3f8b11fe	1.0864866
13	0x3f8949a7	1.0725602
14	0x3f87f6ff	1.0622252
15	0x3f873bf3	1.056517
16	0x3f6bc822	0.92102253
17	0x3f821b73	1.0164627
18	0x3f8e6a06	1.1126106
19	0x3f742d8f	0.95382017
20	0x3f87376e	1.0563791
21	0x3f828c00	1.0198975

Mixer_Block.0.mlp_block_channel_mixing_DynaMixerOperation.LN.bias f4 [22]
0	0xbd825c2f	-0.06365239
1	0xbccc5917	-0.024944825
2	0x3a009141	0.0004904457
3	0x3d52db11	0.05147845
4	0x3dae306a	0.08505328
5	0x3d88fe3c	0.06689116
6	0xbda9da24	-0.0829356
7	0xbdacd7b8	-0.084395826
8	0x3dddc6ce	0.108289346
9	0xbd716606	-0.058935188
10	0x3d95ac99	0.07308311
11	0x3dca2ddf	0.098720305
12	0x3c8d2044	0.0172273
13	0x3dad771e	0.084699854
14	0xbdfbcd43	-0.1229501
15	0xbd472d7f	-0.048627373
16	0x3d61ddfc	0.05514334
17	0x3d653873	0.055962037
18	0xbd2eb998	-0.042657465
19	0xbcafee4b	-0.021475932
20	0xbd838688	-0.06422144
21	0xbd993775	-0.07481281
