M_2_AST/M_2_AST/h36m/run_for_longging/exp178/model.pt (torch, 955837 bytes, 212 tensors)

Mixer_Block.0.mlp_block_token_mixing.fc1.weight f4 [20, 10]
0	0x3da74df5	0.08169166
1	0xbe745975	-0.2386225
2	0xbd02b834	-0.03191395
3	0xbe2f7a7d	-0.1713657
4	0x3f1a0dfc	0.6017759
5	0xbdac9729	-0.08427269
6	0x3e2432ec	0.1603505
7	0x3d1dc419	0.03851709
8	0x3ed0adec	0.40757692
9	0xbec0ddf0	-0.37669325
10	0x3ed2602c	0.41088998
11	0x3f07f7a9	0.53112274
12	0xbe624488	-0.22096455
13	0x3f2bab60	0.6705837
14	0xbeed1033	-0.46301422
15	0x3bbb106e	0.0057087457
16	0x3de73165	0.11288718
17	0x3cec953a	0.02887975
18	0x3e17cb25	0.14823587
19	0x3e3ff995	0.18747552
20	0x3ec05a41	0.37568858
21	0xbef46024	-0.477296
22	0x3e3aeb7b	0.18253891
23	0xbf09ea60	-0.5387325
24	0x3ea11d44	0.3146764
25	0xbdfdfa9c	-0.124013156
26	0x3e350b1f	0.17680024
27	0xbe9bd490	-0.3043561
28	0xbd62c8fd	-0.05536746
29	0x3cab3681	0.020900013
30	0x3eaa6d7d	0.33286658
31	0x3ed487be	0.41509813
32	0xbe998d54	-0.29990637
33	0x3cb28d7e	0.021795984
34	0xbecc14be	-0.39859575
35	0x3ea9cb07	0.3316271
36	0xbe88b9fa	-0.2670439
37	0xbdc71435	-0.09720651
38	0xbea62e0e	-0.32457012
39	0x3e8fc9f6	0.2808377
40	0x3e7baa8c	0.24576777
41	0xbef9ea9a	-0.488118
42	0xbf23bffe	-0.6396483
43	0xbdede4a0	-0.116158724
44	0x3f1fdf1d	0.6244982
45	0xbbce0662	-0.006287382
46	0xbeb2d0b7	-0.34924862
47	0xbe71fdb8	-0.23631942
48	0xbe2d7859	-0.1694044
49	0x3df1dc74	0.11809626
50	0xbeef3506	-0.4672014
51	0x3f005e9d	0.5014437
52	0x3e30df62	0.17272714
53	0xbe850cac	-0.2598623
54	0xbdc1fe56	-0.09472339
55	0xbe913b1c	-0.2836541
56	0xbe88f0d8	-0.2674625
57	0x3d33ece1	0.043927077
58	0xbdeb92fd	-0.11502645
59	0x3e1dc685	0.1540776
60	0x3e4eff9e	0.20214698
61	0x3e734350	0.23756146
62	0x3e001f8a	0.12512031
63	0xbcf5d71a	-0.030009795
64	0xbf037d71	-0.51363283
65	0xbeb3643a	-0.35037404
66	0xbdc4a26f	-0.09601294
67	0x3f182db9	0.5944477
68	0xbea22201	-0.31666568
69	0x3e8ffb69	0.28121498
70	0xbdd35e1b	-0.103206836
71	0xbef2908a	-0.473759
72	0x3b8e2f12	0.0043391073
73	0xbf21aea5	-0.6315711
74	0x3efde34c	0.49587476
75	0x3d6377f6	0.055534326
76	0xbed0d47a	-0.40787107
77	0xbe8724af	-0.26395175
78	0xbe336a1e	-0.17520949
79	0xbea4a937	-0.3216035
80	0x3ec68932	0.38776547
81	0x3e60fa73	0.21970539
82	0x3e8d5457	0.2760341
83	0xbeeb428d	-0.45949212
84	0xbe9322fc	-0.28737628
85	0x3e43e4d4	0.1913026
86	0x3ecf4bc2	0.40487486
87	0x3d84aff9	0.064788766
88	0x3ef38455	0.475619
89	0xbe7c2eae	-0.24627182
90	0x3bd394db	0.006456954
91	0xbe9ee3fb	-0.3103331
92	0x3e8e507c	0.2779578
93	0xbebaecf5	-0.3650891
94	0x3cc11b2b	0.023572525
95	0x3de6bcc4	0.11266473
96	0xbc17fbba	-0.009276325
97	0xbd2ffc98	-0.0429655
98	0x3f3071ee	0.6892384
99	0xbe47d291	-0.19513918
100	0xbea1a21b	-0.3156899
101	0x3e7d59b2	0.24741247
102	0x3d03f4ef	0.03221601
103	0x3e9a53b4	0.30141985
104	0x3d2b5c70	0.041836202
105	0x3dda8668	0.10670167
106	0xbe6378af	-0.22214006
107	0x3ec19128	0.37806058
108	0xbf012f90	-0.504632
109	0x3db40680	0.08790302
110	0xbdea0fd8	-0.11428803
111	0x3ec65501	0.38736728
112	0xbda4b768	-0.080427945
113	0xbe8dd426	-0.2770092
114	0xbed23b0b	-0.4106067
115	0x3ea2dfa3	0.31811246
116	0xbea72d95	-0.32651964
117	0xbe464d60	-0.19365454
118	0xbed4e127	-0.41578028
119	0xbccb012b	-0.02478083
120	0xbd6abb3d	-0.05730747
121	0x3e60a350	0.21937299
122	0x3ee52834	0.44757235
123	0x3eda5ad6	0.42647427
124	0xbda317af	-0.07963502
125	0xbd5129bb	-0.051065188
126	0x3df91fa7	0.1216424
127	0xbf507c25	-0.8143943
128	0xbd244272	-0.04010243
129	0xbeb6c698	-0.3569839
130	0xbdf98068	-0.12182695
131	0x3e8d8dc6	0.27647227
132	0xbe85d79e	-0.26141065
133	0x3ecbc9ce	0.39802402
134	0xbedb77b2	-0.42864758
135	0xbe4b5978	-0.19858348
136	0xbec37bd9	-0.38180426
137	0x3d8df4d5	0.06931464
138	0xbeb379d4	-0.35053885
139	0x3e3003ee	0.17188999
140	0xbd23ecee	-0.040020876
141	0x3f0cfe0f	0.5507516
142	0xbee94a9f	-0.45564744
143	0x3ef0696c	0.4695543
144	0x3e97be18	0.29637218
145	0x3f2b2bbb	0.668636
146	0xbdbfb0a3	-0.09359863
147	0xbf0344bd	-0.5127676
148	0x3da97e5c	0.08276054
149	0xbe625dd2	-0.22106102
150	0x3e480156	0.1953176
151	0xbeec8e9f	-0.4620256
152	0x3d43b08c	0.04777579
153	0x3dc2de9f	0.09515118
154	0x3ed5b86f	0.41742274
155	0xbed534ab	-0.41641745
156	0x3ed58092	0.41699654
157	0xbebc65f8	-0.36796546
158	0x3e98d652	0.29851013
159	0xbd2fb0bb	-0.042893153
160	0xbd433348	-0.047656327
161	0x3da532c0	0.080663204
162	0xbe807288	-0.2508738
163	0x3e8b1b01	0.2716904
164	0xbe517ad6	-0.20457014
165	0x3c273a91	0.010206834
166	0xbec8b2c5	-0.3919889
167	0x3dca9125	0.09890965
168	0xbef2d6c7	-0.47429487
169	0x3e23f173	0.16010074
170	0x3f2df38a	0.67949736
171	0x3e16114a	0.14655033
172	0x3e1387ed	0.1440732
173	0x3e1042e2	0.14088014
174	0x3c50055b	0.012696589
175	0xbead3024	-0.3382579
176	0x3f0a016d	0.53908426
177	0xbe0d017c	-0.13770097
178	0x3d0ed8da	0.034874775
179	0xbe853f18	-0.260247
180	0xbeda873b	-0.42681298
181	0x3e06de25	0.13170679
182	0xbc3c35df	-0.011487453
183	0x3e65db91	0.22447039
184	0xbea8584c	-0.32879865
185	0x3e8c324b	0.2738212
186	0xbed96a87	-0.42464086
187	0x3e50ca60	0.203897
188	0xbe1a727e	-0.15082738
189	0x3f078c01	0.52948004
190	0xbe04ec71	-0.1298082
191	0xbd968694	-0.073498875
192	0xbda7a13b	-0.08185049
193	0x3e2afe5d	0.16698594
194	0xbee96826	-0.4558727
195	0x3e9218e4	0.28534615
196	0xbe6699a3	-0.22519545
197	0x3eacf910	0.3378377
198	0xbd4f0b12	-0.050547667
199	0xbde6ce9b	-0.112698756

Mixer_Block.0.mlp_block_token_mixing.fc1.bias f4 [20]
0	0x3f07d72f	0.5306272
1	0x3e75feb1	0.24022938
2	0x3e3b9b84	0.18321043
3	0x3ed5102f	0.4161391
4	0x3ed03e1c	0.40672386
5	0x3f003d53	0.50093573
6	0x3ef3d92a	0.4762662
7	0x3ef119b1	0.47089913
8	0x3eab5586	0.33463687
9	0x3e253242	0.16132453
10	0x3edfcc7f	0.43710706
11	0x3e5f09a2	0.21781018
12	0x3eeac1ab	0.45850882
13	0x3ddb23d5	0.10700194
14	0x3f20388b	0.6258628
15	0x3f14e3ca	0.5816008
16	0x3ec2c6f3	0.3804241
17	0x3f0f289d	0.55921346
18	0x3ed58224	0.41700852
19	0xbcb147df	-0.021640716

Mixer_Block.0.mlp_block_token_mixing.fc2.weight f4 [10, 20]
0	0x3df75332	0.12076415
1	0xbf27879a	-0.65441287
2	0x3e91f6bb	0.28508553
3	0xbf037f26	-0.5136589
4	0xbe106287	-0.14100085
5	0x3ed6e8ee	0.41974586
6	0xbe3fc803	-0.18728642
7	0x3ead41ac	0.33839166
8	0xbe93648c	-0.2878765
9	0x3deff843	0.11717274
10	0x3e0e0617	0.1386951
11	0x3ca0581c	0.019573264
12	0x3e7cc419	0.2468418
13	0xbcdfa31b	-0.027299454
14	0xbed6f463	-0.41983327
15	0x3e9de7d4	0.30840933
16	0xbe8d39c6	-0.2758314
17	0xbe1df361	-0.15424873
18	0x3d434eef	0.0476827
19	0xbe7dd1da	-0.24787083
20	0xbca157de	-0.019695219
21	0xbde64f81	-0.11245633
22	0xbe219219	-0.15778388
23	0xbdf1c3cb	-0.11804923
24	0x3eb03ee9	0.34422997
25	0xbe41c426	-0.18922481
26	0xbe0def1e	-0.13860747
27	0x3d77e65c	0.060522422
28	0xbe898a82	-0.26863486
29	0xbd119185	-0.03553917
30	0x3ddef8e0	0.10887313
31	0xbe621eb1	-0.2208202
32	0x3d9ffb77	0.07811635
33	0xbd048a42	-0.032358415
34	0xbd457da4	-0.048215523
35	0x3d402141	0.046906713
36	0x3e185d9a	0.14879456
37	0xbe8e8c3d	-0.27841368
38	0x3e8b229b	0.2717484
39	0x3e9a8b64	0.30184472
40	0x3ee2f8e7	0.44330522
41	0xbe00d820	-0.12582445
42	0x3e931f23	0.28734693
43	0xbd22bc61	-0.039730433
44	0x3eca2a8f	0.39485595
45	0xbe846f22	-0.25866038
46	0xbe0636ff	-0.13106917
47	0x3cf1526e	0.02945825
48	0xbda72505	-0.08161358
49	0x3dabd7cd	0.0839077
50	0xbe92cf07	-0.28673574
51	0xbe8bb5f3	-0.27287254
52	0xbefeece6	-0.49790114
53	0xbe994684	-0.29936612
54	0x3e183990	0.14865708
55	0x3dfaebdf	0.1225202
56	0xbe6de00c	-0.23229998
57	0xbd3c82ad	-0.04602306
58	0xbeb995d5	-0.36247125
59	0xbd69dd94	-0.05709608
60	0xbe2c5cbc	-0.1683225
61	0xbe4fbb2f	-0.20286249
62	0xbd9c83db	-0.07642337
63	0xbdaac225	-0.083378114
64	0xbe04c08a	-0.12964073
65	0x3e951f71	0.2912555
66	0x3c8bbd91	0.017058166
67	0x3e8758a0	0.26434803
68	0x3ea92de4	0.33042824
69	0x3e4d9905	0.20077904
70	0x3d96aac7	0.07356792
71	0x3ef829df	0.48469445
72	0xbe50c41e	-0.20387313
73	0x3c883667	0.016627504
74	0x3c76203d	0.015022335
75	0xbf1069dc	-0.5641153
76	0xbe00059f	-0.12502144
77	0xbeadded5	-0.3395907
78	0x3e84f64f	0.2596917
79	0x3e07ecba	0.13273898
80	0xbe627c29	-0.22117676
81	0x3ec16c50	0.37777948
82	0xbec967d8	-0.3933704
83	0x3cfc89db	0.030827453
84	0xbf2d2a5d	-0.67642766
85	0xbdbce121	-0.092226274
86	0x3dc3f34a	0.09567888
87	0xbf0e5b8d	-0.55608445
88	0x3efd2838	0.49444747
89	0x3e4706c3	0.19436173
90	0xbe7ff37f	-0.2499523
91	0xbe5af3af	-0.2138202
92	0x3d3e4e07	0.04646113
93	0xbda46299	-0.080266185
94	0xbe49845d	-0.19679399
95	0xbdc96727	-0.09834128
96	0xbea044c0	-0.31302452
97	0x3de02684	0.10944846
98	0x3e0ad466	0.13557586
99	0x3dc88e34	0.09792748
100	0xbe977a53	-0.29585513
101	0x3ea53433	0.32266387
102	0xbf088f75	-0.533439
103	0x3e75fdd6	0.24022612
104	0xbe4782ad	-0.19483443
105	0x3ede1c6c	0.4338106
106	0x3f1a9f19	0.60399014
107	0xbed758e3	-0.42060003
108	0xbe1352b5	-0.14387019
109	0xbea74aa7	-0.32674143
110	0x3e975f5f	0.2956495
111	0xbdf48034	-0.11938515
112	0xbe5f714b	-0.21820562
113	0x3ec985d1	0.39359906
114	0xbe8ada6c	-0.27119768
115	0xbe8eb5e0	-0.27873135
116	0x3e46afb4	0.19402963
117	0x3dd6c821	0.1048739
118	0x3e31d873	0.17367725
119	0x3da60086	0.081055686
120	0x3eca4180	0.39503098
121	0xbe5fd9e7	-0.21860467
122	0xbee44c14	-0.44589293
123	0xbe9b799e	-0.30366224
124	0x3d070b16	0.032969557
125	0x3e37b9e5	0.17942007
126	0xbeb18286	-0.34669894
127	0x3e62684b	0.22110097
128	0xbed07b51	-0.40719083
129	0x3e97fdfd	0.29685965
130	0x3e91deba	0.2849024
131	0xbdec30a8	-0.11532718
132	0xbe0ee295	-0.13953622
133	0x3d9546b8	0.07288879
134	0x3e5783b2	0.21046332
135	0xbdd12070	-0.10211265
136	0xbd8456d1	-0.064618714
137	0xbf2f2008	-0.6840825
138	0x3ec4381a	0.38324052
139	0xbe104e18	-0.1409229
140	0xbf03f647	-0.51547664
141	0x3e98b6f4	0.29827082
142	0xbec48bef	-0.3838801
143	0x3ed07d31	0.40720513
144	0xbda2b24c	-0.07944164
145	0x3e8cd9e0	0.27509975
146	0xbf28c20b	-0.65921086
147	0xbe656757	-0.22402702
148	0xbe803b61	-0.25045303
149	0xbd6503ec	-0.055911943
150	0x3d1fc085	0.03900196
151	0x3eaf399f	0.3422365
152	0x3ee854ba	0.4537714
153	0x3ee20d69	0.44150856
154	0x3f695466	0.91144407
155	0xbe44e65f	-0.19228505
156	0x3d81519a	0.063143924
157	0xbe2f5d8e	-0.17125532
158	0x3ecadfb1	0.39623788
159	0x3dd401f2	0.103519335
160	0xbeb742d3	-0.3579317
161	0x3e08016f	0.13281797
162	0xbefc2b9e	-0.49252027
163	0x3ebdecc4	0.370947
164	0xbdd398c0	-0.10331869
165	0x3c3e541a	0.011616731
166	0x3e02724f	0.12738918
167	0xbe842bb4	-0.25814593
168	0xbe9da409	-0.3078921
169	0xbf704450	-0.93854237
170	0x3f4a054f	0.7891435
171	0x3ee9be38	0.45652938
172	0x3e486092	0.19568089
173	0x3edd0bd9	0.43173102
174	0x3efeefdf	0.49792382
175	0xbf0cd0e0	-0.5500622
176	0x3f028486	0.50983465
177	0xbd848f68	-0.06472665
178	0x3ebb79fe	0.3661651
179	0x3e1bbdd7	0.15209137
180	0x3ee0706b	0.43835768
181	0xbe30d630	-0.17269206
182	0xbe31923e	-0.17340943
183	0xbecbdc6a	-0.398166
184	0xbe2bf147	-0.16791259
185	0xbdc14f29	-0.09438927
186	0xbeadb2f9	-0.33925608
187	0x3e374ca3	0.17900328
188	0x3c333417	0.010937712
189	0x3d6ac167	0.05731335
190	0x3d4999f5	0.04921909
191	0xbc59c99e	-0.013292698
192	0x3e5690ad	0.20953627
193	0xbe50071c	-0.20315212
194	0x3eb74c2b	0.358003
195	0xbd7322d0	-0.05935937
196	0xbe823000	-0.25427246
197	0x3dfc6fbd	0.12326
198	0xbef5f3e1	-0.48037627
199	0xbbbc843b	-0.005753068

Mixer_Block.0.mlp_block_token_mixing.fc2.bias f4 [10]
0	0x3e62860f	0.22121452
1	0xbd4a9706	-0.049460433
2	0x3e088926	0.13333568
3	0x3e4b3300	0.19843674
4	0x3d99cf7d	0.075102784
5	0x3dae22a9	0.08502705
6	0x3e78135c	0.24226135
7	0xbe2d8ab8	-0.16947448
8	0xbe746224	-0.23865563
9	0x3e1fd466	0.15608367

Mixer_Block.0.mlp_block_token_mixing_DynaMixerOperation.fc_ND.weight f4 [1, 66]
0	0xbbb8cbcd	-0.0056395293
1	0xbd86b436	-0.06577341
2	0xbc9fb533	-0.019495582
3	0x3c91e140	0.017807603
4	0xbd382d56	-0.04496511
5	0xbd4ab987	-0.04949334
6	0xbc8b2dcf	-0.016989617
7	0xbd15de80	-0.036589146
8	0xbbab2207	-0.0052225622
9	0xb9b02d3b	-0.00033603035
10	0xbd084f44	-0.03327872
11	0xbdcf2f9f	-0.10116505
12	0xbbd6a37f	-0.006550252
13	0x3d88130c	0.06644258
14	0xbcc07b0d	-0.023496175
15	0x3c5fd3ae	0.013661308
16	0xbda1072d	-0.07862697
17	0xbd06168b	-0.032736342
18	0xbd9478a3	-0.07249572
19	0x3c0da747	0.008645839
20	0xbc06c702	-0.008226158
21	0xbd60b8be	-0.054863684
22	0x3d7bc9ed	0.06147187
23	0xbc96434f	-0.018342642
24	0xbcc6dc62	-0.024275009
25	0xbd9557fb	-0.072921716
26	0xbd96742e	-0.07346378
27	0x3c267a3a	0.010160977
28	0xbc85ad13	-0.01631788
29	0x3d871eb2	0.065976515
30	0xbd48f971	-0.04906601
31	0xbda51ee4	-0.080625325
32	0xbd2b605d	-0.041839946
33	0xbc885010	-0.01663974
34	0x3ca71311	0.020394834
35	0xbccfa7b7	-0.025348527
36	0xbda123e0	-0.07868171
37	0xbcd00c42	-0.02539647
38	0xbd5917ff	-0.0530014
39	0x3d37e8a5	0.0448996
40	0xbd4d4e23	-0.050123345
41	0xbc760d3b	-0.015017803
42	0xbd217412	-0.039417334
43	0xbd55c797	-0.052192297
44	0xbdb21f5a	-0.08697386
45	0x3b7a30c9	0.003817605
46	0x3d51ad94	0.051190928
47	0xbd84c74c	-0.06483325
48	0xbce6fb87	-0.02819611
49	0x3b874049	0.0041275364
50	0xbd68f871	-0.056877557
51	0xbc869828	-0.016429976
52	0x3d5b642d	0.053562332
53	0x3da36671	0.079785235
54	0xbc2e9aa9	-0.010656991
55	0xbc1aa8a9	-0.009439626
56	0xbd4522bb	-0.048128825
57	0xbd11e310	-0.035616934
58	0x3c5cafed	0.013469678
59	0x3d8d723f	0.06906556
60	0xbd4f8260	-0.050661445
61	0x388342a5	6.25898e-05
62	0xbd5e6538	-0.05429575
63	0x3d01731f	0.03160393
64	0x3c3a14e0	0.011357516
65	0x3ccb4b7c	0.024816267

Mixer_Block.0.mlp_block_token_mixing_DynaMixerOperation.fc_Nd.weight f4 [100, 10]
0	0x3e4a54b8	0.1975888
1	0x3ecaead8	0.39632297
2	0x3edb7bd3	0.42867908
3	0x3e132289	0.14368643
4	0x3e221851	0.15829588
5	0x3f1a247f	0.6021194
6	0x3ed6716f	0.41883418
7	0x3d03b9cb	0.032159608
8	0x3e11479a	0.1418747
9	0x3f2d9088	0.6779866
10	0x3d57bc60	0.052669883
11	0xbdfd68ac	-0.1237348
12	0x3d0c03b5	0.034183223
13	0x3dbe05c6	0.09278445
14	0xbe57c544	-0.21071345
15	0xbd89d5bd	-0.067302205
16	0xbdce3dbc	-0.10070369
17	0xbb39b444	-0.0028336206
18	0xbd6de2e7	-0.05807772
19	0x3d1bc908	0.038033515
20	0xbe5a5bf5	-0.21324141
21	0x3d0c9fe9	0.03433219
22	0xbeaf81c2	-0.34278685
23	0xbeaafcd4	-0.33396018
24	0xbeb02d79	-0.34409693
25	0xbeb42ad0	-0.35188913
26	0xbd99e6ad	-0.07514701
27	0x3d842279	0.06451888
28	0xbddd2f15	-0.10799996
29	0x3ddb09f1	0.106952555
30	0xb9b7f72b	-0.00035088634
31	0xbe505649	-0.20345415
32	0xbd32cd26	-0.043652676
33	0xbe34728a	-0.17621818
34	0x3e7e1cfc	0.24815744
35	0xbbde6dd3	-0.0067879944
36	0x3ddfa3cb	0.10919913
37	0xbd79d6ed	-0.060995985
38	0x3dfc27ee	0.123123035
39	0x3d331d45	0.043729085
40	0x3d796a3f	0.06089234
41	0xbdd838f0	-0.10557735
42	0xbd920f91	-0.07131875
43	0xbe5ecd7e	-0.21758077
44	0xbe8e54d4	-0.27799094
45	0xbeb10a8d	-0.34578362
46	0xbc5e98d9	-0.013586246
47	0xbd9911a9	-0.074740715
48	0x3de9b3a0	0.11411214
49	0xbe77e3c2	-0.24207976
50	0x3e4493bd	0.19196983
51	0xbcf5ee91	-0.030020984
52	0x3c01791d	0.007902411
53	0x3d940727	0.07227927
54	0xbeac52a8	-0.33656812
55	0x3ca4fed9	0.020141052
56	0x3e265fd6	0.16247496
57	0x3d3f6dcf	0.04673558
58	0x3d8c933d	0.06864021
59	0x3c0f6ab2	0.0087534655
60	0x3da43e6d	0.08019719
61	0x3e2a9074	0.16656667
62	0x3b31b24f	0.0027114337
63	0xbd40e4a0	-0.047093034
64	0xbe96c5f1	-0.29447892
65	0xbe8be5c8	-0.27323747
66	0xbe66162d	-0.22469397
67	0xbe718b8b	-0.23588388
68	0xbda9399b	-0.082629405
69	0x3dcacdd0	0.09902537
70	0x3dc785b9	0.097423024
71	0x3e43a857	0.19107185
72	0xbe945934	-0.28974307
73	0xbc2c924d	-0.010532928
74	0xbdff3c20	-0.1246264
75	0xbe5a8d6c	-0.2134301
76	0x3e28746d	0.16450663
77	0xbdcb373a	-0.09922643
78	0x3e8d770b	0.27629885
79	0xbbea6ad2	-0.0071538473
80	0xbcb9c7ba	-0.022678245
81	0x3e834773	0.2564045
82	0x3e069e45	0.13146313
83	0xbda05655	-0.078289665
84	0xbe831da3	-0.2560855
85	0xbe492fee	-0.1964719
86	0x3be680ff	0.0070344205
87	0xbdcbc028	-0.0994876
88	0xbeb63ba6	-0.35592383
89	0x3dbece00	0.09316635
90	0xbd0e51ba	-0.03474591
91	0x3d8982fa	0.06714435
92	0xbe6e664b	-0.23281209
93	0x3d170b2b	0.036875885
94	0xbe2645d8	-0.16237581
95	0xbe35feed	-0.17773028
96	0x3e1f569d	0.15560384
97	0xbe034c92	-0.12822178
98	0x3c840954	0.01611773
99	0xbe5ba6b6	-0.21450314
100	0xbd8fdfe5	-0.07025126
101	0x3e52e74f	0.2059605
102	0xbd9517fd	-0.07279966
103	0x3e01761e	0.12642714
104	0x3da1cb3c	0.07900092
105	0xbd156bcb	-0.036479753
106	0x3ea8d893	0.32977733
107	0x3de51b42	0.1118684
108	0x3cc51629	0.024058418
109	0x3ea8d81d	0.3297738
110	0x3edcd39b	0.43130192
111	0xbba8b827	-0.005148906
112	0x3efcfee4	0.49413216
113	0x3e94fd1f	0.29099366
114	0x3edcff93	0.43163738
115	0x3eb85a15	0.36006227
116	0x3d227331	0.039660636
117	0x3e93d8ea	0.2887643
118	0x3e32a428	0.17445433
119	0x3e09cedb	0.13457815
120	0xbe7a5142	-0.2444506
121	0x3deacabe	0.11464451
122	0xbe9d119b	-0.30677494
123	0x3e7ec8ae	0.2488124
124	0xbe184608	-0.14870465
125	0x3e227023	0.1586309
126	0xbde046c1	-0.10950995
127	0x3d42b481	0.047535423
128	0xbe004adc	-0.12528557
129	0x3e80a87a	0.25128537
130	0x3e21fbbd	0.15818687
131	0xbdbdf970	-0.09276092
132	0x3eca8163	0.3955184
133	0x3d28a49c	0.04117261
134	0x3e128bef	0.14311193
135	0xbe43d20d	-0.19123097
136	0xbe0b89ea	-0.13626829
137	0xbda629d1	-0.081134446
138	0x3c419aed	0.011816722
139	0x3e3a9906	0.18222436
140	0xbde5a97d	-0.11213968
141	0xbeabdcf5	-0.33567014
142	0x3df0e285	0.11761955
143	0x3d073419	0.03300867
144	0xbe9b9b9d	-0.3039216
145	0xbdd21923	-0.10258701
146	0xbe48cb3c	-0.19608778
147	0x3d21a8ba	0.03946755
148	0x3e222c2e	0.15837166
149	0x3e07b421	0.13252307
150	0x3d096e9b	0.033552747
151	0xbb17ba2b	-0.0023151736
152	0x3e8f7c72	0.28024632
153	0x3e5a9cfe	0.2134895
154	0xbe10c878	-0.14138973
155	0x3e9f78bf	0.3114681
156	0xbe94a7e6	-0.29034346
157	0x3e1b235c	0.15150207
158	0xbc5ee7f6	-0.0136051085
159	0xbe527848	-0.20553696
160	0xbd5a6565	-0.053319354
161	0xbe78d8c3	-0.24301438
162	0x3d7448f9	0.059639905
163	0xbde3743e	-0.11106156
164	0xbe6fc07f	-0.23413275
165	0xbce9f9a7	-0.028561426
166	0xbc81f9ce	-0.015866186
167	0x3e8529ff	0.26008603
168	0xbe260b80	-0.16215324
169	0xbbea2af0	-0.007146232
170	0x3e920b20	0.28524113
171	0xbe3dc205	-0.18531044
172	0x3c55312f	0.013012215
173	0x3e8e2cc3	0.27768525
174	0xbe2d3f2f	-0.16918634
175	0xbe3aeaa4	-0.18253571
176	0x3ccb7d9f	0.024840174
177	0x3db1818e	0.08667289
178	0x3e445678	0.1917361
179	0xbd84011a	-0.064455226
180	0xbc7b4545	-0.015336339
181	0xbe50ef15	-0.20403703
182	0x3e228462	0.15870813
183	0xbe122a1e	-0.14273879
184	0xbe67bcfd	-0.22630687
185	0xbd172c81	-0.036907677
186	0xbd20a89c	-0.0392233
187	0x3d26e6f0	0.040747583
188	0xbe682940	-0.22671986
189	0xbdd88cf5	-0.105737604
190	0x3e7e5b01	0.24839403
191	0xbd8d40b1	-0.068971045
192	0x3d0eba24	0.034845486
193	0x3daa2d32	0.083094016
194	0xbd94a382	-0.07257749
195	0x3e586c41	0.21135046
196	0xbc2ce8e4	-0.010553572
197	0xbc99e6f3	-0.018786883
198	0x3e2826e0	0.1642108
199	0x3d8ad0b9	0.06778092
200	0xbd68b29f	-0.05681097
201	0xbe2bb483	-0.16768079
202	0x3c66c1a5	0.014084254
203	0xbe0e64cd	-0.1390564
204	0xbec16bf1	-0.37777665
205	0xbdc6d57c	-0.09708688
206	0xbe8b4cf6	-0.27207154
207	0xbe0c4e78	-0.13701808
208	0xbe796618	-0.24355352
209	0x3e44cfc3	0.1921988
210	0xbe62cb67	-0.22147904
211	0x3e9347b1	0.28765634
212	0xbe1b3f11	-0.15160777
213	0xbe3ff304	-0.18745047
214	0x3d97efda	0.07418795
215	0x3cbdfd41	0.02319205
216	0x3e1297a2	0.14315656
217	0x3de44fa3	0.11148002
218	0xbe68a90a	-0.22720733
219	0xbe256e9a	-0.16155472
220	0x3c223382	0.009899976
221	0xbdcf6700	-0.101270676
222	0x3efd73d5	0.49502435
223	0xbd8a4e10	-0.067531705
224	0x3ead0d36	0.33799142
225	0x3e8e0df5	0.27745023
226	0x3eb98883	0.36236963
227	0x3e48c87d	0.1960773
228	0xbe00d0b4	-0.12579614
229	0xbd21de0e	-0.03951841
230	0x3f180b18	0.5939193
231	0x3e1a79c8	0.15085518
232	0x3eafacd9	0.3431156
233	0xbd42390c	-0.047417685
234	0x3da18252	0.07886185
235	0x3e518275	0.20459922
236	0x3def95bc	0.116984814
237	0x3ec93e88	0.3930552
238	0x3eca14f6	0.39469117
239	0x3efa2d6a	0.48862773
240	0xbc64920b	-0.013950835
241	0xbe18b349	-0.14912142
242	0x3d99ce1c	0.07510015
243	0x3db90cf2	0.09035672
244	0x3d9d4831	0.07679785
245	0xbe289ceb	-0.1646611
246	0xbd0ea88f	-0.03482872
247	0xbe94d36c	-0.29067552
248	0x3d6ede17	0.05831727
249	0xbdaafc3e	-0.08348893
250	0xbe9a6fda	-0.3016346
251	0x3e475085	0.1946431
252	0x3dc0479d	0.09388659
253	0x3d99bfd8	0.075072944
254	0xbe000e4e	-0.12505457
255	0x3e1b42e0	0.1516223

Mixer_Block.0.mlp_block_token_mixing_DynaMixerOperation.fc_Nd.bias f4 [100]
0	0xbf0f8d66	-0.5607513
1	0x3e1e6ba8	0.15470755
2	0x3dba0bdb	0.090842925
3	0x3e71f02a	0.23626772
4	0x3d0b5b31	0.034022514
5	0xbd2d24e4	-0.04227151
6	0xbdb64b7b	-0.089011155
7	0x3d5e92b3	0.054339122
8	0x3bc9ebf2	0.00616216
9	0xbe68ada6	-0.22722492
10	0xbe486670	-0.19570327
11	0xbed4330d	-0.414452
12	0xbea7044a	-0.3262046
13	0x3ea5e86d	0.3240389
14	0x3c79478e	0.015214814
15	0x3e6f0a9a	0.23343888
16	0x3ddf0885	0.10890297
17	0xbd850824	-0.06495693
18	0xbe267d16	-0.16258654
19	0x3e89b102	0.2689286
20	0x3e443f37	0.1916474
21	0xbe55109c	-0.20807117
22	0xbea49212	-0.32142693
23	0xbf0e93ac	-0.5569408
24	0x3be00256	0.006836216
25	0x3cb39662	0.021922294
26	0x3df743c1	0.1207347
27	0xbe0388e6	-0.12845191
28	0xbd7d7d76	-0.061887227
29	0x3db6eff6	0.08932488
30	0x3e5c5ee6	0.21520576
31	0xbcdf32cd	-0.027245903
32	0xbe0f0992	-0.13968495
33	0xbdf1fff6	-0.11816399
34	0xbe09d0a4	-0.13458496
35	0xbda162df	-0.07880186
36	0xbe2518b8	-0.1612271
37	0x3e8e2a78	0.27766776
38	0xbdbfbd56	-0.09362285
39	0x3e3ed33f	0.18635271
40	0xbdf2217a	-0.118227914
41	0x3ea4ee68	0.3221314
42	0xbd1149df	-0.03547084
43	0x3e1c8330	0.15284419
44	0xbd8eeb18	-0.06978434
45	0x3dd79cfb	0.105279885
46	0xbd4147df	-0.047187682
47	0xbc866dfd	-0.016409868
48	0xbae89d43	-0.0017747063
49	0x3e734cdf	0.23759793
50	0x3ea94804	0.33062756
51	0xbd65e54c	-0.056126878
52	0xbd812361	-0.06305576
53	0xbd866b20	-0.06563401
54	0xbea022ea	-0.31276637
55	0x3e2479b9	0.16062059
56	0x3d436abc	0.04770921
57	0x3ddf039f	0.108893625
58	0x3d6817be	0.056663267
59	0x3e060af6	0.13090119
60	0xbe505594	-0.20345145
61	0x3d888558	0.06666058
62	0xbe551742	-0.20809653
63	0xbe76da2f	-0.24106668
64	0xbc7fa72c	-0.015603822
65	0xbe2822a6	-0.16419467
66	0xbe336b23	-0.17521338
67	0x3e67f4be	0.22651955
68	0x3ea34fb8	0.31896758
69	0xbe2a183f	-0.16610812
70	0xbe2cc3ff	-0.16871642
71	0x3e2c7320	0.16840792
72	0xbea01ab9	-0.31270388
73	0xbd5001f0	-0.050783098
74	0x3b297c4e	0.0025861445
75	0x3e42ef74	0.19036657
76	0x3e886035	0.266359
77	0xbe9b1ec3	-0.30296907
78	0xbe520aee	-0.20511982
79	0xbda9b7b9	-0.082869954
80	0x3e2e7e50	0.17040372
81	0xbe4e8497	-0.20167767
82	0xbebf0fc5	-0.3731672
83	0x3e08712e	0.13324425
84	0xbe2717dd	-0.16317697
85	0xbdf0b127	-0.11752539
86	0x3e452d43	0.19255547
87	0x3e186aba	0.14884463
88	0xbec1e989	-0.37873486
89	0x3e106d9f	0.14104317
90	0xbec4616b	-0.38355574
91	0xbdbf7506	-0.09348492
92	0xbd6b776e	-0.057486944
93	0xbe951356	-0.29116315
94	0x3e68aa5f	0.22721241
95	0xbd891f07	-0.06695371
96	0xbdc27b3f	-0.094961636
97	0x3eb3a811	0.35089162
98	0x3e21e8ee	0.15811512
99	0xbf035da1	-0.5131474

Mixer_Block.0.mlp_block_token_mixing_DynaMixerOperation.fc_out.weight f4 [66, 66]
0	0x3eee460c	0.46537817
1	0xbe3046e1	-0.17214538
2	0xbdb81837	-0.089889936
3	0x3ddec9bf	0.10878324
4	0xbe1200b6	-0.14258084
5	0xbdf95368	-0.121741116
6	0x3e30308b	0.17206018
7	0x3d00e76d	0.031470705
8	0x3d5d1302	0.053973205
9	0xbda7f3dd	-0.0820081
10	0xbd714e5f	-0.05891263
11	0x3d61f120	0.055161595
12	0x3db34309	0.0875302
13	0x3e979f70	0.2961383
14	0x3de5099b	0.11183473
15	0xbdbd159a	-0.09232636
16	0xbdd5fa30	-0.1044811
17	0x3e72812e	0.2368209
18	0xbe0cfb75	-0.13767798
19	0x3d9b2031	0.075744994
20	0xbc05c93a	-0.008165652
21	0x3da0d534	0.07853165
22	0x3d0ab0cf	0.033860024
23	0x3e04f520	0.12984133
24	0xbe010c53	-0.12602358
25	0xbe48501e	-0.19561812
26	0xbe19b685	-0.15011032
27	0x3dec2171	0.11529816
28	0x3d38ce86	0.04511883
29	0xbcdf5bf1	-0.02726552
30	0xbe495ddb	-0.1966471
31	0x3d638826	0.055549763
32	0xbdbd352e	-0.09238659
33	0xbc503947	-0.0127089685
34	0x3daca1bc	0.08429286
35	0xbe1a6660	-0.15078115
36	0xbde551ec	-0.11197266
37	0xbb54068f	-0.0032352542
38	0xbcca8cd0	-0.024725348
39	0xbe05ed8f	-0.13078903
40	0xbd5cc115	-0.053895075
41	0xbaae0270	-0.0013275873
42	0x3e69963a	0.22811213
43	0xbe462a91	-0.19352175
44	0xbe47ea0d	-0.19522877
45	0xbe411172	-0.18854311
46	0x3d9638d2	0.07335056
47	0x3dfc1ff8	0.12310785
48	0x3da9f58b	0.08298787
49	0xbd61a433	-0.055088233
50	0x3d2cd51a	0.042195417
51	0x3ccc3270	0.024926394
52	0xbe265504	-0.16243368
53	0x3de4b3d2	0.111671105
54	0x3d8fbaed	0.07018075
55	0x3d8dede1	0.069301374
56	0x3bce7891	0.0063009937
57	0xbd634363	-0.055484187
58	0x3c882958	0.016621277
59	0xbc88bdda	-0.01669209
60	0xbd84f412	-0.06491865
61	0xbb2f64bb	-0.002676292
62	0xbe1b0ccd	-0.15141602
63	0x3eaa56d1	0.3326936
64	0xbbd4ab90	-0.0064901784
65	0x3dcfa7ed	0.10139451
66	0xbe286df1	-0.1644819
67	0x3e7a3457	0.24434029
68	0x3dc1b33d	0.09458015
69	0xbd16b7cc	-0.036796376
70	0xbdada45b	-0.08478614
71	0x3d0c714c	0.034287736
72	0x3d2ef885	0.042717475
73	0xbd906a78	-0.07051557
74	0xbcf660f8	-0.030075535
75	0xbd163ee1	-0.03668106
76	0x3e068e27	0.13140164
77	0xbc1e0713	-0.009645241
78	0xbdf7d3cf	-0.12100946
79	0x3db7750b	0.08957871
80	0x3d4ea014	0.05044563
81	0x3e53ede5	0.20696218
82	0xbd8974e3	-0.067117475
83	0xbe0093bd	-0.12556358
84	0xbd0c8256	-0.034303986
85	0xbe3f5bf6	-0.18687424
86	0xbdf4869c	-0.11939737
87	0x3d2dc00b	0.042419475
88	0x3dcae35d	0.09906647
89	0x3ea34710	0.31890154
90	0x3dbb418a	0.0914336
91	0xbda3f997	-0.0800659
92	0xbc14e017	-0.00908663
93	0x3d08388e	0.03325706
94	0x3d8b3a41	0.067982204
95	0xbe3dafc9	-0.18524088
96	0x3c58abe1	0.013224573
97	0xbd128e78	-0.0357804
98	0xbe0ee077	-0.13952814
99	0x3d636cfe	0.055523865
100	0xbd78afba	-0.06071446
101	0xbe61bb21	-0.2204404
102	0xbe272778	-0.1632365
103	0x3de2f3de	0.1108167
104	0xbe77f671	-0.24215104
105	0xbceac88f	-0.028660087
106	0x3e75fb40	0.24021626
107	0x3d460a2b	0.04834954
108	0xbdc961ac	-0.098330826
109	0x3d8d9fe1	0.0691526
110	0xbda741ba	-0.08166833
111	0x3e525c37	0.2054299
112	0xbc5e817e	-0.013580678
113	0x3d802e4d	0.06258831
114	0x3db32f37	0.0874924
115	0x3d0e031f	0.034670945
116	0xbe494611	-0.19655634
117	0x3d500313	0.05078418
118	0x3e4d71ae	0.20062897
119	0x3d82f47f	0.0639429
120	0x3d082c0e	0.03324514
121	0x3d491ae7	0.04909792
122	0xbc4b0967	-0.012392378
123	0xbc248e87	-0.010043747
124	0xbd30078d	-0.04297595
125	0x3cda2396	0.026628297
126	0x3db53b5f	0.08849215
127	0x3de071e6	0.109592244
128	0xbcef1f1f	-0.029189644
129	0x3c6e65d8	0.014550649
130	0x3d641cdb	0.05569158
131	0x3b84a366	0.004047799
132	0xbe8f2946	-0.27961177
133	0x3cc0341d	0.02346235
134	0x3e901dea	0.28147823
135	0x3d98d95d	0.07463334
136	0xbd7bf47d	-0.06151246
137	0xbc9da7ad	-0.019244993
138	0xbe1327ca	-0.14370647
139	0xbdc5d047	-0.096588664
140	0x3c8312bf	0.01600015
141	0x3e18230f	0.14857124
142	0xbde79e33	-0.11309471
143	0xbdbcb3b2	-0.09213962
144	0xbce051aa	-0.02738269
145	0xbd471b82	-0.048610218
146	0xbd1d53e3	-0.03841008
147	0x3db9c31b	0.090704165
148	0xbc99fab0	-0.018796295
149	0xbcfbe695	-0.030749599
150	0xbd94f161	-0.07272602
151	0xbc9f9e05	-0.01948453
152	0xbdf18c6a	-0.1179436
153	0xbe39adb8	-0.18132675
154	0xbcdb0de4	-0.026740022
155	0x3deaaad2	0.11458363
156	0x3d303efa	0.04302881
157	0x3e5ee555	0.2176717
158	0x3db4976d	0.08817945
159	0x3de8ec3a	0.11373182
160	0x3df2359e	0.11826633
161	0xbe146577	-0.14491831
162	0x3daeeae6	0.08540897
163	0x3cb603c1	0.022218587
164	0xbd560c1d	-0.052257646
165	0x3d040a26	0.03223624
166	0xbe38cb0c	-0.18046206
167	0x3dc5b329	0.09653313
168	0xbdde287e	-0.10847567
169	0x3dfef976	0.12449925
170	0xbca1514e	-0.01969209
171	0x3ea15857	0.3151271
172	0xbda99bab	-0.082816444
173	0xbe03b8eb	-0.1286351
174	0x3e3304f1	0.17482354
175	0x3d162342	0.03665472
176	0x3e5877d5	0.21139462
177	0x3d2d8e52	0.042372055
178	0x3c2436fb	0.010022874
179	0x3d34dc74	0.044155553
180	0xbe0e39a5	-0.13889177
181	0x3d0c9e61	0.03433073
182	0xbd3e610b	-0.046479266
183	0xbe7c7b5d	-0.24656434
184	0xbd0fd55a	-0.035115577
185	0xba1557c6	-0.0005696978
186	0xbdce8fec	-0.10086045
187	0xbd4ecd2e	-0.050488643
188	0xbe22c7ba	-0.15896502
189	0xbdec1709	-0.11527831
190	0xbd35f4c6	-0.044422887
191	0xbe026600	-0.12734222
192	0x3dbfb824	0.09361294
193	0x3db71ee5	0.089414395
194	0x3dd52734	0.10407868
195	0x3dd4ff35	0.104002394
196	0xbd896e63	-0.06710508
197	0x3da039b7	0.07823508
198	0x3e308a02	0.17240146
199	0xbd3c0410	-0.04590231
200	0xbd6bdaf5	-0.05758186
201	0x3ea8bb6b	0.3295549
202	0xbdb25d27	-0.08709174
203	0x3e80af5d	0.25133792
204	0x3dde1ece	0.10845719
205	0x3dc1ae6b	0.09457096
206	0xbdca3aa3	-0.09874465
207	0x3d6d8dfc	0.057996735
208	0x3e1fd291	0.15607668
209	0xbca95a2e	-0.020672884
210	0xbd9abcd1	-0.07555545
211	0xbdd7c232	-0.10535087
212	0x3e4d66dc	0.20058769
213	0xbdbb6293	-0.09149661
214	0x3e3b798b	0.18308084
215	0x3e72a709	0.23696531
216	0xbd6f67e4	-0.058448687
217	0x3c67dcf8	0.014151804
218	0x3d884263	0.06653287
219	0xbd464c87	-0.048412826
220	0x3dd13f27	0.102171235
221	0xbe2f0ada	-0.17093983
222	0x3dd80464	0.105477124
223	0x3c63cc10	0.013903633
224	0x3c238f45	0.009982889
225	0xbe12f881	-0.14352609
226	0xbe7533da	-0.23945561
227	0x3b536a64	0.0032259459
228	0xbd1a6cc0	-0.03770137
229	0x3e1e38d2	0.15451363
230	0xbb8f36de	-0.0043705544
231	0xbe64febf	-0.22362803
232	0x3dac89d6	0.084247276
233	0x3e1aaf9f	0.15106057
234	0xbb94550c	-0.00452674
235	0xbe356472	-0.17714098
236	0xbcba7440	-0.02276051
237	0xbd954b09	-0.072897024
238	0xbe2114e5	-0.15730627
239	0x3d7f2851	0.062294308
240	0xbd9219da	-0.07133837
241	0x3e2a9bdf	0.16661023
242	0x3e65bd11	0.22435404
243	0xbdc86e2b	-0.09786638
244	0xbe2bd4fb	-0.16780464
245	0x3d9fdc41	0.07805682
246	0xbc234d01	-0.00996709
247	0xbd528965	-0.05140056
248	0xbb549b4c	-0.0032441197
249	0xbe1e834e	-0.15479776
250	0xbe419b54	-0.18906909
251	0xbd3cde61	-0.046110515
252	0xbdf41837	-0.11918681
253	0xbd8809bf	-0.06642484
254	0xbd8838c7	-0.066514544
255	0x3d037c90	0.032101214

Mixer_Block.0.mlp_block_token_mixing_DynaMixerOperation.fc_out.bias f4 [66]
0	0xbdcf4f27	-0.10122519
1	0x3dbd0400	0.092292786
2	0x3e06d5ce	0.13167498
3	0xbc96db7d	-0.018415207
4	0xbe18e617	-0.14931522
5	0x3db0ea81	0.08638478
6	0xbd14dd03	-0.036343586
7	0x3ce6f844	0.028194554
8	0x3d4f36a8	0.050589234
9	0xbe0eda56	-0.13950476
10	0xbdbd7153	-0.092501305
11	0xbe13fe08	-0.14452374
12	0x3e23f0c0	0.16009808
13	0x3da24a3c	0.07924315
14	0xbdf7ee9e	-0.121060595
15	0x3d26e6c0	0.040747404
16	0x3da71c04	0.081596404
17	0x3d11e92a	0.035622753
18	0x3dfda26c	0.12384495
19	0xbe63ee74	-0.22258931
20	0xbdc8a996	-0.09797971
21	0x3cee1463	0.029062456
22	0xbd8335ba	-0.06406732
23	0xbdb7a499	-0.089669414
24	0xbd796284	-0.060884967
25	0x3e85b15b	0.26111874
26	0x3db58413	0.08863082
27	0xbe37f750	-0.17965436
28	0xbdfea98b	-0.124346815
29	0xbe3939de	-0.18088481
30	0x3c48caa6	0.012255346
31	0x3d1bdd2a	0.038052715
32	0xbccc8dd9	-0.024969982
33	0x3de010f9	0.10940737
34	0x3de7872a	0.113050774
35	0x3d2a47ae	0.041572265
36	0x3dc84b7e	0.09780024
37	0xbd5f838c	-0.054568812
38	0xbe21ce5c	-0.15801376
39	0x3a984874	0.0011618272
40	0x3d696669	0.05698243
41	0x3d4b311a	0.049607374
42	0x3ce1dec9	0.027572053
43	0x3dd0dbaf	0.10198151
44	0x3e4e2ef8	0.20135105
45	0xbd09723a	-0.0335562
46	0x3c90c03a	0.017669786
47	0x3dc3a31c	0.09552595
48	0x3e257d52	0.16161087
49	0x3c62ca6d	0.013842207
50	0x3d5fbc75	0.054623086
51	0x3d3de126	0.046357296
52	0xbd8f85dc	-0.070079535
53	0x3dcf0d83	0.10109999
54	0x3c8a0483	0.016847854
55	0x3e59cd3c	0.21269697
56	0xbe3b9a34	-0.18320543
57	0x3e3da1f2	0.18518808
58	0xbd8ad722	-0.067793146
59	0x3d64df39	0.055876944
60	0x3dc8e943	0.09810116
61	0xbc954232	-0.018220041
62	0x3d914515	0.070932545
63	0x3ce20c6b	0.027593812
64	0xbda21f7b	-0.07916161
65	0xbd70e8ab	-0.05881564

Mixer_Block.0.mlp_block_token_mixing_DynaMixerOperation.LN.weight f4 [10]
0	0x3fb32748	1.3996363
1	0x3fa8f737	1.3200444
2	0x3f98d3c5	1.1939627
3	0x3f86429d	1.0489079
4	0x3f8b2443	1.0870441
5	0x3f73326e	0.94998825
6	0x3f896c4a	1.0736172
7	0x3f5fc0e2	0.8740369
8	0x3f6e7dda	0.93160784
9	0x3f2a47b8	0.66515684

Mixer_Block.0.mlp_block_token_mixing_DynaMixerOperation.LN.bias f4 [10]
0	0xbecae749	-0.39629582
1	0x3d3de184	0.046357647
2	0xbe3788e0	-0.17923307
3	0x3c74db0e	0.014944805
4	0xbd2c891d	-0.04212295
5	0xbd3f31ab	-0.046678226
6	0xbdf25283	-0.11832144
7	0x3ba7f6fb	0.005125878
8	0xbe5cadbe	-0.21550652
9	0x3d85681b	0.06513997

Mixer_Block.0.mlp_block_channel_mixing_DynaMixerOperation.fc_ND.weight f4 [1, 10]
0	0xbdcf82af	-0.10132348
1	0xbed32b11	-0.41243795
2	0x3e4467dc	0.19180244
3	0xbe049633	-0.12947921
4	0x3da88694	0.08228794
5	0xbd8dcc36	-0.06923716
6	0x3da8b027	0.082367234
7	0xbde032e9	-0.1094721
8	0xbd87cd1b	-0.06630918
9	0x3c99b47e	0.018762823

Mixer_Block.0.mlp_block_channel_mixing_DynaMixerOperation.fc_Nd.weight f4 [484, 22]
0	0x3d32a8e7	0.04361811
1	0x3d37fa8d	0.04491668
2	0xbe9e359e	-0.30900282
3	0xbca1eeef	-0.019767253
4	0x3e6be6ba	0.23037234
5	0xbca99c98	-0.020704553
6	0xbe9d3e46	-0.30711573
7	0xbdca2046	-0.09869437
8	0xbca751dd	-0.020424778
9	0x3e337992	0.17526844
10	0x3ea55cd8	0.32297397
11	0x3daebd2f	0.08532178
12	0xbe823d57	-0.25437424
13	0xbdca9afb	-0.098928414
14	0xbe185904	-0.14877707
15	0x3d98b8cc	0.07457122
16	0x3cc3d0b3	0.023903226
17	0xbdd53b9a	-0.10411759
18	0x3e8bd554	0.27311194
19	0xbe036e3f	-0.12835024
20	0xbe3d23cf	-0.18470691
21	0xbe9f9069	-0.31164864
22	0x3deb9fc1	0.1150508
23	0x3e5008d1	0.20315863
24	0xbb45c396	-0.0030176393
25	0x3da48a03	0.08034136
26	0x3e7347c9	0.23757853
27	0xbd4e6998	-0.05039367
28	0x3ddeee0f	0.1088525
29	0xbdf80220	-0.1210978
30	0x3e5c7608	0.215294
31	0xbe3b55fa	-0.18294516
32	0xbd879a01	-0.06621171
33	0xbc2bc892	-0.010484831
34	0xbea38711	-0.31938985
35	0xbacbefdd	-0.0015559156
36	0xb98f14b2	-0.00027290505
37	0xbe2d7ec2	-0.16942886
38	0xbd81b565	-0.063334264
39	0xbd91ed2e	-0.071253166
40	0x3e39a655	0.18129857
41	0x3d253894	0.04033716
42	0xbc89377c	-0.01675009
43	0xbe41283b	-0.18863003
44	0xbe08782c	-0.13327092
45	0x3cd4b65a	0.025965858
46	0x3e8d9877	0.27655384
47	0xbc8d3539	-0.017237293
48	0x3e20ebc6	0.1571494
49	0xbd0ab3f0	-0.033863008
50	0xbe40f64d	-0.18843956
51	0xbec00851	-0.37506345
52	0x3df5de2a	0.12005265
53	0xbd407c7b	-0.046993714
54	0x3bc2bae7	0.0059426907
55	0x3e4dc974	0.2009638
56	0xbe06487f	-0.13113593
57	0x3ea8e072	0.32983738
58	0xbe62861c	-0.22121471
59	0x3e6a6116	0.22888598
60	0x3e3991c3	0.1812201
61	0xbe738384	-0.23780638
62	0xbd1f662d	-0.0389158
63	0xbe230816	-0.15921053
64	0xbc95db97	-0.018293185
65	0xbe4c3240	-0.19941044
66	0x3df023df	0.11725592
67	0xbea396e7	-0.31951067
68	0x3df945f9	0.12171549
69	0x3d483bc6	0.04888513
70	0xbe43bd22	-0.19115117
71	0xbda076df	-0.07835173
72	0xbe4e17e3	-0.201263
73	0x3e02ed3f	0.12785815
74	0xbe2367c6	-0.15957555
75	0xbbedca5b	-0.0072567887
76	0xbe064ca5	-0.13115175
77	0xbe16854c	-0.14699286
78	0x3e27ed63	0.1639915
79	0x3ddc8019	0.1076662
80	0xbcac3830	-0.021022886
81	0xbd73d60e	-0.05953031
82	0xbe762057	-0.24035774
83	0x3cd9504f	0.026527552
84	0xbceff987	-0.029293789
85	0x3e980f4b	0.29699168
86	0x3dbd225b	0.092350684
87	0x3d8dc589	0.069224425
88	0x3c261da7	0.010138906
89	0x3dc5b9f9	0.09654612
90	0x3e082996	0.13297114
91	0x3c3d1f5b	0.01154312
92	0xbe47804a	-0.19482532
93	0xbd14745d	-0.036243785
94	0x3e541df6	0.20714554
95	0x3e670c3f	0.22563265
96	0x3dd46683	0.10371115
97	0xbe457330	-0.19282222
98	0x3d6d97b3	0.058006
99	0xbc756849	-0.014978477
100	0xbe183005	-0.14862068
101	0x3d8d6341	0.06903697
102	0xbecb2acf	-0.39681098
103	0xbd984807	-0.07435613
104	0xbda737dd	-0.08164952
105	0xbd4006d0	-0.046881497
106	0x3ead84e7	0.3389046
107	0xbe80a8f8	-0.25128913
108	0xbe418b31	-0.18900754
109	0xbd35d9bb	-0.044397097
110	0xbe0dae8f	-0.1383612
111	0x3dbf9705	0.093549766
112	0xbd47ec64	-0.048809424
113	0x3de08208	0.109623015
114	0xbe62e519	-0.22157706
115	0x3e2471ff	0.16059111
116	0x3dd4a30f	0.103826635
117	0xbd4df61f	-0.050283547
118	0x3d7654a4	0.060139313
119	0x3e0f5854	0.13998538
120	0xbe34cf6c	-0.1765725
121	0xbd8dc883	-0.0692301
122	0x3d9667b0	0.073439956
123	0xbbe1f974	-0.006896192
124	0x391ec002	0.00015139583
125	0xbe11607b	-0.1419696
126	0xbdfd431c	-0.12366316
127	0x3b940216	0.00451685
128	0xbe3309d3	-0.17484216
129	0x3e4ecde2	0.20195726
130	0xbe216a92	-0.1576331
131	0x3e352301	0.17689134
132	0xbdfe6f3e	-0.124235615
133	0x3d8e3d17	0.06945246
134	0x3e2f4446	0.17115888
135	0x3dfe326f	0.12411963
136	0x3d397551	0.045277897
137	0x3e079785	0.13241394
138	0x3df68be7	0.12038403
139	0xbe5f0a7c	-0.21781343
140	0xbe566232	-0.20935896
141	0x3e0eca6c	0.13944405
142	0x3dc53591	0.096293576
143	0x3e3071d2	0.17230919
144	0xbbdf26f6	-0.0068100644
145	0xbe2a66fa	-0.16640845
146	0x3de31e25	0.11089734
147	0xbd4fd613	-0.050741266
148	0xbd7752f6	-0.060381852
149	0x3d826e18	0.06368655
150	0x3e7338b9	0.23752107
151	0x3d00ea64	0.031473532
152	0x3dae6901	0.08516122
153	0x3e87809f	0.26465318
154	0x3e078c64	0.13237149
155	0x3e158fa6	0.14605579
156	0xbe6a6412	-0.22889736
157	0x3e7795e9	0.2417828
158	0x3dc2fb0b	0.09520539
159	0x3e149ea0	0.14513636
160	0x3e24d93c	0.16098493
161	0x3c2c0f47	0.010501689
162	0xbdea05f8	-0.1142692
163	0xbd268de2	-0.040662654
164	0xbd0fa97e	-0.03507375
165	0xbdd3291b	-0.103105746
166	0x3ccab1a7	0.024742914
167	0x3dcf883c	0.101334065
168	0xbd6bdcc0	-0.05758357
169	0xbdf1f2c9	-0.11813886
170	0x3d31451a	0.04327879
171	0x3c533392	0.012890713
172	0x3d6409e3	0.05567349
173	0x3e1d2567	0.15346299
174	0x3dfb0b09	0.12257964
175	0x3e74f3d7	0.23921143
176	0xbe49791b	-0.19675104
177	0xbeb0b314	-0.34511626
178	0x3d9316c7	0.07182079
179	0xbde8fc25	-0.11376218
180	0x3e40f261	0.1884246
181	0x3e267513	0.16255598
182	0xbd6241f8	-0.055238694
183	0x3e9c9851	0.30584958
184	0xbdab7381	-0.0837164
185	0xb90f9f78	-0.0001369695
186	0xbca2ce17	-0.019873662
187	0xbd85a5b3	-0.06525745
188	0xbe0b2bd1	-0.13590933
189	0xbe2b3275	-0.16718467
190	0xbdc1f34c	-0.09470233
191	0x3c325959	0.01088556
192	0xbd0ed1a3	-0.034867894
193	0x3e276365	0.1634651
194	0xbe1a0c27	-0.15043698
195	0xbe3653e1	-0.17805435
196	0x3d59023d	0.05298065
197	0x3de34d0e	0.110986814
198	0x3e768a14	0.2407611
199	0x3e8839f2	0.2660671
200	0x3dfad149	0.12246949
201	0x3d7a08bf	0.061043497
202	0x3cc5ad7b	0.024130573
203	0x3ccb0d9a	0.02478676
204	0xbe53fab8	-0.2070111
205	0xbe2385ec	-0.15969056
206	0x3d8008f0	0.06251705
207	0x3db67951	0.08909858
208	0xbe352fe4	-0.1769405
209	0x3cffe884	0.031238802
210	0x3e99ad7e	0.30015177
211	0xbcc5a71b	-0.024127534
212	0xbdec0a09	-0.115253516
213	0x3e8340cc	0.25635374
214	0x3be2f6cd	0.0069263936
215	0x3de9270e	0.11384402
216	0x3d4b6a1c	0.04966174
217	0x3d8f65c3	0.070018314
218	0xbc838fa8	-0.016059712
219	0xbddb541e	-0.107094035
220	0xbe290847	-0.16507064
221	0x3cb59fb8	0.022170886
222	0x3b3e81ce	0.002906907
223	0x3d7a56ce	0.06111794
224	0x3b4ddcf0	0.0031412207
225	0x3d82bb36	0.06383364
226	0xbe5e3d31	-0.2170303
227	0xbda647dc	-0.08119175
228	0xbd7b5c68	-0.061367422
229	0xbd0f1f8b	-0.03494219
230	0xbe3a42b4	-0.18189508
231	0xbdab70f7	-0.08371156
232	0x3e239c7c	0.15977663
233	0xbcb645fa	-0.022250164
234	0x3e456595	0.19277032
235	0x3ddf3815	0.10899369
236	0xbd8937ca	-0.06700094
237	0xbea01fd2	-0.31274277
238	0x3e1490ee	0.14508411
239	0x3c281669	0.010259249
240	0x3e76741b	0.24067728
241	0x3e8e70fd	0.27820578
242	0x3e2d15a4	0.16902786
243	0x3cf817ab	0.030284723
244	0xbe77c138	-0.24194801
245	0x3e228a7c	0.1587314
246	0xbc9adfca	-0.018905539
247	0x3e66f91f	0.2255597
248	0x3df83d2b	0.12121042
249	0xbcbc9a2a	-0.02302273
250	0x3e34fa14	0.17673522
251	0x3e77b207	0.24189006
252	0xbe7677c4	-0.24069124
253	0x3db15868	0.0865944
254	0x3e3ea4f8	0.18617618
255	0xbcaedc53	-0.021345293

Mixer_Block.0.mlp_block_channel_mixing_DynaMixerOperation.fc_Nd.bias f4 [484]
0	0x3c52e402	0.012871744
1	0xbd30d366	-0.043170355
2	0xbdba5447	-0.09098106
3	0x3e12f899	0.14352645
4	0xbdc2aaa3	-0.095052026
5	0x3d77d373	0.060504388
6	0xbe4210c9	-0.18951716
7	0xbe17f73b	-0.14840405
8	0xbe15bcbb	-0.14622776
9	0x3e05c09c	0.13061756
10	0x3e241952	0.16025284
11	0x3e5302b3	0.20606498
12	0xbd93cf6c	-0.07217297
13	0xbdc8f685	-0.09812645
14	0xbd59a15c	-0.0531324
15	0x3d02e8c9	0.031960282
16	0x3cff1ff9	0.031143175
17	0x3e6498e4	0.22323948
18	0x3e1828d6	0.14859328
19	0x3df13161	0.117769964
20	0xbd780caf	-0.06055897
21	0xbe30ca15	-0.17264588
22	0x3da97953	0.08275094
23	0xbca1ad4c	-0.019735955
24	0x3ceb1eb0	0.028701156
25	0x3dedacad	0.11605201
26	0x3e8f9c41	0.280489
27	0x3e0f4467	0.13990937
28	0xbe83de21	-0.25755408
29	0xbdeb291e	-0.11482452
30	0xbe6f56db	-0.23372976
31	0xbe29f18c	-0.16596049
32	0xbe21eb0d	-0.15812321
33	0xbe5da6b6	-0.21645626
34	0xbd96cec9	-0.0736366
35	0xbdb333ef	-0.0875014
36	0x3d9a1438	0.07523388
37	0x3e182f07	0.1486169
38	0x3cf6a746	0.030109059
39	0xbd8618e9	-0.0654772
40	0x3e6e309b	0.23260729
41	0xbe9ca8f0	-0.3059764
42	0xbd1fd185	-0.039018173
43	0xbdf2901e	-0.118438944
44	0x3e53aaa3	0.20670561
45	0x3d380b4a	0.04493264
46	0xbda35182	-0.07974531
47	0xbe0999b1	-0.13437535
48	0x3d303ecc	0.043028638
49	0xbe7ad206	-0.2449418
50	0xbe18a620	-0.14907122
51	0xbc29ef6b	-0.010372023
52	0xbcbc9030	-0.023017973
53	0xbd19c037	-0.037536826
54	0x3e608d5d	0.21928926
55	0xbe22f5a3	-0.15914015
56	0x3e4acd67	0.19804917
57	0x3b7421fe	0.0037251706
58	0x3dc5c6c3	0.096570514
59	0xbde1e4e7	-0.11029988
60	0xbe1aef15	-0.15130265
61	0xbe886ad8	-0.26644015
62	0xbd2c8f14	-0.042128637
63	0xbd8a00d7	-0.067384414
64	0x3ce88a39	0.028386222
65	0x3e26e84c	0.16299552
66	0xbe3b14d9	-0.18269671
67	0xbdb3cb3d	-0.08778999
68	0xbe2b49a3	-0.16727309
69	0xbd5cc865	-0.05390205
70	0x3de2d40b	0.110756
71	0xbc9ab61d	-0.018885667
72	0x3e21ecbb	0.15812962
73	0x3d23de80	0.040007114
74	0x3e3f5fa7	0.18688832
75	0xbe1ad2b0	-0.15119433
76	0x3e07be9f	0.1325631
77	0xbe5a0d08	-0.21294034
78	0x3e2d92b0	0.16950488
79	0xbe4c3c7d	-0.1994495
80	0xbcd3a9e0	-0.025837839
81	0x3e4a6b99	0.19767608
82	0xbc04d3d8	-0.008107148
83	0xbe15c0a4	-0.14624268
84	0xbe3cfe50	-0.18456388
85	0x3e7c4528	0.24635756
86	0x3e4ed71e	0.20199248
87	0xbb80b2c1	-0.003927559
88	0xbdabbf42	-0.08386089
89	0x3e546f1f	0.20745514
90	0x3d40b063	0.047043215
91	0x3d902f29	0.07040245
92	0xbb6c0a7e	-0.0036016996
93	0xbe36dc8d	-0.17857571
94	0xbe258fa7	-0.1616808
95	0xbe34c1ca	-0.1765205
96	0xbd870d33	-0.065943144
97	0xbe10f266	-0.14154968
98	0xbdf30773	-0.11866655
99	0xbd7d9b40	-0.061915636
100	0xbd9d77f1	-0.07688893
101	0xbe2d94cb	-0.16951291
102	0xbd7e1d1e	-0.062039487
103	0x3db2d9f7	0.0873298
104	0x3dd223a4	0.10260704
105	0xbd8bf374	-0.068335444
106	0x3e28e7fc	0.16494745
107	0xbd99fe36	-0.0751919
108	0xbd7bf5bb	-0.061513644
109	0x3d80d037	0.06289714
110	0x3e02277b	0.12710373
111	0xbe1805fa	-0.1484603
112	0xbd74ef5a	-0.059798576
113	0x3e6773c5	0.22602756
114	0xbe0a2dc6	-0.13494024
115	0xbd58d57e	-0.052937977
116	0x3dba920f	0.0910989
117	0x3e14fdb2	0.14549902
118	0xbc23a29f	-0.009987502
119	0x3debc074	0.11511317
120	0xbd86f1d4	-0.06589094
121	0xbcc86032	-0.024459932
122	0x3ce5b49a	0.02804022
123	0x3db17298	0.08664435
124	0xbe525dae	-0.20543548
125	0xbddb11f4	-0.10696784
126	0xbe54ccdf	-0.20781277
127	0x3e9758f0	0.2956004
128	0xbd940394	-0.07227245
129	0xbc9f68a6	-0.01945908
130	0xbd82e952	-0.063921586
131	0x3e138322	0.14405492
132	0x3c8bd177	0.017067654
133	0x3e5afa4a	0.2138454
134	0xbde4368d	-0.11143217
135	0x3cb0beb3	0.021575307
136	0x3eb258e2	0.34833437
137	0xbaf44639	-0.0018636651
138	0xbdf9de55	-0.122006096
139	0xbe0fb5e4	-0.1403423
140	0x3cc4f2dc	0.024041586
141	0xbe15417a	-0.14575759
142	0xbe5a0133	-0.2128952
143	0xb9ea23e6	-0.00044658704
144	0xbddc2e09	-0.10750968
145	0x3dc78d37	0.097437315
146	0xbd331b83	-0.04372741
147	0xbdd6bd77	-0.10485356
148	0xbd1de4f7	-0.038548436
149	0xbdee719f	-0.11642765
150	0x3e935d9d	0.2878236
151	0x3c64bf36	0.013961604
152	0xbdc92d21	-0.09823061
153	0x3cc1d1a0	0.023659527
154	0x3dabf777	0.083968095
155	0xbd9d4e04	-0.07680896
156	0xbe828141	-0.25489238
157	0x3e283f92	0.164305
158	0x3e3e9715	0.1861232
159	0xbe2c7e7c	-0.16845125
160	0xbe2e6483	-0.1703053
161	0xbcb6cfb3	-0.022315836
162	0xbd84cc28	-0.06484252
163	0x3e128c34	0.14311296
164	0x3d34194e	0.043969445
165	0x3dd1f2cf	0.1025139
166	0x3ca215f1	0.019785853
167	0xbcc5ec79	-0.02416061
168	0xbe128cac	-0.14311475
169	0x3e2e22f7	0.17005526
170	0xbd662330	-0.0561859
171	0x3d835a63	0.06413724
172	0x3e80c539	0.2515047
173	0xbd873524	-0.06601933
174	0x3e52669b	0.20546953
175	0x3dd98e6e	0.106228694
176	0xbe13ca64	-0.14432675
177	0xbe525dd4	-0.20543605
178	0xbe72b73b	-0.2370271
179	0x3dfd0c51	0.12355865
180	0x3db6f9c4	0.08934358
181	0xbdf19f19	-0.117979236
182	0xbc69c586	-0.014268285
183	0xbdf14f66	-0.11782722
184	0x3da605a4	0.081065446
185	0xbe41fab4	-0.18943292
186	0x3e09e59c	0.13466495
187	0x3c8c8743	0.017154342
188	0xbd0b57ed	-0.0340194
189	0x3d78ed76	0.060773335
190	0xbe9cb42c	-0.3060621
191	0xbd286edc	-0.04112135
192	0x3e3fb33b	0.18720715
193	0x3cc9ee05	0.02464963
194	0xbb9a1cfe	-0.004703163
195	0xbd8e52ed	-0.069494106
196	0xbdbb132f	-0.09134518
197	0xbdd36f29	-0.103239365
198	0xbe2d9e20	-0.16954851
199	0xbd8da643	-0.069164775
200	0xbe78c7b0	-0.24294925
201	0xbd6547e6	-0.05597677
202	0xbd1fcfee	-0.039016657
203	0xbdf99771	-0.12187088
204	0x3e54dcc7	0.20787345
205	0x3e477c95	0.19481118
206	0xbe347cb4	-0.17625695
207	0x3d9d18c8	0.07670742
208	0xbda02dc9	-0.07821233
209	0x3d970f54	0.073759705
210	0x3b89f2b2	0.0042098397
211	0xbd4340af	-0.04766911
212	0x3e0089a7	0.1255251
213	0x3e58a562	0.21156839
214	0xbe84d0ec	-0.25940645
215	0xbe30a5aa	-0.17250696
216	0xbe8caf8b	-0.2747768
217	0xbd9c6b9d	-0.07637713
218	0x3d44835f	0.047976848
219	0x3e4831ec	0.19550294
220	0xbdf8f493	-0.12156024
221	0x3cb4d25b	0.022072962
222	0xbe7f4401	-0.24928285
223	0xbd683b54	-0.056697205
224	0xbd86532d	-0.06558833
225	0xbda1f667	-0.07908326
226	0xbdf26607	-0.118358664
227	0xbe261152	-0.16217545
228	0x3e23a9bf	0.15982722
229	0x3db45e09	0.08806998
230	0x3dfb344c	0.12265834
231	0x3c09a90e	0.008402122
232	0x3e3acd22	0.18242314
233	0xbe7c91e8	-0.24665034
234	0xbd628a31	-0.05530757
235	0x3e27015a	0.1630911
236	0xbe095160	-0.13409948
237	0xbdea60d4	-0.1144425
238	0x3b4ddeec	0.003141339
239	0x3e412d44	0.18864924
240	0xbd02469c	-0.03180562
241	0xbd8c07c0	-0.06837416
242	0xbe1ed13f	-0.15509509
243	0xbdb6b131	-0.08920515
244	0x3e2b5e9a	0.16735306
245	0xbe96c3f4	-0.29446375
246	0xbdba9af6	-0.09111588
247	0x3da923ff	0.08258819
248	0xbe55e4d8	-0.20888078
249	0xbc8f2ca1	-0.017477335
250	0xbe192838	-0.14956748
251	0x3e150bf9	0.14555348
252	0x3e247441	0.16059972
253	0x3e17bd08	0.14818203
254	0xbdf972e0	-0.12180114
255	0x3eaa2e9d	0.33238688

Mixer_Block.0.mlp_block_channel_mixing_DynaMixerOperation.fc_out.weight f4 [10, 10]
0	0xbd3e5c1f	-0.046474572
1	0xbe7b35e2	-0.24532273
2	0x3d5d40fa	0.054017045
3	0xbe12381d	-0.14279218
4	0xbe855ca8	-0.26047254
5	0xbe380c5d	-0.17973466
6	0x3d901f38	0.070372045
7	0x3ccb79c6	0.02483834
8	0xbddf5767	-0.109053425
9	0x3d7dadec	0.061933443
10	0x3dc01870	0.09379661
11	0x3d55a4be	0.052159064
12	0xbe898a3c	-0.26863277
13	0x3e043d4e	0.12914011
14	0x3d9e5c27	0.077324204
15	0xbd6cee0e	-0.057844214
16	0x3c82730e	0.015924003
17	0xbe848748	-0.2588446
18	0xbe99b9db	-0.3002461
19	0xbe94c640	-0.29057503
20	0xbdb4b865	-0.08824233
21	0xbee08f7c	-0.4385947
22	0xbd1b7496	-0.037952982
23	0xbd84d698	-0.06486243
24	0x3e3bf01f	0.18353318
25	0x3de1ed30	0.11031568
26	0x3e8d918b	0.27650103
27	0xbe1bfcd1	-0.1523316
28	0xbe16fac9	-0.14744104
29	0x3dfba769	0.1228779
30	0xbe2f4e27	-0.17119657
31	0x3ed7a4d1	0.42117932
32	0xbd5fc0ad	-0.05462711
33	0x3e86b728	0.26311612
34	0xbe480cf6	-0.19536194
35	0x3ebbd6d2	0.36687332
36	0xbdfbda70	-0.12297523
37	0x3e86cf48	0.26330018
38	0xbd92b475	-0.07163326
39	0x3e2ef8bc	0.17087072
40	0x3f03a144	0.51417947
41	0x3e0606f6	0.13088593
42	0xbdda9f0e	-0.106748685
43	0x3e81d88d	0.25360528
44	0xbe43fe9e	-0.19140097
45	0x3e69163b	0.22762387
46	0xbeaedd04	-0.34152997
47	0x3e05a72d	0.13052054
48	0xbe7597fe	-0.23983762
49	0xbcb7b30e	-0.022424247
50	0xbd32e05d	-0.043671
51	0x3e4051bd	0.1878118
52	0xbf008a1f	-0.50210756
53	0x3df6f070	0.120575786
54	0xbe8c7c2e	-0.27438492
55	0xbcbfdf2d	-0.023421848
56	0x3def23a0	0.11676717
57	0xbe01ffd2	-0.12695244
58	0x3d3ce135	0.04611321
59	0x3e383fe0	0.17993116
60	0xbed04f3d	-0.40685454
61	0x3c061bb1	0.008185313
62	0x3e2817c0	0.1641531
63	0xbd9842fa	-0.0743465
64	0xbe7d9da6	-0.2476717
65	0xbe6641b0	-0.22485995
66	0x3e2a6eba	0.16643801
67	0xbdd47f87	-0.103758864
68	0xbe82b32b	-0.2552732
69	0xbd99100c	-0.07473764
70	0xbeb87b63	-0.36031637
71	0x3c985f0c	0.01860001
72	0x3e6ee751	0.23330428
73	0xbe275f79	-0.16345014
74	0xbe332151	-0.17493178
75	0x3da8aa63	0.08235624
76	0x3e6fcd3f	0.23418139
77	0xbeb3127a	-0.34975034
78	0xbde858fd	-0.11345098
79	0x3ea3097c	0.31843174
80	0xbef4e00e	-0.4782719
81	0x3eb470f4	0.35242426
82	0xbe5c17a7	-0.21493398
83	0x3c24784a	0.010038445
84	0xbe3fc5d4	-0.18727809
85	0x3d6d515e	0.057938926
86	0x3dbea589	0.09308917
87	0x3e0bb6b3	0.13643913
88	0xbe3d26b7	-0.184718
89	0xbe23c6f0	-0.15993857
90	0xbf08b58d	-0.53402025
91	0xbee8fddd	-0.45506182
92	0x3ec08fb5	0.3760964
93	0xbeb078e3	-0.3446723
94	0x3e9d2534	0.30692446
95	0xbe41dfbb	-0.18933003
96	0x3dd28a1e	0.1028025
97	0xbd860d4c	-0.06545505
98	0xbd93f4c1	-0.072244175
99	0x3e72fef4	0.2373007

Mixer_Block.0.mlp_block_channel_mixing_DynaMixerOperation.fc_out.bias f4 [10]
0	0xbe5d3fa9	-0.21606316
1	0x3e52e590	0.20595384
2	0xbe32936f	-0.17439054
3	0xbd95ff32	-0.07324065
4	0x3e6dcc73	0.23222522
5	0xbd2a6838	-0.041603297
6	0x3d949d10	0.0725652
7	0x3c04f327	0.008114613
8	0x3e81cd97	0.25352165
9	0xbd8888f9	-0.066667505

Mixer_Block.0.mlp_block_channel_mixing_DynaMixerOperation.LN.weight f4 [22]
0	0x3f8dfb9c	1.109241
1	0x3f837e8d	1.0272995
2	0x3f8c2b56	1.0950725
3	0x3f857324	1.0425763
4	0x3f67ee69	0.9059816
5	0x3f912bda	1.1341507
6	0x3f8d8fa7	1.1059464
7	0x3f849316	1.0357387
8	0x3f94f1a5	1.1636244
9	0x3f900824	1.1252484
10	0x3f8f876f	1.1213206
11	0x3f80bd5a	1.0057786
12	0x3f8872de	1.0660055
13	0x3f871764	1.0554013
14	0x3f923895	1.1423517
15	0x3f88ecbc	1.0697246
16	0x3f886719	1.0656463
17	0x3f83b784	1.029038
18	0x3f94e5fd	1.1632687
19	0x3f9081ef	1.1289653
20	0x3f8ccea3	1.100056
21	0x3f896c47	1.0736169

Mixer_Block.0.mlp_block_channel_mixing_DynaMixerOperation.LN.bias f4 [22]
0	0x3a8c4141	0.00107006
1	0xbad39ac1	-0.0016144143
2	0xbc8c484a	-0.017124314
3	0xbd72cd49	-0.059277806
4	0x3d336190	0.043794215
5	0xbdbe6178	-0.092959344
6	0xbe027e85	-0.12743576
7	0xbd27d761	-0.040976886
8	0x3c8055fe	0.015666004
9	0xbde790c2	-0.11306907
10	0x3dca71c9	0.09884984
11	0x3c4dae1b	0.012553717
12	0xbcceadc6	-0.025229346
13	0xbb227c6f	-0.0024793406
14	0xbe25f015	-0.16204865
15	0x3da5d09f	0.08096432
16	0x3c188989	0.009310135
17	0xbd4cb087	-0.049973037
18	0x3e136447	0.14393722
19	0xbc77c041	-0.0151215205
20	0x3d70f316	0.058825575
21	0xbcdb5d90	-0.026778013
