M_2_AST/MotionMixer-main/h36m/run_for_longging/exp253/model.pt (torch, 870893 bytes, 184 tensors)

Mixer_Block.0.mlp_block_token_mixing.fc1.weight f4 [20, 10]
000000 31 b8 b2 3d 5d 60 be bd ab f9 dc 3d ac e3 14 3e
       0.08726538 -0.092957236 0.10789808 0.14539975
000010 49 b5 1c 3f 8e 07 c9 be 5c 23 d5 3e c5 13 cb be
       0.6121412 -0.39263576 0.4162854 -0.3966352
000020 1f 48 25 3f 19 65 82 be ee 76 a5 3d 49 9b 08 be
       0.64563173 -0.25467756 0.08079325 -0.13340487
000030 66 1a 15 3e 61 6f 7b be b3 be b3 3e d1 a3 17 bf
       0.14560851 -0.24554206 0.3510643 -0.5923434
000040 22 b3 06 3f 19 16 bf be f7 cd 25 3f 03 0b c6 3d
       0.52617085 -0.37321547 0.647674 0.09670069
000050 f2 24 0a be a0 4c b9 3d fd 28 0e be ea de e9 3e
       -0.13490656 0.09047818 -0.13882823 0.45677882
000060 e4 c2 7b 3e a4 4f a8 3e b8 08 fc be 78 e3 7d bf
       0.24586064 0.3287326 -0.49225402 -0.99175215
000070 3e bc ef be 1c 8b ef be 64 8f 28 be 4d a2 de 3e
       -0.46823305 -0.4678582 -0.16460949 0.434832
000080 ff de 13 be 2f 36 ad 3e cb fa ff be 6e 8f e8 be
       -0.14440535 0.338304 -0.49996027 -0.45421928
000090 a7 42 1a bf 56 85 13 3f ba 9c 38 bf dc 55 f7 3e
       -0.60257953 0.5762533 -0.72114146 0.48307693
0000a0 6d 02 ec be c4 f3 63 3e 42 3c 92 be c2 7f e9 3e
       -0.460956 0.22260958 -0.28561598 0.45605284
0000b0 71 6d bc be 6a 71 3f 3f cd fe ed be e5 f7 d2 3e
       -0.36802247 0.7478243 -0.4648346 0.41204754
0000c0 4a 3e a0 be ce 5e f1 3e a2 44 9b bd b5 e0 ed 3e
       -0.31297523 0.47142643 -0.0758145 0.464605
0000d0 0d 0e be be 74 b2 19 3e 3a ff 8b be 6c ba 67 3f
       -0.37120095 0.1500948 -0.2734316 0.9051883
0000e0 78 a2 18 bf 46 36 38 3f 17 7e f9 be 0d d9 76 3e
       -0.5962291 0.71957815 -0.4872901 0.24106236
0000f0 5c 49 0f be e8 35 0c 3e b7 cc 91 bd 9f a4 42 3c
       -0.13992828 0.13692439 -0.071191244 0.011880069
000100 08 54 74 bf 6a 1a 06 3f 1a 18 e7 be ff ce d6 3e
       -0.9544072 0.52384055 -0.45135576 0.419548
000110 57 15 42 bf 2a 67 ba ba d4 2b cf 3e 4d 5a a3 be
       -0.7581381 -0.0014221419 0.40463126 -0.31904832
000120 9b d9 f3 3e 4f be 9f be ad f2 7b 3c 2e 99 44 bf
       0.47626957 -0.3119988 0.015377683 -0.76796234
000130 dd a5 6c be ee 8d af 3e 70 23 b4 3e ca 88 ad be
       -0.23110147 0.3428797 0.35183287 -0.33893424
000140 ec 08 c7 3e 0e 35 12 bf fc 84 f0 3e d9 63 4b bf
       0.38873994 -0.57112205 0.4697646 -0.7944923
000150 da 30 5a bd 27 00 6f 3e e7 6e 2b bf 1b 41 7f bd
       -0.053269245 0.23339902 -0.669661 -0.06231795
000160 4c 71 b7 bd 31 e2 bb 3e 4c f3 b8 3e c0 31 0f bf
       -0.089571565 0.36696008 0.3612312 -0.5593529
000170 22 90 c8 3d ed b8 c1 3e 14 19 32 be 98 9c 46 bf
       0.09793116 0.378364 -0.17392379 -0.77582693
000180 98 28 45 be 72 03 ed bd 54 d5 39 bf 16 85 9a bd
       -0.19253767 -0.11572923 -0.7259114 -0.075449154
000190 f0 c3 b7 3d 63 64 12 be 55 42 88 be 79 e4 09 bf
       0.08972919 -0.14296107 -0.26613107 -0.53864247
0001a0 5e fb 05 be 80 63 e4 bd 06 b7 9e 3f 28 91 00 bf
       -0.1308417 -0.111517906 1.2399604 -0.5022149
0001b0 fc 46 3a 3f 65 d8 98 be 46 0c 8e 3e 65 1a c6 bd
       0.72764564 -0.29852596 0.2774374 -0.09673003
0001c0 1d 12 83 3e 8a fd e1 bd 4c 3f 0a 3f 19 b1 b2 be
       0.25599757 -0.11034687 0.54002833 -0.3490074
0001d0 e7 77 c7 3e 36 e6 13 bf f0 81 ea 3e cb 4c 2e be
       0.38958666 -0.5777315 0.4580226 -0.17021482
0001e0 c5 f5 2b 3e f2 2a d9 be 11 d6 46 3e db 61 9c bd
       0.16792972 -0.42415577 0.19417597 -0.07635852
0001f0 0f 11 8e 3d 1a 05 08 bf eb c6 40 3f 38 86 3f bf
       0.069368474 -0.53132784 0.75303525 -0.74814177
000200 b6 b3 3c 3e 19 b7 ca be 13 4c e3 be 7f 7c 19 3f
       0.1842793 -0.39592817 -0.44393978 0.5995559
000210 e4 29 18 bf 3a ca f7 3e a9 42 aa 3e 92 6e d3 3c
       -0.5943892 0.48396474 0.33253983 0.02580956
000220 b3 f4 e8 3e 37 c5 d5 3e ea f0 aa be a8 7a 35 bf
       0.4549919 0.41752025 -0.33386928 -0.70890284
000230 e5 c0 d8 be 85 da d1 3e b1 3c 1c bf e6 63 31 3f
       -0.42334667 0.4098703 -0.6103011 0.6929306
000240 80 9a af be be a4 2e bd 06 8d 73 3e 35 07 14 3d
       -0.34297562 -0.04263758 0.23784265 0.036139686
000250 1a 08 a4 3e 4e 78 c4 3d 4a 70 c0 3e a6 73 a2 be
       0.3203743 0.09593259 0.3758567 -0.31728858
000260 8e 9a 55 3e c0 e0 f4 be 95 d6 5c 3e ab f8 0b bf
       0.20859739 -0.4782772 0.21566232 -0.5467631
000270 4c 22 1c 3f 3f a0 99 be 49 2a 1c be 6b 72 34 bd
       0.6098983 -0.3000507 -0.15250506 -0.04405443
000280 0d 35 ed 3d 95 61 82 be 98 b2 cb 3e 1c 76 53 bf
       0.11582384 -0.25465074 0.39784694 -0.82602096
000290 35 88 13 3f c7 01 79 3e 76 8c 72 be 6a 11 3f 3f
       0.5762971 0.24317084 -0.23686394 0.74635947
0002a0 41 d2 6a 3d d4 56 ef be be 22 7c be 45 50 a2 3e
       0.05732942 -0.46745932 -0.24622628 0.31701866
0002b0 bc 55 c7 bb 9a 96 a0 3e c3 8d 9b be 94 52 c8 3e
       -0.0060832184 0.313649 -0.30381593 0.39125502
0002c0 55 b4 84 bf a4 b4 35 3f dc 79 98 be 1c 60 76 3d
       -1.0367533 0.7097876 -0.2978047 0.06015025
0002d0 fa 19 82 3e 34 85 21 bf 26 b2 a2 3d ef 00 03 bf
       0.25410444 -0.63093877 0.07944135 -0.511733
0002e0 df f6 3a 3f 33 0c be bd 70 72 8e bb 3a 5d 69 bd
       0.73032945 -0.092796706 -0.004347138 -0.056973673
0002f0 66 31 18 bd 59 57 a2 be 3f 6f 14 bf 3c 11 26 3f
       -0.037156485 -0.31707266 -0.5798225 0.6487005
000300 31 cf 21 bf cc 71 9c 3e ca a9 fa 3c 82 32 c9 3e
       -0.63206774 0.3055557 0.03059854 0.39296347
000310 2b 5a d3 bd fc 12 33 be 24 83 e6 3e f7 e6 f6 bd
       -0.103199326 -0.1748771 0.45021927 -0.12055772

Mixer_Block.0.mlp_block_token_mixing.fc1.bias f4 [20]
000000 78 82 be 3e d0 03 e0 3e 9f cd d2 3e 82 0a f4 3e
       0.37208915 0.4375291 0.411725 0.47664267
000010 9f 14 9e 3e 1a 08 d5 3e 79 a7 90 3e 68 25 b9 3e
       0.30875108 0.41607744 0.28252771 0.3616135
000020 95 b2 22 3f 03 84 25 3f 56 70 06 3f 2e cc ae 3e
       0.63553745 0.6465456 0.5251516 0.34140152
000030 83 e0 80 3e 2d 54 0d 3f 56 37 fc 3e 32 79 8c 3e
       0.2517129 0.5520657 0.49260968 0.27436215
000040 95 76 fd 3e af 81 cf 3e ba 68 c6 3e 60 78 c7 3e
       0.49504533 0.40528628 0.38751775 0.38959026

Mixer_Block.0.mlp_block_token_mixing.fc2.weight f4 [10, 20]
000000 d5 60 8b 3d 6e 65 e8 ba 98 86 0c 3f 42 ad 94 be
       0.068055786 -0.0017730424 0.54892874 -0.29038435
000010 ca 4c 2e bf a2 dc 55 bf 02 06 7b 3e dc c0 b0 3e
       -0.6808592 -0.83539784 0.2451401 0.3452214
000020 4d c4 16 3f 0f b9 5b 3f 92 54 16 be 00 1a 2d 3e
       0.5889328 0.8582925 -0.14680699 0.1690445
000030 2e 53 20 3f 54 b9 bb be 7e cb 2c bf 58 cc ed 3e
       0.6262692 -0.36664832 -0.67498004 0.46444964
000040 76 a0 cd 3d 3e 24 b0 be 82 b9 ce 3e 12 4e f7 be
       0.10040371 -0.3440265 0.40375906 -0.4830175
000050 02 de 4c 3d ef 6d 1b be 18 f0 04 3f 36 fb 1b bd
       0.05001641 -0.15178655 0.51928854 -0.03808137
000060 42 7b 05 3e 98 0b 7e be 83 bc ed bd b7 3e 1f bf
       0.130353 -0.2480911 -0.116082214 -0.6220507
000070 d6 d6 39 bf cc 86 71 3e 3d 49 30 3c 83 be d8 be
       -0.7259344 0.23586577 0.010759649 -0.4233285
000080 7c 0a 51 bd 7d d2 ec 3e f3 b6 3c 3f 13 f1 47 bf
       -0.05103539 0.4625434 0.7371666 -0.78102225
000090 21 2c 59 be 23 3d b9 bd 5e 38 c5 be 0a cc 30 3f
       -0.2120824 -0.09044864 -0.38519567 0.6906134
0000a0 f8 7c 93 3e bc 59 b7 3e 6c e0 92 be e0 a7 04 bf
       0.2880628 0.3581065 -0.28686845 -0.51818657
0000b0 58 a7 08 bf 53 f4 be be 51 b2 83 bf 23 36 ef bd
       -0.53380346 -0.3729578 -1.0288793 -0.11680248
0000c0 21 cf a8 3e 38 cf 1d 3d 49 31 b3 3e c4 d9 8d 3e
       0.32970527 0.038527697 0.3499854 0.27705204
0000d0 a4 67 c0 bc a5 61 6c 3e b4 df 82 be 39 31 ec 3e
       -0.02348692 0.23084123 -0.25561297 0.46131304
0000e0 0e 1b 14 3f da f9 3b bf 67 a5 63 3f 4d ae 67 be
       0.5785378 -0.7342812 0.8892426 -0.22625084
0000f0 9c bb 8a bf ba 22 e4 be b4 80 34 be af fa 86 be
       -1.0838504 -0.44557744 -0.17627221 -0.2636313
000100 f1 2c fb 3e 05 25 17 3f 81 73 0a 3f fc 5f b8 be
       0.49057725 0.5904086 0.54082495 -0.3601073
000110 28 aa 3d 3f c8 e4 14 bf e4 d8 a2 3e a4 a4 53 bf
       0.7408776 -0.5816159 0.318061 -0.82673097
000120 eb 41 4e bf 77 5a 52 be 0d 8b 50 be 12 98 ed be
       -0.8056933 -0.20542322 -0.20365544 -0.46405083
000130 00 89 2d 3f ba ea 6c 3e d1 11 d0 bd 66 11 4f 3d
       0.6778717 0.23136416 -0.10159648 0.0505537
000140 2c 85 6d 3f 15 55 8d 3f 7f e7 e7 be 0e 39 57 be
       0.9278133 1.104159 -0.45293805 -0.21017858
000150 fb 01 82 be e5 c9 aa be 21 56 90 be 08 ff 05 3d
       -0.25392136 -0.33357158 -0.2819071 0.03271392
000160 67 4b b3 be 06 66 a7 be 81 51 9c 3f 91 d3 32 3f
       -0.35018465 -0.32695025 1.2212373 0.69854075
000170 41 32 41 3f cd c4 75 be 53 58 b5 3d 48 f3 35 3f
       0.75467306 -0.24000855 0.08854737 0.7107434
000180 fc 2b 50 bc 24 13 07 bf 78 5c e1 be c7 77 cc be
       -0.012705799 -0.5276358 -0.4401586 -0.39935133
000190 e4 73 f2 3d 1c 44 ee 3c 0f 96 14 bf cb 5a 8a 3f
       0.11838511 0.029085211 -0.5804147 1.0808958
0001a0 06 7d b1 3e ac 56 d7 3c be d7 ed 3e 5a 01 ab 3e
       0.34665698 0.026286446 0.4645366 0.3339947
0001b0 ad 14 35 be 3e 31 85 3e 97 0d 6f be e2 ed 09 3e
       -0.17683668 0.2601413 -0.23345028 0.13469651
0001c0 52 cc ec 3d 36 88 16 be d5 e4 90 3e b6 19 ec 3d
       0.115624085 -0.14700398 0.28299585 0.115283415
0001d0 1a f4 51 be 0f ec 4b 3f d6 7b a0 3d e4 7c 36 bf
       -0.20503274 0.7965707 0.0783612 -0.7128432
0001e0 f8 49 12 3f 92 19 5c 3e e3 49 97 3e c3 60 b8 bc
       0.5714412 0.2149413 0.2954856 -0.022507077
0001f0 5f 06 41 3d de 78 52 be ef 2b ee be 88 a9 86 3e
       0.047125217 -0.2055392 -0.46517894 0.26301217
000200 df 9f d2 3e 5f c0 94 be 5b 7b 1b bf 6a 2b d1 3e
       0.41137597 -0.29053017 -0.607351 0.40853435
000210 17 79 d9 be b6 95 9c be f8 91 8d bd d3 97 23 bf
       -0.42475197 -0.3058297 -0.06912607 -0.6390354
000220 78 50 cf 3e 89 87 07 3f 6a 61 51 3e 4c e1 fb 3e
       0.4049108 0.52941185 0.20447317 0.49195325
000230 26 33 83 3e 31 8b 8a 3d d4 f9 1c 3e 3c 87 12 bf
       0.2562496 0.0676483 0.15329677 -0.572376
000240 10 4a 31 3f c5 8e 2c 3e 82 5d 16 3d fd d8 2e bf
       0.69253635 0.16851337 0.03671027 -0.6829985
000250 ab ad 51 be c1 83 86 be 0f 47 08 3f 4f 72 10 3f
       -0.20476405 -0.26272395 0.53233427 0.5642442
000260 d8 cf 16 3f 90 eb ff be f4 5e 94 bd 9a 59 6e 3e
       0.58910894 -0.49984407 -0.07244673 0.23276368
000270 7e 46 20 bf 34 be 94 be fd 9b d0 3d ed 6e 8e be
       -0.6260756 -0.29051363 0.101860024 -0.27819005
000280 9d 02 53 bd ba 79 a8 be d9 f1 78 bd e4 eb c3 3e
       -0.051516164 -0.3290537 -0.06077752 0.38265908
000290 02 b5 89 3e d6 a2 1a 3f fe 29 09 3f 5d 53 fe be
       0.2689591 0.6040472 0.535797 -0.49672976
0002a0 26 11 39 be 32 c3 85 3c 6b 95 c3 be ff f7 cc bc
       -0.18072948 0.016328428 -0.38199934 -0.025020598
0002b0 e4 3f be bc ab 79 bd 3e ea 93 eb be dd 71 2e 3e
       -0.023223825 0.37006888 -0.46011287 0.17035623
0002c0 b8 11 88 3e b0 37 ae 3e 56 19 28 3e b7 37 81 be
       0.26576018 0.3402686 0.16415915 -0.2523782
0002d0 e2 3e 25 3e 1d 84 f1 be e8 9f 73 3e eb d2 38 bf
       0.16137269 -0.47171107 0.23791468 -0.72196835
0002e0 ab 5e 53 bf 37 1e 63 be 2c b1 b1 3d d9 75 c7 3e
       -0.82566327 -0.22179495 0.08676371 0.38957098
0002f0 8c aa b0 be 49 b0 a7 bd cf 7c 8e 3e 9f 81 5a be
       -0.34505117 -0.081879206 0.27829596 -0.21338509
000300 c7 de 9f 3e f2 6d 7a 3f 39 22 ea 3b 66 44 3d be
       0.31224653 0.97824013 0.007145193 -0.18483123
000310 72 b1 4f 3f 55 d5 5f bd 90 7b 21 3f 65 68 10 3e
       0.81130135 -0.05464681 0.63079166 0.14102323

Mixer_Block.0.mlp_block_token_mixing.fc2.bias f4 [10]
000000 28 7b f4 be cc ad 9a b9 16 5b 93 3e 47 ec 51 3e
       -0.4775021 -0.00029502658 0.2878043 0.20500289
000010 0c cf 63 be aa f9 02 bd 5e c4 3c be c8 a5 fe 3c
       -0.22246951 -0.03197638 -0.18434283 0.03108491
000020 ea a8 fb 3c a5 92 f2 3b
       0.030720193 0.0074027353

Mixer_Block.0.mlp_block_token_mixing_DynaMixerOperation.fc_ND.weight f4 [1, 66]
000000 05 29 04 3d 8e 45 88 bd 18 32 4f bd d9 83 0c 3d
       0.03226568 -0.066538915 -0.050584882 0.034305427
000010 5a 8a 84 bd d3 42 9a 3d 5e ef be 3b 4c 85 01 3d
       -0.06471701 0.07532277 0.0058268746 0.031621262
000020 93 84 2b bc 99 06 59 3c ce 94 ba bb 5e 63 b1 bd
       -0.01046862 0.013246202 -0.0056940084 -0.08661531
000030 a0 d6 58 3c 1f 5c ba 3c 5c b2 ef bd d7 cb 00 bd
       0.013234764 0.022749005 -0.11703941 -0.031444397
000040 92 db 85 3b c5 a7 6e bd 73 c1 22 bb fb 80 1c 3d
       0.0040850127 -0.058265466 -0.0024834543 0.038208943
000050 31 16 c9 3c 68 5b 84 3b bf b0 73 3d 6b 27 27 bd
       0.024546714 0.004039217 0.05949473 -0.040809076
000060 4a e2 62 3c f5 7b e2 bd fa 10 49 3d 89 c4 98 3d
       0.013847897 -0.11058799 0.049088456 0.07459361
000070 1f d4 75 3d 21 0e 87 3b f0 f3 f1 bb b2 79 9d bc
       0.060016748 0.0041215573 -0.007383816 -0.019223068
000080 ef bc 9b bd c2 a4 85 bd a1 f7 e3 3d 60 71 f8 3c
       -0.076043956 -0.06525566 0.11131216 0.030327499
000090 59 5b d6 bd b8 02 75 ba 36 fd 7b 3d 94 64 81 bb
       -0.10466642 -0.00093464134 0.061520778 -0.0039487574
0000a0 15 a0 ac 3d cf 08 81 3c 69 fd f9 bd 8c 83 b5 3d
       0.08428971 0.01575127 -0.12206537 0.08862981
0000b0 ca 22 5e 3d c4 e7 ec 3c 81 0b 65 3d 29 14 d9 3d
       0.054232396 0.028919108 0.055919174 0.10599548
0000c0 63 bf 09 3c e3 c1 e6 3d 73 e2 f7 bc e9 cb ce bc
       0.008407447 0.1126745 -0.030259347 -0.025243716
0000d0 8e 7a 29 3d 4b 77 32 bd be cb 8c 3d a7 71 99 bc
       0.041376643 -0.043570798 0.06874798 -0.018730951
0000e0 fc 8e 8f 3b 37 dd 45 3d 69 39 3c bc 6c ea bf bc
       0.0043810587 0.04830667 -0.011488297 -0.02342721
0000f0 ab a4 d3 3d d1 d3 5c 3d c1 83 57 3d a6 af e8 3c
       0.10334142 0.05391294 0.052615885 0.028404068
000100 fb e3 fc 3d 33 0b a1 3d
       0.12348171 0.07863464

Mixer_Block.0.mlp_block_token_mixing_DynaMixerOperation.fc_Nd.weight f4 [100, 10]
000000 bd 5a 21 3f 2c 9a 59 be 0c 2d f0 3e f6 73 a1 3e
       0.6302908 -0.21250218 0.46909368 0.31533784
000010 f7 ce 02 3f 8e c5 6d 3e 6d a0 d1 3e 29 e6 23 3e
       0.51097053 0.23219892 0.40942708 0.16005768
000020 1d 55 d6 3e 0c 6d 75 3e 48 46 17 be 23 d5 46 bd
       0.4186181 0.2396738 -0.14772904 -0.048543107
000030 f7 b8 53 be 1c ea 07 3f b6 17 c2 3e 64 52 9e 3e
       -0.20676027 0.530916 0.37908715 0.30922234
000040 61 0e 40 3e b9 6a 32 3e 4d ef 2f 3e da 80 25 3e
       0.18755485 0.17423524 0.1718113 0.16162434
000050 a1 a1 26 3b a0 b1 b8 bd aa 91 75 be ca 13 aa bd
       0.0025425928 -0.09018254 -0.23981348 -0.08304556
000060 c1 f8 18 3d 1d b3 9b 3d c3 1c c2 bd 61 bf 7f bc
       0.037346605 0.076025225 -0.09478142 -0.015609593
000070 66 ce 49 bd da cd 7f bc aa 93 2b be 9b ce 3f 3e
       -0.049269103 -0.015613044 -0.16755548 0.18731157
000080 2a 28 9e 3d b4 c1 ab be 67 83 16 3e f7 4f 95 3e
       0.077225044 -0.3354622 0.14698564 0.2916257
000090 18 42 79 bc 68 c1 dc 3d 36 b8 95 bb 4b ae 7c 3d
       -0.015213512 0.10779077 -0.004569079 0.061689656
0000a0 c0 ce d8 bb 66 bf be bd 37 02 a6 bd e2 4e cd bd
       -0.0066164434 -0.0931385 -0.08105891 -0.10024811
0000b0 f7 51 c2 be a1 60 36 3d 7e 09 05 be 63 93 72 bd
       -0.3795316 0.044525746 -0.12991902 -0.05922259
0000c0 d7 ac f1 bd 27 e1 d8 bc f6 38 5a bd 67 3e 19 3e
       -0.11800545 -0.026474549 -0.05327698 0.14965211
0000d0 96 8f 9b 3b e5 f3 96 3d 84 4d fc 3d 49 5e 83 be
       0.0047473414 0.07370738 0.123194724 -0.2565787
0000e0 47 a4 b5 bd 3b 86 91 3d 29 57 ac bd 7f b3 56 3c
       -0.08869224 0.071056806 -0.08415062 0.013104319
0000f0 40 e9 a1 bd 3b 04 9f 3d 0c 5e 5b 3d 83 0d e8 ba
       -0.07905817 0.07764479 0.053556487 -0.0017704222
000100 38 49 6f 3d f6 07 16 3e d9 45 ba be cd e0 b9 3b
       0.058419436 0.14651474 -0.36381415 0.0056725503
000110 cf 68 7e 3d a7 fe cf 3c f3 1c 3f be bb 36 d1 3c
       0.062111672 0.025389982 -0.18663387 0.025538793
000120 11 25 74 bd e5 f3 84 3c 2c 7d 4e 3c bf b9 0f 3e
       -0.05960566 0.01622958 0.0126030855 0.140357
000130 2b 8a b1 bc 01 1c e4 be e3 e3 b3 3d f8 ea 69 3d
       -0.021672329 -0.44552615 0.087837 0.05710885
000140 55 d4 59 bd 78 af 92 3d 04 44 90 3d 85 a4 0d 3c
       -0.05318101 0.07162374 0.07044223 0.008645182
000150 90 7b 18 3e ec 41 95 3d 45 86 4b 3d b0 18 d8 bc
       0.14890885 0.07287964 0.049688596 -0.02637896
000160 d9 f5 b8 be 00 b2 52 3d 17 82 c3 bd bf 55 a6 bc
       -0.36125067 0.051439285 -0.09546297 -0.020304559
000170 a4 c1 73 bd 8c a4 b4 bd 81 29 38 3d 87 0e 41 3d
       -0.059510842 -0.08820447 0.044961456 0.047132995
000180 a7 08 b3 bc 9e 58 6d 3d 5c eb e1 3b 71 6e c2 be
       -0.021854712 0.05794584 0.006894512 -0.37974885
000190 62 6c 8b be cc d4 15 3d 9a 52 3f bd bb 10 c9 3e
       -0.27231127 0.036579892 -0.046709634 0.39270577
0001a0 b5 6c 6f bd fb b8 a8 3e 2b a8 97 3d 71 81 77 38
       -0.05845328 0.3295363 0.07405122 5.900994e-05
0001b0 e6 1e c0 3e 5b f2 0b ba ea df 22 3f 1c 9f 32 be
       0.37523574 -0.0005338543 0.63622916 -0.17443508
0001c0 76 10 6a bd e9 e7 63 be a7 29 37 be 1f e5 d8 3d
       -0.057144605 -0.22256435 -0.17886983 0.105905764
0001d0 aa 47 d6 bd 86 0b 90 3d 82 d0 f7 3d 4d 49 0e 3e
       -0.104628876 0.07033448 0.121003166 0.1389515
0001e0 a1 e8 ec bd 6f 88 82 3e e9 a8 f6 bd 28 63 02 3f
       -0.11567808 0.25494716 -0.12043936 0.5093255
0001f0 22 b2 8c 3e e3 9c 9d 3e 1c 7e 21 3e 4e 1d a0 3e
       0.27479655 0.30783758 0.15770763 0.31272358
000200 01 9b 17 3e 40 21 31 3e 35 36 d3 bd 55 e7 a3 be
       0.14805223 0.1729784 -0.103130735 -0.3201243
000210 04 4d 80 bd 88 f2 14 bf 74 21 9b be b9 d2 bb be
       -0.062646896 -0.58182573 -0.3029896 -0.36684206
000220 c0 c5 65 be dd b9 93 be 4e 87 49 bd 1e 49 04 be
       -0.22438717 -0.2885274 -0.049201302 -0.12918517
000230 d3 a0 18 bd 53 2a 03 be ac 35 4c be 0e f9 2f 3e
       -0.03726275 -0.12809114 -0.19942349 0.1718485
000240 7c 8d b8 be ae ba 72 3c 23 3b 0f 3e ab f3 32 bd
       -0.36045444 0.014815016 0.13987403 -0.04368941
000250 58 92 51 3c cc a9 ca bd 16 6a bb 3d ab 9b d3 bb
       0.012791239 -0.098956674 0.09151094 -0.006457766
000260 b4 17 48 3e 0f 81 3f bd 7c c9 cc bd 50 bb 17 bf
       0.19540292 -0.04675394 -0.099993676 -0.5927019
000270 2e 0c 37 be 53 2a 29 3d 16 3e 4c 3d a1 19 8c bd
       -0.1787574 0.04130013 0.049863897 -0.06840826
000280 69 27 c1 bc ca 39 d4 3c 16 69 07 3e 04 7e 10 3e
       -0.023578363 0.025906462 0.13223681 0.14110571
000290 a5 59 c9 bc 0c 48 df 3c 8b 55 c5 be f1 13 a7 bd
       -0.024578879 0.027256034 -0.38541827 -0.081581004
0002a0 4a f4 55 3e ac 89 d3 3d 79 79 5d be cb 30 1c be
       0.2089397 0.10328993 -0.2162837 -0.15252988
0002b0 56 23 e6 3d 81 30 43 bc 63 60 88 bc 95 72 c3 bd
       0.112372085 -0.01191342 -0.016647523 -0.09543339
0002c0 e7 af ee 3d d0 2c e8 be ee 42 a2 bd c4 25 c0 bd
       0.116546445 -0.4534669 -0.07922922 -0.09382203
0002d0 98 66 9e 3c e8 df fe bd 94 78 30 be 19 2f 79 3d
       0.01933603 -0.124450505 -0.17233497 0.06083593
0002e0 ce f2 8b 3d bc 7e 32 be 0c 87 7f bc 6a fe aa bc
       0.06833421 -0.17431158 -0.0155961625 -0.020873267
0002f0 06 00 00 bf 4e 30 1a be 53 78 fb bc cf d1 d6 bd
       -0.50000036 -0.1505749 -0.030697023 -0.104892366
000300 86 ca 82 bd 51 9f 1e bc 8e 3b 77 bd b0 19 d1 bd
       -0.063862845 -0.009681539 -0.06035953 -0.102099776
000310 5c 31 b6 3c eb f9 64 3d a0 8b f8 3c de 7c f8 be
       0.022240333 0.055902403 0.030340016 -0.48532766
000320 a3 e9 47 be 23 62 09 be ae 96 3c 3c 45 a7 53 be
       -0.19522719 -0.13416342 0.011510534 -0.20669277
000330 8b 08 e3 bd 9e b0 7b be dc a8 36 be 04 97 46 be
       -0.11085614 -0.24579093 -0.17837852 -0.19393545
000340 1e 9f 44 be bf d8 13 be 43 85 b5 3e b5 9c 0e be
       -0.19201323 -0.14438151 0.35453233 -0.13926966
000350 ee 42 04 be 55 22 83 3e ab 13 fb bc 40 c7 b0 3e
       -0.12916157 0.2561213 -0.030649027 0.34527016
000360 86 34 8b 3d 50 cf a1 3e 6e 72 8d 3d 3d 17 c9 3d
       0.067971274 0.3160348 0.06906591 0.098188855
000370 af 9e d4 3e c8 04 4a be 0a f6 35 3f 85 37 53 3d
       0.41527316 -0.19728386 0.7107855 0.05156662
000380 0a 0d d3 3e 28 ec 71 bc 02 98 08 3f aa de 4a bb
       0.41220886 -0.014765777 0.53356946 -0.0030955472
000390 77 6e b4 3d c4 78 98 3e 2b 76 14 be 38 a4 1e bd
       0.08810132 0.29779637 -0.14498203 -0.03873083
0003a0 d6 a9 0c be dd 2d 5c be e5 f1 c4 be 91 d6 17 be
       -0.13736662 -0.2150187 -0.384658 -0.14827944
0003b0 62 02 6f be 44 19 da bd a3 0c 9b be 10 1b 21 be
       -0.23340753 -0.1064935 -0.3028308 -0.1573298
0003c0 20 73 81 bd bc 99 08 3d 9b 91 65 be f5 62 28 3f
       -0.063207865 0.033349738 -0.22418825 0.65775996
0003d0 1f 62 56 bc 2d 52 88 3d cd c4 53 bd 82 25 44 bd
       -0.013084917 0.06656299 -0.051701356 -0.047887333
0003e0 eb b7 dc bd 55 16 8d bd 46 52 6c 3c 74 3a 5f 3e
       -0.10777267 -0.06889025 0.014423912 0.21799642
0003f0 1f 58 ba bc 06 cc 5d bd 10 6d d0 3d de 28 ac be
       -0.022747098 -0.05414965 0.10177052 -0.3362493

Mixer_Block.0.mlp_block_token_mixing_DynaMixerOperation.fc_Nd.bias f4 [100]
000000 a1 d8 2f bf 79 c7 10 be 8c bd 9a 3e cb 90 a5 3e
       -0.68689924 -0.14138593 0.30222738 0.3233703
000010 6d c2 e2 bb 02 38 bd bd d4 95 86 3e 8f 28 24 bd
       -0.00692015 -0.09239198 0.26286185 -0.040077742
000020 25 b9 da 3d 66 06 07 be 27 f2 ea be c2 3b 07 bf
       0.10679845 -0.13186035 -0.45887873 -0.5282556
000030 30 ff d1 be 66 f4 f8 3d 70 96 1a bd 6f 0f 43 3e
       -0.41015005 0.1215599 -0.037741125 0.19048856
000040 d8 6b bc 3e a7 1a 95 3e d9 9c 4a be c2 b4 dd 3d
       0.36801028 0.29121897 -0.19786395 0.108254924
000050 be 62 07 3f 36 2b 06 bd 7c 2f c0 bd 86 77 29 3e
       0.52885044 -0.032756053 -0.09384057 0.16549501
000060 b0 ce 2d be c9 04 b3 3d f1 ba 48 bc 4a 0b ba bd
       -0.16973376 0.08741147 -0.012251602 -0.090841845
000070 3f 68 e9 3d 50 f9 10 3e 13 f5 1d 3c b8 f8 00 3f
       0.113968365 0.14157605 0.00964095 0.50379515
000080 fa 81 ef be 98 fb a4 3e ae 26 1b bf 58 d8 ca 3e
       -0.46778852 0.322232 -0.60605896 0.39618182
000090 bc 31 32 be 20 e6 e0 3d 28 ac 4e be 00 52 10 be
       -0.17401785 0.10981393 -0.2018286 -0.1409378
0000a0 53 9c 0c bf c4 0b 1b 3e 19 88 12 bd 76 bc 94 3e
       -0.5492603 0.15141207 -0.035774324 0.29050034
0000b0 c0 eb 95 be 89 62 90 3d 0f 8b 1b 3d f6 0f 1c 3e
       -0.29281425 0.07050044 0.037974413 0.15240464
0000c0 0b 24 9d 3c 43 a8 09 3e c3 45 0f 3e f0 a1 35 bf
       0.019182226 0.13443093 0.13991456 -0.7095022
0000d0 31 65 43 3d 17 69 f0 3d a3 96 04 3e 38 eb d3 3d
       0.047703926 0.11738794 0.12948088 0.10347599
0000e0 ec b6 11 3e 7a e9 e0 bc 8c 4a 03 3e 40 0f e8 bd
       0.14229935 -0.02745508 0.12821406 -0.11331034
0000f0 42 44 80 3e 77 c0 39 bd fb 43 f6 bc d7 21 0a be
       0.25052077 -0.045349564 -0.030061712 -0.13489471
000100 97 8d 2e be 6c 93 81 ba 03 f4 fe bc 0f 79 61 3b
       -0.170462 -0.0009885854 -0.031122213 0.0034404432
000110 02 75 38 3d bc 6a 31 bc fd 47 ee 3d 65 63 8e be
       0.045033462 -0.01082867 0.116348244 -0.27810207
000120 25 f6 c5 be ce f5 0c be 5e 13 44 be 9d 26 6f bd
       -0.38664356 -0.13765642 -0.19148013 -0.058386434
000130 c4 3c 11 be b3 5f 85 3e 30 39 5c 3e f9 b3 db bc
       -0.14183336 0.26049575 0.2150619 -0.026819216
000140 85 05 eb 3e 7f 54 af bd d2 b8 55 3e 5e 01 62 bc
       0.4590265 -0.08561038 0.20871285 -0.013794271
000150 0e d7 ad bd 93 f7 11 bd 1b 7b fa bd c7 9b d0 bd
       -0.08488284 -0.035636496 -0.12230512 -0.10185962
000160 3c 15 0e bd f4 71 46 3e 51 1e 99 3e 81 97 33 be
       -0.03468822 0.19379407 0.29905942 -0.17538263
000170 29 cc aa be 49 0b e6 bd 8e 78 7b be 80 5f 6b 3c
       -0.33358887 -0.11232621 -0.24557707 0.014366031
000180 d7 ba ba bd de 7a 16 3e f5 38 11 3d db 94 e1 bd
       -0.09117668 0.14695308 0.03545471 -0.1101472

Mixer_Block.0.mlp_block_token_mixing_DynaMixerOperation.fc_out.weight f4 [66, 66]
000000 5f 71 19 3e c4 0b 68 3d bd 73 e9 bd 06 ec 05 be
       0.14984654 0.056651846 -0.113990285 -0.13078317
000010 65 91 4a 3d b3 1b 5d 3e a0 7e ce 3d 4e 11 68 3d
       0.049455065 0.21592598 0.100827456 0.056657128
000020 c1 86 95 bd 55 23 30 be da 34 b7 3a 86 ef 4e 3b
       -0.07301093 -0.17200978 0.0013977543 0.0031575873
000030 96 ff 32 3d 67 19 b3 3d 63 8f eb bc 36 a6 47 be
       0.043700777 0.087450795 -0.028754896 -0.19496998
000040 be 1c f0 bd ca 5c 20 be af 62 82 3e cb 1c 01 be
       -0.11724232 -0.15660396 0.25465915 -0.1260864
000050 5a 76 96 3e c0 1a 28 3d 5d 55 9c bd 3e e9 cf bb
       0.2938717 0.041041136 -0.07633469 -0.0063449433
000060 94 ed c9 bd 4f fa 5f be e2 5e 95 3e ff 7e b3 3e
       -0.098597676 -0.21872829 0.29173952 0.35057828
000070 4d 1d 86 bd ff 5e 09 3e 74 af df 3d fb cd 8e bd
       -0.065485574 0.13415144 0.10922137 -0.069728814
000080 36 db cb 3d 1a 93 b3 3e fe a4 01 3e 14 92 19 be
       0.099539205 0.35073167 0.12660596 -0.1499713
000090 26 87 1d be e8 72 b9 3d c1 f8 4d 3d fc 47 9f be
       -0.15383586 0.0905512 0.05028606 -0.31109607
0000a0 ec ad 81 3c 7d b1 dd bd c6 42 c3 3d 39 e1 d2 bd
       0.015830003 -0.10824869 0.095342204 -0.10296864
0000b0 b2 06 97 3c 9d 4e 50 3e c3 a0 71 3e 74 1b fe 3c
       0.01843581 0.20342489 0.23596482 0.03101895
0000c0 62 98 ce bd fa 9b 60 3e 23 42 e4 3c 71 30 cd 3d
       -0.100876585 0.219345 0.027863568 0.10019005
0000d0 06 8b 0e 3e 30 34 47 be 16 e8 c8 bd 80 bb fc bc
       0.1392022 -0.19453502 -0.09809892 -0.030851126
0000e0 6f 68 eb 3d 6a 52 b9 bb 96 a7 87 3e 8e 2d 81 3d
       0.114945285 -0.0056555765 0.26495045 0.06307517
0000f0 fe 65 89 3c 64 10 ba bd 16 e3 91 be e0 3e 13 be
       0.016772266 -0.090851575 -0.28493565 -0.14379454
000100 7c e8 27 3e 3e 11 a3 3c 1a 81 1b 3e 8a 39 76 3e
       0.1639728 0.019905683 0.15185967 0.24045387
000110 a6 ac 5c be a1 97 fd bd ad 82 99 be 78 73 88 3d
       -0.21550235 -0.123824365 -0.2998251 0.06662649
000120 c7 b7 8a 3d f8 d0 17 3e 67 2a 54 3e c7 df 00 be
       0.06773334 0.14825809 0.207193 -0.12585364
000130 28 ea 8e bd 4e 7e 0b be 1a d8 94 3d 6b b4 f7 3d
       -0.069782555 -0.136224 0.072677806 0.12094959
000140 81 c4 f4 3d 88 e0 45 be 79 cb ff bd bf 1c dd bc
       0.11951543 -0.19323933 -0.12489981 -0.026991246
000150 3a 02 46 be 54 63 19 be d5 c7 0a bc 3a 29 82 3e
       -0.19336787 -0.14979297 -0.008470495 0.25422078
000160 00 16 b8 bd cb 55 8a be 35 2a bb bd c9 8d 78 bd
       -0.08988571 -0.2701858 -0.0913891 -0.06068209
000170 1f ef 20 bd 2f 62 b3 be 55 d5 88 3e 2e 70 48 be
       -0.039290544 -0.35035846 0.2672526 -0.19574043
000180 21 be 2f 3d f9 78 9a bd b5 f8 a0 bd 89 60 97 3e
       0.04290593 -0.07542605 -0.07859937 0.29565838
000190 42 91 1c bd d0 9d e2 bd 32 f6 7c bd da b9 ef 3c
       -0.038224466 -0.110652566 -0.061758228 0.029263426
0001a0 a3 86 16 3e 0f 51 a0 3e 7a ea a3 3e ea 50 84 3c
       0.14699797 0.31311843 0.3201483 0.016151864
0001b0 f5 eb ae bc ff 22 82 3e 31 29 b0 3c b8 22 7a 3c
       -0.021352747 0.25417325 0.021504017 0.015267067
0001c0 10 d9 ca bd 65 24 55 3e 76 c8 86 bd 2f b9 3a be
       -0.09904683 0.20814665 -0.06581204 -0.18234704
0001d0 9a b9 18 3e d4 05 7e 3e 94 79 60 3e ab d2 a3 bd
       0.14914551 0.24806911 0.21921378 -0.07999166
0001e0 cc f8 dd bc ad 78 64 3e 49 91 97 3c 46 22 3e 3d
       -0.027096175 0.22311659 0.018501895 0.046419404
0001f0 d5 86 30 3e 76 60 6b bd df 95 48 bb ef 52 52 bc
       0.17238934 -0.05746504 -0.0030606908 -0.012837156
000200 f8 d5 da 3d 8a a3 92 bd 0b ec 33 3e b5 dc 0f 3d
       0.106853426 -0.07160099 0.17570512 0.035122592
000210 4f 14 12 3e 3b 3b 05 be fe b0 94 3c ae 32 32 be
       0.1426556 -0.13010876 0.018150803 -0.17402145
000220 b3 70 8e 3e 3f 88 43 be 85 16 d8 bc 84 b1 e7 bc
       0.27820358 -0.19094943 -0.026377926 -0.028282888
000230 b0 ce 67 bc 00 d9 c4 3d b7 be bc 3d f8 37 89 3d
       -0.014148399 0.09611702 0.092160635 0.06700128
000240 40 bf fa 3d 47 1a 09 3e a2 76 d4 3d aa 75 17 3d
       0.12243509 0.1338893 0.1037419 0.036977448
000250 23 a4 b4 3c d6 76 71 3e 47 72 a0 3d 5c dd 52 3e
       0.022050923 0.23580489 0.07834297 0.20592254
000260 55 01 bd bd 52 ab 89 3d 65 26 fa bd 04 ce ec bd
       -0.0922877 0.0672213 -0.122143544 -0.11562732
000270 01 85 30 bd 54 9d f1 3d 89 72 92 bd e3 92 a0 3d
       -0.043095592 0.11797586 -0.07150752 0.078405164
000280 32 21 fb bd 21 d8 d2 bd 37 35 c4 bd e5 60 f4 3d
       -0.12262191 -0.102951296 -0.095804624 0.11932544
000290 25 fa 39 bd e2 af 59 bc de 86 c8 bd dc e5 06 3d
       -0.045404572 -0.013286563 -0.09791349 0.032934055
0002a0 9b 34 00 be b1 f3 6d bd 1f 26 39 3d 50 c5 c9 bd
       -0.12520067 -0.05809373 0.04520237 -0.098520875
0002b0 af 2e b3 bd e2 db e2 3d a2 b5 09 3e a1 db 3f bd
       -0.087491386 0.110770956 0.13448194 -0.046840314
0002c0 28 ed 88 3d ba bb b9 3d 66 b9 d2 3e 9c e5 df 3c
       0.06685859 0.09069009 0.41157073 0.027331166
0002d0 6d bf 69 bc 49 db a3 bd 94 86 94 3c 2f bb cd 3c
       -0.014266831 -0.0800081 0.018130578 0.02511367
0002e0 f2 09 40 be 68 8d b3 bd 2d eb 41 bd 45 b1 d9 bd
       -0.18753794 -0.087672055 -0.04734342 -0.106295146
0002f0 98 db f0 bc 45 69 7b bd 03 3e ac 3d a6 1d 46 3e
       -0.029401585 -0.06137969 0.08410265 0.19347247
000300 c5 13 73 be 25 da 1a be d3 ca e6 bd f9 4d ad 3c
       -0.2373801 -0.15122278 -0.112691544 0.021155344
000310 45 5e 29 3d 6a 24 7b bd 95 97 a0 3e 9b 6b 06 be
       0.041349668 -0.061314024 0.31365648 -0.13126986
000320 cf b8 c1 3d ab b8 1e 3e 0f 6d 13 be df 08 4e 3d
       0.094590776 0.15500133 -0.14397071 0.05030143
000330 f7 7d 99 3d b1 90 48 3e 9c a2 03 bc 2a 83 7c 3e
       0.07494729 0.19586445 -0.008034375 0.2465941
000340 a2 da 21 be 7a 3d 0f be b3 e6 c7 3d 12 35 4f be
       -0.15806058 -0.13988295 0.09760799 -0.20235088
000350 3f 7b 86 3d 4f 23 d1 3d f6 68 ce ba a0 19 7c be
       0.06566476 0.10211813 -0.0015747834 -0.2461915
000360 14 65 e5 bd 2e 4d 8f be 89 bc 2b be de d5 1e 3d
       -0.1120092 -0.2798857 -0.16771139 0.03877818
000370 3e 18 58 3e 44 7d 8e be 2e 4d 8f be 22 c4 00 3e
       0.21102998 -0.27829945 -0.2798857 0.12574819
000380 fb 30 04 be a2 49 0c be f1 b3 d8 3d 22 fd 5b 3d
       -0.1290931 -0.13699964 0.10581196 0.053708203
000390 5b 5a e1 bd d3 73 6f be 4f 8b 0c 3c 98 64 b2 bd
       -0.11003562 -0.23384027 0.008578136 -0.08710593
0003a0 3d 2a 88 be 9b 8a 21 bb 55 9d 9e be e0 cb 4b be
       -0.26594725 -0.0024649266 -0.3097941 -0.19901991
0003b0 7e 44 e6 3d 59 f1 59 be 41 79 2e 3e f5 94 a2 3d
       0.112435326 -0.21283473 0.17038442 0.079385675
0003c0 c6 90 00 bd 02 d6 1e 3e ad 97 bf bc 9e 63 a5 3d
       -0.031388067 0.15511325 -0.023387754 0.08075641
0003d0 64 29 93 bd 68 fb 89 3d 1e d2 c4 3c ce 62 29 be
       -0.07185629 0.06737405 0.024025973 -0.16541597
0003e0 87 de 21 bc 36 0d a3 3c 8f 3b e2 3d b8 59 33 bd
       -0.009879715 0.01990376 0.11046516 -0.043786734
0003f0 d5 33 45 bc 79 b2 47 be 62 49 f1 bd 36 29 07 be
       -0.0120362835 -0.19501676 -0.11781575 -0.13199314

Mixer_Block.0.mlp_block_token_mixing_DynaMixerOperation.fc_out.bias f4 [66]
000000 4c 9c 93 3e 98 93 e9 be 71 78 65 3e fa 4d a7 3e
       0.28830183 -0.45620418 0.22409226 0.3267668
000010 1a 0d 21 bd 7a e9 95 be b8 bb 7c 3e 64 5e 60 be
       -0.039319135 -0.2927969 0.24680984 -0.21911007
000020 48 cd 3e 3d 17 f0 d2 be dc e3 3a bf 85 b9 f2 3d
       0.04658249 -0.411988 -0.73003936 0.11851791
000030 b9 35 38 3c ac 6f 89 3e 02 84 2c bd d2 23 13 be
       0.011243277 0.2684301 -0.04211808 -0.14369133
000040 66 40 40 be cf a1 9f bd f2 5b 3c 3d a7 fa 07 bf
       -0.18774566 -0.077945344 0.045986123 -0.5311684
000050 d3 0e c5 3e 49 85 a3 be 60 18 7f 3e cc 1b a4 be
       0.38487872 -0.31937626 0.24911642 -0.32052457
000060 9f 78 49 3e 15 a6 85 3d 1d e9 92 be 1e 27 3f 3e
       0.1967492 0.06525818 -0.28693476 0.18667266
000070 b6 e9 b3 be 53 7a a9 bd 3c 0e c4 3e d4 b8 46 3e
       -0.35139245 -0.082752846 0.3829211 0.19406444
000080 48 ac ec 3c 1f 20 d9 be 45 7b e5 bd 52 51 f3 3d
       0.028890744 -0.4240732 -0.112051524 0.11880745
000090 65 0d 86 3e d1 2b 9e 3e 9c b5 14 be c6 42 0e be
       0.26182094 0.30892804 -0.14522403 -0.1389266
0000a0 eb a7 01 3e 96 bc 61 bd 8e 64 00 be ce 7e 0e be
       0.12661712 -0.05511149 -0.12538359 -0.1391556
0000b0 36 06 04 bd 79 70 94 be db 7f fd bd 62 00 01 3c
       -0.032232486 -0.2899206 -0.12377902 0.007873626
0000c0 d5 e4 87 bd 2f d1 cd be b4 c4 0e be 95 20 0a bf
       -0.06635443 -0.40198657 -0.13942224 -0.53955966
0000d0 04 7f e9 3c 7f a7 c0 3e 3f 72 bb 3e 3b 3c c8 bd
       0.028502949 0.3762779 0.366106 -0.09777113
0000e0 6d d1 6d 3d eb 33 a1 3c 26 fb a7 be 4b fc e9 3e
       0.058061052 0.019678077 -0.328088 0.45700297
0000f0 04 6b 43 3e 09 cc 93 3d 78 c0 34 be 59 c2 94 be
       0.19083792 0.07216651 -0.17651546 -0.29054525
000100 be e0 3b 3e 61 5d 49 3c
       0.18347451 0.01229033

Mixer_Block.0.mlp_block_token_mixing_DynaMixerOperation.LN.weight f4 [10]
000000 f2 77 61 3f 01 13 23 3f 69 9f 40 3f 07 53 33 3f
       0.8807365 0.6370087 0.7524324 0.70048565
000010 b2 a5 5c 3f e3 ca 6d 3f 50 29 6f 3f d1 90 57 3f
       0.8619033 0.92887706 0.9342241 0.8420535
000020 b9 1f 6d 3f 26 7f 7d 3f
       0.9262653 0.9902214

Mixer_Block.0.mlp_block_token_mixing_DynaMixerOperation.LN.bias f4 [10]
000000 d9 e9 51 3e 7e 20 0b bd bf f3 31 3e d6 f3 55 be
       0.20499362 -0.033966534 0.17378138 -0.20893797
000010 2d 04 ac 3d 0d 7e 75 bd 72 70 d5 bc 0b 7a 1d be
       0.08399234 -0.059934665 -0.026054595 -0.15378587
000020 e6 e8 4d 3d be 7a 23 3d
       0.050270937 0.039911978

Mixer_Block.0.mlp_block_channel_mixing_DynaMixerOperation.fc_ND.weight f4 [1, 10]
000000 e6 59 2c bf 4a 0f ad 3e a5 9c 8c 3d db 6a a3 3d
       -0.67324674 0.33800727 0.06865815 0.079793654
000010 90 48 28 3d d3 15 0b 3d ed 12 2c bc f1 4d 63 3d
       0.041084826 0.03395636 -0.010502559 0.055494253
000020 11 32 db bd 52 92 56 bd
       -0.10702909 -0.052385636

Mixer_Block.0.mlp_block_channel_mixing_DynaMixerOperation.fc_Nd.weight f4 [484, 22]
000000 ef b7 58 3e 09 8a b1 bc c9 5d f4 bc 1b 3d 96 bd
       0.21163915 -0.021672266 -0.029829876 -0.07335874
000010 32 75 95 3e 17 27 8d bd 5f 25 52 3d 3d 83 19 3e
       0.29190975 -0.068922214 0.05130517 0.1499147
000020 53 cf 53 3e b0 d7 4e be ce d6 8d 3b 96 16 83 3e
       0.20684557 -0.20199466 0.004328585 0.2560317
000030 f5 55 91 bd 61 3e de bc 82 d7 4a 3e a6 f5 a5 be
       -0.07096473 -0.027129354 0.19808772 -0.32413977
000040 31 92 07 be 55 de b9 3e c3 31 a7 bd b3 8b 16 bd
       -0.13239361 0.36302438 -0.08163788 -0.03675432
000050 a1 12 5a be 60 b9 a9 3d 72 d5 7a 3e 3a c0 e8 bc
       -0.21296169 0.082873106 0.24495485 -0.028411973
000060 83 d5 c3 3c 24 d5 00 be 84 18 a1 3e 67 bd 8a be
       0.023905521 -0.12581307 0.31464016 -0.27097628
000070 29 29 87 3e 82 c5 c5 3d f1 d0 cd 3e 57 28 20 3d
       0.2639859 0.09656812 0.40198472 0.03910097
000080 0f c9 5f 3e 6d 22 63 bd cb 6e 71 bd ec b1 8d 3e
       0.21854042 -0.055452753 -0.05894355 0.27674806
000090 0c bc 7f 3d b3 14 a5 3e 16 c9 a2 be f9 47 a1 be
       0.062435195 0.32242355 -0.3179404 -0.31500223
0000a0 93 03 c1 3d 2e 6c fa bd 50 d9 a5 3e fd 92 ce be
       0.0942451 -0.12227665 0.3239236 -0.40346518
0000b0 07 93 df 3d ee 3a 86 3e 88 29 66 3e 65 f4 25 3e
       0.10916715 0.26216835 0.2247678 0.1620651
0000c0 07 bb 1c 3d ce c1 08 3c 6a 9b 3b 3d a4 c4 8b 3c
       0.0382643 0.008346988 0.04580251 0.017061539
0000d0 27 1a b5 3e 39 8e 5e 3e 2a 2b d9 bd 18 57 01 be
       0.35371515 0.21733941 -0.10603936 -0.1263088
0000e0 30 5b 24 bd 6c cc 71 3e 3f 27 0a 3e b8 3d 14 3c
       -0.040126026 0.23613137 0.13491534 0.009047918
0000f0 aa 7b 92 3e a1 6a 84 3e 5a c3 75 3e 4e c4 8d 3c
       0.28609973 0.258626 0.24000302 0.01730552
000100 be d5 3d be 95 49 5d be f0 58 55 be 0a 76 32 be
       -0.18538567 -0.216101 -0.20834708 -0.17427841
000110 d4 63 9c 3e 57 99 2c be 95 ca 43 be aa bd 8e 3e
       0.30544913 -0.1685537 -0.19120248 0.27879077
000120 12 62 1c 3d d4 68 a4 bd d2 a1 b7 bd f7 8a 3f 3e
       0.038179465 -0.08027807 -0.08966412 0.18705355
000130 ec 70 57 be 22 43 c8 3d f7 af 48 3d d1 1a a0 3e
       -0.2103917 0.097784296 0.04899594 0.3127046
000140 bc 21 0f bd 8d bd 90 3e 0e 69 87 3e 96 d5 05 be
       -0.03494428 0.28269616 0.26447338 -0.13069758
000150 ff 07 05 3e 9c 3f 10 3e 5a 26 6b be 63 8a ed be
       0.12991332 0.14086765 -0.22963849 -0.46394643
000160 c7 ab b9 3e 36 2b cc 3e aa 61 1c be 9f b7 49 3d
       0.36263868 0.39876717 -0.15271631 0.04924738
000170 3f e9 ee bd ad 43 51 bb 4d 89 af 3e 3a 31 22 be
       -0.11665582 -0.0031931207 0.3428444 -0.15839091
000180 75 b7 46 3e 32 b5 82 3d 9a 72 47 3e cb f1 d9 be
       0.19405921 0.063822165 0.19477311 -0.42567286
000190 78 e3 19 3c a7 17 11 bd e2 ae 80 3c f0 e9 e2 bc
       0.009392612 -0.035422947 0.01570839 -0.02769944
0001a0 e7 34 81 be 8a 99 1d 3e 33 b4 b9 be 43 f4 d9 bd
       -0.25235674 0.15390602 -0.36270294 -0.10642292
0001b0 9e a9 87 3b f2 8d ea 3e 50 7d 4c 3e 81 37 2b be
       0.004140093 0.4581142 0.19969678 -0.16720392
0001c0 9d 23 63 bd b9 63 f8 3c ee f1 2d 3e 76 23 8f 3d
       -0.055453885 0.030320989 0.1698682 0.069891855
0001d0 75 be d2 bd ef e9 8d 3d 58 2b 10 3e e2 38 2a be
       -0.10290233 0.06929385 0.14079034 -0.16623262
0001e0 b8 f6 91 3e 8d ad a1 3e 63 13 72 3d 7c 3c 3f be
       0.28508544 0.3157772 0.05910052 -0.18675417
0001f0 a0 f1 a7 bc 11 3e 04 be 40 d1 f6 bd 18 c5 49 3e
       -0.020500958 -0.12914301 -0.1205163 0.19704092
000200 34 cf 94 3e a8 06 8b 3d 4d 57 ef bd e0 97 8b 3e
       0.29064333 0.06788379 -0.11686573 0.2726431
000210 9c 79 47 3e f3 a8 ee be b4 25 8c 3d 4d fd c5 3e
       0.19479984 -0.46613273 0.06843129 0.38669816
000220 6a 98 79 be d8 08 f4 3d ac 22 f6 bc ee 49 77 3d
       -0.24374548 0.11915749 -0.03004583 0.06037324
000230 d2 44 83 bd d0 67 1e 3e e1 a4 8f bd ce 15 c3 be
       -0.06409611 0.15469289 -0.0701387 -0.38102573
000240 dd 26 a1 3e 8f ba 4d bd 10 c0 cd 3d dc 57 40 be
       0.31474963 -0.050226744 0.10046399 -0.18783516
000250 89 92 7e be c1 d4 e9 be 50 f1 02 be 17 52 ab 3e
       -0.24860586 -0.4567013 -0.12787366 0.33461067
000260 cb 92 42 3d e2 2f 18 be d2 19 ee bd 20 65 1c bd
       0.047503274 -0.14862016 -0.116260186 -0.038182378
000270 de 2b 05 3c 0f f0 f4 bc 5f f4 bc 3b 33 28 0b 3d
       0.0081281345 -0.029899625 0.005766436 0.033973884
000280 e1 08 89 bd b4 39 57 3e b6 86 6d 3d 70 fb 39 bd
       -0.06691147 0.21018106 0.0579898 -0.045405805
000290 14 28 f7 3a 6a a2 82 bc e8 1a 6b bd 1e c2 32 3e
       0.0018856549 -0.015946586 -0.057398707 0.17456862
0002a0 cb 92 c2 3e e4 21 6e be 5f 03 9d 3e 40 c6 bd be
       0.3800262 -0.23255116 0.30666634 -0.37065315
0002b0 8a 43 56 be 51 c7 4f 3e c6 64 c3 bd 7e 28 65 3e
       -0.20924202 0.20290877 -0.095407054 0.22378728
0002c0 dd 1b 84 3e 9a 28 a0 bd 24 61 02 be 6c 7a e0 bd
       0.25802508 -0.07820244 -0.12732369 -0.1096085
0002d0 93 ef 25 3d 43 04 f7 bd dd 1f 6c be b3 4a 70 bd
       0.04051168 -0.1206136 -0.2305903 -0.05866499
0002e0 c2 d8 c2 3d a4 10 d4 3e dc c7 8d be b2 71 ad 3e
       0.095139995 0.41418946 -0.27691543 0.33875805
0002f0 5b 95 7d 3e b9 3b d2 be 0d b0 8f 3d dd d5 cf 3e
       0.24764006 -0.4106119 0.07016001 0.40592852
000300 0a d6 3c be e6 4e a6 3d 6f ef 67 3e 17 e4 2b 3e
       -0.18441024 0.081205174 0.2264993 0.16786228
000310 59 db c9 3d 03 7f 43 3e ef 1b 40 be 48 d7 d1 3d
       0.0985629 0.1909142 -0.18760656 0.1024614
000320 d0 ca 23 3e 81 2e 91 3e 2e fc d8 bd ca 53 9d be
       0.15995336 0.28355792 -0.105949745 -0.30727988
000330 6d 8c bf bb 2f a5 0e be e8 8a 9a 3d 8f b0 b4 be
       -0.0058455975 -0.139302 0.075460255 -0.35290954
000340 69 35 d0 3e b7 3b aa 3d 0d f7 0c 3e 7e 33 74 3e
       0.4066575 0.08312171 0.13766117 0.23847768
000350 a1 22 9e 3c 2c b2 62 bd d0 3a e7 3d 91 a0 59 bd
       0.019303622 -0.0553457 0.112905145 -0.053131644
000360 71 21 b7 bd 01 ba 03 3e df 8e 34 be e9 30 9d 3e
       -0.08941925 0.12863924 -0.17632626 0.30701378
000370 ae aa b2 3e d9 e5 d4 be 65 94 f0 3d ae 42 8d bd
       0.34895843 -0.4158161 0.11747054 -0.06897484
000380 20 e7 97 3b 7d 12 99 3e a4 ae 30 bd 0b 12 cc 3c
       0.0046357065 0.29896918 -0.0431353 0.024910947
000390 17 8d 74 bd b5 ae f2 be 3b cf 6c be fa 4c 02 3c
       -0.059704866 -0.47398916 -0.23125927 0.007952923
0003a0 af 16 d8 bd 72 3a c6 3d 06 fd 50 be 02 e4 a1 3e
       -0.105512016 0.09679116 -0.20409021 0.3161927
0003b0 29 6e 9c 3e db 72 a8 be 11 8e 9a 3d da 31 15 bf
       0.30552796 -0.32900128 0.07546628 -0.5827919
0003c0 e4 57 71 be e3 73 86 be 24 5b fb bc 3d d1 da bd
       -0.23568684 -0.2626029 -0.030683108 -0.1068444
0003d0 a4 ec 58 be 84 9d a8 3e bd 03 13 bf 94 2c 90 3e
       -0.21184021 0.32932675 -0.5742758 0.2815901
0003e0 12 91 0c 3e 80 6e 3a 3b cd 7c 5c be 86 af c0 bd
       0.13727215 0.002844721 -0.21531983 -0.094084784
0003f0 7e ba 05 3c 52 28 d0 3d f0 59 24 3e 66 1c 0b bd
       0.008162139 0.101639405 0.16049933 -0.03396263

Mixer_Block.0.mlp_block_channel_mixing_DynaMixerOperation.fc_Nd.bias f4 [484]
000000 17 bb fa bd 13 51 ce 3e 40 b8 4f be 90 1a 52 be
       -0.12242716 0.4029623 -0.2028513 -0.20517945
000010 9b 0c dc 3d 62 e6 cf 3e a4 03 5b 3d c9 c7 16 3e
       0.10744592 0.40605456 0.05347027 0.1472465
000020 0f d3 f1 bd ee c5 d2 3c 6e 27 a9 be 90 d9 14 be
       -0.11807834 0.025729146 -0.33037895 -0.14536119
000030 c3 a6 65 bd fb 1c 9f be cd 34 55 3e 56 a8 63 3e
       -0.05606724 -0.31076798 0.20820923 0.22232184
000040 84 52 e7 bd 6f 15 20 be 3d 26 8a 3e 83 ed 9b 3d
       -0.112950355 -0.15633176 0.26982298 0.07613661
000050 05 aa 34 3e 16 6c 75 be bb 97 5d bd 7e c3 5f 3d
       0.17642982 -0.23967013 -0.05409978 0.054629795
000060 37 89 b3 be 4a 89 4a be 52 dc b6 3d c0 59 89 3e
       -0.35065624 -0.19778934 0.089287415 0.26826286
000070 c2 18 6a be 61 0b a4 3c 10 c9 8f 3e 54 97 5d 3e
       -0.22861007 0.020024957 0.28083086 0.21639758
000080 56 b8 82 be 03 dd 9c 3d 9f 87 b2 3e d6 d7 55 be
       -0.25531262 0.07659342 0.34869096 -0.20883116
000090 3d 8e 81 3e fb e1 21 bb 0e 80 af be 27 1a 9f be
       0.25303832 -0.0024701345 -0.34277385 -0.3107464
0000a0 63 2a ba bd ce 9d c9 3e 64 4c 93 3e 4e cf 98 be
       -0.09090116 0.39378208 0.2876922 -0.2984566
0000b0 6b 6c 12 3e 14 be 0b be c7 37 02 3e 7b 81 3a be
       0.1429917 -0.13646728 0.1271659 -0.18213455
0000c0 6f c8 48 be d9 0e f7 3d ab 39 3b 3e 45 56 05 be
       -0.1960771 0.12063379 0.18283717 -0.1302119
0000d0 d8 dd 75 bd b9 fa d8 3d 07 58 4f 3e a1 be 92 bd
       -0.06002602 0.105946966 0.20248424 -0.07165266
0000e0 f7 94 4b 3e b6 9c 1d 3c ca c9 5d be f9 cf 71 3e
       0.19881044 0.009619882 -0.21659008 0.23614492
0000f0 b9 77 1e bd b4 1f 83 bc 54 aa 56 be 3d 50 1b be
       -0.038688395 -0.016006328 -0.20963413 -0.15167327
000100 fb d9 75 be 50 03 6a 3e 7f fe 32 be 5b a1 04 be
       -0.24008934 0.22852826 -0.17479895 -0.12952177
000110 cd 9a 29 be d1 29 b2 3d f8 ed ae bd 87 fd 5d 3e
       -0.16562958 0.08699382 -0.08541483 0.21678744
000120 4f 5f fc 3d c6 d8 8f bd 7c 0c 9c 3e 7d a9 3f be
       0.12322866 -0.07023768 0.30478275 -0.18716998
000130 1e 43 75 be 4e 01 8a be 1b 9a 40 3e 5a 1c 58 be
       -0.23951384 -0.2695412 0.18808787 -0.21104565
000140 9b 3f 8a bc a7 97 49 be d3 7b 95 be 43 ff d9 bd
       -0.016876033 -0.19686757 -0.29196033 -0.106443904
000150 7b e6 85 be 5a 8f a1 3b f6 93 a9 3e 2e 61 c4 3d
       -0.26152405 0.004930419 0.33120698 0.09588848
000160 76 5f 6d be b4 84 00 3e 05 a7 b4 bd ee 9c 7c bd
       -0.23180947 0.12550622 -0.08820919 -0.061673097
000170 a1 42 92 be 71 61 56 3e cd e3 44 3e db ac 69 3d
       -0.2856646 0.20935608 0.19227524 0.057049613
000180 fd aa 81 3e eb 90 7a 3e 02 86 c9 bc e6 59 02 be
       0.25325766 0.24469344 -0.024600033 -0.12729606
000190 4f ec 2b 3e 7d 37 48 3d 08 be f0 3b 2e 61 53 be
       0.16789363 0.048881043 0.0073468722 -0.2064254
0001a0 ce 29 5c be e9 e8 1b 3e 53 76 ce 3c 50 de bd 3e
       -0.21500322 0.15225567 0.025202906 0.37083673
0001b0 ea 55 a0 be 49 2a 6c be 1a 6c 08 be 49 d1 2b bd
       -0.31315547 -0.23063006 -0.13322487 -0.041947637
0001c0 bb 4e 1e 3d 85 df f5 3d 6d 74 8f be ea b8 54 bc
       0.038649302 0.120055236 -0.28018513 -0.01298354
0001d0 e1 16 ff bd 29 e4 7d be 31 8d 06 bd f5 03 ec 3e
       -0.12455536 -0.24794067 -0.032849494 0.4609677
0001e0 9f 97 0f bc ed 01 62 be e4 16 5c bc b1 7b 91 bd
       -0.008764177 -0.22071047 -0.013433192 -0.071036704
0001f0 3c b5 87 bd 24 c0 36 be d7 60 64 3e 57 5e 01 3e
       -0.066263646 -0.17846733 0.22302566 0.12633644
000200 a9 d7 02 be 7b fd 6b 3d 0d 25 16 3e a4 3f c9 bd
       -0.1277758 0.057614785 0.14662571 -0.098265916
000210 23 77 af 3b 1d 21 b8 3d 6a aa cb bc 3c c0 2e be
       0.0053547784 0.08990691 -0.024861533 -0.17065519
000220 e7 4a 7c bd 92 fe 74 3d 2c 02 d4 3d 5d 4a 2c 3e
       -0.06159487 0.05981309 0.10351977 0.16825242
000230 33 4b 8a 3d d6 3c 1c 3e 5a 6f 47 3e 58 e7 b1 3d
       0.06752624 0.15257582 0.19476071 0.086867034
000240 1f 93 7d bb de 85 8c bd f4 81 82 3c 69 33 c9 bd
       -0.0038692427 -0.06861471 0.015931107 -0.09824259
000250 e0 1a 3a 3d e3 3f 4c 3e 43 5d 9e 3e 5d 77 50 3d
       0.045435786 0.19946246 0.30930528 0.050895084
000260 06 48 86 3e d5 a2 36 3e 35 ff f5 3d 3d 33 77 bd
       0.26226825 0.17835553 0.120115675 -0.0603516
000270 27 dd 8e bd dc 1c 1c 3d 6b a0 93 3e 5e b7 01 3e
       -0.06975775 0.03811346 0.28833327 0.12667605
000280 7b d0 88 3d 2e 0b 03 be 13 53 8b 3d e9 3e b9 3d
       0.066803895 -0.12797233 0.068029545 0.09045202
000290 1e aa 86 be 00 6a c9 3d 81 11 8f 3e e4 3a fa bd
       -0.26301664 0.09834671 0.27943042 -0.12218264
0002a0 26 6d 86 3e d2 e0 fe bc d3 6e 88 bd 3b c6 08 be
       0.2625515 -0.031113062 -0.06661763 -0.13356869
0002b0 14 42 f0 bd 0d 6b ee 3b cf 2f cb bd 3c 31 79 be
       -0.117313534 0.007275945 -0.09921228 -0.24335188
0002c0 73 22 45 3d c9 86 71 be 64 c1 27 3e 19 28 94 bd
       0.048128556 -0.23586573 0.16382366 -0.072342105
0002d0 cc e4 b6 3d d5 c6 03 3d 0f 79 e1 3e db 42 0a 3d
       0.08930358 0.032172043 0.44037673 0.033755165
0002e0 7f 5e 4d be 83 ee 10 3e 5f 7a 25 3e 2a f8 92 3c
       -0.20055579 0.14153485 0.16159962 0.0179406
0002f0 46 8c e6 bd 10 f8 9b 3e 73 bd b7 3c 50 61 a9 be
       -0.11257224 0.30462694 0.022429204 -0.33082056
000300 f3 c8 99 3e c4 43 b8 3d 15 1d 9a bd 98 a8 ca bd
       0.30036125 0.089973 -0.07525078 -0.09895438
000310 34 87 0b bb 01 9b c7 3e 72 9a 3a be 2e 6a 20 be
       -0.0021290304 0.38985446 -0.18222979 -0.15665504
000320 14 3a c3 be c8 b0 65 3d 62 a4 20 3d 35 55 f0 3d
       -0.38130248 0.056076795 0.039219268 0.11735002
000330 c7 e6 43 bc 61 36 4f be 72 3d 39 be d0 65 5c bd
       -0.011956877 -0.20235588 -0.18089846 -0.053808033
000340 33 51 b6 3e ee 69 33 be 0e fa e7 3c c2 70 82 be
       0.35608825 -0.17520878 0.028317478 -0.25476652
000350 eb e6 f6 bd 39 d5 05 3e 74 cc 24 3d de 1a 4b 3d
       -0.12055763 0.13069619 0.040234044 0.04958617
000360 9f 23 2c be cc f6 c3 be b7 28 87 be b1 89 8c 3e
       -0.16810463 -0.3827423 -0.2639825 0.274488
000370 ba 5f 97 3e ff d6 3e bd 7f f9 19 3e 17 eb ad 3c
       0.2956522 -0.046591755 0.15036581 0.021230264
000380 ef 3b 27 3d 4a 45 39 be d4 1a 8c 3e 8a 74 76 bd
       0.04082864 -0.18092838 0.27364218 -0.060169734
000390 96 84 54 3e 93 b2 76 be d7 9f ff 3d a4 8a 39 3d
       0.20753703 -0.24091558 0.12481659 0.045298234
0003a0 3f 9b 1a 3e a1 92 1e 3a 5f 33 df bd b1 f9 1f be
       0.15098284 0.0006049071 -0.1089847 -0.15622593
0003b0 d8 bc fa bd ae 2c 87 be d0 e5 2f be d4 0b 2b be
       -0.1224305 -0.26401275 -0.1717751 -0.16703731
0003c0 93 1f 96 3e b3 2c 3d be ca a8 29 3e 8b 73 b8 bc
       0.29320964 -0.18474083 0.16568294 -0.022516033
0003d0 96 85 07 be 25 4d 02 be 31 02 36 bc 8a ca b4 3d
       -0.13234553 -0.12724741 -0.011108921 0.08827694
0003e0 8c 12 e5 bd 2b 75 d2 3d aa de 27 3e b6 ec 08 be
       -0.11185178 0.10276254 0.16393533 -0.13371548
0003f0 8c 1f d5 be fd 66 2f be 3d d6 69 3d 6c 2a d6 bd
       -0.4162563 -0.1712913 0.05708908 -0.1045731

Mixer_Block.0.mlp_block_channel_mixing_DynaMixerOperation.fc_out.weight f4 [10, 10]
000000 0e b1 e5 3d d6 0e 7d bc 8c 71 03 bd 66 32 51 be
       0.11215411 -0.015445432 -0.03209071 -0.20429382
000010 94 6f 4e be d9 1a 9f be 41 ff 27 be 8c 85 c3 be
       -0.20159751 -0.3107517 -0.16405965 -0.38187826
000020 6e 1d 83 be 22 be 5e bd 1b 35 2c 3e 51 55 96 bd
       -0.2560839 -0.054380544 0.16817133 -0.073404916
000030 b6 a9 5a bd 45 3a 46 be 53 e9 42 bd 14 67 1a be
       -0.053384505 -0.19358166 -0.047585797 -0.15078384
000040 e2 65 cb bc 3b 10 66 be 12 f7 c0 3d 32 df f0 3d
       -0.024828855 -0.22467129 0.09422125 0.11761321
000050 db 9e ea be 7f 6d d3 be d7 c1 0e 3a b4 21 ef bd
       -0.45824322 -0.41294476 0.00054457545 -0.1167635
000060 b4 69 9c 3d b2 30 99 3c c4 64 f3 3d e1 78 22 3d
       0.07637349 0.018699978 0.11884454 0.03966606
000070 01 be 85 3d 9f bb 74 bc df dc 0a bf f9 96 a7 3e
       0.06530381 -0.0149373105 -0.5424327 0.3273237
000080 a2 0f 3d bd ea 99 3b 3e 4d d7 a9 bd 26 22 0d 3d
       -0.046157487 0.18320432 -0.082930185 0.034456395
000090 9c d4 3d be da f6 96 3e 33 69 76 be 2a 59 a7 3d
       -0.18538135 0.29485208 -0.24063568 0.081713036
0000a0 6c 5b 2e be b4 19 c3 3e 81 4f d3 3d 55 7d 99 3e
       -0.17027062 0.38105547 0.103178985 0.29978433
0000b0 01 a5 16 3d 88 62 1f bd 92 ef a8 bd 40 96 4a 3e
       0.036778454 -0.038912326 -0.082488194 0.19783878
0000c0 b9 62 13 bc cf 67 92 3d 2b 44 2d 3f ec 6b d1 be
       -0.008995705 0.07148706 0.6768214 -0.4090265
0000d0 bf c7 a6 3e d5 6f 5b ba 5f d4 1b 3e 28 ad 86 3c
       0.3257427 -0.0008370851 0.15217732 0.01643999
0000e0 5f 8c 4f 3e 0d 0e 83 bd 3b 2f fa bc e0 ac 39 be
       0.20268391 -0.06399164 -0.0305401 -0.18132353
0000f0 e9 c1 69 bf fe c1 84 3e 9b 3e 57 3d 98 3b f6 bd
       -0.9131151 0.25929254 0.05254994 -0.12023085
000100 d9 79 bb bc 76 bc d7 bc da c7 14 3e 6b ae 20 be
       -0.02288525 -0.026334982 0.14529362 -0.15691535
000110 48 7b 02 3e 0a be 0b 3c 55 82 ea bd a0 8f 1d 3e
       0.1274234 0.008529196 -0.1145064 0.1538682
000120 67 67 88 3e 7c 07 97 3d f7 fb 7a 3e 46 5c ee 3d
       0.2664139 0.073744744 0.2451018 0.116386935
000130 b2 71 f9 3d c0 13 8b 3d cb dc 14 3e 5f bb 2c 3e
       0.12179889 0.067908764 0.14537351 0.16868351
000140 c1 50 1f bf 1a 7f 96 3e ab 4d 31 be 4a f1 4c 3c
       -0.62232596 0.29393846 -0.17314784 0.0125087
000150 df 91 5f be 31 50 3f be e5 3a 4a be d2 b5 55 be
       -0.21832989 -0.18682934 -0.19749029 -0.2087014
000160 a4 bb 3b bd 14 16 6c be c1 2f 1f bf d4 c0 28 3e
       -0.045833245 -0.23055297 -0.6218224 0.16479808
000170 a5 33 c2 bd fb 54 6d 3e 25 88 07 3e bd 0c 78 3e
       -0.09482507 0.23176949 0.13235529 0.2422361
000180 07 6a 6a 3c a3 43 66 3e e2 9f 85 bd a1 98 44 3e
       0.014307505 0.22486739 -0.06524636 0.19198848

Mixer_Block.0.mlp_block_channel_mixing_DynaMixerOperation.fc_out.bias f4 [10]
000000 44 4a 1b bf 3a 52 01 bf a2 06 89 3e 8f b4 1c bd
       -0.60660195 -0.5051609 0.26762873 -0.03825813
000010 de 58 3a 3e 63 aa d5 be 84 f0 be 3e e5 49 cb be
       0.18197963 -0.41731557 0.37292874 -0.39704815
000020 0e 1d dd be bb 01 c6 bd
       -0.4318623 -0.09668299
