M_2_AST/MotionMixer-main/h36m/run_for_longging/exp213/model.pt (torch, 870893 bytes, 184 tensors)

Mixer_Block.0.mlp_block_token_mixing.fc1.weight f4 [20, 10]
00000000: 9254 f13d aa86 edbe 7697 0ebd 8847 c5be
00000010: e8f1 2bbe f0d2 49bf c722 26be b2ea 583f
00000020: 67b8 ab3e d779 823e 6184 c9be 58de a93e
00000030: dc2e 0fbf 4daa 253f d285 38be 54f1 7ebd
00000040: 422f 913e 6d36 c5be 3020 e93d 3d18 253e
00000050: f7dd 3fbe 6b11 563e ff07 d8be 52ef 973d
00000060: 5d4c 51be 3e36 84be 35e6 ffbe ac41 f83e
00000070: c838 6c3f 6b5c c0bd 4d49 aebd c258 55be
00000080: 2da9 3cbf 7d02 f63d 8ead 56be 0a10 103e
00000090: 5e5f 4b3e ed9b fb3e 8d21 913d 15ee 403f
000000a0: 2fa5 a23e 325d 71be 9ca0 c3be b14e d0bc
000000b0: 2e80 703f 62d2 cfbe 2fa6 5fbf 9411 133e
000000c0: c626 a9be ea0b f03e fbc8 d13b 7f53 f83e
000000d0: e5dd 883d 2199 923d 519a 8ebe 528f 6f3e
000000e0: 38c6 a83c 4b7e ce3a ef81 88bf 16b7 b4bb
000000f0: 820e bcbe aee3 c53e d268 bfbe c337 a03e
00000100: 8e26 2cbc ba17 143d 1726 e0be d58b ce3e
00000110: 9d13 f2be e9e2 d63e 4937 b2be d347 013f
00000120: 11d2 763d ebd0 553e 8ad6 653d b1c7 753f
00000130: d8f7 b1be 6723 b5be 4bfe 093e b3f5 01bf
00000140: d69d a53e da98 27bf 5806 9f3e 585b ce3d
00000150: fbbc cf3e f999 3e3d d9d9 be3e f4d0 58bc
00000160: 06f7 1b3f 757c a03e 3a3a 433e c1a0 a33e
00000170: ec57 b43e f8ad c33e 0bc4 9a3e 3315 1cbf
00000180: 17a0 14bd e299 e4be 16de 68bf c03d 483c
00000190: f121 5bbd 95e0 08bf b779 8f3e 9167 80be
000001a0: 30a1 293f 5620 a5be 589e 823e e9c7 0fbf
000001b0: 23be ea3d 7583 d7bb 16c3 b7be d288 91be
000001c0: b28a 95be 21bb d4bd fd32 c43e 3edb 163f
000001d0: 332d 943e 5021 773e d959 7b3f 852e 56be
000001e0: 6244 7bbe c00e ac3e bd55 52be d3dc e53e
000001f0: 1338 e0be bcfb 813e 56bb bfbe 19b4 1e3f
00000200: eb3b 74be 855d fe3d 1c05 883e 057f eb3e
00000210: 279b 0c3f 892b 7f3e e81c 46bf 2683 b9be
00000220: 9048 b4be f5f1 bfbe 107a 1dbe 46d2 78be
00000230: 3155 993d 99a8 a93e 04b8 dcbd 2cf5 753e
00000240: d3f8 0fbf fb0d d43e 61fa cbbe 57cc fb3e
00000250: 8d38 27bf 1571 d23e 7d47 f33e ef04 ecbd
00000260: 893d d73e 6a6b f3be 4080 a83e c472 74bd
00000270: b53e 0a3e 9822 c2be 58e5 c33e 3964 29bf
00000280: ff0a e23b 32d7 62be 67ad fe3e dd05 0abf
00000290: bcea b13d c7d4 dc3e d103 d13e 18a7 e3be
000002a0: 4507 2cbf f352 a8be 80c1 cfbd 35dc 2d3e
000002b0: 128b 813e 0419 82bc e356 8cbf 58b7 08be
000002c0: 347b e73e 7c2d fdbe 44e6 843e 2425 813d
000002d0: f779 523e fd9e 93be d1f6 af3e bde0 fabd
000002e0: 398e 393e 86a8 f7be 80c1 a23e dbbe 06bf
000002f0: 2784 553f c8d3 c6be dd67 003f 2c33 4abe
00000300: 29a4 ca3e 9b0a d1bc b868 993e 9047 233e
00000310: 6bf0 a23e 70e6 283e a2f3 93be acc8 bd3e
0.11783709 -0.46391803 -0.034812413 -0.38531137 -0.16791499 -0.7883749 -0.16224204 0.84733117
0.33539125 0.2548358 -0.3935881 0.33177447 -0.55930877 0.64712983 -0.18019798 -0.062241867
0.28356367 -0.38518086 0.113830924 0.16122527 -0.18737017 0.20905082 -0.421936 0.074186936
-0.20439287 -0.25822634 -0.49980322 0.48487604 0.9227414 -0.09392627 -0.08510075 -0.2083464
-0.7369564 0.12012193 -0.20964643 0.14068618 0.19860598 0.491424 0.070864774 0.75363284
0.3176665 -0.23570707 -0.38208473 -0.025428148 0.93945587 -0.40590197 -0.8736295 0.14362174
-0.33037394 0.4688409 0.0064021326 0.48501202 0.06682948 0.07158113 -0.2785211 0.23394516
0.02060233 0.0015754191 -1.0664653 -0.0055149896 -0.3672982 0.38650268 -0.3738466 0.31292543
-0.010507239 0.03615544 -0.4377906 0.40341058 -0.4728059 0.41969994 -0.34807804 0.5050022
0.06025893 0.20880477 0.056112804 0.9600783 -0.34759402 -0.35378572 0.13475911 -0.5076553
0.32346982 -0.6546761 0.31059527 0.10076016 0.40573868 0.04653356 0.3727558 -0.013233412
0.609238 0.31344953 0.1906518 0.31958583 0.3522333 0.38218665 0.30227694 -0.6096985
-0.036285486 -0.44648653 -0.90963876 0.012221754 -0.053499166 -0.53467685 0.2802255 -0.25079015
0.6626158 -0.32251233 0.25511432 -0.56164414 0.11462047 -0.00657695 -0.35891026 -0.28424698
-0.2920738 -0.103872545 0.3832015 0.5892829 0.28940734 0.24133801 0.9818397 -0.20916183
-0.24537805 0.33605003 -0.20540519 0.44895038 -0.4379278 0.2538737 -0.37447613 0.6199356
-0.23850982 0.12420181 0.26566398 0.45995346 0.54924244 0.24918951 -0.7738786 -0.3623287
-0.3521161 -0.37489286 -0.15378594 -0.24298963 0.07486952 0.33136442 -0.10777286 0.24019307
-0.5623905 0.41416916 -0.3983946 0.49179336 -0.65320665 0.411019 0.4751548 -0.115243785
0.42039135 -0.47542888 0.32910347 -0.05967976 0.13500483 -0.37917018 0.38260913 -0.6616855
0.0068982835 -0.22152403 0.4974167 -0.53915197 0.0868735 0.43131086 0.40823224 -0.4446342
-0.6719859 -0.32875785 -0.10144329 0.16978534 0.25301415 -0.015881069 -1.0964016 -0.1335119
0.45211184 -0.49448764 0.2595693 0.06305912 0.20554338 -0.28832236 0.34367993 -0.12249897
0.1812066 -0.4837076 0.31788254 -0.5263497 0.83404773 -0.3883345 0.5015848 -0.19746083
0.3957837 -0.025517752 0.29962707 0.15945268 0.3182405 0.16494155 -0.28896815 0.37067163

Mixer_Block.0.mlp_block_token_mixing.fc1.bias f4 [20]
00000000: 3652 ed3e ddf3 063f 8181 a53e e530 e23e
00000010: b5eb 213f fc46 143f 48e3 093f ec86 033f
00000020: 2bcd d63d 2557 c53e 306c b33e 9f63 1a3f
00000030: 0189 073f 339d 8b3e d381 033f 71b5 0c3f
00000040: a4a1 bf3e fc79 3a3f 8e9e fa3e 2418 e43e
0.46351784 0.52715856 0.32325366 0.4417793 0.63250285 0.57920814 0.5386243 0.5137775
0.104883514 0.38543049 0.35043478 0.6030826 0.52943426 0.2726837 0.5136997 0.5496436
0.3742801 0.72842383 0.48949093 0.44549668

Mixer_Block.0.mlp_block_token_mixing.fc2.weight f4 [10, 20]
00000000: 3aa1 b43e 39a2 91bd 3852 98be 28bd 43bd
00000010: c6b2 a73d 0549 893d 5dd3 a33d e68b e3bc
00000020: 51dc d53d 9ebb b33e d8b4 e33e 5062 0dbe
00000030: abb5 cdbe 8d5f 7a3e 9e0d b6be f01f 9dbd
00000040: 0e6b c73e 8b3b c13d 9b1d 273e 255f 87be
00000050: abc6 d5bc 9785 2a3f 7e69 91be 1063 3a3e
00000060: a9a1 03be d7a6 fabd c367 0f3f 1848 0c3e
00000070: 7576 853d d1a3 bb3d ff50 9e3e 9b4f c33e
00000080: da8a 6f3d 14f0 e5be bcd1 afbe 2168 03bf
00000090: 1ad3 043e 7963 e03c 479b d83b cb9c 1ebf
000000a0: c867 1cbd 70c3 f0bd c284 9cbd 39f7 0a3f
000000b0: f52f a03e d907 98be 17c1 56be 6a25 88be
000000c0: 82f6 053f 9769 c0be 45a7 033e c31e 453f
000000d0: 09e1 9cbe 0f7e 5bbf 893b 51be 857a 083e
000000e0: 44ed 273d 7060 15bf e0c2 77bd 89ea 213f
000000f0: ac27 ff3c 1bfc c0be d90d 8d3e 1551 e03e
00000100: 401c 9cbe 930d 493e cada acbd d39c f73e
00000110: 6c71 86be cfe0 2dbf 52aa 1fbf 7674 bc3e
00000120: df2e 0a3e 21c9 b8be c924 be3e 5e5d 49be
00000130: 002b 3a3e 4355 2d3e de53 44bf e5a6 793c
00000140: a6a6 043e df40 26be c4ca 6bbe 1a02 bd3e
00000150: 98dc 96bf 1402 00be 6ffe 11bf cc48 ffbe
00000160: 04ae d23e f855 ecbe be94 bfbd e021 523e
00000170: 20d4 9d3e 5004 fe3e 5e2e ae3e 0320 e3bc
00000180: 0530 003e 2bf4 893f 3d37 083f a705 293e
00000190: 0bf7 cf3e ca61 8b3e 23ec 403f ce8b 943e
000001a0: cffe 923e 9b91 a03c f656 4f3f 95c3 19bf
000001b0: e89a 04be 8a84 e63c 661a 1abf f85e 91be
000001c0: f243 6b3f 3594 663e 9d41 2f3f 8b2c 45bf
000001d0: 17be 80bf 0678 1dbe cb87 91be 2aab 223d
000001e0: cacb f33e 4fab 14bf 8f3c a43e 8bc6 92be
000001f0: 6924 0c3f c438 2cbf b7ee 383e 705d f13e
00000200: ab55 1d3f a763 26be 6658 163e c94b 173f
00000210: 43ec 60be 04d6 9dbe 77d6 12bf 2bd2 0ebe
00000220: 9529 02be 36c4 30bf 5774 163d 0ab1 6abd
00000230: f6fa 8ebf cd5e 0c3f f4bd 01bf 202d aebe
00000240: def7 06be 9d3b 5f3e 9670 8b3c b744 393f
00000250: 990e eb3c 68e1 5f3c e7f0 c3bd fb74 cfbb
00000260: 81af 1d3e a585 bc3e 93fe d83e 774d 9bbd
00000270: 9597 1a3d 4416 863d bb80 48bd 7f51 733e
00000280: fc16 49be d1e4 10be 0c23 76bf 874e 71be
00000290: 8ade 313e d3e8 5a3f 1495 823e 4cd9 1dbe
000002a0: e45f c4be 56a3 0e3f 8107 3b3d 0a74 32bf
000002b0: b9be da3b 96fa ba3c 3c6f 953e 1699 15be
000002c0: 6cf0 1d3f d632 70be 854e 2dbf e1a1 153f
000002d0: f28e 80be 27aa 8dbe a956 df3d 48df 5ebf
000002e0: d03d cabe 23dd 0e3c 2077 cabe 8de0 483f
000002f0: 8390 28bf 9637 af3d 4b56 06be 5c85 b33e
00000300: 0d2c 6f3d 1adf 0a3e 00dc b2be c24d 133f
00000310: 911f d33e 6acd bcbe 9cf0 4f3e 0516 07bf
0.35279256 -0.0711102 -0.29750228 -0.047787815 0.08188395 0.067033805 0.07999299 -0.02777667
0.10442413 0.35104078 0.4447391 -0.13807034 -0.40177664 0.24450512 -0.35557264 -0.07672107
0.38948864 0.09435185 0.16319887 -0.26439777 -0.026095709 0.6661009 -0.28400797 0.18201852
-0.12854637 -0.122388534 0.560177 0.13699377 0.065167345 0.09162105 0.3092117 0.38146672
0.05848203 -0.44909728 -0.34339702 -0.51330763 0.12971154 0.027391182 0.0066103074 -0.61958
-0.03818491 -0.11756027 -0.07642509 0.5428348 0.31286588 -0.29693487 -0.20972095 -0.26591045
0.52329266 -0.3758056 0.12856777 0.77000064 -0.30640438 -0.85739225 -0.20432867 0.13327987
0.04099776 -0.58350277 -0.06048858 0.632485 0.031146847 -0.3769234 0.27549627 0.4381186
-0.30490303 0.19634084 -0.08440168 0.48361835 -0.2625841 -0.67921156 -0.62369263 0.36807603
0.13494442 -0.3609095 0.3713744 -0.19664523 0.18180466 0.16927056 -0.7669047 0.015237545
0.12954196 -0.16235684 -0.23026568 0.36915666 -1.178607 -0.12500793 -0.5702886 -0.49860227
0.41148388 -0.4615934 -0.09354542 0.20520735 0.308259 0.49612665 0.3401975 -0.027725225
0.12518318 1.0777639 0.53209287 0.16506062 0.40618166 0.27223045 0.75360316 0.29012913
0.2871003 0.01960068 0.80992067 -0.6006406 -0.12949717 0.028139371 -0.6019653 -0.28392768
0.9190055 0.22517474 0.6845949 -0.7702109 -1.0058011 -0.15377817 -0.28423914 0.039714016
0.47616416 -0.58073896 0.32077453 -0.286671 0.5474306 -0.6727412 0.18059812 0.471416
0.61458844 -0.16248952 0.14682159 0.59100014 -0.21965127 -0.30827343 -0.573585 -0.1394736
-0.12711175 -0.69049394 0.036732044 -0.057297744 -1.1170337 0.54832155 -0.5068047 -0.34018803
-0.13180491 0.21800084 0.017021459 0.72370476 0.028693484 0.013664581 -0.09567433 -0.006331084
0.1539898 0.36820713 0.42381725 -0.075831346 0.037742216 0.065472156 -0.048950892 0.23761557
-0.19637674 -0.14149787 -0.9614723 -0.23565112 0.17370048 0.8551151 0.25504363 -0.15414923
-0.3835441 0.5571798 0.045661453 -0.6970831 0.006675568 0.022824567 0.29186428 -0.14609179
0.6169498 -0.23456892 -0.67697936 0.5845013 -0.2510906 -0.27668878 0.10905201 -0.8705945
-0.39500284 0.008719715 -0.3954401 0.7846764 -0.6584551 0.08555524 -0.13118856 0.35062683
0.05839162 0.13561669 -0.34933472 0.57540524 0.4123502 -0.36875468 0.20306629 -0.52767974

Mixer_Block.0.mlp_block_token_mixing.fc2.bias f4 [10]
00000000: ce78 cbbe 32d6 a03d b0d5 c23e 8e89 dc3d
00000010: 7605 843b 06e7 85be 4e57 433d aa8d 213e
00000020: c39b 283e 349a 9e3e
-0.39740604 0.078533545 0.38053656 0.10768424 0.0040289713 -0.2615282 0.047690682 0.15776697
0.16465668 0.30977023

Mixer_Block.0.mlp_block_token_mixing_DynaMixerOperation.fc_ND.weight f4 [1, 66]
00000000: 0407 02bd b272 583d 609e dabc 1e85 1fbd
00000010: cb86 68bd bf7d a1bd 5b73 ac3c 85c2 d2bb
00000020: 9087 28ba 4b97 6e3c db7e 61bc 2ffb a83d
00000030: 879f 8a3c ae3b 54bc 3889 70bc bdc9 253c
00000040: 8d02 743d a611 d839 a71d 9e3d 72df 14bd
00000050: dc55 d4bc d820 cf3d 445b 0abd daf6 543d
00000060: dec5 893d c9ec 88bc a3cb 2ebd ae13 103d
00000070: 450e 9b3d b8cb 023d abae 63bd e0a3 803d
00000080: b4fd 8abd bc02 a7bc 8c64 ba3d 8683 023d
00000090: 4315 143d 016d 873c d630 bcbd fcd1 12bd
000000a0: f1de 8a3d dcd8 1bbd 1469 723c 2d48 d43c
000000b0: ccf8 913d 95ae 423d 19da e5bc 708c 0f3d
000000c0: 67d3 74bc 17e3 a73c 9c32 c8bc 4e7a 9abd
000000d0: a7f7 18bd 4767 3b3c d30d a6bb c438 67bd
000000e0: fd43 783c 9e0e 2dbc 0165 c73c ec1b 7fbd
000000f0: 3d45 53bd 9d65 5e3c bcae 00bd 3663 dbbc
00000100: ee08 c33c 7c02 08bc
-0.031744972 0.052843757 -0.026686847 -0.03894531 -0.056769174 -0.07885312 0.0210511 -0.00643188
-0.0006428892 0.014562438 -0.013763155 0.082510345 0.016921772 -0.012953682 -0.014681153 0.010118899
0.059572745 0.0004121188 0.077204995 -0.036345907 -0.025919847 0.10113686 -0.033778444 0.05199323
0.06727193 -0.01671447 -0.04267467 0.035175018 0.07571081 0.031932563 -0.0555865 0.06281257
-0.06786671 -0.020387046 0.09101209 0.03186371 0.03615309 0.01653147 -0.09189002 -0.035844788
0.06780804 -0.03804861 0.01479556 0.025913322 0.07127532 0.047529776 -0.028058099 0.03504604
-0.01494298 0.020494027 -0.024438195 -0.07542859 -0.037345555 0.011438197 -0.005067566 -0.05645062
0.015152928 -0.010562567 0.024340155 -0.062282488 -0.051579703 0.013574031 -0.03141664 -0.026780706
0.023807969 -0.008301374

Mixer_Block.0.mlp_block_token_mixing_DynaMixerOperation.fc_Nd.weight f4 [100, 10]
00000000: 5928 20bf 0ff1 0dbe 07d8 8cbe 69ef b4bd
00000010: 0a4b b0be bc67 febd f21e a6bd 8d65 59bd
00000020: 91e7 12be e816 5dbd d18e 52bd 5de0 b13c
00000030: ac35 f53d 4830 8b3e 5051 d13d fa8c 4b3d
00000040: 84c9 483d ad8d 513c 7859 babd caab 113d
00000050: c5c2 9f3d 2e2a 26bd ac48 023e 3074 ab3d
00000060: d00c 953d 1f4a 93bd 37cb 89bb 809a 03be
00000070: 7121 cbbd 1ec9 4b3d 08f0 893e a5fa 96be
00000080: c053 fd3d a1bc 8c3d fc53 79bc 3cbf 16be
00000090: eaeb 2d3d 4877 1bbe 5783 0abe d297 bebd
000000a0: f88c b93d f11f eabd 04d8 543c 9dfc 153e
000000b0: 7373 913c 9785 03be 475f aabd d4ac e5bd
000000c0: 9fee 28be 1e22 a13c 4b38 91be c3e9 0dbe
000000d0: 6a7d eebd ac5d a93e aa60 833c d94d 533e
000000e0: 5022 323c be62 76bd 4248 18be 303f 133d
000000f0: 99c9 60bd 0649 43bd e735 bcbd 6e58 c93d
00000100: c12d 0cbd 9ab6 f5bd ea40 0c3d de29 cfbd
00000110: fd3f 2ebe e52d b03b bb8c 3cbe b1bb 36be
00000120: ed21 36be 5818 513e 9761 83bc 5171 3b3d
00000130: 89da fcbd 7e91 4c3d ca06 83bd 6f07 cfbd
00000140: 5691 8bbd 1d34 51bd 2319 ddbd 1561 3b3e
00000150: c3dd 1abc 93fe c3bc b9ea 7b3c c667 3ebe
00000160: 6777 6fbc db07 913d 9e1e 17be 4a94 90bd
00000170: 3203 2ebc 5e50 a03e 23b9 a83d c614 433d
00000180: 4f7a b83d a72b 673d 8856 27be 898a 673d
00000190: 4637 f5be 3731 7dbd fb3e 7cbe f931 883c
000001a0: a07b e8bd ddd8 bebd f47e ccbd b457 d6bc
000001b0: 04a0 9ebd 27d7 193d de62 a9be 0e6a 6b3d
000001c0: 146e 89be 14e6 b73d ad7f 8cbe 4c7b 06be
000001d0: 630a 76be 8eae 22be fc0b 34be 9404 1b3b
000001e0: f403 8b3d 8641 c4bd fa7f c0be c0b6 08bd
000001f0: 9b28 533d 82bf c7bb 7549 f1bd 9c30 c0bc
00000200: 831e f2bd 9c24 863d 4371 b83c 9f4c 32bd
00000210: 69d5 263e 9964 2bbe bca7 4bbc 928d 12be
00000220: b695 ce3c a8e1 15be 87b2 8bbd ad2b ecbd
00000230: 441f 2c3e 1c78 27bd b106 003e 0154 c43c
00000240: bcf6 84be 5efc 10bd fb11 f23c 4603 853c
00000250: 3ea8 a6bd 4b24 7ebd e5da c2bd ebbc 05bd
00000260: 0a36 10be 2718 a53e 7dec dc3c ff6d e8be
00000270: 826c 37be f4b6 58bd aa5f 91be 6d76 c2bd
00000280: 30d4 313e f72a e43d 5e02 a83d 8162 d9bd
00000290: 4f86 d63d 8ae9 103e eb8a a3be bb74 b13d
000002a0: 6451 5dbd 2645 bbbd 4ce4 ebbd 6635 edbc
000002b0: 3166 1dbe 4d22 c73d 6b54 a7bd bc71 e23d
000002c0: 4b94 f4bd 8d79 33bf a22a 3ebd c1a9 0bbe
000002d0: 5fe1 c0bd 7855 93bd 9eee 17bc 228d 0c3e
000002e0: 4f42 d03d e1d6 e23d ecf9 123e f10d b8bd
000002f0: 3fc9 ddbe 4862 573d eaf7 11bd 87f1 d23d
00000300: 4995 27be e0c4 0b3e 5bd9 38be 0d48 513e
00000310: cf98 8e3e 6044 5d3e 46a5 923e 1d9b d5be
00000320: 156b 4a3e 5e36 b53d c735 2dbd cded 383e
00000330: 422c 06be 3c9f 88bc 22f1 edbd 99f3 26bd
00000340: 0b77 433d bd25 163c 02f9 df3c ba11 05bf
00000350: 6d28 263d ad39 6f3d 2385 133d 8690 b1bd
00000360: 16ec ed3c 72dd 78bd a7b5 fd3d 862b acbd
00000370: f576 5a3d ebd4 0cbe c083 51be 3b84 963e
00000380: d0a4 053e d9aa 083e 4c68 6e3d cc9e e33d
00000390: f9cc 1b3c 8f5b f53c c5b6 1c3e 1830 babd
000003a0: fd3b 5a3e 63d5 18bf 0264 913d d399 2abe
000003b0: 235b 603d 11ec cf3d 9560 543e ddf4 323c
000003c0: 3182 85bd ffaa 5d3e f089 54bd 731e 163e
000003d0: 3a44 ebbe b146 9e3d 39cd 9ebd e119 0a3e
000003e0: 69ba 863d d9b8 f2bc 2ca4 d03e 6e19 5ebe
000003f0: 308a 393e 9dc4 8f3d b4b0 c93e 2128 0dbf
-0.62561566 -0.13861488 -0.27508566 -0.08834726 -0.3443225 -0.124221295 -0.08111371 -0.053075362
-0.14346148 -0.053976923 -0.05140573 0.02171343 0.11973128 0.27185273 0.10220587 0.049694993
0.049020305 0.012790126 -0.09099096 0.03556422 0.07800821 -0.04056757 0.12723035 0.083717704
0.072778344 -0.07191872 -0.0042051333 -0.12851906 -0.09918488 0.049752347 0.26940942 -0.29488102
0.1236949 0.068719156 -0.015217777 -0.14721388 0.042461313 -0.15182221 -0.13526665 -0.09306301
0.09060091 -0.114318736 0.012990955 0.14647146 0.017755246 -0.12843929 -0.08318954 -0.11214605
-0.16497277 0.019669589 -0.2836326 -0.13858704 -0.116450146 0.33079278 0.016037304 0.20635165
0.010872439 -0.06015276 -0.14871314 0.035948932 -0.05487976 -0.047677062 -0.091899686 0.0983132
-0.03422332 -0.11997719 0.034241594 -0.101154074 -0.17016597 0.005376565 -0.1841306 -0.17845036
-0.17786379 0.20419443 -0.016037745 0.045762364 -0.1234637 0.04994344 -0.06397779 -0.1010884
-0.0681483 -0.05107509 -0.1079581 0.18298753 -0.009452286 -0.023925101 0.015375786 -0.18594274
-0.01461587 0.070815764 -0.14757773 -0.07059534 -0.010620879 0.31311315 0.08238437 0.047627233
0.090077035 0.056438114 -0.16341603 0.0565286 -0.47893733 -0.061814513 -0.246334 0.016625391
-0.113517046 -0.09318707 -0.09985152 -0.026164867 -0.07745364 0.0375587 -0.33083242 0.05747419
-0.26841795 0.08979431 -0.2744116 -0.13132972 -0.240274 -0.158869 -0.17582697 0.0023653852
0.067878634 -0.0958281 -0.37597638 -0.03337741 0.051552396 -0.0060958276 -0.11781589 -0.023460679
-0.11822226 0.065499514 0.022514945 -0.043530103 0.16292347 -0.16737594 -0.012430128 -0.14311817
0.025217872 -0.14636862 -0.06821161 -0.11531768 0.16808802 -0.04088603 0.12502553 0.023965837
-0.25969493 -0.035396926 0.02954959 0.016236912 -0.081375584 -0.06204633 -0.09514407 -0.03265087
-0.14083114 0.3224499 0.026968235 -0.4539642 -0.17912486 -0.052908853 -0.28393298 -0.09495244
0.173661 0.111410074 0.082035765 -0.10614491 0.10474836 0.14151588 -0.31941923 0.08664843
-0.0540327 -0.091440484 -0.115181535 -0.028956126 -0.15371014 0.09723339 -0.08170398 0.11056849
-0.11942347 -0.70107347 -0.046427377 -0.13638975 -0.09417986 -0.07194036 -0.009273199 0.13725713
0.10168897 0.11076141 0.1435315 -0.08987034 -0.433176 0.052583963 -0.03563682 0.10299974
-0.16365542 0.1364932 -0.18051665 0.20437641 0.2785096 0.21608114 0.2864172 -0.41719905
0.19767411 0.0884826 -0.042287614 0.18059464 -0.1310282 -0.016677491 -0.11618258 -0.040759657
0.04772095 0.009164271 0.027340416 -0.51980174 0.040565897 0.058404613 0.03601564 -0.08670144
0.029043239 -0.06075806 0.12388163 -0.08406739 0.053336103 -0.13753097 -0.20460415 0.2939776
0.13051152 0.13346423 0.058204934 0.111142725 0.0095093185 0.029950885 0.15304096 -0.090912044
0.21311946 -0.597006 0.07099153 -0.16660242 0.054774415 0.10152448 0.20739968 0.010922638
-0.06518973 0.21647261 -0.05188936 0.14660053 -0.4595049 0.07728327 -0.07753987 0.13486435
0.06578524 -0.029629158 0.40750253 -0.21689388 0.1811912 0.07019923 0.39392626 -0.55139357

Mixer_Block.0.mlp_block_token_mixing_DynaMixerOperation.fc_Nd.bias f4 [100]
00000000: b87c 6ebf 03cc 16be 21bd 043f 3620 0b3e
00000010: ab15 ee3e 4554 003d bbb6 8e3e 4231 183e
00000020: 09f7 1a3e 278e 0fbe ad7d 83be 0055 e8be
00000030: 11d0 17bd ecd9 383f 7722 823e 795a 36be
00000040: ce9f 693d 3930 1cbd 0651 983a ad23 f1be
00000050: 3e47 293d 747d aabb 0579 593d 53bd 0fbf
00000060: e798 333f 4f3f e4be 10d2 de3d fb1c 44be
00000070: 11f5 033c 6e9b 4ebe 8944 29be 992f 12bd
00000080: 9a7e 60be 09b7 0ebf 305d 023e fd65 153f
00000090: c6fd 81be 1b55 113e 6278 92bd 789a 093e
000000a0: 6f8c 6d3e 32d0 263f 5884 bebd f8ec 853c
000000b0: 1c28 fabe dc0b b9bd 7e42 a3bc 218f 2ebd
000000c0: 02b9 a0bc ab53 18be 5b34 3f3e 3a6a a73e
000000d0: 3136 51be 464d f03e 6eb4 54bf d712 df3b
000000e0: 4ebe 3dbe b7ac 373e 61d1 ccbd acfa 193d
000000f0: a28a e93e 264f cabe e8b3 613d c593 0abe
00000100: 5f62 403e 28dd 9cbe 2d58 33bd a017 573d
00000110: 4569 313c f335 53be 6eb4 25be 227b 6a3e
00000120: 50f6 13be 73c3 083f 26eb a0be 75bd fb3e
00000130: 590f 02bf d1c5 793e 54f3 1f3c b075 243e
00000140: 5081 e03c 30e7 823e c0ff cfbe 6ae0 5cbc
00000150: 8fa5 b6bd 48a4 05bd 4bed 21bb bd2d 5d3d
00000160: 3eb2 8b3d 2861 9d3d f2f9 c83e 5541 4fbd
00000170: f6da 96bd a042 783e af9e 7fbc 3ef4 c9be
00000180: 20e3 81bc a259 84bd 6d12 a7bd 0465 16bf
-0.93159056 -0.14726262 0.5185109 0.13586506 0.46500906 0.031330366 0.27873787 0.1486254
0.15133299 -0.1401907 -0.2568182 -0.4537735 -0.037063662 0.7220752 0.2541692 -0.1780795
0.057037167 -0.038131926 0.0011620827 -0.4709753 0.041327707 -0.0052029435 0.05309393 -0.5614826
0.70155185 -0.4457955 0.1087991 -0.1915168 0.008054034 -0.20176479 -0.1653005 -0.035689924
-0.21923295 -0.5574804 0.1273086 0.58358747 -0.25388926 0.14192621 -0.071518674 0.13437831
0.23198102 0.6516143 -0.09302586 0.016348347 -0.48858726 -0.09035465 -0.019929167 -0.042616967
-0.019619469 -0.14875667 0.18672316 0.32698232 -0.20430829 0.46933955 -0.83087814 0.006807666
-0.18529627 0.17936979 -0.10000873 0.037592575 0.4561358 -0.3951351 0.055103213 -0.13532932
0.18787526 -0.3063748 -0.043785263 0.052512765 0.010828321 -0.20626049 -0.1618211 0.22898534
-0.1444943 0.5342323 -0.31429404 0.49167982 -0.5080467 0.24391867 0.009762604 0.16060519
0.027405411 0.25567007 -0.4062481 -0.013481239 -0.089182965 -0.032627374 -0.0024708088 0.053998698
0.068211064 0.07684547 0.39253193 -0.050599415 -0.07365982 0.24244165 -0.015601798 -0.39444155
-0.015855372 -0.064624086 -0.08157811 -0.5874789

Mixer_Block.0.mlp_block_token_mixing_DynaMixerOperation.fc_out.weight f4 [66, 66]
00000000: 127a 173f 43a6 103e 38a9 da3e 2f25 413d
00000010: e049 7c3e 5fd3 77bd d0ea 19bc 921a 8f3c
00000020: 2ce5 0bbe 31aa 953c 50ce 253d 876b 24be
00000030: 8c51 3ebd d6ca efbd 4269 cebc 05a0 513d
00000040: beeb 4abe 306b 7bbd 9f4d ae3d e64f 37be
00000050: c8c9 763b 3d76 23be 8b8e 123e 602c 94bd
00000060: 3049 903d 6ed4 823d ca63 383e 45ce 9abd
00000070: c10f 7fbc 209e d5bd bf4e 513e 67a4 a4bd
00000080: e719 9dbd 4eac b9be 5370 23bb 0dfe b6bd
00000090: 01c3 8c3d b510 a83d a855 e83d 3df8 a23d
000000a0: 3c99 5c3d 3e19 05be 5f3f 36be 51ac 0bbd
000000b0: cf25 843e a1e4 51be 3472 c3bd 5bf8 8d3e
000000c0: 4978 2bbe 3690 7bbe 6200 04be cc4c a63d
000000d0: 9b53 893d b108 81bc 5d73 2dbe 0ec0 683d
000000e0: bc57 f23e 3665 43bd 0320 a53e c765 b43d
000000f0: 59e8 43be 635e db3d 54b6 743d 432c 4ebd
00000100: b7a1 eebd 69d4 b4bb 0b45 903d 7739 e73e
00000110: e0eb 6e3d cae5 103e b07b bd3e 0ed6 a5bd
00000120: 3dc3 35be af64 313d a8b4 07be 4d3c 763e
00000130: 5320 043e ad4d 71be 951c 07be 049d 81be
00000140: dd9f 27be 2918 dd3d f5dd 86be 9f43 1e3e
00000150: 6738 40be 6c08 1c3e bbe7 013d a5cb 49be
00000160: dc97 d3bd 0996 26bd b69d 3abe 7f66 e53d
00000170: b08f 633e 4a9a 53be b664 4cbc 0704 4c3e
00000180: 7fa5 7d3d 95fb 4dbc 8dab 4d3e 4ef9 c3be
00000190: c7a4 aa3d 86ea 123d 342a 183e f5bb 99bd
000001a0: 9a43 cb3c ab29 143e 3dc2 943e e0f3 da3d
000001b0: 70cb 25bc 56df 083e 57ba ebbd 4fd4 6e3b
000001c0: 5454 063d 4349 523e dacb 2cbe 1ee7 76bc
000001d0: b30f 36bd a141 d13a 91fb 15be cfeb fdbd
000001e0: 14ff d83c f0cb 9b3e 6da1 83bd dddb 5ebe
000001f0: c3c5 c13d 82b9 0ebe a011 043e ba88 a5bd
00000200: ddab 24bd eeef 053e 1c51 213e 7af0 71be
00000210: c716 35bd aa7c 3fbe f051 8b3e b3f1 643e
00000220: 4925 ce3e 955b a23d 01d8 22be 4e24 203e
00000230: a968 c3bd d9c6 713d 3c4a be3d a889 d8bd
00000240: 8375 883d e3f6 9bbd 5f3f 6c3d d5da a4be
00000250: 7be6 21be 7c49 3d3d 269a bcbd d1d9 893d
00000260: 2076 f63d 591e b5bd e6ac 743e 3188 29be
00000270: a191 9d3d 28cb dcbc 03a6 59bc c1c0 273c
00000280: cf65 3a3d 7aa9 623d 0d5b 29bd b542 8a3e
00000290: 999a 8d3d babf 1abe 7907 3fbd dc17 0ebe
000002a0: 9f10 8fbd a635 3dbe 26e7 a4bc 31a7 173e
000002b0: f09e a3be 1f08 2e3e 66ac f63d 08ef 89bd
000002c0: cda9 85be beab f23d f82c fbbd 0c62 1cbe
000002d0: 8aa6 f73d 1893 febd 663c 5a3d 640a 143c
000002e0: be34 55be 624d 433e f42e 5abd 00cd 083d
000002f0: 3485 db3d 1128 f73c 4080 733d 4786 973d
00000300: 5caa 683d 3de0 f7be ea86 0cbe 5a15 da3d
00000310: 17f2 2fbe e536 783d 5bf4 16be d0db b43d
00000320: dc4e ab3e e825 723e fede 713e fee9 8bbd
00000330: e6dd 0bbd 4c60 8bbe a12b 2d3e c89f e73c
00000340: 3576 0bbe 1dbe 9fbe f7b1 413e b5d8 b8bc
00000350: 5863 5c3e 18a6 6bbe bd67 543a 377c a1bd
00000360: 0f9c 94bd 3531 f33c 4f2d 86be 975f 5f3e
00000370: 42ad 9e3c f352 28be 190b 4f3e 3ab3 993d
00000380: a291 0bbe 45ec 923d 26cd f83d c0e0 0ebe
00000390: 76d6 19be 32be 8d3e 0b14 c33d ae2d e1bc
000003a0: 9f88 c93d 48e3 0b3e b78a 633d 0c85 a03d
000003b0: 19cd 10bd a320 4cbe 082a 303d d290 53be
000003c0: 3a48 25be 18c0 4dba d8bf 853e b05c 8dbe
000003d0: af2e 2f3e be3b a3be c1d9 5abd 61d9 0fbe
000003e0: a7e2 35bd 1ae2 02be f1e2 a6bd 0a27 7bbd
000003f0: 5271 a1bd 03d0 b13d 0e10 6ebc a710 67bd
0.5917064 0.14125924 0.4270723 0.0471546 0.24637556 -0.060504314 -0.009394363 0.017468724
-0.13661641 0.01826963 0.040479958 -0.16056643 -0.046464488 -0.1170861 -0.025196675 0.051177997
-0.19816491 -0.06138152 0.08510899 -0.17901573 0.0037656892 -0.15963073 0.14312188 -0.07235026
0.070452094 0.06388174 0.18006817 -0.07558874 -0.015567721 -0.104305506 0.20440196 -0.0803917
-0.07670956 -0.3626427 -0.0024938777 -0.08935175 0.068731315 0.082063116 0.11344463 0.07957504
0.053857073 -0.1299791 -0.17797612 -0.03409988 0.25810096 -0.20497371 -0.09543267 0.27728543
-0.16745104 -0.24566731 -0.12890771 0.081201166 0.067053996 -0.015751215 -0.16938539 0.056823783
0.4733256 -0.047703944 0.32250986 0.08808475 -0.19131602 0.10711362 0.059744194 -0.05033518
-0.116519384 -0.0055184853 0.07044419 0.4516103 0.058330417 0.14150158 0.3700843 -0.08097468
-0.17750259 0.04330891 -0.13252509 0.2404644 0.12902956 -0.23564787 -0.13194497 -0.25315106
-0.16369577 0.10795624 -0.26341215 0.15455483 -0.18771516 0.15237588 0.031715136 -0.1970659
-0.10331699 -0.04067043 -0.18224224 0.1120119 0.22222781 -0.20664325 -0.012475183 0.19923411
0.061925407 -0.012572189 0.20084973 -0.38276142 0.0833221 0.03586819 0.14859849 -0.07506553
0.024812508 0.1446902 0.29054442 0.10691047 -0.010119304 0.13366446 -0.11510151 0.0036442464
0.032795265 0.2053576 -0.16874638 -0.015069751 -0.044448566 0.0015964994 -0.14646746 -0.123984925
0.026488818 0.3042903 -0.06427274 -0.21763559 0.09461548 -0.13937953 0.12897348 -0.08082719
-0.040202964 0.13079807 0.15753597 -0.23626891 -0.044211175 -0.186999 0.2721095 0.22357826
0.4026282 0.07927624 -0.15902711 0.15638849 -0.09541447 0.059027527 0.09291503 -0.10573131
0.066630386 -0.07615449 0.057677623 -0.32198206 -0.15810578 0.04621266 -0.09209089 0.06730998
0.12034249 -0.08843679 0.2389408 -0.16555859 0.07693792 -0.026952341 -0.013284209 0.010238827
0.04550725 0.055337407 -0.0413466 0.27004018 0.06914253 -0.151122 -0.046637986 -0.13876289
-0.06985592 -0.18477497 -0.020129751 0.14809872 -0.31957197 0.16995285 0.12044601 -0.06735045
-0.2610611 0.118491635 -0.122644365 -0.15271777 0.12092312 -0.124304 0.053280257 0.00903568
-0.20820901 0.19072488 -0.053267434 0.03339863 0.10718766 0.030170472 0.05944848 0.07398658
0.056803092 -0.48413268 -0.1372334 0.10648604 -0.17182194 0.060599227 -0.14741652 0.088309884
0.33458602 0.23647273 0.23620221 -0.0683174 -0.034147166 -0.27221906 0.16911174 0.028274432
-0.13619311 -0.31199732 0.18915544 -0.022564271 0.21522272 -0.23012578 0.00081026164 -0.0788502
-0.07256328 0.02968655 -0.26206443 0.21813808 0.019369725 -0.16437893 0.20219077 0.07504888
-0.13629773 0.07173971 0.12148504 -0.13952923 -0.15023217 0.2768417 0.09525307 -0.027487602
0.098405115 0.1366092 0.05555221 0.07837877 -0.035351846 -0.19934325 0.043008834 -0.20660713
-0.16140833 -0.00078487536 0.26122928 -0.27609777 0.17107652 -0.31881517 -0.053430323 -0.14047767
-0.044405606 -0.12781563 -0.081487544 -0.061316527 -0.07882942 0.08682253 -0.014530195 -0.056412365

Mixer_Block.0.mlp_block_token_mixing_DynaMixerOperation.fc_out.bias f4 [66]
00000000: 7750 c93d 1343 a3be 203f 81be a6e6 0b3d
00000010: b698 7bbc c417 033f a0eb 1dbc dcbc 493d
00000020: b5ac 7b3e c93e 0cbe 3e29 8d3e d3da 1e3e
00000030: ee82 b93e dccd 103e 9567 4b3e 193c 073f
00000040: fb8a 13bd 4640 213d 611c 12bf 17b0 acbd
00000050: 45dc 8d3e 1210 92be 5815 0f3e 42ec 2d3e
00000060: 69f2 3d3e b2c1 1bbe 2d11 fabe 7b6a 50be
00000070: 3cd2 ecbb 14ff 6abe 7eba d23e e984 a03e
00000080: c91a db3e 40de 15be 1f42 55be 0ed1 0a3e
00000090: 2d6f ebbe 8731 cdbd e3ca 5bbe ad9d 503e
000000a0: 6c45 d9be 8b0a 4abe 0eb0 95be 4c87 933b
000000b0: ca54 e6be 3eae f9be e8be 54be 10fc 58bd
000000c0: 315d 473c 8a94 6cbc a3ee 1bbe ff55 d5bd
000000d0: a848 ed3d 950f c8bd ba20 e73c 9255 92be
000000e0: e79b 43be e247 2abe 8796 b93c 4a19 233e
000000f0: 9eeb f33e 7d64 5f3e 2e7c 193e 2e94 a33e
00000100: 9171 a8be 2c5a da3e
0.098298006 -0.3188711 -0.25243473 0.03415551 -0.015356233 0.5120814 -0.009638697 0.049252376
0.24577601 -0.13695826 0.27570528 0.15513162 0.36232704 0.14141029 0.19863732 0.52826077
-0.036021214 0.039367937 -0.5707455 -0.08432024 0.27707115 -0.28527886 0.13972986 0.16984656
0.18549503 -0.15210608 -0.4884123 -0.20353119 -0.0072272103 -0.22948867 0.41157907 0.31351402
0.42793873 -0.14635563 -0.20826004 0.1355631 -0.45983258 -0.10019212 -0.21464114 0.20372649
-0.42435777 -0.19730584 -0.29235882 0.0045022126 -0.44986564 -0.4876575 -0.2077595 -0.05297476
0.012168215 -0.014439711 -0.15227751 -0.10416793 0.11586124 -0.09768597 0.028213847 -0.2858091
-0.19102441 -0.16628984 0.022654785 0.15927616 0.476407 0.21815677 0.14988777 0.3194899
-0.32899144 0.4264692

Mixer_Block.0.mlp_block_token_mixing_DynaMixerOperation.LN.weight f4 [10]
00000000: bb05 b83f 29a7 8a3f 6196 923f fe91 423f
00000010: 44b0 813f 3306 813f 9363 8d3f 42c8 933f
00000020: 7a33 8d3f 86b3 793f
1.4376749 1.0832263 1.1452142 0.76004016 1.0131917 1.0080017 1.1046013 1.1545489
1.1031334 0.97539556

Mixer_Block.0.mlp_block_token_mixing_DynaMixerOperation.LN.bias f4 [10]
00000000: e281 40be f6ad 7a3e 453f 82bd 39c7 c33d
00000010: 12cb 13be b5ab d3bb 99db 04bd f02e 02bd
00000020: 11be 4cbc e1d8 123e
-0.18799546 0.24480423 -0.06359724 0.09559483 -0.14432934 -0.006459678 -0.032435987 -0.031783044
-0.012496487 0.14340545

Mixer_Block.0.mlp_block_channel_mixing_DynaMixerOperation.fc_ND.weight f4 [1, 10]
00000000: 4c5d e9be 12cb 9c3e b6e8 cfbd 0766 bf3d
00000010: c8e5 29bd 1009 b13d c99a 0a3b 7730 c33c
00000020: 2093 283c 8997 f93a
-0.45578992 0.3062368 -0.10151808 0.09345632 -0.041478902 0.08644307 0.0021149388 0.02382682
0.010288984 0.0019042353

Mixer_Block.0.mlp_block_channel_mixing_DynaMixerOperation.fc_Nd.weight f4 [484, 22]
00000000: ce03 19be 8432 efbe e4c5 0d3e a6dc bbbc
00000010: 33a6 0c3e 5207 37be f1a5 9ebe df78 c5bd
00000020: 5ec5 17be 6d8f 9b3e 2594 e0bd 0ea9 633e
00000030: 3786 b4be de94 573e d253 903e 1cc1 ebbb
00000040: 6b50 1dbe 9683 823e 1b85 44be e635 3dbe
00000050: ca5c f03c e3a6 9cbd 9e5e d9bd 7e81 b13d
00000060: 7ce6 83bd f6b7 033e 1a36 893e 47a1 19be
00000070: 8a05 2c3d 1237 b7be 4e1d ac3d 48ed 623d
00000080: d555 183e cc00 96be 02ec 223f 399c 05bc
00000090: b91b eebd c73b de3d 7b78 ca3d 69a6 d9be
000000a0: 3928 88bd 31d4 c53c b2c2 4e3d a245 853d
000000b0: 7aa6 f0bc 579a 93be fde7 083e c275 c73d
000000c0: 1e1d 2fbe 9953 493e 286c b7be daa9 9abe
000000d0: 7a50 8dbe 9934 d2bd 8d2b fbbd 7052 43be
000000e0: 619e fc3d ea6b 2f3e a6b6 05bd fc2c d2bd
000000f0: e821 463e 582c 40be 148a 94bd ed81 293e
00000100: 8c86 e93d 20ff 27be 6ce2 08be d745 b63d
00000110: 0b63 593e be64 0dbd 5317 393e dcfc c83e
00000120: a1c5 e23b ff03 56be 3293 d63d baba 143e
00000130: e24e 0cbe f03e 8fbd c05d 2fbd 4193 40bd
00000140: 615a e7bc e18d 6dbe bd85 033e 858c 38bd
00000150: 450f 1a3e 4b9f 22be 2a70 5c3e 6ec3 803e
00000160: 683c 11bf 3085 283d 47c1 63bd 9a15 2fbe
00000170: c1ed a2be abf0 a5bc ed30 503d 0523 21be
00000180: 1dbc 883d 42c2 a0be 125f ba3d 8320 e33e
00000190: d9b1 4e3c a408 2bbe de40 cfbd e959 613e
000001a0: 6101 9bbe f03c a9bd 7c35 0e3e c845 87be
000001b0: b83c 89be 4acf 8bbe 559a 0c3e 5602 37bc
000001c0: b63c adbe a056 18be 6f8c 533c 040c 0b3e
000001d0: e80c 223e 88b4 48bc 6c57 bfbe 14ef 903d
000001e0: b856 ca3c 1c86 153d ef33 a1bd 72f4 36bc
000001f0: 2622 533c 25d1 083e 7b90 07bc 61b3 043f
00000200: c83e 7b3e 18d4 133d 9d61 403e 7bc2 dc3e
00000210: dbdb 8bbd 014f dabd e07b 0cbe 33b6 bcbe
00000220: 62b8 0cbe a0d1 95bd 932d a73d 7f9f c23c
00000230: 1da5 203e e0d5 a13d 0292 583e 0779 ba3d
00000240: b883 343d 8ec5 c33c c933 4bbd 4fa7 8c3e
00000250: 9f4a b0be d433 3a3e 7fc3 92bd f987 cfbd
00000260: 887f aabd 7309 0ebd 8657 ad3e c1b3 dd3e
00000270: e9bf b23d 8915 f73d 40ad 0a3d 7ae0 65be
00000280: 81b0 77be 95f2 40be f1f3 21be c5db 1bbe
00000290: 6ceb 773d 3a05 b6be 5852 aa3e d36c bbbe
000002a0: c801 053e ad1e 0b3e f09a ef3c 91d0 71be
000002b0: 8ca6 e43e a81b 13be b3e1 66bc 973a 89bd
000002c0: 95cc 143e 2ead 7d3e 03eb 85bc bdcc f73e
000002d0: 3895 44be 9494 ebbe 8844 8c3e 6684 433c
000002e0: 5206 20bd 67a3 b1be b580 b33d 6d8a 8c3c
000002f0: 897b 80be 2883 afbe 3731 863d 6563 333e
00000300: 504c 62bd af63 68bd 0cea 0b3e 68f4 4abd
00000310: f88a 39bd ffca 483c 51dd b83e 58d4 843e
00000320: 48b6 31be 0ccf 52bd 8709 563e 9af7 a33d
00000330: 1a2f f53d c3d0 b3bd 03cd a6be 8230 5f3d
00000340: 6859 26be f479 873d c2a0 00be 0292 7bbe
00000350: 1b39 873e 3a57 1bbe a6ed e63d a04b 653e
00000360: 63c9 4ebe 39a9 33be a313 be3d a9f4 913e
00000370: da09 d83d b7e1 8e3e 1451 8f3e 3aef db3d
00000380: a49e 3bbe 3a9a e9bd 4741 0c3d 0514 c53e
00000390: 62fb 87be 7222 7e3e 899d fdbd ad3c 893d
000003a0: 2573 00bd f98c 4f3d 113c 843e f516 7fbe
000003b0: 0f16 b03d 990c bbbc 900f 31be 69a6 fcbc
000003c0: 1bec 3ebe 88ab 883e 01f2 0cbe 3f9b b2bc
000003d0: 2165 0f3e 76b4 3bbc cd83 acbe 0777 2d3e
000003e0: 99b8 173d 3854 583e 8a3c a73e b706 87bd
000003f0: 10c9 113e edf4 18be 850d 803e a971 f63d
-0.14942858 -0.46718228 0.1384502 -0.022932362 0.13735275 -0.17873886 -0.30985978 -0.09642195
-0.14821383 0.30382863 -0.10965756 0.22232458 -0.35258648 0.21052882 0.2818895 -0.0071946513
-0.15362708 0.25491017 -0.191914 -0.18477592 0.02934112 -0.076490186 -0.1061375 0.08667277
-0.06440446 0.12863144 0.2679909 -0.15002929 0.04199747 -0.35784203 0.08404027 0.05540207
0.14876492 -0.29297483 0.6364137 -0.008154922 -0.116263814 0.108512454 0.09886261 -0.42509773
-0.06648297 0.024149032 0.050478645 0.06507422 -0.029376257 -0.2882869 0.13369747 0.097392574
-0.17100951 0.19660796 -0.35824704 -0.3020771 -0.2760046 -0.102639385 -0.12264166 -0.19074416
0.12334896 0.1713101 -0.03264489 -0.10262486 0.19348872 -0.18766916 -0.07252899 0.16553469
0.11402616 -0.16405916 -0.13367623 0.0890004 0.21229188 -0.034519903 0.18075304 0.39255416
0.006920532 -0.20899962 0.10477294 0.14524356 -0.13701966 -0.06994426 -0.042814016 -0.047015432
-0.028241338 -0.23198654 0.12843986 -0.045055885 0.15044887 -0.15881078 0.21527162 0.251491
-0.567328 0.041142642 -0.055604246 -0.17098084 -0.31822017 -0.020256361 0.05082791 -0.15736015
0.06676505 -0.31398207 0.091001645 0.44360742 0.012615644 -0.16702515 -0.10119794 0.22006954
-0.3027449 -0.08263576 0.1388759 -0.26420426 -0.26804137 -0.27306587 0.13730748 -0.0111699905
-0.3383538 -0.14876795 0.0129119 0.13578802 0.15825236 -0.012250073 -0.37371385 0.070768505
0.024699554 0.03650485 -0.07871234 -0.011166679 0.01288656 0.13361032 -0.008274193 0.5183621
0.24535668 0.03609094 0.18787237 0.43117127 -0.068290435 -0.106596 -0.1371913 -0.36857757
-0.13742211 -0.073153734 0.081629895 0.023757694 0.15687986 0.079021215 0.21149448 0.091051154
0.04407093 0.023897912 -0.049609933 0.27471396 -0.3443193 0.18183833 -0.07166194 -0.101333566
-0.08325106 -0.03467698 0.33855838 0.43301204 0.0872801 0.120646544 0.03385663 -0.22448912
-0.24188425 -0.18842538 -0.15815713 -0.15220554 0.06052725 -0.35550863 0.33265948 -0.36606464
0.1298896 0.1358592 0.029248685 -0.23614718 0.44658315 -0.14366019 -0.014091897 -0.06700628
0.14531167 0.24773094 -0.016347414 0.4839839 -0.19197547 -0.46011794 0.27396035 0.011933422
-0.039068528 -0.3469498 0.08764783 0.01715585 -0.2509425 -0.34279752 0.06552356 0.17518385
-0.05524856 -0.05673569 0.136635 -0.04954949 -0.045298547 0.012255429 0.3610635 0.25943255
-0.17354691 -0.051466987 0.20902072 0.080062106 0.119718745 -0.087800525 -0.32578287 0.05448962
-0.16245043 0.066150576 -0.12561324 -0.24567416 0.26410756 -0.15169993 0.112757966 0.2239213
-0.2019401 -0.17545022 0.09281089 0.28506973 0.10548754 0.27906582 0.27991545 0.10738988
-0.18322235 -0.114063695 0.03424194 0.38491836 -0.26558977 0.24817827 -0.12383563 0.06701026
-0.03135981 0.05067155 0.25827077 -0.24911101 0.08597957 -0.022833155 -0.17291093 -0.03084107
-0.18644755 0.26693368 -0.13764192 -0.021802543 0.14003421 -0.011456599 -0.33694306 0.16939937
0.03704128 0.21125877 0.32663375 -0.06593078 0.14236856 -0.14937182 0.25010315 0.12033398

Mixer_Block.0.mlp_block_channel_mixing_DynaMixerOperation.fc_Nd.bias f4 [484]
00000000: cec6 aabd 57f5 2cbd 79d0 3fbd b2e3 87be
00000010: a556 833e 7e0d 18bc 131c ad3d 47f7 203e
00000020: 0cca c73d d284 01be a8ba 893d 8a7f 8d3e
00000030: c5bf b5be 5477 de3d 6adf d53d 713f 81bd
00000040: 48f3 b03d ecfb e6bd 56c1 01bb 532e c9bd
00000050: a16e 243c ed02 813d a758 b13e 1716 abbe
00000060: c3fa 17be d571 34be 18df 8fbe 7193 4dbc
00000070: 8591 cf3e dee0 983e 14d1 2b3d 89be 7fbe
00000080: ab53 cd3d 46be 2ebd 324a 473e 3723 88bd
00000090: 2021 dabd d03b 4b3e 0e0a 48be e132 c1be
000000a0: 32a2 0bbd 77ac 03bf 55da 7dbe 5b7f a2be
000000b0: 8b1e 0abd 6549 053e 57d9 c5bc 0b1e 1cbe
000000c0: 0e68 3ebd 22d7 453d c046 82be f60e b73e
000000d0: 96b5 973d 5070 8dbd fc1c 983c 548f e93d
000000e0: c421 7fbe 3a23 493d 6bcf 90be 1719 a1bc
000000f0: 519c 6dbe 8a85 063e 1d8f cd3e 6ccf f73d
00000100: 095e d63d 866c 7b3e e51e 88bd e44f b43e
00000110: bfd9 bc3e eca3 5cbe cc5e dbbd 5766 a03b
00000120: 7346 823d c7bb a9bd 062b 45bd 53d6 33be
00000130: 99ca d63d 3653 ab3d 97b9 993e 76c3 9ebd
00000140: c586 6abc 798e 6e3e 55fb 5bbe 2008 32bd
00000150: 8c7f db3c 07ff 2fbe 31e9 46be b07c dcba
00000160: ac0d babb e02e fbbd ea02 d03d 9b36 0f3e
00000170: 48bf 453d 88d4 993e 642d 93be b395 b8be
00000180: bf19 f43d 9930 8cbb 286b 22bc 394b 80be
00000190: 709b 22be 8008 ebbd 3063 8f3e 069c d53e
000001a0: 2eaa 7f3d 4dbb 8d3e 6a3c 8bbd a424 f83d
000001b0: 3326 25be 5198 e0bc 997a 55be 1373 52bd
000001c0: 1363 ce3e 8294 fabd 0afd 013e 985f 3e3e
000001d0: 97d3 93be 76b0 27be 9900 cf3e 6add 333e
000001e0: 2642 7c3d 5a1d 61be f758 d93c 565b 633e
000001f0: efba cdbc bb4e 8bbd 8ed3 acbe b892 a4bd
00000200: 15d9 5dbc badc 7d3e 54b9 cf3d e8c0 ed3d
00000210: b9c2 f7bb 2f0a 9d3e 2bf7 2b3e 9c86 5c3e
00000220: b202 ecbd 1bb5 babd 54ef 5bbe 7784 84be
00000230: 73ba 38be 275b d0bb 1688 6e3d db87 cbbd
00000240: abd9 ea3b 3636 6cbe 5d81 0c3d 7081 403e
00000250: 4683 4ebd 313a c83d fb31 f23d ade2 0f3d
00000260: 7ee9 d5be f38a b0bc 97c7 92bd 1830 e03d
00000270: d762 92bd 1fc6 57be 1326 ec3d e816 fb3d
00000280: 0fb7 eb3d 1cc1 303e 2929 2ebe 5d92 82be
00000290: 53fd cabd 780a 833e 6c1f 9ebe 2bb1 663e
000002a0: b188 b9bc 5515 00bd e390 ad3e 0c47 0bbe
000002b0: e9e7 b4bd 5893 0f3e 533b d53e 89ee 1fbe
000002c0: 2fe3 913e 3827 a5be f82b 1abe 89a5 ed3d
000002d0: b929 873d 2bef 993e 69bd 80be b22f 29be
000002e0: 0ff4 e53e f8b6 d0bd 7e80 25bd d86e 87bb
000002f0: c10b f2bd e254 ecbd 0063 26be 1209 f4be
00000300: a06a 1ebe a336 afbe 97bb 18be 79da 533e
00000310: 4e64 823e a93b 27be 08fd 2d3e 27c6 efbd
00000320: 2ba5 3dbe 8b2a 183a a3ca 92bd e3e1 913d
00000330: 554c 523e 60dd 303e 7576 7e3c a3bd b9be
00000340: 9351 bc3c 7bd3 843e 2e6e 03bd ba7d 633e
00000350: a1f2 2dbe bfe7 65be 22c6 02be 5733 6cbe
00000360: 8874 3d3d 61c6 7ebe 0b41 943e 7a15 02be
00000370: 4ce1 b33e f816 803e d86a 1bbf fe1b a2be
00000380: 067b 333e 6eb5 0a3e 6746 a53e e75d d83b
00000390: 427f a7bd 0e19 f0be 12bf 2c3e 15f1 73be
000003a0: ce60 57be d0a6 86bd 5468 3abd 9bf4 8f39
000003b0: 7b16 263f 83af 8d3d 8a92 fc3d cfd7 afbc
000003c0: 33c4 b7bd 1d49 8ebe 6c33 dabd b567 5e3d
000003d0: 1bd8 97be 71fa cabd a8b4 9d3e 27e9 45be
000003e0: 0ec4 953e 3b41 79be 742a 02bf ac3b 0abe
000003f0: 4c0b 3a3e 4433 cdbe 61df cabd 8444 39be
-0.083387 -0.04222616 -0.046829674 -0.26540905 0.25652042 -0.009280561 0.0845262 0.15719329
0.09755334 -0.12648323 0.06725055 0.27636367 -0.3549787 0.10862604 0.104430035 -0.063109286
0.08640152 -0.11278519 -0.0019799075 -0.09823289 0.010036142 0.06299386 0.3463795 -0.3341529
-0.14841752 -0.17621548 -0.28099895 -0.01254736 0.4054071 0.2985906 0.04194744 -0.24975027
0.10025724 -0.042661928 0.19461897 -0.06647342 -0.10650849 0.19847035 -0.19535086 -0.3773413
-0.03409023 -0.51435035 -0.24790318 -0.3173779 -0.033720534 0.13016279 -0.024151487 -0.15245835
-0.046485953 0.04830087 -0.25444603 0.35753602 0.07407682 -0.069061875 0.018568508 0.11404291
-0.24915224 0.04910586 -0.28283247 -0.019665284 -0.23204161 0.13136879 0.4014825 0.121001095
0.104671545 0.24553117 -0.06646518 0.35217202 0.36884877 -0.21546906 -0.107114404 0.0048950124
0.06361093 -0.08287769 -0.048136733 -0.17562227 0.10487861 0.083654806 0.30024406 -0.07752125
-0.014314358 0.23296537 -0.21482594 -0.04346478 0.026794218 -0.17187129 -0.19424893 -0.0016821828
-0.0056778993 -0.122648 0.10156806 0.13985674 0.048278123 0.3004496 -0.28745568 -0.3605171
0.11918973 -0.004278254 -0.009913243 -0.2505739 -0.15879607 -0.114762306 0.28005362 0.417206
0.062418155 0.27681962 -0.067986324 0.12116364 -0.16127853 -0.02741638 -0.20847549 -0.051379275
0.40309963 -0.12235357 0.12694183 0.18591154 -0.28872368 -0.16375908 0.40430143 0.17564932
0.06158652 -0.21983853 0.02653168 0.2220281 -0.025113551 -0.06802126 -0.33755153 -0.08035797
-0.013540526 0.24791232 0.101427704 0.116090596 -0.0075610545 0.30671832 0.16793506 0.21535724
-0.115239516 -0.091165744 -0.21478015 -0.25882313 -0.18039875 -0.0063585225 0.05823525 -0.09938022
0.0071670613 -0.23067555 0.034303058 0.18799376 -0.05041816 0.09776724 0.11825939 0.035128284
-0.41779703 -0.021550631 -0.07166975 0.10946673 -0.071477585 -0.21071671 0.115306996 0.122602284
0.11509525 0.17261165 -0.17007889 -0.2550229 -0.09911599 0.25593925 -0.30883348 0.22528522
-0.022648187 -0.031270344 0.33899602 -0.13601321 -0.08833296 0.14021051 0.41646823 -0.15618338
0.2849364 -0.32256484 -0.15055835 0.11603839 0.06599755 0.30065283 -0.25144508 -0.165221
0.44912764 -0.101911485 -0.040405743 -0.0041330867 -0.11818648 -0.115396276 -0.16248703 -0.4766317
-0.15470362 -0.34221372 -0.1491531 0.2068881 0.2546715 -0.16331352 0.16991055 -0.117077164
-0.18520038 0.0005804679 -0.07167556 0.071231626 0.20536931 0.17271948 0.015531172 -0.36277494
0.022988116 0.25942597 -0.032087497 0.2221593 -0.16987087 -0.22451685 -0.12770894 -0.2306646
0.04625371 -0.24880363 0.28955874 -0.12703505 0.35132825 0.25017524 -0.60709906 -0.3166198
0.17527398 0.13545772 0.32280275 0.006602991 -0.081785694 -0.46894115 0.16869763 -0.23822434
-0.21033022 -0.06574786 -0.04550965 0.0002745733 0.6487805 0.06918242 0.123326376 -0.02146521
-0.08972969 -0.27790156 -0.10654339 0.05429812 -0.29657063 -0.09911049 0.30801892 -0.19327222
0.2925114 -0.2434129 -0.5084603 -0.13499326 0.18168372 -0.40078175 -0.099058874 -0.18092543

Mixer_Block.0.mlp_block_channel_mixing_DynaMixerOperation.fc_out.weight f4 [10, 10]
00000000: 5ce7 1cbe fc75 743d 7b5c 413e 8bfa f9bd
00000010: e2ea b4bd 1d42 ecbd b768 00be dad2 73be
00000020: ef16 40be dbad 84be 437e efbe 2619 c4be
00000030: 291b 7f3e 3bf0 0abe f5b6 76bd d2cf 41be
00000040: 7c90 67bd 7a1f 8dbe 1933 67be 56d3 23be
00000050: 5fb7 93be f314 86be 0302 1c3d 539a 8abd
00000060: 2d0d 9d3c 7e53 6dbc 2e4b 1c3e a2f3 10be
00000070: 788e 7ebd 9d64 963d 9ac8 c13d 14a6 c53e
00000080: b25f 92be e1d1 6d3e 0f9b 1cbc f902 023e
00000090: 6011 003e df73 2ebc be23 693d 13f6 87bd
000000a0: c071 253f df26 063f 5bbb 85bd 1867 023d
000000b0: 7660 5bbe 5f90 a4bd 3fc1 8dbe 6959 d6bd
000000c0: 6415 bdbd 4733 a8bd 4a58 83be b085 1e3f
000000d0: a910 4d3e 4cd6 333e d212 abbd 7f5e 383e
000000e0: f718 10be 63cf b13d b960 cebd a648 22bc
000000f0: dc06 803f ca76 383d cbbb 653e 13e1 cabd
00000100: 0196 303d eb4f b03a 13e5 a73c 55fb d3bd
00000110: a5d2 08be 4c60 91bd 19e8 0f3f 0d21 123f
00000120: 0507 50be 42af 27bd aa39 05be aee1 703d
00000130: 9bd4 a23b f03a 19bd 97e8 dd3d 8524 063d
00000140: b3ae 163f 13a1 5cbe ffd9 da3d 5237 913d
00000150: ffc3 613d f108 023e 2dfb 9bbd 7e63 16be
00000160: 325d 25be 3eb1 1dbe da14 843e fb8d 4b3f
00000170: 5d83 60be 25c9 273e 3b5b 77be 0e66 0b3e
00000180: e3bd a8bd 97d0 a13d 09b8 1c3d bcf6 2b3e
-0.15322632 0.05968283 0.18882935 -0.122059904 -0.08833863 -0.115360476 -0.12539946 -0.23810902
-0.18758748 -0.2591389 -0.46776018 -0.38300437 0.24912705 -0.13568203 -0.060233075 -0.18926933
-0.056534275 -0.27563077 -0.22578086 -0.15998587 -0.2885084 -0.26187858 0.038087856 -0.06767716
0.019171322 -0.014485238 0.15263054 -0.14155439 -0.062147588 0.07343409 0.0946209 0.3860327
-0.28588635 0.23224594 -0.009558453 0.12696446 0.12506628 -0.010647743 0.056918852 -0.06638732
0.64626694 0.5240306 -0.06529876 0.0318366 -0.21423516 -0.08035349 -0.27686498 -0.104662724
-0.092325956 -0.082129054 -0.25653297 0.6192274 0.20025887 0.17562217 -0.08353199 0.18004797
-0.14072023 0.08682134 -0.10077042 -0.009905016 1.0002093 0.04503516 0.22434919 -0.09906211
0.043111805 0.0013451552 0.020494973 -0.10350672 -0.13361605 -0.07098445 0.5621353 0.5708168
-0.20315178 -0.040938623 -0.13010278 0.058808975 0.004969192 -0.037409723 0.108353786 0.03274967
0.5886032 -0.2154582 0.10686111 0.0709063 0.055118557 0.12698723 -0.07616267 -0.14686391
-0.16148832 -0.15399644 0.25797158 0.7951352 -0.21925111 0.16385324 -0.24155895 0.1361315
-0.08239343 0.079011135 0.038261447 0.1679334

Mixer_Block.0.mlp_block_channel_mixing_DynaMixerOperation.fc_out.bias f4 [10]
00000000: 70e1 74bd 57bb 073f 6f67 c43e 2b41 513e
00000010: cc80 31bc 2abd 183f 09b5 d33e 21e9 1abe
00000020: b403 e8bd c817 423e
-0.059785306 0.5302023 0.38360164 0.20435016 -0.01083393 0.5966364 0.41349056 -0.15127994
-0.11328831 0.18954384

Mixer_Block.0.mlp_block_channel_mixing_DynaMixerOperation.LN.weight f4 [22]
00000000: bfc9 8e3f c048 703f 59fe 9a3f 3c0f 953f
00000010: 90b7 a93f 47ab 833f 9583 9d3f 4e73 953f
00000020: ba08 893f 5545 923f e6c6 973f 36f1 8e3f
00000030: 7305 883f e8ee 983f 1675 9b3f 7805 973f
00000040: 35f6 8f3f 1f20 883f ac77 853f a298 a73f
00000050: 3ee7 a13f 97c4 633f
1.1155318 0.9386101 1.2108871 1.1645274 1.3259144 1.0286645 1.2305781 1.1675813
1.0705788 1.1427408 1.1857574 1.1167362 1.0626663 1.1947908 1.2145107 1.1798544
1.1247011 1.0634803 1.0427146 1.3093455 1.2648695 0.8897185

Mixer_Block.0.mlp_block_channel_mixing_DynaMixerOperation.LN.bias f4 [22]
00000000: 6540 b2bd b48a 45be 6b27 38bd b147 2ebd
00000010: 0777 683d eb9b 053e f1c1 ac3d 4759 d2bb
00000020: de68 e8bd 508a da3a 3544 8e3d 42b4 8f3c
00000030: ddad ccbd 474e 3bbc 7086 143e a451 ec3d
00000040: cb33 b83d 9a24 6b3d 098c b0be a835 9b3d
00000050: fefa fc3b f04e c2bb
-0.087036885 -0.19291192 -0.044959467 -0.04254884 0.05675414 0.13047759 0.08435429 -0.006419334
-0.11348127 0.00166733 0.06946603 0.017542008 -0.09994099 -0.011432237 0.14504409 0.11539009
0.08994254 0.057407953 -0.34481838 0.075785935 0.0077203503 -0.0059298202
