M_2_AST/MotionMixer-main/h36m/run_for_longging/exp230/model.pt (torch, 870893 bytes, 184 tensors)

Mixer_Block.0.mlp_block_token_mixing.fc1.weight f4 [20, 10]
0	0xbe847a8b	-0.25874743
1	0xbd161bcd	-0.036647607
2	0x3e4b2676	0.1983889
3	0x3f2cf0fc	0.6755521
4	0xbe266221	-0.1624837
5	0x3df49b28	0.11943656
6	0xbe04533b	-0.12922375
7	0xbe7b9c68	-0.24571383
8	0x3d206f02	0.039168365
9	0xbf4ac40b	-0.7920539
10	0xbe59b7bd	-0.21261497
11	0x3e411a16	0.18857607
12	0xbd6befad	-0.05760162
13	0x3ed7b91f	0.42133424
14	0xbf027784	-0.50963616
15	0x3f19db69	0.6010042
16	0x3d9e0b74	0.07717028
17	0x3ea0fd43	0.31443223
18	0xbe89e964	-0.26935875
19	0xbe39f63b	-0.18160336
20	0xbe7329bb	-0.23746388
21	0x3e904139	0.2817476
22	0xbe2eb427	-0.1706091
23	0x3edbe126	0.42945212
24	0xbd827419	-0.063698
25	0x3ec19175	0.37806287
26	0xbe834cb5	-0.2564446
27	0x3e0a2007	0.1348878
28	0xbf4babb8	-0.79558897
29	0x3edb903d	0.42883483
30	0x3d1571a2	0.03648532
31	0xbed6b316	-0.41933507
32	0x3e46b67c	0.1940555
33	0xbebf1643	-0.37321672
34	0x3e0c20b9	0.13684358
35	0xbf1c363c	-0.61020255
36	0x3f30afc5	0.69018203
37	0xbed2f98c	-0.41206014
38	0xbe019f17	-0.12658344
39	0x3eb7b3f1	0.35879472
40	0x3e228e9c	0.15874714
41	0xbe2b68e4	-0.16739231
42	0x3c83ad00	0.016073704
43	0xbec82eb1	-0.39098123
44	0x3eaf019a	0.3418091
45	0xbf429f69	-0.7602449
46	0x3e3f4ba4	0.18681198
47	0xbe8e78ab	-0.27826437
48	0x3f25b770	0.6473303
49	0xbd522c1f	-0.05131161
50	0xbecc211f	-0.3986902
51	0xbec7654c	-0.3894447
52	0xbea03344	-0.31289113
53	0x3e6d8efb	0.23199074
54	0x3f70b17c	0.9402082
55	0xbf33b839	-0.70202976
56	0xbf07d756	-0.5306295
57	0x3de15974	0.1100339
58	0x3d6a1e39	0.05715773
59	0x3e8ead0c	0.278664
60	0x3e84b862	0.25921923
61	0xbe6d78fe	-0.23190686
62	0x3e96054a	0.2930091
63	0xbe07e335	-0.13270266
64	0x3f32afab	0.697993
65	0xbe4643c4	-0.19361788
66	0x3f19b1df	0.60037035
67	0xbe3ce0c5	-0.18445118
68	0x3e57e32c	0.21082753
69	0xbf11d381	-0.56963354
70	0x3ea71803	0.32635507
71	0x3f10aa00	0.565094
72	0xbed6d7f8	-0.41961646
73	0x3e941ecb	0.28929743
74	0xbf34fb75	-0.7069619
75	0x3e5dd5cd	0.2166359
76	0x3f39a0f2	0.7251121
77	0xbe078961	-0.13236
78	0xbd478399	-0.048709486
79	0xbe66ae9b	-0.22527544
80	0xbec8ff49	-0.39257267
81	0x3f14312c	0.5788753
82	0xbecde40b	-0.40213045
83	0xbd7fa949	-0.062417302
84	0x3d8fe7a5	0.070266046
85	0x3e105870	0.14096236
86	0xbee7a403	-0.4524232
87	0x3f43eef0	0.76536465
88	0x3da0165e	0.07816766
89	0xbca03bc0	-0.019559741
90	0x3e5176b4	0.20455438
91	0xbe0d25a4	-0.1378389
92	0x3ede4f45	0.43419853
93	0xbf398df8	-0.7248225
94	0xbf4192e7	-0.7561478
95	0xbed64956	-0.41852826
96	0x3dcd3ef2	0.100217715
97	0x3f3c7686	0.7361835
98	0x3ebc57be	0.36785692
99	0x3e824e06	0.25450152
100	0xbe3aea40	-0.18253422
101	0x3de33bb0	0.11095369
102	0x3c86466f	0.016391007
103	0xbcf77294	-0.030206002
104	0xbf0c8642	-0.5489236
105	0x3f4b7653	0.79477423
106	0xbeb79427	-0.3585522
107	0xbdb19ae6	-0.08672123
108	0x3e7e2ee5	0.24822576
109	0xbe32ebe7	-0.17472802
110	0xbe842822	-0.2581187
111	0x3d9000ee	0.07031427
112	0xbddb8a88	-0.10719782
113	0x3e51cb54	0.2048772
114	0xbe65ffa5	-0.22460802
115	0x3f2aff63	0.6679594
116	0xbf140770	-0.5782385
117	0x3f35e401	0.7105103
118	0xbeed9ad1	-0.46407178
119	0xbcee6e30	-0.029105276
120	0xbe8111af	-0.25208804
121	0x3eb947db	0.36187634
122	0x3e241887	0.16024981
123	0xbc9d03cf	-0.019166855
124	0xbf37ef2b	-0.71849316
125	0x3e0e033e	0.13868424
126	0xbec333df	-0.38125512
127	0x3db72d5e	0.089442
128	0xbe96f2b3	-0.2948204
129	0x3f3b63bd	0.73199064
130	0xbe7a2632	-0.24428633
131	0xbe69f865	-0.22848661
132	0xbf0084c9	-0.50202614
133	0xbf4534b1	-0.77033526
134	0x3ef6a555	0.48173013
135	0x3f1a56aa	0.6028849
136	0x3eb501c5	0.35352913
137	0x3e68328d	0.22675534
138	0xbe673922	-0.22580388
139	0x3ef99ba7	0.48751566
140	0xbd16728d	-0.036730338
141	0x3e8d4b04	0.27596295
142	0xbefad84f	-0.48993155
143	0x3f2f966d	0.68588907
144	0x3e4e9f99	0.20178069
145	0x3ed431fa	0.4144438
146	0xbea18152	-0.31543976
147	0xbe720864	-0.23636013
148	0x3f08ff36	0.5351442
149	0xbefa99c3	-0.48945436
150	0xbeeffbd8	-0.4687183
151	0x3d9a3145	0.07528929
152	0xbee3ab47	-0.44466612
153	0x3ee9f1d7	0.45692322
154	0xbf22f16e	-0.6364964
155	0xbe901552	-0.28141266
156	0x3bf9a055	0.00761799
157	0xbea366e8	-0.3191445
158	0x3ed415a5	0.41422763
159	0x3eb0991a	0.34491807
160	0xbe45ff14	-0.19335586
161	0xbdcd459b	-0.10023042
162	0x3f22dd42	0.6361886
163	0xbda108d0	-0.07863009
164	0xbe181532	-0.14851835
165	0xbe950e7d	-0.29112616
166	0xbea5ea63	-0.32405385
167	0x3d4a1594	0.049336985
168	0xbee8be5f	-0.45457742
169	0x3b28ee43	0.002577678
170	0x3cffa983	0.03120876
171	0x3e9a48c3	0.30133638
172	0xbeba3284	-0.36366665
173	0x3f66bc97	0.90131515
174	0xbef50a8f	-0.47859618
175	0xbf001df8	-0.5004573
176	0xbde52182	-0.11188032
177	0x3ee114a4	0.4396106
178	0xbd87b9b9	-0.06627221
179	0x3dd4a8eb	0.10383781
180	0x3da5873d	0.08082435
181	0xbeb68776	-0.35650223
182	0x3f016b92	0.50554764
183	0xbe731a54	-0.23740512
184	0x3edf6ee4	0.4363929
185	0x3e01add7	0.12663971
186	0x3beea7a3	0.0072831674
187	0xbf4e6770	-0.80626583
188	0x3f1102ef	0.566451
189	0xbdf2685e	-0.11836313
190	0x3d69ff3e	0.057128184
191	0x3ec5046f	0.38479945
192	0xbe8077f0	-0.25091505
193	0xbd96f28f	-0.07370483
194	0xbeaa9b93	-0.3332182
195	0x3ee8c278	0.45460868
196	0xbf4213bd	-0.7581137
197	0xbcdef4fc	-0.027216427
198	0xbe179cfd	-0.1480598
199	0x3ef84d78	0.48496604

Mixer_Block.0.mlp_block_token_mixing.fc1.bias f4 [20]
0	0x3e9ead25	0.30991474
1	0x3e9ab3b3	0.30215225
2	0x3edbe459	0.42947653
3	0x3ef4ecb4	0.4783684
4	0x3ee3b9fc	0.44477832
5	0x3f313099	0.6921478
6	0x3edf6b28	0.4363644
7	0x3ea200a1	0.31641105
8	0x3dfed63c	0.12443206
9	0x3f750e59	0.9572502
10	0x3ec8abc1	0.39193538
11	0x3f0cd3aa	0.55010474
12	0x3ed25d69	0.4108689
13	0x3f93b467	1.153943
14	0x3e44495f	0.19168614
15	0x3e888619	0.26664808
16	0x3ed83432	0.42227322
17	0x3eaa2f22	0.33239084
18	0x3f2c491f	0.67299074
19	0x3efb4bb8	0.49081206

Mixer_Block.0.mlp_block_token_mixing.fc2.weight f4 [10, 20]
0	0x3ed35d77	0.41282246
1	0xbd7ae758	-0.061255783
2	0xbd066a5a	-0.03281627
3	0x3f009fc8	0.50243807
4	0x3cd6887b	0.026188126
5	0x3ea64f0b	0.3248218
6	0x3eb0f8c6	0.345648
7	0xbf54ef72	-0.83177865
8	0xbeb380e0	-0.3505926
9	0x3d65d839	0.05611441
10	0xbe4b31f4	-0.19843274
11	0x3c79a03c	0.015235957
12	0x3daed7c5	0.085372485
13	0xbe0adea6	-0.13561496
14	0xbf0f3419	-0.5593887
15	0xbc4b846a	-0.012421707
16	0x3f0f89c9	0.5606962
17	0xbf1f4922	-0.62220967
18	0x3f216f41	0.63060385
19	0xbf60adce	-0.87765205
20	0x3e36b9c6	0.17844304
21	0x3ee925c4	0.45536625
22	0x3eb410e6	0.35169142
23	0xbddb3331	-0.10703123
24	0xbe8d1182	-0.2755242
25	0x3ee45f80	0.4460411
26	0xbeb4afbe	-0.3529033
27	0x3cd5393a	0.026028264
28	0xbe74be93	-0.23900823
29	0xbf0148fd	-0.50501996
30	0x3e32248f	0.17396758
31	0x3e849d70	0.25901365
32	0xbe47409b	-0.19458239
33	0x3e0fac68	0.14030612
34	0x3ea897bf	0.32928273
35	0x3f53a024	0.8266623
36	0xbeb4cbe6	-0.35311812
37	0x3e6d8c52	0.23198059
38	0xbe45399b	-0.19260256
39	0xbe411787	-0.18856631
40	0xbf11acdc	-0.5690439
41	0xbeb1074e	-0.34575886
42	0xbf026a73	-0.5094368
43	0x3e35b5d2	0.1774514
44	0x3ee4bd52	0.4467569
45	0x3eaeb966	0.34125823
46	0x3f534390	0.8252497
47	0xbcd7254f	-0.026262907
48	0xbe254b02	-0.16141894
49	0xbedc48ca	-0.43024284
50	0xbe9d297e	-0.3069572
51	0xbe035eac	-0.12829083
52	0xbf61ad01	-0.8815461
53	0x3f5b159a	0.85579836
54	0x3d9c2cd4	0.07625738
55	0xbec06209	-0.37574795
56	0xbf1c762c	-0.61117816
57	0xbe86a836	-0.2630021
58	0xbe37ec3c	-0.1796121
59	0xbe8356f2	-0.25652272
60	0xbeeb47ce	-0.4595322
61	0x3f19baf6	0.60050905
62	0xbdfe9551	-0.124308236
63	0xbeef6115	-0.46753755
64	0xbf00bc43	-0.50287265
65	0xbef73868	-0.48285222
66	0xbf02e915	-0.51136905
67	0x3c0ed0d8	0.008716784
68	0x3edd4d81	0.43223193
69	0x3edea34c	0.4348396
70	0x3f6fa400	0.9360962
71	0x3f667fbe	0.9003867
72	0x3e86d3e4	0.26333535
73	0x3f2c1e64	0.6723387
74	0xbe30b148	-0.17255127
75	0xbed5f6e4	-0.41789925
76	0xbe78a234	-0.24280626
77	0xbf07f273	-0.53104323
78	0xbebce5b3	-0.36893997
79	0x3ed9c509	0.42533138
80	0xbebac16c	-0.36475694
81	0x3eb09789	0.34490612
82	0xbf2b6e8f	-0.66965574
83	0x3edbb054	0.42907965
84	0x3e09ce60	0.13457632
85	0xbf527804	-0.8221438
86	0xbddb628c	-0.10712156
87	0x3ec32eaa	0.3812154
88	0xbf1079f6	-0.564361
89	0x3f481cb9	0.7816883
90	0x3e36b707	0.17843257
91	0xbed07f89	-0.40722302
92	0x3e0199b2	0.12656286
93	0xbe563c99	-0.20921554
94	0xbef74272	-0.4829288
95	0x3eab0c34	0.33407748
96	0xbe621026	-0.22076473
97	0x3d36c4d2	0.044621296
98	0xbdeca912	-0.11555685
99	0xbeb4f193	-0.35340557
100	0xbcf44c88	-0.02982165
101	0xbd89ea04	-0.06734088
102	0x3e0c0953	0.13675432
103	0xbcced7dd	-0.025249416
104	0x3eb40659	0.35161093
105	0x3edbec8b	0.42953905
106	0xbd8d6244	-0.06903508
107	0x3cf0d34f	0.029397635
108	0x3ebb0133	0.36524352
109	0x3eb6c62a	0.35698062
110	0xbf1c8db2	-0.6115371
111	0xbb8bd569	-0.004267384
112	0x3e678047	0.22607528
113	0xbec6aced	-0.38803807
114	0x3e052562	0.13002542
115	0x3f146e48	0.57980776
116	0x3e085ca1	0.13316585
117	0x3f702772	0.9381019
118	0xbf1783a6	-0.59185255
119	0xbe3ec783	-0.18630795
120	0xbeb3df37	-0.35131237
121	0xbf168f29	-0.58812195
122	0xbede6fed	-0.43444768
123	0xbf2432bc	-0.64139915
124	0x3f050769	0.5196443
125	0x3ee5ab69	0.44857338
126	0x3d0ef7fe	0.034904473
127	0xbf2f34b2	-0.6843978
128	0x3d25f00f	0.04051214
129	0xbdb3693a	-0.08760305
130	0xbdf7bd93	-0.12096705
131	0xbd80e328	-0.062933266
132	0xbe882ff0	-0.26599073
133	0xbdc778cb	-0.09739836
134	0x3e96a979	0.29426172
135	0xbec37131	-0.38172296
136	0xbe239886	-0.15976152
137	0xbe5d6bd1	-0.2162316
138	0x3ec302e9	0.38088158
139	0x3e7c4243	0.24634652
140	0x3e0f08d4	0.13968211
141	0x3eab99ec	0.3351587
142	0x3f1e96de	0.61948955
143	0xbe3337e4	-0.1750179
144	0xbf17b83a	-0.5926548
145	0xbe748aeb	-0.23881118
146	0xbe3142de	-0.17310664
147	0x3e340f5e	0.17583987
148	0xbed93468	-0.42422795
149	0xbf41d8a5	-0.757212
150	0x3f0f2acf	0.55924696
151	0x3c3f5306	0.011677509
152	0x3e617d15	0.22020371
153	0xbe395591	-0.18099047
154	0x3ed6ea82	0.4197579
155	0x3e7ce38b	0.24696176
156	0xbda286c8	-0.07935864
157	0xbde443d6	-0.11145751
158	0x3f09b26d	0.5378788
159	0x3f19a8d2	0.60023224
160	0xbe851bf4	-0.2599789
161	0x3e0f966c	0.14022225
162	0x3f20bc11	0.62786967
163	0x3e8a14ac	0.26968896
164	0xbf1dcd73	-0.61641616
165	0xbda4fafd	-0.08055685
166	0x3e8fa6a9	0.2805684
167	0xbd760fca	-0.06007365
168	0xbe6d307b	-0.23163025
169	0xbe545578	-0.20735729
170	0xbf128c2d	-0.5724514
171	0x3dc03564	0.093851835
172	0xbd4a641b	-0.049411874
173	0x3e6a1e01	0.22863008
174	0xbf3c6119	-0.7358566
175	0xbf6a1846	-0.9144329
176	0x3e374b0b	0.1789972
177	0xbe44e338	-0.19227302
178	0xbeb9fc0b	-0.36325106
179	0xbed096ed	-0.40740147
180	0x3f18027c	0.5937879
181	0x3f05c77a	0.522575
182	0xbe910739	-0.28325823
183	0xbf0488a5	-0.51771003
184	0xbe63d770	-0.22250152
185	0xbe8fbdb6	-0.28074425
186	0x3f46e8e7	0.7769913
187	0x3e9816ae	0.29704803
188	0xbc0f60b6	-0.008751085
189	0xbddc4312	-0.1075498
190	0x3e21330f	0.15742134
191	0x3f06a85c	0.52600646
192	0xbf4bc6b1	-0.79600054
193	0xbe86ea76	-0.26350754
194	0x3f3fc6d5	0.7491277
195	0xbf4f2352	-0.8091327
196	0xbe2ed24d	-0.17072411
197	0x3e4bb9a7	0.1989504
198	0x3ca2dc98	0.019880578
199	0xbebc4b81	-0.36776355

Mixer_Block.0.mlp_block_token_mixing.fc2.bias f4 [10]
0	0x3d700ca7	0.058605816
1	0xbe99d128	-0.30042386
2	0x3f2b58d9	0.66932446
3	0xbf105211	-0.56375223
4	0x3f3ef340	0.7458992
5	0xbf05b90a	-0.5223547
6	0x3f53c7aa	0.8272654
7	0xbd3ab8d3	-0.04558642
8	0x3f734396	0.95025
9	0x3e64e6e5	0.22353704

Mixer_Block.0.mlp_block_token_mixing_DynaMixerOperation.fc_ND.weight f4 [1, 66]
0	0x3b91e2a7	0.004452068
1	0x3ad55dd8	0.0016278578
2	0x3d684f4e	0.056716256
3	0xbc6b8507	-0.014374978
4	0x3a3e6a38	0.00072637526
5	0xba38eb36	-0.0007054092
6	0xbca111b0	-0.019661754
7	0x3d85f048	0.06539971
8	0xbd48d112	-0.04902751
9	0xbc4c01e3	-0.012451622
10	0x3c8421cb	0.016129395
11	0x3c92422c	0.017853819
12	0x3c98dddc	0.018660478
13	0xbd91bce1	-0.07116104
14	0xbcc38a93	-0.023869788
15	0x3c95e5a2	0.018297974
16	0x3cf6a81c	0.030109458
17	0xbbc597d3	-0.0060300617
18	0x3cb066aa	0.021533329
19	0xbc7fd9b9	-0.015615874
20	0xbcf74d2b	-0.030188164
21	0xbdbb899e	-0.09157108
22	0xbd9c5181	-0.07632733
23	0xbca4f8d3	-0.02013818
24	0xbdfe7f17	-0.12426584
25	0x3b1554b8	0.0022786092
26	0xbdd161d5	-0.10223738
27	0xbd15414e	-0.036439233
28	0x3d1176a8	0.03551355
29	0x3ceffb28	0.029294565
30	0xbdbce00e	-0.092224225
31	0xbcc560e7	-0.024094058
32	0xbd28811a	-0.041138746
33	0x3d1a0bfa	0.037609078
34	0xbca41366	-0.020028781
35	0xbcf919e5	-0.030407855
36	0xbd30eefd	-0.043196667
37	0xbd850c8e	-0.06496535
38	0x3d8ac00c	0.06774911
39	0x3be96dea	0.0071236985
40	0x3bba50e5	0.005685913
41	0xbd4fae32	-0.050703235
42	0xbca2e87e	-0.019886252
43	0xbdd6be7c	-0.10485551
44	0x3cbb6a87	0.022877945
45	0xbad272df	-0.0016055963
46	0x3d8c94f9	0.06864352
47	0x3d623af4	0.055232003
48	0x3cc41aa6	0.023938488
49	0xbc487fe8	-0.0122375265
50	0xbd8d7762	-0.06907536
51	0x3d3cd499	0.046101186
52	0x3d1e822c	0.03869836
53	0x3d98d0af	0.07461678
54	0xbdc3d771	-0.095625766
55	0xbcf6fa79	-0.030148732
56	0x3daa898c	0.08327016
57	0x3c03c994	0.008043665
58	0xbdb61fae	-0.08892761
59	0x3d047abe	0.03234362
60	0x3d656ec4	0.056013837
61	0xbca9dc53	-0.020734942
62	0xbdce5705	-0.100751914
63	0xbc24140f	-0.010014548
64	0x3c091aa7	0.008368171
65	0x3d8d336d	0.06894574

Mixer_Block.0.mlp_block_token_mixing_DynaMixerOperation.fc_Nd.weight f4 [100, 10]
0	0xbe8b51d4	-0.27210867
1	0xbe207156	-0.15668234
2	0xbc927af8	-0.017880902
3	0xbd688abf	-0.056772944
4	0xbdd012b3	-0.101598166
5	0x3c4b0737	0.012391857
6	0xbd112a2b	-0.035440605
7	0x3b378f96	0.0028009168
8	0x3e03bdf0	0.12865424
9	0x3dc7fcd0	0.09765017
10	0x3e44b24f	0.19208644
11	0x3e7adeb0	0.24499011
12	0xbe426192	-0.18982533
13	0xbe8edc58	-0.27902484
14	0xbe4123e9	-0.18861355
15	0xbe3ee44c	-0.18641776
16	0xbe84f15c	-0.25965393
17	0xbe373f1b	-0.17895167
18	0xbc6a716c	-0.014309268
19	0xbca2a8cc	-0.01985588
20	0x3ea8c5b4	0.32963336
21	0x3e492e19	0.19646491
22	0x3f3a578f	0.72789854
23	0x3e047e66	0.12938842
24	0x3d01513b	0.031571608
25	0x3e7e2068	0.2481705
26	0x3e7e2d56	0.24821982
27	0x3e6c559d	0.23079534
28	0x3e2ef18c	0.1708433
29	0x3d9f41fa	0.07776256
30	0xbddc3112	-0.10751547
31	0x3e0ce163	0.13757853
32	0xbe3f0aa9	-0.1865641
33	0x3ec00923	0.3750697
34	0xbe042167	-0.12903367
35	0xbc786dd2	-0.015162902
36	0xbd1e632d	-0.0386688
37	0xbd545f8e	-0.05184894
38	0x3d731c8a	0.05935339
39	0x3d8a78c6	0.06761317
40	0x3e6bb40f	0.23017906
41	0x3e4273d5	0.18989499
42	0x3da8bdf5	0.082393564
43	0x3e104d3b	0.14091961
44	0x3ef31415	0.4747626
45	0x3e8a9d5c	0.2707318
46	0x3e860aa3	0.2617999
47	0x3e7e22b2	0.24817923
48	0x3e234d45	0.15947445
49	0x3e182b5f	0.14860295
50	0x3e0f33b8	0.13984573
51	0x3b8c4bd9	0.0042815027
52	0xbcd4edd8	-0.025992319
53	0xbe1eab85	-0.15495117
54	0xbda4889e	-0.0803387
55	0x3d5ec33d	0.054385412
56	0xbda7f06f	-0.08200156
57	0xbe1437e2	-0.14474443
58	0x3e0539cf	0.13010333
59	0xbcf7fefa	-0.03027295
60	0xbe3d0038	-0.18457115
61	0xbca3bd0c	-0.019987606
62	0x3e3e6efe	0.18597028
63	0x3bcd1b7e	0.006259381
64	0x3da34b6e	0.079733714
65	0xbb0261c7	-0.0019894706
66	0x3ecee391	0.40407994
67	0xbe09b061	-0.1344619
68	0x3d01a7a4	0.031654015
69	0x3d983b67	0.07433205
70	0xbe5eae1d	-0.21746106
71	0xbe308b28	-0.17240584
72	0xbdb13157	-0.08651989
73	0xbc413ea0	-0.011794716
74	0x3d6a9448	0.05727032
75	0x3d4e8325	0.050418038
76	0xbd8526ae	-0.06501518
77	0x3eaa3bdb	0.3324879
78	0x3d533e51	0.0515731
79	0x3be33c39	0.0069346693
80	0xbe740797	-0.2383102
81	0xbdebe698	-0.11518592
82	0x3e30388a	0.17209068
83	0x3d89edda	0.0673482
84	0x3d46991b	0.048485857
85	0x3e29b673	0.16573505
86	0x3c6a96fd	0.014318225
87	0xbd136cfb	-0.035992604
88	0x3f215b55	0.63029987
89	0x3d105510	0.035237372
90	0xbdd2e4bd	-0.102975346
91	0xbdd89ac6	-0.10576396
92	0x3d6511d4	0.055925205
93	0xbe6da9a2	-0.23209241
94	0xbdd25cec	-0.1027163
95	0xbe92715b	-0.28602108
96	0xbde8077f	-0.11329555
97	0xbe2fbe3e	-0.17162415
98	0xbc034957	-0.008013091
99	0x3e3dd26c	0.18537301
100	0xbe526f58	-0.20550287
101	0xbd37c789	-0.044868026
102	0xbccbf361	-0.024896326
103	0x3d22aa65	0.039713282
104	0xbdefbf74	-0.11706439
105	0xbd72cfe7	-0.059280302
106	0xbd82c566	-0.06385307
107	0x3d45bd41	0.04827619
108	0xbd536ac1	-0.05161548
109	0xbc66ba25	-0.014082466
110	0xbd822d88	-0.06356341
111	0xbe9ba665	-0.30400386
112	0xbe102fc9	-0.14080729
113	0xbe3e6ba3	-0.18595748
114	0xbeb990c6	-0.36243266
115	0xbea2a618	-0.31767344
116	0xbea624d6	-0.3244998
117	0xbe51893c	-0.20462507
118	0xbe5b44cd	-0.21412964
119	0xbdbfe36a	-0.09369548
120	0x3e83eedb	0.2576817
121	0xbeea162e	-0.45720047
122	0xbdb1ea28	-0.0868724
123	0x3eb490ea	0.3526681
124	0xbda5bdea	-0.08092864
125	0xbcc93e1d	-0.02456575
126	0x3e1c4c99	0.15263595
127	0x3e84e416	0.25955266
128	0xbd21ce6a	-0.039503492
129	0xbddbd0fb	-0.10733219
130	0x3f158b58	0.58415747
131	0x3ea02556	0.31278485
132	0xbe900e20	-0.28135777
133	0x3dc8338f	0.09775459
134	0x3e25b936	0.16183934
135	0xbdeea9fb	-0.11653515
136	0xbd4f5487	-0.05061772
137	0x3b84c712	0.0040520513
138	0xbd2e2262	-0.04251326
139	0xbe80fb19	-0.25191572
140	0x3d975670	0.073895335
141	0x3e2934ca	0.16524044
142	0x3dd88308	0.10571867
143	0xbdc14397	-0.0943672
144	0x3e876181	0.26441577
145	0x3e7e1898	0.2481407
146	0x3e70d069	0.23517002
147	0x3e7c0f5d	0.24615236
148	0x3d6d050f	0.057866152
149	0xbcacdd13	-0.02110151
150	0x3d7fa1bf	0.062410112
151	0x3e1db0cd	0.15399475
152	0x3dad81c1	0.08472014
153	0x3b37162f	0.0027936806
154	0xbe2a7324	-0.16645485
155	0xbe583f5d	-0.21117921
156	0xbb894de0	-0.0041901916
157	0x3dc884f1	0.097909816
158	0x3e15ea18	0.14640081
159	0xbeb92e31	-0.36168054
160	0x3cb463d2	0.022020254
161	0x3e0d4dc0	0.1379919
162	0xbdc5b4e4	-0.09653643
163	0xbce504a9	-0.027956324
164	0xbe309641	-0.17244817
165	0xbde0cb41	-0.109762676
166	0x3d9e96aa	0.07743581
167	0x3a06ffa7	0.00051497895
168	0x3e4c0724	0.19924599
169	0x3dcded9c	0.10055086
170	0xbd0752cb	-0.033037942
171	0xbddda8f0	-0.10823238
172	0xbe598604	-0.21242529
173	0x3dcf2229	0.101139374
174	0xbb479581	-0.0030454102
175	0xbe0b7938	-0.1362046
176	0x3dfa1b15	0.12212197
177	0xbeabcccc	-0.33554685
178	0xbceaf580	-0.028681517
179	0xbe445228	-0.19171965
180	0xbe4a771a	-0.19771996
181	0xbe74b671	-0.23897721
182	0x3e27d5c6	0.16390142
183	0x3c4cc031	0.012496994
184	0x3e5ba99d	0.21451421
185	0x3d302470	0.0430035
186	0xbe668a3c	-0.2251367
187	0x3da45797	0.08024519
188	0x3e277b34	0.16355592
189	0x3d093f22	0.033507474
190	0xbd14853d	-0.03625988
191	0x3e335990	0.17514634
192	0x3f152a49	0.5826765
193	0x3e424f50	0.18975568
194	0xbd09875c	-0.033576354
195	0x3e3e3654	0.18575412
196	0x3e068b5f	0.13139103
197	0xbe95cce7	-0.2925789
198	0xbdd14795	-0.10218731
199	0xbe195dce	-0.1497719
200	0x3ea84132	0.3286224
201	0x3e2d965e	0.16951892
202	0x3e84cf1d	0.25939265
203	0x3c8bfdd9	0.017088817
204	0x3dad6cdc	0.08468029
205	0x3e067bc5	0.13133152
206	0x3e1bb4c6	0.15205678
207	0xbc789029	-0.015171089
208	0x3dc7a30e	0.09747897
209	0x3cf9415a	0.03042667
210	0xbea41fd2	-0.32055527
211	0xbe3d8c68	-0.18510592
212	0xbe4362cf	-0.19080661
213	0xbdcc7235	-0.09982721
214	0xbe2bd569	-0.16780628
215	0xbe29844d	-0.16554375
216	0xbdbb1daa	-0.09136517
217	0xbe6736a0	-0.22579432
218	0xbbca6eab	-0.0061777434
219	0x3c399e12	0.011329191
220	0x3dbef0d1	0.09323276
221	0xbe9a45a3	-0.30131254
222	0xbe8723cf	-0.26394507
223	0x3e4ddad0	0.20103002
224	0xbc1e6dd5	-0.009669741
225	0x3db1dceb	0.08684715
226	0x3d12274e	0.035682015
227	0xbd5bb17f	-0.05363607
228	0x3d3ea1ee	0.046541147
229	0xbd7d66b4	-0.061865523
230	0x3d80d4db	0.06290599
231	0x3d80dc24	0.062919885
232	0xbebe8531	-0.37210992
233	0xbe9e02f2	-0.30861622
234	0x3c0c691b	0.008569981
235	0x3c071a04	0.008245949
236	0xbd0bd281	-0.0341363
237	0xbe30f4db	-0.17280905
238	0xbb2ed079	-0.0026674552
239	0xbbe6b924	-0.0070411135
240	0x3e50bed4	0.20385295
241	0x3e3656ce	0.17806551
242	0x3ed859d0	0.42256021
243	0x3dad61c8	0.08465916
244	0x3e9891e7	0.29798815
245	0xbd9b5804	-0.07585147
246	0x3e91dd70	0.28489256
247	0xbe149bee	-0.14512607
248	0x3e9a7e78	0.30174613
249	0xbc8deb08	-0.017323986
250	0xbe8c3339	-0.2738283
251	0x3eb72876	0.35773057
252	0xbec1b0be	-0.37830156
253	0xbcc5f367	-0.024163915
254	0xbd3ced3b	-0.046124678
255	0xbe15874a	-0.1460239

Mixer_Block.0.mlp_block_token_mixing_DynaMixerOperation.fc_Nd.bias f4 [100]
0	0x3f1a42fe	0.6025847
1	0xbdadc75e	-0.08485292
2	0x3c13bf28	0.009017743
3	0x3aea9511	0.0017897208
4	0x3c8d6460	0.017259777
5	0x3c3a4051	0.011367873
6	0xbe8b9747	-0.27263853
7	0xbe9763c7	-0.29568312
8	0xbe3509f6	-0.17679581
9	0xbea76f5d	-0.3270215
10	0x3ef8c254	0.4858576
11	0x3cdcbe07	0.02694608
12	0xbe2c5082	-0.16827586
13	0x3cffdc6f	0.03123304
14	0xbe8c3bdd	-0.27389422
15	0xbe3ec6d6	-0.18630537
16	0xbf27fc67	-0.6561951
17	0xbf12f030	-0.5739775
18	0xbeff35f6	-0.49845856
19	0xbc8ae814	-0.016956367
20	0xbe946a1d	-0.28987208
21	0x3edb8943	0.4287816
22	0x3e62620e	0.22107717
23	0x3dc9856d	0.09839902
24	0x3d44d0a4	0.048050538
25	0x3dd6ffe5	0.10498027
26	0xbf03ea6c	-0.51529574
27	0xbeb39daf	-0.3508124
28	0xbefe5e83	-0.49681482
29	0x3da1d150	0.07901251
30	0x3f114f3a	0.56761515
31	0xbe937eec	-0.2880777
32	0x3e9fe25d	0.3122739
33	0xbe35fa66	-0.177713
34	0x3e5fae80	0.2184391
35	0xbe112cda	-0.14177266
36	0xbea1001e	-0.31445402
37	0xbebd1242	-0.36927992
38	0xbe4afd8a	-0.1982328
39	0xbf12ccc7	-0.57343715
40	0x3f1238da	0.57118
41	0x3e901159	0.28138235
42	0xbebad25e	-0.36488622
43	0x3e713a09	0.23557295
44	0x3e32716e	0.17426082
45	0xbeda8220	-0.42677402
46	0xbe5ceccb	-0.21574704
47	0xbeac595f	-0.33661935
48	0x3e201593	0.1563323
49	0xbf22d333	-0.63603514
50	0x3ec1ec1f	0.3787546
51	0xbe90ce19	-0.2828224
52	0x3eceac79	0.4036596
53	0xbe55e52c	-0.20888203
54	0x3d3bda23	0.04586233
55	0xbd7a5911	-0.061120097
56	0xbe9c8448	-0.30569673
57	0xbe7a8c1c	-0.2446751
58	0xbd27e695	-0.040991385
59	0xbdd9bfdb	-0.10632297
60	0x3def13f3	0.11673727
61	0xbf33e4bd	-0.702709
62	0xbe37e931	-0.17960049
63	0xbe2086b6	-0.15676388
64	0xbea9285b	-0.330386
65	0x3e3b6872	0.18301561
66	0x3e9af0fe	0.30261987
67	0xbe105fdb	-0.14099066
68	0x3e1976dd	0.14986749
69	0x3d441594	0.04787214
70	0xbf24e8c6	-0.64417684
71	0x3f0a0dc0	0.5392723
72	0x3e3abc6c	0.1823594
73	0x3e844546	0.258341
74	0x3e7e3ea6	0.24828586
75	0xbd0a040f	-0.033695277
76	0x3d4feaff	0.05076122
77	0xbe384e71	-0.17998673
78	0x3d8ed1e9	0.06973631
79	0xbcab2c56	-0.020895164
80	0x3e8081cf	0.25099036
81	0xbf2ccc83	-0.6749956
82	0x3e42657c	0.18984026
83	0xbe95441a	-0.2915352
84	0x3e01b956	0.12668356
85	0xbe5e9084	-0.21734816
86	0xbd737937	-0.05944177
87	0xbcbe820a	-0.023255367
88	0x3e900c33	0.28134307
89	0x3e2a845f	0.16652058
90	0xbf5ab86d	-0.8543766
91	0x3e0163eb	0.12635772
92	0xbd988227	-0.074466996
93	0xbe433ec9	-0.1906692
94	0xbdf746a9	-0.12074024
95	0xbd0eba77	-0.034845795
96	0xbc3a5a0e	-0.01137401
97	0xbdf76ae8	-0.120809376
98	0xbe457ce8	-0.19285929
99	0xbec4e173	-0.38453254

Mixer_Block.0.mlp_block_token_mixing_DynaMixerOperation.fc_out.weight f4 [66, 66]
0	0xbf1b9710	-0.6077738
1	0x3ec5d0d4	0.38635886
2	0xbeb507c8	-0.353575
3	0xbe3a9557	-0.18221031
4	0x3f066308	0.5249486
5	0x3ca01112	0.01953939
6	0x3e579527	0.21052991
7	0xbd83c066	-0.064331815
8	0xbd9e4647	-0.07728248
9	0x3d952b52	0.07283653
10	0x3e4eeb8d	0.20207043
11	0xbd2dbe05	-0.042417545
12	0xbe74abbb	-0.23893635
13	0xbe445724	-0.19173867
14	0x3e5aff82	0.21386531
15	0x3ce7f684	0.02831579
16	0xbcbbbf36	-0.022918325
17	0x3ca8310c	0.0205312
18	0x3d1360d4	0.035981014
19	0xbe253102	-0.16131976
20	0x3e141346	0.14460477
21	0xbe9b02f4	-0.3027569
22	0xbe30c784	-0.17263609
23	0xbdb3583f	-0.08757066
24	0x3ea38b56	0.31942242
25	0x3eda50ad	0.42639676
26	0xbe4d63b3	-0.20057563
27	0x3e852a26	0.2600872
28	0xbd61b616	-0.05510529
29	0xbee5bcbb	-0.44870552
30	0xbe27e4ae	-0.16395828
31	0x3df435f6	0.11924355
32	0xbe6a9364	-0.22907788
33	0xbd286cb5	-0.041119296
34	0xbe379fcd	-0.17932053
35	0x3e85e5d9	0.26151922
36	0x3e9e8f7e	0.3096885
37	0x3f06957d	0.5257185
38	0x3e041eeb	0.1290242
39	0x3de58086	0.112061545
40	0x3cebb120	0.028770983
41	0xbdb54c61	-0.08852459
42	0xbe4b9563	-0.19881205
43	0xbe215d0e	-0.15758154
44	0xbd893a6f	-0.067005984
45	0x3e7c6634	0.24648362
46	0xbe942529	-0.289346
47	0xbea0182b	-0.3126844
48	0xbd114a4f	-0.035471257
49	0xbc6bb2a8	-0.014385857
50	0xbe921cc4	-0.2853757
51	0xbe163202	-0.14667514
52	0x3c952906	0.018208038
53	0x3e3b9270	0.1831758
54	0xbda635f5	-0.0811576
55	0x3e24f272	0.1610811
56	0xbe195ef7	-0.14977632
57	0x3cd6d7e9	0.026226
58	0x3e424dd5	0.18975003
59	0x3cf1e3cb	0.029527565
60	0x3e40142e	0.18757698
61	0x3e8f0006	0.27929705
62	0x3d0ddc2c	0.0346338
63	0x3d22af58	0.039718002
64	0x3e1bab5f	0.15202092
65	0xbe561479	-0.20906247
66	0xbb9c84b8	-0.0047765635
67	0xbf0ceeb3	-0.55051726
68	0x3d6e78b1	0.05822057
69	0xbe1b3254	-0.15155917
70	0xbbb1587a	-0.0054121586
71	0xbe2f0c92	-0.17094639
72	0x3da09423	0.07840755
73	0x3e016833	0.12637405
74	0xbca7ac3a	-0.020467866
75	0xbe397215	-0.18109925
76	0x3e371bc6	0.17881688
77	0x3d86a7ed	0.06574998
78	0x3ec55638	0.38542342
79	0x3e740d26	0.2383314
80	0x3c85accb	0.016317746
81	0xbe5ac2c0	-0.21363354
82	0x3e50fc51	0.20408751
83	0xbe74c851	-0.2390454
84	0xbcf6815e	-0.030090984
85	0x3ea11811	0.31463674
86	0x3e59c466	0.21266326
87	0xbc85e3ad	-0.016343916
88	0x3dad6835	0.084671415
89	0x3e268897	0.16263042
90	0xbe983917	-0.29731056
91	0xbdcd59c5	-0.10026888
92	0x3d6d9c66	0.05801048
93	0xbe4166ac	-0.18886822
94	0xbac6b0b3	-0.0015158862
95	0x3dab6628	0.08369094
96	0xbe31fac2	-0.17380813
97	0xbc86deaf	-0.016463606
98	0x3ce8d75a	0.028423
99	0x3ecc79f0	0.3993678
100	0x3d9e5d9e	0.077327
101	0xbe90999f	-0.28242204
102	0xbc2bd9c7	-0.010488934
103	0xbe5091d9	-0.20368136
104	0x3d8c5e89	0.06853969
105	0x3e23d194	0.15997916
106	0x3dd8cc26	0.10585813
107	0x3d746b3d	0.059672583
108	0xbeac234c	-0.3362068
109	0xbe15436b	-0.14576499
110	0xbd0c44f8	-0.03424546
111	0xbecb674d	-0.3972725
112	0x3bf71f51	0.007541575
113	0x3e960b6e	0.29305595
114	0x3d5f9dff	0.054594036
115	0x3dfe823b	0.12427183
116	0x3e272319	0.16321982
117	0x3db06cfc	0.08614537
118	0x3d4bafd7	0.04972824
119	0xbe8286f5	-0.2549359
120	0xbd8c486a	-0.068497494
121	0xbd04dcd1	-0.03243715
122	0x3d591ca2	0.053005822
123	0xbe276d30	-0.16350245
124	0x3d292ca7	0.04130235
125	0x3de9fece	0.11425553
126	0x3d3af9a3	0.04564823
127	0xbcad68f8	-0.021168217
128	0xbdc13aa1	-0.09435011
129	0xbe024bde	-0.12724254
130	0x3aee31b1	0.0018172768
131	0xbd08c0d2	-0.033387013
132	0x3e0be8f5	0.13663085
133	0xbe1c85a3	-0.15285353
134	0xbed85750	-0.42254114
135	0x3da56c1d	0.080772616
136	0xbd94fff6	-0.07275383
137	0xbd8488b4	-0.064713866
138	0x3e1c51b8	0.15265548
139	0xbd818119	-0.063234515
140	0xbdd8cbf0	-0.10585773
141	0xbdc16878	-0.09443754
142	0xbdaf773d	-0.08567665
143	0xbe876751	-0.26446012
144	0x3ddbcbb9	0.107322164
145	0x3d5bbee0	0.05364883
146	0x3cdf5d6f	0.027266232
147	0xbd2e2408	-0.04251483
148	0x3e0fccc2	0.14042953
149	0xbe347395	-0.17622216
150	0x3c1eadac	0.009684961
151	0x3e22f3ca	0.1591331
152	0x3d24c5c0	0.04022765
153	0xbdc4753f	-0.095926754
154	0xbe0ba21c	-0.13636059
155	0x3ecf1994	0.40449202
156	0xbed01b98	-0.40646052
157	0xbe380bb5	-0.17973216
158	0x3e2bdb97	0.16782986
159	0x3d46251d	0.048375238
160	0x3e15fe6f	0.1464784
161	0xbe883a25	-0.2660686
162	0xbe80a696	-0.25127095
163	0x3d4707a5	0.048591275
164	0x3d909f2d	0.0706161
165	0x3b51bcc6	0.0032003387
166	0xbd60d6e2	-0.05489243
167	0xbe06baad	-0.13157149
168	0x3e415e5e	0.18883654
169	0xbe910fa9	-0.2833226
170	0x3e75e198	0.24011838
171	0x3d1264f3	0.035740804
172	0xbd1678d1	-0.036736313
173	0x3e2692c2	0.16266921
174	0xbd3e0864	-0.04639472
175	0x3ddb73bb	0.10715433
176	0x3e01adb0	0.12663913
177	0x3deab3ee	0.114601
178	0xbdf94bdf	-0.121726744
179	0x3da8c0c5	0.08239893
180	0xbe8b32b9	-0.27187136
181	0x3e4cd38e	0.20002577
182	0xbc889820	-0.016674101
183	0x3ee041ee	0.438003
184	0x3de2417f	0.11047649
185	0xbc9b1f9e	-0.018935975
186	0x3d998aa1	0.074971445
187	0xbe1e66af	-0.15468858
188	0x3cf098ec	0.029369794
189	0x3e7ba521	0.2457471
190	0xbcde995f	-0.027172742
191	0x3d9df537	0.07712787
192	0x3e3bc30e	0.18336126
193	0xbd0fc05b	-0.035095554
194	0x3e0592f7	0.13044344
195	0xbdb05a80	-0.086110115
196	0x3d031c66	0.032009505
197	0x3e074423	0.13209586
198	0xbdc46ef3	-0.095914744
199	0x3e0efcc0	0.13963604
200	0xbe9523a3	-0.2912875
201	0xbea13bc7	-0.3149092
202	0x3e260ce1	0.1621585
203	0x3cadf38a	0.021234293
204	0xbd181e76	-0.037138425
205	0x3e49f072	0.19720629
206	0x3df09de7	0.117488675
207	0xbe3373c2	-0.17524627
208	0x3e471712	0.19442394
209	0xbdb8a188	-0.09015185
210	0xbe2ed563	-0.17073588
211	0x3c9a772f	0.01885566
212	0xbd0910a6	-0.033463143
213	0xbd2cbdb1	-0.04217309
214	0xbc36aa26	-0.011148965
215	0x3cda1948	0.026623383
216	0x3e2f5e1a	0.1712574
217	0xbc6c47ce	-0.014421416
218	0xbdcb71a5	-0.09933785
219	0x3cb5cab8	0.02219139
220	0xbcb4d11e	-0.022072371
221	0xbe7ee7d6	-0.24893126
222	0x3e0df780	0.13863945
223	0x3d5d900e	0.05409246
224	0x3da1cefa	0.07900806
225	0x3da84686	0.08216576
226	0x3db36c55	0.08760897
227	0xbe0d83f6	-0.1381987
228	0xbe0c230b	-0.13685243
229	0x3db9c021	0.09069849
230	0x3d7aea9d	0.0612589
231	0xbdcaff82	-0.099120155
232	0xbe2e2faf	-0.17010377
233	0xbb8d29a5	-0.004307943
234	0x3d25e2ad	0.040499378
235	0x3db52a20	0.08845925
236	0xbd952415	-0.07282273
237	0x3e0c5301	0.13703538
238	0x3d3bc376	0.045840703
239	0xbddd1a81	-0.10796071
240	0xbe05c534	-0.13063508
241	0x3dda6e79	0.10665602
242	0x3dd6e373	0.10492601
243	0xbd47d5d5	-0.04878791
244	0xbd493f86	-0.049132846
245	0x3d8e8c05	0.069603
246	0x3e8612a4	0.26186097
247	0x3d3b62db	0.045748573
248	0xbe20d543	-0.15706353
249	0xbd55ae72	-0.052168317
250	0xbe863a36	-0.26216286
251	0x3e6d14a7	0.2315241
252	0x3e8eb802	0.27874762
253	0x3e985789	0.29754284
254	0xbdfa3dc2	-0.122188106
255	0x3e5e957d	0.21736713

Mixer_Block.0.mlp_block_token_mixing_DynaMixerOperation.fc_out.bias f4 [66]
0	0x3e05c45f	0.13063191
1	0x3e8e8df0	0.27842665
2	0x3eacdef9	0.33763865
3	0xbf01f77b	-0.5076825
4	0xbe34fede	-0.17675349
5	0x3cef56b6	0.029216152
6	0xbe38e207	-0.18054973
7	0xbed6a2e7	-0.4192116
8	0x3e825365	0.2545425
9	0x3f0bb154	0.54567456
10	0xbd101b3b	-0.03518222
11	0x3e4f0d6d	0.20219965
12	0xbd123a4c	-0.035700127
13	0xbed5a4d9	-0.4172733
14	0x3da6884f	0.081314676
15	0x3e120432	0.14259413
16	0x3ca3aebe	0.019980785
17	0xbebd63d9	-0.3699024
18	0xbe26841c	-0.16261333
19	0xbe498c2e	-0.1968238
20	0xbd9b5a95	-0.075856365
21	0x3df8b1c2	0.121432796
22	0x3b32fd9b	0.0027311805
23	0xbec6b6c4	-0.38811314
24	0xbf024b06	-0.50895727
25	0x3cc1388e	0.023586538
26	0xbd9de4dc	-0.07709667
27	0xbeb7b94b	-0.35883555
28	0x3ef5e5b7	0.4802682
29	0x3ea4d942	0.32197005
30	0xbea37db8	-0.31931853
31	0x3e9ba1a8	0.3039677
32	0xbee430ce	-0.44568485
33	0x3deb4bd5	0.11489073
34	0x3eb99f7b	0.36254486
35	0x3de710ed	0.11282525
36	0x3d3250ba	0.043534018
37	0xbd80a5ac	-0.062815994
38	0x3cb7616e	0.022385325
39	0xbd871dac	-0.06597456
40	0xbe895677	-0.2682378
41	0x3ed7594b	0.42060313
42	0x3f0e02d4	0.55473065
43	0xbf413c75	-0.75482875
44	0xbe992ad2	-0.29915482
45	0xbe3f48b7	-0.18680082
46	0xbba6f82f	-0.0050955038
47	0x3f064a4a	0.52457106
48	0x3e046cde	0.12932155
49	0xbe57bce6	-0.21068153
50	0xbd189b6f	-0.037257608
51	0xbe85b604	-0.2611543
52	0xbeab9b7a	-0.33517057
53	0xbdbc2011	-0.09185804
54	0xbd5bb767	-0.053641703
55	0xbd875a92	-0.06609072
56	0x3e3078a2	0.17233518
57	0xbe1e1f1c	-0.15441555
58	0xbe989c3c	-0.29806697
59	0x3efe38e5	0.49652782
60	0x3e677ce3	0.22606234
61	0xbe5fee9f	-0.2186837
62	0x3ec4c5a9	0.38432053
63	0xbe8a08ff	-0.26959988
64	0x3dd1d795	0.10246197
65	0xbe0331d1	-0.12811972

Mixer_Block.0.mlp_block_token_mixing_DynaMixerOperation.LN.weight f4 [10]
0	0x3ff0d5b1	1.8815213
1	0x3fbe8d93	1.4886955
2	0x3f55d573	0.8352882
3	0x3f155802	0.58337414
4	0x3efb1784	0.49041378
5	0x3f0e0ba9	0.5548654
6	0x3f10afa5	0.5651801
7	0x3f2691f3	0.6506645
8	0x3f128fef	0.57250875
9	0x3ecef02b	0.4041761

Mixer_Block.0.mlp_block_token_mixing_DynaMixerOperation.LN.bias f4 [10]
0	0x3f448576	0.76766145
1	0xbeb8ab81	-0.36068347
2	0xbe08aac5	-0.13346393
3	0xbe7ed99f	-0.24887703
4	0xbdddeca2	-0.1083615
5	0xbe6b4a74	-0.2297762
6	0xbda1db98	-0.07903212
7	0xbcc6d7c3	-0.024272805
8	0xbd95c658	-0.07313222
9	0x3c2737da	0.010206187

Mixer_Block.0.mlp_block_channel_mixing_DynaMixerOperation.fc_ND.weight f4 [1, 10]
0	0xbe767c19	-0.24070777
1	0xbe55de50	-0.20885587
2	0x3de3e870	0.11128318
3	0x3e931f4b	0.28734812
4	0x3e907037	0.28210613
5	0x3d2a27fb	0.041542035
6	0xbe7b3edf	-0.24535702
7	0xbe6ae5f8	-0.22939289
8	0x3e0801e9	0.13281979
9	0x3df04085	0.11731056

Mixer_Block.0.mlp_block_channel_mixing_DynaMixerOperation.fc_Nd.weight f4 [484, 22]
0	0x3cfb0e0d	0.030646348
1	0x3de0db17	0.10979288
2	0xbe03241c	-0.12806743
3	0x3e23e5b5	0.16005595
4	0x3e448313	0.19190626
5	0xbe40aacb	-0.18815152
6	0x3d95d90c	0.07316789
7	0xbe26ac80	-0.16276741
8	0xbe448e43	-0.19194894
9	0x3e40da14	0.1883319
10	0xbe3a91da	-0.182197
11	0x3d907211	0.070530064
12	0x3d0fbb2a	0.035090603
13	0xbe179d0f	-0.14806007
14	0xba0d0171	-0.0005378938
15	0x3dd24347	0.102667384
16	0x3d5438a2	0.05181182
17	0xbcbb9f08	-0.02290298
18	0x3d0d64c4	0.034519926
19	0x3d2dc144	0.04242064
20	0x3d383e3c	0.044981226
21	0x3e06ce91	0.13164736
22	0xbd2c6434	-0.04208775
23	0xbd2a08ed	-0.04151242
24	0xbe493a69	-0.19651188
25	0x3e45122c	0.19245213
26	0x3e2c319a	0.16815796
27	0xbc250a6a	-0.010073284
28	0xbd766124	-0.060151234
29	0xbe30ee96	-0.17278513
30	0x3d0f98e5	0.03505792
31	0xbe39ef14	-0.18157607
32	0xbe10f56e	-0.14156124
33	0xbe3c5174	-0.18390447
34	0x3c3de4db	0.011590208
35	0xbd4e9fe6	-0.05044546
36	0xbd8732f4	-0.066015154
37	0xbe54dc74	-0.20787221
38	0xbc65b5e0	-0.014020413
39	0xbde6f025	-0.11276273
40	0x3df60628	0.12012893
41	0x3d5e6a81	0.05430079
42	0x3d9e2287	0.07721429
43	0x3cffdca5	0.031233141
44	0x3e2159ef	0.15756963
45	0x3db16dc6	0.08663516
46	0xbe2a29e4	-0.16617543
47	0x3ddbaabe	0.10725926
48	0xbd97ec98	-0.074181736
49	0xbd8aa079	-0.06768889
50	0xbd06131b	-0.032733064
51	0x3e572262	0.2100921
52	0xbe335626	-0.17513332
53	0x3e242070	0.16027999
54	0x3def320b	0.11679467
55	0xbdba731c	-0.091039866
56	0x3da89114	0.082307965
57	0x3e08cabb	0.13358586
58	0x3d70d813	0.058799814
59	0x3e41721f	0.1889119
60	0x3e10d656	0.14144263
61	0x3d4765b0	0.04868096
62	0x3dce821a	0.10083409
63	0x3d4e4565	0.05035915
64	0xbde14ae9	-0.11000616
65	0x3e5238f7	0.20529543
66	0x3e163dd8	0.14672029
67	0x3d4faeb7	0.05070373
68	0xbd2f10ca	-0.04274062
69	0x3dedeb4a	0.116171435
70	0xbd3379a2	-0.04381717
71	0xbbbdd9e0	-0.005793795
72	0x3dedd2be	0.116124615
73	0xbdad1237	-0.0845074
74	0xbd494874	-0.049141362
75	0xbe0741e3	-0.13208728
76	0x3e440862	0.19143823
77	0x3d47bb43	0.04876257
78	0x3e196a84	0.14982039
79	0xbd0c20ac	-0.034210846
80	0x3d4a9ac7	0.049464013
81	0x3dbaf69a	0.09129067
82	0x3e50cffa	0.20391837
83	0x3cb364b7	0.02189861
84	0x3e57f1f1	0.21088387
85	0xbd5ab6a4	-0.053396836
86	0x3e0ccd59	0.13750209
87	0x3d412280	0.047152042
88	0xbd2f27af	-0.042762455
89	0x3e5567a0	0.20840311
90	0xbe4b5e88	-0.1986028
91	0xbe285add	-0.16440912
92	0x3dff4d52	0.124659196
93	0x3d4388a0	0.047737718
94	0x3cbcdc2b	0.023054203
95	0x3cf62556	0.0300471
96	0xbc65602b	-0.013999979
97	0xbddd7960	-0.10814166
98	0x3e559fab	0.2086169
99	0x3c4452fa	0.011982674
100	0xbe15cf0a	-0.1462976
101	0xbd5424f0	-0.05179304
102	0x3d3560c5	0.04428174
103	0x3d0e2b0b	0.034709018
104	0x3e0e5f23	0.1390348
105	0xbd499bc3	-0.04922081
106	0xbe32541e	-0.174149
107	0xbe35668a	-0.17714897
108	0x3b7e33ae	0.0038788128
109	0xbe13100b	-0.14361589
110	0xbd2a900a	-0.041641273
111	0x3e580dbb	0.21098988
112	0xbdfaee1f	-0.12252449
113	0xbe0d8259	-0.13819255
114	0x3e1a55db	0.15071814
115	0x3de77a38	0.11302608
116	0x3c66c35c	0.014084663
117	0xbe5381c6	-0.20654973
118	0x3e05bf15	0.13061173
119	0xbe479b69	-0.19492878
120	0xbc8791e1	-0.016549053
121	0xbe0ef79a	-0.1396164
122	0xbcf6f535	-0.03014622
123	0xbddf5558	-0.1090495
124	0x3b9ea5e2	0.004841552
125	0xbd175bfa	-0.03695295
126	0x3e57c77d	0.21072192
127	0x3c78405d	0.015152064
128	0xbe363ee6	-0.17797431
129	0xbe2e33d7	-0.17011963
130	0xbdc41664	-0.09574583
131	0x3dad63c3	0.08466294
132	0x3e2e6367	0.17030106
133	0x3d9926c6	0.074780986
134	0xbe05c38e	-0.1306288
135	0xbe0626d5	-0.1310075
136	0x3d72c8dc	0.059273586
137	0xbca1e0a0	-0.01976043
138	0xbcf5b968	-0.029995635
139	0xbca606f3	-0.020266986
140	0xbc599a93	-0.013281482
141	0xbe01b0f8	-0.12665164
142	0xbdf69618	-0.12040347
143	0xbdc07934	-0.09398118
144	0x3dca2018	0.09869403
145	0x3df03e40	0.11730623
146	0xbe203299	-0.15644301
147	0x3df10ba5	0.11769799
148	0xbdef1816	-0.11674516
149	0x3dd0ffc6	0.10205035
150	0xbe27175c	-0.16317505
151	0xbd1be59a	-0.038060762
152	0x3ddcb2ce	0.10776292
153	0x3dcc1db2	0.099666014
154	0x3e321a05	0.17392738
155	0x3dcc0081	0.099610336
156	0x3e002667	0.1251465
157	0xbe312c27	-0.17301999
158	0x3e3f55ac	0.18685025
159	0x3e1439dd	0.14475198
160	0xbd82b04c	-0.06381282
161	0xbe5933d9	-0.21211185
162	0xbdcefd99	-0.10106964
163	0xbe2df429	-0.16987671
164	0xbdec5831	-0.11540259
165	0xbde0b9ec	-0.10972962
166	0xbdaf6fc2	-0.08566238
167	0xbdf971c6	-0.12179904
168	0xbe373e8a	-0.1789495
169	0xbe1d59df	-0.15366314
170	0x3d1785fa	0.036993004
171	0xbe1bd0ca	-0.15216365
172	0xbd81463e	-0.06312226
173	0x3dbb7013	0.09152236
174	0x3e40f5b2	0.18843725
175	0x3cd01ac1	0.025403382
176	0x3d1851fc	0.03718756
177	0x3d99d107	0.07510572
178	0xbdd4ee07	-0.103969626
179	0x3e183a50	0.14865994
180	0x3dd44e6f	0.103665225
181	0x3d2162f1	0.039401
182	0x3df8ee74	0.12154856
183	0x3e49523c	0.19660276
184	0xbe1be68b	-0.15224664
185	0x3d0a4bfa	0.033763863
186	0x3d77dd10	0.060513556
187	0x3dde7e5f	0.10863947
188	0x3df4d6e8	0.119550526
189	0xbe13d8cc	-0.1443817
190	0x3d8c7694	0.068585545
191	0xbe082307	-0.13294612
192	0xbbeb8ef8	-0.007188674
193	0x3e009f99	0.12560882
194	0x3cc02567	0.023455335
195	0xbe1f089c	-0.15530628
196	0x3e328c97	0.17436443
197	0xbcd56494	-0.026048936
198	0x3d536e77	0.05161902
199	0xbdd5a37d	-0.104315735
200	0x3d75a73b	0.059973937
201	0xbd8ad9a3	-0.06779792
202	0xbd9521e8	-0.07281858
203	0xbc91ca03	-0.017796522
204	0xbcdc733e	-0.02691042
205	0x3e4e2400	0.2013092
206	0x3d207f23	0.039183747
207	0x3d884362	0.06653477
208	0xbd3456d4	-0.04402812
209	0xbe0a4dcf	-0.13506244
210	0xbe493b37	-0.19651495
211	0xbe49954a	-0.19685856
212	0xbe06525f	-0.1311736
213	0x3d034cd3	0.032055687
214	0x3e161737	0.14657293
215	0x3e0dd705	0.13851555
216	0xbdae87a6	-0.08521967
217	0x3d5a6cf4	0.053326562
218	0xbe2c3294	-0.16816169
219	0x3d31c618	0.043401808
220	0xbcdf8040	-0.027282834
221	0xbe4dbfb1	-0.20092656
222	0x3d9786ac	0.073987335
223	0xbe1cf9df	-0.15329693
224	0xbcff684a	-0.031177659
225	0x3d161820	0.0366441
226	0x3db9e555	0.09076945
227	0x3e2ef91c	0.17087215
228	0x3db924c6	0.09040217
229	0x3e3bb5f8	0.18331134
230	0xbd9e2e8b	-0.07723721
231	0x3e11846f	0.14210676
232	0x3ddb2a4d	0.107014276
233	0x3dcc6a84	0.09981254
234	0x3e358c33	0.17729263
235	0xbd5cb977	-0.05388781
236	0xbdfe8c74	-0.12429133
237	0x3e312483	0.17299084
238	0x3d6abd95	0.057309706
239	0xbd3ba817	-0.0458146
240	0xbe524cdf	-0.20537136
241	0xbb8687ce	-0.0041055446
242	0x3e5a3ffb	0.21313469
243	0x3e226b99	0.15861358
244	0xbbec9af7	-0.0072206217
245	0xbe09f794	-0.1347335
246	0xbe0a3c10	-0.13499475
247	0x3e399db2	0.18126562
248	0x3db61fb8	0.088927686
249	0x3d91f943	0.07127621
250	0x3c2290c8	0.009922214
251	0x3e084bfd	0.13310237
252	0xbdb99be6	-0.090629384
253	0x3e0e2261	0.13880302
254	0xbcb52da8	-0.022116497
255	0x3e188239	0.14893426

Mixer_Block.0.mlp_block_channel_mixing_DynaMixerOperation.fc_Nd.bias f4 [484]
0	0x3da33cba	0.07970567
1	0x3d0b7254	0.03404458
2	0x3e45b9f3	0.19309215
3	0xbddbb115	-0.10727135
4	0x3e56845e	0.20948932
5	0x3e5857a5	0.21127184
6	0xbc0198ce	-0.007909967
7	0xbd3a5a02	-0.045495994
8	0x3c39fa47	0.011351175
9	0x3d229a00	0.039697647
10	0x3e40e656	0.18837866
11	0x3e4eed3c	0.20207685
12	0xbd8d1c4e	-0.06890164
13	0x3e336979	0.17520703
14	0x3e3803dc	0.17970222
15	0xbcaeed88	-0.021353498
16	0x3d38ab0c	0.045084998
17	0x3e115ff5	0.14196761
18	0xbc2e2d55	-0.010630925
19	0xbd67eedb	-0.056624275
20	0x3da4518e	0.08023368
21	0x3ce36e4b	0.027762553
22	0x3b8a6434	0.004223371
23	0x3d6ec8db	0.05829702
24	0xbe53bdec	-0.20677918
25	0x3dc8160f	0.09769832
26	0x3de7c415	0.113166966
27	0xbdab5725	-0.08366231
28	0x3d164ebb	0.036696177
29	0x3e2c1fac	0.16808957
30	0x3e563a18	0.20920599
31	0xbd75d20e	-0.060014777
32	0xbd22d4d1	-0.03975374
33	0x3e3bc5e3	0.18337207
34	0xbc5ae984	-0.0133613385
35	0xbe3ffd40	-0.18748951
36	0xbda264c1	-0.079293735
37	0xbd91324e	-0.07089673
38	0xbcdcff87	-0.026977314
39	0x3d62f088	0.05540517
40	0xbe59c943	-0.21268182
41	0x3e52d5db	0.20589392
42	0xbc5ceacc	-0.013483714
43	0x3bf6f876	0.007536943
44	0x3e466e21	0.19377948
45	0xbd0fde73	-0.035124253
46	0xbde2451a	-0.11048336
47	0x3c165905	0.009176497
48	0x3d93db86	0.07219605
49	0x3d8f8b13	0.07008948
50	0xbe0bc0c6	-0.13647756
51	0xbd41dcdd	-0.047329772
52	0x3d9deacd	0.077108
53	0x3e315e0e	0.17321035
54	0xbe0e743b	-0.13911526
55	0x3d90f78b	0.07078465
56	0xbdb763da	-0.08954592
57	0x3e236a14	0.15958434
58	0xbe16f3f1	-0.14741494
59	0x3c1f4b39	0.009722524
60	0xbdd53443	-0.10410359
61	0x3e0f6dbf	0.14006709
62	0xbd9adbcb	-0.075614534
63	0x3e39d91f	0.18149231
64	0x3e3466e8	0.1761738
65	0x3d785fbb	0.06063817
66	0x3c86156c	0.016367637
67	0x3e2752d1	0.16340186
68	0xbca42d2a	-0.020041067
69	0x3db86510	0.09003651
70	0x3db6b352	0.089209214
71	0xbdf88ae0	-0.12135863
72	0xbd735992	-0.059411593
73	0xbe186d56	-0.14885458
74	0xbe100f96	-0.14068446
75	0x3e1ef103	0.15521626
76	0x3dc24f3f	0.09487771
77	0xbe53f4c0	-0.20698833
78	0x3dcc09f6	0.099628374
79	0x3c999b7d	0.0187509
80	0xbdf83dfa	-0.12121196
81	0x3db191ac	0.08670363
82	0xbe2f2288	-0.17103016
83	0x3e38a94f	0.18033336
84	0x3d1b93e5	0.03798284
85	0x3cdb3260	0.02675742
86	0xbdf34488	-0.11878306
87	0xbe3b5ff5	-0.18298323
88	0xbc2f363c	-0.010694083
89	0xbe2b7a15	-0.1674579
90	0xbe456e98	-0.1928047
91	0xbccd7e7a	-0.025084723
92	0x3e06e847	0.13174544
93	0xbb0142e2	-0.0019723703
94	0x3e131422	0.14363149
95	0xbe3c5f8d	-0.18395825
96	0xbe35cd1b	-0.17754023
97	0xbe213142	-0.15741447
98	0x3d41affc	0.047286972
99	0x3e57a0b4	0.21057397
100	0xbcee4fc2	-0.029090766
101	0x3db888f3	0.09010496
102	0x3e278d5f	0.16362523
103	0xbd7d2174	-0.06179948
104	0xbe3c5915	-0.18393357
105	0xbe543244	-0.207223
106	0xbe230676	-0.15920433
107	0x3e192fde	0.14959666
108	0xbd4f66c3	-0.05063511
109	0xbde8a4cf	-0.1135956
110	0x3e180827	0.1484686
111	0x3e25a9ea	0.16178098
112	0x3d725126	0.05915942
113	0x3df920ff	0.12164497
114	0x3d231ef5	0.039824445
115	0x3ddc99c1	0.10771514
116	0x3c987b59	0.018613504
117	0xbc328b76	-0.010897508
118	0x3d9600b3	0.07324352
119	0x3d9d78b3	0.07689037
120	0xbe46d6ce	-0.19417879
121	0x3b766e85	0.0037602496
122	0x3bf678c1	0.007521719
123	0x3e3a256d	0.1817834
124	0x3e38de92	0.18053654
125	0x3e0fe454	0.14051944
126	0xbe03902d	-0.12847967
127	0x3e2a93f2	0.16657999
128	0x3e2ddf88	0.16979802
129	0x3dcd9e34	0.100399405
130	0x3d9c7450	0.07639372
131	0x3c2d3e1f	0.010573893
132	0x3e37276f	0.17886136
133	0x3d520fa5	0.05128445
134	0xbdd67236	-0.10471003
135	0xbe0f1944	-0.13974482
136	0x3db60f3c	0.088896245
137	0x3d2a82d9	0.041628692
138	0xbdfde406	-0.12397008
139	0x3e16f303	0.14741139
140	0xbd0939b9	-0.033502314
141	0xbe2b0099	-0.16699447
142	0xbd7af293	-0.061266493
143	0xbe184bff	-0.1487274
144	0x3e2f5479	0.17122068
145	0xbd2b81ad	-0.041871715
146	0x3d64b1ee	0.05583375
147	0x3dd0b95d	0.10191605
148	0x3e204ff2	0.15655497
149	0xbd871fdf	-0.06597876
150	0x3c4dba1f	0.012556582
151	0x3e100e0b	0.14067857
152	0x3bbb05d8	0.0057074837
153	0x3d7b4ed6	0.06135448
154	0xbe163c20	-0.14671373
155	0x3e18e60c	0.14931506
156	0x3d3d5736	0.04622575
157	0xbe197bd2	-0.1498864
158	0x3e25d6f7	0.16195284
159	0xbdaeb12b	-0.08529886
160	0xbd000ec1	-0.03126407
161	0x3e397e9e	0.18114707
162	0x3df3fe07	0.11913686
163	0x3e1b6ca7	0.15178166
164	0x3e339285	0.17536362
165	0xbe0bbc5d	-0.13646074
166	0xbd80ae19	-0.062832065
167	0xbde6e109	-0.11273391
168	0xbdf287fe	-0.11842345
169	0x3e48653b	0.19569866
170	0x3e4a2669	0.19741215
171	0x3e476dc7	0.1947547
172	0xbd3916a2	-0.0451876
173	0xbd92b6a0	-0.07163739
174	0x3cdfba67	0.027310563
175	0x3e472c55	0.19450505
176	0xbdb1278d	-0.08650122
177	0x3dbc9d57	0.09209698
178	0x3d84a873	0.06477442
179	0x3de70bd9	0.11281557
180	0x3e4a1306	0.1973382
181	0xbe2bcaf0	-0.16776633
182	0x3e240a7c	0.16019624
183	0x3e598512	0.21242169
184	0x3deaf21c	0.1147196
185	0xbe2b444b	-0.1672527
186	0xbe30c92b	-0.1726424
187	0x3d2225c1	0.039586786
188	0xbcecf0b9	-0.02892338
189	0x3d56a1aa	0.05240027
190	0x3dee500a	0.1163636
191	0x3de0c9b3	0.10975971
192	0x3c81209d	0.015762622
193	0xbba2aba5	-0.0049643093
194	0x3e520b2b	0.20512073
195	0xbe56240e	-0.20912191
196	0x3e491199	0.19635619
197	0xbe46c586	-0.19411287
198	0x3cb0bc64	0.021574207
199	0x3e456563	0.19276957
200	0x3c8b4565	0.017000863
201	0xbe39c7a0	-0.18142557
202	0xbe05ed6d	-0.13078852
203	0x3c1884f1	0.009309039
204	0x3deba07e	0.11505221
205	0x3db62aa9	0.088948555
206	0xbda99d53	-0.0828196
207	0x3e026e4e	0.1273739
208	0x3e1a7612	0.15084103
209	0x3e3b71b1	0.18305089
210	0x3d784655	0.06061395
211	0xbe1951c2	-0.14972594
212	0xbced88e5	-0.02899594
213	0x3e166fe4	0.1469112
214	0x3dd85a9a	0.10564156
215	0x3e3146e7	0.17312203
216	0x3e46e2b4	0.19422418
217	0xbccbba3a	-0.024869073
218	0x3dc59afd	0.09648702
219	0x3e472908	0.19449246
220	0x3e514735	0.2043732
221	0x3e106955	0.14102681
222	0x3dff8e22	0.124782816
223	0xbe45318c	-0.19257182
224	0xbc7414de	-0.014897553
225	0xbdcccaa5	-0.09999589
226	0x3e0ad80a	0.13558975
227	0xbd60bf77	-0.054870095
228	0x3da6b76a	0.08140452
229	0x3dd15229	0.10220749
230	0x3d59d661	0.053182963
231	0x3e2dd254	0.16974765
232	0x3e17fd6d	0.14842768
233	0xbe2263b5	-0.15858348
234	0xbcd93090	-0.026512414
235	0x3dd828cb	0.10554656
236	0xbc6d6cc1	-0.014491261
237	0x3be39c9c	0.0069461595
238	0xbdaf7d3b	-0.08568808
239	0x3d792da1	0.06083453
240	0xbdb541df	-0.088504545
241	0xbde0e290	-0.10980713
242	0xb9e415b5	-0.00043503722
243	0x3c3d70a9	0.011562505
244	0xbe149d57	-0.14513145
245	0x3da50e2c	0.08059344
246	0xbd795a29	-0.060877
247	0xbe09295c	-0.13394684
248	0xbca46d9b	-0.020071795
249	0x3e0f40e7	0.13989602
250	0xbe0161e7	-0.12635003
251	0x3dcc8dd0	0.09987986
252	0xbe255856	-0.16146979
253	0x3deae43d	0.11469314
254	0x3d91249c	0.07087061
255	0xbe22201e	-0.15832564

Mixer_Block.0.mlp_block_channel_mixing_DynaMixerOperation.fc_out.weight f4 [10, 10]
0	0xbdc3101e	-0.095245585
1	0xbe65bdd4	-0.22435695
2	0xbe50b4c4	-0.20381457
3	0x3e904123	0.28174695
4	0xbe166b71	-0.14689423
5	0x3e52de7e	0.20592687
6	0xbc089919	-0.008337283
7	0x3e83bda2	0.25730616
8	0x3e40caf6	0.18827423
9	0xbda22d2b	-0.07918771
10	0xbe8d9edf	-0.27660272
11	0x3df04131	0.11731184
12	0x3df1b6ea	0.11802466
13	0x3dd86b67	0.1056736
14	0x3b59f705	0.0033258807
15	0x3e991534	0.2989899
16	0x3ea1a0ca	0.31567985
17	0x3abea554	0.0014545121
18	0xbe9a7829	-0.301698
19	0x3c919f24	0.01777608
20	0x3e8e1cf5	0.27756467
21	0x3e8f4420	0.27981663
22	0x3d243261	0.040087108
23	0xbe3b29bc	-0.18277639
24	0xbd2d280f	-0.04227453
25	0xbe4a34c4	-0.19746691
26	0xbe0c64ba	-0.13710299
27	0x3ea08019	0.3134773
28	0xbe9de645	-0.30839744
29	0x3d528185	0.05139305
30	0xbd7d4776	-0.06183573
31	0x3e14aef1	0.1451986
32	0xbdbee30d	-0.0932065
33	0x3d7bcdf6	0.061475717
34	0xbd453f91	-0.048156325
35	0x3dc5b52f	0.09653699
36	0x3dc225cb	0.09479865
37	0x3df2c1c6	0.118533656
38	0xbe697c62	-0.22801355
39	0x3db29447	0.08719688
40	0xbde27bd9	-0.11058778
41	0xbddf8245	-0.10913519
42	0x3dfdf70b	0.12400635
43	0x3e9c85ee	0.3057093
44	0x3e964b14	0.29354155
45	0xbda27086	-0.079316184
46	0xbe688baf	-0.22709535
47	0xbe463f83	-0.19360165
48	0x3de5736d	0.11203656
49	0xbe5925e3	-0.21205859
50	0x3e512c29	0.20427002
51	0xbd923383	-0.07138731
52	0xbca716c9	-0.020396607
53	0x3da17974	0.078844935
54	0x3dff53fb	0.1246719
55	0x3e962ce3	0.2933112
56	0xbe6b2f7c	-0.22967333
57	0xbe39bbf3	-0.18138103
58	0x3e9b96c2	0.30388457
59	0x3985e208	0.00025536143
60	0xbda9af75	-0.08285419
61	0x3dd6dfd7	0.10491913
62	0x3dbf3b01	0.09337426
63	0xbe87dbdc	-0.26534927
64	0x3e151738	0.14559639
65	0xbe2addb4	-0.16686136
66	0xbe266c33	-0.16252212
67	0xbe290eda	-0.16509572
68	0x3ea16e9f	0.3152971
69	0xbb2b9919	-0.0026183783
70	0xbe6e13b4	-0.23249704
71	0x3dd7427c	0.10510728
72	0x3e026160	0.12732458
73	0xbe995daf	-0.29954287
74	0xbe29514d	-0.1653492
75	0xbe67a053	-0.22619753
76	0xbe57fb9b	-0.21092074
77	0x3e6457a9	0.22299065
78	0xbe7c9d3b	-0.24669354
79	0x3c51ea53	0.012812215
80	0xbc01eebc	-0.007930454
81	0xbdae94c9	-0.08524472
82	0x3e039416	0.12849459
83	0xbdea786b	-0.11448749
84	0x3cb727a5	0.022357771
85	0x3e2c5606	0.1682969
86	0xbe428868	-0.18997347
87	0x3de71b9b	0.11284562
88	0x3c711ac2	0.014715852
89	0x3e96abb7	0.29427883
90	0x3ea0e8c2	0.3142758
91	0xbe265a50	-0.16245389
92	0xbdc81521	-0.09769655
93	0xbe8e21d3	-0.2776018
94	0xbb019816	-0.0019774488
95	0xbe2fa4c0	-0.17152691
96	0xbe8e23e4	-0.27761757
97	0xbe9f2dfe	-0.31089777
98	0xbe0c80bc	-0.13720983
99	0x3e6e35d6	0.23262724

Mixer_Block.0.mlp_block_channel_mixing_DynaMixerOperation.fc_out.bias f4 [10]
0	0x3d28d0f3	0.041214895
1	0xbe10de0e	-0.14147207
2	0x3e303237	0.17206655
3	0x3d1afb29	0.03783718
4	0x3d42b983	0.0475402
5	0x3e5348af	0.20633195
6	0x3e4b28fb	0.19839852
7	0x3e623987	0.22092257
8	0xbe800b07	-0.25008413
9	0x3db4c31c	0.08826277

Mixer_Block.0.mlp_block_channel_mixing_DynaMixerOperation.LN.weight f4 [22]
0	0x3f800000	1.0
1	0x3f800000	1.0
2	0x3f800000	1.0
3	0x3f800000	1.0
4	0x3f800000	1.0
5	0x3f800000	1.0
6	0x3f800000	1.0
7	0x3f800000	1.0
8	0x3f800000	1.0
9	0x3f800000	1.0
10	0x3f800000	1.0
11	0x3f800000	1.0
12	0x3f800000	1.0
13	0x3f800000	1.0
14	0x3f800000	1.0
15	0x3f800000	1.0
16	0x3f800000	1.0
17	0x3f800000	1.0
18	0x3f800000	1.0
19	0x3f800000	1.0
20	0x3f800000	1.0
21	0x3f800000	1.0

Mixer_Block.0.mlp_block_channel_mixing_DynaMixerOperation.LN.bias f4 [22]
0	0x00000000	0.0
1	0x00000000	0.0
2	0x00000000	0.0
3	0x00000000	0.0
4	0x00000000	0.0
5	0x00000000	0.0
6	0x00000000	0.0
7	0x00000000	0.0
8	0x00000000	0.0
9	0x00000000	0.0
10	0x00000000	0.0
11	0x00000000	0.0
12	0x00000000	0.0
13	0x00000000	0.0
14	0x00000000	0.0
15	0x00000000	0.0
16	0x00000000	0.0
17	0x00000000	0.0
18	0x00000000	0.0
19	0x00000000	0.0
20	0x00000000	0.0
21	0x00000000	0.0
