M_2_AST/M_2_AST/h36m/run_for_longging/exp183/model.pt (torch, 955837 bytes, 212 tensors)

Mixer_Block.0.mlp_block_token_mixing.fc1.weight f4 [20, 10]
000000 b7 e4 ab be b4 35 12 3f 38 b8 20 be c6 13 73 3e
       -0.33572933 0.57113194 -0.15695274 0.23738012
000010 e3 2a c6 3d 08 60 81 3e 91 7d 96 be 09 6a ad bd
       0.09676149 0.2526858 -0.29392675 -0.0846749
000020 c2 4a 6b bd af 74 26 bf b9 bd 94 be 71 50 3a 3e
       -0.05744434 -0.65021795 -0.29050997 0.18194748
000030 9c bc a0 bc 92 be ba 3e 15 a2 e1 be c7 81 ec 3e
       -0.019621186 0.3647352 -0.4406897 0.46192762
000040 bf 4f 5a 3e e9 13 97 3e 74 76 9c bc a3 01 a4 be
       0.21319483 0.29507378 -0.019099452 -0.320325
000050 e9 b8 87 be ab e2 40 3e 52 3c 1b be dd c5 b7 3e
       -0.26508263 0.18836467 -0.15159729 0.35893145
000060 23 7d 20 be 4b d9 b3 3e a6 fa b3 be 6d 7e 85 3e
       -0.15672736 0.3512672 -0.35152167 0.26073018
000070 82 95 ff be 73 8f 7c 3e d9 4a ea 3d 71 b3 8c be
       -0.49918753 0.24664097 0.11440057 -0.27480653
000080 ec e8 db 3d 28 7e 24 bf ad fa c7 3d c6 ab 61 bf
       0.10737786 -0.64255 0.097646095 -0.8815273
000090 7e ea 5c 3f 2e 88 1f bf 3a 03 0b be 01 98 09 3e
       0.86295307 -0.6231717 -0.1357545 0.13436891
0000a0 8a d5 a2 3d 70 6a c6 be 1d b1 a4 3d a4 aa e7 3e
       0.079508856 -0.3875308 0.08041594 0.45247376
0000b0 68 86 2b 3d 92 7b 14 be 1a 2c 5a bf 78 8b 6f 3c
       0.041876227 -0.14500263 -0.85223544 0.014620654
0000c0 1d a4 a6 3e 38 23 4c be 78 59 8b bc df 5f a7 be
       0.32547083 -0.1993531 -0.017010435 -0.3269033
0000d0 72 9d ef bb f8 7d 79 be cf 1f 17 3f 45 7b ae bd
       -0.00731247 -0.2436446 0.5903291 -0.085196055
0000e0 d4 2a 30 bf a9 ae 4a be 92 b9 1b 3e 48 cc 94 3e
       -0.6881535 -0.1979319 0.15207508 0.29062104
0000f0 21 f4 74 3e 45 b5 04 be f9 88 e2 3d d0 4a db bd
       0.23921253 -0.12959774 0.11061282 -0.10707629
000100 5a 85 0c 3f 22 83 9e be 77 f2 0b 3f 92 7b cb be
       0.5489098 -0.3095942 0.54666847 -0.39742714
000110 13 f5 e7 3e 39 ef 9c be da f6 f7 bd 47 9c d1 3e
       0.45304164 -0.30651262 -0.1210763 0.40939543
000120 8f 2f 9a be ed b4 ad 3e c8 0a b9 bd cf d0 9a be
       -0.3011441 0.33927098 -0.090352595 -0.30237433
000130 0d 0b 4d 3f d3 b2 e6 3e 76 5a c7 3e 1a 61 71 be
       0.8009499 0.45058307 0.38936204 -0.23572198
000140 07 c3 87 3e b6 da f4 3e d6 dc ff 3d b8 6e 00 bf
       0.26515982 0.47823113 0.12493293 -0.50168943
000150 8a c6 c5 3e 7c 4c 0d 3a 35 e8 8d 3e 69 de 6a 3f
       0.38628036 0.000539012 0.27716222 0.9174562
000160 d6 e7 fc 3d c4 dc 33 be 6c ea ac bd da 18 70 be
       0.12348907 -0.17564684 -0.0844315 -0.2344698
000170 67 6e d1 3d b6 b3 1b be 0c b5 17 bf cf 33 e4 bd
       0.10226136 -0.15205273 -0.5926063 -0.11142694
000180 9e aa cf be 4d 9f 47 3f 26 41 a4 be 83 ad 1c 3e
       -0.40559858 0.7797745 -0.32080954 0.15300564
000190 ef b9 56 be 6a c3 67 3d 59 f0 c0 bd ce 3b 81 3d
       -0.20969366 0.056582846 -0.09420843 0.06310235
0001a0 66 36 83 be 4a 38 29 3f 72 3d c1 be 56 23 91 3e
       -0.2562744 0.66101515 -0.37742192 0.28347272
0001b0 1e 58 6d 3d d1 f9 2a bd 7c 51 a3 3e 8c ff 9f be
       0.057945363 -0.04174215 0.31898105 -0.31249654
0001c0 5b 63 80 3e a3 5b c7 be 26 dc b9 3e fc 9e 20 3f
       0.25075802 -0.389371 0.36300772 0.6274259
0001d0 3a 82 c7 3e b8 bc cf be dc 9b 9b 3e 80 1f ef be
       0.38966542 -0.40573668 0.3039235 -0.4670372
0001e0 83 2e 27 be 74 55 be 3e f1 7e c5 bd c7 10 1d 3a
       -0.16326337 0.3717457 -0.09643353 0.0005991575
0001f0 9b e4 19 bf 7d 27 82 3d a6 24 dd be 35 e2 3b 3e
       -0.6011445 0.06355188 -0.43192023 0.1834801
000200 7a 95 de be 55 40 1e 3f bc 65 f7 be 07 63 10 3e
       -0.43473417 0.6181691 -0.48319805 0.14100276
000210 ac 53 06 bf 88 9d ee 3d 7b 02 fc 3c 02 ff ed 3e
       -0.52471423 0.116511405 0.030762902 0.46483618
000220 05 10 af be 81 12 48 3f 57 89 08 bf 11 a7 ec 3e
       -0.3419191 0.78153235 -0.53334564 0.46221212
000230 bc 44 81 3d fc 24 0c 3e 80 05 67 bd e4 bd d2 3d
       0.06311938 0.13685983 -0.05640173 0.10290125
000240 c9 19 40 3e d6 d6 6c 3d 9e 51 32 bf 8f 84 33 3f
       0.18759836 0.05782207 -0.6965579 0.70124143
000250 cd a8 3a 3f ff 28 c6 be b3 9b ba be 6b 9f 2f 3e
       0.7291382 -0.38703153 -0.36446914 0.17150657
000260 46 f2 c9 be 13 28 d6 3e ab ee ee be 1c 5c a2 be
       -0.39442652 0.4182745 -0.46666464 -0.317109
000270 fc 7d 04 bd e5 e0 89 be 13 2b a1 3e 76 d0 ec 3e
       -0.03234671 -0.26929393 0.31478176 0.46252793
000280 74 80 8a be 53 34 e1 3e 01 47 48 bc 46 92 e4 3c
       -0.27051127 0.43985233 -0.01222396 0.02790178
000290 36 d0 d0 be 93 12 59 3d a3 64 cc be b8 86 8a 3e
       -0.40783852 0.05299623 -0.3992053 0.27055907
0002a0 35 02 03 bf 48 e6 2f 3d 5a 75 84 bd ee e0 2b 3e
       -0.5117524 0.042944223 -0.064676955 0.16785023
0002b0 7a d6 3b be 89 62 11 3f 65 7a 77 be 87 f5 88 be
       -0.18343535 0.5679098 -0.24167784 -0.26749822
0002c0 f4 69 99 be 7d e4 ca 3e 2a 00 aa be f7 c6 a4 3c
       -0.29963648 0.39627448 -0.3320325 0.020114405
0002d0 31 11 86 3d 46 ae 9b be e2 a9 81 3e e7 e5 a5 3e
       0.06546248 -0.30406398 0.25324923 0.32401964
0002e0 e5 aa 67 bc e1 21 7e 3e 26 a6 d1 be b4 80 64 bf
       -0.0141398655 0.24817611 -0.40947074 -0.89258885
0002f0 21 9f 49 be d7 dc 91 be b4 19 14 3e 1c 82 67 bd
       -0.19689609 -0.284888 0.1446293 -0.056520566
000300 42 2b 69 bd b6 82 16 bd c0 e1 88 be 25 30 09 3f
       -0.05692602 -0.03674575 -0.26734734 0.5358909
000310 86 4a 38 bf 72 4c c7 be 63 73 aa bd d7 5e a6 3e
       -0.71988714 -0.3892551 -0.083227895 0.32494232

Mixer_Block.0.mlp_block_token_mixing.fc1.bias f4 [20]
000000 7f bb d6 3e 04 29 99 3e 36 14 b0 3e 3d f6 b9 3e
       0.41939923 0.29914105 0.3439042 0.36320677
000010 f4 00 9f 3e 2d cd 0a 3f 50 5d fb 3d d6 76 98 3e
       0.31055415 0.54219323 0.12273657 0.29778165
000020 60 89 99 3e b9 e6 48 3e ce 7f 8c 3e c2 e4 45 3f
       0.2998762 0.19619264 0.27441257 0.7730218
000030 16 50 41 3e d1 f9 0e 3f fa e2 7a 3e 44 da 39 3e
       0.18878207 0.5584994 0.24500647 0.18149668
000040 82 67 ce 3e f6 d9 60 3e 4c 6e 1d 3f 46 2b ab 3e
       0.40313345 0.21958145 0.61496425 0.33431453

Mixer_Block.0.mlp_block_token_mixing.fc2.weight f4 [10, 20]
000000 00 20 0c 3e 64 44 a2 be 51 56 74 be 37 82 95 3e
       0.13684082 -0.31692803 -0.23861052 0.2920091
000010 84 75 a7 3e d8 15 ce 3e c4 da 73 be a6 ea 16 bf
       0.32706845 0.4025104 -0.23813921 -0.58951795
000020 b3 f8 72 be 86 9d b4 3e 05 52 cb be df 1f a8 bd
       -0.23727684 0.3527643 -0.39711013 -0.08209204
000030 0f 62 23 3c 7b 25 a2 be f1 09 99 be 7d 35 54 3b
       0.009972109 -0.3166922 -0.29890397 0.0032380514
000040 00 ae a6 3e 21 4a 8a be cd 5f c6 3e 1e 87 81 be
       0.32554626 -0.2700968 0.38744965 -0.252984
000050 a3 b4 dd 3d 2b 04 ad 3e 29 72 c5 3d 47 4a 0c be
       0.10825469 0.33792242 0.09640915 -0.1370021
000060 f0 e5 29 3e 4f db 64 3e d8 83 48 be bc b9 ee 3d
       0.1659162 0.22349285 -0.19581544 0.1165652
000070 f3 bc ab be 8b e1 84 be 62 79 18 3e 48 7a 66 be
       -0.33542594 -0.25953326 0.14890054 -0.22507584
000080 66 78 23 be 7f a0 d3 3e ef 43 05 be c2 5c 2d 3f
       -0.15963897 0.41333386 -0.13014196 0.6771966
000090 42 a8 6c bd 8b c9 e8 bd 24 a8 a2 3e 50 90 ce be
       -0.05777765 -0.11366566 0.31768906 -0.40344477
0000a0 1e ed e4 be 19 cc 5c be 26 f9 7a be 00 1d bf 3d
       -0.44712156 -0.21562232 -0.24509105 0.09331703
0000b0 30 26 c6 bd 20 b9 6a 3e 93 78 1d 3f b5 52 ac bb
       -0.096752524 0.22922182 0.61512107 -0.005258883
0000c0 17 23 7e 3d b7 b1 19 be 83 49 ce 3c 31 89 6c 3e
       0.062045183 -0.15009199 0.025181537 0.2309921
0000d0 dd ee c7 be 59 fb d0 3e 3c e8 55 3d 7b eb dc be
       -0.39049426 0.40816763 0.05222343 -0.43148407
0000e0 f0 87 c0 be 9f 01 40 be 4f ec 6c be 48 ef 14 be
       -0.37603712 -0.18750618 -0.2313702 -0.14544404
0000f0 ae 20 67 be 7f a6 a0 3e 1d 09 b7 bc 9a 63 1c be
       -0.2257106 0.31377026 -0.022343213 -0.1527237
000100 8a 24 8b be ef 8b 78 be 11 20 9e be 4a 93 ee bd
       -0.27176315 -0.2427213 -0.3088384 -0.11649187
000110 ed a4 9a 3e c8 8f bf 3e 0d 6d 7a 3f b1 33 dd 3e
       0.30203953 0.37414384 0.9782265 0.432035
000120 3b a5 9d 3e 13 74 0e 3f 8d 1b f6 3d 6a 3e 00 bf
       0.30790123 0.55645865 0.12016974 -0.50095236
000130 60 38 cc 3d 15 d5 dd be fb 53 da be 93 ac b6 3e
       0.0997169 -0.4332663 -0.42642197 0.3567854
000140 f8 06 e5 be 55 59 e0 3d 08 f2 17 bf f6 08 25 3f
       -0.4473188 0.10954539 -0.59353685 0.644668
000150 1a 2d 7e be f0 e6 b8 be c0 97 2b 3f 00 00 c8 3e
       -0.24821892 -0.3611369 0.6702843 0.390625
000160 48 7b 48 3e 0b 7a 0f 3e 2a 75 3c be 87 19 5b 3e
       0.19578278 0.140114 -0.1840407 0.21396457
000170 a7 45 3e bd e9 6f 9d be 36 a1 64 be 6e c1 64 3e
       -0.046453144 -0.30749443 -0.22327122 0.22339413
000180 82 0c a8 be 15 a7 b7 be 1a cd 62 be 7c 49 0b bf
       -0.32822043 -0.3586966 -0.22148553 -0.54409003
000190 7e 46 17 bf 43 28 fd bc 09 ec 28 3e 2c 65 0a 3e
       -0.5909194 -0.030902987 0.1649629 0.13515157
0001a0 50 ea a4 3e e0 36 86 bc 8d 3e a9 bd 02 f2 6c 3e
       0.32210016 -0.016383588 -0.08263884 0.23139194
0001b0 94 ed de 3d 2d d4 4f 3f 5c 5a 8d be 89 f5 b5 be
       0.10885158 0.8118313 -0.27608 -0.3553889
0001c0 20 d8 80 3e 03 95 2c 3e d2 0f bc 3e 1d 33 9c 3e
       0.2516489 0.16853718 0.3673082 0.30507746
0001d0 03 67 eb bd db a5 27 3f 49 c6 f0 be 21 aa ae be
       -0.11494257 0.6548745 -0.4702628 -0.34114173
0001e0 7a ba 1f be 47 a9 ed be 85 97 c4 be 7c 11 e2 be
       -0.15598479 -0.4641821 -0.3839685 -0.44153965
0001f0 aa f6 05 3f fb e8 24 3f 25 00 7d 3c c2 08 69 be
       0.52329504 0.64418 0.015441929 -0.22757247
000200 e9 35 03 3e e4 a2 c6 bd c2 5c 80 3d 69 85 91 3c
       0.12813534 -0.09699038 0.06267692 0.01776381
000210 04 5d a9 be 5b 21 be 3d 48 c8 fe 3e 16 8b c9 bd
       -0.33078778 0.09283706 0.49762177 -0.09840982
000220 c2 85 b4 be 0d 11 6a be 2e f1 b5 3c 18 82 7b 3e
       -0.352583 -0.22858067 0.02220973 0.24561346
000230 ee 69 0b bf d5 f5 bc be e1 52 9c be 40 26 05 3e
       -0.5445851 -0.36906305 -0.30531982 0.13002872
000240 95 39 10 3d 93 28 26 3e 4c d2 9d 3e 09 0c 49 bf
       0.035211165 0.16226415 0.30824506 -0.7853399
000250 8f e7 76 bf e6 77 d4 be f2 6f 1d be aa e2 22 3f
       -0.9644708 -0.41497725 -0.15374735 0.6362711
000260 29 40 0b bf 8e 48 0d bf 8e b2 02 bf 83 36 35 be
       -0.54394776 -0.55188835 -0.510537 -0.17696576
000270 e4 dc 00 bf 4a 74 e0 be 26 2a 5c 3f 9e 08 2a 3f
       -0.5033705 -0.43838722 0.86001813 0.664194
000280 5a d2 6d bd f4 d1 5e be 76 11 48 3e 55 5d 00 3f
       -0.058061935 -0.21759778 0.19537911 0.50142413
000290 dd 3e 2a bf 27 2b 32 be 4f a2 e0 3e 8f 7d a6 be
       -0.6650217 -0.17399274 0.43873832 -0.3251767
0002a0 eb f0 49 3d ec 32 d1 bd b7 60 34 be 5c f2 3c 3d
       0.049302023 -0.10214791 -0.17615019 0.04612957
0002b0 4c 07 59 3e 33 56 7f 3e 99 f9 1d bf a5 ad cc be
       0.2119419 0.24935226 -0.6170898 -0.3997623
0002c0 cc 55 9f 3e 6b cf 0b be 0e e1 6f bd 04 09 e7 be
       0.31120145 -0.13653342 -0.05856424 -0.45124066
0002d0 04 46 5a 3f 70 4c 25 3f a4 bd cb be 61 6a 25 bf
       0.85263085 0.6456976 -0.39793122 -0.64615446
0002e0 33 d4 fe 3e 3c 79 e0 be 23 07 57 3e cc 02 0a 3f
       0.4977127 -0.43842494 0.20998816 0.5391052
0002f0 22 63 e5 3e 56 27 f5 3d fa 79 6f 3e 37 47 0b 3f
       0.44802195 0.11970393 0.23386374 0.5440554
000300 31 e2 74 bf 77 e1 9b be 2b 93 09 3f 52 4b 59 bf
       -0.9565764 -0.30445454 0.53740185 -0.84880555
000310 f5 c2 23 be 65 b9 ff 3b 9c 1a 42 3e 3a c7 35 bf
       -0.15992339 0.007804083 0.18955463 -0.7100712

Mixer_Block.0.mlp_block_token_mixing.fc2.bias f4 [10]
000000 0d dc b8 3e e0 5f 2e be 28 a5 38 3e 42 77 19 bf
       0.36105385 -0.17028761 0.18031752 -0.599476
000010 4f c4 00 3f d5 4c 3f be 64 d2 6a 3e d2 65 64 3f
       0.50299543 -0.18681653 0.2293182 0.89217865
000020 4c f6 8b bd 04 62 07 3d
       -0.06834087 0.03305246

Mixer_Block.0.mlp_block_token_mixing_DynaMixerOperation.fc_ND.weight f4 [1, 66]
000000 31 06 19 bd 87 63 80 bc f0 0f ba 3d 58 a4 d7 bd
       -0.03735942 -0.015672458 0.09085071 -0.10529393
000010 7b 9f 4b 3d a7 6e 95 3c 2d de 2d 3c b3 98 b8 3d
       0.04971264 0.01824124 0.010612053 0.090135
000020 7a 11 dc 3d 7c 4a 0a 3d ab 87 37 3c ee 99 a3 bc
       0.10745521 0.03376244 0.011201779 -0.01997086
000030 d4 e8 c3 3d 36 49 08 bd 64 0b bd bb 6f 46 36 bd
       0.09565893 -0.033272944 -0.00576918 -0.044500764
000040 b9 57 e9 3d 49 14 66 3c 42 88 85 3d 6d 06 2b bd
       0.11393685 0.014042922 0.0652013 -0.041754175
000050 85 08 18 bd d8 ba 72 bd 5c a6 7c bd f6 6f cf 3d
       -0.0371175 -0.05926022 -0.06168209 0.10128777
000060 17 03 09 bd 5b 2a d6 bd 83 2c c2 3c 43 a0 d4 bc
       -0.033450212 -0.104572974 0.023702865 -0.025955325
000070 ad d1 77 3d 99 63 4c 3c 1a dc 36 bd 65 cd 5f bd
       0.060502697 0.012474918 -0.0446435 -0.05463924
000080 22 4f 0c 3d 69 60 51 bd 14 78 2c bd 97 0e 7b 3d
       0.034255154 -0.051117335 -0.042106703 0.06129321
000090 23 81 4e 3c e4 03 ae bd f3 a0 77 bc ab 79 7e 3d
       0.012604031 -0.08496836 -0.015114057 0.06212775
0000a0 78 7d c3 3c 12 92 6b bd 6e e6 d7 bc b5 5e 99 bd
       0.02386354 -0.05751235 -0.026354995 -0.07488767
0000b0 8f 9e a3 bc e6 76 68 bd f3 82 9a bd 90 5c ee 3c
       -0.019973068 -0.056754015 -0.07544508 0.029096872
0000c0 e4 16 ec bb 49 2c 67 bd d8 36 95 bd 0b 0e 20 bd
       -0.007204877 -0.056438718 -0.07285851 -0.039075892
0000d0 e7 aa 5d 3c 8b ab 59 3d 72 b6 18 bd ec ef a8 3c
       0.013529516 0.05314211 -0.03728337 0.020622216
0000e0 ac 64 d7 3c 63 d7 9c 3b cb 59 51 bd 41 59 ff bc
       0.026293121 0.0047864183 -0.051111024 -0.03117049
0000f0 76 d8 7d bd c8 9c 9e bc 7a 02 ce bc ac 10 45 bb
       -0.06197401 -0.019361869 -0.025147665 -0.0030069752
000100 1b 60 d2 3d 67 1c a1 3c
       0.10272237 0.019666864

Mixer_Block.0.mlp_block_token_mixing_DynaMixerOperation.fc_Nd.weight f4 [100, 10]
000000 92 b2 41 be 2f b3 ad be b3 62 dd 3d 12 74 61 bd
       -0.18915775 -0.3392577 0.10809841 -0.055042334
000010 67 cc b6 3c 94 51 5a bd ef 0f be 3c 1f f0 f3 bc
       0.022314264 -0.053300455 0.023200957 -0.029777585
000020 b9 e8 05 3e 83 04 d5 bc 46 eb 8b 3e 39 ee 60 bd
       0.13077058 -0.026003128 0.27327937 -0.054914687
000030 64 9e 38 be c2 64 64 be 84 18 66 be 3c 84 b8 bd
       -0.18029171 -0.22304061 -0.2247029 -0.09009597
000040 7f 4e d8 bd 99 c7 8d bd 2e ba a0 3d 0f cf 34 bd
       -0.10561847 -0.06922836 0.07848011 -0.04414278
000050 0a 7d 8c 3e 29 16 42 3f 32 e5 79 3e ac a6 42 3f
       0.27439147 0.75815064 0.24403837 0.7603557
000060 8b 9c e4 3d 26 6c 11 3f a1 8e e6 3e 71 f1 05 3f
       0.11162671 0.56805646 0.45030692 0.52321535
000070 56 08 8a 3e 54 4d 9e 3e 76 5e 56 be f3 40 ba 3e
       0.26959485 0.30918372 -0.20934471 0.36377677
000080 0c 5d 81 be 1a 25 44 bc b9 dc 69 be 92 a4 e6 3c
       -0.25266302 -0.011971736 -0.22838105 0.028154645
000090 1f 7f 83 be 19 52 a9 bd 5e ad ef bc a0 fd c3 bc
       -0.25682923 -0.08267612 -0.029257473 -0.023924649
0000a0 7f 2f 89 3d ef 9a 0f 3f 2f 93 b1 3e 94 4f 46 3e
       0.06698512 0.56095785 0.34682605 0.19366294
0000b0 5d e2 bf 3e ed ef d8 3e d6 bd 19 3f a8 ec 86 bd
       0.3747739 0.4237055 0.6005529 -0.06588107
0000c0 7f fe 23 3e 52 ba 1f 3e c6 c3 c0 bc 95 ed 0c 3e
       0.16015051 0.1559842 -0.023530852 0.13762505
0000d0 01 94 13 bd d4 04 ea bd 64 bd 04 be 87 71 8a be
       -0.03602982 -0.11426702 -0.12962872 -0.2703974
0000e0 41 eb 1a bd 11 86 29 bd ca 3f 8c 3d 2e fe d7 bd
       -0.03782201 -0.04138762 0.06848104 -0.10546528
0000f0 be 23 cb bd 4d 75 16 3c 85 36 e9 3d 93 87 6b bd
       -0.09918927 0.00918324 0.11387352 -0.05750234
000100 b0 59 f9 3d f7 3d fb 3d 08 1a 64 be 7d 55 fc 3d
       0.1217531 0.12267678 -0.22275555 0.12320993
000110 eb 1f 05 3e 6a 15 3e 3e 21 ff 8e bd 55 25 8f 3d
       0.13000457 0.18562856 -0.06982256 0.069895424
000120 53 b1 17 bd 61 74 64 3d c1 88 c1 bd 28 e9 a0 3d
       -0.037034344 0.05577505 -0.09449912 0.07856971
000130 8d 03 05 bc e3 0f c6 be a9 13 0f 3e be 2d df 3b
       -0.008118522 -0.38683996 0.13972344 0.006810873
000140 03 5d 4e be 6f 17 ee 3d 47 15 22 3d ff 25 5f 3d
       -0.20152669 0.11625563 0.039571073 0.054479595
000150 b2 23 0b bd 4f 75 0c 3e 4e ca d9 3c 3d 52 be 3d
       -0.03396959 0.13716625 0.026585724 0.092930295
000160 4b 87 bd 3c 05 b9 8b b9 6c eb 21 bb fa 5e d0 3b
       0.023135802 -0.00026649996 -0.0024706973 0.0063589783
000170 cc d2 0c bd 0a 3c 7a be ef 63 b4 bd a9 82 63 be
       -0.03438072 -0.24436966 -0.08808123 -0.22217812
000180 df bb 91 bd b0 d4 25 be 4d 46 92 3d ac 12 bc 3d
       -0.07115912 -0.16194415 0.07142315 0.09183249
000190 63 f0 21 bd b8 d1 80 be 0a 20 14 be 5e 2a 03 3b
       -0.03953589 -0.25160003 -0.14465347 0.0020014266
0001a0 67 fb c7 be 79 b6 03 be d8 5e d4 be 0f e9 c0 bd
       -0.39058992 -0.12862577 -0.4147861 -0.094194524
0001b0 d0 3e 96 be ab a2 07 be 89 9d ca 3e 26 ef ba be
       -0.29344797 -0.13245647 0.39573315 -0.3651058
0001c0 5c 42 cc bd 47 59 d0 bd 1d 1d 25 be 6f 0c 91 bb
       -0.099735945 -0.10173278 -0.16124387 -0.004426531
0001d0 d3 75 f2 3d da 41 db 3d 9c 74 0c 3e a4 04 90 bd
       0.118388794 0.107059196 0.13716358 -0.07032135
0001e0 ae 45 46 be 18 a5 bd 3b 05 16 7f 3c 4c fa 3a bd
       -0.19362518 0.005787503 0.015569215 -0.045648858
0001f0 f2 6a d7 be 25 67 da bd d2 b8 bf be 8f 68 fa 3c
       -0.4207378 -0.106642045 -0.37445694 0.030567436
000200 03 40 ab be c9 fc 40 be 51 57 87 3b 1e eb 8b 3e
       -0.33447275 -0.1884643 0.004130282 0.27327818
000210 19 1b 5e bc bf 91 95 3e 78 07 0d 3f 3b 9d bc 3d
       -0.013556265 0.29212758 0.5508952 0.09209677
000220 e1 09 22 3f 81 3a 90 bd e7 4a e9 3e af 92 f0 bd
       0.63296324 -0.07042409 0.45564958 -0.11746728
000230 37 75 84 3e e5 3e a3 3e 56 ed 3b be 15 24 42 3e
       0.25870678 0.31883922 -0.18352255 0.18959077
000240 fb 34 d5 3e 71 6a b0 3d 93 54 32 bc f7 96 71 3e
       0.41641983 0.08614052 -0.010884422 0.23592745
000250 35 66 25 3d 75 30 b5 bc ad cf 8f 3d 92 ed 65 be
       0.040380675 -0.022117833 0.07022033 -0.22453907
000260 b3 5c 84 3e 4b 7e 22 3d 4b fa a3 3d a4 bd 53 be
       0.25851974 0.039671224 0.08006724 -0.20677811
000270 3a bf 0b 3d 73 e8 df 3d f3 9e bc 3d 46 c5 b7 be
       0.034117915 0.10933008 0.09210005 -0.35892695
000280 ee 1a 2e 3e ae dd 0b 3c 92 e1 1c be c5 5f 4b 3e
       0.1700246 0.008536739 -0.15320423 0.19860752
000290 2d 21 a2 3d 69 14 6c 3e b8 65 94 3d 88 b3 f4 bc
       0.07916484 0.23054661 0.07245964 -0.029870763
0002a0 f8 1a cb 3c 3f cc 71 3d 33 7e 82 bd 7f c6 56 be
       0.024793133 0.059032675 -0.06371727 -0.20974158
0002b0 b4 55 2f 3d 3d e8 c5 3c 76 c3 58 bc 6f f1 2c be
       0.042806342 0.024158591 -0.013230195 -0.16888975
0002c0 77 3c 80 3e 2b 10 c9 be 31 1d b3 3c 3a 45 f4 bc
       0.2504613 -0.39270148 0.021864505 -0.029818166
0002d0 1f c9 51 3e ef 28 ce bd 73 e9 f4 bd c7 55 c1 3e
       0.20486878 -0.10066401 -0.119585894 0.37760755
0002e0 75 c7 b6 3d b5 d6 ef bd ac c3 b7 3d bc 65 41 bd
       0.08924762 -0.11710874 0.08972868 -0.047216162
0002f0 15 2b 21 3d 77 3a 33 be 24 8b 20 be d8 7c d9 3d
       0.039347727 -0.17502771 -0.15678078 0.10619515
000300 5b 05 49 3e 9c cd 08 bc a5 af bf 3d e1 a5 62 bd
       0.19630949 -0.008349802 0.093596734 -0.055333976
000310 06 73 0e 3e 5b ec 3d 3e 55 e6 ad 3c ce 0d 81 be
       0.13911065 0.18547194 0.021227995 -0.25205845
000320 60 85 32 be c1 55 29 3d 22 36 18 3e 83 45 aa 3d
       -0.17433691 0.041341547 0.148644 0.083140396
000330 49 dd b4 3d 23 17 6f 3e fd ff a6 bc 2b 31 1d 3b
       0.08831269 0.2334867 -0.020385737 0.0023985605
000340 e2 73 f5 3d a6 1f 39 3e b8 f0 95 be fb 4a 7c 3e
       0.119849935 0.18078479 -0.29285216 0.24637978
000350 51 69 3f be 20 98 e1 bc 9f df 6e be 60 79 4a be
       -0.18692519 -0.02753836 -0.23327492 -0.19772863
000360 7e 56 80 3d 31 56 48 be ac 44 f9 3c e6 fe ce bc
       0.06266497 -0.1956413 0.030428253 -0.02526803
000370 2c ca 49 bd a4 b7 80 bd b0 cb b9 be 73 dc fd bd
       -0.04926507 -0.06285027 -0.36288214 -0.12395563
000380 10 74 a9 be 9e 38 62 be af 74 6b be 42 3c c3 be
       -0.3309636 -0.2209191 -0.2299373 -0.3813191
000390 2e 18 8e be 7a 7b 8d be 7f 82 82 3d 7e 22 2f 3d
       -0.27752823 -0.27633268 0.063725464 0.042757504
0003a0 82 c9 23 be d7 51 97 3d 8c e7 3b bd 81 53 92 3d
       -0.15994838 0.073886566 -0.045875117 0.07144833
0003b0 55 92 cf 3e d6 35 77 be 66 d8 ef 3d 62 3b 89 bc
       0.4054133 -0.2414163 0.117111966 -0.016751949
0003c0 fd b3 0e 3e a3 c4 70 be 58 90 85 bc 1e f9 74 3e
       0.13935848 -0.23512511 -0.01630418 0.23923156
0003d0 ad 25 c9 3e 13 90 20 bd cb e1 6f 3e 92 68 5b bd
       0.39286557 -0.0391999 0.23425977 -0.053566523
0003e0 fc 10 a7 3e 0d c5 84 3e 6d 02 c1 3e 09 2a 7a 3d
       0.32630146 0.25931588 0.37697163 0.061075244
0003f0 7d 02 82 3e e9 9c 1e 3e 1f 83 88 3e f7 af a2 3e
       0.25392523 0.15489544 0.26662537 0.31774876

Mixer_Block.0.mlp_block_token_mixing_DynaMixerOperation.fc_Nd.bias f4 [100]
000000 9e 64 94 3e c4 42 43 3d e3 c9 00 bf 41 58 7e 3c
       0.28983015 0.047671095 -0.50308055 0.015523971
000010 2e aa 02 bf 3f 3a 5b 3e 3b ab 4b be e7 b3 be bc
       -0.51040924 0.21408938 -0.19889538 -0.023279143
000020 a8 c5 45 be 73 f5 68 be 3d 74 ec 3e 2b 5b a5 3d
       -0.19313681 -0.22749881 0.46182433 0.080740295
000030 de a1 2e be 3f 15 5e be 19 12 f3 be f6 ba 81 be
       -0.17053935 -0.21687792 -0.47474745 -0.25337952
000040 5f cc 8b be 09 96 d8 be f0 49 c6 be f3 6c da bd
       -0.2730436 -0.42301968 -0.38728285 -0.10665312
000050 2b 09 6d be d2 8c 39 3e 98 e3 fd 3e 02 ea 03 bd
       -0.23148029 0.18120125 0.49587703 -0.03220559
000060 d1 fd db 3d 65 88 bc bc f1 75 8f be c0 6a e6 be
       0.10741771 -0.023014257 -0.2801967 -0.4500332
000070 d9 a0 56 be f9 01 68 bd bb c8 98 3e dc 05 39 bf
       -0.20959796 -0.056642506 0.29840645 -0.72274566
000080 c1 f7 06 3f 7b 2e d3 3b e7 b5 9f bd 34 ac e5 bd
       0.5272179 0.00644475 -0.07798367 -0.11214486
000090 1f 5f 57 be 44 26 2f be 22 3e 70 be 4e 23 ac be
       -0.2103238 -0.17104441 -0.23461202 -0.33620685
0000a0 25 5e 0c 3f c6 be 94 3d 64 d1 24 bf e3 fc bd 3e
       0.54831153 0.0726295 -0.64382005 0.37107
0000b0 51 cd c6 bd 5b 34 cc 3d b7 eb bd be 04 74 47 3e
       -0.0970713 0.099709235 -0.370939 0.1947785
0000c0 92 60 cb bd 86 23 3a bd 5b 5d f3 bc f2 25 59 bd
       -0.09930529 -0.045444034 -0.029707601 -0.053014703
0000d0 38 7e 49 3e 72 85 f6 be b5 bc a6 3e 57 52 1a 3e
       0.19677055 -0.48148686 0.32565847 0.15070473
0000e0 be 1e 6d 3b 55 31 f2 be 5f e4 82 3e f0 65 90 3b
       0.0036181654 -0.47303262 0.25564858 0.004406683
0000f0 e0 e2 04 bd d4 e0 a5 be da ac bd bd 8e 71 7e be
       -0.032442927 -0.32398093 -0.092614844 -0.24848005
000100 8b 5a 62 be 4c 67 39 3c 0f 50 a2 3e 94 23 83 be
       -0.22104852 0.011316132 0.31701705 -0.2561308
000110 b4 e8 1a bc 27 6c a2 3d 51 fb f7 be 60 2d b8 3e
       -0.009454895 0.07930785 -0.48433927 0.35972118
000120 20 2c 84 be 15 c1 ba 3e 70 87 d4 3d 6f ba 21 bd
       -0.25814915 0.36475435 0.10377395 -0.039484438
000130 20 67 57 3e d4 8b 72 3e a6 d9 92 3e 10 cd a2 3d
       0.21035433 0.23686153 0.28681678 0.07949269
000140 8e 22 14 3f 0f 45 a1 be 47 d6 0c 3e 83 87 2e be
       0.57865226 -0.31498 0.13753615 -0.17043881
000150 b0 a8 a8 bd 7d 00 d3 be 27 b0 b2 be 3e ae 10 be
       -0.082352996 -0.4121131 -0.3490002 -0.14128968
000160 dd 0e 28 3e c2 83 8b bd 02 5f ea be 27 ac c8 bd
       0.1641192 -0.0681224 -0.4577561 -0.097984605
000170 59 f5 1b be e9 9d 51 be 4b 17 1d be 2d 99 04 be
       -0.15230311 -0.20470394 -0.15340917 -0.12949057
000180 9a 6d 75 bd ac 68 42 bc 34 89 01 be ac 24 b0 bd
       -0.059918977 -0.011865776 -0.12649995 -0.086007446

Mixer_Block.0.mlp_block_token_mixing_DynaMixerOperation.fc_out.weight f4 [66, 66]
000000 9d 94 01 be 65 3e a4 3d 77 c5 a8 bd 9e fe 31 be
       -0.12654348 0.08019713 -0.082407884 -0.17382285
000010 f1 13 24 bc d4 2b 21 3e 9e 35 29 3d 82 7d e0 bd
       -0.01001452 0.15739375 0.0413109 -0.10961439
000020 4c 25 03 3d e7 e5 dc bd a0 21 09 bd 2e 70 d1 bc
       0.03201799 -0.10786038 -0.033479333 -0.025566187
000030 9c 55 63 be b8 f8 82 be 6e 24 34 be 83 61 74 bd
       -0.22200626 -0.25580382 -0.17592022 -0.059663307
000040 c1 1c d2 bd 0c e4 44 be 86 2a 27 be d4 0c ca 3e
       -0.102593906 -0.19227618 -0.16324815 0.39462912
000050 48 95 82 bd db 99 2b 3e c5 3c d9 bc 98 de 23 3e
       -0.063761294 0.1675791 -0.026518235 0.16002882
000060 45 18 68 3e 99 5d 16 3d 2d 88 4f be 04 93 9f 3c
       0.22665508 0.036710355 -0.2026679 0.019479282
000070 c9 3c b0 bd 3a 95 9b be 03 93 86 3d e0 5c 1b 3e
       -0.08605344 -0.30387288 0.06571009 0.15172148
000080 f4 eb 1c 3b 7f 08 d9 3d 67 da 67 bc 09 8c a4 3e
       0.002394435 0.105973236 -0.014151192 0.32138088
000090 13 16 1f 3e b8 ee a7 3e cd 23 7d 3b 06 dc f2 bd
       0.15535764 0.32799315 0.0038626075 -0.118583724
0000a0 af b4 3d 3e 28 bd 4d 3d 11 ab b9 bd c3 14 be 3d
       0.18525957 0.05022922 -0.090658315 0.09281304
0000b0 11 79 fe 3d 4b 70 e5 3d 66 70 af bd 26 64 8c bd
       0.12425435 0.11203059 -0.0856636 -0.06855039
0000c0 e4 42 15 be 3a e3 ec 3d f1 bf 9d bd 32 ed 51 bd
       -0.14576298 0.115667775 -0.077026255 -0.051251598
0000d0 16 68 94 3c 8d 7e 63 bd 35 a2 83 3e d8 97 05 be
       0.018116038 -0.05554061 0.25709692 -0.13046205
0000e0 e6 ab e0 bb 44 3f 95 3e f8 fd 97 be 6c ad fd bd
       -0.0068564294 0.2914983 -0.2968595 -0.12386593
0000f0 16 a2 56 3d 11 4a d3 3d 72 b2 de bc 7b d0 ff bd
       0.05240067 0.103168614 -0.027184699 -0.12490936
000100 ce 8b 44 bd 40 0a 1a be e1 61 96 be 92 cf db be
       -0.04798489 -0.15042973 -0.2937155 -0.429318
000110 f2 6b 23 3c 29 71 12 be 16 22 cc be bd 51 6a 3e
       0.009974467 -0.1430098 -0.39869756 0.22882743
000120 ee 4c cc 3d 75 04 12 be 40 d3 85 3e 0c 8a c4 3e
       0.09975611 -0.14259513 0.26137733 0.3838657
000130 e2 d3 38 3e 41 d2 8c 3e 4d a6 8e 3e 12 8b aa bc
       0.18049577 0.2750416 0.27861252 -0.020818267
000140 53 39 c2 be ae b2 a4 bd 0d f0 7c be 9f c0 31 be
       -0.3793436 -0.08041893 -0.24700947 -0.17358635
000150 3f 40 2c 3e 57 e1 20 3d 43 4d a5 bc d1 03 c1 3d
       0.16821383 0.0392774 -0.020178443 0.09424556
000160 9b 38 9b bd f9 05 48 3c ee 3b 15 be f2 a3 24 3d
       -0.07579156 0.012208455 -0.14573643 0.040195413
000170 65 2c 00 3e 80 0a 83 bc 81 52 fe 3d fe e5 7d be
       0.12516935 -0.015996218 0.1241808 -0.24794766
000180 bf f4 82 bc 5d cc 3d bc c6 4e 9a 3e 1e 78 2c 3e
       -0.015985845 -0.011584369 0.30138224 0.16842696
000190 5a cb df bd 57 29 f9 bc ce 35 00 bd 15 94 52 be
       -0.10927458 -0.03041522 -0.031301312 -0.20564301
0001a0 22 1e 27 bc 31 43 ab 3d 6b f5 8c 3e 55 52 b8 3d
       -0.010200055 0.08362425 0.2753099 0.090000786
0001b0 99 86 55 bd f5 63 03 be 6a 9f 91 bd 2f c6 98 bc
       -0.052130315 -0.128311 -0.07110484 -0.018649189
0001c0 d3 d4 5e 3e 87 63 54 be 0e fe 72 3d cd bd c8 3c
       0.21760873 -0.20741092 0.059324317 0.024504567
0001d0 e7 4f 9b 3b 09 73 4c be fb 4f 33 bd a8 6e 83 be
       0.0047397497 -0.19965757 -0.043777447 -0.25670362
0001e0 9a 4e 3f be c2 5b be bd 2d bd c3 3e c4 94 5a 3e
       -0.18682328 -0.09294845 0.38230267 0.21345812
0001f0 5d aa 50 bd da 02 e3 bb 6d 1e 44 3e df 9a 10 bc
       -0.05094372 -0.00692783 0.19152232 -0.008825987
000200 1b 65 08 be de f6 4f 3c 99 ef bd be 92 5c 1e 3d
       -0.13319819 0.012693135 -0.3709686 0.0386625
000210 83 50 67 3d c7 84 b5 bd b4 26 84 be df 03 f3 bd
       0.056473266 -0.08863216 -0.25810778 -0.11865973
000220 a7 b7 53 be 63 bc 87 3e 2a 86 56 be 00 64 18 be
       -0.20675527 0.26510915 -0.20949617 -0.14881897
000230 d3 1c b6 3d e6 24 20 3e db aa cb be 1f 66 c1 bb
       0.088922165 0.15639076 -0.3977879 -0.0059020664
000240 8f c3 e1 3d c7 45 e0 bc 93 50 0f be 05 d0 eb bb
       0.11023628 -0.027377022 -0.1399558 -0.0071964287
000250 41 6a 5f 3e 80 ca 48 3c d4 80 7b be c2 89 67 3e
       0.21817876 0.012255311 -0.24560863 0.22611144
000260 55 c9 38 bd 5e b4 48 3d 5b 61 52 be 6c 9c 09 3e
       -0.04511388 0.049000137 -0.2054495 0.13438576
000270 80 cc aa be a6 81 a9 3d 2b ce 2f be 63 d4 58 3d
       -0.33359146 0.082766816 -0.1716849 0.052936923
000280 11 10 4c be cc 26 5c 3c 29 31 14 be cd 4f 08 be
       -0.19928004 0.013436984 -0.14471878 -0.13311692
000290 18 45 fb bd 69 bd 6c 3d 4c d9 10 3e d9 da 34 be
       -0.12269038 0.057797823 0.14145392 -0.17661609
0002a0 d6 d6 e4 bd 35 2f ad bd a9 14 42 3e d4 01 b6 3e
       -0.11173789 -0.0845627 0.18953194 0.3554827
0002b0 3f 62 3e 3d f4 07 c2 3d b2 d5 41 be 46 e0 b0 bd
       0.046480414 0.09474173 -0.18929175 -0.08636527
0002c0 35 51 a5 bd e4 ee 0b 3e 44 34 e4 bd 39 21 da bc
       -0.0807213 0.13665348 -0.111427814 -0.02662717
0002d0 91 0a 5f 3e 4d 1c e9 bd 82 df 52 bc 1e 1a ef 3e
       0.21781375 -0.11382351 -0.012870671 0.46699613
0002e0 3b 8d f3 3d ff af 9a bd b1 37 d5 3e 18 68 c4 3e
       0.11892172 -0.075531 0.41644052 0.38360667
0002f0 a6 4a 97 3d b0 fc d4 3d a4 b0 02 3e c6 3b a5 3d
       0.07387285 0.10399759 0.12762696 0.080680415
000300 67 d0 c6 bd 0a 04 29 3e 29 d8 bb 3d ac 5d 44 3e
       -0.09707718 0.16505447 0.09172089 0.19176358
000310 fd 94 7d be c9 d3 15 be d0 e7 6a bc 5c 27 7a bd
       -0.24763866 -0.14631571 -0.014337495 -0.061072692
000320 d0 2e a8 bc 19 3f c4 be a4 30 a4 3d 7f 14 eb bd
       -0.020530134 -0.3832939 0.0801709 -0.11478519
000330 c6 d6 fc 3c 8b 54 7f 3d 9d c8 af 3e 0e 04 24 3e
       0.03086413 0.062336486 0.34332743 0.16017172
000340 0a 47 d7 3d 34 0b 3c 3e 67 7a 78 be 9d 82 06 bd
       0.105115965 0.18363649 -0.24265443 -0.032839406
000350 ca 99 9c 3b a4 f0 80 be 70 0e db bd 60 ee 66 be
       0.0047790753 -0.25183594 -0.10696113 -0.2255187
000360 c1 32 43 3e 65 e5 5c be d4 58 2a 3d 61 da 4b 3b
       0.1906233 -0.21571882 0.04158862 0.0031105506
000370 1e fb c2 3e 4c d1 e2 bc a4 99 f1 3d 0d 46 9c bd
       0.38082212 -0.027687691 0.11796883 -0.076305486
000380 0e 67 2b 3c eb 41 36 be 51 fb cb 3e f0 87 8a be
       0.010461582 -0.17798583 0.39840177 -0.27056837
000390 79 b5 00 3e b8 ec c8 3d ef b9 31 3e ae 45 09 3e
       0.12569226 0.098107755 0.17356084 0.13405487
0003a0 cb aa 4b be 6b e4 5a bd a2 6c cd bd b9 69 22 be
       -0.19889371 -0.053440493 -0.10030486 -0.15860642
0003b0 b6 96 a1 bc ab 08 4a 3e 6b 98 87 be 50 fc 81 be
       -0.019725185 0.19729869 -0.26483473 -0.25387812
0003c0 09 40 00 3e 62 89 d5 bd 69 c3 a2 bd 11 8b 16 be
       0.12524427 -0.10426594 -0.07947428 -0.14701487
0003d0 dd 33 2d be 38 d8 fe 3d 07 d0 85 3e 3d d7 7d 3e
       -0.16914316 0.12443584 0.26135275 0.24789138
0003e0 d5 03 41 3d 0c 64 f5 bd c1 8b 2a be 62 d5 94 bd
       0.047122795 -0.11981973 -0.16654874 -0.07267262
0003f0 ff cf c7 bd 94 99 ab bd 81 20 ea 3c aa 6a d4 3e
       -0.09756469 -0.08378902 0.028579952 0.41487628

Mixer_Block.0.mlp_block_token_mixing_DynaMixerOperation.fc_out.bias f4 [66]
000000 ba 33 eb 3e 13 6b 55 be f7 5c 9f 3d 37 84 fb be
       0.45937902 -0.20841627 0.077814035 -0.4912431
000010 1a 80 44 be 5f 2f 37 3b f7 4b 18 3c 4b 2f 3f be
       -0.19189492 0.002795182 0.009295455 -0.18670385
000020 5a ad 93 3e 25 2e 91 be 38 b4 c5 3c ce ab 3b be
       0.28843194 -0.28355518 0.024133787 -0.18327257
000030 e8 05 9f 3e c9 75 24 3e ac 95 6b 3e b8 68 d5 be
       0.31059194 0.16060556 0.23006314 -0.41681457
000040 3c 9f e0 be 45 8c 99 be 07 c5 f6 3e 01 2e 8b bd
       -0.43871486 -0.2998983 0.48197195 -0.06795884
000050 0c a1 3c 3e 7f 24 8a bd 2c 5d 9f 3d 05 9f a6 be
       0.1842081 -0.06745242 0.07781443 -0.32543197
000060 de 92 6d 3d 6f 73 52 3d 05 ab 22 3e 22 ee 45 3e
       0.05800139 0.051379617 0.15885551 0.19329122
000070 f8 c6 2c bd fa e6 b1 bb 7e 10 cd 3c b1 6d 1c be
       -0.04218194 -0.005429146 0.025032278 -0.15276219
000080 0e b7 4f be fd 81 98 3e 2c a1 07 3e 81 ac e8 be
       -0.20284674 0.29786673 0.13245076 -0.4544411
000090 08 a1 32 be 98 97 ac 3e 2e b8 90 3e db 94 b2 3e
       -0.17444241 0.33709407 0.28265518 0.34879193
0000a0 f6 8e 0b bd 4a 6c 92 bd a4 91 b1 3c 44 6f 74 3e
       -0.034071885 -0.07149561 0.021675892 0.2387057
0000b0 48 3f 00 3e b3 f6 f4 3d 8d f3 a6 3e 09 63 b2 3e
       0.1252414 0.11961117 0.3260769 0.34841183
0000c0 e6 6d ba 3d de a9 8a 3d 57 99 d5 bd c6 a7 18 bd
       0.09102993 0.06770681 -0.10429638 -0.037269376
0000d0 e9 ca 13 3d e3 8d e0 bd 22 d6 9c be f3 08 9f be
       0.036082182 -0.10964563 -0.3063212 -0.31061515
0000e0 4e a8 81 3e 77 5a b9 3e a8 de e1 3e d6 60 b9 3e
       0.2532372 0.36201832 0.44115186 0.36206692
0000f0 da fc d5 be 88 b2 bf be 62 c5 8f bd 7d f6 35 be
       -0.41794473 -0.37440896 -0.0702007 -0.17769809
000100 b5 be f3 3d 26 e5 36 3e
       0.11901609 0.1786085

Mixer_Block.0.mlp_block_token_mixing_DynaMixerOperation.LN.weight f4 [10]
000000 88 8c bb 3f 78 6d ab 3f 14 88 79 3f a2 1f 3d 3f
       1.4652262 1.3392782 0.97473264 0.7387639
000010 12 72 2d 3f de f7 44 3f b0 4b 4e 3f 24 83 56 3f
       0.6775218 0.76940715 0.8058424 0.83793855
000020 44 4f 4d 3f 43 7f 6b 3f
       0.80199075 0.9199106

Mixer_Block.0.mlp_block_token_mixing_DynaMixerOperation.LN.bias f4 [10]
000000 a6 eb 8e 3e 18 49 1c 3e 1e 13 31 be 4b 48 5b 3e
       0.2791416 0.15262258 -0.17292449 0.21414296
000010 df 10 de bd 61 a6 b9 bd 12 4b 1a be 08 11 3a 3e
       -0.10843062 -0.090649374 -0.150677 0.1817056
000020 e8 42 b5 3d 91 ee 52 3e
       0.08850652 0.20598818

Mixer_Block.0.mlp_block_channel_mixing_DynaMixerOperation.fc_ND.weight f4 [1, 10]
000000 24 e3 52 bf 93 38 72 3d bd bc 64 3e ec 2f d0 3d
       -0.8237784 0.059135985 0.22337623 0.1016539
000010 83 9d 0d 3e 9e 75 cc 3d 0b 02 02 b8 cd 95 07 be
       0.13829617 0.09983371 -3.0996318e-05 -0.13240738
000020 72 43 a3 3d 5d 00 80 bd
       0.079718485 -0.06250069

Mixer_Block.0.mlp_block_channel_mixing_DynaMixerOperation.fc_Nd.weight f4 [484, 22]
000000 a4 2d 18 bd 98 d2 39 3e bc 56 87 be 3b bf bf 3b
       -0.0371529 0.18146741 -0.2643336 0.005851654
000010 10 1c 55 3d e0 fe c1 be 3a 5e 87 3e 7c f4 7f 3e
       0.052028716 -0.37889767 0.26439077 0.24995607
000020 2a 35 27 bf eb ac 3c bd a0 d3 7a be ab 6a 17 3d
       -0.65315497 -0.046063345 -0.24494791 0.03696696
000030 e7 8f 5f 3e f7 05 4e 3d cc df 52 be 99 6e 69 bd
       0.21832238 0.050298657 -0.20593184 -0.05699024
000040 46 7d 95 be 54 1d 92 ba d4 b1 10 be 96 d1 08 bd
       -0.2919714 -0.0011147656 -0.14130336 -0.033403
000050 51 9e a0 be e2 99 ed ba 75 f1 d8 bd 54 07 b9 3d
       -0.31370786 -0.0018127526 -0.10592929 0.09034601
000060 f8 8b ee bd c3 72 77 3e 58 24 bb bd b6 ef bd 3d
       -0.11647791 0.24164872 -0.091377914 0.09274237
000070 bf e4 95 be 0a c7 85 be 0a 57 33 3d bb db 99 bd
       -0.29276082 -0.26128417 0.04378418 -0.075126134
000080 f1 cc 7c 3d 84 25 0d be a8 90 2a be b1 89 d4 3c
       0.061718885 -0.13783842 -0.16656744 0.025944563
000090 d5 c9 e0 bd 9a 74 d1 be d8 48 28 be 35 b2 d6 3e
       -0.109759964 -0.40909272 -0.16434038 0.41932836
0000a0 44 88 42 bd 2d b1 41 3e 0b 1c da 3e 73 2b 71 bd
       -0.047493234 0.18915243 0.4259952 -0.058879327
0000b0 02 79 87 bc 77 07 a6 3d 99 6c 3e be de 9a 19 3e
       -0.016537193 0.081068926 -0.18596114 0.15000483
0000c0 42 88 e6 3b aa 24 58 be fa cb 36 3d 0c e5 8b 3e
       0.007035286 -0.21107736 0.04462812 0.27323186
0000d0 88 dc f9 bb 63 a4 d0 3e 58 00 87 be 79 04 13 3c
       -0.0076251663 0.40750417 -0.2636745 0.008973234
0000e0 d8 e1 c0 3e e4 fb 92 3e d1 a7 dd 3d 67 89 f3 3d
       0.37672305 0.28707802 0.10823024 0.11891442
0000f0 cd 65 d3 3e e6 12 07 bd 8e 76 a7 3e 94 5b 3c bd
       0.41288605 -0.032977007 0.32707638 -0.045985773
000100 c8 3d a6 be 6e 04 b9 3e eb ee 14 be ed 1e 70 3d
       -0.3246901 0.36136192 -0.14544265 0.058623243
000110 69 03 87 be 9a d2 15 be b9 06 16 3e a6 08 17 be
       -0.2636979 -0.1463112 0.14651002 -0.14749393
000120 6b 80 a4 bc 14 ed 55 bd ee 46 7b 3e c5 56 c4 3b
       -0.020080766 -0.05222805 0.24538776 0.005991789
000130 5e e9 a4 3d 71 6d 68 3e 09 0a bc bd 09 41 25 bd
       0.08052324 0.22697999 -0.091816016 -0.040345225
000140 d3 ee 81 be ea b7 fe 3d d6 be cb 3d db 42 57 3e
       -0.2537752 0.124374226 0.099485084 0.21021597
000150 30 75 ca bc db c5 c9 3d 9b 71 6c 3e 24 6f b8 bd
       -0.024714082 0.09852191 0.23090212 -0.090055734
000160 42 5e 2d bd 47 3f 3f 3d c1 1b cc be 1c 15 c9 be
       -0.04232622 0.046691205 -0.39864925 -0.39273918
000170 3d 94 8e 3e 40 15 44 bd 56 52 bc 3d 32 dd 62 3b
       0.27847472 -0.047871828 0.09195392 0.0034616706
000180 87 e9 b6 be 63 07 71 be df 97 88 3d 18 19 bb 3c
       -0.35725042 -0.23537974 0.06669592 0.022839114
000190 4c 2e 4e be 2e 8b 9a be b7 3c 3a 3e c0 63 8c 3d
       -0.20134848 -0.3018431 0.18187223 0.06854963
0001a0 76 9f 8f bd 0c d8 b1 bc 94 1e 94 be dc 28 67 be
       -0.07012837 -0.021709464 -0.2892958 -0.2257418
0001b0 c2 0e 8c bc 9d f7 8f bd ef 74 e2 bd b5 29 0b 3e
       -0.01709688 -0.0702965 -0.110574596 0.13590129
0001c0 a9 ad 0c 3d 91 f1 c4 bd 4e cd d0 3d 24 16 c5 3d
       0.034345303 -0.09616388 0.10195409 0.096233636
0001d0 ca da d6 bc eb aa f5 be 66 97 a9 3e fd e3 3c be
       -0.026227374 -0.47981963 0.3312332 -0.18446346
0001e0 a0 e2 86 bd 27 a0 52 be c2 6f 96 be 78 66 e6 bd
       -0.06586194 -0.20568906 -0.2938214 -0.11250013
0001f0 20 a8 57 3e 18 f9 96 bc 72 75 c9 3e b3 38 ca 3d
       0.21060228 -0.018429324 0.39347416 0.09874096
000200 07 79 2b be ef 8d 2a be c9 75 55 bd 65 32 e4 3c
       -0.16745387 -0.16655706 -0.05211428 0.027856061
000210 f7 45 9c 3d 4c ab eb 3b 27 6d 09 3e 30 89 37 be
       0.07630532 0.007192051 0.13420545 -0.17923427
000220 b0 40 c3 3e 8e 56 85 3d ca d0 6b 3e 1a e8 56 be
       0.3813529 0.065106496 0.23028865 -0.20986977
000230 d4 60 d2 3d 5c c7 99 3e c0 c6 3b be 91 fd 36 be
       0.10272375 0.30034912 -0.18337536 -0.17870165
000240 d8 15 09 3e bb 23 0f be 96 55 78 3e c5 e5 0e 3e
       0.13387239 -0.13978474 0.24251398 0.13954838
000250 47 50 16 be 44 c2 01 3e 97 05 51 be bb ed 1f 3e
       -0.14679061 0.12671763 -0.20412289 0.1561803
000260 97 28 8c 3d 52 a9 b6 3e 08 90 24 3d 8b 5e fa 3e
       0.068436794 0.35676056 0.04017642 0.48900256
000270 76 bf 14 3d 7a fb ac be c9 5e 17 3e 3c f5 2c 3d
       0.036315404 -0.3378561 0.14782251 0.04222606
000280 f5 93 13 be f4 c9 6a be 51 7a 5a bd 92 b6 12 bf
       -0.1441191 -0.22928602 -0.053339306 -0.5730983
000290 6f c3 79 3b 77 3d 93 be 6f 85 85 3d 37 09 6b 3b
       0.0038110872 -0.2875783 0.06519591 0.0035863647
0002a0 22 6f 13 be 9d 2d 79 be 21 64 8b bd d4 ea 5f be
       -0.14397863 -0.24333806 -0.068062074 -0.21866924
0002b0 97 b5 4f 3e b5 6d 0f 3e 87 b8 db bd 78 8a ca bd
       0.20284115 0.14006694 -0.10728555 -0.09889692
0002c0 13 d4 a5 3d 59 5a af bd 39 c6 01 bd ec 13 cd 3e
       0.080970906 -0.08562154 -0.03168318 0.40054262
0002d0 fa 9a e0 3d a3 65 39 3d 93 0b bc 3d e1 7a a5 3d
       0.109670594 0.045262944 0.09181895 0.08080078
0002e0 61 a7 fd 3c 88 86 fe bb 57 d6 f3 3d 4e f4 9e bc
       0.030963602 -0.007767502 0.119061165 -0.019403603
0002f0 bc 64 17 3c e7 8b 05 bd d7 39 6c 3e 33 f7 64 bc
       0.009240326 -0.032604124 0.23068939 -0.0139749525
000300 0e 94 61 3d 93 c2 c8 bd 04 ac 93 3d 54 6d b9 3c
       0.055072837 -0.09802737 0.07210544 0.02263514
000310 43 4b 2c 3e 8e 9f b1 3d cf 55 00 be 16 85 60 bd
       0.16825585 0.08673011 -0.12532733 -0.05481442
000320 29 0c 92 3e ac cf e7 bd 8c a7 c6 3b 27 41 57 3d
       0.28524902 -0.11318907 0.0060624536 0.05255237
000330 2d 4e 86 3e 44 5c 60 3e 91 49 00 be 02 c1 3b 3e
       0.26231518 0.21910197 -0.12528063 0.18335345
000340 08 46 35 3c 5f 0b 7d be 0a bc 83 bd 30 1b f7 bc
       0.01106406 -0.24711369 -0.0643235 -0.030164331
000350 e7 31 14 be 60 78 90 3c 62 19 85 3a 52 9f ba 3d
       -0.14472161 0.017635524 0.0010154659 0.09112419
000360 06 ac 32 be fe 0d 05 3d 32 5e d9 3b 24 90 39 3d
       -0.17448434 0.032484047 0.0066335434 0.04530348
000370 d8 eb 9d 3e 59 6d c2 3d 00 cb 3a 3e 30 7f 0f be
       0.30843997 0.09493513 0.18241501 -0.14013362
000380 b2 67 ca be 17 db 0c be c8 35 1b be 81 71 b1 3e
       -0.39532238 -0.13755451 -0.15157235 0.3465691
000390 a5 a9 41 3d 3b 35 08 3d 19 38 95 bd fd de a1 3e
       0.047280926 0.03325389 -0.072860904 0.3161544
0003a0 3a 2e dc 3d 80 34 80 3d ac 57 47 3e 18 a6 28 3e
       0.107510045 0.062600136 0.19467038 0.1646961
0003b0 53 6e 51 bd 61 5c 51 3e 39 08 a0 3d 65 58 f3 3c
       -0.051130604 0.20445396 0.07814068 0.029705236
0003c0 ef 12 d2 be 1c e1 46 3c 85 0c e7 3d 04 5b c8 bd
       -0.4103007 0.012138631 0.11281685 -0.09782985
0003d0 90 6e e3 3d ac 32 22 3e 2c c0 b0 bd 7c 5c 94 3d
       0.111050725 0.15839642 -0.08630404 0.072442025
0003e0 34 ef 79 bd 52 8d f3 bd bc 10 8f 3e ad 68 96 3e
       -0.061019138 -0.11892189 0.27942455 0.29376736
0003f0 60 59 15 be e0 bb 02 be 32 19 46 be 88 83 37 3e
       -0.14584875 -0.12766981 -0.19345549 0.17921269

Mixer_Block.0.mlp_block_channel_mixing_DynaMixerOperation.fc_Nd.bias f4 [484]
000000 26 1b d2 3d fb 68 9e 3d 40 68 9b 3e 84 67 ee bd
       0.102590844 0.07734867 0.30352974 -0.11640838
000010 20 fd ad 3d ef 77 06 3e 2d 06 5d 3e 3b c0 bf 3c
       0.084955454 0.13131689 0.21584387 0.023407092
000020 3c 1c 5a 3e b2 71 08 3d 9a 3c 0e 3e e4 52 9f bd
       0.21299833 0.033311553 0.13890305 -0.07779482
000030 e0 f4 c4 bd 5a 38 5d ba 9f 6b c5 3d 9f f6 38 3e
       -0.09617019 -0.0008438878 0.09639668 0.18062828
000040 b3 b3 2e 3e ec ba 07 3e 4c fe b6 bd de ac ae bc
       0.17060737 0.13254899 -0.08935222 -0.021322664
000050 8b e3 f5 3d 18 bf 9c bd ed 78 a9 be d8 ca 01 3e
       0.12006291 -0.07653636 -0.33100072 0.12675035
000060 18 d6 03 bf 45 55 63 3d 33 37 73 be 03 a5 8f 3e
       -0.51498556 0.05550124 -0.23751526 0.2805558
000070 42 44 62 3e d8 64 7f 3c 5f 82 f2 3e a6 69 c4 bd
       0.22096351 0.015588008 0.4736509 -0.09590463
000080 ed 53 a0 bd d8 f1 bc 3e 1e b1 99 3c 1b 34 cc be
       -0.078285076 0.36903262 0.018761214 -0.39883503
000090 f1 45 e4 bd 8b b2 b1 be 9d e5 e2 3c ce 81 ef 3d
       -0.11146153 -0.3470653 0.027697379 0.1169468
0000a0 7f 2b 46 be 1c 30 c8 3e cd 79 35 be 4f 75 13 bd
       -0.1935253 0.39099205 -0.17722245 -0.036000546
0000b0 55 84 51 3e da 37 a3 bc e1 51 a1 bd 56 d8 b2 bd
       0.20460637 -0.019924093 -0.07876945 -0.08732669
0000c0 18 75 2a 3e b2 3b df 3a 7a ab 5e be d8 bc ec bd
       0.1664623 0.001703134 -0.217451 -0.115594566
0000d0 4a 43 b6 3d f9 e8 86 3e 7f c3 7a be 2b fb b8 3d
       0.08899553 0.2634962 -0.24488638 0.090322815
0000e0 ed e3 09 be 13 f3 b9 3e e4 d0 d7 bd f7 30 99 3d
       -0.13465853 0.36318263 -0.105378896 0.074800424
0000f0 c5 fa 46 be ee 11 12 bd f2 77 ee 3d fb 9e 85 3e
       -0.19431598 -0.03566163 0.116439715 0.26097855
000100 2e 88 75 3e 06 08 d1 bd 1b 1b 11 3d 5c fa 1d 3e
       0.2397773 -0.102066085 0.03542624 0.15427536
000110 a6 fa 9d 3e 25 ee 8a 3e 7a 77 2c 3e bd 97 56 be
       0.30855292 0.27134815 0.16842452 -0.20956321
000120 80 2a 02 be 36 cb 01 be ba 71 b0 be 3a f8 94 3e
       -0.12711525 -0.12675175 -0.34461766 0.29095632
000130 e0 52 18 3d 3d 08 4a be 34 3e 87 3d 64 d8 33 3d
       0.03718841 -0.19729705 0.06603661 0.043907538
000140 d0 b9 a7 be c4 1c 71 3e 48 33 a6 be cb de 8d 3e
       -0.3275895 0.2354613 -0.32461 0.2770904
000150 6e d0 da 3d 7c 4c 2c bd 20 df 9c be 5e 19 20 be
       0.10684286 -0.04206513 -0.3063898 -0.15634677
000160 b4 b0 1c 3e 73 49 42 bd dc fb 3c be ae 12 55 bd
       0.15301782 -0.047433328 -0.18455452 -0.052019767
000170 5e 6f 19 3e 1e a5 3c be f8 97 4c be 3b 13 25 be
       0.1498389 -0.18422362 -0.19979846 -0.16120617
000180 6f 52 b2 be 01 d3 0b be 1e a6 18 be 1a 3a 8f 3d
       -0.34828517 -0.1365471 -0.14907119 0.06993504
000190 fc 3d 95 be fd d2 91 3e cc 02 c4 3e d4 dc 15 3e
       -0.29148853 0.28481284 0.38283384 0.1463502
0001a0 53 f1 3b be 3e 5f a1 bd d4 59 e3 bd 05 ed f0 3d
       -0.18353777 -0.07879494 -0.11101118 0.11763958
0001b0 e0 93 28 3e 78 d9 a7 bd a9 e7 2d bc da 79 10 3e
       0.1646266 -0.08195776 -0.010614314 0.14108983
0001c0 55 79 71 3e 47 dd 9a 3e 89 3a 00 bd eb 1f 3f bd
       0.23581441 0.30246946 -0.031305823 -0.0466613
0001d0 11 b3 f1 3d 66 6b 45 3e da fc 50 3e 12 56 c7 3d
       0.11801732 0.1927925 0.20408955 0.097332135
0001e0 31 2f 59 be f2 de fa 3d 55 d7 be 3d 78 7c e9 3d
       -0.21209408 0.12249555 0.09318415 0.11400694
0001f0 42 5e 56 3e 25 9c e1 3d ff 68 9c be 4d aa 80 bd
       0.20934394 0.1101611 -0.30548856 -0.06282482
000200 13 de 45 3e 44 3d 6a 3e b7 fa ab bd 19 ac 54 bd
       0.19322996 0.22874933 -0.083974294 -0.051921938
000210 0e ec da 3e 80 29 b0 3e 26 c8 d6 be 79 16 68 be
       0.4275822 0.34406662 -0.41949576 -0.22664823
000220 fa 7d 06 3e 42 bf 26 3d 10 5d 80 be 88 c3 1d 3e
       0.13133994 0.04070974 -0.25071 0.1540662
000230 83 57 5f bd c6 16 c1 be 01 45 86 be a0 5d 70 be
       -0.054526817 -0.37712687 -0.2622452 -0.23473215
000240 e2 32 90 bd 94 7e 61 be d4 60 ff 3d d7 39 8c 3c
       -0.07040955 -0.22020942 0.124696404 0.017117424
000250 66 67 65 3e 4b a6 e5 3e 54 5b 2f 3d cb 5c 19 3e
       0.22402725 0.44853434 0.042811707 0.14976804
000260 cb 2f a5 3d a2 3b bc bd 1b f5 58 be b8 6a 92 3e
       0.080657564 -0.091910616 -0.2118725 0.28597045
000270 60 8f 59 be cf d2 ee bd 92 12 a8 bc 8c 69 06 bc
       -0.212461 -0.11661302 -0.020516668 -0.008203875
000280 49 c6 c2 bd 08 91 f2 3d 37 e4 09 3e b3 2f a7 3e
       -0.09510476 0.11844069 0.13465963 0.3265358
000290 8a 27 b4 3e 50 0f a5 3c d4 3a 2d be aa 7e 88 be
       0.35186416 0.020148903 -0.16916972 -0.26659137
0002a0 8b 5a 91 be 76 53 97 bd fc b9 d4 3e 71 4a 83 3e
       -0.2838939 -0.07388966 0.41548145 0.25642732
0002b0 fc 46 50 be 50 77 bd 3c 7b be 6f 3d e9 07 6c 3e
       -0.20339578 0.023128182 0.058531266 0.23049892
0002c0 5d aa 99 3c 1a 76 b4 3d ac 3f 8a 3e ce cd 09 3e
       0.018757993 0.088115886 0.27001703 0.13457415
0002d0 d3 d6 3e 3e e3 60 8d be 42 8f 6d 3e d5 65 83 3e
       0.18636636 -0.2761298 0.2319918 0.2566363
0002e0 ca 8c 0c 3e 60 ea ca be 32 ac 74 be f6 71 84 be
       0.13725582 -0.3963194 -0.23893812 -0.25868195
0002f0 ad da 0b 3e 91 72 e7 3d 06 a7 22 3e 9a 93 42 3e
       0.13657637 0.11301149 0.15884027 0.19001618
000300 3e be 50 3d 26 7f 58 bd 60 d6 c3 3c 7f 76 67 be
       0.05096268 -0.052855633 0.023905933 -0.22603796
000310 1a f7 54 3e e5 7f 3d be f5 34 06 3e 53 81 35 3e
       0.20797387 -0.18505819 0.13106139 0.17725115
000320 9e a0 2b 3d ae c9 9d be 61 b7 54 bd d4 d6 2c bd
       0.041901223 -0.30817932 -0.051932696 -0.042197064
000330 35 20 bc bd 40 ef d8 bd f0 2f 88 be 06 43 be 3d
       -0.091858305 -0.10592508 -0.26599073 0.092901275
000340 98 fb 35 3e 2b ff 08 3e 8c fe c2 bd e7 17 7d bd
       0.17771757 0.13378589 -0.09521207 -0.061790373
000350 40 0e fa 3d b9 96 83 3d 94 1f 4b 3e 2d d8 e8 3e
       0.12209749 0.064252324 0.19836265 0.4547743
000360 eb a4 a2 3e a0 64 47 3d ca 3f a5 3e ca c0 11 bd
       0.31766447 0.048679948 0.3227523 -0.03558425
000370 32 f0 e5 3e 8d 3f b5 3d 62 6b f1 3d b2 94 b0 bd
       0.44909817 0.08850012 0.1178806 -0.086221114
000380 d7 ba 9d 3d 45 10 95 be 94 e1 81 3d 1f fd d8 bc
       0.077016525 -0.29113975 0.06341854 -0.026487885
000390 a8 cd a3 bc 75 2f d4 3d 46 6e ea bd 0e 1d c5 ba
       -0.019995525 0.10360614 -0.11446814 -0.0015038566
0003a0 7d 4c 2f 3e bb 09 76 bd 8b f6 be bd c0 15 80 3e
       0.17119022 -0.060067873 -0.09324368 0.25016594
0003b0 7f 8e 82 be ee 77 28 bd 36 e8 98 3d 7c 0a 09 3e
       -0.2549934 -0.04113 0.07466166 0.13382906
0003c0 b3 b0 87 bc 00 05 bb bd 50 48 11 be 80 f8 a8 3c
       -0.016563749 -0.09131813 -0.14187741 0.020626307
0003d0 3a 93 96 3d c8 7e 69 3c ba 77 b9 bd 2f 19 b4 be
       0.073523 0.014251418 -0.09056039 -0.35175464
0003e0 1e aa 54 bd 40 7a 65 3e 67 8e 3f be 2e 4b 99 3e
       -0.05192005 0.22409916 -0.18706666 0.2994017
0003f0 e5 78 ed 3d 8d 1d 4a bd 9e ee 52 3e aa 66 55 be
       0.115953244 -0.049344588 0.20598838 -0.20839944

Mixer_Block.0.mlp_block_channel_mixing_DynaMixerOperation.fc_out.weight f4 [10, 10]
000000 c8 e1 8d bb e0 d0 85 be 59 a9 3e 3d c7 a4 38 3e
       -0.0043298937 -0.2613592 0.04654822 0.18031608
000010 86 70 dc 3d 7c db 6f 3e 51 fa 54 3e 96 e0 cc 3e
       0.1076365 0.2342357 0.20798613 0.40015095
000020 bb 4e 50 3e d6 37 98 3e 8b 86 00 be db fe c5 3e
       0.20342533 0.297301 -0.12551324 0.38671002
000030 5f f5 23 bd b6 87 55 3d 5c 8a 91 bd c5 ae 9b 3d
       -0.040028926 0.052131377 -0.07106468 0.07601694
000040 96 36 0f 3d c6 c5 65 3c 25 78 ea bd d7 71 90 3d
       0.034964167 0.014024204 -0.11448697 0.07052963
000050 ed d4 b4 3e e0 c6 83 3e 3c 19 2d bd ca c7 18 be
       0.353187 0.25737667 -0.042260394 -0.14919963
000060 e5 31 25 be 2c 50 a9 bd 56 80 27 bb d1 17 09 3e
       -0.16132315 -0.08267245 -0.0025558672 0.13387991
000070 9a 43 bf be 17 f4 b6 3d 3e 33 d6 3c 5a 73 24 3e
       -0.37356263 0.08933275 0.026147481 0.16059628
000080 c8 94 43 3d de 88 a2 3d 3a 88 47 3c 89 5f 81 bd
       0.04774931 0.079362616 0.012178475 -0.0631705
000090 d2 4b 6b 3d e7 5b a8 3d ff 4b f4 bd fd 90 57 3c
       0.057445355 0.08220654 -0.119285576 0.0131571265
0000a0 19 03 b1 be 90 db e0 bd 68 5f a2 3e ab a1 46 3d
       -0.34572676 -0.10979378 0.31713414 0.048494022
0000b0 39 4d 80 3e 4a a5 0d bd c7 a0 14 bd a8 62 87 be
       0.25058916 -0.03458146 -0.03628614 -0.26442456
0000c0 3d 14 09 3d dc d7 fc bd 5f c6 72 3f 15 08 13 3d
       0.033466566 -0.123458594 0.9483394 0.03589638
0000d0 4e 10 8f be 7e 67 51 3e f6 ca 22 3c a1 7a 8a 3e
       -0.27942127 0.20449635 0.009936085 0.27046683
0000e0 13 ec 4f be ec 2e 8b be 55 82 69 3e fa da 06 be
       -0.20304899 -0.27184236 0.22803624 -0.1316947
0000f0 8c f8 47 bf b6 9b 51 3f 75 d0 19 3e 69 19 80 3d
       -0.7811363 0.8187822 0.15020926 0.062548466
000100 4f de 3e 3d e7 6e 32 bc b6 de f4 bd 69 84 67 be
       0.04659873 -0.010890699 -0.11956541 -0.22609104
000110 73 f9 d1 3d de ec 13 be 8e fd 22 bf cb 29 dd bc
       0.10252657 -0.14445826 -0.63668144 -0.026997468
000120 a9 7f 0a 3e 22 68 9c be c8 ef 39 be c3 e9 bf be
       0.13525261 -0.30548197 -0.18157876 -0.37483034
000130 b4 10 44 be 86 cd 0f 3e 7c 92 64 be 83 e2 05 3d
       -0.19146997 0.14043245 -0.22321504 0.03268672
000140 3c e8 42 bf 88 e4 a5 bd 2d 32 27 3e e8 84 ad 3c
       -0.7613561 -0.081002295 0.16327734 0.021181539
000150 42 86 f6 3d 8a 0b 96 3d 05 f7 33 3e 11 f9 23 3e
       0.120373264 0.0732642 0.17574699 0.1601298
000160 94 a7 98 3d bc 2d d4 3d 21 f5 64 3e f9 12 eb be
       0.07453838 0.10360286 0.22359134 -0.45912912
000170 2e d5 bb 3d 7b 59 85 be b0 bf 63 3d cb 69 0e be
       0.0917152 -0.2604483 0.05560273 -0.13907544
000180 47 76 0f 3c 51 90 8e be 6b f8 c9 bc 2b 0c 55 3e
       0.008756227 -0.2784448 -0.024654588 0.20805423

Mixer_Block.0.mlp_block_channel_mixing_DynaMixerOperation.fc_out.bias f4 [10]
000000 2e d1 d9 bd 12 b8 e6 be 80 06 da 3e c0 32 cd bc
       -0.10635601 -0.4506231 0.42583084 -0.025048614
000010 0d 66 73 3e 8f 4b bf 3e 3c 3b d6 3c 9d d5 41 3e
       0.23769398 0.37362334 0.026151292 0.18929143
000020 3f 62 92 bd da 40 9b be
       -0.07147645 -0.30322915
