M_2_AST/MotionMixer-main/h36m/run_for_longging/exp191/model.pt (torch, 875533 bytes, 192 tensors)

Mixer_Block.0.mlp_block_token_mixing.fc1.weight f4 [20, 10]
00000000: f440 f93d ab2d 463d 4cbc 56bd 598b 1d3f
00000010: 217d 483f b1de 5fbf 290a b3be 98ea ccbe
00000020: 87c6 82be 2c3a 923e caaa 653e 5796 1f3f
00000030: 7ee2 0b3f 137c 9bbe 8593 dcbe 1cd1 b4be
00000040: 2e70 63bf 7eba 06bd 60ea 253f 499a e23d
00000050: ef7f b43d 553a b2be 76df 123e 8ab3 e4be
00000060: 024b d43e 9d29 bcbc 57f3 a83e 0dc0 823d
00000070: 2943 c63e 94d4 32bf 4886 563d 7606 133f
00000080: 2369 7dbe 99cc 083f e298 b1be e0e0 0f3f
00000090: f133 96bd 0db9 2ebe fbd3 0bbe 2d03 483e
000000a0: 807c 813e feda aabe 2cc8 be3e cec0 abbe
000000b0: e629 023f ba4f 9ebe bbb5 8e3e 856d 99be
000000c0: a263 633e 17f2 13be 14a0 d23e 8efa 26bf
000000d0: 08b6 20be 411d 153d ea0f 3bbd 59c2 3dbe
000000e0: bb38 673e af3d 1dbf 8ce4 5b3f 3693 273d
000000f0: 94f2 bfbe 3a3e ac3e 2205 4fbf 7a8d c13e
00000100: 4e88 aa3d be82 5d3e 7269 9fbe a827 8c3b
00000110: 6f8c 6bbe d661 7c3d bcbc 35be ecf1 143f
00000120: d8ab b6bd 8eeb f139 2d56 abbe a0a5 323e
00000130: ea83 fcbe b88d 133e 3c4e 00bf e54f 65be
00000140: 44b6 b93e 6603 9ebe 9bfd 953e c757 eebd
00000150: 8fcd f63e 221a 10be 5393 e4be db88 e7be
00000160: 6109 1f3f b64c 49be 0a5a 97be 07b1 373e
00000170: 0ffc b3bd 0a0d 0abe b778 8abe ec6b 2f3d
00000180: 55ff 9dbe 6d8b 9cbe 0874 31bf e4d1 903e
00000190: 1590 50be 50fa ffbe a0b0 46be 1a80 06bf
000001a0: 4dbf 0dbe 8ae4 1ebf b121 bdbd a021 9d3e
000001b0: 4e30 293e 373a 4c3f a874 00bf 5258 193e
000001c0: 2fd6 d7be 7705 39be 822b 21bf 7907 3b3f
000001d0: 78bc e03e b47e f63e 3a76 333c 951d 983e
000001e0: 9be4 d83d 1a98 a1be ad63 183f 2b78 dfbe
000001f0: 05eb f0be 5fa0 82be f2ac 063f 26ba 923e
00000200: 0c20 b73e 5e52 1fbe 004e 003f 810b f7be
00000210: 5432 c83d df05 dc3e 2d00 3ebe aba5 5fbf
00000220: dc68 26be 8d5b de3d fa04 5b3e b282 a2be
00000230: a4ab 07be e252 743d cd4b 7ebe 795c d2bd
00000240: b303 003e 5307 503c f88f fd3e e190 cd3e
00000250: 86b0 b63e fdab 51bf 9146 83be 564c 9dbd
00000260: b463 173e b166 df3d f200 973e 9e53 d7be
00000270: ce44 8bbe 0fb8 0f3f 356b 2a3f e61f a0be
00000280: 7204 363e c6a0 003e d24e 253e 85ac 813e
00000290: 7367 73bf af22 18bf 9995 453f cfb2 afbe
000002a0: 621d d8bd 2734 ba3e 6843 953e 3bab 83be
000002b0: e60c bfbe 7862 bebe 52a9 113e d910 28bf
000002c0: 08ea 37be e4b5 433f 6d9d 323c a608 383e
000002d0: e01c 013d 047c 223e 0fe5 eebd 51d4 00bf
000002e0: 39fa d5be 6975 573f d32e eebe ca22 c9be
000002f0: 0dc0 183f 930f 733e 4c36 46be 6722 723e
00000300: 3996 98be ac38 1e3e 3d3e 9cbe 2109 ee3e
00000310: 1f7c fabe ff49 103f 344c 44bf f2d1 b83e
0.12170592 0.048383396 -0.052425668 0.6154075 0.7831593 -0.87449175 -0.3496869 -0.4002273
-0.2554209 0.28560007 0.22428432 0.62338775 0.54642475 -0.303681 -0.43081298 -0.35315788
-0.8884305 -0.032892697 0.6481075 0.11064584 0.08813464 -0.3481013 0.14343056 -0.44668227
0.41463476 -0.022969062 0.32998154 0.06384287 0.38723114 -0.6985562 0.052374154 0.57431734
-0.24747138 0.5343719 -0.34686953 0.56202507 -0.07334126 -0.17062779 -0.13655083 0.19532461
0.25290298 -0.33370203 0.37262094 -0.33545536 0.5084518 -0.30920202 0.27873024 -0.2996637
0.22205976 -0.14447819 0.41137755 -0.65226066 -0.1569444 0.03640485 -0.045669474 -0.18531169
0.22580235 -0.61422247 0.8589561 0.040911876 -0.3748976 0.33641225 -0.8086721 0.3780325
0.08326779 0.21631905 -0.31135136 0.0042771883 -0.2300279 0.06161674 -0.17747778 0.58181643
-0.08919495 0.00046142604 -0.33464184 0.17445993 -0.49319392 0.1440953 -0.50119376 -0.22393759
0.3627187 -0.30861968 0.29295048 -0.11637836 0.48203704 -0.14072469 -0.4464365 -0.452216
0.62123686 -0.19658169 -0.29560882 0.17938624 -0.08788311 -0.13481537 -0.27045223 0.04282753
-0.30858865 -0.30575123 -0.69317675 0.28285134 -0.20367463 -0.4999566 -0.19403315 -0.5253922
-0.13842507 -0.6206747 -0.09234942 0.30689716 0.16522333 0.7977633 -0.50178003 0.14975098
-0.42155597 -0.18068491 -0.6295701 0.7305828 0.4389379 0.48143542 0.01095348 0.2971007
0.10590478 -0.31561357 0.59527093 -0.43646368 -0.47054306 -0.25512978 0.52607644 0.28657645
0.35766637 -0.15558764 0.5011902 -0.48250964 0.09775224 0.4297323 -0.18554755 -0.87362164
-0.16250938 0.10857306 0.21388617 -0.31740338 -0.1324907 0.059649356 -0.24833603 -0.10271544
0.12501411 0.012697059 0.49523902 0.40149596 0.35681552 -0.8190306 -0.25639775 -0.076805755
0.14784127 0.10908259 0.2949291 -0.42055982 -0.2720093 0.56140226 0.66569835 -0.31274337
0.17775133 0.1256133 0.16143349 0.25326934 -0.95079726 -0.5942792 0.7718139 -0.34316108
-0.10552479 0.36367914 0.2915299 -0.25716576 -0.37314528 -0.371845 0.14224747 -0.6565071
-0.1796037 0.7644942 0.010901791 0.17972049 0.031521678 0.1586762 -0.11664783 -0.5032397
-0.41792467 0.8416353 -0.465201 -0.39284354 0.59668046 0.2373641 -0.1935665 0.23645936
-0.2980211 0.15451306 -0.30516234 0.4649134 -0.48922822 0.5636291 -0.76678777 0.36097676

Mixer_Block.0.mlp_block_token_mixing.fc1.bias f4 [20]
00000000: 310e 423f 7b2d 283e b238 0e3f 87c3 cb3e
00000010: f533 c33e f7c6 6d3d 9382 273f 9b05 e23e
00000020: 6638 d13e a7f3 ea3e b5ea a83e 01a8 023f
00000030: ea5a be3e 11a6 b13d 573d 223e 2e58 e43d
00000040: 9fee 103e 0c19 833d 10e6 b53e 2493 303f
0.75802904 0.164236 0.5555526 0.39797613 0.38125578 0.058051076 0.65433615 0.44144902
0.4086334 0.45889017 0.32991567 0.51037604 0.37178737 0.08674253 0.15843712 0.111496314
0.14153527 0.06401262 0.35527086 0.6897452

Mixer_Block.0.mlp_block_token_mixing.fc2.weight f4 [10, 20]
00000000: 3dce 813d 26b1 d1be 105d 803e 9ebb adbe
00000010: 2e40 3c3f 3640 4fbc d3dd 08bf 4187 cdbe
00000020: 431c a83e a7d0 5c3e 72b6 083d d137 a9be
00000030: 0568 553e d247 2f3d 5a41 f9be d4f5 64be
00000040: 7a2e 9ebe cc36 95be 4eb1 a7be b791 1ebe
00000050: f233 6f3e ef1b f2be 42a3 8abe ab7a edbc
00000060: 9f87 83be 633d ea3d 611b 643e fc32 99be
00000070: a849 733c 4529 7bbc 8649 26bc 7882 5b3b
00000080: 93ed 85be 3062 cf3d 7331 73bd 8ae2 fe3d
00000090: c1d6 1cbe 1062 80be d3a3 4dbe 79b3 1f3d
000000a0: f4a2 5b3d 70c2 52bf 9ac1 833e df4f d1bd
000000b0: 69b4 943e 54c9 903e 0181 0a3f 92fb 20bf
000000c0: aa26 213b 582d fbbe 8048 8f3e e616 873e
000000d0: 04ba ddbe f1d7 ccbd dd6b 9c3e 9f4f 78bd
000000e0: b535 08bf 149c f53e 92b6 673d 1929 4bbe
000000f0: 7fec 7cbf ef51 70bc 5778 c03e f61c 9a3e
00000100: b0be 47be 5f33 e0be 0711 d73d 1d59 c33e
00000110: 2083 d1be 4af6 be3d e721 393d e177 553f
00000120: 6723 3fbd 8ff0 5ebf ce15 1b3e 26e8 adbe
00000130: e717 47bf df46 323e 82fb 1a3f 46d3 3b3f
00000140: 1f2e e8be 5ac5 4d3c 5c0b e33d 5831 833c
00000150: a45c aabc c839 c53e b9a0 12bf 1047 94be
00000160: ef78 b3be 5213 91be d80f 9c3e e2a6 293f
00000170: b99e 2c3f fb9f 1fbe f36d 663e 958a 913d
00000180: 1039 553f 57bb 5abe f99b 623e 2a27 b3be
00000190: 975f 193f 8a56 023e e695 4fbe e882 8ebe
000001a0: 258c 3c3e bafd 023f 8f34 fcbd 9342 c8be
000001b0: 7c6e bb3c dee6 c9be 018c 163f ecde 40be
000001c0: f0f1 8e3e 7932 523f b36d 893e cb19 243f
000001d0: 0e65 523f db1c 643f 8628 2bbf c593 1abe
000001e0: c566 923e 4163 073f c844 663d 70ed 213d
000001f0: 275a b53e da34 573c d198 913d 2a23 bd3d
00000200: 7458 2d3f 5836 0bbe 104a 0ebe 9e52 b4be
00000210: 8789 66be 838f ecbc 3c3d 17be 48f5 133f
00000220: 1fce 05bf 9745 34bd 61a3 503e d927 b3bd
00000230: b4f5 303e 5f3c 56bd c98b 04bf 5a6f 733f
00000240: bc54 043c 9d64 9d3e c20d 983e 5f0d cebd
00000250: 738f 483e c5e3 9b3d f581 38bf ab94 e8ba
00000260: 38b2 00bf 6027 c1be 2f33 d5be 8dd4 24bf
00000270: 9681 783e fd09 0cbf e571 e13e 4dc4 17be
00000280: c3d4 763e ece7 d5be 5a17 19be b47f 8c3e
00000290: 8624 9dbe 39b9 5cbf efb7 cf3e 440f fa3e
000002a0: a8a6 47bf 87bb a63e e0df 1cbf e240 353d
000002b0: 171c dabe 9474 0abf df56 97bd d947 f8be
000002c0: 127e 91be 9317 e0be dd7a 4abf b46b 113f
000002d0: 451e 9cbe 43ea 57be 9ba7 4d3f 1324 dbbb
000002e0: 9134 d13e 05fc c3bd ee19 05bd 8e38 813e
000002f0: b543 643e e263 c5be 556f 88bf 2e33 80be
00000300: ca25 643e 7800 a83e dcce 3f3f 7451 723e
00000310: 2fc7 12bf 88e5 d8be 1724 e5be 27c7 b4bd
0.06338165 -0.40955466 0.25071 -0.33932203 0.7353543 -0.012649586 -0.53463477 -0.40142253
0.32834062 0.2156397 0.03337712 -0.33050397 0.20840462 0.042793103 -0.48682672 -0.22359401
-0.30894834 -0.2914337 -0.3275246 -0.15485273 0.2335966 -0.47286937 -0.2707768 -0.028989157
-0.25689408 0.1143749 0.22276069 -0.2992171 0.014849104 -0.015329664 -0.010149365 0.0033494513
-0.26157817 0.1012615 -0.05937333 0.12445553 -0.15316297 -0.25074816 -0.20082025 0.038989518
0.0536222 -0.8232794 0.25733644 -0.10220312 0.29043892 0.282786 0.54103094 -0.62883866
0.0024589696 -0.49058032 0.27985 0.26384658 -0.4330598 -0.10002125 0.30551043 -0.060622808
-0.5320695 0.4797064 0.056570597 -0.19839896 -0.98798364 -0.014667972 0.37591812 0.3010022
-0.19506335 -0.43789193 0.105012946 0.38153926 -0.40920353 0.0932432 0.045198347 0.83386046
-0.04666462 -0.87085813 0.15145037 -0.33966178 -0.7777085 0.17409848 0.6054002 0.7336925
-0.45347688 0.012559259 0.11086151 0.01601474 -0.020796128 0.38520646 -0.57276493 -0.28960466
-0.35053203 -0.28335053 0.30480838 0.6627027 0.6742969 -0.15588371 0.2250288 0.071065105
0.83290195 -0.21360527 0.22129811 -0.34990817 0.59911484 0.12728325 -0.20272025 -0.2783425
0.18412836 0.51168406 -0.12314712 -0.39113292 0.022879831 -0.3943395 0.5880738 -0.18835038
0.2791896 0.82108265 0.26841506 0.64101857 0.8218545 0.8910653 -0.6685871 -0.15095432
0.28594032 0.52885824 0.05621794 0.03953308 0.35420343 0.013135159 0.071092255 0.09235223
0.67713094 -0.13594949 -0.1389544 -0.35219282 -0.225134 -0.028877025 -0.14769453 0.57796144
-0.5226764 -0.04401168 0.20374824 -0.08747835 0.17281228 -0.052303668 -0.51775795 0.95091784
0.008076843 0.30740824 0.29697996 -0.10061144 0.19585972 0.07611803 -0.720733 -0.0017744502
-0.5027194 -0.37725353 -0.41640612 -0.64386827 0.24268183 -0.5470274 0.44032207 -0.14820977
0.241046 -0.41778505 -0.14950314 0.2744118 -0.30691928 -0.8622013 0.40570018 0.48839772
-0.7798867 0.32564947 -0.61279106 0.04425133 -0.42599556 -0.54084134 -0.07389616 -0.48492315
-0.28416497 -0.43767986 -0.79093724 0.56804967 -0.30491844 -0.21085458 0.8033387 -0.00668765
0.40860417 -0.09569553 -0.03249543 0.2523846 0.22291453 -0.38552767 -1.0658976 -0.25039047
0.2228004 0.32812858 0.7492502 0.23663884 -0.5733518 -0.42362618 -0.44754097 -0.08827048

Mixer_Block.0.mlp_block_token_mixing.fc2.bias f4 [10]
00000000: 4efa 3c3f 288c 233f 059d 9c3e 7b44 e03d
00000010: da03 18bd f242 40bf 9f18 0abf cc0b 3c3e
00000020: 234d 333f 470c 8b3e
0.73819435 0.63885736 0.30588546 0.109505616 -0.037113048 -0.7510215 -0.5394382 0.18363875
0.70039576 0.27157804

Mixer_Block.0.mlp_block_token_mixing_DynaMixerOperation.fc_ND.weight f4 [1, 66]
00000000: e7db 0a3d a432 a0bc ea70 863d edb3 1f3c
00000010: a8a7 d83c 945d bdbc c274 c9bc 95c3 4f3d
00000020: 4309 9cbb 5e94 713c a01d 493d 3fb8 863d
00000030: 66d0 5bbc 5e52 8e3d fe3e 613d 8251 b53d
00000040: a665 8fbb d853 363c c071 a53c 3335 42bd
00000050: 4a9e 59bd 0a4f df3c 8366 8bbc 448f fcbc
00000060: 32e7 4c3c d336 383d afe1 cc3a e7fc 96bc
00000070: 47bf 513d 0103 32bd 6b32 fa3c 94f9 4b3d
00000080: 5da0 e33b e424 693a 759f c53c f3b9 143d
00000090: aa63 2dbd d712 9f3d de6e f23c 61f0 123d
000000a0: 979e 373d ccc9 ccbc 1227 9dbc d3b3 8abd
000000b0: 3d32 11bd 4a6b 89bc 4aed 983c 3ef2 443d
000000c0: d8e1 d53b 7cc7 8ebc e356 293c a6d5 8ebd
000000d0: 2f5c 4e3c 65bc 48bd eda3 adbc 3bcf 193d
000000e0: 2f8a 733c de5a 433c 8a42 3dbc c0f0 203d
000000f0: 3bb2 bcbc 0e29 f93c 0f88 173d c724 0a3d
00000100: 88ea d4bb d1d8 653d
0.03390112 -0.019555397 0.065645054 0.0097474875 0.026447132 -0.02311591 -0.024591807 0.05072363
-0.0047618463 0.014744846 0.04910052 0.06578111 -0.013416385 0.06949304 0.054991715 0.08853437
-0.004376131 0.011128388 0.020195842 -0.047414016 -0.05312947 0.027259368 -0.017016655 -0.030830033
0.012506293 0.04497416 0.0015631224 -0.01843114 0.051207807 -0.043459896 0.03054162 0.049798563
0.006946607 0.0008893742 0.024123887 0.036310147 -0.042331375 0.07767265 0.029593881 0.035873774
0.044828977 -0.024998568 -0.01918367 -0.0677258 -0.0354483 -0.016774792 0.018667836 0.048082583
0.006527167 -0.017429106 0.010335657 -0.06974344 0.0125952205 -0.049007792 -0.02119633 0.037551146
0.0148644885 0.01192352 -0.011551509 0.039292097 -0.023034206 0.030415084 0.03699499 0.03372648
-0.006497685 0.056114975

Mixer_Block.0.mlp_block_token_mixing_DynaMixerOperation.fc_Nd.weight f4 [100, 10]
00000000: 6d1f b63e f9b5 4dbf cf9d e7be 07f0 04bf
00000010: afb3 11bd 0110 60bf 3e9b 1abe 964a 0abf
00000020: 4ac5 34be dbd4 17bf f5f8 69bd 82df 043f
00000030: 6500 cc3d f2f1 ff3c 6e3c 383d e6a2 a63d
00000040: 2ac9 de3d d70d 82bc f4d2 8f3c 6728 f83c
00000050: 0526 5dbd b20d 98be 9c9f 88bc 6ff3 97bc
00000060: 3842 d1bd 234f a4bd 4f6d 413d 6a42 4fbd
00000070: aba8 e23c fb75 093e 5149 743d 28b5 d13d
00000080: 5907 ff3d 5b82 463e 1f59 183d df12 bb3d
00000090: e4c9 e73d 3e27 b13c e1de b5bc c980 093e
000000a0: f544 063d 313e 01be 40e7 9f3d 021b a1bc
000000b0: 88ab 0a3e 2890 1dbd 4234 b7bc b7cf 86bd
000000c0: e5f7 53bd 9905 313e 6142 f43d 033a 86bd
000000d0: 76eb 823e b292 163e cf9d 023e 4f92 ef3e
000000e0: 9412 ba3d 7c13 bebb 88ae 223c 3069 aebd
000000f0: fdce 26bd 4105 11be fee2 1d3e d3cb 6abd
00000100: 54e4 b1bd 4c97 de3d 3306 bd3e e1fe 5b3d
00000110: 2fe3 9a3c 9461 ca3d 9bd2 56bc c6be 62be
00000120: 6fa3 883e da2a 033e a104 163e fe8d 653e
00000130: c645 06be 88f4 ec3d a8cc dcbd 2226 f8bc
00000140: b9cc 0cbe 339b 13bf 1fc4 bdbd 90d1 91be
00000150: 5664 aabd b10f 9abd 016b 063e 4b22 ccbd
00000160: c08c 123e 9724 973d f8fd 9fbe 3be5 18bf
00000170: d14e 2a3d 3101 c1be 050f e6bd 2d8f 97be
00000180: 91c1 abbd caa7 3abe 7257 5f3d 620f 8d3e
00000190: 02b5 e93e 8181 8dbe e49a 2cbe 4195 e8bd
000001a0: 3e42 dabe 0f7f 91be 488c 90be 75e3 02be
000001b0: 1124 6ebe a3b1 dd3d a0ac 62be f2bc 7abe
000001c0: 365c a9bf 01f6 dfbe 6ef3 2ebf 7814 f9be
000001d0: 3d0f a4bd 241a aabe 28a1 cfbe 6ad7 33be
000001e0: 0499 8d3e b9bd 3c3e ecb1 b33d 4edc 6bbe
000001f0: be52 2abe 31e5 acbd d38c 33be 5f71 1f3e
00000200: f22a 78bd b0aa 453e 6cac 213d 2626 d3ba
00000210: d2dd 1cbe 5474 a4bc d544 e13c 3f93 1f3d
00000220: 42c3 5d3e 8873 023e d8fe ad3c f0ea 2a3e
00000230: c396 b43d 41a3 bf3e 4f2b 773e 230c 20bc
00000240: 00cc 503e 4c99 3cbe 8323 3dbe 60a8 c4bd
00000250: 7654 09be b9c8 553e babc 953d dd55 9bbd
00000260: 6a27 563d e2a3 b33c 38d4 f73d d1f8 883e
00000270: 9f1a a93e 613b 313e 1b28 093e e252 c9bd
00000280: 9a6d a43b 26e4 9b3e 690e 733e 3e71 123e
00000290: 7bbb 3a3e ab2d 0e3d 9110 353d c783 93bd
000002a0: bc9f afbc 4076 e9bd c9c6 05be eafd cdbe
000002b0: ff89 b7be d27f aabe fde4 2fbe 757b 45be
000002c0: 0b02 353e bdc4 283e f7a7 9b3e bac4 4d3e
000002d0: 09fa 183e be8e 553e d6b9 963d 0766 113e
000002e0: d237 bb3e fc2d 3bbe 79de 903e 124c 523d
000002f0: 84e3 64bb 8263 e5bd 8b78 233d aea5 1ebe
00000300: 0989 783e 33e4 d3be 4be1 10bf 91c0 e8be
00000310: 0c92 c9bd a1dc dcbd d4de 59be 649a 4ebe
00000320: 2cca 94be 0401 393e 0c1a 96bb e118 fc3d
00000330: d570 333e 10ec 233e ef60 703e 63f0 873e
00000340: 53ef ab3d 4f65 0b3e 925e 863e 0cee afbe
00000350: b7c4 29be ce28 84bd 172e 9abe d614 2ebe
00000360: 8593 e2bd 7f68 58be 6cce a8be 4f4d abbe
00000370: dec8 a0be 8453 dfbe d09f 43bf acf3 97be
00000380: b9b2 38bd 1e22 45be 81c6 8dbe 6107 83be
00000390: f512 7abe 0a43 92be 74e9 e5bd bdd9 a6bd
000003a0: 8269 4c3e fcc0 7bbd e3fe 903e f339 91be
000003b0: db90 573e c668 84be 3745 18be b8ea 49bd
000003c0: fb22 d1bd 91ec 32bd 2fe2 9ebe bc6a 863d
000003d0: 7a81 62bd 0b2e e0bd 060a 343e b87b ca3c
000003e0: 8c5b 99bd c4a8 0b3e e50a 86bd 9833 ec3a
000003f0: 5285 bd3e 5d1c 863e 35aa 9d3e 1d6b 66bd
0.3557085 -0.80355793 -0.45237586 -0.5192875 -0.03557175 -0.8752442 -0.15098283 -0.5402006
-0.17653385 -0.59309167 -0.05712219 0.51903546 0.09961013 0.031243298 0.044979505 0.08136539
0.10878213 -0.01587574 0.017556645 0.030292703 -0.053991336 -0.2969795 -0.01667767 -0.018548695
-0.10217708 -0.08022907 0.047223385 -0.050600447 0.027668318 0.13423912 0.059640232 0.10239631
0.12452573 0.19385664 0.037194367 0.09134459 0.113178045 0.021625157 -0.022201004 0.13428034
0.032780606 -0.1262138 0.07807779 -0.019666199 0.13541996 -0.038467556 -0.022363786 -0.06582587
-0.051750083 0.17287292 0.11926723 -0.065540336 0.25570267 0.14704397 0.12755512 0.46791312
0.09085575 -0.0058006626 0.009929307 -0.08516157 -0.040724743 -0.1416216 0.15418622 -0.05732329
-0.08686128 0.10868701 0.36918792 0.05370987 0.018907158 0.09881893 -0.013111736 -0.22143087
0.2668719 0.12809315 0.14650203 0.22417447 -0.13112554 0.11570078 -0.107812226 -0.03029162
-0.1374997 -0.5765869 -0.09265923 -0.28480196 -0.08319919 -0.07522524 0.13126756 -0.09967478
0.14311504 0.07380026 -0.3124845 -0.5972478 0.04157907 -0.3769622 -0.112333335 -0.29601422
-0.08386529 -0.18228069 0.054526754 0.275508 0.4564591 -0.27637866 -0.16855961 -0.11356593
-0.42628664 -0.2841725 -0.28232026 -0.1278208 -0.23255946 0.10824897 -0.22136164 -0.2448614
-1.3231266 -0.43742374 -0.68340194 -0.4864843 -0.08010719 -0.3322307 -0.4055264 -0.17562643
0.27655804 0.18431748 0.0877417 -0.23033258 -0.16633126 -0.08442152 -0.17534189 0.15570591
-0.06058783 0.19303393 0.039471075 -0.0016109392 -0.15318993 -0.020075 0.027498642 0.038958784
0.21656516 0.12739384 0.021239683 0.16691184 0.08817818 0.3742924 0.24137615 -0.009768519
0.2039032 -0.18417853 -0.18470578 -0.096024275 -0.13411126 0.20877351 0.07311387 -0.075847365
0.052283682 0.021928731 0.121010244 0.26752332 0.33028123 0.17307808 0.13394205 -0.09830262
0.0050179483 0.304475 0.23735966 0.14301011 0.1823558 0.03471152 0.044205252 -0.07202869
-0.021438472 -0.113995075 -0.13064112 -0.40232784 -0.3584747 -0.33300644 -0.17177196 -0.19285376
0.1767656 0.164813 0.30401585 0.20094576 0.14939131 0.20855233 0.07359664 0.14199077
0.36566025 -0.1827926 0.28294733 0.051342078 -0.003492565 -0.1120062 0.03990988 -0.1549289
0.24271025 -0.4138504 -0.5659377 -0.45459417 -0.09842309 -0.10784269 -0.21276408 -0.20176083
-0.29060495 0.18066794 -0.0045807417 0.12309433 0.17523511 0.1600802 0.23474477 0.26550588
0.08395257 0.13612865 0.26244026 -0.34361303 -0.16578947 -0.064530954 -0.3011329 -0.17000136
-0.11063293 -0.21133612 -0.32969987 -0.3345742 -0.3140325 -0.43618405 -0.7641573 -0.29678094
-0.04509232 -0.19251296 -0.2769051 -0.25591567 -0.24421294 -0.28566772 -0.11226168 -0.08146999
0.19962123 -0.06146334 0.28319463 -0.28364524 0.21051352 -0.25861186 -0.14870153 -0.04929611
-0.1021175 -0.04368264 -0.3103194 0.06563327 -0.05529926 -0.10946282 0.17581949 0.024717197
-0.07488164 0.13638598 -0.06545047 0.0018020747 0.37015778 0.26193514 0.3079392 -0.056254495

Mixer_Block.0.mlp_block_token_mixing_DynaMixerOperation.fc_Nd.bias f4 [100]
00000000: 8265 d9be f36d 64be d707 2b3f ac26 1abe
00000010: 6c4a d83e 5ac4 51be 9aca a03c 5637 33be
00000020: f675 5f3e dd3d 413e 8c62 3e3c 9e2d 36bf
00000030: a769 97be 0bb0 493e 064c eb3d d7cd f4bc
00000040: 058e 683e 7dd0 97bd ff1c 4a3e 04e5 d43e
00000050: b61b d33e 700d 35be 1353 bcbd 8bec f53d
00000060: b42d e33c 25c4 843e 688c 443d a760 e53e
00000070: 3b36 dcbb 2028 1fbe 7aa9 4dbe ebea 9c3e
00000080: 2923 f3be 9331 1a3e 54b7 d0be 6b36 c53e
00000090: 3d73 9c3d b9a2 c03d 574d 673e e42c debd
000000a0: c50c c73e 659b af3e af0e cbbd 156b b6be
000000b0: 696b 62be 9edc 983d f2e7 533e 8f19 643e
000000c0: 2a63 513e e97b a43c 937d 903e 1faf 1ebe
000000d0: ea58 59bb 87eb 773d a7c4 17be 032d 08bf
000000e0: 9685 acbc c682 93bd b735 11be e533 d5bd
000000f0: a559 c33d b5a3 e5bd ec6d 4f3e 1deb a2be
00000100: 6215 633e 70e9 63bd 005e 0fbe 0adb 803e
00000110: 92b5 973e dddc cdb9 b271 853c 49dd cc3e
00000120: a6a6 a0be dd54 e13e 3ab1 f5be e554 ae3e
00000130: 06ba bbbe e114 0fbe dfb9 8fbd 981d c53e
00000140: fd88 ebbe 2aad 8d3e a2c4 98be 8c4e 11be
00000150: 7331 bd3d ee72 f9bd f14e ba3d 06b5 7bbe
00000160: b6c2 93be 277e 83bc 4b69 c3be 3540 3cbd
00000170: 2121 d83d afd9 cdbd 6eb2 0b3e 88b8 d63c
00000180: 2a85 913e 23e9 333d d037 013e 7c82 3abc
-0.42460257 -0.22307567 0.6680884 -0.15053815 0.4224428 -0.20485058 0.019627858 -0.17501578
0.21822342 0.18871255 0.011620175 -0.71163356 -0.29572794 0.19696061 0.1148911 -0.029883308
0.22710426 -0.07412813 0.19737624 0.41580975 0.4123208 -0.17680907 -0.09195533 0.120080076
0.027731754 0.25930896 0.047985464 0.44800302 -0.006720332 -0.1554265 -0.20084181 0.30647978
-0.47487763 0.15057974 -0.40764868 0.3851808 0.076391675 0.09406037 0.22588097 -0.10848406
0.3887693 0.34298244 -0.0991491 -0.35628572 -0.22111286 0.074639544 0.20693949 0.22275375
0.20447984 0.020078616 0.28220806 -0.15496491 -0.003316457 0.06052735 -0.1482111 -0.5319368
-0.021059792 -0.072026774 -0.14180647 -0.10410289 0.09538583 -0.11212865 0.20256776 -0.31820002
0.22176126 -0.055642545 -0.14000702 0.25167114 0.29630715 -0.00039265203 0.016289566 0.40012577
-0.31377143 0.44010058 -0.47986776 0.34049144 -0.36665362 -0.13972808 -0.07017874 0.3849914
-0.4600295 0.27671176 -0.2983752 -0.1419012 0.09237947 -0.12180124 0.09097088 -0.24580774
-0.2885949 -0.016051365 -0.3816627 -0.04595967 0.10553194 -0.100512855 0.13642284 0.026211038
0.2842191 0.04392351 0.12618947 -0.011383649

Mixer_Block.0.mlp_block_token_mixing_DynaMixerOperation.fc_out.weight f4 [66, 66]
00000000: 56c4 103f bd2d c8bc 8d10 723d 9bf3 38be
00000010: 261d b6bd d7f7 623c 8c49 bc3d b938 9d3e
00000020: 4cd6 eabe b175 ad3c d8fa 323d 9f2b 823e
00000030: 9e19 1ebe dddc 263e 4b96 8a3d 1cf1 f6bc
00000040: f3a2 4cbd 9273 9b3c 12a6 1e3c 749a b0bd
00000050: 22ea dd3d 0717 03bd 702e c03b 2575 d13d
00000060: 6e75 e6bb aa4a 0c3e 8484 eebc ac16 d13c
00000070: 2a30 b03c 109b 293e 5e86 01be 0a47 363d
00000080: 3bea 84be c876 c13c eebc 6a3e fbb8 8b3b
00000090: e420 863b 3910 003e 4985 90bd 3686 2fbe
000000a0: 717a 87bc 7421 ff3d b899 74bd b308 09be
000000b0: 54d4 43bd 0463 363e b9b2 43be 545f fe3c
000000c0: 7702 e5bc 1688 933d 1823 b4be db60 6e3d
000000d0: 6da3 34be 09eb 963d 2eae c8bd 9c52 343c
000000e0: e70c 163e 4cf0 5b3b 505f 3bbc f534 b9bc
000000f0: 2298 08be 7707 6bbd bafa 3dbe 7632 f6bd
00000100: 80e0 a5bd c66a 553e 38d3 803e fab8 1f3f
00000110: 3892 07bf 812c 4c3c d2c2 41be 18da 023e
00000120: f4a3 17be f922 67bd 6e91 163a 11bb 28be
00000130: 447b 3e3d 3705 4f3e 2588 dfbd 8955 ffba
00000140: acd6 893d ecb1 dc3d b4b5 3b3e 2bee 083e
00000150: 6339 03be 3c79 1f3d 0d8e 313d 0f88 e23d
00000160: c705 773d 762a 73be cc9a 14be 60b2 bbbc
00000170: 0834 16be c859 15be ffee 273e f4dd eaba
00000180: 6f28 d6bd 79e5 82bd a78c 5b3e 7cee b2bd
00000190: b395 d3bd cb8f 52bd 0be8 383e 673d ad3e
000001a0: 092b 2bbd b7d9 1c3e 0924 643e e9fa 523e
000001b0: e0cf 26bd 4c54 ddbe 164f 3f3e 9cb3 b6bc
000001c0: 36e5 46be 0cb7 0c3e e72a 4ebd bb64 5ebd
000001d0: e688 a2be 77ac cdbd 8dee 69bd 905a 633d
000001e0: 4a78 a5bd 3850 933e d01b f03d 7e78 46be
000001f0: 0dca 003e 2fe8 66bb bde9 973c f6d8 613e
00000200: 19b8 aebe 5408 623e 1305 063f 9e60 68be
00000210: a762 9fbd 5a65 8fbe af16 ef3e bd49 a0bc
00000220: 0e1d 683e 9c86 8cbe e0be 143d a484 b23d
00000230: e44b 9ebd 5787 97be 6cd3 46bd b362 ac3c
00000240: f634 963c e442 003b d1be 10be c1d1 9d3e
00000250: c35c b13d 25f7 173e 747e 363e edcd 57bd
00000260: 57d2 8ebe d2d2 7b3e c38a 38bd 5258 f73d
00000270: c6d2 88bc b8c3 fcbc 6ecc f73d 3375 8c3e
00000280: c098 aa3e 6b53 2a3e 08f7 18bd 3163 42be
00000290: 6db6 19be 584e 7a3e b5fe 0ebe 274e 733d
000002a0: 63bf 9f3e be65 b3be 5509 9e3e 6d15 e73c
000002b0: ba9d 64bd ce24 50bb 7e7f 4c3c d2d4 16be
000002c0: 3ebc 76bc 2edf a4be 307a 49be 0e7a ff3d
000002d0: 3a63 91be 58c7 5bbe 5f55 133e 5607 ddbd
000002e0: d884 753e d057 0bbe a41a ad3b ab69 8bbd
000002f0: e4a2 dabd 7c37 1e3e ddac e1bd e0fb 36bc
00000300: e51a 833e 7917 d7be e762 863e 3465 343e
00000310: 0ada 98be 0c45 1f3e 754a 8ebe 788b e63d
00000320: 1424 b2bd 6dd8 213f e83d c5bd c01d 96bd
00000330: 703c 83bd 9986 c03d 12f6 933e e137 543e
00000340: bcb3 ba3e 2b7a 07bd e787 cdbd adcd f43c
00000350: 72e9 f23c ea22 03bf bc3f d13d b2b9 983d
00000360: bbc8 433e 9685 323e 3d86 2b3c 0b35 4f3d
00000370: d58b 133e ec60 2f3e e8a1 83bc cf1e 1dbe
00000380: 90c7 dfbd 5c3f cebd 194e a7be c705 14be
00000390: dfe8 e6bd b07b 90bd b306 0d3d 0343 81bb
000003a0: f68d a83d 6e63 763d dd70 973d 50bb e1bd
000003b0: ac1e ca3d 6db5 8b3d cccc 653e 16c7 45bd
000003c0: 023b d7bd 3025 cc3d 81c9 65bc 534d aa3c
000003d0: 27d5 c73d 6459 54be 6c20 f23e 12a7 0d3e
000003e0: e726 a63d 449c 013d bb90 2bbe dc0c c9bd
000003f0: a1f6 ec3d fd93 f7bc 147b ce3d fbc4 b3be
0.56549585 -0.024435872 0.059097815 -0.18061678 -0.088922784 0.013853035 0.091937155 0.30707338
-0.4586662 0.021174284 0.043696254 0.25423905 -0.1543946 0.1629519 0.06766947 -0.030144267
-0.049960088 0.018976007 0.009683149 -0.086232096 0.10835673 -0.032004382 0.005864911 0.10227422
-0.0070330417 0.13700357 -0.029115923 0.025523506 0.021507341 0.16563058 -0.12648913 0.044501342
-0.25959954 0.02361621 0.22923633 0.0042639947 0.0040932763 0.12506188 -0.07056672 -0.17141041
-0.016537877 0.124575526 -0.05971691 -0.13382225 -0.047809914 0.17811209 -0.19111146 0.031051315
-0.027955277 0.07203691 -0.35183024 0.058197837 -0.17640467 0.07369048 -0.09798847 0.011006024
0.1465336 0.0033559976 -0.0114362985 -0.02260826 -0.13339284 -0.057380166 -0.18552676 -0.120213434
-0.080994606 0.20841512 0.25161147 0.62391627 -0.5295749 0.012461782 -0.18921974 0.12778509
-0.14808637 -0.056429837 0.00057437166 -0.1647761 0.046504274 0.20216833 -0.109146394 -0.0019480448
0.067303985 0.107761234 0.18331033 0.13372104 -0.1281486 0.038933977 0.04334836 0.11061107
0.060308244 -0.23746666 -0.14512175 -0.022912204 -0.14668286 -0.1458503 0.16399764 -0.001791893
-0.10456931 -0.06391425 0.21440373 -0.087368935 -0.10331287 -0.051406663 0.18057267 0.3383591
-0.04178909 0.15317427 0.22279371 0.20603527 -0.04072559 -0.43228376 0.18682513 -0.022302441
-0.19423375 0.13741702 -0.050333884 -0.054295283 -0.3174507 -0.10042661 -0.057112265 0.05550629
-0.08079584 0.2877214 0.11724055 -0.19381902 0.12577076 -0.0035233607 0.018544072 0.2205542
-0.3412483 0.2207349 0.5235149 -0.22693107 -0.07782488 -0.28007013 0.46696994 -0.019566411
0.22667333 -0.2744645 0.036314845 0.087167054 -0.07729319 -0.29595444 -0.04854147 0.021043157
0.0183358 0.001957112 -0.1413529 0.30824092 0.08660271 0.14840372 0.17821676 -0.05268662
-0.27894852 0.2459214 -0.04505421 0.12077393 -0.016702067 -0.030855045 0.12099539 0.27433166
0.33319664 0.16633384 -0.037344962 -0.18983151 -0.15010996 0.24443948 -0.1396435 0.059400704
0.31200704 -0.3503856 0.30866495 0.028208459 -0.055814482 -0.0031760219 0.012481568 -0.14729622
-0.015059529 -0.32201523 -0.19675517 0.12474452 -0.28396016 -0.21462762 0.14388035 -0.10792415
0.23976457 -0.13607717 0.005282717 -0.06807264 -0.106756 0.15450853 -0.11019299 -0.01116845
0.25606456 -0.42010096 0.26247332 0.17616731 -0.2985385 0.15553683 -0.2779118 0.1125707
-0.086982876 0.63220865 -0.09630948 -0.07329893 -0.06408012 0.094006725 0.28898674 0.20724441
0.3646525 -0.033075493 -0.10035687 0.02988323 0.029652331 -0.5122515 0.102172345 0.074572936
0.19119541 0.17433771 0.010469017 0.050587695 0.1440881 0.17126817 -0.016068414 -0.15343784
-0.109267354 -0.100706786 -0.3267677 -0.14455329 -0.112748854 -0.070548415 0.034430217 -0.003944756
0.08230202 0.060153417 0.07394574 -0.11022055 0.098691314 0.068217136 0.22441405 -0.048285566
-0.10509302 0.099680305 -0.014025093 0.020788824 0.097574525 -0.20737225 0.4729036 0.13833264
0.08112889 0.031643167 -0.16754429 -0.09816906 0.11570478 -0.030221933 0.10082069 -0.35111222

Mixer_Block.0.mlp_block_token_mixing_DynaMixerOperation.fc_out.bias f4 [66]
00000000: ea12 0c3f 813b 87be 3517 243f f92f a2be
00000010: b23a b03e f2f4 41bf 284f 13bf 2d46 7c3e
00000020: 116e 37be d011 653e f361 f53e e8e3 153f
00000030: b45e 8cbe 49ec 363f 7b93 873e 5acc ed3d
00000040: d866 1fbf cff4 e33d cbb8 0abf f6dd 0dbd
00000050: 34d2 053f e5d7 de3d 4c3b a4be ee58 abbe
00000060: e8a5 8abd 30b2 94bd 8d65 88bc 23bd 03bf
00000070: 997d 393e db64 05bf 469f 413f 5e97 b63d
00000080: 89cb a7be b37f e4be d0b1 d63e 1dd0 8a3e
00000090: f9ee 15bf c620 083f b4f5 433d e0ee b63e
000000a0: bbd6 b83d 8c52 8fbf 63d2 26bf a031 2ebf
000000b0: 0f3f 1e3e 0a95 eabe 6bfc 0bbf c7c7 1e3f
000000c0: 7bef efbc 6352 ae3e 0deb f33e 13b7 10bf
000000d0: fb3d 1bbf c2bd 5b3e 73aa c43c 4dd0 f3bd
000000e0: 657c 0abf e994 8abe dd9d 7ebe d318 ce3e
000000f0: 7c34 ca3b 7dd9 a93d 1418 f73c fd84 133f
00000100: 2390 173e f8c1 9cbe
0.5471636 -0.26412585 0.6409791 -0.31677225 0.3441978 -0.7576438 -0.5754266 0.24636145
-0.17913081 0.22370076 0.47926292 0.5855088 -0.27416003 0.7145429 0.26479706 0.116112426
-0.622663 0.11130678 -0.5418822 -0.034635507 0.5227387 0.10881022 -0.3207649 -0.33466285
-0.06769925 -0.07260549 -0.016649986 -0.51460475 0.18114318 -0.5210702 0.75633657 0.0891559
-0.32772473 -0.44628677 0.41932535 0.27111903 -0.5856777 0.5317501 0.047841743 0.35729122
0.090253316 -1.1197066 -0.65164775 -0.6804447 0.15453742 -0.45816833 -0.54682034 0.62023586
-0.029288998 0.3404723 0.47640267 -0.5652935 -0.6064145 0.21459106 0.024007058 -0.119049646
-0.5409606 -0.27066734 -0.24864908 0.40253314 0.0061708074 0.08293436 0.030162849 0.576248
0.14801078 -0.30616736

Mixer_Block.0.mlp_block_token_mixing_DynaMixerOperation.LN.weight f4 [10]
00000000: 947a ca3f 2eb5 dc3f f74c b23f cfd1 8b3f
00000010: ed41 8e3f 1a93 853f 9155 533f 65e5 723f
00000020: 250b e03e f6f6 503e
1.5818658 1.7242792 1.3929738 1.0923404 1.1113869 1.0435517 0.8255244 0.9488128
0.43758503 0.20406708

Mixer_Block.0.mlp_block_token_mixing_DynaMixerOperation.LN.bias f4 [10]
00000000: a3b6 29bf bd1d 13be 5a15 003f f015 423e
00000010: c830 993e ccd3 bebd c376 033e f661 c93d
00000020: 677f be3d 8919 0e3e
-0.66294307 -0.14366813 0.5003258 0.18953681 0.2992003 -0.09317741 0.12838273 0.09833138
0.09301644 0.13876928

Mixer_Block.0.mlp_block_channel_mixing_DynaMixerOperation.fc_ND.weight f4 [1, 10]
00000000: 2cde 853e cfe9 90be 80a6 693e 51bd 20be
00000010: 241f 9abe 397b 6d3d bd7c 8d3e ee19 d13c
00000020: 831d 18be 7e9f 1abb
0.26146066 -0.28303382 0.22817421 -0.15697218 -0.30101883 0.057978842 0.2763423 0.02552506
-0.14855008 -0.00235936

Mixer_Block.0.mlp_block_channel_mixing_DynaMixerOperation.fc_Nd.weight f4 [484, 22]
00000000: 30b1 eabd 2b8f 7c3d bbab 1b3e 1956 463d
00000010: f76b 59bd 90b2 95bc 1619 3cbc 5127 2ebe
00000020: 2f1d 0dbe 3a09 15bd 89cf 223e 4bed 743d
00000030: 84f8 0f3e ea67 b4bc 0586 a83b e8f6 edbd
00000040: 5660 213e aa92 dc3d 4717 513e 6b38 f43d
00000050: 4246 0c3e deb8 1e3e 1e33 3bbe 729f 723c
00000060: ecdb a23d 1cd1 593e e768 17be 43f2 3dbe
00000070: 87e2 10bb d470 01be 654d b03d d1c2 d63c
00000080: a35c 743d 5887 ae3d 5fd8 ae3c fa50 433d
00000090: 3601 3ebe e50d 093e b527 4ebd 2e24 44bd
000000a0: d263 113e a029 2abe 4313 283e 86c5 4bbb
000000b0: 7ff0 2d3e 8f73 3b3e 52b6 2f3e 7705 04be
000000c0: 14e0 0bbe 6f19 19be 549a 9bbd d081 163e
000000d0: 5e5a 46be 81b6 3cbe accc 01be e15c 8ebd
000000e0: 5538 0b3e ac2d 833a dd1f a03d 48d5 e6bd
000000f0: 15f1 413e 1487 903d e593 353e f68a 52be
00000100: 7f1f fe3d 68d0 34be 1f4f 4c3e a0b3 1b3e
00000110: 81da 12be e1a4 debd a283 053e c458 dd3d
00000120: 83b3 05bd 9ce3 e83c 7c46 a93d e480 29be
00000130: 5399 a43d 73f4 30be 91f9 533e d2f0 dfbc
00000140: a27d 14be 1b98 3fbb ce24 0f3d 64f8 1cbc
00000150: 2381 fbbd 365c 4dbe c8e1 8fbd f87a fbbd
00000160: c723 0cbe 824e bcbd 59a3 3a3c 9372 2ebe
00000170: f3be 753d 63f5 043c c5ac bcbd b08c 3cbe
00000180: 710f 613d 527e 0b3e ef35 413e 7e70 b4bd
00000190: 8900 76bd 3107 a7bd e718 4e3e 2ec9 2cba
000001a0: bfa2 b93d 7f09 96bc 6d86 453e 1548 db3d
000001b0: a87b 2dbe 8c94 8b3d 02a6 b5bc e15d 3bbe
000001c0: 4f97 083e 76bf 933c d3fb 7d3d b01b 72bd
000001d0: 2277 253e b0f6 f53d 5ced 063e ad6c 07bd
000001e0: 79c8 57be af36 1abe eebb 25be 7acc 0fbe
000001f0: 7c35 ac3d 6e21 e0bc 24c4 cf3c 2002 b5bd
00000200: c920 93bc 2081 573e 1ad0 19be 3dd1 b93d
00000210: 49f3 06bd cc8e 93bc 4f89 d9bd c931 53bc
00000220: 2e55 4fbe 8092 36bd 8815 25be c87f 2ebe
00000230: 08b2 0fbe 3e98 073e a8e6 ad3d 13f5 533d
00000240: fbf9 9036 3a8d 183d 3059 a33d c0ca f2bd
00000250: 4b19 313d 72b4 09be b2b2 3ebe 7f49 4a3c
00000260: c682 3a3e 89a7 e33c 42fe a33c 0614 193d
00000270: 5e0c 8eba 709e a2bd 143d 343e e450 a73d
00000280: 7c91 763c 0690 053e b72f 8abd 35ce 523e
00000290: fb60 f4bd 5822 243c de37 443e e827 f0bd
000002a0: f3c8 de3d 3ff1 4c3e 15bd 51bd 50fa b03d
000002b0: b7c7 2cbe 72bc 56be 25f9 80bd e7c4 1bbd
000002c0: 207b 493e cc78 513e d99b 88bc 31b1 85bd
000002d0: 16d8 943a 957a fd3d cf5e af3d 2c65 ccbd
000002e0: 78bd 1ebd 5e51 223e ae0a 1c3e 179f 43be
000002f0: 72db 21be bda9 06be 5a2d 83bd 52fd 183d
00000300: f9d2 9a3d 3635 d6bd bb20 80bd 47e4 c83a
00000310: 4187 a13d 5d71 4a3d 548f d63a 5bb7 913c
00000320: 40bd da3d 4b24 ed3d 1bef 8e3d c320 3cbe
00000330: 886a bd3d d9c5 0a3d f2f8 133d c8e1 0cbd
00000340: dd55 113e 84cf 67bd 2820 3cbe c623 3a3e
00000350: a64c 80bd 08c2 373e ed32 ab3d a011 60bd
00000360: d47a 2c3e 3d1b 41be d2b6 8e3d 86f9 383e
00000370: 8dd3 b03d b3b9 4b3e 6fdf 0d3e 0d05 c2bd
00000380: 05ad edbd c65d eb3c 6537 4dbe 6f2d ec3c
00000390: cc85 04be 1eff 21be 8236 433e 8eb9 0fbe
000003a0: d15b 37bd adfd 043d 0adc 23bd b9ba d1bd
000003b0: 348e 4d3e be83 0a3e 8da0 f03d a194 c43d
000003c0: 8a18 17be 1859 07be 6b5b db3d aaa7 423e
000003d0: 4707 75bc 2e20 0bbe 54aa 31be b8d6 08be
000003e0: 748c a6bd c9b5 10bd 428d 413e 4072 21be
000003f0: 6b04 05ba 517b 7ebb 6231 0ebd a193 d13d
-0.11459577 0.061659973 0.15202229 0.048421953 -0.05308148 -0.018273622 -0.01148059 -0.17007186
-0.13780664 -0.036385752 0.15899481 0.059796613 0.14059645 -0.022022206 0.0051429295 -0.11619359
0.15759405 0.107701614 0.20419036 0.119248234 0.13698676 0.15500209 -0.18281218 0.014808523
0.07952103 0.21271175 -0.14786111 -0.18549447 -0.0022107677 -0.12640697 0.08608512 0.026215943
0.059658658 0.085219085 0.021343408 0.047684647 -0.1855515 0.13384207 -0.050330836 -0.047886066
0.14198235 -0.16617441 0.16413598 -0.0031093075 0.16986273 0.18305801 0.17159393 -0.1289271
-0.13659698 -0.14951108 -0.07597795 0.14697957 -0.1937041 -0.18428995 -0.12675732 -0.06951309
0.13595708 0.0010008118 0.078185774 -0.11271149 0.18939622 0.07057014 0.17732199 -0.20560822
0.12408351 -0.17657626 0.19952057 0.1520524 -0.14341165 -0.10871292 0.13038495 0.10807946
-0.0326419 0.028428845 0.08265397 -0.16553074 0.08037057 -0.1728075 0.20700671 -0.027336512
-0.1450105 -0.002923495 0.03494721 -0.009580705 -0.1228049 -0.20054707 -0.07025486 -0.12279314
-0.13685523 -0.09194662 0.011391484 -0.17035894 0.059996556 0.008115145 -0.09212641 -0.18413043
0.054946367 0.13622406 0.1886823 -0.08810519 -0.060059104 -0.081556685 0.20126687 -0.00065912574
0.090642445 -0.018315075 0.1928956 0.10707108 -0.16941702 0.068154424 -0.022173885 -0.1829753
0.1333897 0.018035632 0.062007736 -0.059108436 0.16158727 0.120099425 0.13176483 -0.033062626
-0.21072568 -0.15059923 -0.1618497 -0.14042845 0.08408639 -0.02735969 0.025362082 -0.08838296
-0.01795997 0.21045351 -0.1502079 0.09073112 -0.03294686 -0.018012427 -0.10621893 -0.012890288
-0.20247337 -0.044573307 -0.16121495 -0.17040932 -0.14032757 0.1324167 0.0849126 0.051747393
4.320636e-06 0.03724406 0.079759955 -0.11855078 0.043237012 -0.1344774 -0.18622854 0.012346624
0.18213949 0.027789848 0.0200187 0.03737261 -0.0010837426 -0.07940376 0.17601424 0.081697255
0.015049335 0.13043222 -0.06747382 0.20586474 -0.1193256 0.010017954 0.19161937 -0.117263615
0.10878172 0.20013903 -0.051205713 0.08641493 -0.1687306 -0.20970324 -0.062975205 -0.038029578
0.19675875 0.20456237 -0.016675876 -0.06527937 0.0011355903 0.12376896 0.08563005 -0.099802345
-0.03875491 0.15851352 0.15238449 -0.19103657 -0.15806368 -0.13150688 -0.064051345 0.03735096
0.07559771 -0.10459368 -0.06256243 0.0015326821 0.07887126 0.049424518 0.0016369619 0.017787626
0.10680628 0.11579188 0.069791995 -0.18371873 0.09248835 0.03388009 0.036126085 -0.03439501
0.1419291 -0.056594387 -0.18371642 0.18177709 -0.062646195 0.17945111 0.08359323 -0.05470431
0.1684373 -0.18858047 0.06968464 0.18063936 0.086341 0.19895057 0.13854764 -0.094736196
-0.116052665 0.028731238 -0.20040663 0.028830258 -0.12941664 -0.15819976 0.19063762 -0.14035627
-0.044765297 0.032468487 -0.040004767 -0.10240693 0.20073777 0.13526818 0.11749373 0.09598661
-0.14755455 -0.1321758 0.10710796 0.19009271 -0.014955348 -0.13586494 -0.17350131 -0.13363159
-0.08132258 -0.035329614 0.18901542 -0.15766239 -0.00050742057 -0.0038830827 -0.034715064 0.10233236

Mixer_Block.0.mlp_block_channel_mixing_DynaMixerOperation.fc_Nd.bias f4 [484]
00000000: ef0e 293e 151c 693d 8708 c03d be42 08be
00000010: d35c d4bd 0d89 34be bb8b 3bbe 98bf 52be
00000020: dbe5 9d3d f774 2e3c c76c 0b3e b418 453e
00000030: ebda 9dbd d3d7 02be 7297 123e 821b 1bbe
00000040: 9e08 ff3c a3b6 3b3e b3fd c6bc 7bc7 4f3e
00000050: 5885 14be 6695 0bbd 7418 153e 9c7c 43be
00000060: 4ae3 243e 97ea 1fbc 9809 9c3d e24d 3b3e
00000070: 7a6e 3c3d 6ac3 3cbe 495e cc3d 1eb9 38be
00000080: dc98 cc3c a999 1a3e a92f 293e 6441 823d
00000090: c5b9 0bbe 27a3 b2bd fe34 62bd 35fb b53d
000000a0: 635b 0abe 204b 223e 1a9f b13d 7c92 8ebd
000000b0: 9d8b c9bd 8b32 403d 178b 113e ccb9 4fbe
000000c0: d2aa 81bc dcc7 013e 5b98 083d 554c 2e3e
000000d0: e2b1 03bd 9fc1 3c3c 5261 1cbe 00ff 143e
000000e0: f88f 2d3e b14c 09be 39e4 223e 6bd1 293e
000000f0: a02c aebd 8d79 89bd 2e6a 24be 21b0 ad3c
00000100: c4a1 4a3e 0a8d dd3c 470b 93bd efd6 323d
00000110: 3194 1abe 695d 0cbe 735f 20bd 3642 60bd
00000120: 02ac 98bc 4af8 543e 0703 463b fa86 4a3e
00000130: d119 033e f342 f83d a88c ccbd 6bc1 2bbe
00000140: 7a1a 0cbe e99f 17be a578 3f3e 29be bebd
00000150: ede6 c5bd 50a7 d53d 3543 cb3d 2edb e03c
00000160: 81d4 553e d1e9 1f3e aecb 243e 9889 123e
00000170: 7501 a5bd 6602 aebd 4f76 153e 699e 21be
00000180: 5022 0abe ce96 a5bc 3f69 093e dfc3 48bd
00000190: 9abd 3f3e d09f 953d fbee cbbd 1cc5 35be
000001a0: 26cc ca3d 1983 fb3c ab75 ff3d e070 11be
000001b0: 243b a53d 8bfc 593d d63e 15be 870a 8bbd
000001c0: 73b6 53be 0fe8 683d 05fd a0bd bea4 69bd
000001d0: af97 02be 3308 6bbd 04b3 dcbd f25b 453e
000001e0: b87d 06be 6712 9e3c 3897 373e 7ef0 0f3d
000001f0: 10c1 603d 5636 cd3d 42f1 14be 509e 99bd
00000200: 16b3 123e b44d 19be 7ad9 2fbe 269a 253e
00000210: 8125 cb3d 3dc2 e4bd aa09 34be 554c 2d3e
00000220: 43d5 14bd 3ef6 43be e56d 09be f83e 0bbe
00000230: b338 0f3e c4a7 10bd 8bea aa3d 5835 673d
00000240: 8bc1 3e3d 35b6 b1bd e1c7 103d b168 3ebd
00000250: 0112 b0bd f068 c63b 194b 0fbe b403 503e
00000260: 688b 2cbd 7f6e c93d d0e3 52be 5ec2 7f3c
00000270: b374 50be b965 9b3d d8fd e4bd 16f4 3e3e
00000280: f113 93bd 6d8e 18bd a178 58be 3c4e 923d
00000290: e1f6 d8bd b1b2 463e e764 2bbe 2e3f 6d3d
000002a0: 52e1 d9bd c9b8 25be 28a3 103e 0d5f 1f3c
000002b0: 3775 96bd a735 4f3e 1e91 ff3d 1af6 1d3e
000002c0: b833 a33c a188 febd fce8 aabd 41e9 573e
000002d0: 0d91 eb3c 07f5 3f3e 0082 283e 8e8c 16be
000002e0: 31ec 3ebe bf8d 6f3d 1c98 21be 7668 3fbe
000002f0: f7e1 9b3d bbdc 40be a852 c23c aaa1 5a3c
00000300: a0b6 263e 83d8 823d 4ff8 0fbe 1361 af3d
00000310: 15ee 20be fbb4 d0bd 7ac8 e3bc 109b 1d3d
00000320: 8b9f 8ebd 4ff7 cc3c 7eb4 673c b839 4c3e
00000330: be66 0b3e 29a4 1e3e c10c 433d 8f33 6bbd
00000340: 1420 40be 282f 023e 2584 523e 0bca 443e
00000350: c2de 12be 6d35 1d3e 3d3e 59be 9244 b0bd
00000360: 965a 573e c90e 30be 6df6 d8bd 69e9 eebd
00000370: e1c2 543e e0cd 313d 91d4 593d d221 d6bd
00000380: 8b45 483e ce42 a3bb 2d6f 24be 7add 493e
00000390: 59cb 0e3e acae 2f3e e12c 503e 37d2 ab3d
000003a0: 464d 1f3d 71f6 843d 7ded e0bd ae4f 45be
000003b0: 4c91 8c3b a21d 40be a210 01be 6077 2b3e
000003c0: a212 b3bb b408 19be aca2 d0bc aa4c b83d
000003d0: 7a0f 053e 2870 9cbd cbc7 2cbd 461b cc3d
000003e0: bf4d 173d 9ecf 383e 0ced 20be 7bbd 9bbd
000003f0: b391 0e3e 3130 de3d bcfd 1e3e 37c6 673d
0.16509603 0.056911547 0.093766265 -0.1330671 -0.10369267 -0.17630406 -0.18315022 -0.205809
0.07709857 0.010648004 0.13615714 0.19247705 -0.07707771 -0.12777643 0.14315584 -0.15147212
0.031132039 0.18331389 -0.024290895 0.2029094 -0.14503992 -0.034078024 0.1456011 -0.19090503
0.16102329 -0.00976052 0.07619017 0.18291429 0.046003796 -0.1843392 0.09978921 -0.18039367
0.024975233 0.15097679 0.16522087 0.063601285 -0.13645084 -0.08722525 -0.05522632 0.088858046
-0.13511424 0.1584897 0.08672924 -0.069615334 -0.09841082 0.0469232 0.14213215 -0.2028572
-0.015828524 0.12673897 0.033348422 0.17021306 -0.032152064 0.011520772 -0.152715 0.145504
0.16949451 -0.13408162 0.15907373 0.16583793 -0.08504605 -0.06712637 -0.1605613 0.021202149
0.19788271 0.027044792 -0.07179885 0.043662008 -0.15095593 -0.13707508 -0.039153527 -0.054750644
-0.018636707 0.2079784 0.0030214207 0.19778052 0.12802817 0.121221446 -0.099877656 -0.16773002
-0.13681975 -0.14807095 0.18698366 -0.09313614 -0.09663186 0.10432303 0.09924928 0.027448263
0.20881845 0.15616538 0.16093323 0.143103 -0.080569185 -0.08496551 0.14595912 -0.15783085
-0.13489652 -0.02021351 0.13419054 -0.049014922 0.18724671 0.073058724 -0.09957691 -0.17750973
0.099022195 0.03070216 0.12473615 -0.14203215 0.08067921 0.05321936 -0.14574751 -0.06789117
-0.20675068 0.056861933 -0.0786076 -0.057041876 -0.12753175 -0.057380866 -0.10776332 0.19273356
-0.13133895 0.019295884 0.17928779 0.03514146 0.05487162 0.100201294 -0.14545158 -0.07500899
0.14326128 -0.14971048 -0.17172804 0.16172084 0.09919263 -0.111698605 -0.17581812 0.1692365
-0.036336195 -0.19136903 -0.13420828 -0.1359824 0.13986473 -0.035316244 0.08345517 0.056447357
0.046571296 -0.08677331 0.03534687 -0.04648656 -0.08597184 0.00605499 -0.13993491 0.20313913
-0.042125136 0.098355286 -0.20594716 0.015610306 -0.20357017 0.075877614 -0.11181229 0.18647799
-0.07181538 -0.037245203 -0.21139766 0.07143828 -0.105939634 0.19404103 -0.1673771 0.05792158
-0.106386796 -0.16183771 0.14124739 0.009727252 -0.07346576 0.2023531 0.12478851 0.15425912
0.019922122 -0.12428404 -0.083452195 0.21085073 0.028755689 0.18745814 0.16455841 -0.14702055
-0.18644787 0.05848479 -0.15780681 -0.18692192 0.07611459 -0.18834202 0.023721054 0.013344208
0.16280603 0.063889526 -0.14059566 0.08563437 -0.15715821 -0.10190769 -0.027805556 0.038477957
-0.06964024 0.02502027 0.014142154 0.19943893 0.13613412 0.1549231 0.047619585 -0.057422217
-0.18762237 0.12713301 0.20558222 0.19217698 -0.14342788 0.15352412 -0.21215148 -0.08606829
0.2103065 -0.1719314 -0.10593877 -0.11665613 0.20777465 0.04340923 0.053181235 -0.104556695
0.19557779 -0.004982329 -0.16058035 0.19713393 0.13944758 0.17156476 0.2032962 0.08389705
0.038892053 0.064923175 -0.10982797 -0.19268677 0.0042897817 -0.18761304 -0.12604001 0.16744757
-0.0054648677 -0.14944726 -0.025468193 0.089989975 0.12994185 -0.076385796 -0.042182725 0.099661395
0.03693938 0.1804795 -0.15715426 -0.076045 0.13922767 0.108490355 0.1552648 0.056585517

Mixer_Block.0.mlp_block_channel_mixing_DynaMixerOperation.fc_out.weight f4 [10, 10]
00000000: 931c 8dbd f778 9cbd caef 95be 0d2a 20be
00000010: 1c25 7dbe 1a21 44bd c1c9 8e3d 54bf 87be
00000020: 7148 523e 4c43 78bd bebc 773d acd7 81be
00000030: 6209 81be ee5c 71be 84c0 f03d 6251 753e
00000040: 8b23 42bd 70fd 84bd 48b6 0dbc 2e1b ef3d
00000050: f422 53be c87f 953e 92bf 863e f273 9bbe
00000060: 5578 5cbe 2378 d6bd 8b93 72bd 883b abbd
00000070: 2c27 95be 87dc 2abe bb16 6b3c 152f 233e
00000080: c938 8dbe bef2 4e3d 32b3 133c d9e5 593e
00000090: bf3f ef3d d014 29be 4b43 693e 1351 913e
000000a0: 8c49 083e 1aa4 2fbe 6725 44be 82b3 9c3d
000000b0: 8550 ce3d b637 27bd b3ca 973e c3f4 21be
000000c0: 42bd 9dbc 4dc6 92bd d87d 84be b4f0 64bd
000000d0: 7f1b d53d a2d6 133e 145b f23d ad1d b63d
000000e0: af0d 813e 6993 823e ee92 653e e95d 5bbe
000000f0: 0996 85be 0d58 a13d 59cc 95be 36e1 7b3e
00000100: 2564 39be 81a0 1c3e 19ec dabd 8b52 1a3e
00000110: d26b afbd 1dcb 22be 1a54 74be b56c 28bd
00000120: b3a0 a1be f77f 90be d1fe adbd f522 bdbd
00000130: 4391 4f3e dfbe 0c3e f555 7abe ae0c 70be
00000140: bba3 abbd 9719 103e 7334 1dbe 7b3e 83be
00000150: bbd7 653e 194d 95be dcf3 07be 9a68 c6bd
00000160: a0dd 84be 524a 59be 270a 963d 4906 813d
00000170: 9f8d 073e 4ad4 8abe 254d 85be d422 42bd
00000180: 88d9 993e 8466 b1bd 4f47 563e 4f82 3dbe
-0.06890216 -0.0764026 -0.29284507 -0.15641041 -0.24721187 -0.04788313 0.06972075 -0.2651316
0.20535447 -0.060611054 0.060482733 -0.25359857 -0.2520247 -0.23570606 0.117554694 0.23956826
-0.047397178 -0.06493652 -0.008649416 0.11675106 -0.20618802 0.29199052 0.26318032 -0.30361897
-0.21530278 -0.10472133 -0.05922274 -0.08360964 -0.29131448 -0.16685687 0.014348681 0.15935929
-0.27582386 0.050524466 0.009014891 0.21279086 0.116820805 -0.16511846 0.22779576 0.28382167
0.13309306 -0.17152444 -0.19154893 0.07651426 0.10073952 -0.040824614 0.29646835 -0.15816025
-0.019255284 -0.07166729 -0.2587726 -0.055893615 0.10405635 0.14437345 0.11833778 0.08892379
0.25205752 0.2550309 0.2241933 -0.21422543 -0.2609103 0.078781225 -0.29257467 0.2459763
-0.18104608 0.15295602 -0.10689563 0.1507055 -0.08565487 -0.15897794 -0.23860207 -0.041119296
-0.31567916 -0.2822263 -0.08495868 -0.09235183 0.20270257 0.13744687 -0.24446853 -0.23442337
-0.083808385 0.14072262 -0.15352039 -0.25633606 0.22445576 -0.29160383 -0.13276619 -0.0968792
-0.25950336 -0.21219757 0.07326155 0.06300027 0.13237618 -0.2711509 -0.2603542 -0.047396496
0.30048776 -0.086621314 0.2092564 -0.1850674

Mixer_Block.0.mlp_block_channel_mixing_DynaMixerOperation.fc_out.bias f4 [10]
00000000: 128a 17be 07a6 823e 6b1e 95be e536 3c3e
00000010: 9021 943e e7c6 cdbd d723 8bbe c644 20bd
00000020: b2bf 1e3b 7df9 87be
-0.14798763 0.25517294 -0.2912477 0.18380316 0.28931856 -0.10047703 -0.2717578 -0.039128087
0.0024223146 -0.26557532

Mixer_Block.0.mlp_block_channel_mixing_DynaMixerOperation.LN.weight f4 [22]
00000000: 0000 803f 0000 803f 0000 803f 0000 803f
00000010: 0000 803f 0000 803f 0000 803f 0000 803f
00000020: 0000 803f 0000 803f 0000 803f 0000 803f
00000030: 0000 803f 0000 803f 0000 803f 0000 803f
00000040: 0000 803f 0000 803f 0000 803f 0000 803f
00000050: 0000 803f 0000 803f
1.0 1.0 1.0 1.0 1.0 1.0 1.0 1.0
1.0 1.0 1.0 1.0 1.0 1.0 1.0 1.0
1.0 1.0 1.0 1.0 1.0 1.0

Mixer_Block.0.mlp_block_channel_mixing_DynaMixerOperation.LN.bias f4 [22]
00000000: 0000 0000 0000 0000 0000 0000 0000 0000
00000010: 0000 0000 0000 0000 0000 0000 0000 0000
00000020: 0000 0000 0000 0000 0000 0000 0000 0000
00000030: 0000 0000 0000 0000 0000 0000 0000 0000
00000040: 0000 0000 0000 0000 0000 0000 0000 0000
00000050: 0000 0000 0000 0000
0.0 0.0 0.0 0.0 0.0 0.0 0.0 0.0
0.0 0.0 0.0 0.0 0.0 0.0 0.0 0.0
0.0 0.0 0.0 0.0 0.0 0.0
