M_2_AST/MotionMixer-main/h36m/run_for_longging/exp218/model.pt (torch, 870893 bytes, 184 tensors)

Mixer_Block.0.mlp_block_token_mixing.fc1.weight f4 [20, 10]
000000 03 34 a7 be c5 33 60 3c ed c7 0c bf 45 24 8a 3e
       -0.3265687 0.013684218 -0.5499256 0.26980796
000010 7e 95 7d 3e 8d 56 d8 3e 49 4a 4b 3f 5c 6c c0 be
       0.24764058 0.42253533 0.79410225 -0.37582672
000020 70 00 7e 3d 99 59 dd 3e 09 53 61 be e7 7b 52 3e
       0.062012136 0.4323242 -0.22004332 0.20555077
000030 00 e5 87 bd b7 5c e5 bd 4e 5e 80 be f3 0a 8a be
       -0.06635475 -0.111993246 -0.2507195 -0.2696148
000040 a0 38 04 bf 4a 75 22 be 10 31 35 bf d9 4d 18 bf
       -0.516489 -0.15865055 -0.7077799 -0.59493786
000050 4f 53 f1 be 70 e6 c1 3c 92 1d 62 3d d8 c6 31 3f
       -0.47133872 0.023669451 0.05520398 0.69444036
000060 b5 56 44 bf 9a 49 35 be 8e 27 6f be 4e c4 91 3e
       -0.76694804 -0.17703858 -0.23354933 0.2847008
000070 44 2f 51 bd 20 c2 41 3d 0b 2f 4d 3e 6a 7b cf be
       -0.051070467 0.047304273 0.20037477 -0.40523845
000080 ea d7 19 3f b6 aa 31 bf 9d dd 86 3e a7 e6 06 bf
       0.60095084 -0.6940111 0.26340953 -0.526957
000090 6b 05 64 bd 2c ec f3 be bd e1 ba bd ef 28 6e be
       -0.05566923 -0.47641122 -0.091250874 -0.23257802
0000a0 55 be 7e be 10 02 bb 3e 0b 32 6d be 04 a0 ce 3e
       -0.24877293 0.3652501 -0.23163621 0.40356457
0000b0 e4 49 30 bf 45 6d dd 3e 0c 25 34 bf ed 25 ca 3d
       -0.6886275 0.4324743 -0.7036903 0.09870515
0000c0 1e 96 02 3f 5d 17 93 be 63 d5 f7 bd 43 2d 81 3e
       0.5101031 -0.28728762 -0.12101247 0.25229844
0000d0 00 08 50 be 80 dc 44 3d 19 83 b1 be 4c 28 dd 3e
       -0.20315552 0.048061848 -0.34670332 0.43194807
0000e0 93 6f d3 be 5a 0c 76 3f 3f 1f bd be 3c 6b 91 be
       -0.41296062 0.96112597 -0.369379 -0.28402126
0000f0 22 fd 8f 3b ed ff be be 3f 59 85 3e 48 08 54 3e
       0.0043941895 -0.3730463 0.26044652 0.20706284
000100 63 58 0c 3f ba fb e3 be 8b e8 f7 3e 53 a4 59 bf
       0.5482237 -0.4452799 0.48419604 -0.85016364
000110 61 2d 9d 3e 95 4a e9 3e c6 a5 87 3e dd 9a 97 bd
       0.30698684 0.45564714 0.26493663 -0.07402585
000120 ee ee a4 3e b0 d0 c8 3e 9e e9 fb be 32 15 86 bf
       0.3221354 0.39221716 -0.49201673 -1.0475218
000130 83 7c 25 be 12 39 11 3e d0 6c cb be f1 22 2c 3f
       -0.16160779 0.14181927 -0.39731455 0.67240816
000140 99 29 6e bb 84 0c c7 3e e7 d9 0c bf 26 1f 5d 3e
       -0.0036340712 0.38876736 -0.5501999 0.21593913
000150 df 9d 14 be 12 94 10 3f 69 fa bf be 19 e1 be 3e
       -0.14513348 0.5647594 -0.37495735 0.3728111
000160 b8 f4 25 bf 7b ef 5f 3e 02 f5 b4 3d 8a 10 b4 be
       -0.64826536 0.21868698 0.08835794 -0.35168868
000170 ee 81 75 be b3 c9 03 3f 87 17 43 3e ad 89 ee 3d
       -0.23975345 0.51479644 0.19051944 0.11647353
000180 3a 7f 8b bd d3 80 9b be e8 bb 09 bf 3c bb 40 be
       -0.06811376 -0.30371723 -0.5380235 -0.18821424
000190 13 d5 99 be de 5b 57 3e a1 98 0a bf a7 18 04 3f
       -0.30045375 0.21031138 -0.54139143 0.51600116
0001a0 fd 4f 19 be 95 e5 cb be 5e 8a 0d bf 7a 9c 8d 3e
       -0.1497192 -0.39823595 -0.55289257 0.27658445
0001b0 bd 84 17 3c ef dc 21 3f e6 c8 d7 3e 92 78 ee be
       0.009247956 0.6322774 0.4214546 -0.46576363
0001c0 f5 f0 e0 3c af 33 1b bf 37 18 77 3f b6 bb 87 3e
       0.027458647 -0.6062574 0.96521324 0.265104
0001d0 2a 78 bf 3e 4e aa 1c 3e 04 b6 31 bf 9f fe d9 bc
       0.37396365 0.15299341 -0.6941836 -0.02661067
0001e0 90 3c 3d 3d aa b9 c3 3e e5 29 20 3f 91 6a 9c be
       0.046200335 0.38227588 0.62563926 -0.30550054
0001f0 11 d3 1f bf 0f 53 a5 bd 14 d7 48 bf ef eb 77 3e
       -0.62431437 -0.08072483 -0.78453183 0.24211095
000200 7e 9b bf be 72 57 10 bf 58 75 e0 bc 6d df 12 bf
       -0.3742332 -0.5638343 -0.027399704 -0.5737217
000210 6a 46 9e 3e e2 97 33 bf 70 cf 92 3e b6 a9 2b bf
       0.30913097 -0.7015363 0.28673887 -0.67055833
000220 8b bb c5 3d 95 a2 f4 be 0c 2d d4 3e 0e d6 ad be
       0.096549116 -0.4778029 0.41440618 -0.33952373
000230 7b 06 96 3e 8b d8 1d be a3 6e bc 3e ca df b2 be
       0.2930182 -0.15414636 0.3680316 -0.34936363
000240 e1 b6 d0 3e 00 a8 d1 be 98 f3 1b 3f a4 9b 1e bf
       0.40764526 -0.40948486 0.6091857 -0.6195624
000250 4d 6b 95 3e 1c 96 77 be a9 0c 73 be ca e1 9e be
       0.29183426 -0.24178356 -0.23735298 -0.31031638
000260 81 38 29 be f7 8f 21 be 15 6f c4 3e 28 30 b9 be
       -0.16525461 -0.15777574 0.38366 -0.36169553
000270 23 70 9f be 14 81 70 3f 22 7b 3a 3f 1f 68 4c 3d
       -0.3114024 0.9394696 0.72844136 0.049903985
000280 b0 7c d6 3e b4 73 f2 3e 55 2f 8d 3e a5 cc 4a bf
       0.41892004 0.473539 0.27575174 -0.7921851
000290 6f 04 9e be db 45 98 be 4d 04 fc be 80 8d 80 3f
       -0.30862758 -0.29740795 -0.4922203 1.0043182
0002a0 80 8e 83 3e 7c 85 27 bd cd 80 89 3e 54 e8 fa 3d
       0.25694656 -0.040898785 0.2685608 0.12251344
0002b0 88 a4 93 be 3a 58 f1 3d 58 3e 7d 3d c3 cc 79 3e
       -0.28836465 0.11784406 0.061827034 0.24394517
0002c0 39 af 59 3e c9 3d 5e bf ad 4d 53 bf af a2 05 3e
       0.21258248 -0.86813027 -0.825404 0.1305034
0002d0 5e 29 21 be 30 d2 44 bd 4c 68 0a 3f 27 06 ea be
       -0.15738437 -0.048052013 0.54065394 -0.4570782
0002e0 28 27 e1 be 7a 0d 00 be 80 7e f0 3e 09 fe 19 3c
       -0.43975186 -0.12505141 0.46971512 0.009398946
0002f0 73 6c 9a 3f cd 01 f1 bc d1 b4 81 3e d6 94 c0 bd
       1.2064346 -0.029419804 0.25333264 -0.09403388
000300 d0 6b 27 3c eb d6 1f bf 52 3f 94 3e 30 05 47 3f
       0.010218576 -0.62437314 0.2895456 0.7774229
000310 a6 9d 52 3e 1a 93 c0 be 96 d6 89 3e fb d3 f0 be
       0.2056795 -0.3761223 0.2692153 -0.47036728

Mixer_Block.0.mlp_block_token_mixing.fc1.bias f4 [20]
000000 f7 9d 0f 3f 84 3e fe 3e 87 50 14 3f 8e 4a c1 3d
       0.5610041 0.4965707 0.57935375 0.09438048
000010 e3 b9 f8 3e 44 20 ed 3e 75 9b 0b 3f d9 9e 1b 3f
       0.4857932 0.4631368 0.54534084 0.6078926
000020 29 f7 d1 3e de f4 82 3e 3e 70 16 3f 20 dc 34 3f
       0.4100888 0.25577444 0.5876502 0.70648384
000030 52 fb 01 3f b4 2b ef 3e 10 f0 f3 3e b6 bf 18 3f
       0.5077411 0.4671303 0.4764409 0.5966753
000040 46 b2 10 3f c9 27 d4 3e 77 f4 23 3f 8f 5f 22 3f
       0.56522024 0.41436604 0.640449 0.6342706

Mixer_Block.0.mlp_block_token_mixing.fc2.weight f4 [10, 20]
000000 f3 30 30 bf 3f 70 03 3f e1 60 73 3e 18 14 7b 3f
       -0.6882469 0.5134315 0.23767425 0.98077536
000010 bf 05 c7 be 56 42 a8 be 9c be 78 3e 0b 70 8d 3d
       -0.3887157 -0.3286311 0.24291462 0.06906136
000020 a6 f1 fc be 4c 6d 05 3f 95 e2 bd be bf 0a 42 3e
       -0.49403113 0.521199 -0.3708693 0.18949412
000030 8d 6d b2 3e ea 3e 41 3f ff f0 09 3f 2c be b8 bc
       0.34849206 0.75486624 0.53883356 -0.022551619
000040 c8 c6 a3 be d6 34 d3 bd 90 f3 bd bd 2a c1 50 be
       -0.31987596 -0.10312812 -0.092749715 -0.20386186
000050 a5 c3 f0 3e 19 f6 e2 3d 75 6c c0 3e fc 7c 5e 3c
       0.47024265 0.11082096 0.37582746 0.013579603
000060 b9 c9 11 3e ed 3b 3d 3e a8 0a b4 3d 38 20 c8 be
       0.14237107 0.18479891 0.08791095 -0.3908708
000070 94 59 5d bd ba d4 bf 3e ca e9 14 3e 1b b0 91 3c
       -0.054040506 0.37466985 0.14542308 0.017784169
000080 e8 22 b7 be 15 97 24 3e 68 61 84 be 88 5f 62 3e
       -0.3576882 0.16073258 -0.25855565 0.22106755
000090 84 74 27 bf bc 74 43 be fc 0d 1f be 14 12 bb ba
       -0.65412164 -0.190875 -0.15532678 -0.0014272355
0000a0 07 2a 30 3f 84 bc f7 be 11 a1 1d bf 6f 5c 10 be
       0.6881413 -0.48386014 -0.6157389 -0.1409776
0000b0 1e ae 29 bf cb 7e 51 be 18 02 0b 3e f0 62 13 bf
       -0.66281307 -0.20458524 0.13575017 -0.5757284
0000c0 1f 6c c9 bd 36 11 34 be c6 e1 00 be 41 69 62 3f
       -0.098350756 -0.1758469 -0.12586126 0.88441855
0000d0 38 94 61 bf 34 85 38 3e 21 fa 57 3e 28 d0 69 3f
       -0.8811679 0.18019563 0.2109151 0.91333246
0000e0 d1 25 9b 3d 23 31 87 be 94 95 b7 be bb 4d d6 3e
       0.07575572 -0.26404676 -0.35856307 0.4185618
0000f0 4d 77 a5 3d af 8b c0 3c 44 a1 97 be 7f 7a f6 b9
       0.080793954 0.023504106 -0.29615223 -0.00047012043
000100 1c f8 de 3d bf 7a 30 3f 9a 40 69 bf 8b 81 b2 be
       0.10887167 0.68937296 -0.911142 -0.34864458
000110 fb 8c 22 3f 39 d4 62 be e4 ae 59 be 62 b6 2b 3e
       0.6349637 -0.22151269 -0.21258122 0.16768792
000120 05 6c a6 3e 61 48 89 be fa 66 d1 be 31 f1 5c bd
       0.32504287 -0.26813033 -0.40898877 -0.053940956
000130 a7 dd 0f 3f ec 56 44 3e 85 62 c1 3d f0 d1 0d 3f
       0.5619759 0.19173783 0.09442619 0.55398464
000140 a8 42 32 3e cf 0a 9d be c8 bf b3 3e 72 38 34 3d
       0.1740824 -0.3067231 0.35107255 0.043999143
000150 ed d1 48 be 9e d9 0d be 0b 96 e6 3d 12 4c bb 3a
       -0.1961133 -0.13852546 0.11259087 0.0014289638
000160 08 9f 27 bf 3e 03 28 bf 4d 5c fe be 05 43 7b be
       -0.6547704 -0.6562995 -0.49679795 -0.24537285
000170 3e b8 de 3d 0a 30 58 3e 9b 3a 11 3f 17 66 88 3d
       0.10874985 0.21112075 0.5673005 0.06660097
000180 87 9b 31 bd b8 a4 13 bf 6a 11 6c 3f e9 98 84 bd
       -0.043361213 -0.57673216 0.9221407 -0.06474478
000190 44 8e 20 be 07 06 6c bd 67 55 de 3e dc c3 9d be
       -0.1567927 -0.057622936 0.43424532 -0.3081349
0001a0 d4 86 08 3e 7a da 9b 3e 0a 6b ba bd bb 45 1e 3f
       0.13332683 0.30440122 -0.09102447 0.6182515
0001b0 9f 39 8d 3e 86 dd 07 ba ed fd 28 3f 5d bc 9b be
       0.27583024 -0.0005182851 0.6601246 -0.30417147
0001c0 71 f2 52 bd 2f 14 a2 be a0 0e be be cd 6c e4 3e
       -0.05150074 -0.31656024 -0.37120533 0.44614258
0001d0 ff 96 3c 3e 31 43 32 be 45 b8 7c be 58 23 3a bf
       0.18416975 -0.17408444 -0.24679668 -0.7271018
0001e0 3e c0 1a bf f0 7a 48 be 30 6d 9b 3c d0 2b 14 3f
       -0.6044959 -0.19578147 0.018972963 0.5787935
0001f0 42 df c1 3e 4e d4 46 3e 06 3e 16 3d 74 3d 53 be
       0.37865645 0.19416925 0.036680244 -0.20628911
000200 5d 5d 9b 3c 30 5e f3 be 93 73 92 3e 48 5a 03 bd
       0.018965418 -0.47532797 0.286038 -0.03206852
000210 b1 18 d9 3d d0 9e 37 3f 85 a3 1b 3e ab 0a 0b 3f
       0.10600413 0.71726704 0.15199097 0.54313153
000220 ff c3 05 3e b2 7a 38 bf b0 8d 28 3e 9d 5a e3 3d
       0.13063048 -0.7206222 0.164603 0.111012675
000230 d6 72 85 3f 85 50 10 be 23 6e 57 3e b2 c5 cc 3e
       1.042567 -0.14093216 0.21038108 0.3999458
000240 9c 33 da 3e f4 3c 29 bf e8 82 91 3f d4 a9 d0 be
       0.426175 -0.6610863 1.1368074 -0.4075457
000250 dd fa 0e 3f f5 db 3f 3f 11 37 9f 3d 94 fe 61 be
       0.55851537 0.74945 0.07774175 -0.2206977
000260 c3 77 f7 be ff 55 55 be ca 05 16 3f af e2 92 bf
       -0.48333558 -0.20833586 0.58602583 -1.1475428
000270 bd c5 98 bf d1 1f 31 3f 20 ec 05 be 89 c3 b5 3e
       -1.1935345 0.69189173 -0.13078356 0.35500744
000280 8a f0 7a 3e c3 4d 97 3e 5f 72 05 be 30 c3 6f 3e
       0.24505821 0.29551515 -0.1303191 0.23414302
000290 56 20 90 bf d9 85 1e 3e 9e 0f 29 be e6 ef 2a 3e
       -1.1259868 0.15480746 -0.16509864 0.16693076
0002a0 2c 10 85 3e 30 d9 1e 3f 0d 72 db be 98 73 5b 3f
       0.259889 0.6205015 -0.4286045 0.8572326
0002b0 b0 91 63 bd bd e7 55 be 92 31 3f 3e 19 38 c9 be
       -0.05555886 -0.20889182 0.18671253 -0.39300612
0002c0 1b 20 e3 bd d8 1c 3f 3f b1 b3 44 bf fb 6f 96 bd
       -0.11090108 0.7465339 -0.7683669 -0.07345577
0002d0 6c 6e 3e bf 72 27 50 3f 8e 66 43 3c 6f 10 a2 3e
       -0.7438724 0.8131019 0.011926306 0.31653163
0002e0 a1 89 5f 3f 82 eb a1 3f 4e 54 48 bf c1 4a 39 bf
       0.8731938 1.2649996 -0.7825364 -0.7237969
0002f0 89 ac 0b 3f d5 dc 80 3e ef 77 34 bf a0 60 e9 bc
       0.5456014 0.2516848 -0.70495504 -0.028488457
000300 d6 72 9e 3f bb 01 b0 bd 86 90 14 3e 9a fa e5 be
       1.2378795 -0.0859408 0.14508256 -0.44917756
000310 d2 0b c5 3e 57 b6 39 be e7 78 e6 3c 0f 39 08 3f
       0.3848558 -0.18135963 0.028133823 0.53212065

Mixer_Block.0.mlp_block_token_mixing.fc2.bias f4 [10]
000000 fb 47 ea 3c 1c 1f cd 3b 45 b4 da 3d 8a 0e c6 be
       0.028598776 0.006259812 0.10678915 -0.38682967
000010 dc 80 bb 3e 1f 41 1d be b0 86 18 3e 5b d6 25 3e
       0.3662175 -0.15356873 0.14895129 0.16195051
000020 cc f7 26 3e 45 a5 1d be
       0.16305465 -0.15395077

Mixer_Block.0.mlp_block_token_mixing_DynaMixerOperation.fc_ND.weight f4 [1, 66]
000000 8e 49 8d bd 7d 1c 87 ba 44 85 34 3d d5 d7 5f 3c
       -0.06898795 -0.0010308173 0.044072405 0.013662298
000010 45 87 6b bd 9e 40 54 bc 8e 80 ea 3c 0a d2 28 3d
       -0.05750205 -0.012954859 0.028625753 0.041215934
000020 c8 16 32 3d 6a 2f a9 3c 9b 77 e8 bc 75 89 29 bd
       0.043478757 0.020652492 -0.028377345 -0.041390855
000030 83 83 d5 3a 24 da 27 3d 2a fd 2b bd f4 cd 2d 3d
       0.0016289804 0.04097952 -0.041989483 0.04243274
000040 64 0e 90 bc 6c 11 98 3c 6c bc f7 3c 03 66 6d 3c
       -0.017584987 0.018562995 0.030241214 0.0144896535
000050 2c 8c e7 bc 2d 12 09 3c 7a 13 ab 3c 0d a0 02 bd
       -0.028265081 0.00836615 0.02088331 -0.031890918
000060 81 76 45 3d 33 1d 99 3d 85 37 5e 3d e4 3e c4 bb
       0.048208717 0.074762724 0.054252166 -0.0059889425
000070 06 1f 79 bd eb 89 e4 3c 1d 7f e8 3b 42 51 35 bd
       -0.060820602 0.027897796 0.007095231 -0.044266947
000080 35 69 66 3c fb 25 bb ba 45 8a b2 3a fd 03 89 3c
       0.014063169 -0.0014278287 0.001362153 0.016725535
000090 31 ca 4c 3d de 8c 01 3d c0 c6 2e bd 31 a8 9b 3c
       0.049997512 0.031628482 -0.04267001 0.019001098
0000a0 a5 57 74 3c 1e 11 8a 3d 0f fe 49 bd ac 62 63 bd
       0.014913474 0.06741546 -0.049314555 -0.055514023
0000b0 39 f0 0b bc 70 88 8f bd 31 24 d7 bc 97 1a a7 ba
       -0.00854116 -0.07008445 -0.026262375 -0.0012749013
0000c0 3d a0 9a 3c 6c 4a 10 bd a5 8a 36 3b 57 9a a5 37
       0.018875236 -0.035227224 0.0027853635 1.9741403e-05
0000d0 1b d5 48 3d bb 75 b4 bc a1 16 9b 3d cc df 93 3d
       0.04903136 -0.022028795 0.075726755 0.0722042
0000e0 d9 21 81 bb 7b 12 33 bd e1 5a 35 3d 82 dd 4f bd
       -0.0039408025 -0.043718796 0.044276122 -0.050748356
0000f0 23 2d 26 3d df 50 ae bd 48 06 d1 bc c8 ef b0 3c
       0.04057039 -0.08511519 -0.02551569 0.021598712
000100 7f df 05 3d 71 67 91 3d
       0.032683846 0.07099808

Mixer_Block.0.mlp_block_token_mixing_DynaMixerOperation.fc_Nd.weight f4 [100, 10]
000000 7b 51 4d 3e 0a b5 b1 bc 70 d7 08 bd 92 6d a3 3e
       0.20050614 -0.021692771 -0.033408582 0.31919533
000010 97 76 43 3e 59 35 a1 3e 95 13 93 3d c6 c5 61 3e
       0.19088207 0.31486014 0.07181469 0.22048101
000020 c4 ad df 3d c8 7e 24 3e b6 1f 5b 3e 52 cc 01 be
       0.10921815 0.16063988 0.21398816 -0.12675598
000030 f1 e8 35 bd 15 b0 d6 3e 6c ad 8a 3d 05 45 67 3e
       -0.044411603 0.41931215 0.06771359 0.22584923
000040 2e 3b 59 bd 7e f5 3a 3e b5 9e 7f 3b 38 1a b8 3c
       -0.053034954 0.1825771 0.003900451 0.02247344
000050 f5 50 cc 3e 22 f3 8e be 86 ea 2d bf 60 cc 90 be
       0.39905515 -0.2791987 -0.6793598 -0.28280926
000060 e8 c2 82 be 3c 4d 49 be 53 aa 94 be d6 86 50 bf
       -0.25539327 -0.19658369 -0.29036197 -0.81455743
000070 f9 c6 15 bf f7 0c 3c bf 10 d9 90 be 10 b7 43 3d
       -0.58506733 -0.7345728 -0.28290606 0.047782004
000080 80 fa 8b be b3 5c 14 be 01 57 66 be f8 29 bf 3d
       -0.27339554 -0.14488487 -0.22494127 0.09334177
000090 e6 bf 96 be 65 9b 6a 3d c8 9d 9c 3d 4f 1b b7 3d
       -0.29443282 0.057277102 0.07647282 0.089407556
0000a0 b5 e6 00 bf 50 5b 76 be 7b 3c 4b 3c d5 eb e7 bd
       -0.5035203 -0.2405827 0.012404556 -0.11324278
0000b0 3b 17 86 bd 2d 6d 4f be d1 b9 f1 be 79 64 1c be
       -0.065473996 -0.20256491 -0.4721208 -0.15272702
0000c0 fc cc 2a be 1a 4e 4e be dc ca 66 be 19 b8 3e bd
       -0.16679758 -0.20146981 -0.22538322 -0.046562288
0000d0 d9 00 ed bd 72 9f 68 3d d5 fd 28 3c 79 ef 15 be
       -0.11572427 0.056792684 0.0103144245 -0.14642133
0000e0 0f 43 2a 3d 56 30 f2 3d 87 35 c7 3d 1f 0a 08 3d
       0.04156786 0.118256256 0.097270064 0.033212777
0000f0 2a b8 54 be 33 b2 fe bc 08 1a 5f 3b 34 79 f8 3d
       -0.20773378 -0.031090831 0.0034042615 0.12132493
000100 ea 37 2f be 7a bc 13 be 00 b3 1d bf 1e 6d 94 3c
       -0.17111173 -0.14427367 -0.6160126 0.018118437
000110 46 d0 91 bd 0f 90 ea bc c2 97 09 be f8 24 a2 be
       -0.07119803 -0.028633146 -0.13436797 -0.3166883
000120 6a 30 a4 be 51 2c 09 3d 10 5c 68 be 71 df b2 3d
       -0.32068187 0.03348953 -0.22691369 0.08734024
000130 11 45 f6 bc f3 8b de be 2e 09 c6 3e 2b c8 1b 3d
       -0.03006223 -0.43466148 0.3867888 0.038032692
000140 9b 99 34 3d 6e bc 18 bc 85 dd 5b be 98 8f bd bc
       0.044091802 -0.009322269 -0.21471222 -0.02313976
000150 5e 7c 2d 3d 68 52 86 be d8 ac 3d 3e 4b 5b 35 be
       0.042354934 -0.26234746 0.18522966 -0.17710607
000160 f9 07 61 be cb 69 91 bc 2a 94 d6 bd bb 32 69 be
       -0.21975698 -0.017750641 -0.10477479 -0.22773258
000170 39 54 6b 3d 63 4c b4 bd 4a ed b6 bd 7a 25 70 3c
       0.057453368 -0.08803632 -0.08931978 0.014657373
000180 85 5f ab be 5e 82 b9 bd f7 58 0c 3e e3 11 0c be
       -0.33471313 -0.09058069 0.13705812 -0.13678698
000190 75 3e 02 be 0e 2a f3 3e df 01 52 bd 5d 2a 36 3e
       -0.12719138 0.47493023 -0.051271316 0.17789598
0001a0 9b 03 a0 3d 69 b9 6f 3e e4 0e 66 3e 2c b5 3c 3d
       0.07813188 0.23410572 0.22466618 0.046071216
0001b0 e5 4c ad 3e e7 89 cf 3e a0 af 63 3e e1 a9 87 3e
       0.33847728 0.405349 0.22234964 0.26496795
0001c0 ca 37 0f 3e dd db ee 3d 9b 3e e6 3d 8e eb 00 3e
       0.13986126 0.11663029 0.1124241 0.12589857
0001d0 d1 e2 5e 3d c6 4e 34 3e 0a 28 31 3e fb 06 b6 3c
       0.054415528 0.17608175 0.1730043 0.022220125
0001e0 35 ea d7 bd 60 8f c2 3d ab 08 a7 be ab dc a4 bd
       -0.10542718 0.09500003 -0.326238 -0.080499016
0001f0 0b 38 26 3e 01 61 92 bc 8a f6 8b 3e a0 34 1b be
       0.16232316 -0.01786852 0.27336532 -0.15156794
000200 03 1f 1e bc a1 a0 82 3e 84 6d e6 bd 7a 04 87 be
       -0.009650948 0.25513175 -0.11251357 -0.26370603
000210 43 9a ac be 09 af 10 bf 99 71 1b be e3 a0 85 be
       -0.33711442 -0.5651708 -0.15180053 -0.2609931
000220 33 2b 47 bd c7 f0 f9 bd 04 e8 b5 bd c0 66 28 be
       -0.048625182 -0.12204128 -0.08882144 -0.16445446
000230 92 af 81 be 82 f0 0a be 42 57 8b bd 75 da db bc
       -0.25329262 -0.13568309 -0.068037525 -0.026837567
000240 52 af 4c be a8 2d 8b be a7 c4 ac be 76 60 16 bf
       -0.19988754 -0.2718327 -0.33743784 -0.5874094
000250 d0 12 0c be 07 86 08 bf 5c 0c 08 3e 08 db 24 bd
       -0.13679051 -0.5332951 0.13285965 -0.040247947
000260 32 24 e2 bd a5 dd 7a 3e f4 6e 83 3d a6 de 84 be
       -0.1104206 0.24498613 0.06417647 -0.25951117
000270 77 a0 50 3e 38 52 a1 be 86 53 ee 3c 2f f9 d8 3d
       0.20373712 -0.3150804 0.029092561 0.10594403
000280 9b 22 36 3e d0 4a b9 be 27 22 8e 3d c5 ad 91 be
       0.17786638 -0.3618989 0.06940108 -0.28452888
000290 2e a4 1d bf f0 10 25 be be 84 d2 be fc 66 cb 3d
       -0.61578643 -0.16119742 -0.411169 0.09931752
0002a0 84 04 9e be 44 bb cf be b4 09 8f bc e8 05 6d 3c
       -0.3086282 -0.4057256 -0.017460681 0.01446674
0002b0 f5 21 28 3d a3 4f 54 be a8 5a e4 3d 24 74 89 3e
       0.04104801 -0.20733504 0.11150104 0.2684642
0002c0 e4 68 c7 bd 95 73 ab be 3d 88 37 3e ba d7 00 be
       -0.09736803 -0.3348662 0.17923065 -0.12582293
0002d0 70 1f 19 bf 42 40 38 bf 7b f5 ca be 29 b6 b9 be
       -0.59813595 -0.7197305 -0.39640412 -0.3627179
0002e0 45 2f 72 be fc b4 99 be db 09 1b be 30 1f 13 3d
       -0.23650844 -0.30020893 -0.15140478 0.035918415
0002f0 f4 13 36 3d 22 6a 3c 3e 13 51 87 bc 2b 3d 96 bc
       0.044452623 0.18399861 -0.016518151 -0.018339714
000300 38 b1 a5 bb 01 b2 ab bc 75 6d fa 3c 3b 83 83 bc
       -0.0050565265 -0.020958902 0.030569771 -0.016053787
000310 53 fe 04 3d c0 29 e9 3c e6 db 8b 3d 4b 71 16 be
       0.032469105 0.02846229 0.06829052 -0.14691655
000320 95 d2 ce 3e 06 59 8d be 30 63 0e 3d 7d 1c 58 be
       0.40395036 -0.27606982 0.03476256 -0.21104617
000330 ab ca a0 be 32 88 b8 3d 51 aa 29 be 68 0a 7d bd
       -0.31404623 0.09010352 -0.16568877 -0.061777502
000340 91 2d 63 3d fa 9c eb bd 56 fa 5b 3e 7e 3b 86 3e
       0.055463377 -0.1150455 0.21482214 0.26217264
000350 aa 4c a5 3e dc 87 22 3e 57 ac 2d 3e 0b 66 a0 3e
       0.32285053 0.15872139 0.16960274 0.31327853
000360 52 13 43 3e ee b2 0f be 15 83 04 3e 10 26 4b 3e
       0.19050339 -0.140331 0.12940629 0.19838738
000370 e0 d6 ab 3e 0a 16 70 3d 13 d7 15 3e f1 64 39 3e
       0.33562374 0.058614768 0.14632826 0.18104912
000380 c6 26 cb bc 34 ea 09 3e 3c 06 ca 3d 68 73 f4 bd
       -0.024798762 0.13468248 0.0986447 -0.119360745
000390 0b 27 94 3d 4c ca ac bc 8e db 04 3d c7 ce 4a 3e
       0.07234009 -0.021092556 0.032435946 0.19805442
0003a0 42 da d2 bd 96 1e 1c 3e d5 ba 32 be 2a 6c b7 3d
       -0.102955356 0.15246043 -0.17454083 0.089561775
0003b0 6e 70 d5 3c 21 b8 ed bd 74 21 13 3e eb 00 84 3e
       0.026054587 -0.116073854 0.1436823 0.2578195
0003c0 e8 36 08 3e 2a 46 2b 3e fe 89 cd bd 4d f7 11 bf
       0.13302195 0.16725984 -0.100360855 -0.57017976
0003d0 18 56 6e be eb a6 8e be 19 2c 8a be 65 f9 70 be
       -0.2327503 -0.27861723 -0.2698677 -0.23532636
0003e0 f3 57 8b bc 72 94 f4 be 51 26 f9 3b da 38 a4 3d
       -0.01700971 -0.47769505 0.0076034446 0.08018656
0003f0 e5 a4 0f be 22 8b 89 bd a2 d3 b6 be e7 79 b9 3e
       -0.14027746 -0.067159906 -0.35708338 0.36225817

Mixer_Block.0.mlp_block_token_mixing_DynaMixerOperation.fc_Nd.bias f4 [100]
000000 7e d2 88 3e 2d 4a 2e 3e f3 e5 eb be d5 ff 6f 3d
       0.26723093 0.17020483 -0.46073875 0.05859359
000010 b2 65 01 bf 89 1d 00 be 08 78 79 be aa dc 71 3d
       -0.505458 -0.12511267 -0.24362195 0.059048332
000020 84 a0 fb bd 57 f7 27 3d ca 0b 57 3e 84 0a be bc
       -0.12286475 0.041007366 0.21000591 -0.023198374
000030 17 fa 78 bd 67 14 22 bd bc 8e fc bd c6 df f6 bd
       -0.06078538 -0.03957024 -0.12331912 -0.120544
000040 ec 19 c2 be 37 53 9f bd 8d 0b d3 be 46 62 da 3c
       -0.37910402 -0.07779544 -0.4121975 0.026658189
000050 ad 1e bc bd 6c 77 ca 3e ad 18 56 be f5 e0 b8 3e
       -0.091855384 0.39544237 -0.2090785 0.3610913
000060 bc 8c a9 bd 84 06 36 be 32 44 c5 bc 3a 22 97 be
       -0.08278796 -0.17775923 -0.02408037 -0.295183
000070 e8 e1 fc bc 58 f4 d4 bd 26 1a c6 bd 09 ce de be
       -0.03086944 -0.10398167 -0.09672956 -0.43516567
000080 10 ae be 3e 71 ce a8 be 0e 4b 45 3e e8 6b 80 be
       0.37242174 -0.32970002 0.19266912 -0.25082326
000090 0b 94 4e bc a8 ee 8b be e9 f7 ea bd 81 75 97 bd
       -0.012608538 -0.27330518 -0.11473066 -0.07395459
0000a0 b6 aa 8a 3e 89 1d b4 be 1a 29 96 3e 97 24 d8 3c
       0.27083367 -0.35178784 0.29328233 0.026384635
0000b0 68 7a 88 3e 8a 5d 9f 3e 7e bb 3c be 2a 95 0b 3d
       0.2665589 0.31126052 -0.18430898 0.0340778
0000c0 9d 70 c7 be 85 ce c5 3d 22 79 95 3d db ad a3 be
       -0.38953105 0.09658531 0.07298495 -0.3196858
0000d0 91 8a 49 3e 8d 2f 31 bf df c6 1e 3e 6c 97 5f 3e
       0.19681765 -0.6921318 0.15505551 0.21835107
0000e0 9c c4 eb 3e 7f a2 4b be 02 d7 47 bd dd e3 09 be
       0.4604844 -0.19886206 -0.04878903 -0.13465829
0000f0 2d 2d b9 ba 7b e5 28 bf eb db b7 3e 1d 41 01 bf
       -0.0014127843 -0.6597516 0.35909972 -0.5048998
000100 22 a4 0d 3e 5c 39 a6 3d b3 26 eb 3d 7a 62 53 be
       0.13832143 0.08116409 0.11481991 -0.20643035
000110 ab 49 a6 bd 47 a6 b2 3c 07 1b 82 3e 74 be 5f be
       -0.0811952 0.021807803 0.25411245 -0.21849996
000120 9c f2 84 be f7 d0 80 3e ac e8 95 bd fe 4d 6d bc
       -0.25966346 0.25159428 -0.07319769 -0.014483927
000130 0d 0b 8b bd 8b 13 74 3e 1a 3c a3 bc a3 4f 75 bd
       -0.06789217 0.2383558 -0.01992612 -0.0598904
000140 11 73 ff bd 17 06 39 3e ef 60 fc bb be dd e2 3d
       -0.12473119 0.1806873 -0.007701985 0.1107745
000150 54 94 6b be 4f 57 76 3d 90 22 93 be e4 cb 53 3d
       -0.23005801 0.060141858 -0.28737307 0.051708117
000160 76 09 8e 3e da 7b a4 3d 4c 3c f4 bd ee 19 e4 3d
       0.27741593 0.08031435 -0.11925563 0.11137758
000170 7f 88 70 3d d7 fa 87 bb 90 8a cf 3d 3b d9 a9 bd
       0.058723923 -0.0041497755 0.101338506 -0.082933865
000180 09 5f dc 3d d2 4f 45 be 9b 34 a6 3e ce 9d a6 3e
       0.10760314 -0.1926873 0.3246201 0.3254227

Mixer_Block.0.mlp_block_token_mixing_DynaMixerOperation.fc_out.weight f4 [66, 66]
000000 49 5e 11 bf 0d cc df 3d 8c ad 93 3e a0 6a 9e 3e
       -0.5678449 0.109275915 0.28843343 0.30940723
000010 40 58 84 be eb ce 90 3e 2a 87 42 3e 84 26 dc bd
       -0.2584858 0.28282866 0.18996873 -0.10749534
000020 24 52 de 3c 28 0f a7 bd 75 0f 83 3e fb 30 ac 3e
       0.027138777 -0.08157188 0.2559773 0.3363112
000030 67 db 4d 3e 41 c5 0f 3e 1c 10 31 3e 70 c5 60 bc
       0.20103227 0.1404009 0.17291301 -0.013718948
000040 6a 2b ca bd 68 2d 7d bc 24 27 05 3e 6a 46 43 be
       -0.09871562 -0.01545272 0.13003212 -0.1906983
000050 f6 34 0b be 01 dd c1 bd 39 13 ac bd 8e 22 20 be
       -0.13594422 -0.09465981 -0.08402104 -0.15638182
000060 71 3c a0 be 52 8b 1d 3e 01 9c 71 bd af aa 04 3c
       -0.31296113 0.15385178 -0.058986668 0.008097335
000070 d6 0d 01 3f 4c c0 8a 3e a6 cc 4c bd 05 eb 3f bc
       0.50411737 0.27099836 -0.049999855 -0.011713748
000080 d4 bb a4 be ef bb 3a be a9 f2 42 3d 8f 94 d1 be
       -0.3217455 -0.18235753 0.0475947 -0.40933654
000090 4d 8c 7e bd 43 7a 85 3e f0 bf 5d bd 1c 5a fc 3d
       -0.06214552 0.2606984 -0.054138124 0.123218745
0000a0 55 00 44 bd 24 db fd bc 03 f3 2f be d8 79 27 3e
       -0.04785188 -0.030988283 -0.17182545 0.16355073
0000b0 57 20 d1 3d ca bb a6 bd eb e7 f1 3d cd a5 d4 be
       0.102112465 -0.08141287 0.11811813 -0.41532746
0000c0 78 7b 0b be e0 51 02 3e d2 07 85 3d ef d5 ed bd
       -0.13621318 0.12726545 0.06495632 -0.1161307
0000d0 98 99 4e 3e ac e0 70 3e 59 1e 81 bc 64 e4 ca bd
       0.20175779 0.23523206 -0.015761541 -0.09906843
0000e0 c3 95 0b 3d a5 c7 84 bc a0 4b ab be a8 77 95 bc
       0.03407837 -0.01620848 -0.33456135 -0.018245533
0000f0 d7 80 90 3e 04 a1 9f bd 2e e9 91 3e 6d 10 94 3e
       0.28223297 -0.07794383 0.28498214 0.28918782
000100 09 4a 85 be bf c7 c2 be e5 26 36 be 74 3f c6 bd
       -0.26033047 -0.3804302 -0.17788275 -0.096800715
000110 b7 c5 8d 3c 7c 32 f4 bc af 50 a7 3d 63 c5 17 be
       0.017306192 -0.02980923 0.08169686 -0.14821391
000120 76 0e 5d 3e 70 6f 93 3e 0f 6f 3b 3e a8 66 42 3e
       0.21587548 0.28795958 0.18304084 0.18984473
000130 7f d0 24 be 7e 21 42 bd 48 b6 75 3d 43 7d 5b 3e
       -0.1609516 -0.047395222 0.05998829 0.21434502
000140 d9 c9 b2 3e 4d 9f 38 bd 8b 24 50 bc 7d 7f b0 3d
       0.34919623 -0.045073796 -0.012704025 0.086180665
000150 1f 9d 67 bd c1 b7 9e bd dc a8 13 3d 87 dc 36 be
       -0.056546327 -0.07749892 0.03604971 -0.17857562
000160 31 d0 81 be 8f 00 85 be c1 9a 0f bd 68 b1 f8 3d
       -0.2535415 -0.2597699 -0.035059694 0.121432126
000170 40 02 0d be 1d 10 be be b9 00 b9 bd 57 a0 7b 39
       -0.1377039 -0.37121668 -0.09033341 0.00023996957
000180 f4 e4 3b 3d 29 ba 5b be 2c 2f 65 3d e5 c4 00 be
       0.045872644 -0.21457733 0.05595319 -0.1257511
000190 a1 02 7a bd 15 41 59 3e 05 e7 0f 3e 7a a8 e1 bb
       -0.061037663 0.21216233 0.1405297 -0.006886539
0001a0 50 05 c9 bb 4b 06 32 bd 90 66 93 3e eb 0e 76 bd
       -0.0061346665 -0.043463033 0.28789186 -0.06007282
0001b0 64 e1 3b bc b8 6d f2 be be 29 da 3d 53 cf 8d 3e
       -0.0114673115 -0.47349334 0.10652493 0.27697238
0001c0 bc 98 9d 3d 39 26 be 3d 3d 3e 12 be 03 fa 29 be
       0.076951474 0.09284634 -0.14281555 -0.16599278
0001d0 04 3d 23 3e ac 90 ce bd 54 84 ac bc 3e d4 cb bd
       0.15941244 -0.10086188 -0.021059193 -0.09952591
0001e0 d6 f4 2f be 00 c7 ca bd 5c 1d 77 3d 6f 0b 44 be
       -0.17183241 -0.099012375 0.060330734 -0.19144987
0001f0 f8 39 d7 3d d3 22 5e 3e 95 c3 fa bd 86 2a 1b be
       0.105091035 0.21692972 -0.122443356 -0.1515294
000200 de 3f bd bd 8c 87 d7 3e 6e a4 84 3d 89 a0 b2 3e
       -0.09240697 0.42095602 0.06476675 0.34888104
000210 ed 64 fc 3c 11 f7 36 3e 5f 95 df be ba 02 3c be
       0.030809844 0.17867686 -0.4366865 -0.18360415
000220 b8 40 c8 3d 6e 2d 39 bd df 9c 0c 3e 9d bc 0f be
       0.09777969 -0.04520934 0.13731717 -0.14036794
000230 a8 e8 1a bd 31 00 42 3e 59 76 13 be fa 5e 84 3d
       -0.037819535 0.18945386 -0.14400615 0.06463428
000240 b4 35 bf 3e ba 2c 9a bd fc 16 65 be be 79 a0 bd
       0.3734566 -0.07528062 -0.22372049 -0.078357205
000250 92 a0 8c bd db 1f 30 be 93 c8 c6 3d ea 5c 1f 3d
       -0.06866564 -0.17199652 0.09706225 0.03890697
000260 a7 37 4b bd 38 96 78 3e 8e 2a 7c be fc f9 1c bc
       -0.04961362 0.24276054 -0.24625608 -0.009581085
000270 72 a8 b5 3d c3 8b 8c be 67 e1 96 3d 40 b3 07 3e
       0.08870019 -0.2745038 0.07367211 0.13251972
000280 e5 c6 34 3e f9 47 81 3e 8c 93 a2 3d 4e 62 09 3e
       0.17653997 0.25250223 0.079382986 0.13416407
000290 6e d8 79 be 15 ad f5 3e 24 e5 b6 3d f5 f1 25 3c
       -0.24398968 0.47983614 0.08930424 0.010128488
0002a0 f6 6f 51 bd 47 d9 46 3d 99 3e 9a bd 54 4e 1c be
       -0.051132165 0.048547056 -0.07531471 -0.15264255
0002b0 77 b8 74 3e 0d 62 06 be c8 c5 2b be d0 e1 75 bd
       0.23898493 -0.13123341 -0.16774666 -0.060029805
0002c0 80 7f 66 bc 35 89 56 bd ef 8f e1 3b 5e 1d b9 bd
       -0.014068484 -0.052376945 0.0068836133 -0.090388045
0002d0 86 35 74 bc 09 77 85 3e 05 33 16 bd 01 eb 0e 3e
       -0.014905339 0.2606738 -0.03666975 0.13956834
0002e0 18 7f a0 3c f3 96 b7 3c 95 29 3b 3e f3 e7 2a 3e
       0.019591853 0.022410845 0.18277581 0.16690044
0002f0 42 98 9a bd 24 88 39 be 66 c1 42 3e e0 32 13 3d
       -0.07548572 -0.1811834 0.19019088 0.03593719
000300 32 b5 96 bd 98 37 bc 3c 3b 7a 70 3e d7 3d da bd
       -0.07358779 0.022975728 0.23484127 -0.10656326
000310 86 44 20 bd ed 07 fd bd f9 bc 01 be f3 96 48 3c
       -0.03912785 -0.12355027 -0.12669744 0.01224302
000320 48 22 6c be 29 22 9e be e3 36 c9 3d d8 5e 3c 3e
       -0.23059952 -0.30885437 0.09824922 0.18395555
000330 fe f8 07 bd 0b 63 5f be 02 02 90 bb 88 93 2a be
       -0.03319644 -0.21815126 -0.0043947706 -0.16657841
000340 a1 20 56 bd a5 fa 80 bd 05 9d 98 bc b3 de 3e bd
       -0.05227721 -0.06297807 -0.01862956 -0.0465991
000350 ec 24 86 be 8f 33 e8 be 89 b3 4f be 4c 43 0d be
       -0.26200044 -0.45351836 -0.20283331 -0.13795203
000360 82 d9 a9 3d 6f e1 a7 be 27 83 9a 3e 1a d1 81 3c
       0.082934394 -0.3278918 0.30178186 0.015846778
000370 42 0d 28 3e 96 87 bb 3e 8c 4b cb 3d 0a ae a8 3e
       0.16411307 0.3662688 0.09926519 0.3294528
000380 34 ea b9 3e f5 cd 3b be 77 1d 69 3c cf 1e 55 3e
       0.36311495 -0.18340285 0.014228216 0.20812534
000390 6b ae a2 3e 79 42 0c 3d 2a ee 90 be c4 dc 43 3d
       0.31773695 0.03424308 -0.28306705 0.04781796
0003a0 32 d9 10 3e d2 74 77 3d f1 b4 af 3e 28 5f c7 bd
       0.14145353 0.060414143 0.34317735 -0.097349465
0003b0 0c a5 af 3d 2e 97 88 be 4f 78 4a be e5 19 a3 be
       0.08576402 -0.2667784 -0.19772457 -0.31855693
0003c0 21 e5 d8 3d 3a 65 bd 3e fc 4c 8b bd fb 10 63 be
       0.10590578 0.36991292 -0.06801793 -0.22174446
0003d0 64 94 f1 3d 75 5b 25 3e 41 a0 79 bb da 21 60 bd
       0.117958814 0.1614817 -0.0038089904 -0.054719783
0003e0 d1 db 84 bd 81 cb 8e 3e bc 2d 3e 3d 8f c6 7b 3e
       -0.06487239 0.27889636 0.046430334 0.24587463
0003f0 11 38 74 3e 32 f3 e1 3d db 27 af bc e9 94 2f be
       0.23849513 0.11032714 -0.02138131 -0.17146648

Mixer_Block.0.mlp_block_token_mixing_DynaMixerOperation.fc_out.bias f4 [66]
000000 b2 a7 4d 3e 09 88 44 bf 25 65 97 be 22 0b 9b be
       0.20083502 -0.76770073 -0.29569355 -0.3028193
000010 14 6f fc bd 3a f8 53 3e 57 04 7a 3e 0f 48 13 be
       -0.12325874 0.2070016 0.24415718 -0.14382957
000020 65 82 53 3c ea da 06 bf 3e d1 6e be 11 fd dd be
       0.012909506 -0.52677786 -0.23322007 -0.43357137
000030 cd af 31 3e 0e ae f4 3d bd 06 fc be 95 37 cb 3c
       0.17352219 0.11947261 -0.4922389 0.024806777
000040 00 2d be be 22 58 9a 3e 3a d9 8c 3e ab 4b d2 3d
       -0.37143707 0.30145365 0.2750948 0.10268339
000050 d4 83 04 bf 19 66 b8 be 64 95 2b be dc f3 8d 3e
       -0.51763654 -0.36015394 -0.16756207 0.27725112
000060 bf 53 d8 3e b0 3a d0 bd cb 5d 5a be 4b d0 82 be
       0.42251393 -0.10167444 -0.21324842 -0.2554954
000070 86 c7 bc be dc d0 49 bd 96 ee 7d 3d ed f7 71 be
       -0.36870974 -0.04927145 0.06199511 -0.23629732
000080 e0 63 68 3e 70 e7 fb be 66 30 cf 3d 56 e4 8a be
       0.2269435 -0.4920001 0.10116653 -0.27127331
000090 b7 91 85 3e 0d e7 c5 3d 0b 2d ae bd d0 61 8c be
       0.26087734 0.0966321 -0.08504685 -0.27418375
0000a0 d5 18 02 bd 54 22 89 3d 72 e9 03 bf 4d c4 e6 be
       -0.031761963 0.06696001 -0.51528084 -0.4507164
0000b0 3e 5d bf bd 47 35 1a be 3b 0e ad be 8a 9a 7b 3e
       -0.093439564 -0.15059386 -0.3379992 0.2457067
0000c0 e7 dd 9a 3d 7e 78 0f bf d1 93 de be a4 00 d7 3d
       0.07561856 -0.5604323 -0.4347215 0.10498169
0000d0 83 35 10 3d 0d fa 87 be f3 81 a0 bc 2d 07 83 be
       0.035207283 -0.2655796 -0.019593215 -0.25591412
0000e0 0d 2d 63 3e be 64 c0 3e ef e5 f7 3d 02 b4 b1 bd
       0.22185154 0.3757686 0.12104403 -0.08676912
0000f0 47 0e f4 3d c4 1d 4a bc 96 70 40 bf 2c dd 81 3e
       0.11916786 -0.012336198 -0.7517179 0.25364053
000100 4f 45 bb bd 4e d3 c0 bd
       -0.09144079 -0.09415303

Mixer_Block.0.mlp_block_token_mixing_DynaMixerOperation.LN.weight f4 [10]
000000 c7 94 88 3f cb ff a2 3f 50 c1 b4 3f 5a d4 96 3f
       1.0670403 1.2734312 1.4121494 1.1783555
000010 5e 2b aa 3f 88 cd 83 3f 88 04 af 3f 95 b5 94 3f
       1.3294485 1.0297098 1.3673258 1.1617914
000020 b5 f0 5d 3f 99 1a 60 3f
       0.86695415 0.87540585

Mixer_Block.0.mlp_block_token_mixing_DynaMixerOperation.LN.bias f4 [10]
000000 3e 32 53 3e 54 1c b4 bd 11 ec 55 be 8f 5e 97 3d
       0.20624635 -0.08794466 -0.20890833 0.073910825
000010 6c 4d 78 bd e2 4a 09 bb d3 7c 09 3e 20 41 93 3d
       -0.06062071 -0.0020949175 0.13426523 0.07190156
000020 a6 ab 14 3b a6 83 a3 3d
       0.0022685318 0.07984094

Mixer_Block.0.mlp_block_channel_mixing_DynaMixerOperation.fc_ND.weight f4 [1, 10]
000000 82 c7 46 bf ea 0f 74 3e 71 b0 f4 3d 8a cc a3 3d
       -0.77648175 0.23834196 0.11947716 0.07997997
000010 35 fd 39 3e b6 c4 95 3d c6 c9 12 3e 0d 6e c4 bc
       0.18162997 0.0731291 0.14334783 -0.023978258
000020 e7 34 1b be c1 43 dc 3c
       -0.151569 0.026887776

Mixer_Block.0.mlp_block_channel_mixing_DynaMixerOperation.fc_Nd.weight f4 [484, 22]
000000 4b 99 e7 3d 99 cc 9e 3d 22 e0 df bd 33 de 9e 3e
       0.11308535 0.07753868 -0.10931422 0.310289
000010 80 59 53 bd 93 81 9e 3e a0 78 79 be f5 5e 79 3e
       -0.051599026 0.30958232 -0.24362421 0.2435263
000020 e1 af 05 3e 84 44 eb bd 6d aa fb 3d c3 1e 0c be
       0.13055374 -0.11487678 0.122883655 -0.1368361
000030 c9 d7 e5 bd 50 b8 7a bb 11 4e b9 bd 8a d6 d1 be
       -0.112227984 -0.0038256831 -0.09048093 -0.40983993
000040 2a cc a8 bd e2 21 83 3d 87 f1 fb 3b e4 88 12 3e
       -0.08242066 0.06402947 0.0076887044 0.14310032
000050 50 cb b1 bd b0 33 30 3e b9 92 8e be c0 b7 11 be
       -0.08681357 0.17207217 -0.27846316 -0.14230251
000060 6f a6 cb 3d dd 4c 1c 3d 6c 28 56 3e 41 6c 9c 3e
       0.09943854 0.03815924 0.20913857 0.3055134
000070 19 09 2c be a8 f6 6c bd 18 a2 69 3e e1 32 52 3c
       -0.16800345 -0.057852417 0.2281574 0.012829513
000080 28 7b 7b 3e 6a 46 42 be d4 83 f9 3c 6e b0 ee 3d
       0.24558699 -0.18972173 0.030458368 0.11654745
000090 c3 c6 8f bd 29 2b b3 bd fb e8 cf 3d 5f 97 5f 3e
       -0.07020333 -0.087484665 0.101518594 0.21835087
0000a0 b1 0c a7 3e a0 6d e6 3d e1 56 c3 3d 8e 4c c3 3d
       0.3262687 0.11251378 0.09538055 0.09536086
0000b0 8f a6 51 be dd 45 ed bd cb ba af 3c 38 25 d6 3e
       -0.20473693 -0.11585591 0.021451375 0.4182527
0000c0 c4 5b 03 bd 11 e3 ed 3e df 95 14 3e 76 7a 12 be
       -0.032069936 0.464623 0.14510296 -0.14304528
0000d0 b5 51 6c 3e 35 e4 bf 3e fe 22 9f 3d 23 bf bb be
       0.23078044 0.37478796 0.07770346 -0.36669263
0000e0 4b 4b c8 bc cf 5e 40 3d fd 09 a0 3b 04 55 9c 3e
       -0.024449965 0.046965417 0.004884003 0.30533612
0000f0 d5 80 2f be a9 03 5d 3e d4 b2 bf 3e 57 f7 82 be
       -0.1713899 0.21583427 0.37441123 -0.2557933
000100 fc 75 04 be 53 6c 2d 3e 2a d6 a5 bd b6 6d f4 3b
       -0.12935632 0.16935854 -0.08097489 0.0074593676
000110 13 5c 54 be f4 7a df 3c ed bb 06 be 92 8f 56 be
       -0.20738249 0.027280308 -0.13157625 -0.20953205
000120 01 45 1f 3e 13 6f 38 be 72 e6 d6 bd 6f 95 f8 3d
       0.15553667 -0.18011121 -0.10493173 0.12137877
000130 8f e4 50 3e 0a 0f 2b 3e 85 79 75 be 3f 2c 90 bc
       0.20399688 0.16704956 -0.23972137 -0.017599223
000140 e4 69 85 bd 10 ee 80 be 86 c8 f1 bd 8f df b7 3e
       -0.06514338 -0.25181627 -0.11805825 0.3591275
000150 cf df 46 bd 55 a6 a4 bb 1a d1 89 bd 31 ff 07 3e
       -0.048553284 -0.005024711 -0.06729336 0.13280942
000160 42 21 45 be 34 90 02 3e d3 2d d0 3e 9a 88 c6 bc
       -0.19250968 0.12750322 0.4065996 -0.024235059
000170 63 d7 93 be c3 f9 bd 3d 65 e8 1d be 51 33 ad bc
       -0.28875265 0.09276154 -0.15420683 -0.021142634
000180 60 9d 16 be 26 3e 6a bc d5 33 15 be 19 61 2d bd
       -0.14708471 -0.014297044 -0.14570554 -0.042328928
000190 92 d5 b5 be 52 09 88 3e 0a 62 c5 bc e5 27 2d be
       -0.35514504 0.2656961 -0.0240946 -0.1690975
0001a0 b1 3d 00 3f 51 ef a3 be 66 64 2e bc df 12 7f bd
       0.50094134 -0.3201852 -0.010644054 -0.062273856
0001b0 5c a6 fc bd fc e8 1e bd a0 4b 0a 3e 59 74 39 3e
       -0.12336418 -0.03879641 0.13505411 0.1811079
0001c0 d2 3c 80 bd c0 ea 42 be 58 ab 5f be 07 cd 95 bd
       -0.062616006 -0.19034863 -0.21842706 -0.073144965
0001d0 7d 01 2f 3e 88 ae b9 be ae 27 bd 3d 5d b4 44 bc
       0.17090411 -0.3626597 0.09236084 -0.012005893
0001e0 c2 27 3e 3e be 26 bf 3d 9f 1c bc 3d 31 93 1f 3e
       0.18569854 0.09333561 0.091851465 0.15583493
0001f0 c6 d6 00 3e d9 91 a1 bd cc 0c b2 bd 7f aa 59 3e
       0.1258193 -0.07889146 -0.08693847 0.21256445
000200 ad 8c d7 3e d2 42 1d 3e 40 97 b8 be 0e ce 4a bd
       0.42099515 0.15357521 -0.36052895 -0.049512915
000210 28 df 22 3c e2 95 71 3e e0 ca 55 be 64 3c 80 be
       0.0099409 0.23592332 -0.20878172 -0.25046074
000220 fc 27 fb 3d 5d b5 96 3e 74 e8 b8 3e e8 a0 3f be
       0.12263486 0.29435244 0.36114848 -0.18713725
000230 dd e5 a7 3d ff ef a5 be 30 a6 46 bd 12 62 09 3e
       0.0819814 -0.32409665 -0.048498333 0.13416317
000240 a5 7f 3c be a3 f4 81 3e b4 4b 5e be 25 14 9c 3e
       -0.18408068 0.25381956 -0.21708566 0.3048412
000250 cc 49 5e 3d 92 1f 61 3d a2 a7 b0 39 df f6 e0 3d
       0.054269597 0.05496175 0.00033694232 0.10984587
000260 3a 69 ef bd 2c f7 43 3d 9c 50 44 3e 21 99 00 3e
       -0.11689992 0.047843143 0.19171375 0.12558414
000270 ac d2 83 be 05 b7 c8 bd 51 50 91 3b 33 3d 0b be
       -0.25746667 -0.09800533 0.0044346233 -0.13597564
000280 ce 14 f0 3e 6a 00 b9 bd db d4 88 3e 00 74 5a be
       0.46890873 -0.09033282 0.26724896 -0.21333313
000290 83 27 a9 3c e4 ea 05 be 4f e7 8b 3e a3 71 8a bd
       0.020648723 -0.13077885 0.27324912 -0.06759956
0002a0 e6 38 99 3e 5f e4 33 3e 88 48 ce bc ed da f6 3d
       0.29926223 0.17567585 -0.02518107 0.120534755
0002b0 eb c0 a2 be 4a 9b b6 3a 88 73 0a be ad 6d 52 bd
       -0.3178781 0.0013931778 -0.13520634 -0.051374126
0002c0 5f 74 eb 3d 75 71 9c 3e a5 ab 23 be fd da 81 3e
       0.114968054 0.3055531 -0.15983446 0.25362387
0002d0 d4 f8 a4 bc ba 25 01 be c0 a4 00 3e 7b 19 0c 3e
       -0.020138182 -0.12612048 0.12562847 0.13681595
0002e0 ff 0c 3a 3d e0 3f c3 3d 66 44 8d be b7 b6 ca 3b
       0.04542255 0.095336676 -0.27591246 0.006186332
0002f0 e5 4c 4f bd 21 4b 88 be 94 0f 80 bd c8 ad 97 be
       -0.05061044 -0.2661982 -0.06252971 -0.29624772
000300 a7 cf 83 be 4b c7 34 bb 34 91 bc be b5 56 1b 3e
       -0.25744364 -0.0027584608 -0.3682953 0.15169795
000310 ca 75 5a 3d d3 84 5b 3e 90 17 b0 bd 3f 6e 40 be
       0.05333499 0.21437387 -0.08598244 -0.18792056
000320 db 85 4f 3e 37 83 0e be e0 be 83 3e c7 34 85 bc
       0.20265906 -0.13917242 0.25731564 -0.016260518
000330 76 79 f8 bd 61 b9 9b bd b7 0b a1 3e 1c a0 55 be
       -0.12132542 -0.076037176 0.3145425 -0.20861858
000340 5e 28 d0 3d 19 63 35 3c b2 1a 6d be db 4f 84 bd
       0.101639494 0.01107099 -0.23154715 -0.06460544
000350 55 ca 39 3e c4 1f 1d be 30 e4 2c 3e e2 18 61 bd
       0.1814359 -0.15344149 0.16883922 -0.05495537
000360 30 5c 5f 3e 70 ad 6a bc bb 7c 12 3c f9 d0 7a be
       0.2181251 -0.014323577 0.008940871 -0.24493779
000370 1a 34 ed bc a0 1f 46 3e 93 44 f9 3e 62 2d 60 3e
       -0.028955508 0.19348001 0.4868513 0.21892312
000380 c4 89 e5 bb 1d d3 8b 3d 31 64 2d 3e f7 1c 03 3e
       -0.0070049483 0.06827376 0.16932751 0.12804018
000390 ed fa 3c be 99 38 a8 3d 07 77 95 bb 40 3e 35 be
       -0.18455096 0.0821392 -0.0045613083 -0.17699528
0003a0 15 0b 8a 3d 18 98 d5 be 20 50 92 3d 6f a7 15 3e
       0.06740395 -0.417176 0.07144189 0.14614652
0003b0 1d 87 82 bc 9b ac 97 3d b4 b0 92 be 78 18 b1 3d
       -0.015933568 0.07405969 -0.2865044 0.08647245
0003c0 70 60 cd 3e b2 2c 9a bd 6f ec cb 3d ce e0 80 3e
       0.40112638 -0.07528056 0.099572055 0.25171512
0003d0 80 8d 36 3e 64 d6 1e be 3c df 61 bc 49 15 3a ba
       0.17827415 -0.15511471 -0.013786133 -0.00070985086
0003e0 a5 4a 7f bd d0 17 6c be 76 53 15 3e 94 71 65 bd
       -0.062327046 -0.23055959 0.14582619 -0.05601652
0003f0 90 ed 10 3e 3d 32 b8 3d 7a dc 0c be 0a a5 af bd
       0.14153123 0.08993957 -0.1375598 -0.085764006

Mixer_Block.0.mlp_block_channel_mixing_DynaMixerOperation.fc_Nd.bias f4 [484]
000000 e1 f2 c2 3d 8e 95 4f 3c e3 e4 05 be 4b af 43 be
       0.09518982 0.012669934 -0.13075595 -0.19109838
000010 4e 76 41 3e 1c 9c 40 3e 66 e8 96 3d 9a 93 61 3e
       0.18892786 0.18809551 0.07368545 0.22028962
000020 07 32 11 be b1 4f 24 3e ea c6 df bd a8 e6 00 3e
       -0.1417924 0.16046025 -0.10926612 0.12587988
000030 1e 6b 89 bc 7d e4 c7 3d 78 58 57 bd 65 1e e5 bd
       -0.01677471 0.097603776 -0.052574605 -0.11187438
000040 dd 3a 8f 3d 89 42 61 bd e7 ac ae 3e 88 42 6a 3e
       0.06993649 -0.054995093 0.3411629 0.22876942
000050 68 cd 5c 3e c5 52 d1 bd ad e9 8c bd 1e e9 03 be
       0.21562731 -0.10220865 -0.068805076 -0.12881896
000060 03 4c 16 3d 71 3f ef 3d f0 d9 79 3d f9 af fb 3d
       0.036693584 0.11682022 0.060998857 0.122894235
000070 9d 3e d8 3e 8f 3e 2b 3e 99 3b 57 3e 8e 1d 0a be
       0.4223527 0.16723083 0.21018828 -0.13487837
000080 8a ce 65 3e af b2 e5 3b d2 d3 de 3d 4d eb eb 3d
       0.2244207 0.007009826 0.10880245 0.115194894
000090 13 01 1c be ba b6 2a bd 5d 78 2d be d5 0e 90 3e
       -0.15234785 -0.041678168 -0.16940446 0.28136316
0000a0 95 99 dc bc b3 83 1e bd 2b c6 84 bb 3c 1f a9 bd
       -0.026928702 -0.038699817 -0.004051944 -0.082579106
0000b0 6d 09 31 bb 0d 31 86 3d 0f 64 8b bc 90 4a 87 be
       -0.0027013675 0.065523244 -0.017015485 -0.26424074
0000c0 92 8b 7e bd fa 43 cf bd 17 f3 5b 3e 3b 90 dd 3d
       -0.062144823 -0.101203874 0.2147945 0.108185254
0000d0 fc 29 22 3e c2 44 70 3e b5 3a 1e 3c f3 63 57 be
       0.15836328 0.23463729 0.009657552 -0.21034221
0000e0 5d fb f0 3d 3f ea bd 3c 36 74 66 3e 7e fe 74 3e
       0.11766694 0.023182986 0.22505268 0.23925206
0000f0 5e fe 8d ba 2c 65 0b 3e 00 83 a3 3e fc ea c6 bd
       -0.0010833254 0.13612813 0.31935883 -0.097127885
000100 0c cc 81 3d 51 1a 42 3e b8 c0 9f 3d 56 fd ae bd
       0.06337747 0.18955351 0.0780043 -0.08544414
000110 f8 88 0c be 94 9c cf be 45 dd 96 3d 6a b4 2f bd
       -0.13724124 -0.40549147 0.073664226 -0.042896666
000120 a2 64 26 3e c7 a4 84 3e b6 64 18 3e a1 4d 22 be
       0.16249326 0.25906965 0.14882168 -0.15849926
000130 72 2d 74 3e bb 21 9f bd 48 ff a1 3e d8 fa e5 3d
       0.23845461 -0.077701055 0.31640077 0.11229485
000140 8f 89 48 be ef 4f 3c 3e 3a 48 54 3e 02 0d 00 bd
       -0.19583724 0.18389867 0.20730677 -0.031262405
000150 33 24 84 be 19 6e a9 be 85 21 80 be f5 fe 8f 3d
       -0.25808868 -0.3309181 -0.25025573 0.07031051
000160 4a 1a 84 be c0 eb cb 3b a3 4f a4 3e 00 2b 4a be
       -0.25801307 0.006223172 0.32092008 -0.19742966
000170 73 0c c6 3e 8a 00 ce 3c c0 ba 7c 3c ab b0 ad 3e
       0.38681373 0.025146741 0.015425384 0.3392385
000180 df a8 21 be 1f 4a 60 3a 5e db 08 3e e4 b4 19 3e
       -0.15787075 0.0008555967 0.13364932 0.1501041
000190 ad c3 52 be 6d 6b 97 3e 20 20 b3 3d 4c d4 7e be
       -0.20582457 0.29574147 0.08746362 -0.24885672
0001a0 86 78 69 3c 73 fa 51 be fb fb 73 3e 37 a0 43 3e
       0.014249926 -0.20505695 0.23826592 0.19104086
0001b0 59 35 17 be 8b aa 57 be ee e3 24 bd 25 8d 0d be
       -0.14766444 -0.2106115 -0.040256433 -0.13823374
0001c0 32 6e 67 bd 34 d5 92 3e e0 7e e8 bd 83 bc 46 3e
       -0.056501575 0.28678286 -0.113523245 0.19407849
0001d0 c2 97 c5 3e 50 cf bc bd f1 fc 8c 3d 43 96 59 be
       0.38592345 -0.09219229 0.06884182 -0.21248727
0001e0 a1 50 59 3e 94 8d 56 be c1 38 82 bd 73 09 59 bd
       0.21222164 -0.20952445 -0.06358481 -0.052987527
0001f0 cc e6 84 be 8e d9 16 3e b8 0d 68 be 36 44 df bd
       -0.25957334 0.14731428 -0.22661483 -0.10901682
000200 d9 b6 13 3c 75 c9 b3 3c c1 b5 fc 3a b3 90 ee 3d
       0.009015762 0.021946648 0.0019280241 0.11648693
000210 1f 7e 00 bd 9b 43 49 3e 1f 76 b8 bc c4 5e b9 be
       -0.03137028 0.19654696 -0.022517262 -0.36205113
000220 ee c1 43 3c 80 af 8b 3e fc 3a 37 be 88 e2 ba 3e
       0.011948092 0.27282333 -0.17893595 0.36500955
000230 4f 9b bd bd ac 5d c6 be 00 6e a1 bd e7 18 b4 be
       -0.092581384 -0.3874334 -0.07882309 -0.3517525
000240 78 d9 2f 3e e6 59 01 3d ab 36 30 3e aa 40 8c bd
       0.17172801 0.031579874 0.17208354 -0.06848271
000250 17 cb a9 3e ba 9a 91 bb ef 4c 0d be 12 f6 99 be
       0.33162758 -0.0044434937 -0.13798879 -0.3007055
000260 66 0a 8e be 4d d9 4c be 94 4d 8c 3e 8d 9e 23 bb
       -0.27742308 -0.20004769 0.27402937 -0.002496633
000270 4e 90 9b 3d 20 98 f5 bb 3f 64 a1 3d e8 29 10 be
       0.07595883 -0.0074949414 0.078804485 -0.14078486
000280 76 07 ab be 5a 3c 11 be e7 7e bd be c4 0b e2 3d
       -0.3340413 -0.14183179 -0.3701088 0.110374
000290 45 15 2d be ec 50 21 3d b4 e0 2b be c8 c4 1d 3e
       -0.16902645 0.039383814 -0.16784936 0.15407097
0002a0 f2 b1 1e 3e ec 5b 0f bd d0 76 ee bd d3 ba cb bd
       0.15497568 -0.034999773 -0.116437554 -0.09947743
0002b0 f6 2e 27 be 3e d9 e3 3e ee f3 65 bc a0 36 fc bd
       -0.16326508 0.4450168 -0.014035208 -0.123151064
0002c0 21 a0 1b be 99 e2 02 bd 4a 43 10 3d 48 43 f4 bd
       -0.15197803 -0.03195438 0.03522042 -0.119268954
0002d0 e7 9a c7 3d a5 1a 05 3e ba 4e a9 3c 0e 09 72 be
       0.09746342 0.12998445 0.020667423 -0.23636267
0002e0 1e d7 79 be 88 26 45 3e c7 f8 12 3c d5 43 30 bd
       -0.24398467 0.1925298 0.008970446 -0.04303344
0002f0 85 c3 2b 3e 41 e6 b0 3e 1d d4 61 bd 2f 0c bd 3e
       0.16773804 0.3455067 -0.055133928 0.36923358
000300 9e 93 1c be 83 94 3b 3e 52 b0 dc bd b5 cf 96 3d
       -0.15290686 0.18318371 -0.10775818 0.07363836
000310 59 46 93 be 9b ac ee 3c 40 54 5a 3d d0 37 70 be
       -0.28764609 0.02913504 0.053303003 -0.23458791
000320 7a 00 97 3c a7 84 18 be 41 16 9c bd 1a 4b 8f be
       0.018432844 -0.14894353 -0.07621432 -0.27986985
000330 cd 4e 2c be 85 e2 ee 3d a6 c5 3c 3d c3 57 99 3e
       -0.16826935 0.11664299 0.04608693 0.2994977
000340 ac 46 b2 3d 51 d2 0f 3d c3 be 9b bc 20 d9 b8 3e
       0.08704886 0.035112683 -0.01901186 0.36103153
000350 dd 1c c0 3d a7 2d 50 be 8a 25 ef bc 60 51 4d 3e
       0.09380505 -0.20329915 -0.029192705 0.20050573
000360 c2 39 63 bd c1 f7 1e be 4b 23 df bd 26 de 91 be
       -0.055475004 -0.15524198 -0.108954035 -0.28489798
000370 2e 93 2d be 59 f7 e2 bd 18 f2 32 bd 5f 9c c4 3d
       -0.16950676 -0.11082334 -0.04368791 0.09600138
000380 b9 7b 83 bc 26 18 5c 3e 5d 8a 94 be cd c2 34 be
       -0.016050206 0.21493587 -0.29011813 -0.17652436
000390 d2 64 9b 3e b7 0d 86 3a 21 fa 3c 3d cf 66 27 3d
       0.30350357 0.0010227476 0.04613698 0.04086953
0003a0 46 e0 90 be 0b c8 ac 3d 48 9b 44 3e 6d aa 97 be
       -0.28296107 0.08436593 0.1919986 -0.29622212
0003b0 6d eb 7d 3e e3 98 81 3c 5b 12 af 3e ec 51 42 be
       0.24796839 0.015819972 0.34193692 -0.18976563
0003c0 7f 7e 3a 3d a1 93 c5 bd ab a2 66 3e cd 40 3b bb
       0.045530792 -0.096472986 0.2252299 -0.002857256
0003d0 4b 7b 05 3e 34 46 3f be 0f 55 bc 3e 2e 57 45 be
       0.13035314 -0.18679124 0.36783645 -0.19271538
0003e0 95 1d 70 bd 4d 21 5a bd 4e 7b 05 be 93 54 07 3e
       -0.05862196 -0.053254414 -0.13035318 0.13215856
0003f0 53 65 26 be c0 9a aa bd 7f 18 0c 3e cd 76 a3 3e
       -0.1624959 -0.083302975 0.1368122 0.31926575

Mixer_Block.0.mlp_block_channel_mixing_DynaMixerOperation.fc_out.weight f4 [10, 10]
000000 45 5a 36 3f 9d 51 8f be 97 34 91 bb 93 94 27 be
       0.7123149 -0.27991953 -0.004431318 -0.1636527
000010 e3 cd 76 be be 16 74 be 74 88 9f be 7e 00 35 be
       -0.24101977 -0.238368 -0.31158793 -0.17675969
000020 17 54 45 bd 69 ea c5 bd f4 f9 b3 3d 18 82 93 3e
       -0.048175897 -0.09663851 0.08787909 0.2881019
000030 7b df ce 3d b4 40 26 bd da e2 c6 3c fc ea b5 3d
       0.10101219 -0.04058905 0.024278093 0.0888271
000040 e8 01 71 3d 94 99 40 be 02 a2 a7 be 26 25 35 be
       0.05883971 -0.18808585 -0.3274079 -0.17689952
000050 56 e5 31 3e 70 ee f0 3e df 92 5a be cc 10 d0 3d
       0.17372641 0.47056913 -0.2134509 0.10159454
000060 7b 2d 63 bd e5 e1 1c 3e 46 f0 a1 3d 83 81 39 be
       -0.055463295 0.15320547 0.07907157 -0.18115811
000070 08 94 d1 bd 41 66 14 bd d2 01 af 3e 16 d6 3e 3f
       -0.10233313 -0.03623033 0.34181076 0.7454542
000080 31 88 b4 be c1 2a 07 3e 76 d9 48 be 7c 90 ee 3d
       -0.35260156 0.13199903 -0.19614205 0.11648652
000090 bb 60 11 be 2a 8d 87 3d e2 0c e7 3d 90 9d 31 bd
       -0.14197056 0.06618722 0.11281754 -0.043363154
0000a0 9c 98 0c bf 5d 8e a8 3e b7 3b 6f be ca 89 a2 3d
       -0.54920363 0.32921115 -0.23362623 0.079364374
0000b0 c0 fb 3c 3d af 31 af 3e 7b 10 74 bd d0 87 02 3e
       0.046138525 0.34217593 -0.05958603 0.12747121
0000c0 34 d1 c9 bd 7f e8 54 bd d1 bc 1b be 37 61 1f 3e
       -0.098543555 -0.051979538 -0.15208746 0.15564428
0000d0 86 b2 1f bd 28 44 b1 3d 90 10 00 3e 7f 83 68 3d
       -0.038988613 0.08655578 0.12506318 0.05676603
0000e0 30 f6 db 3d 12 c2 37 3e f1 26 b9 3c f2 e1 8f 3e
       0.10740316 0.17945126 0.022601577 0.2810207
0000f0 11 b1 2a bf 31 5d 34 3f a5 5f 29 3c 3d c5 6b 3e
       -0.6667643 0.704547 0.010337745 0.23024459
000100 74 17 8f be be 2d 4a bd 63 62 5a be 9e b5 23 3e
       -0.2794758 -0.04936003 -0.21326594 0.1598725
000110 d8 29 72 3e d4 83 7b bd 82 64 f7 3e fb 33 3a bf
       0.23648775 -0.061405018 0.4831887 -0.72735566
000120 d5 c1 21 3e cb d0 22 be 18 e8 5c 3d f6 db 21 3d
       0.15796597 -0.1589996 0.05393228 0.03951641
000130 4c 31 39 be a6 3a d2 3d d1 be 9d 3d a2 b5 5b be
       -0.18085212 0.102650926 0.07702411 -0.21456006
000140 67 60 bc 3d 92 44 cb 3e a7 f6 82 3d 94 d2 21 bc
       0.09198075 0.39700752 0.063947015 -0.009876866
000150 d5 b1 26 be c8 44 af bd ff 5e 44 be 19 4b dc bc
       -0.16278775 -0.08558041 -0.19176863 -0.026891278
000160 2b 77 c0 3d 27 67 30 3e b1 7e 18 bf 12 04 a9 be
       0.093977295 0.1722685 -0.59568316 -0.33010918
000170 b0 49 96 3b bd 2e 28 be 48 d4 d7 bd af c4 82 3d
       0.004586421 -0.16424079 -0.10538536 0.06385171
000180 50 d4 23 be f1 71 7e be a3 9c 10 be f0 f7 c4 be
       -0.1599896 -0.24848153 -0.14122252 -0.3847041

Mixer_Block.0.mlp_block_channel_mixing_DynaMixerOperation.fc_out.bias f4 [10]
000000 77 77 40 3e a0 50 ea 3e b4 2e 86 3e 0d c0 12 be
       0.18795572 0.45764637 0.26207507 -0.14331074
000010 d0 f1 af be 3e ed da 3e 98 79 29 3d 44 75 20 3e
       -0.34364176 0.42759126 0.041375726 0.15669733
000020 83 17 39 3e b2 4f 49 3e
       0.18075375 0.19659308
