M_2_AST/M_2_AST/h36m/run_for_longging/exp207/model.pt (torch, 875533 bytes, 192 tensors)

Mixer_Block.0.mlp_block_token_mixing.fc1.weight f4 [20, 10]
00000000: efc1 833e 8325 a0be f960 50be d1d2 06be
00000010: 9e77 9bbe 60a2 f73e f24c 803e cd2a d23e
00000020: 2fa1 9f3d aad0 993e 3f4a 983e 0e47 1ebe
00000030: 04cd 0e3e 7b5a b1be a4c6 8f3e d144 b9be
00000040: 072b 593e 629f 96be cecd fe3e 5e31 44be
00000050: fa0b a1be 1f8f c4bd f62e 11be 604a 4c3e
00000060: 9e6c 28bf f938 113f 5fc9 6c3e d175 693e
00000070: a339 2cbf e68f 253e 9a35 923d ba71 993e
00000080: 8cf8 2ab9 3c6d 42bf f83a b2be 7a6f 1b3f
00000090: 9fd4 613e 9c3a ee3e 1192 003f a33c 183f
000000a0: f941 333f a39b 07bf 8818 663f eff1 9dbe
000000b0: c546 283d ce82 b13e eff7 f5be 3d3b cbbc
000000c0: 9224 f8bd a13a a63c 1a23 1dbe bf34 0e3d
000000d0: 0865 41bc ca18 063e 0fc0 133f 28b3 c83e
000000e0: e53e bcbe 2e56 c3bf 7f19 893c 68d4 883e
000000f0: 0642 22be c266 a53e 0f90 27be 11ae b93e
00000100: b561 ccbe fedc 143c 9a7f 02bf daae 473f
00000110: a580 55bf 6131 b03e efd9 ed3e a97c 63bd
00000120: 3306 553f 3375 57be cfdb 7dbf 2652 14bc
00000130: 2183 8a3e 1454 133f 4680 c5be b1b2 c53e
00000140: 7cca 4d3e 9929 b6be c02a de3d 6d03 debe
00000150: 28b3 073f 2756 12bf 6861 8e3d 676b 06be
00000160: 51bc a53b 4a8d d0bd 3eb8 c7bd 8c8b 2fbd
00000170: 9f39 9d3e d19e dc3e 941f d7be 5a35 04bf
00000180: 8dd8 2a3f 18d2 b9be 4bfc c93e 6a71 12bf
00000190: 2706 d73e ebd6 6d3d 56af 8e3e a8a9 513e
000001a0: 7756 463e 6abd 44bf a141 ee3e 02e8 53bd
000001b0: 0061 113f b315 4ebe 75f6 613e 39b3 b4bd
000001c0: d1ee c93e 5725 02bf df79 ed3e 8886 303e
000001d0: 3e60 023f abd6 973e d0ba 0bbe 38e4 1ebf
000001e0: aff8 5b3e 372f b5bc 578e e73d b9ee 8a3d
000001f0: 25ae ea3e da7d cbbe 4561 80bf b62d 723e
00000200: 5070 98be 4efe 473e d733 c2be 2b37 783d
00000210: 50e8 35bd 4f95 403e caaa 253d 8fd7 323f
00000220: 8098 03bf de69 423f 1b95 13bf cc14 8dbb
00000230: 5422 b93d 1bc0 32be 0b94 523d aed9 fbbc
00000240: d7ef c83e 2112 78be e79b 433f bdda 0fbf
00000250: df98 273f 8f65 1abe a739 d0bd 0381 b13e
00000260: 33a9 cebd 5e1b 873e 42f3 f7be dda9 093e
00000270: 1028 73bf b4a6 a63e 177b 713e 4a18 e53d
00000280: 6776 babe b23b 383e 3959 e6bd 830b df3e
00000290: 63ff 8fbe 4b7b bc3e d634 c7be 9b61 bd3e
000002a0: 00a6 f6be cfbc c63e 7c82 ad3a 86a0 89be
000002b0: 0eed 0c3e bfda cbbe d1cc 1d3f 0674 8c3e
000002c0: 9410 343f ef71 4ebf d1c5 d33d 43df 62be
000002d0: 7741 67be 6f23 3a3e a076 51be 527d 7a3e
000002e0: bc0f febe b174 233f 141a 08bf 2ff9 9bbd
000002f0: fcdd 4bbe e6f8 543e cd33 b93e 70ce 3fbe
00000300: f664 ce3d 2a18 0bbe dd3f 033f 3a05 04bf
00000310: 262b ec3e 974b b2be 1e5a 113f 6d77 a3be
0.25733897 -0.3127862 -0.20349492 -0.13166358 -0.30364698 0.4836607 0.25058705 0.4104828
0.07794415 0.3004201 0.29744145 -0.15456793 0.13945395 -0.34639344 0.28081238 -0.36185315
0.2120782 -0.29418474 0.49766392 -0.19159457 -0.3145445 -0.09597611 -0.1417807 0.19950247
-0.65790737 0.5672756 0.23123692 0.2279885 -0.67275447 0.16168174 0.0713913 0.2996958
-0.00016305054 -0.7594793 -0.34810615 0.60716975 0.22053765 0.4652909 0.5022288 0.59467524
0.7002254 -0.5297186 0.8988118 -0.30848643 0.041083116 0.3467011 -0.4804072 -0.02480852
-0.1211635 0.020291628 -0.15345421 0.03471827 -0.011803873 0.13095394 0.57714933 0.39199185
-0.36766735 -1.5260675 0.01673579 0.26724553 -0.15845498 0.3230496 -0.16363548 0.36265615
-0.39918295 0.009085892 -0.50975955 0.7800118 -0.8339942 0.34412673 0.46455333 -0.055538807
0.83212584 -0.21040802 -0.99163526 -0.009052789 0.27053168 0.5755017 -0.38574427 0.38612893
0.20096773 -0.35578611 0.10847998 -0.4336199 0.53007746 -0.5716271 0.069521725 -0.13126908
0.0050578495 -0.10183199 -0.09751938 -0.04285769 0.30708024 0.43089917 -0.4201628 -0.5164391
0.6673668 -0.362931 0.39450297 -0.57204306 0.4199688 0.05806629 0.27868146 0.20474875
0.19368921 -0.7685152 0.46534446 -0.05173493 0.56788635 -0.20125465 0.22066672 -0.088232465
0.39440015 -0.50838226 0.46382043 0.1723882 0.50928104 0.29655966 -0.13645482 -0.62066984
0.21481584 -0.02211724 0.11306446 0.06783814 0.45835987 -0.39744455 -1.0029684 0.2365025
-0.29773188 0.19530603 -0.37930176 0.060599487 -0.044411004 0.18806957 0.04044608 0.69860166
-0.5140457 0.7594279 -0.5764939 -0.0043054577 0.09039751 -0.17456095 0.051410716 -0.030743446
0.39245483 -0.24225666 0.76409763 -0.56193143 0.6546764 -0.15077804 -0.10167246 0.3466874
-0.10090866 0.26388067 -0.48427778 0.13443704 -0.94983006 0.3254906 0.23582111 0.111862734
-0.3641846 0.17991522 -0.112474866 0.4356347 -0.28124532 0.36812815 -0.38907498 0.3698853
-0.48173523 0.38815925 0.001323774 -0.26880282 0.13762304 -0.39815328 0.6164065 0.2743227
0.70337796 -0.806426 0.10340465 -0.2215548 -0.22583567 0.1817758 -0.20455408 0.24461868
-0.4962138 0.6384993 -0.5316479 -0.076158874 -0.19908899 0.20798072 0.36172333 -0.18731093
0.100778505 -0.13583437 0.5126932 -0.51570475 0.4612667 -0.34823295 0.5677813 -0.31927052

Mixer_Block.0.mlp_block_token_mixing.fc1.bias f4 [20]
00000000: bb6a 193f 6891 293e 1fcc 013f 2e8d 283f
00000010: cda4 1e3f 9932 463f 4085 c73e ddc9 1a3f
00000020: 7370 a93e 7fbd 2d3f 2881 233f 31c5 de3e
00000030: 2471 a13e 5111 9e3e 06e3 a73e 467c 143f
00000040: de88 883e 5e30 d03e eb2f 443e 887a a33e
0.5992848 0.16559374 0.5070209 0.65840423 0.61970216 0.77420956 0.3896885 0.6046427
0.33093604 0.67867273 0.6386895 0.4350982 0.31531632 0.30872586 0.32790393 0.58002126
0.2666692 0.406619 0.19158904 0.3192942

Mixer_Block.0.mlp_block_token_mixing.fc2.weight f4 [10, 20]
00000000: 2cf1 29bf 9361 a03e 4ed6 a4be a906 debe
00000010: 4c81 753e 601a 923e 9ac5 dfbd e396 dd3e
00000020: 19d0 293f 1176 af3e 4cab cebc 45b1 06bd
00000030: aca5 5b3f 7a64 9dbd e57e 4ebe 909c 25be
00000040: b31f 93be 9172 833e d7ec 39be d385 bfbc
00000050: 39b0 ffbe 279e 0c3e 77f0 08bc 2390 61bf
00000060: 558a 25bf 046c c13e 4a71 f7bd bb24 87bf
00000070: 7d9a 4e3e 4125 023f 20ad 883e 8efd c5be
00000080: bfbd cabe bdad 703e c4c9 203f 37a6 96be
00000090: fba0 873e f2f9 f73e 48a0 8cbd 6f33 b53e
000000a0: ab77 d23e 1d78 c33e 6950 8c3d cfd2 853d
000000b0: 01c8 5bbd d5cd 19be 759d 0dbe 52f8 a0be
000000c0: b6af e73e 88af eabe c41e 10be 237f 3f3e
000000d0: d5cc 9c3d a48f 3f3e 11d9 073e 9265 d5be
000000e0: ca6d c6be 7141 243e fd45 c5be fc7b 9a3e
000000f0: 174c 783e 2556 8bbe abf8 e83e db6b 013f
00000100: dc86 4bbe 4d80 d8bd 8fcf 8ebd 99bd 7b3d
00000110: 75f7 a3be 3ab0 f9be 76b8 2cbf 2385 e13d
00000120: 723e 81bc 3e56 093f 7da3 99be 40ee 663e
00000130: e6c4 ca3d ddb0 d33d e244 143f 2437 0abf
00000140: 32b3 c93d 4012 153e 7d42 843e c41c 893e
00000150: 760d 9bbd 05d9 94be c964 cfbe ce70 093f
00000160: 3b6a 77be d24a f13e ce2e 973e 1387 e3bd
00000170: 72b5 03bf 7fe0 1cbf 78a3 c33e 9f64 55be
00000180: b9c5 c5be e425 a0bd 7537 38be f2d9 8c3d
00000190: c826 113c 3a74 a1be 0eea 90bd 9bca 7ebe
000001a0: c146 32be 1c2e 1dbf a089 2c3f f99a 643e
000001b0: 175e 0cbe 6325 103d 6981 0c3f 78db d1be
000001c0: 73b9 0b3f 63d1 1bbd e759 d1be ecce e33e
000001d0: 7b74 933e 52cb 78bf bf6f b13c 5f85 943d
000001e0: 0ae5 bbbe 026e 253f fbf4 87bf 2a4b 043e
000001f0: 42f9 c2bc 3fdf 9f3e 7314 92be 48b0 05bf
00000200: deb3 b13e c975 e1be 647b 813e c14a 233d
00000210: fa0f 043f 5a9b 8bbe 7a47 b53e b23e e93e
00000220: 5f1e abbd e567 103e 7cf8 e7bd 5333 083f
00000230: eb72 08be 5f98 e1bd fee9 31bd 93dc 44be
00000240: 9026 8e3f 4680 993f 6156 5fbf 97d7 73bd
00000250: dc3b c13d b843 3b3e d057 e5be 7458 1fbc
00000260: 7811 8c3d df4e ebbe 1830 58bd f79a b1be
00000270: 2900 c8be 88ee 443f c945 9c3e 956e 76be
00000280: 0515 28be d09f debe 4fa7 693f ccc9 7bbe
00000290: 7241 fabe 885a 3bbe 6d94 3b3f a965 153f
000002a0: 4be5 fcbd ae31 72be fc63 abbe 1704 343f
000002b0: 33df 33be 7428 0d3f d702 febc cd36 c4be
000002c0: da59 0d3f 6b0a fa3e edb6 4b3e ff16 23be
000002d0: 2f2c 64be 951e 163f cc0c 1ebe 4339 d9be
000002e0: 8a0d a43e 1ede cabe 7a44 f2be 95b2 bbbe
000002f0: 51be 8c3e ec7b 193f c66c 3e3e 6473 813f
00000300: bf9d 9ebe 27ba b13d 9474 553e 7fc1 68be
00000310: 0c89 01bf bb5b 833e bc90 edbe 6cef df3e
-0.66383624 0.31324443 -0.32194752 -0.43364456 0.23975104 0.28535748 -0.109263614 0.4327918
0.66333157 0.34269765 -0.025228165 -0.0328839 0.8579967 -0.0768518 -0.20165594 -0.16173005
-0.28735122 0.25673345 -0.18156753 -0.023379242 -0.49939135 0.13732205 -0.008358113 -0.8811056
-0.646642 0.37777722 -0.12082155 -1.0558084 0.2017612 0.50838095 0.26694584 -0.3867001
-0.3959789 0.23503776 0.6280787 -0.29423687 0.26490006 0.4843288 -0.06866509 0.35390803
0.41106924 0.38177577 0.068512745 0.06534349 -0.053657535 -0.15019925 -0.13829596 -0.31439453
0.45251244 -0.45837045 -0.14074236 0.18700843 0.07656256 0.18707138 0.13266398 -0.41679054
-0.38755637 0.16040589 -0.3852996 0.30172718 0.24247776 -0.2721416 0.4550222 0.505552
-0.19875664 -0.105713464 -0.069731824 0.06146011 -0.32024732 -0.48767263 -0.67468965 0.11011722
-0.015776847 0.5364722 -0.30007544 0.22551823 0.09900837 0.10336468 0.57917607 -0.5399039
0.09848632 0.14557743 0.25831977 0.2677976 -0.07570927 -0.29071823 -0.4050658 0.5368775
-0.24161617 0.47127396 0.29527897 -0.11109748 -0.5144874 -0.61280054 0.38210654 -0.20839165
-0.38627413 -0.07819727 -0.17989905 0.06877507 0.008859344 -0.31533986 -0.070758924 -0.24881975
-0.17409803 -0.6139848 0.673975 0.22324742 -0.13707767 0.035191905 0.54884964 -0.40987754
0.5457985 -0.038041484 -0.40888903 0.44493806 0.28799805 -0.9718524 0.02165973 0.07252001
-0.3669818 0.64620984 -1.0621637 0.12919298 -0.023800496 0.3122501 -0.28531227 -0.5222211
0.3470754 -0.44035175 0.25289452 0.039866213 0.5158688 -0.2726696 0.35406095 0.45555645
-0.08355402 0.14102133 -0.113266915 0.53203315 -0.13325088 -0.110153906 -0.043436043 -0.19224767
1.1105518 1.1992271 -0.8724118 -0.059531774 0.094352454 0.18287551 -0.44793558 -0.009725679
0.068392694 -0.4595861 -0.05278024 -0.3468854 -0.39062622 0.7692647 0.30521992 -0.24065621
-0.16414268 -0.43481302 0.9127092 -0.24588698 -0.48878056 -0.18296254 0.73273355 0.58358246
-0.12348422 -0.23651764 -0.3347472 0.7031874 -0.17565612 0.5513985 -0.031007214 -0.3832306
0.5521523 0.48836073 0.19894 -0.15926741 -0.2228248 0.58640414 -0.15434569 -0.424265
0.3204158 -0.39622587 -0.47317868 -0.36659685 0.2748895 0.59954715 0.18596181 1.011334
-0.30979726 0.08678084 0.20845252 -0.22730063 -0.5059974 0.25655922 -0.46399486 0.43737352

Mixer_Block.0.mlp_block_token_mixing.fc2.bias f4 [10]
00000000: 7715 55be 8d32 eebd 1e20 803e 3229 813e
00000010: 6aca 8fbd 9375 7e3e 2a51 99b9 56a2 9a3d
00000020: f78d 23bf 8b85 163d
-0.2080897 -0.116307355 0.25024503 0.25226742 -0.07021029 0.24849539 -0.00029242906 0.075504944
-0.63888496 0.03674845

Mixer_Block.0.mlp_block_token_mixing_DynaMixerOperation.fc_ND.weight f4 [1, 66]
00000000: 470f a5bc 5e65 cbbb 81a3 bb3d e993 26bd
00000010: 0bdf 813c 7ada 5cbc f893 953d c71e 19bd
00000020: 6f33 f23d 20e0 1b3c 99aa d9bd 30a1 1a3c
00000030: 78b9 653d 917e 643d bd86 703d 768b 403d
00000040: 30ae 03bd ea24 c0bc 4f10 56bc 3a6a 4f3b
00000050: c8a6 5a3c 4af0 cd3d 3e82 a33c a6e5 1e3d
00000060: 5a93 043d 6623 ccbc fd5e c5bc 4ec9 96bd
00000070: 2875 eb3c d308 e03c e8c7 193c 95a4 5cbd
00000080: 1036 2bbd ea3d 58bd aa5d cd3c d618 e13d
00000090: b12b fabc 4cc2 9bbd f6e0 c3bb 8a6f 75bd
000000a0: 951c 1f3c 8575 85bc b0d3 3b3d c29d e43c
000000b0: 3299 073d a0cf eb3c 9bcc 18bd ae2a ad3d
000000c0: 52ce 353d b3a3 59bc 4967 883d adfc 94bc
000000d0: bff7 38bd 7a11 d23d 3528 f03d 994f 82bd
000000e0: 63c0 1fbc 65ba 6c3c f77b c73c 8360 fc3b
000000f0: a7e5 233c d359 68bd 9a08 dd3d a523 8dbd
00000100: 2efd db3c b1a1 babb
-0.020148886 -0.0062071523 0.09162045 -0.040668402 0.015853425 -0.013479823 0.073036134 -0.037382867
0.118262164 0.009513885 -0.10628242 0.009437844 0.05608508 0.055784766 0.058722246 0.047008
-0.03214854 -0.023455102 -0.013065412 0.003164901 0.013345428 0.10055597 0.019959565 0.03879323
0.032367088 -0.024919223 -0.024093146 -0.073626146 0.028742388 0.027347958 0.00938604 -0.053867895
-0.041799605 -0.05279342 0.025069077 0.10991065 -0.030538412 -0.076054186 -0.005977745 -0.059920825
0.009711404 -0.01629139 0.045856178 0.027907256 0.033105083 0.028785527 -0.037304502 0.08455406
0.044386216 -0.013283658 0.06660325 -0.018186891 -0.045158144 0.1025724 0.11726419 -0.06362838
-0.009750458 0.014448737 0.024351103 0.007701935 0.010003484 -0.056726288 0.10792656 -0.06891564
0.026854124 -0.0056955446

Mixer_Block.0.mlp_block_token_mixing_DynaMixerOperation.fc_Nd.weight f4 [100, 10]
00000000: 2657 c63e 9e66 6ebe 63ba 6ebd 7097 9ebd
00000010: 3400 3dbd 9095 60bd e05a 953d 3f7e ec3d
00000020: 36fc 32bd 8e5d fd3c 68cd 3dbd d261 6f3e
00000030: 3afc 8d3e 0ada 2cbd 1c34 c13d d22c ccbb
00000040: a1d7 be3d f323 eb3c 0274 9cbd c662 fe3c
00000050: 2367 e3be a852 02bf f1e4 843e af3f 96bd
00000060: 310b 6abe 51a9 97bd a349 b7bd 8f60 a63d
00000070: 1180 6ebe 6d40 bc3c 2ebf 033d 3740 33be
00000080: 653a 5f3d a13c a73e 1cb5 bf3d d126 653d
00000090: 07d7 e83d 81c4 713d ec6f babd 513b 2bbc
000000a0: 30dc aabd d7f9 81bc 6300 20bf c5cb 02bf
000000b0: 5b2d 43be ef7e 52be 2b84 a2bd b2e8 853d
000000c0: ee9a 453c 934c 93be 023f ba3d 2ad5 d9bb
000000d0: f0e6 cd3d c08d 5abd 05e8 11bd ce2d e53d
000000e0: 445e a1bd 8222 0e3d e288 bbbd 1c47 8d3d
000000f0: a2ad 32be 9e36 9c3d 0d0c 01bf 725d 87be
00000100: 13ba c8be 3714 8b3d d574 b4bd 3545 44bc
00000110: 1f7f 61be f083 ffbd f205 06be a4e1 8d3d
00000120: d33f dcbd b675 a23c 9ecb 8dbd 40e7 75be
00000130: e695 3e3d 63ca 163e 9b00 2abd 1175 8b3d
00000140: adc1 a7be aa7f 3a3e 0c77 18be fa26 033d
00000150: 0b38 063d 2ca8 90bd cbd2 953d 02ad 043e
00000160: 934e 66bd 23a1 abbc 616d 8ebe 89ac b63d
00000170: 5708 103d 9670 803c 18d5 633d bdf1 0f3d
00000180: 4dd6 de3d 0d97 b43c 82da a43d 7d57 cb3d
00000190: d2f1 f33d e5e3 96bd 665c 043e 81ed 593e
000001a0: 0ceb 8cbd ba2c 8a3e 168d 6b3e e8e2 133e
000001b0: 9b4a da3d 95e3 1e3e f972 863e de29 8d3e
000001c0: a5c8 263e 751e 0a3e 6a24 e9bc 858c 28bd
000001d0: 8a4d 103d 9241 05be 0dbc 133b 63f3 f63c
000001e0: 0281 fc3d e8ef 1bbe 3a8d c13e b755 f33d
000001f0: ab2d 1c3d 6023 803e b002 313e cafd fe3d
00000200: 8b69 093e 80d0 983d 98c8 003e 54dc ba3d
00000210: 9ef1 a43d a4af 033f 238c bebe 08ef 4e3d
00000220: 80d8 5dbe 68e9 22be 41a9 47be f4d4 a6bd
00000230: c22b b8bd 8e4b 88be b77c bdbd 7507 4bbe
00000240: e678 dc3e f406 633c b6d0 833e 61bf 143e
00000250: 8494 023e 4ee0 93bd 91e0 ac3e 92a6 44bd
00000260: b23e 773d 02c6 f9bd 4abf 90bd f8d6 793e
00000270: 86ae 1fbe 7c9a 81bd f385 20bd 2a17 ef3c
00000280: 4109 823e 05ef dc3d d8ed d3bd f00a 44bf
00000290: 7230 c8bd 3c00 603c da25 0abf cc22 40bc
000002a0: 3ea0 c0be 10db e83b cb0f eebd 9b59 0dbc
000002b0: 3492 4abe bf94 463e 6536 95be c668 24be
000002c0: 9ba7 ccbd e829 8f3e 9b3f a0be 6e3b 53bd
000002d0: 3e01 eebe 70f5 b53e 20cc 0abf 1ec4 aebc
000002e0: 6350 a6bd 24d7 67bd 239c 303b 9666 02be
000002f0: 14d5 eb3d 8527 6bbe 37ea 53be d76b 853d
00000300: 3249 68be fe39 073e 62e9 8fbe 20fe acbd
00000310: b33f bdbe 9a82 01be 3a90 31be 8962 e03e
00000320: a74f c2be a1fd 033e 0a5e 113d b888 b9bd
00000330: b6c7 dcbd 6214 61be cd89 20be 7eef afbe
00000340: 57dc 2dbd ab26 c83d 0180 693e 808c 8ebe
00000350: 53c9 b43c 8f30 653e 0892 353e 094a 793e
00000360: 7dbe be3b 2c0d 673d 59ed 173e a8c3 4c3e
00000370: 28ef 5a3e 65cf 8b3e faa2 68be 50ea ae3e
00000380: 3479 473e b16b 813e c599 70bd ac73 3a3e
00000390: 22f6 543e 9fca 153e 2cbe d03d ed17 973d
000003a0: 4b99 473e 812a 10bd 4dd1 9e3e 27ac 423e
000003b0: 7f7b f13c e645 973e 1e63 963e 53c5 723e
000003c0: b231 07be d47b a73e 112a a4be 35da aebc
000003d0: fd18 acbe cd7f 6c3d ee41 9ebe 19fe 62be
000003e0: 8e41 a0bd a955 3bbc abd4 d93d 2aae b43e
000003f0: 1db1 adbd 7d47 64be 293f 583d 0d0c b4bd
0.38738364 -0.23281333 -0.05828322 -0.07743728 -0.04614277 -0.054830134 0.07292724 0.11547517
-0.04369756 0.0309284 -0.04633847 0.23377159 0.27731496 -0.042200126 0.09433767 -0.006230929
0.09318472 0.028703665 -0.07639314 0.031052958 -0.44414625 -0.50907373 0.25955918 -0.073363654
-0.22855832 -0.074053414 -0.08949592 0.08123886 -0.23291041 0.02297994 0.032164745 -0.17504965
0.05449905 0.32663444 0.09360716 0.05594522 0.11369138 0.05902529 -0.09103379 -0.010451154
-0.08342779 -0.015866203 -0.6250059 -0.5109218 -0.1906027 -0.20556234 -0.07935365 0.06538524
0.012060864 -0.2876936 0.09094049 -0.0066477256 0.100538135 -0.05335784 -0.03562166 0.11190377
-0.07879308 0.034700878 -0.09156968 0.06898329 -0.17449048 0.07627605 -0.50409013 -0.2643848
-0.39204463 0.06790965 -0.088113464 -0.011979391 -0.22021149 -0.12476337 -0.13088205 0.06927803
-0.10754361 0.01983152 -0.069236025 -0.24013996 0.046529673 0.14725642 -0.041504484 0.06809438
-0.3276495 0.18212762 -0.14889163 0.032019593 0.03276829 -0.07063326 0.07315596 0.12956622
-0.056227278 -0.02095086 -0.27817824 0.08919627 0.035164203 0.015678685 0.055623144 0.03514265
0.108807184 0.022044683 0.080494896 0.099287964 0.11911358 -0.07367686 0.12925872 0.21282007
-0.06880769 0.2698725 0.23003039 0.14442027 0.10658761 0.15516503 0.26259592 0.27571005
0.16287477 0.13488181 -0.028459746 -0.041149635 0.035230197 -0.13013294 0.0022542507 0.030145353
0.12329294 -0.15228236 0.3780306 0.11881583 0.03812949 0.2502699 0.17286181 0.1245075
0.13419168 0.07461643 0.1257652 0.091240555 0.08053897 0.5143988 -0.3721629 0.050520927
-0.2166462 -0.1590935 -0.19498159 -0.08146086 -0.08992721 -0.26620144 -0.09252303 -0.19827063
0.43060988 0.013856638 0.2574517 0.1452613 0.12751967 -0.07220517 0.3376508 -0.048010416
0.060362525 -0.1219597 -0.070677355 0.2439841 -0.15593919 -0.06328294 -0.039190244 0.02918585
0.25397685 0.10787777 -0.103480995 -0.7657919 -0.09774865 0.013671931 -0.53964007 -0.011727046
-0.37622255 0.0071061924 -0.11624106 -0.008627321 -0.19782335 0.1939268 -0.29143062 -0.16055593
-0.09992906 0.2796166 -0.31298527 -0.05157035 -0.46485323 0.35538816 -0.5421772 -0.02133375
-0.08120801 -0.05660166 0.0026948533 -0.12734446 0.11515251 -0.22964294 -0.20694815 0.065147094
-0.22684172 0.13205716 -0.28107744 -0.08446908 -0.3696266 -0.12647477 -0.17340174 0.43825176
-0.37951395 0.1288972 0.035490073 -0.0905928 -0.10780279 -0.21980432 -0.15677567 -0.34362406
-0.04244646 0.09773 0.22802736 -0.27841568 0.022068655 0.22381805 0.17731488 0.24344648
0.005821048 0.056409046 0.14836635 0.19996512 0.21380293 0.27306667 -0.2271842 0.3416314
0.19479829 0.25277475 -0.058740396 0.18208188 0.20797017 0.14628075 0.101925224 0.0737761
0.1949207 -0.035196785 0.3101906 0.19010983 0.029477833 0.29545516 0.29372495 0.23708086
-0.13202551 0.3271166 -0.32063344 -0.021344284 -0.33612815 0.057739068 -0.30909675 -0.22167243
-0.078250036 -0.011433997 0.10636266 0.35289127 -0.08481047 -0.22292896 0.05279461 -0.08791361

Mixer_Block.0.mlp_block_token_mixing_DynaMixerOperation.fc_Nd.bias f4 [100]
00000000: a83c b9be adf1 1b3f 48a1 99be 2e30 d3bd
00000010: b405 d6be 7f52 0dbe 41cc e1be 61e8 20bd
00000020: 8d4f 86be e650 11be a241 763e 56f7 073f
00000030: aa80 563e 3520 b53d 70d1 eabe 3e76 ebbd
00000040: 375f f8bd 34c4 503e 6871 b5bd 4985 393d
00000050: 56a6 a33e e520 373e f6c7 8c3e 9981 97be
00000060: 18a4 c33c 141b 1ebf f354 ddbd 61c0 c2be
00000070: 1e16 943d 06ee b8bd 5540 6a3e 0d51 bc3d
00000080: 2711 153e 5e0a af3e b0e0 e83c 7427 2bbf
00000090: a566 9cbc 0e01 e2be 4521 2e3e bc35 92be
000000a0: 547d b53e a2b5 cb3c 29d0 8e3d b11f 14be
000000b0: 4d61 a63e 01e7 35be b0cc d3be c895 a5bd
000000c0: e01e 24bd 00a7 163e 348b 04be 474c c03c
000000d0: 70ef c93e bbd1 28bf 802e 4f3e 7d6c 5d3e
000000e0: 809f b53d 7ba8 f8be 32e0 7939 b678 b9bd
000000f0: 1ebc 9c3e 45e4 2d3e d28b f8be f41d 1b3e
00000100: 5697 e6be 65ef 753e 9312 8f3e 838f 5d3c
00000110: a023 6dbe ae85 3c3d d206 84be a7f4 d43e
00000120: 7406 81be 689b ccbd 5315 8abe 017d 62be
00000130: 29af 6fbe c434 ca3e 9377 033e 3f3e edbd
00000140: dc7d a0be 1184 ea3e 6907 d0bd 145e 6e3e
00000150: 7bfa 82bd 8c98 dcbc 8f21 8ebe 49f1 cf3c
00000160: a476 343f 9e70 c73d f624 63bd a067 87be
00000170: 4b4a 053d 0d35 883d 0f43 ccbb 5aef 373e
00000180: 7842 9a3d ccf1 493e 092c d83c 8cb6 023f
-0.3617909 0.6091564 -0.3000586 -0.10311924 -0.41801226 -0.13801001 -0.44101146 -0.039284114
-0.26232567 -0.14191017 0.24048474 0.5311178 0.20947519 0.08844034 -0.45862913 -0.11497162
-0.12127536 0.20387346 -0.08859521 0.045293126 0.31962842 0.17883642 0.27496308 -0.29591063
0.023881957 -0.6176007 -0.108072184 -0.38037398 0.07230781 -0.09029774 0.22876103 0.09195147
0.14557324 0.34187597 0.028427452 -0.66857076 -0.019091913 -0.4414143 0.17004879 -0.2855662
0.3544718 0.024866883 0.06973297 -0.14465214 0.3249611 -0.17763902 -0.41367102 -0.08085209
-0.040068507 0.14712143 -0.12943727 0.023473872 0.3944049 -0.65945023 0.20232582 0.21623416
0.08868313 -0.4856604 0.0002383001 -0.09056227 0.30612272 0.16981609 -0.48544174 0.15148145
-0.45037335 0.24017103 0.27943859 0.013522985 -0.23158121 0.046025924 -0.25786453 0.41592905
-0.25200236 -0.09990579 -0.26969394 -0.22117998 -0.23406662 0.39493382 0.12838583 -0.11584138
-0.31346023 0.45803884 -0.101576634 0.23278075 -0.063954316 -0.026928209 -0.27759978 0.025383608
0.7049353 0.09738277 -0.05545517 -0.26446247 0.032541554 0.06650744 -0.00623358 0.17962399
0.07532209 0.19721144 0.026388185 0.51059794

Mixer_Block.0.mlp_block_token_mixing_DynaMixerOperation.fc_out.weight f4 [66, 66]
00000000: 0f3e f9be cc4a ab3d 87dd 9b3c 68fb a8bd
00000010: 2fee 11bd 202a dabd f02a 8ebe 5d74 3b3e
00000020: 992d d7be cc46 6cbd db70 39bc 0e60 053d
00000030: bf05 c03c b25c a33c 812a 36bd 9acf 9dbd
00000040: 1141 d73d 0035 e93c 8438 e33e 0b2e 5b3d
00000050: 94d9 82bb 61af 5f3c 7883 d83d 512c 21bd
00000060: 819b bb3e c59b e1bc 96eb 22bd cd36 e4bc
00000070: 53c5 0bbe 9ed0 5f3e d555 65be 31ba fc3d
00000080: 3edd 103e 281a c9bd 2ac5 e73d c218 353d
00000090: c2b5 fcbb f227 533d eb65 6ebd 67ab 583d
000000a0: d3b4 343d 6780 0c3e 80c1 d43e 72c1 113d
000000b0: 74c6 8c3e e629 ccbd 88c5 9cbd eaaf e4ba
000000c0: e821 d03d 4cfb 26be 32c1 19be a5fa c73d
000000d0: 37ba 063e 1612 f63d c427 45bd 5789 08bd
000000e0: 9193 ab3c d644 663c d9b7 d1bd 71cf 133e
000000f0: fb5e a6bd 0ac2 bdbd 424a 18bd ac6c 19be
00000100: 10e1 28bb 790c 703d f5c9 4abd c615 a2be
00000110: 8a0b 9b3c 85e5 1cbe e241 50bd eb12 8a3b
00000120: e6d9 393e eada 1a3d a811 47be 1bf2 983d
00000130: b09b ccbd 12e0 00be 9dcf a8bc 4f9a f93c
00000140: 64cd 2f3e dc7a 81be 9144 c8bc 0553 15be
00000150: 466c 003d b364 523e 275f 8c3e 72f9 d0bd
00000160: 4123 633e fa23 53bd 3b2e 423c 545b 8a3e
00000170: d69b f53d 6140 82bd 563e 8ebd 80c4 30be
00000180: 7da3 4bbe cd80 b2bd 4d39 133e e8a3 bebc
00000190: 883f 0b3d d232 4fbe 949f f93d 0387 a0be
000001a0: 3e8a a0bd d5ba 35bd ef51 92bd 59b3 78be
000001b0: c537 f13d edc5 0c3e ec4f 8dbc 3ce7 42bd
000001c0: 03f8 6e3d c838 aabd 6125 c9bc 21d2 153e
000001d0: 3b94 833e 9def b3bd 50e4 253e 1926 ab3c
000001e0: 0bee 4b3d d359 f93d adbc 1e3e 12e2 873e
000001f0: b6bf 5f3e f4e4 ba3d d8d7 90be 04a7 35be
00000200: 99d9 113d c2c8 debd 020e a2bb 640c 853e
00000210: e288 98be fac8 743d 825d ccbe f7bc 7ebd
00000220: 2d86 753c 38c9 acbd 40a2 2f3e c70f dc3d
00000230: ee9f c73d 3440 db3d 6e31 8bbe 1043 703e
00000240: d305 4e3c 9281 a3be 5e90 363d 62c3 083c
00000250: 20ef 043d 0213 753d d69a b1bc 6298 d5bd
00000260: f642 abbc 01d6 0d3d 5438 71be 0951 223d
00000270: eab1 02be d7bc 3b3e 87bd b0bc db87 c1bd
00000280: fd45 f93c e6c3 1cbe 55fd 033e 0cb7 d03b
00000290: bd7b 84be 177a 263c 35ef e5bd 6d13 343e
000002a0: b79e d43c e593 89be a987 a23d 0d8f 8f3d
000002b0: 893b 203e 8032 5d3e 5fcd f1bd 4b0b 3e3e
000002c0: c354 ff3d a57e 03bd 47a4 f83d 6163 f33b
000002d0: abe4 873e 7568 ea3c bd3a 943e 384b 96bd
000002e0: 07b5 85be bbe6 62bd 31fd c4bb 15a1 743d
000002f0: 0a10 67be b513 bdbe 708d 073d 7e48 42be
00000300: 30eb 3bbd 1511 3a3e 24e1 193e 514d b73c
00000310: cdc9 a53e 1ff8 ff3d 9fe2 853d d456 173d
00000320: cf8f a43d 5663 babe 4847 cf3d fc3a 4abd
00000330: 8f1b f03d df67 abbc 8492 5b3e 7a13 2dbe
00000340: 6a7d 82bc e9e0 463e 1e1e d23d 4f62 eb3c
00000350: 5c2d 413c 3ede 90bd 6133 fbbd e081 a2bd
00000360: c116 0abe 45f2 97bd cfc9 13be 8f42 073d
00000370: 2e45 8c3c 2633 5b3e e2a7 27be e3ac a8bd
00000380: 8dee 9fbd d16b 06be 0ab6 1b3d 1725 41be
00000390: 38c3 f0bc 7e5c 8abd 6e9b b13d 13ba 5d3d
000003a0: 58f6 7cbd 17ee 123e 2952 04be dc97 cabd
000003b0: 5f45 21be 7f0c 80be 97d0 83bd 5cb3 053e
000003c0: e951 b1bd 5020 68be d5dc 92bd 7c64 0e3d
000003d0: b930 6bbd fcdf 83bd 1e98 673d b931 0cbb
000003e0: f2a5 2d3d 8553 cdbd 5858 9d3d 4bd8 0a3e
000003f0: bcf0 323e 159a 473e 847e 8ebc 3b67 04bc
-0.4868016 0.08363876 0.01902653 -0.08251077 -0.03562754 -0.10652566 -0.27767134 0.18306108
-0.42026976 -0.057684705 -0.011318411 0.032562308 0.02344024 0.019941662 -0.04447413 -0.077056125
0.10510457 0.028467655 0.44379056 0.053510707 -0.0039932225 0.013652653 0.10571951 -0.039348904
0.36642078 -0.027540097 -0.039775454 -0.027858162 -0.13649492 0.21856925 -0.22396024 0.12340201
0.14146897 -0.09819442 0.11316903 0.044213064 -0.007712097 0.051551767 -0.058202665 0.052897837
0.04411776 0.13720857 0.4155388 0.035584874 0.27495158 -0.09968929 -0.076548636 -0.0017447446
0.10162717 -0.163068 -0.15015104 0.097646035 0.13156973 0.12015168 -0.048133627 -0.033334102
0.020944389 0.014054498 -0.10240144 0.14434601 -0.08123585 -0.09265526 -0.037180193 -0.14982861
-0.0025768913 0.058605645 -0.049509007 -0.31657237 0.0189264 -0.1532193 -0.05084408 0.004213681
0.18149528 0.03780643 -0.19440329 0.07468053 -0.099906325 -0.12585476 -0.02060681 0.030469088
0.17168194 -0.25289047 -0.024446758 -0.1458245 0.031353258 0.20546226 0.27416345 -0.10203828
0.22181417 -0.05154798 0.0118518425 0.27022803 0.11992614 -0.063599356 -0.069454834 -0.17262459
-0.19886585 -0.08715973 0.14377327 -0.023271516 0.033996135 -0.2023423 0.1218864 -0.31353006
-0.078388676 -0.04436763 -0.07144534 -0.24287166 0.11778215 0.13747378 -0.017250024 -0.047583804
0.05834199 -0.083116114 -0.024553956 0.14630939 0.25699028 -0.08785937 0.16200376 0.02089219
0.049787562 0.12175336 0.15501662 0.26539665 0.21850476 0.091257006 -0.28289676 -0.17739493
0.035607908 -0.10878135 -0.0049455175 0.25986016 -0.29791933 0.05976198 -0.3991509 -0.06219193
0.014985603 -0.08436817 0.17151737 0.10745197 0.09747301 0.10705605 -0.2718615 0.23463082
0.012574631 -0.31934792 0.044571273 0.008347364 0.03245461 0.05983258 -0.021680277 -0.10429455
-0.020905953 0.03462792 -0.23556644 0.039628062 -0.12763181 0.18333755 -0.021574749 -0.094497405
0.03042888 -0.15309104 0.12889607 0.006369477 -0.25875655 0.010160944 -0.11227266 0.17585535
0.025954587 -0.26870647 0.07936031 0.07009707 0.15647711 0.21601295 -0.118067496 0.18558995
0.12467339 -0.0321032 0.121407084 0.0074276184 0.26541647 0.028614262 0.28951064 -0.073385656
-0.26114675 -0.055395823 -0.006011628 0.059723932 -0.22564712 -0.36929098 0.03309387 -0.18972966
-0.04587859 0.18170579 0.1502729 0.022375735 0.32380524 0.12498497 0.06537365 0.03694804
0.08035242 -0.36403912 0.10121018 -0.049372658 0.117240064 -0.020923553 0.2144261 -0.16901961
-0.015928943 0.19421734 0.10259651 0.0287334 0.0117906 -0.07073639 -0.12265659 -0.07934928
-0.13485242 -0.07419256 -0.14432453 0.03302246 0.017122831 0.2140623 -0.16372636 -0.082361005
-0.07809172 -0.13127066 0.038015403 -0.18861805 -0.029389963 -0.06755923 0.08672224 0.054132532
-0.06175837 0.14348637 -0.12921967 -0.09892246 -0.15749119 -0.25009534 -0.0643627 0.13056701
-0.08658201 -0.22668576 -0.071710266 0.034763798 -0.057419512 -0.06439206 0.056541555 -0.0021391942
0.042394586 -0.10025696 0.07682866 0.13559072 0.17474645 0.19492371 -0.017394312 -0.008081253

Mixer_Block.0.mlp_block_token_mixing_DynaMixerOperation.fc_out.bias f4 [66]
00000000: 1c7e 8abe 6de2 0a3d 7d0a ce3e 3165 ca3d
00000010: 795d acbd 5623 5e3e 378d 113e 579f 8e3e
00000020: d82f edbc 4381 6bbe cf17 8fbe d935 c93d
00000030: 9374 993d 1c13 ef3d 8a9d 8d3e 83bf f83d
00000040: 3816 48be 0a62 aabe b26f 8d3e 9e5a 6ebe
00000050: 6d1e 0bbc 3568 a03e 0a94 973d 8814 913d
00000060: 8b43 173e 53a4 f63e 6e83 01bf a445 673d
00000070: 4cc5 9fbe 3492 b53e 9253 ecbe 305b 55be
00000080: aa4a 8cbe 3d50 483e b94f e83e f4c5 29be
00000090: b689 b6be 6714 91be 705c c73d 7593 86be
000000a0: cb04 bc3c 73c9 c03e c40d b33e 3dc3 0dbf
000000b0: c24b 9fbd 3077 c8bd 8cbc c3be c1ba 3f3e
000000c0: eab1 a0bd 9dbf e3bd a011 64be b25d aa3e
000000d0: dca8 c1be 0498 efbd 99e4 aa3e 1fc8 30be
000000e0: 784c f43c e30b ebbe f9f1 4c3d e977 273e
000000f0: 65c4 ab3e 0925 14be e57e febd 47e8 483e
00000100: 3489 a8be 51e6 c9bd
-0.2704934 0.033907343 0.40242377 0.09882582 -0.08416266 0.21693167 0.14214025 0.27855942
-0.028953478 -0.22998528 -0.27947852 0.09824724 0.07492938 0.11673567 0.27659255 0.12145903
-0.19539726 -0.33277923 0.2762428 -0.23276755 -0.008491141 0.31329504 0.07401283 0.07083994
0.1477186 0.48172244 -0.5059117 0.0564629 -0.31205213 0.35463107 -0.4615751 -0.20835567
-0.27400714 0.19561858 0.45373324 -0.1657942 -0.3565194 -0.28335878 0.09734428 -0.26284376
0.022951504 0.37653694 0.3497144 -0.55376035 -0.077781215 -0.09788358 -0.38229787 0.18723585
-0.078464344 -0.11120532 -0.22272348 0.3327461 -0.37824142 -0.116989166 0.3337753 -0.1726384
0.02982162 -0.45907506 0.05003545 0.16354336 0.33548275 -0.14467253 -0.12426547 0.19619857
-0.32917178 -0.098583825

Mixer_Block.0.mlp_block_token_mixing_DynaMixerOperation.LN.weight f4 [10]
00000000: 7d38 9d3f 186c b13f 1604 9e3f 4f43 763f
00000010: 56d9 3f3f f5dc 793f 8f2d 523f 7a40 653f
00000020: a2ac 093f fe01 d63e
1.2282864 1.3861113 1.2344997 0.96196455 0.74941003 0.9760278 0.82100767 0.8955151
0.5377904 0.41798395

Mixer_Block.0.mlp_block_token_mixing_DynaMixerOperation.LN.bias f4 [10]
00000000: 3322 2f3e c4c0 a43e 0c59 e1be 7f6d 14be
00000010: cc59 d4be c2a3 adbc ef07 6ebe 6b16 7cbd
00000020: 4623 82be e437 a8bd
0.1710289 0.32178319 -0.4401325 -0.14494894 -0.4147476 -0.02119625 -0.23245214 -0.061544817
-0.25417536 -0.08213785

Mixer_Block.0.mlp_block_channel_mixing_DynaMixerOperation.fc_ND.weight f4 [1, 10]
00000000: e1c0 3e3f 3745 163e c3d0 513d b12e 303d
00000010: 2e31 d8bc 2be2 9dbc 5706 1e3a e64d 0fbd
00000020: ca0e c93b 3f28 6fbd
0.7451306 0.14674841 0.05122448 0.04301328 -0.026390638 -0.019272884 0.00060281664 -0.0349864
0.006135796 -0.05838799

Mixer_Block.0.mlp_block_channel_mixing_DynaMixerOperation.fc_Nd.weight f4 [484, 22]
00000000: a1b1 3f3e 9bb1 de3c 9643 3fbe 6a30 3f3e
00000010: f59a 25bd fdd0 54be 75eb 0e3e 355c 023f
00000020: 609a 793e 4cb8 95be a088 7c3e b874 87bd
00000030: b237 52be f812 1b3e 311a ea3d 2e15 d2be
00000040: 4a04 41bd 7946 9b3e f3d3 223e f6b6 e53d
00000050: 77f9 993e d603 463e 3d5a f93d 7c81 133c
00000060: 2692 fdbc bac7 673d 1e2f 593e b762 863c
00000070: 6ecc 11be a1c1 0b3e 8a93 0ebc d609 673d
00000080: 04ed 033f 0cee 21be 6419 08bd 7df3 01bd
00000090: d8c1 893c c635 2d3e 146a 7cbd 035c 95bc
000000a0: b6ae 75bd 14a0 283c 82fc 69bd 0d2e 713e
000000b0: 09cb c43c 4567 93be c15a e13d f751 6b3e
000000c0: 3a6e 4a3d 72d7 92bd 802a 1c3d 00d4 dabd
000000d0: 368a 403e eb5c 7bbe dbba a2bc fcc9 8a3e
000000e0: 0b25 833d e98e 433e 2562 3abd 8771 ea3e
000000f0: 710a 463e b384 0cbc d881 0c3d 945e 2fbe
00000100: dc39 bf3d e843 d43d 6d11 693d 1761 ac3e
00000110: b357 9abe 2239 473e e1ce a93d 6b2f 4a3d
00000120: 7b2e 213e a3cd dcbe 2620 b83d 74a5 823e
00000130: c8fe ce3e b53c babe 2bf5 b23c 156d e73c
00000140: 7a9b b73c 005c a83e c460 d03d 32ad 13be
00000150: 0512 85ba b0c5 52be c28c 95bd c971 383e
00000160: a4c0 913e decd a4bc 9620 95be 21e7 e3bd
00000170: d716 af3d f815 703e cfa8 afbd 9287 87be
00000180: 4a6d 42be 59e0 3ebe 4a39 04be 7709 e3be
00000190: 430d a23e 4179 2cbd f35f 833e ab1b e0be
000001a0: c873 933d aff8 53be 9672 1a3e 5288 91be
000001b0: 30f2 83be 51f0 8dbe 3dc7 493e a42d 5bbd
000001c0: 25ca 42bc c975 6f3e 88b1 753d f7c8 623e
000001d0: 2aa2 1abe 989c 9e3e d80c 53be b64b 883d
000001e0: dae7 ec3d be11 9d3d e019 b33e 612a 1c3c
000001f0: 2974 a23e 522a 85be 2794 1c3e a016 cfbd
00000200: 4eca ae3e e5e7 91be 5a34 cebd 8050 a7bd
00000210: bead 773b 9a2c a73d 09bd a6be 69ff 6d3e
00000220: 4aaa 213e 00c3 453e 5ed7 11bd 7c4d 5a3e
00000230: 55a6 26be cad4 1bbd 13fd 153e 1344 4dbd
00000240: f4e5 8fbe 9cc4 3b3e ff98 943c fe97 8bbe
00000250: 296a 19be defd 1b3d 98b2 3abe 9834 873e
00000260: fdb2 e4bd b53d e5be 8e6f 8bbe 4736 1abe
00000270: 9e5c 33bd ae10 82bd dccc d7bd 0307 023e
00000280: 45e6 8a3e 8bf3 babe 1dc8 53bd 0cd9 7d3e
00000290: ce25 9b3e db27 63be 92eb 373e 7653 15be
000002a0: 8fa3 06bc 52a9 9d3e 51c5 f13c 6389 ab3d
000002b0: 743c 42bd 6a85 0abe aeae 203e b804 d43d
000002c0: dd6f 07be 67c1 8abe 984d 9bbe 99d8 a2be
000002d0: ad03 6cbe e459 11be 502b dabd 66a4 d7bc
000002e0: ddc7 de3d 9f8e f53d b110 bfbe 7fa4 8f3e
000002f0: 61d0 21be 2b7c f23d c555 06ba 07bc c13d
00000300: 4c39 863e 8826 3b3e 97d8 69bd d571 c03d
00000310: b45e 2e3d 31f5 4dbd 6252 63bc 33a9 1dbe
00000320: b2be 963e aa04 10be e042 d8bd c132 e33d
00000330: eb58 213e ddaf 253e dddb 3abe 1aa8 813e
00000340: 2d70 b5bd bcff 973e 1be6 b53d 33fb 86bd
00000350: fc21 8ebd 6bf0 76bd 8588 cdbc ee85 443e
00000360: fa2a 2fbd bb6f 193e c6d4 4bbd b27f d13e
00000370: 7421 6b3e dad9 fbbc 9b3a 32be f893 30be
00000380: 5114 fbbd e91c 38be 317b 45be e966 41be
00000390: 8ab2 f63e ca11 e7bd e4db efbe 887c 22bc
000003a0: 50a1 903d aec1 7d3e f3bc f83d 1539 273e
000003b0: 30c3 aabe 5ba0 14be c759 873d 0d69 80be
000003c0: 81a9 08bd 82d3 40be 4d18 c33d 4c80 7e3e
000003d0: f290 173e 3538 81be eaa9 563e efe9 363d
000003e0: e4fe 2d3d 29dd 473e 4c96 84bd 6af1 48be
000003f0: 359d d13d eeee ab3e 0c6d 9abe 5bc0 4a3d
0.18720104 0.027184298 -0.18678126 0.18670812 -0.04043098 -0.20782848 0.13957007 0.50921947
0.24375296 -0.2924217 0.24661493 -0.06614059 -0.20529059 0.15143955 0.11430777 -0.41031784
-0.04712323 0.30327204 0.15901165 0.11216538 0.3007314 0.19337401 0.12175415 0.009003039
-0.030953478 0.05658696 0.2120938 0.016404493 -0.1423814 0.13648082 -0.008702168 0.056405865
0.5153353 -0.15813464 -0.03322734 -0.03172635 0.016816065 0.16915044 -0.0616246 -0.018232351
-0.05998107 0.010292072 -0.057125576 0.23552723 0.024022596 -0.28789726 0.11003638 0.22980486
0.049421526 -0.07169999 0.03812647 -0.10684967 0.18802723 -0.24547164 -0.01986449 0.27107227
0.0640355 0.19097485 -0.045503754 0.4578974 0.1933992 -0.00857656 0.034303516 -0.17125922
0.09337208 0.103645146 0.056901384 0.33667824 -0.30145034 0.19455388 0.08291412 0.049361628
0.15740387 -0.43125638 0.08990507 0.25516856 0.40428758 -0.3637444 0.02184542 0.028250257
0.022413004 0.3288269 0.101747066 -0.14421538 -0.0010152465 -0.20583224 -0.07302238 0.18012156
0.28467286 -0.020117696 -0.29126424 -0.11128069 0.08549278 0.2344588 -0.085771196 -0.2647062
-0.18987003 -0.1864027 -0.12912479 -0.4434316 0.31650743 -0.042107824 0.2565914 -0.4377111
0.07199818 -0.20700334 0.15082774 -0.28424317 -0.25770712 -0.2772241 0.1970491 -0.053510323
-0.011889015 0.23384775 0.05998376 0.22146975 -0.15100923 0.30978847 -0.20610368 0.06655066
0.1156766 0.076694 0.3498068 0.009531588 0.31729248 -0.2600885 0.1529089 -0.10111737
0.3413872 -0.28497234 -0.10068579 -0.08169651 0.0037792767 0.08162804 -0.32566097 0.23241962
0.15787616 0.19312668 -0.03560578 0.2131862 -0.16274388 -0.03804473 0.14647321 -0.05011375
-0.28105128 0.1833672 0.01813936 -0.27264398 -0.14981903 0.038083903 -0.1823219 0.26407313
-0.11166952 -0.4477364 -0.27233547 -0.15059768 -0.0437895 -0.06350838 -0.10537121 0.12697987
0.27128807 -0.36513934 -0.051704515 0.24789828 0.3030228 -0.22183172 0.17960957 -0.14582619
-0.008217706 0.30793244 0.029513033 0.08375814 -0.047420934 -0.13527456 0.15691635 0.103524625
-0.13226266 -0.2710068 -0.30332637 -0.31805876 -0.23048277 -0.14194447 -0.106527925 -0.026323508
0.10877965 0.119900934 -0.37317422 0.28055188 -0.15802146 0.118400894 -0.0005124475 0.094596915
0.2621559 0.18276417 -0.05709132 0.09396712 0.042570785 -0.05028266 -0.013874622 -0.15396576
0.29442364 -0.14064279 -0.105596304 0.11093665 0.15756576 0.16180368 -0.18247934 0.25323564
-0.088592865 0.29687297 0.0888178 -0.06590881 -0.06940076 -0.060287874 -0.025089512 0.19191715
-0.042765595 0.14984028 -0.049763463 0.40917736 0.2296198 -0.030743528 -0.17405169 -0.17243946
-0.122597344 -0.17979778 -0.19285275 -0.18886913 0.4818309 -0.1128269 -0.4684745 -0.009917386
0.07062018 0.24780914 0.12145414 0.16330369 -0.3335204 -0.14514296 0.066089205 -0.25080147
-0.033364777 -0.18830684 0.095261194 0.24853629 0.14801386 -0.25238195 0.20963255 0.04465669
0.04247941 0.1951796 -0.06473979 -0.19623342 0.10235063 0.33580726 -0.3016132 0.04949985

Mixer_Block.0.mlp_block_channel_mixing_DynaMixerOperation.fc_Nd.bias f4 [484]
00000000: 6c28 7a3d e9ea 763d fdf3 b23c 7eac 863d
00000010: f812 6bbe 01d5 1ebe 0b76 ff3d c7df 19bd
00000020: 9cf6 213c 415b 603e 30dc a03d b38b b2bd
00000030: bd2f 7cbe 023f 92bd 0625 933d df90 b03d
00000040: dca6 883e a1ba 7bbd 304c a4be cd73 603d
00000050: 0ae9 9e3e 4aeb c53d 62a3 fe3d 35cb 95bd
00000060: 4348 953e 6268 1c3e 0277 e43d 44aa e03d
00000070: 5dbc 183d 3839 5a3e 964d 95be 8289 80bd
00000080: c5fb e9bd 8a5b 15bd 57bd bb3c 406a b7be
00000090: 48c8 bcbd 35fc 63be 1e14 0c3c 181b 97be
000000a0: a1ab 823d 61cc 093e 7273 523e af36 98bc
000000b0: 867f bd3d 582e a33e 5465 b93d de21 1abd
000000c0: 0280 a73d d10d 0f3e 78d5 e43d 00e0 a93e
000000d0: 2ed5 be3d d2bf 06bd 1143 7e3e f014 133e
000000e0: 7b91 27be 104b a23e e453 bdbc 0cb5 193c
000000f0: f5b6 3cbe 761c 22bd 5330 a6bc 7e97 96be
00000100: 98e9 623e 283c fb3c b117 b23b dad9 70bd
00000110: b876 14bf 2d35 9f3c cd49 fe3b 0868 2cbe
00000120: fdc9 03be 3c35 a7bd bee3 433d 84ac ab3d
00000130: 7011 983d 742c 07be e2d0 323e 31b4 943e
00000140: e167 053d 0d7b 0a3e cb8e 26bd 001e e13d
00000150: 96e6 463e 689a 2ebc 2e20 4cbd f46f 4fbe
00000160: 9476 6bbe 7510 f7bd 8a50 91bd a32a b5be
00000170: ed55 133f ee24 d83c cd4d 64bc cff1 43be
00000180: b2f3 2dbe d8d2 6fbb 843d 4ebe ba07 8a3e
00000190: 1a3a a4be cb93 76be 72de c5be bc38 18bf
000001a0: 11d7 18be c2a6 5e3e 3647 f9bb 4160 0cbe
000001b0: de3a 543e 55fa ff3d 0788 19be d950 413d
000001c0: 552f 0dbe 4af5 c83e 18a9 9ebd 1385 c3bc
000001d0: a91c 253e 3751 cabd 5526 503d b1b6 c2be
000001e0: 7499 0abc 012a 1bbd 1f75 5ebe 7a36 b2bd
000001f0: 2776 8dbe 2a30 0d3e e4a8 8c3e 2aa1 573e
00000200: 2893 13be 123c d0bb e6c7 8b3e 291a 4b3e
00000210: 8b58 4a3e 76bf 85bd d0d0 553e 03b1 653d
00000220: 72bc 7dbd 32b7 a83e ccbd ce3d 1814 493d
00000230: e0f9 52bd b636 d03c 4d95 c8be 0f1b 4dbd
00000240: a8af 9ebe f254 dfbd 687c c9be 7b86 cfbe
00000250: 4b89 a5be 4468 eb3d 336d 9c3d 1abb 2a3e
00000260: 1830 f33d 2da7 0fbe e03c 5cbe 61b9 643e
00000270: edcc b53c 4294 a2bd e816 8fbc ef6e ca3e
00000280: 4714 833e a8eb 16be 004c 2d3d 3d86 81be
00000290: e034 dcbe 0682 493e 2f1f 643d 186a 93be
000002a0: e88f 3dbe 49d2 e0be 766a 09be cbba 363d
000002b0: d912 983e 8a80 26be b92d 0ebe 8f71 ec3d
000002c0: babc 183e b022 43bd d610 80bd 57e4 ac3e
000002d0: 26fb 4a3e c187 73be 6787 eebd 0d9a 82bd
000002e0: 4ee0 6dbd 777e 5dbe 94a1 113b 5be1 83be
000002f0: 3a44 2f3b 1547 c93d 0cd1 283e 075f a63e
00000300: be05 97bd 7259 0c3e 22fd d63d d73a 33be
00000310: 1457 51bd c692 8fbc 5438 0a3e f82b 3ebc
00000320: 047f 6f3c 9aca 9a3c 1434 57be 575a 5e3d
00000330: 7945 95bd aea2 a5bc 6c1f 9c3d 905d 073e
00000340: 76b7 6d3c 729b 033e 7ef1 1c3e 5f0a b63c
00000350: 1027 45be 81fd 2b3e cc35 93be 627b 713d
00000360: c9a3 7b3e acb5 223c 15af 803e eb57 673e
00000370: 1523 63be 0a8c 67be ffb0 513d 9265 573e
00000380: 6b4d e6bd ab5f 58be f4db 12be 2ed1 a93e
00000390: 31f9 1fbc 116a 0abe 4fd3 923d bd38 a83d
000003a0: b5eb 853d 6b7e 5f3d c262 eabd 9f87 fc3c
000003b0: 2888 85bd 0dd4 383d e53c 343e 7157 2f3d
000003c0: ae9d 8a3d 5b06 7c3e 4481 973e b9a4 27be
000003d0: e4d6 10be d810 0f3e df04 c6bd d891 2fbe
000003e0: 15df a7bc a5a3 423e cc4c 20be 84c5 8abc
000003f0: 54bb 503e 3eb2 c4bc cdc7 d8bc 4376 66be
0.061073706 0.06028262 0.021844858 0.06575869 -0.22956455 -0.15510942 0.12473687 -0.037566926
0.009885456 0.2190981 0.078544974 -0.08718052 -0.24627586 -0.07140924 0.07184796 0.08621382
0.26689804 -0.06145728 -0.32089376 0.054797936 0.3103717 0.096640185 0.124335065 -0.07314149
0.29156694 0.15274194 0.111555114 0.109699756 0.037289012 0.2131089 -0.29160756 -0.062762275
-0.11424974 -0.03646425 0.022917433 -0.3582325 -0.09217888 -0.22264178 0.008549718 -0.29512858
0.06380392 0.1345687 0.20551851 -0.018580763 0.09252839 0.31871295 0.0905253 -0.037629955
0.081787124 0.13970114 0.111735284 0.3317871 0.093180045 -0.032897778 0.24830271 0.14363456
-0.1636409 0.31697893 -0.023111291 0.009381544 -0.18429168 -0.039577924 -0.020286715 -0.29412454
0.22159421 0.030668333 0.005434953 -0.05880151 -0.5799365 0.019434536 0.0077602626 -0.1683656
-0.12870021 -0.081644505 0.047824614 0.08382514 0.07425201 -0.13200551 0.17462495 0.29043725
0.03256977 0.13523503 -0.04066352 0.1099205 0.19423899 -0.0106569305 -0.049835376 -0.2025755
-0.22994453 -0.12063686 -0.0709544 -0.35384092 0.5755299 0.026384797 -0.013934565 -0.19135211
-0.16987494 -0.0036594179 -0.20140654 0.2695902 -0.32075578 -0.24079816 -0.38646275 -0.5946157
-0.14925791 0.217433 -0.007607366 -0.13708593 0.20725581 0.12498919 -0.14993297 0.047196243
-0.13787587 0.3924964 -0.07747096 -0.023867166 0.16124214 -0.09878772 0.050817806 -0.38030007
-0.008459438 -0.037881855 -0.21724366 -0.08701797 -0.27629206 0.13787904 0.27472603 0.21057573
-0.14411604 -0.006354817 0.27300948 0.19834198 0.19760339 -0.06530659 0.20880437 0.056077015
-0.061947294 0.32952267 0.10094795 0.04909143 -0.05150783 0.025416713 -0.39176407 -0.050074633
-0.3099339 -0.10904874 -0.39352727 -0.40532288 -0.3233131 0.114944965 0.076380156 0.16672936
0.118744075 -0.14028616 -0.21507597 0.22336341 0.022192443 -0.07938434 -0.017466977 0.3953776
0.25601408 -0.14738333 0.042308807 -0.25297728 -0.4300909 0.19678506 0.0556938 -0.2879188
-0.18511927 -0.43910435 -0.13419518 0.044611733 0.2970188 -0.16259971 -0.1388463 0.11545097
0.14915743 -0.047640502 -0.06253211 0.3376796 0.19822368 -0.23782255 -0.1164692 -0.06377039
-0.05807524 -0.21630274 0.0022221552 -0.2575787 0.0026743547 0.09828011 0.16485995 0.32494375
-0.07374142 0.13705996 0.104975 -0.17502914 -0.051108435 -0.017526042 0.1349805 -0.011607163
0.014617685 0.018895436 -0.2101596 0.054285374 -0.072886415 -0.020219173 0.07623181 0.13219285
0.0145090725 0.12852266 0.15326497 0.022221742 -0.19253182 0.16795923 -0.2875198 0.058955558
0.24574198 0.009931009 0.25133577 0.22592132 -0.22181351 -0.22612014 0.051194187 0.2103484
-0.11245235 -0.21130244 -0.14341718 0.33167404 -0.009764002 -0.13517024 0.0716921 0.08213947
0.06539098 0.05456392 -0.11444618 0.030826388 -0.0652011 0.045124102 0.17601354 0.042808
0.06768356 0.246118 0.2959081 -0.1637143 -0.14144474 0.13971269 -0.09668898 -0.17145479
-0.020492116 0.19007738 -0.15654296 -0.016939886 0.2038396 -0.024010774 -0.02646246 -0.22506051

Mixer_Block.0.mlp_block_channel_mixing_DynaMixerOperation.fc_out.weight f4 [10, 10]
00000000: b6ba 003e 1ed7 243e ee16 773d 9f8a 7b3e
00000010: 8b5e 993d 643e 733e dbba 203e 901e 623e
00000020: 72da 083c adf6 0a3e fbd7 8bbe 112a c73e
00000030: b442 eb3d 8034 f53d cb08 ac3c 5218 b5bd
00000040: 0b68 8d3d b233 f23d 01ab 7bbe f2d1 b13d
00000050: e44d 5cbe d0e2 613c b444 eb3d f479 66bd
00000060: 0873 69bc 91a9 6dbe 949b 21bd efa4 3e3e
00000070: fc64 613c f900 093b 4bb7 21bf 6be4 5f3e
00000080: 8d40 c2bd 6218 da3d ca74 2cbd 8b25 703e
00000090: d5df 513e ce61 60bd 2a27 47be d0a5 05be
000000a0: 75c8 543f f159 00bf 0f71 e0be 30a1 8d3b
000000b0: 33b2 06be 7dfc 503e 834c 293e fbd4 efbc
000000c0: e0a6 53be 7416 2abd 6169 803e df7d 353e
000000d0: 53d3 3dbf 6e3a 21be 1211 b8be 1d5a a3be
000000e0: 0209 c2be c345 803e 2b36 9b3e 1c5e 7f3c
000000f0: 3105 d4be d061 f23d ae9d 25be e755 b2bd
00000100: a8c7 fabd 39b9 4bbe a178 49be e801 aa3d
00000110: b661 b7bd 98ce 833d 44dc 80be e1f3 2abe
00000120: ae0e aebe cd7a 4a3e 5930 3dbe 3ff7 5b3e
00000130: cf6d 613e e09f b53b 2176 8cbe fe91 1bbe
00000140: e7c1 a3be a955 c2be aa17 e13d 9f16 ac3d
00000150: d9a8 4c3e 2077 6c3e 86e6 81bc 7f72 ebbd
00000160: 029c 0c3e 50ba 6abd 28b7 843e 8f68 013f
00000170: 1bf1 f7be 0344 283e 4695 98be 6484 27bc
00000180: e64b 24be 3319 81be 5668 2cbe ebf3 66be
0.12571225 0.16097686 0.0603246 0.24564599 0.07488736 0.23754269 0.1569628 0.22081971
0.008352863 0.13570662 -0.27313218 0.38899282 0.11487332 0.11972904 0.021000287 -0.08842529
0.0690461 0.11826266 -0.24576952 0.08682622 -0.21514088 0.0137869865 0.114877135 -0.056268647
-0.014248617 -0.23209216 -0.03945501 0.18617605 0.013756987 0.002090512 -0.6317031 0.21864478
-0.09484968 0.10649182 -0.042103566 0.23451822 0.20495541 -0.054780774 -0.19448534 -0.13051534
0.83118373 -0.5013724 -0.43836257 0.0043221936 -0.13153915 0.20408817 0.16533093 -0.029276362
-0.20669127 -0.04152532 0.25080398 0.17723797 -0.7415058 -0.15744945 -0.35950524 -0.31904688
-0.37897497 0.25053224 0.30314764 0.015586402 -0.4141021 0.118350625 -0.16173431 -0.08707791
-0.12245113 -0.19894876 -0.19674923 0.08301145 -0.08954184 0.06435889 -0.2516805 -0.16694595
-0.33995575 0.19773407 -0.18475474 0.21481036 0.22014545 0.00554274 -0.27433875 -0.1519241
-0.31983873 -0.3795598 0.10990842 0.08402752 0.19986285 0.23092318 -0.015856992 -0.11496448
0.13731387 -0.057306588 0.25920987 0.5055017 -0.48426136 0.16432194 -0.29801387 -0.0102244355
-0.16044578 -0.25214538 -0.16836676 -0.22553985

Mixer_Block.0.mlp_block_channel_mixing_DynaMixerOperation.fc_out.bias f4 [10]
00000000: 4a31 87be 181d 8dbd 069c c1be 52a3 89be
00000010: 6d02 0d3e 7921 733e 0835 bb3c 9a15 1d3e
00000020: d963 263e 0aab 2abf
-0.26404792 -0.06890315 -0.3781435 -0.26882416 0.13770457 0.23743238 0.022852436 0.15340272
0.16249026 -0.66667235

Mixer_Block.0.mlp_block_channel_mixing_DynaMixerOperation.LN.weight f4 [22]
00000000: 2666 893f 256c 9d3f 317e 973f 545d 743f
00000010: a862 943f 4b96 a53f 543e 903f 8c59 883f
00000020: f56b 893f d985 a83f a748 a43f 3fb5 773f
00000030: 4f82 923f faaa 743f f12a 943f 82d1 893f
00000040: a32a 993f 1667 953f be56 9d3f f841 853f
00000050: 73d2 8d3f 5dc8 9b3f
1.0734298 1.2298628 1.1835386 0.9545491 1.1592607 1.2936491 1.1269021 1.0652328
1.0736071 1.3165847 1.2834672 0.96760935 1.1446017 0.9557339 1.1575605 1.0767062
1.1966137 1.1672084 1.2292097 1.0410757 1.1079849 1.2170521

Mixer_Block.0.mlp_block_channel_mixing_DynaMixerOperation.LN.bias f4 [22]
00000000: 1de6 a1bd 0916 d53c 9cb0 42bd 7488 02be
00000010: 6529 333d 3bbb f7bd 33a0 0e3e 90d1 3ebd
00000020: 226b 94bd 6a55 673c 838c 1a3e a720 08be
00000030: d564 6bbe 829d 3cbb 76e7 153e e5df e43d
00000040: 2e6b 203d bbd1 38be a6ca f1bd bed6 c13d
00000050: ede9 fabd 18ca 9a3d
-0.07905219 0.026011484 -0.04753171 -0.12747365 0.04374065 -0.12096258 0.13928299 -0.046586573
-0.072469965 0.014119485 0.15092663 -0.13293706 -0.22987683 -0.0028780405 0.14639077 0.11175517
0.039164715 -0.18048756 -0.1180623 0.09464787 -0.12251649 0.075580776
