M_2_AST/MotionMixer-main/h36m/run_for_longging/exp244/model.pt (torch, 870893 bytes, 184 tensors)

Mixer_Block.0.mlp_block_token_mixing.fc1.weight f4 [20, 10]
-0.45362934 0.32448548 -0.012216033 0.32116103 0.047071125 0.006912735 -0.20859158 -0.43006894
-0.107677005 -0.6469986 -0.27497664 0.31827983 -0.22986616 0.40777078 -0.39842233 0.5737746
-0.059308074 0.17974347 -0.24094038 -0.09213541 -0.20845369 0.2084379 -0.032357827 0.25652754
-0.19238022 0.3514814 -0.3854247 0.31482813 -0.64729965 0.43180585 0.4053876 -0.31127018
0.13693357 -0.33696067 0.05034839 -0.06999944 0.5819293 0.20855026 -0.49066427 0.40851378
0.27738667 -0.38408276 0.05272381 -0.11103057 0.43500906 -0.72671044 0.3561198 -0.18247768
0.7102931 -0.19948187 0.09422163 -0.33457544 0.13349798 -0.26100802 0.66321564 -0.2023806
0.06444781 -0.2340021 0.7094621 0.060124416 0.38542652 -0.1807101 0.044752683 -0.15141828
0.5584159 -0.26125795 0.6792074 -0.21320735 0.12592922 -0.4761949 0.11965503 0.47494116
-0.58663726 0.30245042 -0.42225167 -0.30941528 0.6601264 -0.01233465 -0.061177857 -0.5885066
-0.37587097 0.3764562 -0.13653696 0.0053463196 -0.18828538 0.20095216 -0.51961607 0.31081745
0.15561949 -0.3309697 0.34746423 -0.21835041 0.2945652 -0.21623681 -0.43639117 -0.12215186
0.039706793 0.7825095 -0.50349015 -0.046137445 -0.11285181 0.20676209 -0.2790082 0.038841937
-0.55196637 0.37154466 -0.2362389 0.20627345 -0.24669716 0.32819572 -0.3343182 0.13848136
-0.16119231 0.09625731 -0.19710924 0.439098 -0.6065462 0.50366724 -0.3173128 0.17429838
-0.041737642 0.27863157 0.23535737 -0.15000987 -0.6296834 0.23319937 -0.1059127 0.19890216
-0.7377771 0.43527064 0.3826529 -0.27648613 -0.17429371 -0.40776378 -0.08938034 0.15997328
0.5429731 0.41533035 0.002188377 0.7162106 -0.26519978 0.36764374 -0.20920393 0.33422247
0.21102732 0.026920233 -0.33360013 -0.2035168 0.700559 -0.5640905 -0.49321455 0.2519987
-0.22940318 0.30231228 -0.35391146 -0.06719804 -0.26718524 -0.19558662 0.3737658 0.3805292
-0.46641377 0.359289 0.39736187 0.1117856 -0.12724619 -0.10918452 -0.22000784 -0.30074236
-0.037132915 -0.35766017 -0.028969761 0.2825998 -0.20134166 0.72109824 -0.5032374 -0.453972
-0.26726273 0.40421468 -0.27134925 -0.06468017 -0.11846363 -0.28415748 0.4383909 0.32378128
0.6222514 0.0050340085 -0.2725954 -0.5315525 0.1766657 -0.25361803 -0.26266703 0.109025165
-0.21623887 -0.012295351 -0.3825292 0.24818821 -0.8085348 -0.1435475 0.22757387 0.24901216
00000000: 1b42 e8be f622 a63e c225 48bc 386f a43e
00000010: a7cd 403d 3984 e23b 0899 55be ff31 dcbe
00000020: c385 dcbd b3a1 25bf bdc9 8cbe 93f5 a23e
00000030: 0962 6bbe 55c7 d03e 03fe cbbe e4e2 123f
00000040: 06ed 72bd ac0e 383e 13b9 76be 7db1 bcbd
00000050: e274 55be bf70 553e a489 04bd 9457 833e
00000060: 52ff 44be 5ff5 b33e 6356 c5be 2731 a13e
00000070: 6eb5 25bf a815 dd3e f78e cf3e ce5e 9fbe
00000080: 5038 0c3e 1c86 acbe 1d3a 4e3d de5b 8fbd
00000090: 52f9 143f 338e 553e 5938 fbbe b828 d13e
000000a0: a005 8e3e 7fa6 c4be ecf4 573d ff63 e3bd
000000b0: 82b9 de3e b209 3abf 5655 b63e 6edb 3abe
000000c0: c5d5 353f fa44 4cbe 45f7 c03d 794d abbe
000000d0: b2b3 083e d8a2 85be 80c8 293f dc3c 4fbe
000000e0: 37fd 833d 3f9e 6fbe 4f9f 353f 0545 763d
000000f0: a056 c53e 120c 39be 974e 373d 650d 1bbe
00000100: 58f4 0e3f 9ac3 85be 89e0 2d3f 0753 5abe
00000110: 97f3 003e d1cf f3be b20d f53d 7d2b f33e
00000120: dc2d 16bf c8da 9a3e 5f31 d8be ae6b 9ebe
00000130: 0bfe 283f 4617 4abc a295 7abd 5ea8 16bf
00000140: 2972 c0be debe c03e 58d0 0bbe 2e30 af3b
00000150: e2cd 40be 67c6 4d3e 8f05 05bf 7723 9f3e
00000160: b75a 1f3e dc74 a9be d5e6 b13e 4097 5fbe
00000170: 40d1 963e 2f6d 5dbe aa6e dfbe c12a fabd
00000180: 97a3 223d 8b52 483f bbe4 00bf 9efa 3cbd
00000190: da1e e7bd 71b9 533e 2ada 8ebe b918 1f3d
000001a0: ab4d 0dbf 1a3b be3e 9ce8 71be 5939 533e
000001b0: 2e9e 7cbe 4509 a83e c12b abbe 0fce 0d3e
000001c0: 990f 25be 8d22 c53d 01d7 49be 74d1 e03e
000001d0: 9d46 1bbf 56f0 003f d376 a2be 467b 323e
000001e0: 17f5 2abd cca8 8e3e 8601 713e 309c 19be
000001f0: ee32 21bf d1cb 6e3e c2e8 d8bd 02ad 4b3e
00000200: f6de 3cbf cbdb de3e 15eb c33e 978f 8dbe
00000210: 0d7a 32be 6ac6 d0be 0a0d b7bd 09d0 233e
00000220: 4900 0b3f 2ea6 d43e e06a 0f3b 9459 373f
00000230: 44c8 87be cd3b bc3e 8e39 56be 351f ab3e
00000240: 8c17 583e d287 dc3c a3cd aabe b566 50be
00000250: d657 333f 3c68 10bf 9e86 fcbe f905 813e
00000260: abe8 6abe adc8 9a3e e233 b5be 209f 89bd
00000270: 81cc 88be dc47 48be 3b5e bf3e b9d4 c23e
00000280: c9cd eebe baf4 b73e 0473 cb3e d9ef e43d
00000290: d34c 02be 229c dfbd bc49 61be e7fa 99be
000002a0: af18 18bd 3c1f b7be fe51 edbc ecb0 903e
000002b0: 822c 4ebe e599 383f 2bd4 00bf 056f e8be
000002c0: a9d6 88be 3af5 ce3e 4aee 8abe 0977 84bd
000002d0: 0f9d f2bd 177d 91be c674 e03e a9c6 a53e
000002e0: de4b 1f3f 53f4 a43b a091 8bbe d313 08bf
000002f0: dae7 343e 39da 81be 4b7c 86be 9648 df3d
00000300: b96d 5dbe 7172 49bc deda c3be 0d25 7e3e
00000310: 23fc 4ebf 1efe 12be 2009 693e 0bfd 7e3e

Mixer_Block.0.mlp_block_token_mixing.fc1.bias f4 [20]
0.3464541 0.32109964 0.3875479 0.28188273 0.35462818 0.5588805 0.28801003 0.5373387
0.18310063 0.5744768 0.36527008 0.5055489 0.35361162 0.62638295 0.17894584 0.20622626
0.4272291 0.31270114 0.36193267 0.34959045
00000000: 6f62 b13e 2c67 a43e ae6c c63e ef52 903e
00000010: d391 b53e cb12 0f3f 0d76 933e 078f 093f
00000020: bb7e 3b3e e910 133f ae04 bb3e a76b 013f
00000030: 950c b53e a25a 203f 943d 373e fa2c 533e
00000040: c6bd da3e 5d1a a03e 3d4f b93e 85fd b23e

Mixer_Block.0.mlp_block_token_mixing.fc2.weight f4 [10, 20]
0.41889018 -0.13663726 0.047689456 0.15440974 -0.08962102 0.17961217 -0.04200102 -0.6254534
-0.11851713 0.28404757 -0.6422115 -0.06874264 0.13615738 -0.380192 -0.23841001 -0.20552923
0.5595294 -0.38768277 0.60323143 -0.30745605 0.19947308 0.3147507 0.19519891 0.015513059
0.030709857 0.12705058 -0.06490838 0.16615468 -0.107216015 -0.39126685 -0.001369682 0.025570674
-0.24837828 0.026243813 0.11265253 0.38078183 0.026330533 0.0034927959 0.37382004 -0.22660573
-0.4000678 -0.20363867 -0.2689479 0.15372205 0.2323556 0.37230703 0.49105224 -0.18098259
-0.1495311 -0.14619102 -0.014769492 0.12663577 -0.5809229 0.4678731 -0.13393398 -0.4286818
-0.5971147 -0.24027415 -0.22735867 -0.1285964 -0.11591925 0.34676626 -0.083882 -0.086172655
-0.36504343 -0.1005448 -0.1108445 0.14876784 0.23537 -0.0039452654 0.5519785 0.3730259
0.15999727 0.38384187 -0.09808079 -0.12502949 0.015416321 -0.41648275 -0.43624184 0.2043174
-0.2928717 0.02886636 -0.5414872 0.42406663 0.1226362 -0.04935705 0.3265445 0.3469118
-0.15219215 0.22445379 0.06901172 -0.2513915 0.07277744 0.26608866 -0.26909944 -0.120617375
-0.22719449 -0.21982573 -0.3941763 -0.40368572 -0.11220957 -0.030917948 0.33871335 -0.10750536
0.22645482 -0.030363178 -0.44742265 -0.20347743 0.23986323 0.48568004 -0.069851905 0.23542666
0.119262986 -0.13646403 -0.046542056 0.13826026 0.0048737903 0.49215227 -0.12494585 0.0535319
-0.04739395 -0.6861009 -0.7155401 -0.47269562 1.0666468 0.9218968 0.3187498 -0.33986813
-0.13438582 -0.6812918 -0.4988162 -0.33446655 -0.8789964 -0.12854698 0.59487015 0.16032937
0.022100704 -0.3856138 0.6471841 0.1932307 0.124257654 0.23756717 0.41582137 -0.17656638
-0.5909999 -0.12505868 -0.30510834 -0.19691269 0.16261049 -0.27716777 0.31374407 0.38371027
0.2767564 -0.10361777 0.09311916 0.26096463 -0.027490232 -0.21838626 0.13724437 0.50700355
-0.28514394 -0.30916494 0.23659202 0.8178297 -0.2133583 -0.44043288 0.35342512 0.1347178
-0.47243676 0.38497177 0.015708428 -0.28224987 0.3415054 0.34299967 -0.8822765 -0.9695577
-0.32967287 0.10738098 -0.1368899 -0.53610545 0.72276014 0.016884362 -0.3091612 -0.4013255
0.080879666 -0.29120168 0.67416286 0.8241963 0.4427022 0.0407417 -0.36142072 -0.14286949
-0.34970966 -0.6157456 0.7705532 -0.34572122 0.3118807 0.38968632 0.15136181 -0.2435901
00000000: c678 d63e a3ea 0bbe 0556 433d 961d 1e3e
00000010: 3a8b b7bd 41ec 373e 4309 2cbd b71d 20bf
00000020: 1cb9 f2bd af6e 913e f967 24bf f1c8 8cbd
00000030: d76c 0b3e 87a8 c2be c121 74be 4176 52be
00000040: 523d 0f3f 5b7e c6be 606d 1a3f e16a 9dbe
00000050: ac42 4c3e 0127 a13e 39e2 473e 7c2a 7e3c
00000060: 3d93 fb3c 8c19 023e afee 84bd 7424 2a3e
00000070: 1294 dbbd 2154 c8be e786 b3ba 9779 d13c
00000080: e056 7ebe 44fd d63c 5fb6 e63d d6f5 c23e
00000090: 21b3 d73c 64e7 643b 5765 bf3e 550b 68be
000000a0: b0d5 ccbe a886 50be 8ab3 89be 5069 1d3e
000000b0: a0ee 6d3e 079f be3e 336b fb3e 8053 39be
000000c0: ae1e 19be 19b3 15be bdfb 71bc cfac 013e
000000d0: 5db7 14bf 108d ef3e fd25 09be 2e7c dbbe
000000e0: 82dc 18bf 6d0a 76be b6d0 68be c6ae 03be
000000f0: 1267 edbd 598b b13e 53ca abbd 4a7b b0bd
00000100: f9e6 babe 6fea cdbd 7102 e3bd 9956 183e
00000110: d504 713e 4947 81bb 774e 0d3f 40fd be3e
00000120: 53d6 233e ec86 c43e 95de c8bd bb07 00be
00000130: bd94 7c3c 3a3d d5be 175b dfbe 9538 513e
00000140: 48f3 95be 2579 ec3c e89e 0abf 431f d93e
00000150: b028 fb3d 9e2a 4abd d730 a73e 6c9e b13e
00000160: 42d8 1bbe 37d7 653e 0456 8d3d 63b6 80be
00000170: 570c 953d c63c 883e 67c7 89be 3e06 f7bd
00000180: aca5 68be ff19 61be 7ad1 c9be e5af cebe
00000190: 22ce e5bd a347 fdbc d66b ad3e c52b dcbd
000001a0: c6e3 673e 33bc f8bc 9514 e5be 635c 50be
000001b0: b59e 753e 0eab f83e 840e 8fbd b013 713e
000001c0: 2740 f43d 3abd 0bbe e2a2 3ebd 1994 0d3e
000001d0: 51b4 9f3b 62fb fb3e 9ce3 ffbd 4444 5b3d
000001e0: 2920 42bd 4fa4 2fbf a32d 37bf 2905 f2be
000001f0: e287 883f 6e01 6c3f 2c33 a33e 3203 aebe
00000200: 709c 09be 2469 2ebf d664 ffbe 333f abbe
00000210: e805 61bf d2a1 03be 6949 183f 622d 243e
00000220: 890c b53c 2c6f c5be dbad 253f 45de 453e
00000230: cc7a fe3d cf44 733e 8ae6 d43e d1cd 34be
00000240: c54b 17bf 620f 00be 2937 9cbe 7ba3 49be
00000250: 5d83 263e efe8 8dbe 10a3 a03e ac75 c43e
00000260: 04b3 8d3e 8e35 d4bd 42b5 be3d 289d 853e
00000270: 3233 e1bc a6a0 5fbe ca89 0c3e fcca 013f
00000280: 63fe 91be de4a 9ebe 2e45 723e 4a5d 513f
00000290: 997a 5abe 6b80 e1be 23f4 b43e 77f3 093e
000002a0: 3be3 f1be 051b c53e f6ae 803c 0e83 90be
000002b0: ccd9 ae3e a79d af3e dfdc 61bf ef34 78bf
000002c0: e2ca a8be 8fea db3d de2c 0cbe 353e 09bf
000002d0: cf06 393f 1351 8a3c 604a 9ebe 897a cdbe
000002e0: 3da4 a53d 6318 95be f095 2c3f 87fe 523f
000002f0: dda9 e23e c5e0 263d 230c b9be 614c 12be
00000300: 250d b3be 81a1 1dbf f942 453f 5f02 b1be
00000310: d4ae 9f3e f784 c73e 97fe 1a3e af6f 79be

Mixer_Block.0.mlp_block_token_mixing.fc2.bias f4 [10]
0.4056126 -0.28555796 0.5205736 -0.23321936 0.40863308 -0.3894022 0.32155254 -0.089805394
0.35795563 -0.54435515
00000000: 74ac cf3e a734 92be 5044 053f 0ed1 6ebe
00000010: 5b38 d13e ba5f c7be 89a2 a43e e4eb b7bd
00000020: f645 b73e dc5a 0bbf

Mixer_Block.0.mlp_block_token_mixing_DynaMixerOperation.fc_ND.weight f4 [1, 66]
-0.028658152 0.0013097227 0.008542505 -0.013578755 0.06601855 0.018182153 -0.12432285 0.029934522
0.073593386 0.04506359 0.033740867 0.037296582 0.031318437 -0.041225992 -0.103532486 -0.0051300884
0.05660075 0.032022785 -0.019694973 -0.023198802 -0.0052061104 -0.010481519 -0.05328609 0.022823112
-0.06681522 -0.012257696 -0.057224244 -0.06862716 0.100830466 0.055204317 -0.08225046 -0.035576172
0.016641976 0.038168583 -0.051003147 -0.020867871 -0.036498323 -0.066385 -0.038037278 0.0057162317
-0.055165663 -0.07008517 -0.047720976 0.00058358675 0.023703167 0.014322406 0.06685142 -0.046407226
-0.014413753 -0.03963265 -0.038643535 0.027468223 0.0071550338 0.07300569 -0.013298716 -0.045217257
0.041604068 0.07606923 -0.03574153 -0.049820296 0.031582974 -0.06360173 0.019053314 -0.09204699
0.0058055087 -0.018277423
00000000: 80c4 eabc 00ab ab3a ddf5 0b3c 6d79 5ebc
00000010: bc34 873d bdf2 943c fa9c febd 3e39 f53c
00000020: 21b8 963d 9994 383d dd33 0a3d 4dc4 183d
00000030: c347 003d 96dc 28bd d708 d4bd 4d1a a8bb
00000040: 30d6 673d 532a 033d 5a57 a1bc 6a0b bebc
00000050: 0598 aabb adba 2bbc 8442 5abd 89f7 ba3c
00000060: 6bd6 88bd 81d4 48bc f863 6abd 658c 8cbd
00000070: 3480 ce3d ec1d 623d ee72 a8bd 52b8 11bd
00000080: c154 883c a956 1c3d ade8 50bd 19f3 aabc
00000090: 447f 15bd dcf4 87bd facc 1bbd 3a4f bb3b
000000a0: 64f5 61bd d088 8fbd 1277 43bd d8fb 183a
000000b0: 252d c23c 86a8 6a3c 66e9 883d 8115 3ebd
000000c0: a927 6cbc d855 22bd af48 1ebd 0a05 e13c
000000d0: c674 ea3b 0284 953d dce2 59bc bb35 39bd
000000e0: 0769 2a3d 2fca 9b3d b665 12bd 5e10 4cbd
000000f0: 265d 013d a041 82bd b215 9c3c 2283 bcbd
00000100: 233c be3b 89ba 95bc

Mixer_Block.0.mlp_block_token_mixing_DynaMixerOperation.fc_Nd.weight f4 [100, 10]
-0.49483827 -0.24768406 0.025055232 -0.022120608 0.08223035 0.091771044 0.13445935 0.20919552
0.28275716 0.15300533 0.06901065 0.18152116 0.00055175426 -0.31168976 -0.26817214 -0.29102796
-0.1758048 -0.18468782 -0.07608099 -0.024872566 0.11012141 0.23115021 0.4951991 0.39778227
0.22287472 0.059567075 -0.0030961866 -0.15597987 0.10517281 0.10941121 0.25606728 -0.16376062
-0.10839888 -0.13334404 0.06905514 0.11678997 0.24154201 -0.035005193 0.0072677564 -0.0507551
0.15908158 0.2529428 0.2673284 0.020941025 -0.0848958 0.16100915 0.13209675 0.29220262
0.05604843 0.062153894 0.14922948 0.009971484 0.017980017 0.14530034 -0.016122555 -0.008151934
-0.06235033 0.13288118 0.23310243 0.04387485 0.0601907 0.19728376 -0.29342946 -0.13517651
-0.054797873 0.07011099 -0.24606934 -0.18133439 0.04689965 0.15648533 -0.15694767 0.010933026
-0.19236702 -0.116606966 -0.14592661 0.09257341 -0.027858496 -0.21495497 0.2845478 0.045237023
-0.17917322 0.08785125 -0.053861357 0.0028250797 -0.030757759 0.11072535 0.010295823 0.019917306
0.3143208 0.19046213 0.11787934 0.003553704 0.067925155 -0.049714465 -0.14833649 0.10120335
0.09576658 0.020538323 0.18518776 -0.04441008 -0.16087781 -0.075079486 -0.18488248 -0.017404571
-0.09289511 0.006009848 -0.062228568 0.0845652 -0.00030451713 0.08926557 -0.35779542 -0.053269494
-0.30255914 -0.108985946 -0.3357155 -0.34802744 -0.30382878 -0.2852018 -0.2411286 -0.17281471
-0.17506875 -0.21506883 -0.14481716 -0.1619805 -0.19197497 -0.08742186 0.061163764 0.28227925
0.042233 0.018712763 0.5914011 0.23578085 0.21805882 0.36610824 0.28878763 -0.012079746
0.08654985 -0.06586247 -0.049408685 -0.19671069 0.29607415 -0.27931777 -0.14623834 -0.001896433
-0.028451806 -0.06757333 -0.030640198 0.067434125 -0.32979503 -0.10960736 0.32334483 -0.1352292
0.31183648 0.19421731 0.16833071 0.20179519 0.058841135 -0.009099526 0.094439395 -0.37336582
0.03047825 0.1085793 -0.23677993 -0.18563907 -0.497669 -0.271631 0.12482063 -0.09265901
-0.016650049 0.07974005 -0.00064971 -0.25613645 -0.13460155 0.18125585 -0.17754953 -0.14516757
0.024431095 -0.10577661 -0.06032125 -0.11542089 -0.06302287 -0.18348573 -0.002865654 0.085164756
-0.19624147 -0.14555791 -0.27554598 0.022634877 0.25151724 0.097877115 0.16086797 0.018886458
0.40712163 0.25914633 0.23094465 0.23835078 0.13658172 -0.003668647 0.06483192 1.3208359e-05
0.17442326 0.40752298 0.060818918 0.017806536 0.063032426 -0.044017702 0.15433063 -0.22282107
-0.1852275 -0.14949043 -0.18832134 -0.36780885 -0.44471824 0.09499082 -0.046161197 -0.09746353
-0.021202113 -0.198493 0.18319292 0.15358548 -0.13468696 0.07448875 -0.15856317 0.07420979
0.013428263 0.039130796 0.21727388 -0.0017492372 0.16157426 -0.017419174 0.093532905 -0.12548013
-0.2318144 -0.40348634 0.080937505 0.02570544 0.2393151 -0.0200791 0.24538593 0.03542517
0.110749036 0.36895576 -0.050390977 0.4193838 0.24472424 0.18024443 -0.0760782 -0.015597435
-0.021257114 -0.11445912 0.040181357 -0.057358664 0.16451988 0.05040122 -0.06457343 -0.033545163
00000000: 715b fdbe e4a0 7dbe a140 cd3c 4736 b5bc
00000010: 6368 a83d 75f2 bb3d b6af 093e 5a37 563e
00000020: 8cc5 903e 6ead 1c3e 7555 8d3d afe0 393e
00000030: 9aa3 103a cd95 9fbe dc4d 89be 9e01 95be
00000040: 2c06 34be ce1e 3dbe 5ad0 9bbd 8dc1 cbbc
00000050: 5587 e13d a4b2 6c3e bd8a fd3e 1eaa cb3e
00000060: 4539 643e 9bfc 733d 64e9 4abb 30b9 1fbe
00000070: d864 d73d fc12 e03d 401b 833e ddb0 27be
00000080: 3b00 debd 578b 08be c86c 8d3d 942f ef3d
00000090: ca56 773e 9b61 0fbd 5c26 ee3b 94e4 4fbd
000000a0: 48e6 223e b881 813e 45df 883e 838c ab3c
000000b0: d9dd adbd 95df 243e 5f44 073e 959b 953e
000000c0: 0a93 653d 1595 7e3d 9dcf 183e 6f5f 233c
000000d0: d44a 933c 9dc9 143e 7313 84bc b08f 05bc
000000e0: 0f63 7fbd 0112 083e 67b2 6e3e 1db6 333d
000000f0: 868a 763d c104 4a3e 633c 96be b66b 0abe
00000100: bc73 60bd 5a96 8f3d 9af9 7bbe b9af 39be
00000110: d919 403d b13d 203e e4b6 20be 6f20 333c
00000120: dcfb 44be a2cf eebd c96d 15be 2197 bd3d
00000130: 8037 e4bc 281d 5cbe 40b0 913e 754a 393d
00000140: 2f79 37be 5beb b33d ba9d 5cbd f924 393b
00000150: b2f7 fbbc f9c3 e23d d0af 283c 9e29 a33c
00000160: a8ee a03e 8108 433e b96a f13d 42e5 683b
00000170: 581c 8b3d 65a1 4bbd 85e5 17be b443 cf3d
00000180: 4521 c43d fc3f a83c dca1 3d3e 58e7 35bd
00000190: 27bd 24be 46c3 99bd d551 3dbe 0894 8ebc
000001a0: cb3f bebd 42ee c43b 62e3 7ebd 8530 ad3d
000001b0: 99a7 9fb9 ded0 b63d f630 b7be 1d31 5abd
000001c0: 08e9 9abe 0634 dfbd e7e2 abbe a730 b2be
000001d0: 728f 9bbe f805 92be 6aea 76be 57f6 30be
000001e0: 3945 33be 013b 5cbe f34a 14be 37de 25be
000001f0: 1695 44be 3b0a b3bd db86 7a3d e886 903e
00000200: 83fc 2c3d 824b 993c 1066 173f 8970 713e
00000210: d04a 5f3e 8a72 bb3e f9db 933e 21ea 45bc
00000220: 0c41 b13d e7e2 86bd c360 4abd 876e 49be
00000230: 0897 973e bd02 8fbe 81bf 15be bb91 f8ba
00000240: c313 e9bc e363 8abd 2701 fbbc e71a 8a3d
00000250: e5da a8be d379 e0bd 748d a53e 8679 0abe
00000260: 08a9 9f3e e7e0 463e e35e 2c3e 66a3 4e3e
00000270: 6703 713d 2e16 15bc 7169 c13d ce29 bfbe
00000280: 86ad f93c d35e de3d 7076 72be 2b18 3ebe
00000290: 79ce febe 3813 8bbe f5a1 ff3d 02c4 bdbd
000002a0: af65 88bc c04e a33d 4d51 2aba 5124 83be
000002b0: fdd4 09be 229b 393e 8bcf 35be cfa6 14be
000002c0: b823 c83c 68a1 d8bd 6a13 77bd ca61 ecbd
000002d0: 2212 81bd afe3 3bbe b2cd 3bbb dc6a ae3d
000002e0: 86f3 48be 220d 15be 5d14 8dbe c76c b93c
000002f0: dec6 803e cc73 c83d 93ba 243e c6b7 9a3c
00000300: 3f72 d03e d4ae 843e c17c 6c3e 3a12 743e
00000310: 14dc 0b3e af6d 70bb 99c6 843d 7899 5d37
00000320: 039c 323e daa6 d03e 421d 793d 03df 913c
00000330: 2517 813d e84b 34bd d908 1e3e 352b 64be
00000340: 47ac 3dbe 0514 19be 4fd7 40be 7151 bcbe
00000350: 1cb2 e3be 8c8a c23d 8613 3dbd f69a c7bd
00000360: 0eb0 adbc c041 4bbe ed96 3b3e 8345 1d3e
00000370: 61eb 09be 8f8d 983d 625e 22be 4dfb 973d
00000380: 3802 5c3c 9d47 203d 0b7d 5e3e a946 e5ba
00000390: b973 253e a8b2 8ebc 2e8e bf3d dd7d 00be
000003a0: c160 6dbe c395 cebe 90c2 a53d 3794 d23c
000003b0: 040f 753e ed7c a4bc 7346 7b3e fc19 113d
000003c0: 64d0 e23d c5e7 bc3e c566 4ebd 79b9 d63e
000003d0: fe98 7a3e ff91 383e e3ce 9bbd 628c 7fbc
000003e0: 6623 aebc 8b69 eabd 3595 243d ebf0 6abd
000003f0: e677 283e 8271 4e3d 133f 84bd a766 09bd

Mixer_Block.0.mlp_block_token_mixing_DynaMixerOperation.fc_Nd.bias f4 [100]
0.64764553 0.19241107 -0.49263197 -0.012247217 -0.262738 0.020694846 -0.32086024 -0.19912332
-0.250041 -0.11918383 0.6143694 0.04967471 -0.22856532 -0.09191023 -0.4030916 -0.16827759
-0.53530085 -0.39680094 -0.40626156 -0.053904317 -0.15742278 0.030535191 0.6512136 -0.30263937
0.11802648 -0.08675552 0.03762226 -0.4134854 -0.0928214 0.0068505327 0.017959995 -0.4357251
0.7285039 -0.15797307 0.42615494 -0.109304994 -0.14784509 0.11257214 -0.32766613 -0.36888367
0.6714119 -0.39877978 -0.43651956 0.23088075 0.39778143 -0.08863593 -0.06520065 0.13070083
0.04562238 -0.30622816 -0.00035171967 0.06535888 0.1647183 -0.5054674 0.22874813 0.08275997
-0.094398536 -0.36205214 0.052786123 0.2463532 -0.61011726 0.13546742 -0.21988593 0.11209772
-0.5482304 0.22389875 -0.06682072 0.0043746973 -0.20913401 0.14389744 -0.6913496 0.26983395
0.049624275 0.31598362 0.37048122 -0.2775895 0.32610634 0.061807204 0.32931486 -0.009210726
0.66199356 -0.73511803 0.09143165 -0.35667002 -0.13212924 -0.32402918 -0.10721301 -0.25028157
0.2894215 -0.018161492 -0.7275057 -0.1104885 0.055796817 -0.32586414 -0.30121133 0.04914415
-0.024782892 0.09101171 -0.19378637 -0.015341734
00000000: 19cc 253f 6807 453e 423a fcbe 8da8 48bc
00000010: 9885 86be 3d88 a93c cb47 a4be fce6 4bbe
00000020: 6005 80be a716 f4bd 5047 1d3f b577 4b3d
00000030: 070d 6abe 6e3b bcbd 0662 cebe f650 2cbe
00000040: 7a09 09bf 7e29 cbbe 8401 d0be c6ca 5cbd
00000050: 7033 21be f024 fa3c efb5 263f 8cf3 9abe
00000060: deb7 f13d e1ac b1bd cd19 1a3d 5cb4 d3be
00000070: 2519 bebd 6f7a e03b d720 933c 5c17 dfbe
00000080: 3b7f 3a3f b1c3 21be fb30 da3e 4cdb dfbd
00000090: b464 17be 398c e63d dbc3 a7be 52de bcbe
000000a0: a6e1 2b3f dd2c ccbe 7e7f dfbe 016c 6c3e
000000b0: 02aa cb3e c186 b5bd eb87 85bd 70d6 053e
000000c0: 88de 3a3d f0c9 9cbe 0467 b8b9 e0da 853d
000000d0: eaab 283e 5066 01bf f33c 6a3e 0f7e a93d
000000e0: 0554 c1bd e65e b9be 4336 583d 0344 7c3e
000000f0: a530 1cbf f9b7 0a3e c729 61be 7d93 e53d
00000100: d458 0cbf b745 653e 4dd9 88bd 9f59 8f3b
00000110: 3a27 56be da59 133e 4afc 30bf ad27 8a3e
00000120: d342 4b3d 9bc8 a13e b7af bd3e 3620 8ebe
00000130: 69f7 a63e 8d29 7d3d f59b a83e 96e8 16bc
00000140: 6978 293f b230 3cbf 8440 bb3d 749d b6be
00000150: e34c 07be 27e7 a5be 7f92 dbbd e824 80be
00000160: 0e2f 943e 69c7 94bc d03d 3abf cb47 e2bd
00000170: 348b 643d aad7 a6be 5f38 9abe 604b 493d
00000180: 7e05 cbbc 5964 ba3d ef6f 46be e55b 7bbc

Mixer_Block.0.mlp_block_token_mixing_DynaMixerOperation.fc_out.weight f4 [66, 66]
-0.79868937 0.048116248 -0.2654875 0.16247095 0.30221528 -0.130856 -0.26064986 -0.037946142
-0.008976819 -0.05428686 -0.015876641 -0.16574684 0.09532941 -0.2545021 0.06962557 -0.07431922
-0.1328651 0.24752273 0.15858442 0.12358428 0.24044651 -0.2318974 -0.13717635 -0.0626944
-0.034237392 0.21893503 -0.2112124 0.25192842 -0.053984378 0.15190695 -0.22407296 0.20410237
0.0825212 0.1802331 -0.3506681 0.255414 0.037773963 0.32949287 0.13151127 0.22005837
0.20335035 0.15228792 -0.1201977 0.18945979 0.1171784 0.036223188 0.032478113 0.11791653
-0.31380835 -0.13367124 -0.17002949 -0.01836773 -0.08792611 0.1097423 0.30163422 -0.12410314
0.14545666 0.149452 -0.008076195 -0.37425125 -0.0280995 -0.12354424 0.025710726 0.22896472
-0.23497537 -0.37795684 -0.048391122 -0.40906686 -0.15920466 -0.12214292 -0.17149757 0.06953676
0.04026651 -0.16556136 0.13918528 -0.0456538 0.24208066 0.15046035 0.16883597 0.18123816
-0.12951776 -0.34549043 -0.075141124 -0.20915338 0.13580264 -0.16266616 0.09880479 0.454749
0.24387813 0.26215142 -0.008079352 -0.35080883 0.16458961 -0.15257268 -0.14299433 0.0803001
0.18134633 -0.046071164 0.145029 0.25129074 0.24542953 -0.13581567 -0.14586821 -0.2383063
-0.07287495 0.011162134 0.13369448 0.33534038 -0.16281167 0.006129292 -0.03218034 -0.28948402
-0.112140626 0.016361805 -0.05764237 0.2435025 0.018895792 0.18199767 -0.30058777 0.128117
-0.04890571 0.24470483 0.2912398 -0.1243253 -0.16510767 -0.0720192 0.013382124 -0.0034538296
0.1550428 -0.2046494 -0.23382448 0.059741087 0.12873457 0.13673104 -0.16341789 -0.19477652
-0.3568018 -0.020970643 0.02290874 0.17516483 0.14206001 0.015715774 -0.11425967 -0.10824228
-0.060012773 -0.027578 0.15898384 -0.02487668 0.0136975385 -0.30148315 0.09152301 -0.013409182
0.15124063 0.15256621 -0.05641227 0.14561601 -0.19363774 -0.18977803 0.05394037 0.16799277
0.21538608 0.08045171 0.10175954 -0.11472082 0.12403662 0.027022861 0.019664181 -0.063521765
-0.011444959 -0.05771654 -0.24847274 0.0124538075 -0.1098657 0.19313717 0.054198343 0.043337077
0.008118973 -0.045756683 0.24731512 -0.15057103 -0.25429252 0.0974853 -0.091686316 0.32413074
0.15062033 0.26261735 0.043819208 0.02602627 0.061900713 0.057879426 -0.086970575 -0.2478578
0.0079302965 0.030732727 -0.18900125 -0.05840581 0.0165737 0.116907775 0.12455056 -0.19912821
-0.15482864 -0.49772125 0.05345052 -0.044641167 0.13311665 -0.009403919 -0.1250459 0.010470106
0.11911058 0.1542696 -0.019930435 0.11646656 -0.00040751012 -0.12023344 0.18471923 0.08291686
-0.17985386 -0.040695008 0.08846997 0.13444483 0.17282727 -0.04754406 0.48519015 0.1446764
0.1141451 -0.13922717 0.3510103 -0.3910185 -0.017172705 0.0030834135 -0.12336993 0.1429961
0.28910282 -0.08710448 0.05086386 -0.17904651 -0.10186596 0.15856335 -0.029248161 -0.15046906
0.1602586 0.21547323 -0.1545254 0.025210653 0.024073064 -0.28818008 -0.16108908 0.0821126
0.10394259 0.01682708 -0.30629638 0.11651444 -0.02817337 -0.12257933 -0.23292841 0.045884255
00000000: e876 4cbf 8b15 453d faed 87be c95e 263e
00000010: f6bb 9a3e 1eff 05be e673 85be 6a6d 1bbd
00000020: 8213 13bc e65b 5ebd bb0f 82bc 8ab9 29be
00000030: 113c c33d 194e 82be da97 8e3d ad34 98bd
00000040: ca0d 08be 9976 7d3e f463 223e c119 fd3d
00000050: 9c37 763e 8376 6dbe f577 0cbe ec65 80bd
00000060: 823c 0cbd 8130 603e 1048 58be c3fc 803e
00000070: b91e 5dbd 7f8d 1b3e 6273 65be 3600 513e
00000080: e000 a93d 078f 383e c58a b3be a0c5 823e
00000090: dfb8 1a3d 4ab3 a83e e4aa 063e fb56 613e
000000a0: 133b 503e 5df1 1b3e 362a f6bd bf01 423e
000000b0: 3bfb ef3d c45e 143d c507 053d 397e f13d
000000c0: 7dab a0be 1de1 08be 361c 2ebe ec77 96bc
000000d0: 9b12 b4bd 92c0 e03d cd6f 9a3e c929 febd
000000e0: 97f2 143e f209 193e 0452 04bc dc9d bfbe
000000f0: ec30 e6bc c304 fdbd 4d9f d23c ba75 6a3e
00000100: 629d 70be 8f83 c1be c535 46bd 3671 d1be
00000110: 8c06 23be 1126 fabd 0f9d 2fbe 4a69 8e3d
00000120: 7fee 243d eb88 29be 9686 0e3e 7bff 3abd
00000130: fee3 773e 4712 1a3e 56e3 2c3e 7f96 393e
00000140: 4ea0 04be 1fe4 b0be 97e3 99bd 4e2c 56be
00000150: d90f 0b3e f591 26be 2a5a ca3d dcd4 e83e
00000160: 30bb 793e b638 863e 425f 04bc 379d b3be
00000170: 2e8a 283e 033c 1cbe 1b6d 12be 6174 a43d
00000180: dab2 393e 1eb5 3cbd 7b82 143e 2ea9 803e
00000190: e151 7b3e 4313 0bbe 7a5e 15be 9106 74be
000001a0: 763f 95bd 62e1 363c 35e7 083e bcb1 ab3e
000001b0: 1ab8 26be 3ad8 c83b 88cf 03bd 4037 94be
000001c0: fca9 e5bd 3109 863c 681a 6cbd b858 793e
000001d0: 59cb 9a3c 995d 3a3e a4e6 99be 1a31 033e
000001e0: 5b51 48bd e793 7a3e 621d 953e 439e febd
000001f0: fc11 29be cd7e 93bd b240 5b3c a559 62bb
00000200: 8ac3 1e3e 9d8f 51be af6f 6fbe 12b3 743d
00000210: ffd2 033e 3903 0c3e 0557 27be 7f73 47be
00000220: baae b6be a0ca abbc 1cab bb3c 695e 333e
00000230: 2e78 113e 5ebe 803c f900 eabd 21ae ddbd
00000240: f4cf 75bd 42eb e1bc a9cc 223e 2eca cbbc
00000250: a46b 603c 005c 9abe 6a70 bb3d 30b2 5bbc
00000260: d3de 1a3e 513a 1c3e 8d10 67bd 5d1c 153e
00000270: f948 46be 2c55 42be 94f0 5c3d 4c06 2c3e
00000280: 2b8e 5c3e dec3 a43d 4e67 d03d c0f2 eabd
00000290: e906 fe3d 0c5f dd3c c716 a13c b317 82bd
000002a0: a383 3bbc 2e68 6cbd a36f 7ebe 0e0b 4c3c
000002b0: 4501 e1bd c0c5 453e 15ff 5d3d 3882 313d
000002c0: 7105 053c 5c6b 3bbd 2d40 7d3e 4b2f 1abe
000002d0: a132 82be 5fa6 c73d 09c6 bbbd 77f4 a53e
000002e0: 373c 1a3e c875 863e c57b 333d 0b35 d53c
000002f0: 9a8b 7d3d fa12 6d3d a11d b2bd 6fce 7dbe
00000300: 13ee 013c 33c3 fb3c 8b89 41be ee3a 6fbd
00000310: 91c5 873c 586d ef3d 5d14 ff3d 44e8 4bbe
00000320: 668b 1ebe 52d5 febe efee 5a3d a8d9 36bd
00000330: bb4f 083e e512 1abc 080c 00be cf8a 2b3c
00000340: 3ff0 f33d daf8 1d3e 2745 a3bc 0586 ee3d
00000350: 15a7 d5b9 f33c f6bd 0a27 3d3e 51d0 a93d
00000360: 9c2b 38be cfaf 26bd be2f b53d e8ab 093e
00000370: a2f9 303e 8fbd 42bd d86a f83e 0d26 143e
00000380: e8c4 e93d 9191 0ebe 9fb7 b33e 9433 c8be
00000390: c6ad 8cbc 1813 4a3b 60a9 fcbd 926d 123e
000003a0: 4905 943e d563 b2bd 9f56 503d f857 37be
000003b0: 1a9f d0bd 6e5e 223e d799 efbc 9014 1abe
000003c0: d51a 243e 04a5 5c3e e83b 1ebe 9286 ce3c
000003d0: e034 c53c 578c 93be 89f4 24be a72a a83d
000003e0: dadf d43d f2d8 893c e1d2 9cbe 1f9f ee3d
000003f0: d7cb e6bc df0a fbbd c984 6ebe 21f1 3b3d

Mixer_Block.0.mlp_block_token_mixing_DynaMixerOperation.fc_out.bias f4 [66]
0.2976944 0.2672568 -0.20302656 -0.0019913136 -0.21841799 -0.15309496 -0.29979935 0.1706822
0.03159021 0.22500353 0.012940186 0.3175959 0.38934925 -0.16922568 -0.20549172 0.17099287
0.28574532 -0.23388086 -0.27834705 -0.095036715 -0.3748123 0.28043175 -0.2976556 -0.32540685
-0.47198832 0.018628465 0.21476486 0.12973748 0.41769803 -0.08622064 -0.29802093 -0.052706514
0.04484616 0.36206463 0.37792784 0.05126593 -0.04845132 -0.18470061 -0.24851176 0.08233108
-0.18046594 0.016104376 -0.21286266 0.13801332 -0.23160183 -0.03304043 0.41181052 0.36872998
-0.2823608 -0.2939044 -0.30082566 -0.34402925 0.0035814138 0.22414936 -0.47547507 -0.22959422
0.11645676 -0.025559762 -0.31121045 0.5118853 0.09551939 -0.1864533 -0.15765543 -0.391131
0.21620715 -0.07276871
00000000: 676b 983e e2d5 883e 32e6 4fbe b380 02bb
00000010: f7a8 5fbe edc4 1cbe 4d7f 99be 51c7 2e3e
00000020: bc64 013d 5367 663e 1303 543c ee9b a23e
00000030: c958 c73e 7f49 2dbe 6c6c 52be c118 2f3e
00000040: 364d 923e 777e 6fbe 8183 8ebe 9ca2 c2bd
00000050: 66e7 bfbe c094 8f3e 5166 98be ba9b a6be
00000060: 74a8 f1be b99a 983c 52eb 5b3e e7d9 043e
00000070: 84dc d53e 7294 b0bd 3396 98be c9e2 57bd
00000080: 9bb0 373d 8960 b93e c27f c13e 39fc 513d
00000090: e474 46bd 2822 3dbe de79 7ebe 339d a83d
000000a0: 10cc 38be 53ed 833c abf8 59be 5d53 0d3e
000000b0: 0829 6dbe 6755 07bd d4d8 d23e 2dca bc3e
000000c0: 9891 90be a37a 96be d205 9abe 9a24 b0be
000000d0: 27b6 6a3b 6987 653e 7871 f3be bf1a 6bbe
000000e0: e280 ee3d b562 d1bc fa56 9fbe ea0a 033f
000000f0: ac9f c33d 9ded 3ebe 6d70 21be 5342 c8be
00000100: 6865 5d3e c307 95bd

Mixer_Block.0.mlp_block_token_mixing_DynaMixerOperation.LN.weight f4 [10]
1.8459501 1.2786366 0.89357954 0.8104403 0.6322418 0.7429374 0.45045865 0.58000803
0.5747627 0.38286912
00000000: 1848 ec3f 5daa a33f a1c1 643f 0479 4f3f
00000010: 99da 213f 2531 3e3f 84a2 e63e 687b 143f
00000020: a623 133f 6c07 c43e

Mixer_Block.0.mlp_block_token_mixing_DynaMixerOperation.LN.bias f4 [10]
0.2788861 0.08334401 -0.08018765 0.14120427 -0.037009224 0.02708419 -0.040020727 0.09025126
-0.05513389 0.047568027
00000000: 29ca 8e3e 44b0 aa3d 6c39 a4bd da97 103e
00000010: fc96 17bd aadf dd3c c6ec 23bd a7d5 b83d
00000020: 13d4 61bd b1d6 423d

Mixer_Block.0.mlp_block_channel_mixing_DynaMixerOperation.fc_ND.weight f4 [1, 10]
0.022291671 -0.4106424 0.23644157 -0.039082665 0.27656853 0.007691533 0.024685426 -0.10516385
0.27754813 -0.08007655
00000000: 069d b63c b83f d2be bd1d 723e 2515 20bd
00000010: 649a 8d3e 4109 fc3b 1739 ca3c 2560 d7bd
00000020: ca1a 8e3e 2dff a3bd

Mixer_Block.0.mlp_block_channel_mixing_DynaMixerOperation.fc_Nd.weight f4 [484, 22]
-0.41375092 0.046228543 -0.18591276 0.1396948 0.2821362 -0.10936177 0.23913997 -0.40978882
-0.15786356 0.2569587 -0.029793937 -0.03819982 0.0798817 -0.13599777 -0.03447745 0.13972518
0.08310496 -0.028063959 0.019548709 -0.11924488 0.16467251 0.28428477 -0.01357857 0.01114713
-0.4190294 -0.14893351 0.24592586 -0.013853841 -0.4365781 -0.058895882 0.09753573 -0.61270857
-0.17456272 0.062071137 0.14431609 -0.02626058 -0.09950934 -0.0807669 -0.10563705 -0.32262284
0.018877948 0.003911562 0.21571335 0.2039059 0.4518461 -0.04743218 0.20400691 0.21566984
-0.1906738 0.07914428 -0.29518187 0.5284856 -0.28100315 0.102891415 -0.0708613 0.09425428
0.020129738 0.439523 -0.0245621 0.36892718 0.47263032 -0.09309699 -0.038095865 0.31182912
-0.17590988 0.33478522 0.29503843 -0.10581521 -0.066000044 0.33655262 -0.08046176 0.0053927866
0.072734885 0.07182017 0.26869467 -0.42452466 -0.084742166 0.2605102 0.3311148 0.1365658
-0.027635163 0.22967827 0.12241217 0.19787213 0.046196643 0.06600357 -0.20897336 0.24614623
-0.10929885 0.6454666 -0.29334593 -0.24852203 0.001493141 -0.0707185 0.05650072 -0.1840811
0.10873504 -0.26975825 0.25445873 0.28093156 0.04133517 0.06911444 -0.004742397 -0.20400131
0.10887639 -0.009384684 -0.24653965 -0.21023205 0.018760893 -0.18920465 -0.20928669 0.27548465
0.043701198 -0.052093793 -0.01756315 -0.23253323 0.011774936 -0.24325047 -0.106492035 0.033444926
-0.012616233 -0.026332682 -0.2911252 -0.35567757 -0.11517374 -0.1820875 0.33065325 0.15655611
-0.020506077 -0.14717087 0.0606022 -0.09900836 0.40449384 0.05424316 -0.03303688 -0.5089777
-0.19328651 -0.18182985 -0.086797066 -0.027416958 0.065233156 0.071409225 -0.123469114 -0.22348632
0.015764533 0.032847546 -0.10906278 0.22727601 -0.33304095 -0.10733692 -0.40160024 -0.048240315
0.3835318 0.112808034 0.2615943 0.0065252883 0.16630296 -0.111165926 0.41755137 0.276909
-0.05814221 -0.39594883 -0.19274655 -0.13695158 -0.02892396 -0.3175906 0.01674475 -0.09510093
-0.121581644 -0.29543155 0.03904312 0.017713547 0.07595325 0.08563012 0.04104462 0.053164735
-0.07339199 -0.28682557 -0.32628953 0.011206555 0.18923914 -0.005391614 0.14039809 0.41300792
-0.2805731 -0.011555182 -0.05845425 -0.03517386 -0.041021425 -0.14299989 0.0360335 0.058381416
-0.18209016 -0.051788557 0.23375668 -0.24776916 -0.016399857 -0.0454618 -0.015434045 -0.07127935
-0.09611858 0.1089729 -0.067286566 -0.13276511 0.03982845 0.29476288 0.20338894 0.035662774
0.07678664 -0.35775495 -0.27711442 -0.49465686 -0.09862526 0.058073316 -0.11151027 0.28828803
0.08676196 0.15814956 0.094213754 0.042181183 -0.03498179 -0.03517292 0.29113382 0.12283631
0.064308606 -0.030067278 0.12293686 0.13481893 0.19930908 0.13328108 -0.20679592 0.061974596
0.1934189 -0.0025396456 0.24420688 0.17676747 0.26358476 -0.17656124 0.08049591 0.0720098
-0.21404739 -0.020120753 0.35763982 0.41415927 0.069489725 -0.3318135 -0.20442866 0.09198023
0.27620113 0.17946512 -0.2233567 -0.061279293 -0.057988867 0.10900444 0.22875997 0.21743755
00000000: 29d7 d3be 245a 3d3d ea5f 3ebe 270c 0f3e
00000010: 2874 903e 10f9 dfbd 1ce1 743e d7cf d1be
00000020: fca6 21be 1790 833e 6a12 f4bc 6a77 1cbd
00000030: 0499 a33d 0043 0bbe 3a38 0dbd 1e14 0f3e
00000040: ef32 aa3d 63e6 e5bc 9d24 a03c a936 f4bd
00000050: e99f 283e c68d 913e a778 5ebc 74a2 363c
00000060: 068b d6be 0782 18be fdd3 7b3e 39fb 62bc
00000070: 2a87 dfbe cf3c 71bd d0c0 c73d 78da 1cbf
00000080: 92c0 32be 4e3e 7e3d 99c7 133e 6e20 d7bc
00000090: 8ecb cbbd 1e69 a5bd 3d58 d8bd d22e a5be
000000a0: eda5 9a3c 8f2c 803b f6e3 5c3e b5cc 503e
000000b0: 5f58 e73e 3f48 42bd 30e7 503e 8ed8 5c3e
000000c0: fe3f 43be 6516 a23d 1422 97be d54a 073f
000000d0: a5df 8fbe bcb8 d23d bb1f 91bd 6308 c13d
000000e0: 1fe7 a43c 2909 e13e 7536 c9bc 06e4 bc3e
000000f0: 9afc f13e a2a9 bebd 690a 1cbd 11a8 9f3e
00000100: b821 34be f868 ab3e 470f 973e a5b5 d8bd
00000110: 082b 87bd a050 ac3e 23c9 a4bd f9b5 b03b
00000120: 07f6 943d 7416 933d 5992 893e 4c5b d9be
00000130: 4d8d adbd 9861 853e e187 a93e e8d7 0b3e
00000140: 2363 e2bc c830 6b3e 3bb3 fa3d fe9e 4a3e
00000150: b138 3d3d e12c 873d 1dfd 55be c20d 7c3e
00000160: 13d8 dfbd 4d3d 253f 7031 96be 8f7c 7ebe
00000170: 80b5 c33a dcd4 90bd 4d6d 673d c27f 3cbe
00000180: 7ab0 de3d c11d 8abe 6a48 823e 43d6 8f3e
00000190: 114f 293d df8b 8d3d 1c66 9bbb b8e5 50be
000001a0: 96fa de3d 38c2 19bc e474 7cbe 1247 57be
000001b0: 72b0 993c ddbe 41be 404f 56be 530c 8d3e
000001c0: 0700 333d 4d60 55bd 98e0 8fbc 311d 6ebe
000001d0: a9eb 403c a716 79be 7f18 dabd 8cfd 083d
000001e0: 51b4 4ebc a3b7 d7bc 5d0e 95be 5f1b b6be
000001f0: 36e0 ebbd 2575 3abe 624b a93e 3f50 203e
00000200: 5cfc a7bc f6b3 16be 033a 783d e5c4 cabd
00000210: d119 cf3e 132e 5e3d ae51 07bd 5d4c 02bf
00000220: e6ec 45be 9b31 3abe a9c2 b1bd 8799 e0bc
00000230: f698 853d 003f 923d 60dd fcbd 99d9 64be
00000240: 9f24 813c 268b 063d 4f5c dfbd 0bbb 683e
00000250: 5884 aabe 76d3 dbbd 8c9e cdbe a397 45bd
00000260: 485e c43e e607 e73d b0ef 853e 16d2 d53b
00000270: 534b 2a3e f6aa e3bd 4bc9 d53e 04c7 8d3e
00000280: 8726 6ebd ceb9 cabe 5a5f 45be 093d 0cbe
00000290: f1f1 ecbc 3c9b a2be 492c 893c 47c4 c2bd
000002a0: ccff f8bd ce42 97be aeeb 1f3d 001c 913c
000002b0: 618d 9b3d d85e af3d 671e 283d 44c3 593d
000002c0: 8a4e 96bd cdda 92be 6c0f a7be b39b 373c
000002d0: e8c7 413e 23ac b0bb 84c4 0f3e c675 d33e
000002e0: 47a7 8fbe f251 3dbc b96d 6fbd 7712 10bd
000002f0: 1506 28bd 906e 12be dd97 133d 5a21 6f3d
00000300: d875 3abe 3d20 54bd e95d 6f3e 33b7 7dbe
00000310: fe58 86bc 2736 3abd 14df 7cbc e8fa 91bd
00000320: d1d9 c4bd 2f2d df3d 8acd 89bd 94f3 07be
00000330: 2823 233d 29eb 963e 3145 503e 2113 123d
00000340: 5042 9d3d a82b b7be f1e1 8dbe aa43 fdbe
00000350: 0afc c9bd 49de 6d3d 7f5f e4bd 7d9a 933e
00000360: 41b0 b13d f5f1 213e 24f3 c03d 2dc6 2c3d
00000370: 1149 0fbd 7b11 10bd 7e0f 953e 9a91 fb3d
00000380: 3bb4 833d a74f f6bc 52c6 fb3d f90d 0a3e
00000390: ae17 4c3e d67a 083e 4fc2 53be 13d9 7d3d
000003a0: 9b0f 463e 2f70 26bb 5e11 7a3e 8802 353e
000003b0: 95f4 863e 78cc 34be 0adb a43d e079 933d
000003c0: 3d2f 5bbe 47d4 a4bc 911c b73e af0c d43e
000003d0: a150 8e3d 76e3 a9be bf55 51be 2160 bc3d
000003e0: 3c6a 8d3e b4c5 373e 9eb7 64be ffff 7abd
000003f0: bc85 6dbd b83d df3d 0e40 6a3e f3a7 5e3e

Mixer_Block.0.mlp_block_channel_mixing_DynaMixerOperation.fc_Nd.bias f4 [484]
-0.19614689 -0.008461057 0.38545877 -0.115540214 0.2789114 -0.19843912 0.16747352 -0.18634611
0.052130386 0.2604177 0.22091095 0.4046585 -0.18814068 -0.081869505 -0.14725997 0.22430867
0.19754153 0.36951497 0.18733783 -0.2814009 -0.07881243 0.045866415 -0.41615638 0.14421156
-0.25757354 0.13696226 0.2731883 -0.31467003 0.15812252 -0.14042059 0.29803768 0.16042097
-0.24296473 0.30418986 -0.1251453 -0.37049565 -0.32404143 0.14888558 0.16827075 0.18066527
-0.18476062 0.09448544 -0.111457005 0.0877776 0.18926962 -0.13079895 -0.018255398 0.0064419317
0.1640464 -0.09451562 -0.08443897 -0.2574296 0.13530345 0.3338689 -0.0040870155 0.12529384
-0.14226857 -0.120800935 -0.318923 0.24670099 -0.08040462 0.07920376 -0.07031601 0.06434179
0.18269683 0.03978469 -0.030910099 0.16675179 -0.045304645 -0.06327647 0.2322403 -0.012046975
-0.012477489 -0.23085818 -0.12181513 -0.014461934 0.009873189 -0.32055205 0.18375066 -0.028425565
0.035218045 0.09733026 -0.14317508 0.0042642048 -0.057341356 0.20267163 -0.22814305 -0.174788
0.00052434223 -0.0677927 -0.24670307 0.007796081 -0.030080467 -0.11523054 0.21023434 -0.18724333
-0.074936986 -0.23844357 0.003952345 0.19810423 0.060472097 0.3163266 0.307242 -0.008204294
-0.15087226 -0.3719862 -0.19278279 -0.012726096 -0.13585849 -0.104172334 0.03463012 0.35236606
0.26919016 0.14760771 0.008578929 -0.049263634 0.23659101 -0.06358391 0.040246878 0.038913008
-0.31341347 0.10627737 -0.22612695 0.13160253 0.06813079 0.08263369 0.06427787 0.4256323
0.18389964 -0.051272564 -0.09122461 0.12077262 0.07332335 0.1250469 -0.017737089 -0.09413183
0.054000407 -0.009068656 -0.22898683 0.21635462 0.02238035 -0.2837683 -0.09255568 0.079098746
-0.00438044 -0.07828046 -0.055288225 0.02325681 0.2028606 -0.024410032 0.19086364 0.08377485
-0.013158229 0.2327679 -0.28133598 -0.0023063284 0.111986265 -0.24010071 0.32502848 -0.33264166
0.055515587 -0.017839797 0.1255271 0.24552198 0.008982477 -0.04137558 -0.24890867 -0.27336353
-0.47517946 0.38044488 0.49529788 0.3183993 0.24483822 -0.2983572 -0.08220108 0.2831157
-0.34414122 0.15186463 0.2317059 -0.09713694 0.3229852 -0.2595461 0.2540166 -0.0443739
0.10640207 0.08286933 -0.046906874 0.06275718 -0.01830567 -0.06680672 -0.16312282 0.23022719
0.11616083 0.41474223 0.31671712 -0.571741 0.0072739213 -0.05860276 -0.20875908 0.32625878
0.18548273 -0.22379322 0.027200382 -0.27129787 0.18288958 -0.27151242 0.2097235 0.39718133
-0.100472584 0.47924095 -0.2817363 -0.37792176 -0.30778378 0.20947333 0.17497191 0.32104638
0.33075726 -0.091037035 -0.06505015 0.3261815 0.38000563 0.21170524 -0.088005826 -0.09544179
-0.13835962 -0.17039745 0.2734391 0.21846794 0.25505808 -0.059106402 -0.046723165 0.029940573
0.13809755 -0.0655501 -0.014753559 0.01811459 -0.14904152 -0.03682681 -0.25933996 0.1961316
-0.22537753 -0.122015394 0.24735363 0.0183661 -0.17090662 0.13268681 -0.39680102 0.18587853
-0.16275941 0.36272743 -0.33150133 -0.13285922 0.046352357 -0.23643404 0.07491847 0.12701355
00000000: bbda 48be 3fa0 0abc da5a c53e 59a0 ecbd
00000010: 7acd 8e3e a033 4bbe 2e7e 2b3e 84d1 3ebe
00000020: ac86 553d 7855 853e 7b36 623e 662f cf3e
00000030: f3a7 40be 33ab a7bd 51cb 16be 2cb1 653e
00000040: 5448 4a3e 1131 bd3e 7dd5 3f3e c713 90be
00000050: 6968 a1bd 6cde 3b3d 7312 d5be 32ac 133e
00000060: aee0 83be d63f 0c3e 56df 8b3e 6e1c a1be
00000070: dfea 213e 6aca 0fbe 6598 983e 6545 243e
00000080: bfcb 78be c6be 9b3e 1726 00be 9bb1 bdbe
00000090: c2e8 a5be 7675 183e 2b4f 2c3e 5100 393e
000000a0: e331 3dbe 9581 c13d 9243 e4bd bec4 b33d
000000b0: e5cf 413e 29f0 05be 588c 95bc d716 d33b
000000c0: c8fb 273e 6891 c1bd 57ee acbd d0cd 83be
000000d0: fd8c 0a3e ddf0 aa3e 5fec 85bb 074d 003e
000000e0: daae 11be 7b66 f7bd e049 a3be 2f9f 7c3e
000000f0: 2dab a4bd 9535 a23d d701 90bd a1c5 833d
00000100: e114 3b3e 45f5 223d 2d37 fdbc fbc0 2a3e
00000110: 5d91 39bd 1897 81bd 67d0 6d3e ad60 45bc
00000120: 626e 4cbc 1666 6cbe 367a f9bd bff1 6cbc
00000130: 28c3 213c 661f a4be 2229 3c3e bbdc e8bc
00000140: cc40 103d 1655 c73d 7d9c 12be beba 8b3b
00000150: c5de 6abd 2789 4f3e 559e 69be a0fb 32be
00000160: 0374 093a e6d6 8abd bb9f 7cbe 4476 ff3b
00000170: 506b f6bc fdfd ebbd ac47 573e b7bc 3fbe
00000180: 9078 99bd 8d2a 74be ac82 813b d6db 4a3e
00000190: 97b1 773d 8ff5 a13e d34e 9d3e 4e6b 06bc
000001a0: 427e 1abe fa74 bebe da68 45be 1e81 50bc
000001b0: 7d1e 0bbe 4e58 d5bd 50d8 0d3d 5369 b43e
000001c0: 4bd3 893e 7a26 173e a38e 0c3c aac8 49bd
000001d0: ea44 723e 4838 82bd e9d9 243d 3f63 1f3d
000001e0: bb77 a0be f3a7 d93d d38d 67be d0c2 063e
000001f0: 2888 8b3d da3b a93d 1ea4 833d 7aec d93e
00000200: 3050 3c3e 2e03 52bd f8d3 babd a357 f73d
00000210: 8d2a 963d 4b0c 003e 5f4d 91bc 30c8 c0bd
00000220: 882f 5d3d b394 14bc 867b 6abe 118c 5d3e
00000230: ff56 b73c 144a 91be d58d bdbd 86fe a13d
00000240: cb89 8fbb 8151 a0bd e875 62bd 1185 be3c
00000250: b0ba 4f3e 8cf7 c7bc c271 433e 2692 ab3d
00000260: 9d95 57bc b55a 6e3e 450b 90be c525 17bb
00000270: 0e59 e53d f6dc 75be 226a a63e 0250 aabe
00000280: 5064 633d c424 92bc 2d8a 003e 1d6a 7b3e
00000290: 3d2b 133c 7179 29bd eae1 7ebe 4ef6 8bbe
000002a0: b94a f3be acc9 c23e af97 fd3e 3c05 a33e
000002b0: dfb6 7a3e 46c2 98be 0a59 a8bd 8bf4 903e
000002c0: 4733 b0be 6782 1b3e 5044 6d3e bbef c6bd
000002d0: 515e a53e 3ae3 84be 770e 823e 68c1 35bd
000002e0: 54e9 d93d 65b7 a93d 6c21 40bd d686 803d
000002f0: c6f5 95bc f6d1 88bd ab09 27be adc0 6b3e
00000300: bbe5 ed3d 1859 d43e bf28 a23e 9e5d 12bf
00000310: 135a ee3b 7309 70bd f1c4 55be 640b a73e
00000320: 2fef 3d3e 0d2a 65be 56d3 de3c 8ee7 8abe
00000330: 6847 3b3e ad03 8bbe c2c1 563e 5a5b cb3e
00000340: 92c4 cdbd 125f f53e be3f 90be f67e c1be
00000350: d695 9dbe 2d80 563e d62b 333e 3160 a43e
00000360: 0459 a93e a071 babd 0339 85bd 4301 a73e
00000370: 1990 c23e 42c9 583e 663c b4bd fc76 c3bd
00000380: 25ae 0dbe ab7c 2ebe 3600 8c3e 0fb6 5f3e
00000390: f996 823e 8e19 72bd ca60 3fbd ef45 f53c
000003a0: 7269 0d3e 213f 86bd e9b8 71bc 0c65 943c
000003b0: 579e 18be b6d7 16bd 35c8 84be b9d6 483e
000003c0: 5ec9 66be 35e3 f9bd 454a 7d3e 8174 963c
000003d0: 2502 2fbe 0ddf 073e 8129 cbbe f156 3e3e
000003e0: 67aa 26be 69b7 b93e 8bba a9be 3f0c 08be
000003f0: f8db 3d3d c41b 72be db6e 993d d70f 023e

Mixer_Block.0.mlp_block_channel_mixing_DynaMixerOperation.fc_out.weight f4 [10, 10]
0.18793678 0.15003303 0.013254778 0.43445268 0.20551121 0.3388172 0.3440848 0.39855924
0.37191293 0.21092695 0.16269995 0.5209593 0.13046634 0.19400042 0.18960294 0.23512645
0.41288897 0.27140108 -0.052134093 0.21204843 0.07638211 0.21406062 -0.27470613 -0.1655399
-0.24615733 -0.16186292 -0.19525637 0.018100815 -0.3715542 0.062334366 -0.29167217 0.19395639
-0.20381922 0.08760027 -0.09884101 -0.094238155 0.050744988 0.018529361 -0.061873965 -0.16839696
0.29950798 -0.0732855 0.58882314 0.22952455 0.4838979 0.07120457 0.085894056 -0.09217927
0.1916116 -0.112693556 0.42401636 0.0713559 0.07373757 0.19257906 0.07759082 0.19706391
-0.0935475 -0.12008131 0.4119886 0.12198526 -0.18996865 -0.10035069 0.12785116 -0.26861855
0.002595013 -0.16559051 -0.14154632 -0.33979756 0.3269112 -0.06554591 -0.7122615 0.2682515
-0.31793657 -0.040014777 -0.28627652 -0.13330145 -0.3115633 0.11127666 -0.29419884 -0.16936617
0.16313803 -0.46549326 0.23584253 -0.17662774 0.046143733 0.035993785 0.1351488 0.042790424
0.08228952 0.3312908 -0.12621154 0.040718436 -0.5083927 -0.06887008 -0.2604208 -0.1299829
-0.29476294 -0.15862484 -0.11917571 0.103974685
00000000: 8072 403e 42a2 193e 922a 593c 9570 de3e
00000010: 8871 523e 7379 ad3e e22b b03e f50f cc3e
00000020: 5f6b be3e 3cfd 573e d19a 263e 975d 053f
00000030: f898 053e 0ca8 463e 4627 423e fdc4 703e
00000040: 2f66 d33e 15f5 8a3e 8f8a 55bd 3923 593e
00000050: 396e 9c3d b532 5b3e 48a6 8cbe 4b83 29be
00000060: ab10 7cbe 65bf 25be 49f1 47be 2948 943c
00000070: 5a3c bebe 5252 7f3d 0e56 95be 819c 463e
00000080: fcb5 50be c567 b33d 286d cabd efff c0bd
00000090: fad9 4f3d e3ca 973c 8e6f 7dbd 4170 2cbe
000000a0: 1c59 993e b516 96bd 1dbd 163f 7c08 6b3e
000000b0: 77c1 f73e b4d3 913d 39e9 af3d 7cc8 bcbd
000000c0: d535 443e e1cb e6bd ac18 d93e 0b23 923d
000000d0: b903 973d 7233 453e f0e7 9e3d 1fcb 493e
000000e0: d595 bfbd 31ed f5bd 2bf0 d23e 68d3 f93d
000000f0: 2487 42be aa84 cdbd 6aeb 023e 5f88 89be
00000100: 1811 2a3b 8f90 29be 85f1 10be f2f9 adbe
00000110: e860 a73e ef3c 86bd c556 36bf 4358 893e
00000120: 95c8 a2be 89e6 23bd d692 92be 2d80 08be
00000130: 3a85 9fbe 04e5 e33d 3ba1 96be 536e 2dbe
00000140: a80d 273e 2255 eebe b480 713e e7dd 34be
00000150: 3601 3d3d 386e 133d 7264 0a3e 0345 2f3d
00000160: 6887 a83d f39e a93e 993d 01be 60c8 263d
00000170: 0626 02bf c20b 8dbd e055 85be 3d1a 05be
00000180: 2beb 96be 8d6e 22be 6512 f4bd aef0 d43d

Mixer_Block.0.mlp_block_channel_mixing_DynaMixerOperation.fc_out.bias f4 [10]
-0.37355027 -0.7634819 0.28390494 -0.5194339 -0.13271059 0.3171674 0.11099309 0.3925782
-0.40712848 0.32444263
00000000: fb41 bfbe 8d73 43bf fd5b 913e 9ff9 04bf
00000010: 49e5 07be c463 a23e 5850 e33d 0300 c93e
00000020: 2573 d0be 581d a63e

Mixer_Block.0.mlp_block_channel_mixing_DynaMixerOperation.LN.weight f4 [22]
1.119829 1.0202903 1.048307 0.94473106 1.1700953 1.0636975 0.9880068 0.9730203
1.0225778 1.0907682 1.2981056 0.9571486 0.9941828 1.0703273 1.0123503 1.0581728
1.0646766 1.0882624 1.104147 0.9968432 1.1106222 1.0574719
00000000: 8f56 8f3f df98 823f ec2e 863f e5d9 713f
00000010: afc5 953f 3d27 883f 03ee 7c3f dc17 793f
00000020: d4e3 823f 4b9e 8b3f 5328 a63f b107 753f
00000030: c482 7e3f 7c00 893f b294 813f 3572 873f
00000040: 5347 883f 2f4c 8b3f b054 8d3f 1e31 7f3f
00000050: de28 8e3f 3d5b 873f

Mixer_Block.0.mlp_block_channel_mixing_DynaMixerOperation.LN.bias f4 [22]
-0.19308683 0.056787666 0.07334528 0.08815139 0.17545393 -0.14684829 0.1978462 -0.199873
0.27524906 0.1831951 -0.14074467 -0.059225354 -0.15699367 -0.19250174 -0.16799602 0.1085533
0.20888951 0.09103213 0.14792868 -0.10817825 -0.1618923 0.08121307
00000000: 8eb8 45be 2f9a 683d 0d36 963d b788 b43d
00000010: 32aa 333e 665f 16be 3298 4a3e 82ab 4cbe
00000020: 72ed 8c3e 7f97 3b3e 5f1f 10be 4996 72bd
00000030: f3c2 20be 2d1f 45be 2607 2cbe 3151 de3d
00000040: 22e7 553e 0e6f ba3d 9e7a 173e 8f8c ddbd
00000050: 18c7 25be 0a53 a63d
