M_2_AST/M_2_AST/h36m/weight.npy (npy, 528 bytes, 1 tensors)

array f4 [10, 10]
000000 db fc ac 3f 93 bb c2 bd b7 24 a4 3e b7 dd c5 3e
       1.3514665 -0.09508433 0.3205926 0.38645718
000010 a5 26 3a 3f 85 e7 85 bf ef ba 03 40 d8 02 ef bf
       0.72715217 -1.0461279 2.0582845 -1.8672743
000020 43 f8 79 3e 7d 51 aa bf 9f d7 5d c0 0c 0d 1e 3f
       0.2441111 -1.3306118 -3.4662855 0.6173866
000030 0a 9b 20 bf eb f9 1e 3e 6c 98 9d be 52 b2 33 3e
       -0.6273657 0.15525024 -0.3078035 0.17548493
000040 54 b0 06 3f 0d a9 6f 3f ef a4 21 3f 33 0c 3e 3f
       0.52612805 0.93617326 0.63142294 0.74237365
000050 98 a7 13 bf ed 3a 22 3f 2d 8a 2e bf 5b 56 24 3f
       -0.576776 0.63371164 -0.6817959 0.6419427
000060 a3 91 75 be 2a 78 d4 3d 1b 34 37 bf 56 72 37 40
       -0.23981337 0.10374482 -0.7156388 2.8663535
000070 a3 be 6e bf 06 94 44 bf bf 89 22 3e 63 31 0d 3e
       -0.9325964 -0.76788366 0.15872858 0.13788371
000080 a3 88 47 be 8d 52 ba 3e 41 3f 9c bf 37 47 e1 3f
       -0.19485717 0.36391106 -1.2206804 1.7599858
000090 ad 80 ad bf 33 d3 f4 3f fa ea a5 bf e9 49 fd 3d
       -1.3554894 1.9126953 -1.2962334 0.12367613
0000a0 77 4e 8d bf 24 90 1a 3f 3d c7 4e bf 61 17 b4 3f
       -1.103957 0.6037619 -0.80772763 1.4069635
0000b0 37 7e a5 bf 5d da 89 3e 6d c1 ad be 36 ee 64 be
       -1.2929143 0.2692441 -0.33936635 -0.22356495
0000c0 95 ad 14 40 32 aa 59 bf bc da 10 be ea 17 c2 3e
       2.3230946 -0.8502532 -0.1414594 0.3790887
0000d0 1a cd 9e be 29 50 14 bf 64 7b eb 3f a4 bf bd bf
       -0.31015855 -0.57934815 1.8397031 -1.4824109
0000e0 9b 62 09 40 a0 1d bd bf dd 46 65 3f 4a fa 5b bf
       2.1466434 -1.4774666 0.89561254 -0.85928786
0000f0 77 0a 20 3f 26 b5 8e bd 63 8a a7 3e 8c 0a 8e bf
       0.6251597 -0.06968145 0.32722768 -1.1096969
000100 1c bc 05 40 fb 5f f0 bf 12 5f de 3f ad ce b1 bf
       2.0896063 -1.8779291 1.7372763 -1.3891197
000110 ed 50 2f 3f e6 b8 cc be 6a 2e b6 3d bc 51 8c bc
       0.6848286 -0.39984816 0.088955715 -0.017128818
000120 b8 fe 1b be 72 5f 38 bc ca 73 b8 3e 91 41 cb bf
       -0.15233886 -0.011253225 0.3602584 -1.5879384
000130 1c 7a 0c 40 2f 22 c6 bf 4a 36 e5 3f e1 3e 3c bf
       2.194953 -1.5479182 1.7907193 -0.73533446
000140 72 2a 62 c0 13 21 42 3f dc 02 1a bf c8 cd d5 3e
       -3.5338407 0.7583172 -0.60160613 0.4175856
000150 54 a3 73 bc 44 bb 4d 3e e8 51 42 3f aa 96 b9 3e
       -0.014870483 0.20090967 0.7590623 0.3624776
000160 a3 8b 67 3e 2e d3 36 3f 98 56 f2 bf db 2c 77 3f
       0.22611861 0.71415985 -1.8932676 0.9655282
000170 6e fd 7c bf 7a 44 6c 3f 52 03 15 bf 3d bc 7f bf
       -0.98824203 0.92291987 -0.5820819 -0.99896604
000180 01 25 17 bd fc e9 65 3f ff 0b fa 3f 71 ec 0c bf
       -0.036900524 0.89810157 1.9534911 -0.5504828
