M_2_AST/MotionMixer-main/h36m/run_for_longging/exp188/model.pt (torch, 955837 bytes, 212 tensors)

Mixer_Block.0.mlp_block_token_mixing.fc1.weight f4 [20, 10]
00000000: 4598 80be 99d8 ab3e a6ae 153c b9f0 903e
00000010: 4262 4a3e 4231 8c3d eada d0be c8dd 4cbc
00000020: 87a7 c3be 16ba 20be 4931 7abe 6b33 433e
00000030: 6fb4 0bbe c669 723e bca0 c1be 8a7d f13e
00000040: 57bf 59be 8356 3e3f 32b0 8abe 3c61 913d
00000050: 3ba5 49be f798 2f3e fd59 24be 2296 a63e
00000060: c465 b1bd 488b ac3e adc3 56be 1fec 443f
00000070: 51c4 00bf 1f0a a53e 1c56 36bd 8d7f 3fbe
00000080: 1da9 063e 2d9f 47be efd3 3fbd f7a5 1dbf
00000090: 6a97 7a3f 7306 08be 4941 23bf 4afa d03e
000000a0: 5345 123b 7d62 84be 7eb9 5b3e 5029 953e
000000b0: bf9b dbbb e870 c7be 5931 44bf 6827 eebe
000000c0: d5b0 be3e 94f2 3cbe 13cd 96be 0659 7cbd
000000d0: b0d3 b6be ee7e 913e b506 663f 8a01 5cbc
000000e0: e263 13bf 9803 e9bd c41e abbe 5177 c53e
000000f0: 8d6a 553e e8a5 62be 9272 2e3e fd5e 81be
00000100: 94b4 f23e 962f 13be 45ab b93e a055 63bf
00000110: edd2 b23e e174 8abe f628 d43d 78b6 343f
00000120: 48eb dcbe 1121 0e3e c784 a3be 4ed4 91be
00000130: 4b04 8e3e 05d5 afbd c37d b43c 8fbe 2a3e
00000140: 73b1 eb3e dcb7 043e c59b d23e 0835 b3be
00000150: 67b4 9c3d 7b6e dcbd d0b4 f3bd 6fac cabd
00000160: 522c 5e3e 8e17 c4be ca15 2cbd 6e52 adbb
00000170: 09e8 cb3e 1433 3fbe 39f9 66bf 66c7 04be
00000180: ac8a 94be 6714 3d3f 4748 b43e 519e 6b3e
00000190: 3d4b 3fbe 014e e93d 9d89 4abe ebab b03d
000001a0: cad2 babe e707 f43e 9cea a5be 17f5 393f
000001b0: d7d9 58bd fe4f 1c3e 5fc9 87bc feea c83c
000001c0: 335f d7bb 2803 dbbd fd77 bebc 6e6b 843f
000001d0: 3fc0 5abe e108 db3e b313 183d ac55 fdbe
000001e0: 1d48 2ebe c573 8e3e 3585 0ebb bcea 7b3d
000001f0: a52f 72be 13cb 433d 9548 4abe c8df 443f
00000200: 3c24 00bf 00e7 043f c460 90be 1f63 7b3d
00000210: 22e9 d9be 8706 083e 5bab 13be 7bb2 eb3e
00000220: 047b 8dbe c2ca 813f 7de0 03bf 1e6f f23e
00000230: 7eb2 1cbd a2a2 a63e 9ce0 49be f934 263e
00000240: 931b c8bd 82a9 ac3d 9886 02bf a07d bebd
00000250: baa3 633f f527 af3c e015 bebe 90fe 4b3d
00000260: a047 a4be f279 243f e2d5 9ebe 7430 1bbf
00000270: d358 5f3d a0c1 58be 75e6 993e 8325 e13e
00000280: 58fe 37be 1c0e 2b3e a72a 80bd 63d8 4d3e
00000290: 5cb1 f9bc 3fea 873d c7e5 d83a c0fc 153f
000002a0: 25bd 43bf f0a5 3f3e b5ef 04bd 635a 9b3e
000002b0: 83ca 39be 003a a83e bac4 47be 96ad efbd
000002c0: 3b08 c0be 70b0 0b3f f24f 55be 9dac 9c3e
000002d0: 044c 65be fd7b 1fbe 0cef 963d 8914 373e
000002e0: 374c 303e 4190 053f df29 d0be 0833 03bf
000002f0: 74da c03d bf5d 27bf 4caa a53d 2519 3bbd
00000300: 7c1b f6bd da85 a8be fd14 afbc 2137 153f
00000310: 26a0 d4be e92e 9bbd 9588 fb3e 5ddb 29be
-0.25116172 0.33563688 0.009135878 0.28308657 0.19764045 0.06845333 -0.40792018 -0.012504049
-0.3821375 -0.15695986 -0.24432863 0.19062583 -0.13643049 0.23673162 -0.37817943 0.4716609
-0.21264397 0.74350756 -0.2708755 0.07098624 -0.19691937 0.17148195 -0.16049953 0.32536417
-0.086619884 0.33700013 -0.20973082 0.7692279 -0.50299555 0.32234284 -0.044515714 -0.18701
0.13150449 -0.19494314 -0.046832975 -0.6158137 0.9788729 -0.1328371 -0.6377149 0.40815955
0.0022319152 -0.2585639 0.21457478 0.2913308 -0.006701916 -0.38953328 -0.766378 -0.4651444
0.37244287 -0.18451911 -0.29453334 -0.061608337 -0.3570838 0.28417152 0.89853984 -0.013428101
-0.57574284 -0.113776386 -0.3342191 0.38567594 0.20841427 -0.221336 0.17035893 -0.25267783
0.47403395 -0.14373621 0.3626348 -0.8880253 0.3492655 -0.27042297 0.10359375 0.70590925
-0.43148255 0.13879801 -0.3193724 -0.28482288 0.2773765 -0.08585552 0.022032624 0.16674255
0.4603382 0.12960762 0.41134468 -0.35001397 0.076515965 -0.1076326 -0.118997216 -0.0989617
0.21696594 -0.3829922 -0.042012967 -0.0052893674 0.39825466 -0.18671829 -0.90224034 -0.1296669
-0.29012048 0.73859257 0.35211393 0.23009612 -0.18681045 0.11391831 -0.19779058 0.08626541
-0.36488944 0.4766228 -0.32405555 0.726396 -0.052942123 0.1526489 -0.016575513 0.024526116
-0.006572628 -0.106939614 -0.023250574 1.0345285 -0.21362399 0.42780212 0.03712816 -0.49479425
-0.17019697 0.278227 -0.0021746878 0.061503157 -0.23650987 0.04780109 -0.1975425 0.76903963
-0.5005529 0.5191498 -0.28198826 0.061373826 -0.4256068 0.1328374 -0.14420836 0.46034607
-0.27632916 1.0140002 -0.51514417 0.473504 -0.03825616 0.32545954 -0.19714588 0.16231145
-0.09770884 0.084307685 -0.50986624 -0.09301305 0.889217 0.021381358 -0.37126064 0.049803317
-0.32085896 0.64248574 -0.31022555 -0.6062081 0.05452807 -0.21167612 0.30058637 0.43973932
-0.17968118 0.16704601 -0.06258135 0.20102076 -0.03048008 0.06636476 0.0016547971 0.5858879
-0.76460487 0.18715644 -0.032455165 0.30342397 -0.18143658 0.3285675 -0.19508639 -0.11703031
-0.3750628 0.545661 -0.20831278 0.30600443 -0.22392279 -0.15574642 0.07369813 0.17878927
0.17216574 0.5217324 -0.40656945 -0.5124974 0.094166666 -0.6537742 0.08089122 -0.045678277
-0.12016961 -0.3291462 -0.021372313 0.58287245 -0.41528434 -0.07577307 0.4912764 -0.16587587

Mixer_Block.0.mlp_block_token_mixing.fc1.bias f4 [20]
00000000: 9a5e a53e 2372 af3e 556a ab3e b9e4 843e
00000010: 859c bd3e 4cc9 063f f4ae 223e ea18 5a3e
00000020: ed7b ad3e 7af1 a73e 9334 b03e f6ee 1f3f
00000030: d856 df3d aa8b e63e 09e4 a73e 8d75 0f3e
00000040: 237e ae3e b039 903e 3281 093f 67db d63e
0.32298738 0.34266767 0.33479562 0.25955752 0.37033477 0.52650905 0.15887052 0.21298566
0.3388361 0.3280142 0.3441511 0.62474 0.10905236 0.4502843 0.32791165 0.14009686
0.3408061 0.28169012 0.5371276 0.41964266

Mixer_Block.0.mlp_block_token_mixing.fc2.weight f4 [10, 20]
00000000: e161 473e 19ff 3fbe f0fa 87be a031 8f3e
00000010: 2b25 a33e 6629 f83e 9d44 3cbe ea6c 2cbf
00000020: ac62 7ebe f6b0 b83e e20a d0be deac 83bd
00000030: c523 37bd 6071 f2bd 1f5a fdbe 0036 d7bc
00000040: cf9e be3e 44a3 c0be 4fd6 b73e e9a3 74be
00000050: 6335 0dbe 114c 933e 6aa2 b23d 4927 f23d
00000060: 0fa7 9b3d 0879 9a3e d306 26be 3d0d dcbc
00000070: c7b1 f4be d6f8 3fbe 2e73 993e 250a d73c
00000080: b71d 23be 89b7 d93e 2449 d93d 3bdf ca3e
00000090: f531 dfbd 233d 41bd 584a 803e 2199 56be
000000a0: 2062 8ebe fce3 fbbe dfdf 92be c8d5 f13d
000000b0: 60e9 6abe bcb7 9f3e ca8f 633f 1ca0 88bd
000000c0: 7041 c2bd 7630 c8be f693 f5bd 65a4 dbbc
000000d0: e360 acbe 9150 8b3e 413d 8bbd c975 7fbe
000000e0: 901d a6be 501c 7ebe 5567 5abe c634 2e3e
000000f0: 6998 cbbe c3da 243f cca6 a53c 1e8d 27be
00000100: bf47 01bf 5402 9fbe 3508 75be 1c4e 84bd
00000110: a4a2 d03d 150a 973e f647 8c3f c9b8 4a3f
00000120: 5a92 873e 46dc 3b3f 2a67 fdbd 8cf8 43bf
00000130: 0773 9cbd 62dd 83be c9d9 9fbe 4a1f 113f
00000140: 6513 22bf 1427 e23d 7e1c 14bf b6af 0a3f
00000150: 747e c4bc 69ba 4abf daaf 4f3e ed4c 243e
00000160: 3d91 453e a3d6 253f b268 b23d 170b ddbd
00000170: 0805 5bbd 4bfa c2be a895 3dbe 6b9a 433e
00000180: 8479 d8be 5df2 b1be c56a 3fbe 3046 65be
00000190: 4944 3fbe ac60 bfbc 3743 8d3e c1cd 943e
000001a0: ff64 413e db29 283e c8fc dbbe dfbe 6e3e
000001b0: 1494 16bd f5ed 0b3f 05e6 91bd 7e23 35bf
000001c0: 588b de3e edb6 7f3d baa3 6b3e 98d5 2e3f
000001d0: e7fb 3a3e 6934 233f af1d 24bf 2cec e8be
000001e0: 62cc 12be 0f06 54be 75bc b7be 2b97 26bf
000001f0: 1150 ba3e a1a6 b43e 65ef 873d 613a cbbe
00000200: e96b 77b8 d4ef 6b3b c0b0 153d 94be 863e
00000210: 4f17 e4be 2cea 87bd eb9a ed3e 0d8f b2bb
00000220: 2fec b2be 6678 2ebd 5f73 943c 1a7e 8e3e
00000230: 8723 82be d7c0 d3bd 536f c0be 0ce1 65be
00000240: 7bd4 e33d abf2 01bc e128 c33e ee51 edbe
00000250: 2f2b 92bd dc09 62be 4b46 6dbe f56f e83e
00000260: e545 42bf cb47 e4be 25be 80bd 67e0 e4be
00000270: cd29 cbbe c10c c5be 8b15 2e3f 1934 ae3e
00000280: 6750 cc3d c0a9 873e 734f 213f 8f5b a03e
00000290: 811a 4abf 3404 dd3b 7299 133f d3db 01bd
000002a0: 7bbe 5e3d 469c c3be dd53 c1bc 4b23 30bd
000002b0: 9cfa 023f 3aa5 d53e 0ca8 35bf f90b b2be
000002c0: 5a92 0e3f a868 0e3e 7168 abbe 9334 1dbf
000002d0: 6187 a83e 824c cdbd 3f05 61be 429a 09bf
000002e0: 092c 593d eeb8 93be 4519 273c 133a 1e3e
000002f0: 368a a23e 4392 ba3c 7388 bcbc 3874 ac3e
00000300: 41e7 e5be 34f7 94be 1e06 943d e1b5 3dbf
00000310: 66d1 17bd 00ad 5cbd 4da1 f23d e030 e93d
0.19470932 -0.18749656 -0.26558638 0.27967548 0.31864294 0.48469085 -0.18385549 -0.6735369
-0.24842328 0.3607251 -0.40633303 -0.06429456 -0.044711847 -0.11838031 -0.4948282 -0.026270866
0.37230536 -0.37624562 0.35905692 -0.23890652 -0.13789897 0.28768972 0.08722384 0.11823899
0.07600223 0.30170465 -0.1621354 -0.026861781 -0.47791883 -0.18747267 0.29970688 0.026249954
-0.15929304 0.4252284 0.106096536 0.39623436 -0.108982004 -0.047177445 0.2505672 -0.20956852
-0.27809238 -0.49197376 -0.28686425 0.11808354 -0.22940588 0.31194866 0.8889128 -0.066711634
-0.094851375 -0.39099473 -0.11991112 -0.026811788 -0.3366767 0.27209905 -0.06798793 -0.24947275
-0.3244443 -0.24815488 -0.2132848 0.17012319 -0.39764717 0.64396304 0.020221137 -0.16362426
-0.505001 -0.31056464 -0.23928912 -0.06460211 0.10187271 0.2949988 1.0959461 0.7918821
0.26478845 0.73382986 -0.123731926 -0.7655113 -0.07639127 -0.2575484 -0.31220844 0.5668837
-0.63310844 0.1104261 -0.57855976 0.54174364 -0.023986079 -0.7919069 0.20281926 0.1604497
0.19293685 0.64780635 0.08711375 -0.10793131 -0.053471595 -0.38081583 -0.1851412 0.19101875
-0.4228021 -0.3475522 -0.18693073 -0.22390056 -0.18678392 -0.023361526 0.27590343 0.29063228
0.18886183 0.16422217 -0.42966294 0.23314999 -0.036762312 0.5465997 -0.07123951 -0.7075728
0.43465686 0.06243031 0.23011675 0.6829467 0.18260156 0.63751847 -0.64107794 -0.45492685
-0.14335778 -0.20705436 -0.3588597 -0.65074414 0.3638921 0.35283378 0.06637458 -0.39692977
-5.898989e-05 0.0036001103 0.036545515 0.26317275 -0.44549033 -0.066364616 0.46407256 -0.005449182
-0.3494582 -0.04259529 0.01812142 0.27830583 -0.2541773 -0.10339516 -0.37584934 -0.2244913
0.11124512 -0.007931392 0.38117126 -0.4635157 -0.07137143 -0.22074074 -0.23171346 0.45397916
-0.758879 -0.44586024 -0.06286267 -0.44702455 -0.3968033 -0.38486293 0.6800162 0.34024122
0.09976273 0.26496696 0.63011855 0.31319854 -0.7894669 0.006744886 0.57656014 -0.03170378
0.054380875 -0.38205165 -0.02359956 -0.043002408 0.5116365 0.4172762 -0.70959544 -0.3477476
0.55692065 0.1390711 -0.3347812 -0.61408347 0.32915786 -0.10024358 -0.21974657 -0.53751004
0.05302051 -0.28852028 0.010198896 0.15451841 0.31746072 0.022774821 -0.023014283 0.33682418
-0.44902995 -0.2909485 0.07227729 -0.7410565 -0.037064932 -0.053875923 0.11847172 0.11386275

Mixer_Block.0.mlp_block_token_mixing.fc2.bias f4 [10]
00000000: e932 a23e f3ab eebe ed6f fe3e 2271 2cbf
00000010: 2ec6 663f c34e c8be 4d43 6c3e 768f 1f3f
00000020: 88b1 41be 8c51 793e
0.31679466 -0.46615562 0.49694768 -0.67360127 0.9014615 -0.3912259 0.23072548 0.6232828
-0.18915379 0.24347514

Mixer_Block.0.mlp_block_token_mixing_DynaMixerOperation.fc_ND.weight f4 [1, 66]
00000000: bf9f b1bd 391e 853b c01a 7dbc a21a fc3c
00000010: 707a 983d cbad 903d 1fc8 51bd 3f8c e7bc
00000020: 77c3 1c3d fb20 153d 6744 f53b feeb 4abc
00000030: 81c6 713d c5dc 94bd 56c2 24bd 2640 4fbd
00000040: 8506 ad3d 3289 563d 2f11 0d3d bdf8 a2bc
00000050: f520 cbbc f74a 153d 0608 a1bc abac 533d
00000060: 5be7 edbc 15cb 9abd c508 0ebb 2222 bd3c
00000070: 8d99 943d 2596 fdbc a8e5 4cbc 0b9b 4fbd
00000080: 7c2f 053d 4228 3ebc 599d 4bbd 6b2e d83c
00000090: 2eab 17bc 9d89 81bd f598 bebd 7e99 11bc
000000a0: b6c1 f43c ad15 ffbc fa73 d8bc ec14 f1bc
000000b0: 256c 4bbd ca93 9cbd 7a94 9fbd 347e c63b
000000c0: c1ad 14bd c8c5 b8bd 757c ab3c a549 3abc
000000d0: 70b1 35bd c520 d33d 78ea 8abd 4010 b43c
000000e0: 19b7 fcbc fe0d 233d 130d 18bd c259 50bd
000000f0: c65b 4d3c 45ef ef3c 1440 78bc e93d 47bd
00000100: 3732 783d 06a8 293d
-0.08673047 0.0040624407 -0.015448272 0.030774418 0.07445228 0.070643984 -0.05121624 -0.028265117
0.038272347 0.036408406 0.007484961 -0.0123853665 0.0590272 -0.07268671 -0.040224396 -0.050598286
0.08448509 0.052376933 0.034440216 -0.019893998 -0.024795989 0.036448445 -0.019657146 0.05167834
-0.029040983 -0.07558266 -0.0021672708 0.023087565 0.0725585 -0.030955384 -0.012505926 -0.05068497
0.032515988 -0.011606278 -0.049710605 0.026389321 -0.009257121 -0.06325076 -0.09306518 -0.008886693
0.029877525 -0.031138266 -0.02642249 -0.029428922 -0.04966368 -0.07645376 -0.077919915 0.006057525
-0.036298517 -0.09022099 0.02093337 -0.011370097 -0.04435867 0.10308985 -0.067830026 0.021980405
-0.030849027 0.039808266 -0.037121844 -0.05086685 0.0125340875 0.029288897 -0.015151996 -0.048643027
0.060594764 0.041420005

Mixer_Block.0.mlp_block_token_mixing_DynaMixerOperation.fc_Nd.weight f4 [100, 10]
00000000: 2645 25be 7b67 87be 7297 c8bd 2901 853d
00000010: 04cc afbd 3eee 29be c145 f7bc c980 98be
00000020: 061f ab3c 5d7b 25be 7962 8c3e 0133 dcbd
00000030: 4321 1dbe f450 fcbd 2b37 08be 7a1c e73d
00000040: 1e0f 583d 1012 83bd e4cb 633e 43dc e6bc
00000050: c633 453f e417 3d3e a82b f3bc d47e 133f
00000060: 23f5 693e b608 343f 4611 b23d 9df6 2e3f
00000070: 27b7 083f 0349 293f 27e8 90be b9aa 143f
00000080: 5576 5cbe 9adf 68be fd94 013d 1b4b f13d
00000090: d9e7 9bbd 76ef 713d df1b b13d 3a6f 20be
000000a0: 4bef 78bd 55eb b93e 6826 553f 59f4 f53d
000000b0: 63b2 b23e 2e0c 3a3e d527 073f 6d8a 823c
000000c0: 9c6f 113e 2665 7c3d cbcb a7be 336e 423e
000000d0: 70ee 36bd 2d9e 503d e7af 1fbe dd48 acbe
000000e0: e805 abbd 75f3 2a3e b7d0 b63d e6ff d23b
000000f0: b90d 6f3d 89c7 a2bc 24d1 a73e 4ff3 4cbe
00000100: 8c3d 7b3e 84e5 613d 9d1a dcbd 9ebe 3d3e
00000110: 6e07 f43d 215b b63e 48c5 92be bc42 edb9
00000120: 333c 023d 7700 3bbd da4e adbd c7f3 0dbe
00000130: 80cf bcbd b023 a7be f91f 87bc 4b2a 20bd
00000140: c284 b7bd fd0a d0bd 42dd 033f a42e a03d
00000150: 012d 03bc 0716 1a3e 62fb 1abe f336 203e
00000160: bfa1 553e 79e3 4a3e 28a9 1c3d 85c5 593d
00000170: 7c80 8dbd 0f65 b2be b770 4fbe 5939 b6bd
00000180: f205 0cbb 1e1a 813d e5ea a9bc 9d50 923e
00000190: 4af0 b0bd ae86 c5be af42 a0bd c9ec e63d
000001a0: aae7 06be cf97 13be 0787 9cbe 5c8d cebd
000001b0: e09e c9be 8310 cebd 82cb 2b3e 24ad babd
000001c0: 030b 83bd b9b2 b2bc 7837 fb3c 4fca 8cbd
000001d0: fe97 513d 9e2c 39be 6c12 533e 61ac 66be
000001e0: 7baa d1bd 947b a3bd 5c08 ba3d a654 f1bd
000001f0: c482 a1be fd37 b7bd b439 a5be e4c2 3c3e
00000200: 2d3a a7be c023 74be 2e82 de3e 5166 283d
00000210: 8381 8b3d bd14 613e 1ebf 573e 6f60 6f3e
00000220: 752d a63e 085c 1d3d 27cb e13e f3fe c53e
00000230: ed18 663e daf4 c93e a2d3 fb3d 1a9e 043e
00000240: 9901 153e 3ced 02be 1573 04be af25 c93e
00000250: 6d03 39be 0402 6ebe cf16 c13d f0a2 82be
00000260: 2946 2f3e a966 a93d db25 873c d784 293e
00000270: adaf 383e 8e9f fbbd b8b2 8e3e 5e09 e1bd
00000280: 7684 5a3e e23b 493e 69b4 d1bd 9651 693e
00000290: 12f8 29bd d35c 13bb 9877 973d 9dd5 023f
000002a0: de67 d1bc 0ae7 023d c62a 53be 2d3e 5dbe
000002b0: c82a dabe ff8c 7bbd 033c aebe 4791 68be
000002c0: f590 003e 155a bebe 378e 353e 08a1 63bc
000002d0: a1d2 cb3e 92f3 833d 7013 813e 4197 873e
000002e0: 2931 483e bd69 2bbe 5dfc 04bc cbc4 78bb
000002f0: e32c b3bd 1ab4 79be 5b66 b5be 3b80 713d
00000300: b36d 5f3e b02e 213e 8829 3e3b 99d2 ea3d
00000310: 3723 913e 37bd 033e 47ea 073e fa5e a03c
00000320: cce9 1e3e e3d6 3bbd bcfd 203e 5f4b fb3d
00000330: 2d64 9e3e c396 b33d 0294 7b3e bbc5 273d
00000340: c59b 373d dcb9 dc3c f28f a7be d313 cd3d
00000350: 5fde 96bc 6c89 c0bd da2a a2bd 02a7 46be
00000360: 4a15 d1bd d54d ecbe 73da 563e 9104 143e
00000370: 674e 653c 5ccd 8ebe 5651 c3be 0ae9 6dbe
00000380: 45e5 b5be abee 63be c92d 93bc 521c 883d
00000390: f518 debd f58c 40be b8ec 6abd 48f3 3dbc
000003a0: 3879 cfbc 22b9 a03e 9efe c0bd 860b e2bc
000003b0: 28e5 2e3d 9494 a0be 552d d3bd 0ef2 d2bc
000003c0: 6f6c 453e 71b5 00bd f628 fe3c ddda 923e
000003d0: 2980 2a3e 9b1c 703e 0d01 773e e232 2bbe
000003e0: 0608 ad3e ec81 423e 0962 893d 82aa 80bd
000003f0: 6acf 36bd 6525 2b3e 9796 6f3e b306 2b3d
-0.1613966 -0.26446137 -0.09794511 0.06494362 -0.08583835 -0.16594788 -0.030184628 -0.29785755
0.020888817 -0.1616034 0.2741888 -0.10751916 -0.1534472 -0.12320128 -0.13302295 0.11284728
0.052748792 -0.063999295 0.22245747 -0.0281812 0.77032125 0.18466145 -0.029683903 0.576154
0.22847418 0.7032579 0.08694701 0.6834505 0.5340447 0.6612703 -0.28302118 0.58073
-0.21529515 -0.22741547 0.031636227 0.11781903 -0.07612581 0.05906626 0.08647894 -0.1566743
-0.060775083 0.36312357 0.8326173 0.12009496 0.34901723 0.18168709 0.52795154 0.015935147
0.14202732 0.0616199 -0.3277267 0.1898735 -0.044660985 0.0509321 -0.15594445 -0.3364934
-0.08350736 0.16694434 0.08926528 0.006439197 0.058362696 -0.019870536 0.3277675 -0.2001469
0.24535197 0.055150524 -0.107472636 0.18529746 0.119154796 0.356164 -0.2866614 -0.00045253884
0.03179569 -0.04565474 -0.08462305 -0.13862525 -0.09219265 -0.32644415 -0.016494738 -0.039102834
-0.089608684 -0.10158346 0.5150949 0.07821396 -0.008006335 0.15047465 -0.15134957 0.15645961
0.20862482 0.19813336 0.038247257 0.053166885 -0.06909272 -0.34842727 -0.20257841 -0.08897657
-0.0021365848 0.063038096 -0.02074189 0.28577128 -0.086395815 -0.38579315 -0.07825219 0.11275632
-0.1317431 -0.14413379 -0.30571768 -0.10085556 -0.39379025 -0.10061743 0.16776851 -0.09115055
-0.06398585 -0.021813737 0.030666098 -0.06874525 0.05117034 -0.18083426 0.20612496 -0.22526695
-0.10237595 -0.07982555 0.09083626 -0.117837235 -0.3154508 -0.08946226 -0.32270586 0.1843372
-0.32661572 -0.23841763 0.43458694 0.0411132 0.06811812 0.21980567 0.21068999 0.2337663
0.32456556 0.038417846 0.44100305 0.38671073 0.22470446 0.3944462 0.12296225 0.12950936
0.1455139 -0.1278581 -0.12934525 0.39286563 -0.18067713 -0.23242956 0.094281785 -0.25514936
0.17116608 0.08271534 0.016497543 0.1655458 0.18035765 -0.12286292 0.27870727 -0.10988115
0.21339592 0.1965175 -0.10239489 0.22785029 -0.041496344 -0.0022485747 0.073958576 0.511072
-0.025562223 0.031958617 -0.20621786 -0.2160575 -0.42610765 -0.06141376 -0.3403016 -0.22711669
0.12555297 -0.37178102 0.17730032 -0.013893373 0.39809135 0.06442942 0.25210142 0.26482585
0.19550003 -0.16739555 -0.008116809 -0.0037959095 -0.08748796 -0.2438511 -0.35429654 0.05896018
0.2181919 0.15740466 0.0029016454 0.114659496 0.2834718 0.12865148 0.13272963 0.019576538
0.15518874 -0.04585923 0.15721792 0.12270235 0.30935803 0.0876899 0.24568179 0.040960055
0.044826288 0.026944093 -0.3272701 0.10013547 -0.018416582 -0.09401211 -0.079183295 -0.19399646
-0.10209139 -0.4615313 0.2098177 0.14454867 0.013995743 -0.27891052 -0.38147992 -0.23233429
-0.3552648 -0.22259013 -0.017966168 0.06646027 -0.10844604 -0.18803771 -0.05735466 -0.011593647
-0.025326356 0.31391245 -0.094235644 -0.027593385 0.04269901 -0.31363356 -0.10311381 -0.025750186
0.19279645 -0.031423036 0.031025391 0.28682604 0.16650452 0.23448412 0.24121495 -0.16718629
0.33795184 0.18994874 0.06708152 -0.06282522 -0.0446314 0.16713484 0.23397289 0.041754436

Mixer_Block.0.mlp_block_token_mixing_DynaMixerOperation.fc_Nd.bias f4 [100]
00000000: 7f40 c53e e7e0 153e cab3 9abe 22cf 04be
00000010: 9860 95be 7a49 d9bd 9462 2cbe 60a3 debd
00000020: 1538 95bd 7d4d 93be 4a1c 843e facd 213e
00000030: 162e 6cbe 5521 94be aa03 04bf 5611 8bbd
00000040: e6d2 aabe bbf9 afbe c819 16bf 2923 03bc
00000050: e4a9 5abe 5325 893e 1442 ca3e a6aa 17bd
00000060: e018 6a3d 299b 25bd 3a10 26be 12cf e3be
00000070: 7334 0ebe ebef 0abd 9ba0 493e 7b22 07bf
00000080: 9672 c73e fb18 c1bd bad6 b3bc 7ab8 86bd
00000090: cddf a7bd a3fe 3abe b57d 0bbe 8436 c6bd
000000a0: a66f d93e a523 4a3e 56ca 1fbf 302f 983e
000000b0: 04ef 923d 2555 963c a27a a0be 2e0a 1b3e
000000c0: c05b 633d 5334 35be dcea 6ebd ea6a 63bd
000000d0: e43e 9b3e 5909 21bf 5f47 8e3e 05ac 8b3e
000000e0: 9dca 23bd f3cd c5be 38d8 c43d 641f f2bd
000000f0: f5dc ec3b 2b34 4ebe a613 a0be 5078 db3c
00000100: 4b01 02bf c469 45be c5cf a63e 9f16 8abe
00000110: 169a dfbd 2292 cc3d cc46 b3be 66fd f33e
00000120: d70e bbbd f2cc 4d3e 3d79 833e 6bea d8be
00000130: 1570 f43d dcfa b63e cdb2 7b3e e75a cabd
00000140: 5ee8 0a3f 8ef9 b0be 90b2 dabc f30d 8abc
00000150: c6c1 c1bd 0a09 b1be 1f81 9dbe 5746 91bd
00000160: 78c4 7d3e 6e04 babb b869 10bf 01c6 4b3c
00000170: 169d 44be e4d5 85be 0a19 ecbd 5517 e9be
00000180: 9a2b e5bd bfd8 c4bd dc33 1ebe 1a3a 183d
0.3852577 0.14636575 -0.30215293 -0.1296964 -0.29175258 -0.10609718 -0.1683448 -0.10871005
-0.072860874 -0.28770056 0.25802833 0.1580123 -0.23064455 -0.2893168 -0.5156809 -0.06790416
-0.33364028 -0.34370217 -0.5863309 -0.008003988 -0.2135387 0.2678629 0.3950354 -0.037027977
0.05715263 -0.040431175 -0.16217127 -0.4449392 -0.13887195 -0.03392021 0.19690172 -0.5278699
0.3895461 -0.09428593 -0.021952976 -0.06578155 -0.081969835 -0.18261199 -0.13622172 -0.09678367
0.42467993 0.1974016 -0.62418115 0.297235 0.07174495 0.018351147 -0.3134356 0.15140602
0.05550742 -0.17695741 -0.058329448 -0.055521883 0.3032142 -0.6290489 0.27788827 0.27279678
-0.03998815 -0.3863369 0.09611553 -0.118223935 0.0072284886 -0.20137088 -0.3126499 0.026790768
-0.5078322 -0.19278628 0.3258039 -0.26970384 -0.109180614 0.0998881 -0.3501495 0.47654265
-0.0913369 0.20097712 0.25678435 -0.42366347 0.119354405 0.35738266 0.24579926 -0.098806195
0.54260814 -0.34565395 -0.026696473 -0.016852355 -0.094607875 -0.3457721 -0.30762574 -0.070934944
0.24781978 -0.0056767976 -0.56411314 0.0124373445 -0.19200549 -0.26139748 -0.11528213 -0.45525613
-0.11189957 -0.096116535 -0.1544947 0.037164785

Mixer_Block.0.mlp_block_token_mixing_DynaMixerOperation.fc_out.weight f4 [66, 66]
00000000: 622e 30bf 9ccf e83d 3db9 e6bc 69d3 c4be
00000010: 76f7 243e 341b 6e3e 1e86 ed3c 71c9 34be
00000020: fcc6 0b3e 68af eebb 5d73 c4bd c089 73bd
00000030: c51c d1bd 4831 d13d 29fc 7a3e f599 203d
00000040: 48fe 9a3c df11 10be 1a68 35bb 87ce 0d3e
00000050: c381 8bbe 5596 6c3e 7cb9 ad3c c944 7a3e
00000060: 18c6 df3d 1dd3 8dbd a11c 00bf 2d6a bdbd
00000070: fdfc 32be 5f26 843d 6b7f 003e 8646 1d3e
00000080: 1dfd 8dbd 26b1 243e 0413 e539 458b 003e
00000090: 9974 a63c 692a 1b3e 8b30 693e 58bb 55be
000000a0: a66a 2abe 175e 74be d649 0abe 58a7 133e
000000b0: b4dc 8a3e 3b63 0c3e d59e 053e 557b 4e3d
000000c0: 7d30 96bd 39a8 49bd 7500 24bd aecb 87bd
000000d0: d5e3 b53d 0665 c0be c507 c33e c958 663e
000000e0: 6967 52be 7c16 333d d35f b1bd 93d9 253e
000000f0: 6747 313e 00f0 d23c f24a a3bc 32d6 07be
00000100: e2ec 813d e2b5 d1bd 1e67 36be 7d69 e6be
00000110: b137 f53d 3392 69bd 0718 aebd 6ca2 3c3e
00000120: ae55 6d3e 426d 103d ffaf c8bc 783d 6e3d
00000130: 2def 443e a65d 0f3e 5494 e03d ad26 10be
00000140: 0bf4 05bd 51f1 b3bd 9c47 98be 1247 8abe
00000150: 617c 9c3d ebe1 f93c 351c 213d 988e 773e
00000160: a099 82bd 11ac eabd 7587 8abe f9f9 cd3d
00000170: a2c2 51bd 9218 87bc 9ca9 8e3d 3975 153d
00000180: 0002 0e3d bc76 07be 2e4c 793e e70b 7abd
00000190: 61a8 2dbe 09da 02be 48ce f83d d186 87bc
000001a0: 5c4a 6a3d deb3 1d3e b587 d93d b0b5 d53d
000001b0: 641e a3bd 2473 04bd b46d 653d 1460 e4bd
000001c0: 842b 62be 3185 563d 3c71 ebbd b1cc 363e
000001d0: 4f74 ac3c 9799 54be 602d 903d dd5b 19bd
000001e0: 95bb 30be 2e59 183e 8d09 623e 9a4d 9f3e
000001f0: 4070 ce3b 101d ae3d b50e b63d 647a 51ba
00000200: 9748 613d db5e 01be c6df 72be cc22 26be
00000210: 51c0 383e e87c 12be 7d7d 0fbf 2399 17be
00000220: 2c6a 263c 5ac6 703e 5add 86be fc2d 213d
00000230: fc1f 7abd 930e 0bbe 93ff 613d 01fe dabb
00000240: 4d7a 69be 61f8 563e a0c9 2b3c 333e db3d
00000250: aed6 f8bd 3853 933e 4921 653d 3cf8 e13d
00000260: 0f02 43bd 20ff c43d 0fdf 8cbd 52a4 bdbd
00000270: c6f0 65be f41a 943e 7a5f 023d c597 203e
00000280: e65f 68be eb25 11be c13d 903d 9865 583b
00000290: 2938 ae3c 0c7c 1a3d 6225 febb 04fb 09be
000002a0: 464b 77be 0a7d 5fbd 6807 933e 97e4 9a3e
000002b0: e458 543c d910 bf3e dbe3 8ebe abe3 d7bd
000002c0: 0ace ec3c c54b bdbd 83ee 413d 8cf9 b3bd
000002d0: 14e4 753e 8465 af3d 35c8 0b3e f15c 063e
000002e0: ffef 4e3e 951e 25be 7dc3 213d fd36 cabd
000002f0: 895c ee3d 6811 893d 1828 a8bd 6205 3bbd
00000300: 12a8 f8bd 57c4 e23d f3d7 efbd ee58 933e
00000310: bb1e 5dbe f073 7dbe 73a9 06be dd36 d0bd
00000320: 1eda 11bc 15ab efbe b4b9 b03d 1593 cdbd
00000330: ef76 29bd f5fb 8abb 8693 c0bc 16d9 68bd
00000340: 9990 333e d06f 34be c9bf d7bd 4219 d63d
00000350: 45a4 553d 307b 453d 0af0 29bd 327b 183e
00000360: 77b0 893b 27a9 843d 0bfa 72bd 94f5 673e
00000370: 4014 043e b466 90bc 277a 203d 07e0 13be
00000380: 5cc6 0bbe 4e2c 033d 499c 1c3e 0908 83be
00000390: 6f3d 413e 5c74 503e 1179 bc3d 8509 a23e
000003a0: c6b2 1e3d 0ccb eebb e7f9 5e3d f8e8 593e
000003b0: fbe8 34bc 4028 cc3d b09f 69be edfd 203d
000003c0: e05b e3ba e15d a33c 21af 22bd f322 f5bd
000003d0: bedc 07be ce5b b0bd eaa9 063e 0515 773e
000003e0: c1c2 4a3e 9e37 13be 32cb f0bd b118 053d
000003f0: 02b4 c33c 5602 00be 2952 6e3d e02d 463d
-0.68820775 0.11367723 -0.0281645 -0.38442543 0.16110024 0.23252565 0.028994616 -0.17654969
0.13650125 -0.0072840936 -0.09592316 -0.05945754 -0.102105655 0.10214478 0.24510254 0.039209325
0.018920079 -0.14069317 -0.0027680458 0.13848315 -0.27247438 0.23104222 0.02120661 0.24440302
0.10926455 -0.06925032 -0.50043684 -0.09248767 -0.1747932 0.06452631 0.12548606 0.15358934
-0.06933043 0.16083202 0.0004369245 0.12553127 0.02031927 0.15152897 0.22772424 -0.20872247
-0.16642246 -0.23864017 -0.13504729 0.14419305 0.27121508 0.13709728 0.13048871 0.050410587
-0.07333467 -0.049232695 -0.0400395 -0.06630646 0.08881346 -0.37577075 0.38091865 0.22494806
-0.2054726 0.043722615 -0.08660855 0.16196279 0.17312394 0.025749207 -0.019933198 -0.13265303
0.0634401 -0.102397695 -0.17812774 -0.45002356 0.11973513 -0.057024192 -0.085006766 0.18421334
0.23177215 0.035260446 -0.024497984 0.05816409 0.19231863 0.14000568 0.10965791 -0.14077254
-0.03270344 -0.08786262 -0.29742134 -0.27007347 0.07640911 0.030503234 0.03933354 0.24175489
-0.06376958 -0.114586 -0.2705647 0.10057444 -0.051211007 -0.016491208 0.06965944 0.036488745
0.034669876 -0.13228887 0.24345466 -0.061046507 -0.16958763 -0.12778486 0.1214872 -0.016543778
0.05719982 0.15400645 0.10621587 0.10435045 -0.07964781 -0.03233637 0.056012824 -0.11151138
-0.22086912 0.052373115 -0.11496207 0.17851521 0.021051554 -0.20761715 0.070399046 -0.037441123
-0.17259057 0.1487777 0.22073956 0.31113893 0.0063000023 0.08501637 0.08889524 -0.0007990955
0.055000868 -0.1263384 -0.23718175 -0.16224211 0.18042113 -0.1430546 -0.56050855 -0.14804511
0.010157149 0.23513165 -0.26340753 0.039350495 -0.06106566 -0.13579778 0.055175375 -0.0066831117
-0.2280056 0.20993187 0.010485083 0.10705223 -0.12150322 0.28774428 0.055939946 0.11033675
-0.047609385 0.09618974 -0.068784826 -0.09259857 -0.22455129 0.28926814 0.031829335 0.15682895
-0.22692832 -0.14174621 0.070430286 0.003301954 0.021267014 0.037715957 -0.007755921 -0.13474661
-0.24149808 -0.054562606 0.28716588 0.30252525 0.012960646 0.3731754 -0.27908215 -0.10541471
0.02890684 -0.092429675 0.047346603 -0.08787832 0.24012786 0.085642844 0.13650592 0.13121392
0.20208739 -0.16124947 0.039493073 -0.098737694 0.116387434 0.06692773 -0.08210772 -0.04565943
-0.12141432 0.11072605 -0.11711111 0.28778785 -0.21593754 -0.24751258 -0.13150577 -0.10166714
-0.008902101 -0.46810213 0.0862917 -0.10037819 -0.04137319 -0.0042414614 -0.023507845 -0.056847654
0.17535628 -0.17620778 -0.10534627 0.10454036 0.052158613 0.048213184 -0.041488685 0.14890745
0.0042019445 0.06477576 -0.05932049 0.22652274 0.1289835 -0.017627098 0.039178994 -0.14440928
-0.13649887 0.032024674 0.15293993 -0.25592068 0.18871091 0.20356888 0.09202779 0.31647888
0.03874471 -0.0072873887 0.054437544 0.21280277 -0.011041875 0.099686146 -0.22814822 0.039304662
-0.0017346106 0.019942226 -0.039717797 -0.11969557 -0.132678 -0.0861126 0.13150755 0.24129112
0.19800855 -0.14376685 -0.117575064 0.03249425 0.023889545 -0.12500891 0.058183823 0.048383594

Mixer_Block.0.mlp_block_token_mixing_DynaMixerOperation.fc_out.bias f4 [66]
00000000: f26e 173f 9315 a0be 0eb6 76bd cd71 24be
00000010: 7703 053e 984b 493e 32a3 583e 567c 4a3e
00000020: 38a7 31bd e984 05be 77aa c53e 259a e7bd
00000030: 9d68 883d 9b78 1f3e c6a3 053e a9c6 81be
00000040: ce4a b8bd 9ddc bebe 2440 8fbe 0a8f 7cbe
00000050: b187 303e de67 0a3d 184a 01bd 7165 d4bc
00000060: c267 283e a410 1e3f 1da1 bd3d 421a fc3d
00000070: 12ee b5bc 2094 e63c 0290 a83e 2736 02be
00000080: 8903 d1bd b5f8 f53e b129 033f 3484 31be
00000090: 0ba5 fbbd 5210 913e 1caa cb3e d3df cb3e
000000a0: 7980 aebd 6c96 843e 429b 673e e671 7a3e
000000b0: d8ca a23d acd6 693e 9afd 883e 8e0b b13e
000000c0: e533 433d fa22 a63e fca7 ba3d 8ba8 e4bd
000000d0: 8f8e 4ebe 7043 86bd beec 8f3e 34e8 82be
000000e0: 036c a4bd d76c 42bd a795 653e 5484 aa3e
000000f0: 3840 01be 830c a5be 680f 51be 7ae3 5abe
00000100: 2c96 203e 7d9c 503e
0.59153664 -0.3126646 -0.060232215 -0.16059037 0.12989603 0.19657743 0.21156004 0.19773993
-0.043372363 -0.13038982 0.38606617 -0.113086976 0.066605784 0.15573351 0.13050756 -0.25346878
-0.08998643 -0.3727769 -0.27978623 -0.2466394 0.17239262 0.03379046 -0.031564802 -0.025927277
0.1644583 0.6174414 0.092592455 0.12309696 -0.022208247 0.028146803 0.3292237 -0.1271597
-0.102057524 0.4804131 0.5123549 -0.17335588 -0.12287339 0.28332764 0.3977822 0.39819202
-0.08520598 0.25896013 0.2261782 0.24457511 0.079488456 0.22835797 0.26755983 0.34579128
0.047656912 0.3244856 0.09114072 -0.111649595 -0.2017157 -0.065558314 0.28110307 -0.25567782
-0.08028414 -0.04746708 0.22420369 0.33304083 -0.12622154 -0.32236108 -0.20416033 -0.21375838
0.15682286 0.20372196

Mixer_Block.0.mlp_block_token_mixing_DynaMixerOperation.LN.weight f4 [10]
00000000: 915d e13f 7de1 8d3f 0ef1 973f f337 6f3f
00000010: 3846 653f 6eea 803f 14d4 8a3f 0727 b73f
00000020: 4ce4 6d3f f7f5 a13f
1.7606679 1.1084439 1.1870439 0.93444747 0.8956027 1.0071542 1.0845971 1.4308785
0.9292648 1.2653188

Mixer_Block.0.mlp_block_token_mixing_DynaMixerOperation.LN.bias f4 [10]
00000000: a4ed c33e 1986 013f 30d5 84be 3a40 923e
00000010: 56fa 5cbe 8eb2 0c3e 1ce6 a7bd dc88 36bd
00000020: 564e cc3d d492 563e
0.38267243 0.5059524 -0.259439 0.28564626 -0.2157987 0.13739988 -0.08198187 -0.044564113
0.09975879 0.20954448

Mixer_Block.0.mlp_block_channel_mixing_DynaMixerOperation.fc_ND.weight f4 [1, 10]
00000000: da92 83bf de8e 23bd 287f 0c3d a9ce e8bc
00000010: b35f ddbc 0f87 bdbc b7cc 92bc b404 2cbc
00000020: ad45 36bc 0e2f 4abb
-1.027919 -0.03993117 0.034300953 -0.028418856 -0.027023172 -0.02313569 -0.017919881 -0.010499168
-0.01112501 -0.00308508

Mixer_Block.0.mlp_block_channel_mixing_DynaMixerOperation.fc_Nd.weight f4 [484, 22]
00000000: 4ff6 54be f5f9 3e3b fb33 d73c 5d81 593d
00000010: d00c 3b3e 467d b1be f47b 1b3e 1359 0abe
00000020: 8e35 b43d 0fbb eebd ba32 44be 2bb7 cdba
00000030: 99ac 06be 6dba d9bc 102b f4bd 0e44 133e
00000040: df14 173e 2c71 44be 2453 333d 867c 533e
00000050: fd9d a3bd 1d99 c33d 37cc a93d f9ad 56be
00000060: 3d80 38bd 77fa 893e d1f5 603d 5bf5 2d3d
00000070: de78 85be 65b8 a4bc aac6 4b3e c72f cabd
00000080: a995 8e3e 695b 89be 46ca 02be c533 7bbe
00000090: 65fc 1dbd 0187 c0be 0f85 d03c 40aa 8c3d
000000a0: ab78 e73d 5e85 b7bd a7fa b4bd ee61 f73d
000000b0: ec10 023e 4591 be3d 841f debe d262 8e3e
000000c0: 5f3b 533d 80f3 8abe 1946 00bc f106 e4bc
000000d0: 488f 94bc 840a 88be 86df d5bd 4b42 0fbd
000000e0: 5655 1bbe 4a1f b63e f729 84bd 7157 723d
000000f0: 2b2c 8b3e af64 6a3d fd0a 01be ac34 9f3e
00000100: e43e a6be 35b1 0ebe 6014 e6bd ec2c d93e
00000110: db5f 27be 41e4 99bd 592f 3e3c fc81 73be
00000120: 8d05 b63e 6164 90bd 594d a8bb 35ef 3bbe
00000130: dee1 fc3d 364a bc3d cee3 993d e473 b83d
00000140: 38a2 a53b 7ad0 0c3e 5650 573e bee8 523e
00000150: 7069 203e 243e 14be 0781 0a3e 7b58 7cbd
00000160: 2883 63bc f876 233e 8c75 88be 47e8 cdbe
00000170: e74c c63e 7430 713d 0099 b0bd ad7a 0dbe
00000180: ede2 123e a63a b0be b5eb 35be 52c8 75bd
00000190: 0c73 fa3c a491 96be 307c 8f3e 60cc e13d
000001a0: 8ef6 85be 5b5d d6bd b070 91be 61e5 0ebe
000001b0: 9024 343e 5580 a33c a403 ccbd 0713 ca3d
000001c0: c53f 20be 313d 0c3c 3ebd 10be 4a47 303e
000001d0: fbb5 68be 4054 92be 6cd9 393e 27cd fabd
000001e0: b719 39be d198 dfbe 70b3 9f3d 5de4 1bbd
000001f0: 4a1b 17be 93bd 8e3e 740b df3e e53a e4bd
00000200: 5cbe e93b d6a5 9ebe dcda ffbd 31a1 b3bc
00000210: e7bd d13e 5078 eb3d 23ce a53d 96ea 3ebe
00000220: cf58 c03d 5543 de3d e0f4 37bc db69 043e
00000230: fbe0 783c 0d6c 823e 555f 94be 2446 ecbe
00000240: ac7d 743e 73c8 4ebe a9e5 4abe 0080 8bbd
00000250: 0d9d 223c b1b4 a63e 36e8 14be 6397 b6bd
00000260: 53dd de3e 5d76 043f 6d51 0a3e 1014 163d
00000270: 4ae4 f23d 637a 2dbe 7801 833d c80b 253e
00000280: 4fb7 f9be fa51 d03c 7610 c9bc d0bc bfbd
00000290: d093 c3be 46b1 a2be c60c 9a3e 8aae b4be
000002a0: cfa7 6ebc a50b c8be fc45 52bd 45bf 84be
000002b0: a352 abbb 2665 253e 3400 9e3e 0eb9 993d
000002c0: cfdf 0e3f acd1 8d3e 443c 76be 59a9 a73e
000002d0: b6e4 8f3d d8e6 8e3e 9f47 9cbe da2b ab3e
000002e0: 89df 82be 3a5d 1c3d 6572 8a3d f40b 993e
000002f0: 3d71 523e db24 bb3e ebd9 363d f805 39be
00000300: f561 3b3e 7a2a e23e 121d 22bd 5fa2 1bbd
00000310: d823 423e b0a8 633e 0d2e 2fbd 39d7 f0bd
00000320: 5ad1 a93d b6a9 fa3c 056a 2bbc 7b11 c9be
00000330: dc4d 983d 64ee 3b3e d8cd 16be 2567 eabc
00000340: 9161 9cbe e9ec e3bd 6123 79be de00 9cbe
00000350: 52df a53e 1a8e e7bd 0831 1fbc c02f ea3d
00000360: 3c91 a03d 039a 0f3c ff16 babb ef00 1bbe
00000370: 17d0 02be a8b2 afbe 57bb 3b3e 4d95 94be
00000380: 7117 d33b 5317 043e 739e 153e 93e9 c23e
00000390: 0d80 6b3e 21d4 f83e d4a4 b4bc 1f54 b93e
000003a0: 6747 8e3c 7a89 80bd de6d 213c 6813 723e
000003b0: 8b96 91bd 157e ff3c 935e 02be 3e7a 373c
000003c0: c854 9cbe 16a9 0bbf 4085 9c3e 2c40 29bc
000003d0: a8fe 903d e742 443e 9aad 6ebe 0721 c73e
000003e0: 3ab8 853e 6584 e13a 9676 1cbe 864b 7c3e
000003f0: 6743 04be d166 43bc ca17 213e c5ff 983d
-0.20797084 0.0029140685 0.026269903 0.053101886 0.18266606 -0.3466589 0.15184003 -0.13510542
0.08799277 -0.11656772 -0.19159976 -0.0015694847 -0.13151778 -0.026578153 -0.11922276 0.1438143
0.14754055 -0.19183797 0.04378046 0.2065297 -0.07989118 0.095506884 0.08290904 -0.20964803
-0.045044173 0.26948902 0.05492193 0.042470317 -0.26068777 -0.020107457 0.19900003 -0.09872394
0.27848557 -0.26827553 -0.12772474 -0.24531467 -0.03857078 -0.37603 0.025454072 0.0686841
0.113023125 -0.08960985 -0.08836871 0.120792255 0.12701768 0.09305052 -0.4338342 0.2780977
0.051570293 -0.271389 -0.007829213 -0.027835341 -0.018134728 -0.26570523 -0.10443024 -0.03497533
-0.15169272 0.35570747 -0.06453317 0.059165422 0.27182135 0.057224926 -0.12601848 0.31094873
-0.32469857 -0.13934787 -0.11234355 0.42417085 -0.1634516 -0.07514239 0.011607968 -0.23780054
0.3555111 -0.07050396 -0.0051361737 -0.18352969 0.12347768 0.09193842 0.075141534 0.090064794
0.0050547384 0.13751402 0.2102674 0.20596597 0.15665221 -0.1447683 0.13525783 -0.06160782
-0.013886251 0.15963352 -0.2665218 -0.40216276 0.38730547 0.0588841 -0.086229324 -0.13816328
0.14344378 -0.34419745 -0.17765696 -0.060005493 0.030572437 -0.2940799 0.28024435 0.110253096
-0.2616467 -0.10467025 -0.28406286 -0.13954689 0.17592072 0.019958654 -0.09961632 0.098669104
-0.15649326 0.008559511 -0.1413469 0.17214695 -0.2272567 -0.28579903 0.18149346 -0.12246161
-0.18076216 -0.43671277 0.07797897 -0.03805958 -0.14756504 0.2787901 0.43563426 -0.11144046
0.0071332883 -0.30985898 -0.12492916 -0.021927448 0.40965196 0.11497557 0.08095958 -0.18644175
0.09391939 0.10852686 -0.011227816 0.12931006 0.015190358 0.2547306 -0.28978983 -0.46147263
0.23876065 -0.20193653 -0.19814171 -0.068115234 0.009925139 0.32559732 -0.14541706 -0.089155935
0.43528232 0.5174311 0.13507624 0.036640227 0.11859949 -0.16941218 0.063967645 0.16117775
-0.48772666 0.025429714 -0.024543982 -0.09362185 -0.3819871 -0.31775874 0.3008787 -0.35289413
-0.014566376 -0.39071384 -0.051336274 -0.25927177 -0.005228357 0.16151866 0.3085953 0.075059995
0.55810255 0.2769903 -0.24046427 0.3274639 0.07026045 0.27910495 -0.30523393 0.33431894
-0.2556117 0.038174845 0.067601 0.29891932 0.2055101 0.36551556 0.044641417 -0.18068683
0.18299086 0.44173032 -0.039578505 -0.037996646 0.18958986 0.22232318 -0.042768527 -0.117598005
0.08291884 0.030598503 -0.010462289 -0.3927115 0.074367255 0.18352658 -0.1472696 -0.028613636
-0.30543187 -0.111291714 -0.24329902 -0.30469412 0.32396942 -0.113064006 -0.00971628 0.11434889
0.07840201 0.008764747 -0.005679011 -0.15137075 -0.12774692 -0.3431599 0.18333183 -0.29020157
0.0064420034 0.12899522 0.14611225 0.38068828 0.22998066 0.48599342 -0.022051252 0.36196992
0.017368032 -0.062762216 0.009852855 0.23640215 -0.07108792 0.03118805 -0.1273139 0.011198578
-0.30533433 -0.5455488 0.30570412 -0.010330241 0.07079822 0.19166146 -0.23308411 0.38892385
0.26117116 0.0017205594 -0.15279612 0.24638185 -0.12916337 -0.011926369 0.15731731 0.07470659

Mixer_Block.0.mlp_block_channel_mixing_DynaMixerOperation.fc_Nd.bias f4 [484]
00000000: 8fcb 96bd 5e95 2a3d b9ac d13d 155e 46be
00000010: a459 a5bc 1910 553e f577 2f3e e7c9 98be
00000020: 555e 803e 7a97 df3d 3ad5 1c3e f4b2 893e
00000030: 5a65 4b3e e525 b83e 3428 8a3e 8955 e53d
00000040: 0509 02bc 77b8 0f3e 9703 1abe 5667 82bd
00000050: 3d3a 393e 1210 1fbe 8eeb 82be c88f 823b
00000060: 8d00 24be 0cdd 313e d420 0ebe 8aa0 a8bd
00000070: 6f80 903c 440a 7bbe fcd1 1f3f 5ac6 aa3d
00000080: 56f7 37bd 935a 823e 09fa 123e e957 4abe
00000090: 66fe 25be 01c4 61be 6c29 dbbd 442e 7bbd
000000a0: 0421 19be 1a17 053f 0934 bdbd 97e8 b5bd
000000b0: 1554 83bd d091 3ebe f876 09be 1ebe 4fbc
000000c0: 220f 583d 2b00 453e 3e7c afbd 8520 fdbd
000000d0: 5486 733e 7227 933e faf4 a9be 7675 b93e
000000e0: 6eb9 2abd 1e53 533e 0688 853d 8048 c2bc
000000f0: d625 94be 1358 603c c60e 9fbd 97a5 123e
00000100: 2732 123d c92b 0b3d c5e2 943d d4f2 4cbd
00000110: 8de5 223b 8942 873e 3414 afbd 52e8 3a3e
00000120: 3693 4cbd 93e8 cfbd 424e 89be 4b5d af3d
00000130: e938 823e d246 6cbe 575c 9f3e d632 ae3b
00000140: 14ee 63be 63fc 553e c80c 95be bc30 803e
00000150: ecee c23c 18ee 22bd c61e 80be 6c14 25be
00000160: 3433 74b9 61a5 58be d742 e3bd b981 723c
00000170: 727a d73d 5a51 27be 356c dc3d 9a00 1dbe
00000180: b75c 21be 4c8b 64be f487 e33c abb7 0f3f
00000190: 043f 35be b2e4 913d 82eb 5f3e 1c71 5b3d
000001a0: 9c63 35be 3f04 81be e463 14be a99c ed3d
000001b0: 8348 6fbd eeaf 6fbe 1b5e a03d 3658 4c3d
000001c0: 42f7 0e3e 57cf 4f3e 6f30 98bd c0a2 863d
000001d0: b1ec 2d3e 8fba c33d ee57 e7bd 39a1 2d3e
000001e0: f4b1 dfbd b264 80be 792d ebbc 1780 913e
000001f0: 1635 7f3e df37 963e 41bb dfbd 9018 63bc
00000200: af94 833e a099 83ba 29e7 e53d 40a0 b63d
00000210: cf82 b73e ee18 a33c df01 d9bd 936c 19be
00000220: 9cb7 533e 155b 90bb b651 8cbb 3490 a73d
00000230: ef11 5dbd 5301 b6be 7f45 083c 2ddb a5be
00000240: 49a7 bf3e 85cb 7ebe 9064 a1bd 31a7 23bc
00000250: 8ac4 863e 88c6 893d e002 b4bd e239 a53e
00000260: a9fd 80bd 66e2 503c ca0d 97bd 9216 403e
00000270: 3f3f a3be 348e 873c df50 593e cc84 95be
00000280: e397 2fbe 11f0 723e 02d0 a43c 6b2a d13d
00000290: dbf8 053e b153 64bc 2ac2 74bd cae2 b53d
000002a0: 6219 c8bd 38d9 803e 471c 9f3e 6d05 963e
000002b0: a1a3 72be ff1d 0a3e 25ad 40be 28d6 1f3e
000002c0: 0988 6ebe 5764 eb3d 943f a23d 79e8 753d
000002d0: 4cc4 4a3e bacd a3be 91a9 a83d 29ec b13e
000002e0: 4910 623e 5218 bebe 0f11 12bc feac babc
000002f0: 8474 1cbb c955 f53d 2ae9 823e 7792 0d3e
00000300: 4063 e2bc 72ce 00be 9e46 d13e 5db0 7ebe
00000310: f76e 173e b8e2 48be a175 e13c fac8 5e3e
00000320: a4e9 74bd d2c7 d83d 0229 fc3c ae8c 62be
00000330: 4fc7 273d daf9 19be 3fde 1f3b f60f 37bd
00000340: 4c83 3abe 036c 123e 739b 3c3e dec2 d4bd
00000350: 27ff 0ebd 0f1d 7fbe 5074 3c3e 52b2 603e
00000360: 046b 703e 8cb9 ae3d 850f 5c3e 5afa c63e
00000370: 9d86 f73d 6414 583d d37d 213e 4e16 00be
00000380: fbd6 9bbe ebe4 88be e25d 8e3e 028e df3c
00000390: 4769 713e 3e87 4a3e ca62 b3bd 4ab4 8c3e
000003a0: 7002 7d3c a8d5 6fbe b610 8ebc c38f 543e
000003b0: 7283 7a3e f5c7 fbbc 0073 2dbe a5a6 0d3c
000003c0: ea1b b33d 5b12 3dbe 4a56 64bc 035d dcbd
000003d0: ea5b bebd 343e fd3d 19e4 6abd 6fb0 9ebd
000003e0: 9b21 ae3c bd74 9d3d 361f 75be e83b bc3d
000003f0: b857 923e e3e9 d63d 147a 7d3d 53ef 0cbe
-0.073630445 0.041646354 0.10238022 -0.19371827 -0.020184346 0.20806922 0.17135604 -0.2984154
0.2507197 0.10917564 0.15315714 0.26894343 0.19862881 0.3596641 0.26983798 0.11197955
-0.007936721 0.14035212 -0.15040432 -0.06367366 0.18088622 -0.15533474 -0.2557034 0.003984425
-0.16015835 0.17369479 -0.1387971 -0.082337454 0.017639367 -0.24515635 0.62429786 0.08338614
-0.044913612 0.25459728 0.14353193 -0.19760098 -0.16210327 -0.22047426 -0.1070126 -0.06132342
-0.14954 0.51988375 -0.092384405 -0.088822536 -0.06412522 -0.1861031 -0.13424289 -0.012679605
0.052748807 0.19238345 -0.08568619 -0.12359718 0.23781711 0.28741032 -0.33194715 0.36222428
-0.041680746 0.20637175 0.06520085 -0.023716211 -0.28935117 0.0136928735 -0.0776649 0.1432098
0.03569236 0.033977304 0.07269815 -0.050036266 0.0024856061 0.2641795 -0.08548775 0.18252686
-0.04994508 -0.10151782 -0.26817518 0.08562716 0.25434044 -0.23073891 0.31125137 0.0053161187
-0.22258788 0.20897059 -0.29111314 0.2503718 0.023795567 -0.039777845 -0.25023478 -0.16121072
-0.00023288728 -0.21156837 -0.11096733 0.014801436 0.105214015 -0.16339627 0.10762826 -0.1533226
-0.15758024 -0.22318763 0.027774788 0.5613963 -0.1769982 0.07123698 0.21867183 0.053574666
-0.17713779 -0.25198552 -0.1449123 0.11602146 -0.058418762 -0.23406956 0.07830449 0.049888812
0.13961509 0.20293938 -0.07431113 0.06574011 0.16984822 0.095570676 -0.11296068 0.16956033
-0.10922614 -0.25076824 -0.028708206 0.28418037 0.24922594 0.293395 -0.10924388 -0.013860837
0.25699374 -0.0010040291 0.11225731 0.08917284 0.35841987 0.019909348 -0.1059606 -0.14982824
0.2067551 -0.004405389 -0.0042822016 0.081818014 -0.05397218 -0.35547885 0.00831735 -0.3239378
0.37432316 -0.24882324 -0.07880509 -0.009988592 0.26321822 0.0672732 -0.08789611 0.32270724
-0.06298382 0.01274929 -0.07375677 0.1875861 -0.3188419 0.0165473 0.21222256 -0.29202878
-0.17147784 0.2372439 0.020118717 0.10213169 0.13083212 -0.013935969 -0.05975548 0.08881147
-0.097704664 0.25165725 0.3107626 0.29301015 -0.23695232 0.13488005 -0.1881605 0.15609038
-0.23294081 0.11493748 0.07922283 0.060036156 0.19801444 -0.31992894 0.08235467 0.34750488
0.22076525 -0.3712793 -0.0089152 -0.022787567 -0.002387316 0.11979253 0.25568515 0.13825403
-0.027635217 -0.12578753 0.4087419 -0.24871965 0.14788423 -0.19617736 0.02752191 0.21756354
-0.05979313 0.10584988 0.030781273 -0.22123978 0.04096156 -0.15036717 0.0024393944 -0.044692956
-0.18214148 0.14299016 0.18418674 -0.103887305 -0.0349113 -0.24913429 0.18403745 0.21943024
0.23478323 0.08531484 0.21490295 0.38862878 0.12086222 0.05275382 0.15770654 -0.12508509
-0.30437455 -0.2673715 0.27806002 0.027289394 0.23575316 0.19778153 -0.08759077 0.274813
0.015442476 -0.23421347 -0.017341953 0.20757966 0.24464205 -0.030734995 -0.169384 0.008645688
0.087455586 -0.18464033 -0.013936589 -0.10759928 -0.09294875 0.1236538 -0.057346437 -0.07748496
0.021256259 0.07688282 -0.23937687 0.09191114 0.2858255 0.10493829 0.061884 -0.1376317

Mixer_Block.0.mlp_block_channel_mixing_DynaMixerOperation.fc_out.weight f4 [10, 10]
00000000: 42cb 003f 4763 74be 2621 553c 3bff 523e
00000010: 8f81 363e 5d6b 683e bf91 493e edf6 423e
00000020: 6b14 f93d 14eb a33d 3e63 1bbe 2518 493e
00000030: e0c3 c6bc 0f20 bd3c 58d9 3f3d 03d6 993d
00000040: 624b 773d 86f1 5d3d ee81 e53c 1220 f93c
00000050: 957a fd3e 9cab 743e 4750 97bd f7d5 ebbd
00000060: 57e6 c5bd 258c 46bd c831 9dbd 5fcd 15bd
00000070: 1c52 5fbd 88b1 f8b7 8b08 aabc 6604 1f3e
00000080: 7163 813d 9406 873d f601 acbc 3987 863c
00000090: e82f dfba f165 003d 67f9 773b 4dc8 013c
000000a0: e270 c4be b88f 9abd d9b7 d63d 218d 663d
000000b0: 6817 f53c 3998 29bc e558 c93b 6d7e e2ba
000000c0: 3512 ebb8 7a25 b4bc 5a22 fe3e f4ec 273e
000000d0: 639a b5bc 1551 793d 98ea 8b3d 1957 133d
000000e0: 3569 3c3c ac19 57b8 c96c efbb 7995 96bc
000000f0: f61f 23be 07df 543e af3a fd3c d946 1bbd
00000100: 1233 713c 9fae f2bb 908a 13bc 4582 a9bc
00000110: 3ad3 82bb 001e 16bc d11d 77bf 621e eebc
00000120: fe58 863c 2bd9 f9bd 4f51 c9bd df36 83bd
00000130: c50b 83bd 8885 9abc 85ed a4bc df15 7d3c
00000140: 4c10 9cbe 9439 b0bd 2533 8f3c b1fc 50bd
00000150: fa53 7abd 8583 dbbc 7cc3 8dbc 62bb 0ebc
00000160: c662 8bbb 2d61 243c 5bb3 bb3f db25 1abf
00000170: 099d 85bc e4f8 92be 9451 0fbe 4449 71be
00000180: d02a 03be e3f1 2ebe b63d a8bd b3cc 94bd
0.50310147 -0.23865996 0.0130083915 0.20605175 0.1782286 0.22697206 0.19684504 0.19039507
0.121620975 0.08003822 -0.15174577 0.19638117 -0.024263322 0.023086576 0.046838135 0.075115226
0.060374625 0.054185413 0.028016057 0.0304108 0.49507585 0.23893589 -0.073883586 -0.1151542
-0.096630745 -0.048473496 -0.07675511 -0.03657281 -0.054521665 -2.9646573e-05 -0.020756027 0.15529022
0.06317795 0.065930516 -0.020997029 0.016421901 -0.0017027827 0.03134722 0.0037837864 0.007921291
-0.38367373 -0.075469434 0.10484285 0.056286935 0.029918388 -0.010351234 0.0061446303 -0.001728011
-0.000112090645 -0.021990526 0.49635583 0.16398984 -0.022168344 0.06086834 0.068318546 0.035971735
0.011499693 -5.1283903e-05 -0.0073066694 -0.018381821 -0.15930161 0.20788203 0.030911772 -0.037909362
0.014721649 -0.0074060704 -0.009005204 -0.020692 -0.0039924653 -0.009162426 -0.9652987 -0.029067222
0.016399857 -0.12199625 -0.098299615 -0.0640695 -0.06398729 -0.0188625 -0.02013279 0.015447109
-0.30481184 -0.08604732 0.017480442 -0.051022235 -0.061115243 -0.026796112 -0.017305128 -0.008711668
-0.004253718 0.010032934 1.466411 -0.6021401 -0.016310232 -0.28705513 -0.13995963 -0.23563105
-0.128093 -0.1708446 -0.082148954 -0.07265606

Mixer_Block.0.mlp_block_channel_mixing_DynaMixerOperation.fc_out.bias f4 [10]
00000000: cda9 b23e 0c4c 1ebe ba00 90bd 94ca 323d
00000010: 2107 1dbe b39e 823d b38f f03d 1c30 813e
00000020: acb8 15bf 4431 e5bd
0.34895173 -0.15458697 -0.070313886 0.043650225 -0.1533475 0.06377926 0.117461585 0.25232017
-0.5848491 -0.11191037

Mixer_Block.0.mlp_block_channel_mixing_DynaMixerOperation.LN.weight f4 [22]
00000000: f4a9 8d3f b5cc 6b3f e302 8e3f 8ba1 6b3f
00000010: 3919 883f 23c3 873f dbdf 313f 13f1 5b3f
00000020: d511 493f c1f8 723f a9a2 333f d68b 7b3f
00000030: c8ec 4d3f 193f 823f 9d7f 883f 6a80 853f
00000040: 3a6a 6b3f 5772 953f f6f2 803f 3a6e 503f
00000050: 5448 603f c6c6 653f
1.106749 0.92109233 1.1094631 0.9204337 1.0632697 1.0606426 0.694822 0.85914725
0.78542835 0.9491082 0.70170075 0.9826025 0.80439425 1.0175506 1.0663944 1.0429814
0.91958964 1.1675519 1.0074146 0.8141819 0.87610364 0.8975643

Mixer_Block.0.mlp_block_channel_mixing_DynaMixerOperation.LN.bias f4 [22]
00000000: a8b8 d4bc 0756 9dbd 0e47 0ebe 3531 d0bd
00000010: 5af2 2ebd be30 ed3d b8ff 163e eb50 febd
00000020: e997 3bbc 3bc5 903d 5bc8 24bd 8c37 2e3e
00000030: 3aad 823d 23d1 ef3d c92a 9a3d 5698 f3bc
00000040: 7ef7 b13d 92e2 913e b675 f5bb 614a 3d3c
00000050: 1825 15bc 2e03 563d
-0.025966957 -0.07682424 -0.13894293 -0.101656355 -0.042711593 0.115815625 0.14745986 -0.12417778
-0.011449792 0.07068869 -0.040230136 0.17013377 0.063806966 0.117098115 0.07527692 -0.029735725
0.086897835 0.28493172 -0.007490839 0.011553378 -0.009103082 0.052249126
