M_2_AST/MotionMixer-main/h36m/run_for_longging/exp273/model.pt (torch, 871322 bytes, 184 tensors)

Mixer_Block.0.mlp_block_token_mixing.fc1.weight f4 [20, 10]
0	0x3e15c69d	0.14626546
1	0xbe4b0fc8	-0.19830239
2	0x3d431f5e	0.047637336
3	0xbd27165a	-0.0407928
4	0x3eb61b6b	0.35567793
5	0xbea069ec	-0.31330812
6	0x3edffbcd	0.43746796
7	0xbf34ae91	-0.7057887
8	0x3f362760	0.7115383
9	0xbe8c5bc8	-0.27413774
10	0x3dc166bf	0.094434254
11	0xbe79a8ff	-0.24380873
12	0x3d57328e	0.052538447
13	0xbeed1290	-0.46303225
14	0x3d989f5d	0.07452271
15	0xbf2b5f6d	-0.66942483
16	0x3eff1210	0.49818468
17	0xbef6c5b9	-0.48197725
18	0x3f11c449	0.5694013
19	0x3dca0c8e	0.09865676
20	0xbe20ecc6	-0.15715322
21	0xbe2de92e	-0.16983482
22	0x3e70864d	0.23488732
23	0x3f6709fa	0.902496
24	0x3f067601	0.5252381
25	0x3f19ef98	0.60131216
26	0xbea25461	-0.31705
27	0xbf37255a	-0.7154137
28	0xbeb8b237	-0.36073467
29	0xbe2e3854	-0.17013675
30	0xbe82315e	-0.2542829
31	0x3eb033c0	0.34414482
32	0xbeb50dd2	-0.35362107
33	0x3e865783	0.2623864
34	0xbeb09b2e	-0.34493393
35	0xbe020235	-0.12696154
36	0xbedf17d3	-0.43572864
37	0x3f3b9f3b	0.7328984
38	0xbefee609	-0.49784878
39	0x3ea83577	0.3285329
40	0xbe92d705	-0.28679672
41	0x3e58c010	0.21167016
42	0xbebcc8fc	-0.3687209
43	0x3eda999a	0.42695314
44	0xbf10fac6	-0.5663265
45	0x3f09ae88	0.5378194
46	0xbf16b616	-0.5887159
47	0x3eb0a8f9	0.34503916
48	0xbf048582	-0.51766217
49	0x3f287f43	0.65819186
50	0x3e3e5afe	0.18589398
51	0x3f24af1b	0.6432969
52	0xbefcfdd9	-0.4941242
53	0xbe6a40c2	-0.22876266
54	0xbf0a9ea3	-0.5414831
55	0x3edfd283	0.43715295
56	0xbef52bc7	-0.47884962
57	0x3eca6746	0.39531916
58	0xbf1cce95	-0.6125272
59	0x3e394f3b	0.1809663
60	0xbe34c2a1	-0.1765237
61	0x3d997ea6	0.074948594
62	0x3e586af5	0.21134551
63	0x3e7003c1	0.23438932
64	0xbf3d8195	-0.7402585
65	0x3f0a0af1	0.53922945
66	0xbf134265	-0.57523185
67	0x3f33dfa8	0.7026315
68	0xbf5f490d	-0.8722084
69	0x3d973bea	0.073844746
70	0x3eb432e7	0.35195085
71	0xbe8b8eea	-0.27257472
72	0x3ef31f78	0.47484946
73	0xbe49effe	-0.19720456
74	0xbda4e896	-0.08052175
75	0xbf499d51	-0.7875567
76	0xbdc572ce	-0.09641038
77	0x3e00e7e7	0.12588464
78	0x3f3ddd15	0.7416547
79	0xbf0e72e1	-0.5564404
80	0x3ead1b2f	0.33809802
81	0xbee74a93	-0.45174083
82	0x3f30e3af	0.6909742
83	0xbf21b4a5	-0.63166267
84	0xbcd7f789	-0.026363151
85	0x3e04b9e7	0.12961541
86	0xbeffe409	-0.49978665
87	0x3ea57916	0.32318944
88	0xbf031334	-0.51201177
89	0x3f118a3a	0.5685154
90	0xbde69958	-0.11259717
91	0xbf5000cd	-0.8125122
92	0x3e9cd016	0.30627507
93	0x3ebc0c34	0.3672806
94	0x3e9b7a00	0.30366516
95	0xbf03302b	-0.51245373
96	0x3ec91cb5	0.39279714
97	0x3cd5a889	0.02608134
98	0xbef44714	-0.47710478
99	0x3e611843	0.21981911
100	0x3ec60a2c	0.38679636
101	0x3d329627	0.043600228
102	0xbc85c8d9	-0.016331123
103	0xbf8f3d3e	-1.1190565
104	0xbe922a29	-0.2854779
105	0x3f3c3ad5	0.7352727
106	0x3ec021a4	0.37525666
107	0xbf1ef0a1	-0.6208592
108	0x3e461eda	0.19347706
109	0xbe6fd29b	-0.23420183
110	0x3e91796d	0.28412953
111	0xbdbd80b1	-0.092530616
112	0x3ea28315	0.31740633
113	0xbe2e2700	-0.17007065
114	0x3f038b46	0.5138439
115	0xbe867088	-0.2625773
116	0x3ecedd4a	0.40403205
117	0xbf651535	-0.89485484
118	0x3f3bea35	0.73404247
119	0xbe127002	-0.1430054
120	0x3d4536c9	0.04814795
121	0xbef226ae	-0.47295135
122	0x3f106199	0.5639892
123	0x3de8f295	0.11374394
124	0x3eb20f21	0.34777167
125	0xbe5ae96b	-0.21378104
126	0x3f2a1a58	0.6644645
127	0xbf358a09	-0.7091375
128	0x3efc7539	0.49308184
129	0xbeaa4e6f	-0.33262965
130	0x3eac065e	0.33598608
131	0xbe51d327	-0.20490704
132	0xbe185ad3	-0.14878397
133	0xbe40f3ab	-0.18842952
134	0x3f15f516	0.58577096
135	0xbef446a4	-0.47710145
136	0x3efd4c15	0.49472108
137	0x3d624189	0.05523828
138	0x3d860c5e	0.065453276
139	0xbf0768d6	-0.5289434
140	0xbefd900b	-0.4952396
141	0x3ec569de	0.38557333
142	0xbf28f782	-0.66002667
143	0x3f0e7ed4	0.55662274
144	0xbebb0615	-0.36528078
145	0xbab03e60	-0.0013446324
146	0x3e1f266a	0.15541998
147	0x3bf18433	0.0073704957
148	0x3ed46a88	0.41487527
149	0xbe031aff	-0.12803267
150	0x3ece548e	0.40298885
151	0xbe560bb3	-0.209029
152	0x3ecfe041	0.4060078
153	0xbf01df5f	-0.5073146
154	0x3eb943ad	0.36184445
155	0xbef613bf	-0.4806194
156	0x3f01493b	0.50502366
157	0xbedce7bf	-0.43145558
158	0xbda7611a	-0.081728175
159	0x3cdf775f	0.0272786
160	0x3dcc80ec	0.099855274
161	0xbe8971bc	-0.26844585
162	0x3efd9e0c	0.49534643
163	0xbf380d1d	-0.7189501
164	0x3ed96208	0.42457604
165	0x3cb02a01	0.021504404
166	0xbd35b99a	-0.044366457
167	0x3f0d7a1a	0.5526444
168	0xbddd707f	-0.108124726
169	0xbeed06a8	-0.4629414
170	0xbe5b1d65	-0.21397932
171	0x3e32f106	0.17474756
172	0xbdba47cb	-0.09095725
173	0x3eb232f3	0.34804496
174	0xbead5d55	-0.3386027
175	0x3e2885a4	0.1645723
176	0xbf445b82	-0.7670213
177	0x3f37c7e6	0.71789396
178	0xbe2f2383	-0.1710339
179	0xbe1db7a3	-0.15402083
180	0x3ea852f3	0.32875785
181	0xbf36c1bd	-0.7138937
182	0xbc2c1fd8	-0.010505639
183	0xbec637c4	-0.3871442
184	0x3f4b15c9	0.79330117
185	0x3e62b95e	0.22141024
186	0xbec87be0	-0.3915701
187	0x3e0bb930	0.13644862
188	0x3d1a9acf	0.037745293
189	0xbe65f64e	-0.22457239
190	0xbf0cc427	-0.54986805
191	0x3eed9e57	0.46409866
192	0xbf220c74	-0.6330025
193	0x3ec181da	0.3779438
194	0x3d160317	0.03662404
195	0x3f0d2cb5	0.5514634
196	0xbe28bfdb	-0.16479437
197	0xbecc45d6	-0.3989703
198	0x3e1aeb2c	0.15128773
199	0xbe8c2d46	-0.2737829

Mixer_Block.0.mlp_block_token_mixing.fc1.bias f4 [20]
0	0x3e780b20	0.24222994
1	0x3ebb96be	0.36638445
2	0x3f10ea29	0.566073
3	0x3eaed0d1	0.3414369
4	0x3e785e84	0.24254805
5	0x3eb1f78b	0.34759173
6	0x3e0d5d15	0.13805039
7	0x3eb76e6c	0.35826433
8	0x3ef81590	0.4845395
9	0x3f00afdb	0.50268334
10	0x3f0eeaa5	0.5582679
11	0x3eab2c16	0.33432072
12	0x3e9ef291	0.31044438
13	0x3eaac984	0.3335687
14	0x3ed9f6a8	0.42570996
15	0x3e3d967c	0.18514436
16	0x3ebf2826	0.37335318
17	0x3ea73dd3	0.32664356
18	0x3eece4f0	0.46268415
19	0x3ed43afa	0.41451246

Mixer_Block.0.mlp_block_token_mixing.fc2.weight f4 [10, 20]
0	0x3e005442	0.12532142
1	0x3d78ea85	0.06077053
2	0x3f12eb48	0.5739026
3	0xbea8d0d4	-0.32971823
4	0xbebb42f3	-0.36574516
5	0xbf4f5e4c	-0.8100326
6	0x3eef106d	0.4669222
7	0x3e030e3a	0.12798396
8	0x3f1048c9	0.5636106
9	0x3f5acc17	0.85467666
10	0xbe3b34c9	-0.18281855
11	0x3e1038e2	0.14084199
12	0x3f0f5ec2	0.56003964
13	0xbe0a9372	-0.13532808
14	0xbef56e16	-0.4793555
15	0x3e6f35ce	0.23360369
16	0x3ea9f8b7	0.33197567
17	0xbdcd6ee0	-0.10030913
18	0x3ec787a2	0.38970667
19	0xbea348a8	-0.3189137
20	0xbd79243b	-0.060825568
21	0xbe6ebb57	-0.23313652
22	0x3f03feb0	0.515605
23	0x3e1b0e32	0.15142134
24	0x3e315d34	0.1732071
25	0xbea3a848	-0.31964326
26	0xbe7e3a70	-0.2482698
27	0xbf2fdd3b	-0.68696946
28	0xbf82cae4	-1.0218167
29	0x3e80fbe2	0.2519217
30	0xbee771f8	-0.4520414
31	0xbf0a6701	-0.5406342
32	0xbe04e63a	-0.1297845
33	0xbe2cba12	-0.16867855
34	0x3f622a29	0.8834558
35	0xbf829ddb	-1.0204424
36	0xbed3e171	-0.41382936
37	0x3dbd97f2	0.09257497
38	0xbe2df6e6	-0.16988716
39	0x3f42d56f	0.76106924
40	0x3e2c3413	0.1681674
41	0x3e7eb50f	0.24873756
42	0xbe45ec89	-0.19328512
43	0xbef3ea3e	-0.4763965
44	0xbf22ba5d	-0.6356562
45	0xbed4002e	-0.41406387
46	0xbf8c38e5	-1.0954863
47	0xbe42a33f	-0.19007586
48	0x3e584459	0.21119823
49	0x3e8bf456	0.2733485
50	0x3e6ad961	0.22934486
51	0xbd92e862	-0.0717323
52	0xbe1940bc	-0.149661
53	0x3f0cc935	0.5499452
54	0xbe4d24f5	-0.20033629
55	0x3e464649	0.19362749
56	0x3f01ef88	0.5075612
57	0xbf37ff28	-0.7187371
58	0x3f41448f	0.7549524
59	0xbe89c0b1	-0.26904824
60	0xbf87307d	-1.0561672
61	0xbedb6963	-0.4285384
62	0xbe1f38f6	-0.15549073
63	0xbcafad21	-0.021444859
64	0x3e250a80	0.16117287
65	0x3ec25ffe	0.3796386
66	0x3de98175	0.11401645
67	0xbefa5e82	-0.4890023
68	0x3f00151d	0.50032216
69	0xbf1c0a26	-0.60952985
70	0x3f306189	0.68898827
71	0xbf25247c	-0.64508796
72	0xbf67066a	-0.9024416
73	0xbf10feee	-0.5663899
74	0x3985ba88	0.00025506713
75	0xbf4a2ab4	-0.7897141
76	0x3e8fbdb8	0.2807443
77	0x3e060fdb	0.13091986
78	0x3dd25841	0.10270739
79	0x3e0cbb35	0.13743289
80	0x3f58a1f1	0.846221
81	0x3f8eff5e	1.1171682
82	0xbf1d2126	-0.61378706
83	0xbd79bbb2	-0.060970016
84	0x3c1feef3	0.00976156
85	0xbd7af1c3	-0.06126572
86	0xbdcc733c	-0.09982917
87	0x3eb5675d	0.35430422
88	0xbeb5c5aa	-0.35502368
89	0xbe596e32	-0.21233442
90	0x3e958371	0.29201844
91	0x3ed5c4f1	0.41751817
92	0x3edcd7af	0.43133304
93	0x3e11e0ad	0.14245863
94	0x3e02c7d4	0.12771541
95	0x3ec064d7	0.37576935
96	0xbe1f69d3	-0.15567712
97	0xbe90fa05	-0.2831575
98	0xbf4d1df6	-0.8012384
99	0xbf060a10	-0.52359104
100	0xbe52ed2f	-0.20598291
101	0xbd0d6d0e	-0.03452783
102	0xbec67e4b	-0.3876823
103	0x3f8de0cb	1.1084226
104	0x3f3d28b3	0.7389023
105	0xbd51e304	-0.05124189
106	0x3f23f964	0.64052415
107	0x3ecc3e3f	0.3989124
108	0x3e8b6006	0.27221698
109	0x3eb0b4d6	0.34512967
110	0xbf5c24cd	-0.85993654
111	0xbe450bf4	-0.19242841
112	0xbdabeab7	-0.08394378
113	0xbd441314	-0.047869757
114	0x3dfc7c41	0.12328387
115	0xbe25cfa4	-0.1619249
116	0xbe1efb56	-0.15525565
117	0x3f5ddfb9	0.866695
118	0x3d4a3967	0.04937115
119	0xbf3d0b60	-0.7384548
120	0x3f043c4d	0.5165451
121	0x3b007782	0.0019602482
122	0x3ecaca1e	0.39607328
123	0xbe8216eb	-0.2540811
124	0xbe17474e	-0.14773294
125	0xbed59f18	-0.4172294
126	0xbf002bb9	-0.50066715
127	0x3e5e4e08	0.21709454
128	0x3e18afa6	0.14910755
129	0xbe6bee22	-0.23040059
130	0xbea54400	-0.32278442
131	0x3f0999d1	0.5375033
132	0xbcaf8ef5	-0.021430472
133	0xbb570b14	-0.0032813
134	0xbdaefac1	-0.08543921
135	0xbe97bcce	-0.29636234
136	0x3e34db1d	0.1766171
137	0x3e85384f	0.26019523
138	0x3f163dda	0.5868813
139	0x3e3c81e8	0.1840893
140	0x3f26616f	0.6499242
141	0xba07e910	-0.00051845703
142	0x3f007a2e	0.5018643
143	0xbf10282b	-0.5631129
144	0x3f3ec5e1	0.7452069
145	0x3bf592e9	0.0074943197
146	0xbc31cc70	-0.010851964
147	0xbeed2365	-0.46316066
148	0xbe2deeaa	-0.16985574
149	0x3da70a8c	0.081563085
150	0x3e1673d9	0.1469263
151	0x3f84e2af	1.0381678
152	0x3f4f7bbd	0.81048185
153	0xbe55f5fa	-0.20894614
154	0xbe0b6ae8	-0.13615
155	0x3e8912a4	0.26772034
156	0xbf2ecce3	-0.6828138
157	0xbe985302	-0.2975083
158	0x3bdc9932	0.0067321295
159	0xbd41fe73	-0.047361802
160	0xbe4af7ac	-0.19821042
161	0xbebb6219	-0.3659828
162	0x3dd16b2e	0.10225521
163	0x3b552114	0.0032520937
164	0x3e320c64	0.17387539
165	0x3eb9363b	0.36174187
166	0x3edce878	0.4314611
167	0xbf2c64c9	-0.67341286
168	0x3e989084	0.29797757
169	0x3e9b8a83	0.30379114
170	0xbddb4439	-0.10706372
171	0xbe02abc9	-0.12760843
172	0x3e1f1991	0.15537097
173	0x3ec4b77f	0.38421246
174	0xbf172158	-0.59035254
175	0x3e7d8c3a	0.24760523
176	0x3e3f6061	0.1868911
177	0xbe34c729	-0.17654099
178	0x3d819bd6	0.063285515
179	0xbea16191	-0.3151975
180	0xbd00ca1a	-0.03144274
181	0xbf367f2b	-0.7128779
182	0x3eb18546	0.34671992
183	0xbf145984	-0.5794909
184	0xbf7460f4	-0.9546044
185	0xbeb5c4be	-0.35501665
186	0x3e7349ae	0.23758575
187	0x3ebae483	0.36502466
188	0xbee1a165	-0.44068447
189	0x3d3e920a	0.046525992
190	0x3ded3f90	0.11584389
191	0xbe82bad8	-0.25533175
192	0x3e6e4fd0	0.23272634
193	0x3ec828c1	0.39093593
194	0xbce2b40d	-0.027673746
195	0xbf0fba27	-0.5614342
196	0x3ef45a67	0.47725222
197	0x3e9c10c2	0.30481535
198	0x3f04b7c4	0.51842904
199	0xbdf1349e	-0.11777614

Mixer_Block.0.mlp_block_token_mixing.fc2.bias f4 [10]
0	0xbf72b8dd	-0.9481333
1	0x3d9295ed	0.07157502
2	0x3e438e21	0.19097187
3	0x3cc3e994	0.02391509
4	0x3d12d585	0.03584816
5	0x3d381e15	0.044950563
6	0xbc2e2266	-0.010628318
7	0x3da77ac9	0.08177716
8	0x3df40bb4	0.11916295
9	0xbd147cec	-0.036251947

Mixer_Block.0.mlp_block_token_mixing_DynaMixerOperation.fc_ND.weight f4 [1, 66]
0	0xbd285686	-0.04109814
1	0x3d4934b8	0.049122542
2	0x3dbb8b2e	0.09157406
3	0x3b9bef4a	0.00475875
4	0xbb526e7c	-0.003210931
5	0x3d988239	0.07446713
6	0x3d717005	0.05894472
7	0x3da5c874	0.08094874
8	0x3c3a5a84	0.01137412
9	0x3d0a7375	0.033801515
10	0x3c9b3beb	0.01894947
11	0xbd9e3f28	-0.0772689
12	0x3db094fc	0.086221665
13	0xbd034abb	-0.03205369
14	0xbd5a19f9	-0.053247426
15	0xbdecf47b	-0.115700684
16	0xbcb4b7e5	-0.022060344
17	0x3d2c25ed	0.042028356
18	0xbd480c6b	-0.048839968
19	0x3c835270	0.01603052
20	0xbd29bfa1	-0.041442517
21	0x39a4c33f	0.00031425987
22	0x3dfd93cb	0.12381705
23	0x3da6d035	0.08145181
24	0x3dcb18e2	0.099168554
25	0x3c8012db	0.015633991
26	0x3cd25475	0.025675038
27	0xbda56723	-0.080763124
28	0x3d0a466f	0.033758577
29	0xbd27dc6f	-0.040981706
30	0xbda5f952	-0.08104195
31	0x3cb3ad79	0.021933304
32	0x3b30e10c	0.0026989607
33	0xbc9e9b9f	-0.019361315
34	0xbd7823c9	-0.060581002
35	0x3d8f0932	0.06984176
36	0xbb1b951a	-0.0023739995
37	0x3cc936cf	0.024562268
38	0xbce259f9	-0.027630793
39	0xbca8286d	-0.020527089
40	0x3c727d58	0.014800392
41	0xbd9928bd	-0.07478473
42	0xbc7dd7a6	-0.015493309
43	0xbdb3e442	-0.08783771
44	0x3d7ccc5a	0.061718322
45	0xba896016	-0.0010480906
46	0x3d9b450f	0.07581531
47	0x3d777ba4	0.060420647
48	0x3c5eff12	0.013610618
49	0x3dca7138	0.09884876
50	0xbd1e2eb4	-0.03861876
51	0x3d907012	0.07052626
52	0xbcae1d12	-0.021254096
53	0x3b8541d1	0.004066684
54	0x3db4b5b5	0.0882372
55	0xbd1a5b82	-0.037684925
56	0x3ce4873c	0.027896516
57	0xbd80182f	-0.06254613
58	0x3bd1397b	0.006385026
59	0xbc65f05f	-0.01403436
60	0x3bf47577	0.007460292
61	0xbd03b67c	-0.032156453
62	0x3cba5329	0.022744732
63	0xbbcc5b4a	-0.0062364684
64	0x3d7c61eb	0.06161682
65	0x3d523c77	0.051327195

Mixer_Block.0.mlp_block_token_mixing_DynaMixerOperation.fc_Nd.weight f4 [100, 10]
0	0x3ea5d2e3	0.32387456
1	0x3db0f123	0.08639743
2	0x3d9cb5b2	0.07651843
3	0xbd7df635	-0.06200238
4	0x3d78dd95	0.060758192
5	0xbddfdac0	-0.10930395
6	0xbe31fd73	-0.1738184
7	0xbe89e423	-0.26931867
8	0x3bc9184f	0.006136931
9	0xbd9d2fd9	-0.07675142
10	0xbe841e8f	-0.25804564
11	0x3dea772b	0.11448511
12	0xbdddf897	-0.108384304
13	0xbda6160d	-0.081096746
14	0x3df67cee	0.12035547
15	0x3dc507d6	0.09620635
16	0xbdb8f14f	-0.09030401
17	0x3c59588b	0.013265739
18	0x3ca89023	0.020576542
19	0x3d85519d	0.06509707
20	0xbd6408dd	-0.055672515
21	0xbc6aa0b3	-0.01432054
22	0x3f3ddd03	0.7416536
23	0x3e8f83b8	0.2803018
24	0x3deb80f0	0.11499202
25	0x3e50c080	0.20385933
26	0xbdee36c8	-0.116315424
27	0x3de97161	0.113985784
28	0xbd3296e7	-0.043600943
29	0x3e043f01	0.12914659
30	0xbc0b45c3	-0.008500519
31	0xbdd81376	-0.10550587
32	0xb972dc3a	-0.00023160959
33	0x3ee87c16	0.4540717
34	0x3df46d3f	0.119348995
35	0x3e112752	0.14175156
36	0xbe0b7cd8	-0.13621843
37	0xbd4faa5f	-0.050699588
38	0xbbd8428b	-0.0065997294
39	0x3d0e5a06	0.03475382
40	0x3cd08caa	0.025457699
41	0x3e1fac69	0.15593113
42	0xbe2b35cd	-0.16719742
43	0xbce52dd5	-0.027975956
44	0x3ebea669	0.37236336
45	0x3d30a390	0.043124735
46	0x3e2b2b3e	0.16715714
47	0x3e1eaec2	0.15496352
48	0x3d9c261f	0.076244585
49	0xbd054950	-0.03254062
50	0xbd88006b	-0.06640705
51	0xbd9b5df3	-0.07586279
52	0xbe866ad1	-0.2625337
53	0xbd1c8e78	-0.038221806
54	0x3d049369	0.032367144
55	0x3e9a6575	0.3015553
56	0xbe3975d3	-0.18111353
57	0xbdc7ab3d	-0.09749458
58	0xbd8be3ef	-0.06830584
59	0x3e8d3e70	0.275867
60	0x3eebdbeb	0.46066222
61	0x3ea10158	0.31446338
62	0xbd0afc54	-0.033932045
63	0x3df2e2ac	0.118596405
64	0x3e75bd54	0.23998004
65	0x3e56fa03	0.2099381
66	0x3c305457	0.010762296
67	0x3d5893e5	0.05287542
68	0xbdc05896	-0.093918964
69	0x3e7fbb91	0.24973895
70	0x3d996577	0.07490056
71	0xbccca184	-0.02497936
72	0xbece8212	-0.4033361
73	0x3d5c53ed	0.053790975
74	0xbd89c39f	-0.06726765
75	0x3e26cff4	0.16290265
76	0xbdc78dc6	-0.09743838
77	0x3e922a80	0.2854805
78	0x3e15534d	0.14582558
79	0xbe2a6d5b	-0.16643278
80	0xbe95e453	-0.2927576
81	0xbeaa7331	-0.3329101
82	0xbe4272d2	-0.18989113
83	0x3cacf5a2	0.02111322
84	0x3d2870d6	0.041123234
85	0x3e0a3406	0.13496408
86	0x3dc4852d	0.09595714
87	0xbd8692e1	-0.06570984
88	0xbe2b5032	-0.16729811
89	0xbdf783e6	-0.120857045
90	0xbe890c7f	-0.26767346
91	0xbe01c971	-0.126745
92	0xbeb41c9b	-0.35178074
93	0xbe5005e1	-0.20314743
94	0xbd9465ad	-0.072459556
95	0x3cce5edf	0.025191722
96	0x3dee2827	0.11628752
97	0xbdbe5e40	-0.092953205
98	0x3ebcdc65	0.36886898
99	0x3d90be96	0.070676014
100	0x3dda1ce0	0.10650039
101	0xbf02828c	-0.5098045
102	0xbe819797	-0.25310966
103	0x3e046ee3	0.12932925
104	0xbd79ffc4	-0.061034933
105	0x3e1d8ac4	0.15384966
106	0x3d45e933	0.0483181
107	0x3dfc571c	0.12321302
108	0x3e3b01f9	0.18262471
109	0x3d7a2674	0.061071828
110	0x3e78e4de	0.24306056
111	0x3eaf16b0	0.34196997
112	0xbe2ad3e2	-0.1668239
113	0x3e4bd335	0.19904788
114	0xbe8f5478	-0.27994132
115	0x3e878d46	0.2647497
116	0xbe943721	-0.2894831
117	0xbcaac047	-0.020843638
118	0xbe34db77	-0.17661844
119	0xbd627699	-0.055288885
120	0xbef68532	-0.48148495
121	0xbead9612	-0.33903557
122	0x3ecf4f7c	0.4049033
123	0x3e9ab7f3	0.30218467
124	0x3e169f38	0.14709175
125	0x3e254f90	0.16143632
126	0xbd2ec79a	-0.042670824
127	0x3dd2a945	0.10286192
128	0x3d160e20	0.036634564
129	0x3defeeba	0.11715455
130	0x3dcf10be	0.10110615
131	0xbddfc01c	-0.10925314
132	0xbe23bd5c	-0.15990204
133	0x3e0659e4	0.13120228
134	0xbe3e1266	-0.18561706
135	0xbea72801	-0.32647708
136	0xbe8917de	-0.26776022
137	0xbe85929f	-0.26088426
138	0x3a5edb86	0.00085013395
139	0xbe9ce84d	-0.3064598
140	0xbe103cd6	-0.14085707
141	0xbe3341bc	-0.17505544
142	0xbe0bc4f6	-0.13649353
143	0x3d40c359	0.047061298
144	0x3e50eee9	0.20403637
145	0x3e771120	0.24127626
146	0x3eb50465	0.35354915
147	0x3d6f53b0	0.05842942
148	0xbd10739d	-0.035266507
149	0x3aa123a5	0.0012293948
150	0x3e98c25c	0.29835784
151	0x3b9d62a9	0.004803021
152	0x3dbf340c	0.09336099
153	0xbd598ded	-0.053113867
154	0xbdf6691e	-0.12031768
155	0xbd918567	-0.071055226
156	0xbec55615	-0.38542238
157	0xbd5af0af	-0.05345219
158	0x3d9e4647	0.07728248
159	0x3dcbbc73	0.09948053
160	0x3de59062	0.112091795
161	0x3e22142f	0.15828012
162	0x3e9142f6	0.283714
163	0x3ca91ef8	0.02064465
164	0xbe1aebcc	-0.15129012
165	0xbc8a2eb3	-0.016867971
166	0x3dfa2685	0.12214378
167	0x3e19f5eb	0.15035217
168	0x3d85b6c0	0.065289974
169	0x3d2d84ac	0.042362854
170	0xbe03ad81	-0.12859155
171	0x3d058157	0.03259405
172	0x3ca065e5	0.019579837
173	0xbdb6e7d0	-0.089309335
174	0x3b0607d4	0.0020451443
175	0xbeaba927	-0.3352749
176	0xbe9ea45a	-0.30984765
177	0xbec03dd5	-0.37547174
178	0x3e1efcde	0.15526149
179	0xbdbf5d77	-0.09343999
180	0xbe05e28f	-0.13074706
181	0x3d1bc747	0.038031843
182	0xbcde54a4	-0.02713997
183	0xbec0684d	-0.37579575
184	0x3e34fbf1	0.17674233
185	0xbebd34a0	-0.36954212
186	0x3db682bb	0.089116536
187	0xbe04abcd	-0.12956162
188	0xbe7f800d	-0.24951191
189	0x3e10b16c	0.14130181
190	0xbecc4b04	-0.39900982
191	0x3df061c7	0.117373995
192	0xbdb3d036	-0.087799475
193	0xbe9ef19e	-0.31043714
194	0xbe88611a	-0.26636583
195	0xbe8d59c6	-0.27607554
196	0x3e0a0cda	0.13481465
197	0xbe9cff73	-0.30663642
198	0x3e569807	0.20956431
199	0x3d11b2c6	0.035570882
200	0xbdf06838	-0.11738628
201	0xbe89e5b9	-0.26933077
202	0xbe1e8829	-0.15481628
203	0xbdee2f30	-0.11630094
204	0x3dc9656b	0.09833797
205	0xbda314b2	-0.07962932
206	0x3db641eb	0.088992916
207	0x3d6eeb0e	0.058329634
208	0xbddf473e	-0.1090226
209	0x3e026a8d	0.12735958
210	0x3e8ca05e	0.274661
211	0x3daa2d44	0.08309415
212	0x3df70021	0.120605715
213	0x3efff0c9	0.49988392
214	0x3d0980af	0.033569988
215	0x3ee01f5f	0.43773934
216	0x3dd2fd74	0.103022486
217	0x3e8bdab6	0.273153
218	0xbd9f7895	-0.07786671
219	0xbd3583bf	-0.044315096
220	0xbe903ff4	-0.28173792
221	0xbe0f569f	-0.13997887
222	0x3e74bc12	0.23899868
223	0xbcbaf5a0	-0.022822201
224	0x3e2828a8	0.16421759
225	0xbe0c73da	-0.13716069
226	0xbe1cea5f	-0.1532378
227	0xbe819650	-0.25309992
228	0xbe336757	-0.1751989
229	0x3ce57ca2	0.028013531
230	0xbd8c4462	-0.068489805
231	0xbd881fe3	-0.06646707
232	0xbe97c72b	-0.2964414
233	0xbf0ad7d4	-0.5423558
234	0xbec5cbae	-0.38631958
235	0xbee9ba86	-0.4565012
236	0xbe623115	-0.22089036
237	0xbe24b3f9	-0.16084279
238	0x3b598a60	0.003319405
239	0x3b67a726	0.003534743
240	0x3e9d9dd9	0.3078449
241	0xbd820079	-0.063477464
242	0x3db403db	0.08789798
243	0x3f088097	0.5332121
244	0xbd932f50	-0.071867585
245	0xbe942c02	-0.28939825
246	0xbe8ade03	-0.27122506
247	0xbe8b0308	-0.2715075
248	0xbea4a8a4	-0.32159913
249	0xbe4de724	-0.20107704
250	0x3e96797f	0.2938957
251	0xbd16d1a6	-0.03682103
252	0x3e314fbf	0.17315577
253	0x3df52179	0.11969275
254	0x3e3636cf	0.17794345
255	0xbe96e6f3	-0.29473075

Mixer_Block.0.mlp_block_token_mixing_DynaMixerOperation.fc_Nd.bias f4 [100]
0	0xbe80a5f4	-0.25126612
1	0x3e14c4aa	0.14528146
2	0xbdedd6f0	-0.11613262
3	0x3e915d60	0.28391552
4	0xbeb60505	-0.35550705
5	0x3e739632	0.23787764
6	0x3e58fdee	0.21190616
7	0x3e90ded7	0.28295013
8	0xbefdffab	-0.49609122
9	0xbe9a6cc6	-0.30161113
10	0xbe5c15f1	-0.21492745
11	0xbeea27a2	-0.45733362
12	0x3eadc9de	0.33943075
13	0xbeb749f8	-0.3579862
14	0xbe46bb01	-0.19407274
15	0xbe31d058	-0.17364633
16	0x3ebf2d0b	0.37339053
17	0x3e9c6939	0.3054903
18	0xbe980103	-0.29688272
19	0x3ecda64e	0.40165943
20	0x3e7ff409	0.24995436
21	0x3d81a9df	0.063312285
22	0xbd28bffe	-0.041198723
23	0xba97321a	-0.0011535317
24	0xbeb3ac10	-0.3509221
25	0x3e8d8797	0.2764251
26	0x3e3bc431	0.1833656
27	0xbe202c22	-0.15641835
28	0x3efe0b8c	0.49618185
29	0x3eace673	0.3376957
30	0x3e739a06	0.23789224
31	0x3eb5b6ff	0.35491177
32	0xbd975ba8	-0.07390529
33	0x3e22ccb6	0.15898404
34	0xbef78e1a	-0.48350602
35	0x3eb41df1	0.35179093
36	0xbe9cb021	-0.30603126
37	0xbe3a7b97	-0.18211208
38	0x3e9f1846	0.31073207
39	0xbe897c44	-0.2685262
40	0xbcb01bc1	-0.02149761
41	0xbe5329b2	-0.20621374
42	0x3ebb40de	0.36572927
43	0xbd03a59d	-0.032140363
44	0xbe766f4f	-0.24065898
45	0x3d490a1f	0.049081918
46	0xbdf8b407	-0.121437125
47	0x3ed8b07c	0.42322147
48	0xbe8cb39c	-0.2748078
49	0x3e07f5f1	0.13277413
50	0xbe3c2bb0	-0.1837604
51	0xbe9eaa3b	-0.3098925
52	0x3eaf8b51	0.34285977
53	0xbea8f38e	-0.32998317
54	0x3e65b2f4	0.22431546
55	0xbe5d29e3	-0.2159801
56	0x3e95bf4f	0.2924752
57	0xbe8774ae	-0.26456207
58	0x3f1204eb	0.57038754
59	0x3dbc3952	0.091906205
60	0x3f46c52b	0.77644604
61	0xbf423ed9	-0.7587715
62	0xbd9cfac3	-0.076650165
63	0xbe8cff0d	-0.27538338
64	0xbe94d9ba	-0.29072362
65	0x3ceff2e8	0.029290631
66	0x3d400868	0.046883017
67	0x3d7e5495	0.062092382
68	0xbdbde41d	-0.09272025
69	0xbea536e7	-0.3226845
70	0x3d9bd11a	0.07608242
71	0x3f33428a	0.70023406
72	0xbea121e5	-0.31471172
73	0xbeb5cbf5	-0.3550717
74	0xbf0d4a97	-0.5519194
75	0xbe6780f0	-0.2260778
76	0xbecd6c1b	-0.4012154
77	0xbccc33c8	-0.024927035
78	0xbdc69b2a	-0.09697564
79	0xbe55912a	-0.20856157
80	0x3f1211c4	0.5705836
81	0xbe33eba5	-0.1757036
82	0x3e7c9d46	0.2466937
83	0x3e1db97e	0.15402791
84	0xbe7a2c21	-0.24430896
85	0x3da4ba6d	0.080433704
86	0xbe76d59e	-0.24104926
87	0xbe9c5d1b	-0.30539784
88	0xbe2e0c11	-0.1699679
89	0xbddd03a5	-0.10791711
90	0x3e57ba8e	0.21067259
91	0xbd5836f6	-0.05278679
92	0xbf7c5b73	-0.9857704
93	0xbdeeb6c8	-0.116559565
94	0xbeb6939c	-0.35659492
95	0xbd17dd68	-0.037076384
96	0xbe80fd72	-0.25193363
97	0x3ec93934	0.39301455
98	0xbda9ab34	-0.082846075
99	0xbd03f363	-0.032214534

Mixer_Block.0.mlp_block_token_mixing_DynaMixerOperation.fc_out.weight f4 [66, 66]
0	0xbda1f7c2	-0.07908584
1	0x3c48e967	0.012262679
2	0x3daae9fc	0.0834541
3	0xbd997c27	-0.07494383
4	0xbd02935c	-0.031878814
5	0x3e4e41ec	0.20142335
6	0x3dcbad70	0.0994519
7	0x3dbbfd9c	0.091792315
8	0xbd9d49aa	-0.07680066
9	0xbd03dea1	-0.032194737
10	0x3e0cd4da	0.13753071
11	0xbacfcbf3	-0.0015853628
12	0x3e5131c2	0.20429137
13	0x3ded9c26	0.116020486
14	0x3e0377b9	0.1283864
15	0xbdf831ff	-0.12118911
16	0xbbef0056	-0.007293741
17	0xbcc90bd3	-0.024541771
18	0x3dc3dfc4	0.09564164
19	0xbccbf5fc	-0.024897568
20	0xbc1404e9	-0.009034374
21	0x3d98cd42	0.07461025
22	0x3e1e0a7d	0.15433688
23	0x3db26a4c	0.08711681
24	0x3d9ccaa9	0.07655842
25	0xbdbf8690	-0.09351838
26	0xbe35ed20	-0.17766237
27	0x3e1ba748	0.15200531
28	0x3ce6de98	0.028182313
29	0xbd767505	-0.060170192
30	0x3ec151f3	0.37757835
31	0xbd7b0cd8	-0.061291546
32	0x3c9fa0ee	0.019485917
33	0x3d03f439	0.03221533
34	0x3ca2398b	0.01980283
35	0xbdafae9e	-0.085782275
36	0xbe1992bf	-0.14997385
37	0x3cdbb700	0.02682066
38	0x3c957a43	0.018246775
39	0xbe78455a	-0.24245206
40	0xbd104125	-0.035218377
41	0x3dc14935	0.09437791
42	0x3dcc5411	0.09976972
43	0xbe18365d	-0.14864488
44	0x3d866432	0.065620795
45	0x3dc2e1b9	0.095157094
46	0x3e679d7a	0.22618666
47	0xbd34c50d	-0.044133235
48	0x3deb8a30	0.115009665
49	0x3d117e95	0.03552111
50	0xbda6fc48	-0.081535876
51	0x3d330c0f	0.04371267
52	0x3d14ac63	0.036297213
53	0x3e4773e1	0.19477798
54	0xbe2b159b	-0.1670746
55	0xbe1cf766	-0.1532875
56	0xbd7e8f84	-0.062148586
57	0xbddb56b3	-0.10709896
58	0xbccb0573	-0.024782872
59	0xbd90fe6a	-0.07079776
60	0x3d7d699f	0.061868306
61	0xbe0da55a	-0.13832608
62	0xbe98ae9a	-0.2982071
63	0x3e4cee09	0.20012678
64	0x3dceb2c9	0.10092694
65	0x3e55d53a	0.2088212
66	0xbd90fd0e	-0.07079516
67	0x3e0feeb0	0.14055896
68	0x3e24d53d	0.16096969
69	0xbe451a23	-0.19248252
70	0x3e284acf	0.16434787
71	0xbe98082f	-0.29693744
72	0xbe259eb8	-0.16173828
73	0x3d61a3b6	0.055087768
74	0x3e6704e4	0.2256046
75	0x3de5f930	0.11229169
76	0x3e07cdfa	0.13262168
77	0x3e537041	0.2064829
78	0xbdafdf18	-0.08587474
79	0xbdd10a6e	-0.102070674
80	0x3dec4246	0.11536078
81	0xbda9f290	-0.08298218
82	0x3dc16f2c	0.094450325
83	0x3e0075b4	0.125449
84	0xbe1bef33	-0.15227966
85	0xbd21e087	-0.039520767
86	0x3d21cfce	0.03950482
87	0xbe43d997	-0.19125973
88	0x3e2336d0	0.15938878
89	0x3c970675	0.018435696
90	0x3deabcbd	0.1146178
91	0x3e0fa489	0.14027609
92	0x3d68f25b	0.056871753
93	0x3e234eb9	0.15947999
94	0xbe6650ea	-0.22491804
95	0xbe0e08e6	-0.13870582
96	0xbe0ea4cd	-0.13930054
97	0x3e820c2e	0.25399917
98	0x3e057ef9	0.13036717
99	0x3e2b3763	0.16720347
100	0x3dcc5585	0.09977249
101	0xbd5a6dfd	-0.05332755
102	0xbe125154	-0.14288837
103	0xbe28c9a4	-0.1648317
104	0x3d7dc462	0.061954863
105	0xbdfda602	-0.12385179
106	0x3df4489f	0.11927914
107	0xbdde5363	-0.108557485
108	0x3d2343b2	0.03985948
109	0xbdaed610	-0.08536923
110	0x3d959dbd	0.07305477
111	0xbe3b17af	-0.18270753
112	0x3d876af3	0.06612196
113	0x3ee91570	0.45524168
114	0xbe373492	-0.17891148
115	0x3dad3421	0.084572084
116	0xbe4303cb	-0.19044416
117	0xbdd84bec	-0.10561356
118	0x3db1ebc6	0.08687548
119	0x3d3bc661	0.045843486
120	0xbe3c2815	-0.18374665
121	0x3ddbfdc0	0.10741758
122	0x3ddb6e55	0.107144035
123	0x3c85990d	0.016308332
124	0xbdbf64f2	-0.09345426
125	0x3dca82c6	0.09888224
126	0x3e2c4f0a	0.16827026
127	0x3dc53be5	0.096305646
128	0xbd728811	-0.059211794
129	0xbe2c78c2	-0.1684294
130	0xbe144b84	-0.14481932
131	0x3e9ccc66	0.30624694
132	0x3dd40ac9	0.103536196
133	0xbe657b73	-0.22410373
134	0xbdeb467a	-0.11488052
135	0xbef72cb9	-0.48276308
136	0x3e4266b5	0.18984492
137	0x3e2b5be7	0.16734277
138	0xbda667dd	-0.08125279
139	0x3d4043ed	0.04693978
140	0xbe98f903	-0.2987748
141	0xbdcfa6f4	-0.10139266
142	0xbe9ef19a	-0.31043702
143	0xbe148a02	-0.14505771
144	0x3d895ead	0.06707511
145	0x3ae3f62d	0.0017392092
146	0x3dd155bb	0.1022143
147	0xbeb8d165	-0.36097255
148	0x3e802522	0.2502833
149	0x3ddc714c	0.10763797
150	0xbd6313ef	-0.055438932
151	0x3e2e3ee1	0.17016174
152	0x3e1410b4	0.14459497
153	0x3eb10e79	0.34581354
154	0xbe69205d	-0.22766252
155	0x3d2fa425	0.04288115
156	0x3e4adb44	0.19810206
157	0x3dfccdfc	0.12343976
158	0xbcc571bf	-0.02410209
159	0xbe55e774	-0.20889074
160	0x3c1e19bf	0.009649693
161	0x3e1b35c8	0.15157235
162	0xbe18c2e9	-0.14918102
163	0x3dd63bd4	0.1046063
164	0xbe2af934	-0.16696626
165	0xbd5bb6b4	-0.053641036
166	0x3cd8212d	0.026383007
167	0xbe1bbffa	-0.15209952
168	0xbd7b7880	-0.061394215
169	0xbe12c439	-0.14332666
170	0xbd3e8441	-0.046512846
171	0x3eda6300	0.42653656
172	0x3d533b78	0.051570386
173	0x3e3df87f	0.18551825
174	0x3e896e3c	0.26841915
175	0x3d82a8f7	0.06379884
176	0x3e95322b	0.29139838
177	0xbda8f502	-0.082498565
178	0xbc639df0	-0.013892636
179	0x3e45cbbf	0.19316004
180	0xbdbdeb35	-0.09273378
181	0xbe10f423	-0.14155631
182	0x3e6a708e	0.22894499
183	0x3a118782	0.0005551503
184	0x3e649634	0.22322923
185	0x3d105baa	0.035243668
186	0xbde19d70	-0.11016357
187	0xbe9ad532	-0.3024078
188	0x3e8e3477	0.27774402
189	0xbd29a6f3	-0.04141898
190	0x3deff467	0.11716538
191	0xbd9d61a7	-0.07684641
192	0xbe1b5cc9	-0.15172113
193	0xbe34f096	-0.17669901
194	0x3e12d5c2	0.14339355
195	0xbe8e1bc9	-0.27755573
196	0x3e40beae	0.18822739
197	0x3cbbeeec	0.022941075
198	0xbe5d0050	-0.2158215
199	0x3bacee45	0.0052774274
200	0x3e9604cd	0.29300538
201	0xbcb3994f	-0.02192369
202	0x3e0de341	0.13856222
203	0xbe3848c9	-0.17996515
204	0x3d111ba1	0.03542674
205	0x3df912db	0.121617995
206	0xbdcf7259	-0.10129232
207	0x3cbe742b	0.023248753
208	0xbe698817	-0.2280582
209	0xbce3c7f5	-0.027805308
210	0x3cd6cd33	0.026220893
211	0x3c8f28db	0.017475536
212	0x3d6306ab	0.05542628
213	0x3e7d7c77	0.24754511
214	0xbddde7e0	-0.10835242
215	0xbe98c2e2	-0.29836184
216	0x3e4b15cc	0.19832534
217	0xbc096718	-0.008386396
218	0xbe86f7d2	-0.26360947
219	0xbda4b37f	-0.08042049
220	0xbdbf88c0	-0.09352255
221	0xbe82b127	-0.25525782
222	0x3e078e12	0.1323779
223	0x3de461c6	0.11151461
224	0xbcaba639	-0.020953285
225	0x3d2c793b	0.042107802
226	0x3dbb92f2	0.09158887
227	0x3cfda275	0.030961255
228	0x3c2a657c	0.010400172
229	0xbe694126	-0.22778758
230	0x3e28c9ee	0.1648328
231	0x3d3b1b0e	0.0456801
232	0x3e355738	0.17709053
233	0x3d08dadd	0.03341185
234	0xbe559e35	-0.20861132
235	0xbddaac06	-0.10677342
236	0xbd13ca6f	-0.036081728
237	0xbeae1431	-0.3399978
238	0xbe9f5264	-0.31117547
239	0x3e1664e2	0.14686921
240	0xbe30369d	-0.17208333
241	0xbe4c618d	-0.19959088
242	0x3d62c2a1	0.055361394
243	0xbe22c51e	-0.15895507
244	0xbe13be14	-0.14427978
245	0x3d5c4874	0.053780034
246	0x3dca4be3	0.098777555
247	0xbcf31eb3	-0.029677724
248	0xbe84f09d	-0.25964823
249	0xbe43c1d1	-0.19116904
250	0x3d95139c	0.07279131
251	0xbde08cab	-0.1096433
252	0xbc5a5db6	-0.0133280065
253	0xbca61925	-0.020275662
254	0x3e902dba	0.28159887
255	0xbdefe239	-0.117130704

Mixer_Block.0.mlp_block_token_mixing_DynaMixerOperation.fc_out.bias f4 [66]
0	0x3ec513d2	0.38491684
1	0xbe7eb985	-0.24875458
2	0x3e1dcb6a	0.15409628
3	0x3e2cf8e7	0.16891824
4	0xbe978009	-0.2958987
5	0xbe1c80b2	-0.15283468
6	0xbeffabcd	-0.4993576
7	0x3dbd2b22	0.092367426
8	0xbdf40010	-0.119140744
9	0xbdeaa63f	-0.1145749
10	0xbdd1da15	-0.10246674
11	0x3f021bee	0.5082387
12	0xbe83e4e6	-0.25760573
13	0x3e651cf9	0.22374333
14	0x3cfae6ef	0.030627696
15	0x3f160395	0.58599216
16	0xbe4dd5de	-0.20101115
17	0xbda4acd5	-0.080407776
18	0xbe9ba52e	-0.3039946
19	0x3e1c3a61	0.15256645
20	0xbd974925	-0.07386998
21	0xbb3d4766	-0.0028881668
22	0x3c2528f1	0.010080562
23	0x3e16c1e3	0.147224
24	0xbebfdce8	-0.37473226
25	0x3c8ef683	0.01745153
26	0xbd2c9773	-0.04213662
27	0x3e11901b	0.14215128
28	0xbe120d71	-0.1426294
29	0x3d9cf1bc	0.07663295
30	0xbd0778da	-0.033074237
31	0xbcde3cde	-0.027128633
32	0xbde1bea2	-0.110226884
33	0xbba16d52	-0.004926362
34	0xbdfee641	-0.12446261
35	0xbc97399e	-0.018460091
36	0x3c7cdc6c	0.015433412
37	0xbdc48492	-0.09595598
38	0xbe46cfd8	-0.19415224
39	0x3c114bcf	0.008868172
40	0x3bd2faad	0.0064385743
41	0x3d34938f	0.044086035
42	0x3c1e0df3	0.00964688
43	0x3dae7a5f	0.08519434
44	0xbcb88dde	-0.022528585
45	0x3ed8a6f1	0.42314866
46	0x3dee4d89	0.116358824
47	0x3e3ed834	0.18637162
48	0x3f101336	0.56279314
49	0xbd5af167	-0.053452875
50	0x3d3c841c	0.046024427
51	0x3db20651	0.08692611
52	0xbe5179de	-0.20456645
53	0xbe1a736d	-0.15083094
54	0xbf020e7e	-0.50803363
55	0x3e3cbf29	0.18432297
56	0xbc6db04f	-0.014507367
57	0x3c7c9e7d	0.015418646
58	0xbe8232b3	-0.25429305
59	0x3e426732	0.18984678
60	0xbe9545fb	-0.29154953
61	0x3e33318e	0.17499372
62	0xbf0049f2	-0.5011283
63	0xbd67fcd7	-0.05663761
64	0x3c98d701	0.01865721
65	0xbc256805	-0.010095601

Mixer_Block.0.mlp_block_token_mixing_DynaMixerOperation.LN.weight f4 [10]
0	0x3faaecd1	1.3353521
1	0x3fb184c4	1.3868642
2	0x3f5bce35	0.8586152
3	0x3f36b37e	0.71367633
4	0x3edadd86	0.42747134
5	0x3eeae574	0.45878184
6	0x3ebbebf8	0.36703467
7	0x3e86869a	0.26274568
8	0x3d6ba2fa	0.057528473
9	0x3ece209e	0.4025926

Mixer_Block.0.mlp_block_token_mixing_DynaMixerOperation.LN.bias f4 [10]
0	0x3ec6d319	0.3883293
1	0xbe1e90be	-0.15484902
2	0x3e3d6f9e	0.1849961
3	0x3d82a867	0.063797764
4	0x3e3ab315	0.18232377
5	0xbda2e272	-0.07953347
6	0x3d328c4d	0.043590833
7	0xbcfb2b9a	-0.03066044
8	0xbcdec810	-0.027195007
9	0x3db77ecc	0.089597315

Mixer_Block.0.mlp_block_channel_mixing_DynaMixerOperation.fc_ND.weight f4 [1, 10]
0	0xbdcbe276	-0.09955303
1	0x3e153cb9	0.14573945
2	0x3c7d05e2	0.015443297
3	0x3db001da	0.08594103
4	0x3e83afc7	0.25720045
5	0xbe9adc29	-0.30246094
6	0x3d7a10a2	0.06105102
7	0x3e45ed04	0.19328696
8	0xbe951f4f	-0.2912545
9	0xbe0cbd50	-0.13744092

Mixer_Block.0.mlp_block_channel_mixing_DynaMixerOperation.fc_Nd.weight f4 [484, 22]
0	0x3e4c91eb	0.19977538
1	0xbe4d377f	-0.20040701
2	0xbe302a8b	-0.17203729
3	0xbd530b5b	-0.0515245
4	0xbd6c4956	-0.057687126
5	0xbe1e4202	-0.15454867
6	0xbe1a3115	-0.15057786
7	0xbd2d5482	-0.04231692
8	0x3e555b8d	0.20835705
9	0xbdf59877	-0.11991971
10	0xbd6b8c41	-0.057506803
11	0x3e103a0e	0.14084646
12	0x3dea7651	0.11448348
13	0xbdcc3604	-0.0997124
14	0x3e574ecd	0.21026154
15	0xbe1ca8c6	-0.15298757
16	0x3d2eb819	0.042656038
17	0x3e4cc967	0.19998704
18	0x3de21a9f	0.11040234
19	0x3bed4254	0.007240573
20	0xbe2a336d	-0.1662118
21	0x3e1c130a	0.15241638
22	0x3e0052a2	0.12531522
23	0xbda7008e	-0.08154403
24	0xbdb0b266	-0.08627777
25	0x3e36039c	0.17774814
26	0x3d345386	0.044024967
27	0xbc28da72	-0.010305988
28	0x3e594aac	0.21219891
29	0xbe09ae4f	-0.134454
30	0x3e4ee919	0.20206107
31	0xbe2da3f1	-0.1695707
32	0x3dbe2bb8	0.092856824
33	0xbd6a6a61	-0.057230357
34	0x3e4c6779	0.19961347
35	0x3dce38c3	0.1006942
36	0x3bfdcceb	0.0077453754
37	0xbe074a15	-0.13211854
38	0xbded6d0f	-0.11593067
39	0xbe5a1674	-0.21297628
40	0x3d2dddc1	0.04244781
41	0xbe0d674e	-0.13808939
42	0xbd46efd8	-0.048568577
43	0xbdf9d0ed	-0.121980526
44	0xbd208f27	-0.03919902
45	0x3e5311ff	0.20612334
46	0x3d5010a8	0.050797135
47	0xbe045474	-0.12922841
48	0xbd84de3b	-0.064876996
49	0x3e2d158f	0.16902755
50	0xbd98b67f	-0.07456683
51	0xbd93f3a1	-0.07224203
52	0x3e547cb6	0.20750698
53	0x3dc9ca6d	0.09853063
54	0x3e24586e	0.16049358
55	0xbd61758a	-0.055043735
56	0x3dcab58c	0.098979086
57	0x3e33233c	0.1749391
58	0xbdab48d2	-0.08363499
59	0x3d489070	0.04896587
60	0x3e42e5d3	0.19032983
61	0x3e1f2d18	0.15544546
62	0x3d494823	0.04914106
63	0xbc095f75	-0.008384575
64	0xbe49842c	-0.19679326
65	0x3e4cef03	0.2001305
66	0xbdedb748	-0.11607224
67	0xbe36afc0	-0.17840481
68	0x3df07718	0.11741465
69	0xbd3b329e	-0.04570257
70	0x3d56f0b5	0.05247565
71	0x3e2723b3	0.16322212
72	0x3e3b8ed2	0.183162
73	0xbe1956af	-0.14974473
74	0xbd531390	-0.051532328
75	0xbcae45f5	-0.021273592
76	0x3ce70455	0.028200308
77	0xbb98541e	-0.0046486994
78	0xbe0f8853	-0.14016847
79	0x3e42701b	0.18988077
80	0x3c3fd2bc	0.011707958
81	0x3d0d51a8	0.0345017
82	0xbca3e62b	-0.020007214
83	0x3e10f10a	0.14154449
84	0xbd0448b2	-0.03229589
85	0x3e1cffa9	0.15331902
86	0xbe1dd83b	-0.15414517
87	0xbe534ebd	-0.20635505
88	0x3e189301	0.14899828
89	0x3e0a5965	0.13510664
90	0x3e1f7639	0.15572442
91	0x3d974bc0	0.07387495
92	0x3e48465d	0.19558091
93	0xbe0758fd	-0.1321754
94	0x3d862722	0.06550433
95	0xbd6e2b3f	-0.05814671
96	0x3de3a472	0.1111535
97	0x3de5299e	0.111895785
98	0x3e27cf6f	0.16387723
99	0xbdbd34cb	-0.09238585
100	0x3e062d1a	0.13103142
101	0xbe0f9ce1	-0.14024688
102	0xbca23f05	-0.01980544
103	0x3db243f9	0.08704371
104	0xbdaa5910	-0.083177686
105	0xbd5787c9	-0.05261973
106	0xbe596281	-0.21228983
107	0xbcf734d9	-0.030176567
108	0x3de3b6e3	0.11118867
109	0x3e4f8507	0.2026559
110	0xbc3bdee2	-0.011466714
111	0xbd93533f	-0.07193612
112	0xbc90086d	-0.017582143
113	0xbd73f6a5	-0.05956139
114	0xbd6afa7a	-0.05736778
115	0x3d9f95d7	0.077922516
116	0x3e508c50	0.20366025
117	0x3d5931ae	0.053025894
118	0x3d6e1a38	0.058130473
119	0x3c3f75fe	0.011685846
120	0x3e1bd680	0.15218544
121	0x3e54479c	0.20730442
122	0xbe161f4c	-0.14660376
123	0x3c4a2917	0.012338898
124	0x3dd326df	0.103101484
125	0xbe4aa4af	-0.19789384
126	0xbd110bc2	-0.035411604
127	0x3d18b6ab	0.03728358
128	0x3dfb3388	0.12265688
129	0x3daa8680	0.08326435
130	0x3b8a9352	0.0042289877
131	0x3d3336d9	0.04375348
132	0x3e172ee5	0.14763983
133	0xbdd0fd45	-0.10204557
134	0x3e2f8da5	0.17143877
135	0x3e547697	0.20748363
136	0xbe457319	-0.19282188
137	0x3cbc9c0c	0.023023628
138	0xbc6deaf8	-0.014521353
139	0xbdfad815	-0.122482456
140	0x3ce7f177	0.028313382
141	0x3e59be44	0.21263987
142	0xbe25a8cb	-0.1617767
143	0xbdf136c7	-0.11778026
144	0x3d3c6a36	0.04599973
145	0xbd4cf7de	-0.050041072
146	0xbc584ba3	-0.013201627
147	0xbe19633c	-0.14979261
148	0xbdeb76ef	-0.11497294
149	0xbe4fdb10	-0.2029841
150	0xbe4e6f18	-0.20159566
151	0x3e3ed2dc	0.18635124
152	0x3da61e30	0.081112266
153	0xbe1cf0b9	-0.15326203
154	0x3df14143	0.11780026
155	0x3e09cf8c	0.13458079
156	0xbe44066f	-0.19143079
157	0x3abd8838	0.0014460152
158	0xbdc648b8	-0.09681839
159	0xbe3ccd2d	-0.18437643
160	0x3d80c145	0.06286863
161	0xbdc668cb	-0.096879564
162	0x3e48be2d	0.19603796
163	0xbe4f66be	-0.20254037
164	0xbe176396	-0.14784083
165	0xbd716e32	-0.05894298
166	0x3e03bca3	0.12864928
167	0x3dded59c	0.108805865
168	0x3e26c475	0.1628588
169	0x3dd13664	0.10215452
170	0x3e54c823	0.20779471
171	0xbe182dca	-0.14861217
172	0xbe2de013	-0.16980009
173	0xbe1c54ce	-0.15266725
174	0xbde08077	-0.10962003
175	0xbb2bcc53	-0.0026214316
176	0x3e5304dc	0.20607322
177	0x3b989cd2	0.0046573663
178	0x3cf0cefd	0.029395575
179	0xbd947533	-0.072489165
180	0x3e01b3ae	0.12666199
181	0x3d2709a4	0.04078068
182	0xbe39c10c	-0.18140048
183	0xbdda7799	-0.10667343
184	0x3d7131f7	0.05888554
185	0x3e3879ff	0.18015288
186	0x3e0fbc19	0.14036597
187	0x3e20275d	0.15640016
188	0xbd037733	-0.0320961
189	0xbdad5425	-0.08463315
190	0xbe2300bd	-0.1591825
191	0x3dd18e3b	0.102322064
192	0xbdda59f3	-0.10661688
193	0x3e089098	0.13336408
194	0x3d31cb2f	0.04340666
195	0x3d83f944	0.06444028
196	0x3cc021f0	0.023453683
197	0x3d2367b0	0.039893806
198	0xbdb76721	-0.08955217
199	0x3e24ca88	0.16092885
200	0x3e56b03e	0.20965669
201	0xbd5b78bb	-0.053581934
202	0xbe23b065	-0.15985258
203	0xbe438c3e	-0.19096467
204	0xbdc49571	-0.09598816
205	0xbde8474e	-0.11341725
206	0xbceac667	-0.028659059
207	0xbe3d8099	-0.18506087
208	0xbd10af11	-0.035323206
209	0xbda6f208	-0.081516325
210	0x3e0a11ca	0.13483348
211	0x3e37f9ac	0.17966336
212	0x3cd6593a	0.026165593
213	0x3dbf232a	0.09332879
214	0x3e5489b2	0.20755652
215	0x3d4821eb	0.04886047
216	0x3e4f7174	0.20258123
217	0x3e52bdd4	0.20580226
218	0x3d16e606	0.03684046
219	0x3e1d74db	0.15376608
220	0x3e4c18a7	0.19931279
221	0xbe56cca1	-0.20976497
222	0x3e18d9b3	0.14926796
223	0x3e1cefe0	0.1532588
224	0xbe251572	-0.16121462
225	0x3e21f3ee	0.15815708
226	0x3e507e30	0.20360637
227	0x3e16b811	0.14718653
228	0xbdf5eaa4	-0.12007645
229	0xbe4c1de1	-0.19933273
230	0xbd0f7927	-0.03502765
231	0xbdbd6cb7	-0.09249251
232	0xbe100d9c	-0.14067692
233	0x3d22036e	0.039554052
234	0xbddf9cf4	-0.10918608
235	0xbdb02945	-0.086016215
236	0x3e473555	0.19453938
237	0xbe01f5ac	-0.12691373
238	0xbe1e28ea	-0.15445295
239	0xbe360f06	-0.17779168
240	0xbdcadbdf	-0.09905218
241	0xbe5467d1	-0.20742728
242	0x3ca8285f	0.020527063
243	0x3e4f8961	0.2026725
244	0xbdc80b36	-0.09767763
245	0x3de73e49	0.11291177
246	0x3ca0589a	0.019573499
247	0x3e463a2e	0.19358131
248	0xbc0d1604	-0.008611206
249	0x3e565ff0	0.20935035
250	0xbe20a5e1	-0.15688278
251	0xbe26aa16	-0.1627582
252	0x3d50efbe	0.051009886
253	0x3e07e4e7	0.13270913
254	0xbc2e83ad	-0.010651511
255	0x3da82060	0.082093

Mixer_Block.0.mlp_block_channel_mixing_DynaMixerOperation.fc_Nd.bias f4 [484]
0	0xbe4a7119	-0.19769706
1	0x3e45041d	0.1923985
2	0xbe35b9cc	-0.17746657
3	0xbd22d7ab	-0.03975646
4	0x3e3b40f5	0.18286498
5	0x3e3042ed	0.1721303
6	0x3da81da5	0.08208779
7	0xbd4e40bb	-0.0503547
8	0xbde5d51f	-0.1122229
9	0x3c3224b3	0.010873008
10	0xbdd43069	-0.10360796
11	0x3d9969b1	0.07490862
12	0xbe3c7e94	-0.1840766
13	0xbe38630a	-0.1800653
14	0x3dddc0f8	0.108278215
15	0x3dd01ec4	0.10162118
16	0x3d26c26f	0.04071277
17	0x3d357921	0.04430497
18	0x3db3890d	0.08766375
19	0x3d90cbd3	0.070701264
20	0x3dd6b828	0.10484344
21	0x3da6998d	0.08134756
22	0x3db1284c	0.08650264
23	0x3c246efd	0.010036227
24	0xbe471fd3	-0.19445734
25	0xbe4f09fe	-0.20218655
26	0x3d214d8b	0.03938059
27	0x3d3f2dc5	0.04667451
28	0xbe1ea11b	-0.15491144
29	0xbdbe8c75	-0.09304134
30	0x3e57dfee	0.21081516
31	0x3e33e298	0.17566907
32	0xbd8cf9cb	-0.06883582
33	0x3e501082	0.20318797
34	0x3e52452f	0.20534204
35	0xbe2c1c96	-0.1680778
36	0x3e2d8641	0.16945745
37	0xbd9c94c6	-0.07645564
38	0xbe3bfe88	-0.18358815
39	0xbe16aad6	-0.14713606
40	0xbe036d91	-0.12834765
41	0x3e448322	0.19190648
42	0x3e2d2cb9	0.16911592
43	0xbe091d3d	-0.1339006
44	0x3da9edbe	0.08297299
45	0xbdd4e162	-0.10394551
46	0x3e002691	0.12514712
47	0xbe086fed	-0.13323946
48	0xbd683cce	-0.056698613
49	0x3da84a52	0.082173005
50	0x3dc91c12	0.09819807
51	0x3d2a9d5d	0.04165398
52	0xbb38f7e1	-0.002822392
53	0xbc86e41f	-0.016466198
54	0x3e2b5057	0.16729866
55	0xbe08345a	-0.1330122
56	0x3dee1fc0	0.116271496
57	0x3d6827dc	0.056678638
58	0xbdbded54	-0.09273782
59	0xbcd5d483	-0.02610231
60	0x3a9b7257	0.0011859637
61	0xbdfec89a	-0.124406055
62	0xbd69b82b	-0.057060402
63	0xbdf97ddf	-0.12182211
64	0xbe135664	-0.14388424
65	0x3e321ef1	0.17394616
66	0xbe15a3bf	-0.14613245
67	0xbe499874	-0.19687063
68	0xbda559f3	-0.08073797
69	0xbe17a7da	-0.14810124
70	0xbc99f65d	-0.018794233
71	0x3e360138	0.17773902
72	0x3e3db78d	0.1852705
73	0xbd551974	-0.052026227
74	0x3e06f8cd	0.13180847
75	0xbe0ffd94	-0.14061576
76	0xbdf6600c	-0.12030038
77	0xbe4a08b9	-0.1972989
78	0x3d633cb2	0.055477805
79	0xbe41fc47	-0.18943892
80	0xbdb17c90	-0.086663365
81	0xbdf7d05e	-0.1210029
82	0xbdfd328c	-0.12363157
83	0xbe40d0eb	-0.18829696
84	0xbe54ce66	-0.2078186
85	0x3d1d49dc	0.038400516
86	0x3e4ab062	0.19793847
87	0x3e06ded8	0.13170946
88	0xbe25cd46	-0.16191587
89	0xbd4dfdf2	-0.05029101
90	0x3d85f959	0.065417
91	0x3d5691ac	0.052385017
92	0xbe427994	-0.18991691
93	0x3db0744a	0.086159304
94	0x3ddf084c	0.108902544
95	0xbd742889	-0.05960897
96	0x3e1028a0	0.14077997
97	0x3debf63d	0.115215756
98	0x3dcb5bac	0.099295944
99	0xbe420fa0	-0.18951273
100	0x3e153fc4	0.14575106
101	0xbc564ed6	-0.013080319
102	0x3daa3707	0.08311277
103	0xbe15f626	-0.1464468
104	0xbd652b9d	-0.055949796
105	0x3e367df1	0.1782148
106	0x3db7f685	0.08982567
107	0x3dcc66aa	0.09980519
108	0xbe54a5af	-0.20766328
109	0x3d034483	0.03204776
110	0xbc4cecb4	-0.012507606
111	0x3dbe60bd	0.09295795
112	0xbd0cd8f5	-0.034386594
113	0x3e08bda2	0.13353589
114	0xbb83bcbb	-0.004020301
115	0xbe5280b5	-0.2055691
116	0xbe1297d3	-0.14315729
117	0xbe255af6	-0.1614798
118	0x3da5632c	0.08075556
119	0x3e49d451	0.19709899
120	0xbe428c2e	-0.18998787
121	0xbdc92ce9	-0.09823019
122	0x3c5d92cc	0.013523769
123	0xbdadbfab	-0.084838234
124	0x3bba73ce	0.0056900745
125	0xbe108ae6	-0.14115486
126	0x3dd0c739	0.10194249
127	0x3dca4642	0.09876682
128	0xbe3df986	-0.18552217
129	0x3db20e21	0.08694101
130	0x3e563723	0.2091947
131	0xbdffc723	-0.12489154
132	0x3dc6dbcd	0.097098924
133	0x3e105120	0.14093447
134	0xbd4080c2	-0.046997793
135	0x3c90ee0b	0.017691633
136	0xbda62c38	-0.08113903
137	0x3dd0c509	0.101938315
138	0x3e4e7cde	0.2016482
139	0x3dffbf76	0.1248769
140	0x3dae88c8	0.08522183
141	0x3d5b2a02	0.05350686
142	0x3dc60d87	0.09670549
143	0x3e0c0392	0.13673237
144	0x3dcabaa3	0.098988794
145	0xbd0605fe	-0.03272056
146	0x3e49f7b8	0.19723403
147	0x3c1111dc	0.008854356
148	0xbcb97f7a	-0.022643793
149	0x3e023d02	0.12718585
150	0x3e2c9b67	0.16856156
151	0x3df41f8e	0.11920081
152	0x3d1606fd	0.03662776
153	0x3c8e2040	0.017349362
154	0x3e4e3d77	0.20140634
155	0xbb31bb97	-0.002711987
156	0xbdd43011	-0.103607304
157	0x3d025620	0.031820416
158	0x3e4d1fc9	0.20031656
159	0x3e52575e	0.2054114
160	0x3dde37c3	0.108504795
161	0xbd8fdebb	-0.07024904
162	0x3e37d616	0.17952761
163	0x3dd15d02	0.10222818
164	0xbd6ab25c	-0.057299003
165	0xbdb6a077	-0.08917325
166	0x3e14c6db	0.14528982
167	0xbe3fed5c	-0.18742889
168	0x3e3f2b8f	0.1866896
169	0xbdbcfb44	-0.092276126
170	0xbde5b635	-0.11216394
171	0xbdf7105d	-0.12063668
172	0xbe1f1a11	-0.15537287
173	0xbe1a251a	-0.15053216
174	0x3d0fdeb8	0.03512451
175	0xbdbc10de	-0.09182905
176	0x3de982c7	0.11401897
177	0xbe4d52c9	-0.20051111
178	0x3e00120c	0.12506884
179	0x3d669b55	0.05630048
180	0x3dbd33dc	0.09238407
181	0x3c2334bb	0.009961302
182	0x3e444970	0.19168639
183	0x3e3376f6	0.17525849
184	0xbe341fbb	-0.17590229
185	0x3daf10f0	0.085481524
186	0x3c48144d	0.012211871
187	0x3cac6cc2	0.021047954
188	0x3d306634	0.04306622
189	0x3e50dde8	0.2039715
190	0x3e2e6ad4	0.17032939
191	0xbda71ac7	-0.08159404
192	0x3e488a29	0.19583954
193	0xbd0353cf	-0.032062348
194	0xbda65e37	-0.08123439
195	0xbd3e2294	-0.046419695
196	0x3dd62498	0.104561985
197	0x3e08c147	0.1335498
198	0xbe565022	-0.20929006
199	0xbc1234e1	-0.00892374
200	0xbe565809	-0.2093202
201	0xbe04c254	-0.12964755
202	0xbcfafce3	-0.030638164
203	0x3e067c50	0.13133359
204	0x3e32b005	0.17449959
205	0x3d64cd0f	0.05585962
206	0xbe04059c	-0.12892765
207	0x3d582595	0.052770216
208	0x3e2f852f	0.1714065
209	0xbdb7ba5b	-0.08971091
210	0x3ce54ce0	0.027990758
211	0xbe29d17e	-0.16583821
212	0x3e4d21ef	0.20032476
213	0xbc555ca3	-0.013022575
214	0x3cae1278	0.021249041
215	0xbe4a8d3a	-0.19780436
216	0xbdc23206	-0.094821975
217	0xbe3dc3e5	-0.18531759
218	0xbe3456a3	-0.17611174
219	0xbd334f80	-0.04377699
220	0x3e1db83b	0.1540231
221	0xbe179b01	-0.14805223
222	0x3dc1bbd1	0.09459651
223	0x3c911264	0.017708965
224	0x3d8f9f99	0.07012863
225	0xbdb1d863	-0.086838506
226	0x3e07126e	0.13190624
227	0xbc44301f	-0.011974364
228	0x3e27aa02	0.16373447
229	0xbdcad9d2	-0.09904827
230	0xbd7a0963	-0.061044108
231	0x3df8e9d8	0.12153977
232	0x3e02bad4	0.12766582
233	0xbd954ecc	-0.0729042
234	0xbd465287	-0.048418548
235	0x3c991fc7	0.01869191
236	0xbcfa1057	-0.03052537
237	0xbe42094d	-0.1894886
238	0xbd390431	-0.045170013
239	0xbe35f527	-0.177693
240	0x3e36eaea	0.1786305
241	0x3d80b799	0.062850185
242	0x3d5140de	0.051087253
243	0xbcabf8fd	-0.02099275
244	0xbe4d4dd6	-0.20049223
245	0xbe1a5701	-0.15072252
246	0xbe348df0	-0.1763227
247	0x3dcb211f	0.09918427
248	0xbd943b25	-0.072378434
249	0x3d2aa718	0.04166326
250	0x3babae7a	0.005239305
251	0xbc315091	-0.010822431
252	0xbe41ff9f	-0.18945168
253	0xbd985492	-0.074380055
254	0xbd43036d	-0.04761069
255	0x3db4b84d	0.08824215

Mixer_Block.0.mlp_block_channel_mixing_DynaMixerOperation.fc_out.weight f4 [10, 10]
0	0xbc0e1484	-0.0086718835
1	0xbd48dc6a	-0.04903833
2	0x3e372efd	0.17889018
3	0xbe03aeca	-0.12859645
4	0xbe5a0578	-0.21291149
5	0xbe1dfeb0	-0.15429187
6	0x3d8cb8f2	0.06871213
7	0xbe61f7f3	-0.22067241
8	0xbd6457f8	-0.055747956
9	0x3dc3d054	0.0956122
10	0x3e858450	0.2607751
11	0x3e407f71	0.18798615
12	0xbe31db07	-0.17368709
13	0xbdbedd57	-0.09319561
14	0x3e4afdb8	0.19823349
15	0xbe185d69	-0.14879383
16	0xbe0e5662	-0.1390014
17	0xbe44dfed	-0.19226046
18	0x3e3170f6	0.17328247
19	0x3e977fbf	0.2958965
20	0xbe80572c	-0.25066507
21	0xbea0403c	-0.31299007
22	0xbcf9cd00	-0.03049326
23	0xbdb01da9	-0.08599407
24	0x3cc36368	0.023851112
25	0x3d3c0a5d	0.04590832
26	0xbd646901	-0.055764202
27	0xbc42c80f	-0.011888518
28	0x3d367d65	0.04455318
29	0xbe80bf8d	-0.25146142
30	0xbe836d1b	-0.25669178
31	0x3e8ea298	0.27858424
32	0x3e1e4577	0.15456186
33	0xbcc35412	-0.023843799
34	0xbd5d8381	-0.05408049
35	0xbe2a34bf	-0.16621684
36	0x3c4c8f7a	0.012485379
37	0x3e81ab66	0.2532608
38	0xbe7e4934	-0.24832612
39	0x3e1573b0	0.14594913
40	0xbe3d6910	-0.1849711
41	0x3e5c1b82	0.21494868
42	0x3bd82f56	0.0065974398
43	0x3e64486a	0.22293249
44	0x3e244428	0.16041625
45	0xbe230559	-0.15920009
46	0xbe2110f5	-0.15729125
47	0x3e2fe6ec	0.17177933
48	0x3dd7ebfb	0.105430566
49	0x3d66a32a	0.05630795
50	0x3cdb2c88	0.026754633
51	0xbe59b162	-0.21259072
52	0x3e7b8913	0.24564008
53	0x3e00ba11	0.12570979
54	0xbe7a9245	-0.2446986
55	0xbda8bd9f	-0.08239292
56	0x3e1e328f	0.15448974
57	0xbd098db3	-0.0335824
58	0x3cba4a4f	0.022740511
59	0x3c8198b8	0.015819892
60	0xbe949ef9	-0.29027537
61	0x3e9b877e	0.3037681
62	0x3de7d6ee	0.113202915
63	0xbe990113	-0.29883632
64	0x3b2f5235	0.002675188
65	0x3d6e7774	0.058219388
66	0x3df23318	0.118261516
67	0xbe811c10	-0.25216722
68	0x3d94c3e7	0.07263928
69	0xbdbc6f1a	-0.092008784
70	0xbc0e24f6	-0.008675804
71	0x3d54e844	0.05197932
72	0x3e602237	0.21888052
73	0xbe818ae5	-0.2530128
74	0x3e9970f3	0.29968986
75	0x3d7eb0d4	0.062180355
76	0xbe6477ea	-0.22311369
77	0xbc0df328	-0.00866393
78	0x3e058429	0.13038696
79	0x3e7602f9	0.24024571
80	0xbd6e51c8	-0.05818346
81	0x3e9e8a16	0.30964726
82	0x3d6e52b1	0.05818433
83	0x3af0725e	0.0018344631
84	0xbd21bfd0	-0.039489567
85	0xbe9d2cf0	-0.30698347
86	0x3e367e83	0.17821698
87	0xbe0c1e24	-0.13683373
88	0x3da0a90f	0.07844745
89	0xbe85cae0	-0.26131344
90	0xbe8da29c	-0.27663124
91	0x3e792d5b	0.24333708
92	0xbe8d3857	-0.27582046
93	0xbbcddbfd	-0.006282328
94	0x3bf092f0	0.007341735
95	0x3e254ac1	0.16141798
96	0xbd5206bf	-0.051275965
97	0x3e6b41fe	0.22974393
98	0xbd278fb4	-0.04090853
99	0x3e86f7df	0.26360986

Mixer_Block.0.mlp_block_channel_mixing_DynaMixerOperation.fc_out.bias f4 [10]
0	0xbe8300a9	-0.2558644
1	0xbe903a12	-0.28169304
2	0x3e8d3aa8	0.27583814
3	0xbcf59f85	-0.029983291
4	0x3e74ce1e	0.23906752
5	0xbe5ccf44	-0.2156344
6	0x3e425744	0.18978602
7	0xbe85a524	-0.26102555
8	0xbe951314	-0.29116118
9	0xbdc5159b	-0.096232615

Mixer_Block.0.mlp_block_channel_mixing_DynaMixerOperation.LN.weight f4 [22]
0	0x3f800000	1.0
1	0x3f800000	1.0
2	0x3f800000	1.0
3	0x3f800000	1.0
4	0x3f800000	1.0
5	0x3f800000	1.0
6	0x3f800000	1.0
7	0x3f800000	1.0
8	0x3f800000	1.0
9	0x3f800000	1.0
10	0x3f800000	1.0
11	0x3f800000	1.0
12	0x3f800000	1.0
13	0x3f800000	1.0
14	0x3f800000	1.0
15	0x3f800000	1.0
16	0x3f800000	1.0
17	0x3f800000	1.0
18	0x3f800000	1.0
19	0x3f800000	1.0
20	0x3f800000	1.0
21	0x3f800000	1.0

Mixer_Block.0.mlp_block_channel_mixing_DynaMixerOperation.LN.bias f4 [22]
0	0x00000000	0.0
1	0x00000000	0.0
2	0x00000000	0.0
3	0x00000000	0.0
4	0x00000000	0.0
5	0x00000000	0.0
6	0x00000000	0.0
7	0x00000000	0.0
8	0x00000000	0.0
9	0x00000000	0.0
10	0x00000000	0.0
11	0x00000000	0.0
12	0x00000000	0.0
13	0x00000000	0.0
14	0x00000000	0.0
15	0x00000000	0.0
16	0x00000000	0.0
17	0x00000000	0.0
18	0x00000000	0.0
19	0x00000000	0.0
20	0x00000000	0.0
21	0x00000000	0.0
