M_2_AST/MotionMixer-main/h36m/run_for_longging/exp219/model.pt (torch, 870893 bytes, 184 tensors)

Mixer_Block.0.mlp_block_token_mixing.fc1.weight f4 [20, 10]
-0.14148442 0.2239191 -0.023986682 0.3962517 -0.09019406 0.14379238 -0.28701445 -0.17334686
-0.2055653 -0.8454161 -0.21295132 0.2018509 -0.3058521 0.44433755 -0.47861385 0.4944667
0.12503874 0.07699762 -0.13619342 -0.074133106 -0.20969078 0.16395566 -0.17836541 0.3796205
-0.106475785 0.39212942 -0.17728521 0.19350976 -0.65593576 0.46510687 0.08265786 -0.3566426
0.32515234 -0.30408832 0.05816383 -0.39368477 0.6509751 -0.40274784 -0.2717223 0.20415312
0.24974409 -0.3337176 0.13533582 -0.34577048 0.4397578 -0.5682873 0.17796041 -0.31766507
0.6996878 -0.28953013 -0.43440264 -0.34199986 -0.28857264 0.24270885 0.7096714 -0.15793319
-0.84462076 -0.06021687 0.08501376 0.33992228 0.24332997 -0.16683237 0.15920722 -0.14563724
0.49726236 -0.21737905 0.58050746 -0.4399625 0.29193807 -0.5514496 0.2693071 0.8298347
-0.18483098 0.045694217 -0.08157311 -0.01205891 0.8243329 0.01967306 0.077171676 -0.29448473
-0.20202918 0.5374778 -0.14301054 -0.0049463445 -0.13374846 0.14231847 -0.3199232 0.7243434
0.10584793 -0.10396028 0.33914673 -0.28570318 0.58805037 -0.44355184 -0.5401823 -0.14887871
0.04462997 0.9523094 -0.09358811 -0.14960815 -0.12786013 0.14964253 -0.1795623 0.0793331
-0.5099776 0.43911234 -0.486799 0.16965052 0.18593769 -0.062988326 -0.23341927 0.124803096
-0.19785205 0.13447966 -0.16670378 0.4591323 -0.4957108 0.724809 -0.32125965 0.08329967
-0.12511261 0.18144831 0.108562425 0.005586637 -0.67122996 0.059266414 -0.35636857 0.35285905
-0.48117873 0.5429671 -0.06610313 -0.21445188 -0.37736726 -0.56632984 0.01573681 0.17309067
0.4507224 0.22361365 0.24703874 0.79988486 -0.062425107 0.43868652 -0.19366193 0.55275685
0.054227646 0.1711682 -0.30867675 -0.1581584 0.6236545 -0.6221067 -0.49016577 0.0013008331
-0.5360166 0.33284116 -0.43359497 -0.2102054 0.007872133 -0.37588638 0.35261324 0.3382391
-0.099022605 0.0011431971 0.35576034 0.06576642 -0.51960397 0.0436887 -0.3221162 0.10659209
-0.4447101 -0.2535449 -0.09704375 0.23993568 -0.13643767 0.5707075 -0.28529364 -0.28430834
-0.3482206 0.6076626 -0.36650267 0.15280989 -0.0014882792 -0.21686468 0.21819267 0.18501188
0.21008506 0.1601036 -0.58246267 -0.73251015 0.18569367 -0.2229567 -0.09650224 0.20331265
-0.35163027 -0.010253274 -0.18138796 0.3490633 -0.7489655 -0.07240226 -0.0068816035 0.33028752
00000000: 4be1 10be 0c4b 653e b87f c4bc 81e1 ca3e
00000010: aab7 b8bd 4f3e 133e 8ff3 92be d781 31be
00000020: b67f 52be 316d 58bf e90f 5abe 01b2 4e3e
00000030: a598 9cbe 3680 e33e e00c f5be bd2a fd3e
00000040: 280a 003e eeb0 9d3d 4a76 0bbe 19d3 97bd
00000050: 2eb9 56be fee3 273e 6ca5 36be 9e5d c23e
00000060: fa0f dabd 30c5 c83e 418a 35be 6c27 463e
00000070: 68eb 27bf 7d22 ee3e 8648 a93d dc99 b6be
00000080: 5e7a a63e 77b1 9bbe 323d 6e3d 0d91 c9be
00000090: 4ea6 263f f734 cebe 2f1f 8bbe 840d 513e
000000a0: eabc 7f3e 09dd aabe 7995 0a3e d408 b1be
000000b0: ef27 e13e 477b 11bf 413b 363e ffa4 a2be
000000c0: bd1e 333f 4b3d 94be 066a debe 9b1a afbe
000000d0: cbbf 93be ab88 783e 06ad 353f 3db9 21be
000000e0: 1139 58bf f7a5 76bd b21b ae3d 4b0a ae3e
000000f0: 7e2b 793e 1bd6 2abe 3807 233e ee21 15be
00000100: 2c99 fe3e 9d98 5ebe 239c 143f c442 e1be
00000110: e878 953e cd2b 0dbf 9fe2 893e 0c70 543f
00000120: 5544 3dbe dc29 3b3d cd0f a7bd bc92 45bc
00000130: 7b07 533f 6629 a13c 2f0c 9e3d b4c6 96be
00000140: bde0 4ebe 2598 093f 5b71 12be f214 a2bb
00000150: 5bf5 08be efbb 113e f9cc a3be 926e 393f
00000160: cdc6 d83d 21e9 d4bd a4a4 ad3e b047 92be
00000170: 788a 163f 3a19 e3be 6349 0abf a973 18be
00000180: eacd 363d 8dca 733f 1fab bfbd e132 19be
00000190: c4ed 02be e43b 193e 2edf 37be 6479 a23d
000001a0: e48d 02bf 55d3 e03e b83d f9be deb8 2d3e
000001b0: 7366 3e3e 0600 81bd 7605 6fbe c498 ff3d
000001c0: ba99 4abe 09b5 093e 65b4 2abe 6413 eb3e
000001d0: cecd fdbe 158d 393f 257c a4be 0499 aa3d
000001e0: 851d 00be 96cd 393e fa55 de3d 1c10 b73b
000001f0: bad5 2bbf 57c1 723d f175 b6be f1a9 b43e
00000200: 0f5d f6be e4ff 0a3f 1461 87bd 4699 5bbe
00000210: 4836 c1be fefa 10bf 7cea 803c ae3e 313e
00000220: 16c5 e63e fafa 643e b9f7 7c3e 41c5 4c3f
00000230: 78b1 7fbd 859b e03e 504f 46be 7981 0d3f
00000240: cf1d 5e3d b746 2f3e e10a 9ebe 47f4 21be
00000250: d2a7 1f3f 6242 1fbf 02f7 fabe b780 aa3a
00000260: 6238 09bf 286a aa3e 2900 debe 1640 57be
00000270: 1efa 003c 2e74 c0be b989 b43e ad2d ad3e
00000280: 5dcc cabd 54d7 953a 3826 b63e 8bb0 863d
00000290: c404 05bf ecf2 323d 6aec a4be f44c da3d
000002a0: 0bb1 e3be a3d0 81be e0be c6bd b3b1 753e
000002b0: 51b6 0bbe e319 123f 0212 92be dd90 91be
000002c0: f849 b2be c78f 1b3f 3da6 bbbe 327a 1c3e
000002d0: 5d12 c3ba c611 5ebe e66d 5f3e c173 3d3e
000002e0: 8a20 573e 33f2 233e 461c 15bf c985 3bbf
000002f0: 7b26 3e3e c34e 64be f7a2 c5bd 3131 503e
00000300: e208 b4be 59fd 27bc c4bd 39be 6db8 b23e
00000310: 34bc 3fbf a347 94bd 137f e1bb 721b a93e

Mixer_Block.0.mlp_block_token_mixing.fc1.bias f4 [20]
0.26720992 0.22565396 0.37746415 0.31954095 0.4389727 0.51019084 0.35304987 0.45573142
0.14760883 0.79513294 0.27896896 0.46776178 0.34214458 0.6574192 0.21341358 0.13610795
0.178783 0.35663643 0.4601894 0.27540162
00000000: bdcf 883e d511 673e fb42 c13e df9a a33e
00000010: 08c1 e03e de9b 023f f4c2 b43e a155 e93e
00000020: c526 173e d58d 4b3f 05d5 8e3e 797e ef3e
00000030: 932d af3e a04c 283f 1789 5a3e e25f 0b3e
00000040: e412 373e 0d99 b63e f29d eb3e 7101 8d3e

Mixer_Block.0.mlp_block_token_mixing.fc2.weight f4 [10, 20]
0.44812405 -0.047901593 -0.04093233 0.41905564 0.18638887 0.3619828 0.099098645 -0.61828005
-0.32773814 0.26585644 -0.18161637 -0.08775966 0.19336414 -0.23517929 -0.32450455 -0.0663973
0.59891844 -0.35126987 0.5559761 -0.32677075 0.18813317 0.30299392 0.24644676 -0.08407413
-0.2276648 0.34558377 -0.19007204 -0.03415077 -0.25343743 -0.45366234 0.13686274 0.0739113
-0.10556021 0.13018899 0.112884015 0.6782677 -0.023214998 0.07839637 0.27149895 -0.0979494
-0.3770548 -0.22638698 -0.3009945 0.030014565 0.28927916 0.33868247 0.5486561 -0.115963615
-0.09887556 -0.3379654 -0.16894649 0.013851357 -0.6208322 0.62895143 -0.1777821 -0.24240117
-0.48839462 -0.28173736 -0.33156145 -0.12147087 -0.18662162 0.43986586 -0.117719576 -0.214565
-0.3408162 -0.37043676 -0.31814677 0.09863757 0.3782198 0.29386204 0.82090783 0.6349951
0.19307096 0.5427963 -0.040194184 -0.45114377 0.0055267895 -0.3913013 -0.1965364 0.35376593
-0.41268677 0.19017504 -0.58452976 0.41316512 0.06654644 -0.6499148 0.111767516 0.21946917
-0.040827848 0.4984209 -0.0040815286 -0.31593516 0.024164462 0.18430504 -0.28295702 0.048134074
-0.14049701 -0.349314 -0.35531732 -0.5664936 -0.23377638 0.038762562 0.13906561 -0.11025108
0.16744135 0.2665213 -0.37939966 -0.22321992 0.33075613 0.47201908 -0.044633176 0.20155884
0.36711353 -0.07773166 -0.009382071 0.2158225 0.1382051 0.61203355 -0.34515768 -0.14468104
-0.37534013 -0.6603136 -0.5888659 -0.53093266 0.7977382 0.68679464 0.23462427 -0.6157131
-0.12708317 0.010050454 -0.04683189 -0.114970796 -0.44220522 0.047391944 0.33329257 -0.38965625
-0.39736533 -0.23537612 0.40440115 0.25638777 0.24165924 0.32777768 0.31839606 -0.10715743
-0.31885555 0.24516295 -0.019119801 -0.06818675 -0.25006968 -0.67161 0.12474847 -0.03452105
-0.025551438 0.011846387 0.31371865 0.7146285 0.018143356 -0.2905009 0.46967003 0.45513573
-0.11880221 0.015824664 0.38882893 0.44488928 -0.6428259 -0.2087626 -0.009891591 -0.18581103
-0.34307903 0.22673342 -0.38374317 -0.029943578 0.088577874 0.081388906 -0.76322955 -0.85471135
0.18026821 0.020740367 -0.14639992 -0.57685125 0.85735995 0.011147399 -0.43117172 -0.48541254
0.2305286 -0.34680605 0.9146599 0.5277376 0.32273668 0.15187943 -0.017241983 0.07903498
-0.65983623 -0.6306061 0.9745696 -0.6376493 0.116477765 0.29752138 0.080048926 -0.34879106
00000000: 8470 e53e 7634 44bd a9a8 27bd 768e d63e
00000010: b9dc 3e3e cf55 b93e 3bf4 ca3d 9a47 1ebf
00000020: 4bcd a7be 561e 883e a4f9 39be 56bb b3bd
00000030: 4001 463e d7d2 70be 7625 a6be 4ffb 87bd
00000040: b852 193f a5d9 b3be 7354 0e3f 7f4e a7be
00000050: fba5 403e 0522 9b3e 8a5c 7c3e 0f2f acbd
00000060: f620 69be 5bf0 b03e 3fa2 42be aee1 0bbd
00000070: 8dc2 81be 6e46 e8be bf25 0c3e cf5e 973d
00000080: f42f d8bd 4350 053e bc2f e73d f4a2 2d3f
00000090: 612d bebc 478e a03d e901 8b3e b299 c8bd
000000a0: 540d c1be fdd1 67be f31b 9abe 1be1 f53c
000000b0: 661c 943e ca67 ad3e ba74 0c3f 557e edbd
000000c0: 457f cabd cd09 adbe 4f00 2dbe cdf0 623c
000000d0: dcee 1ebf f602 213f 830c 36be 0338 78be
000000e0: dc0e fabe e13f 90be 6cc2 a9be b8c5 f8bd
000000f0: bd19 3fbe 1936 e13e f616 f1bd edb6 5bbe
00000100: 767f aebe e3a9 bdbe 22e4 a2be 7f02 ca3d
00000110: 07a6 c13e 1675 963e 0427 523f 0a8f 223f
00000120: 65b4 453e b3f4 0a3f a8a2 24bd 51fc e6be
00000130: 121a b53b a558 c8be d740 49be cf20 b53e
00000140: ae4b d3be 3fbd 423e bea3 15bf 618a d33e
00000150: 8049 883d d160 26bf 5ee6 e43d 87bc 603e
00000160: 1a3b 27bd 0631 ff3e 58be 85bb 41c2 a1be
00000170: 8df4 c53c 76ba 3c3e bedf 90be 3c28 453d
00000180: 73de 0fbe 49d9 b2be 27ec b5be b905 11bf
00000190: 1363 6fbe 7ec5 1e3d 3767 0e3e 51cb e1bd
000001a0: bf75 2b3e 7b75 883e ac40 c2be c393 64be
000001b0: de58 a93e 7cac f13e 47d1 36bd 7165 4e3e
000001c0: 4ef6 bb3e c731 9fbd 42b7 19bc 9300 5d3e
000001d0: a385 0d3e 3bae 1c3f 82b8 b0be 4427 14be
000001e0: 952c c0be 500a 29bf eabf 16bf 34eb 07bf
000001f0: 9238 4c3f c6d1 2f3f 5841 703e 609f 1dbf
00000200: 1722 02be a9aa 243c ccd2 3fbd cf75 ebbd
00000210: b968 e2be 0e1e 423d 53a5 aa3e 0681 c7be
00000220: 7873 cbbe 7006 71be ab0d cf3e 4245 833e
00000230: 8575 773e 7ad2 a73e cf04 a33e 5b75 dbbd
00000240: 0941 a3be ff0b 7b3e 21a1 9cbc 7fa5 8bbd
00000250: 2209 80be a2ee 2bbf 207c ff3d f265 0dbd
00000260: 4051 d1bc 5917 423c bb9f a03e e5f1 363f
00000270: 60a1 943c 89bc 94be 9778 f03e 8d07 e93e
00000280: 934e f3bd baa2 813c 9614 c73e 87c8 e33e
00000290: 3d90 24bf ddc5 55be 5710 22bc 3f45 3ebe
000002a0: 0ea8 afbe ce2c 683e fc79 c4be 3c4c f5bc
000002b0: 5168 b53d 3aaf a63d 0363 43bf 5dce 5abf
000002c0: 3b98 383e b4e7 a93c dce9 15be 86ac 13bf
000002d0: f17b 5b3f 95a3 363c 8ac2 dcbe fe87 f8be
000002e0: b00f 6c3e 9090 b1be 2727 6a3f d019 073f
000002f0: be3d a53e 4886 1b3e 0f3f 8dbc 17dd a13d
00000300: 07eb 28bf 676f 21bf 657d 793f fc3c 23bf
00000310: e58b ee3d b954 983e b1f0 a33d be94 b2be

Mixer_Block.0.mlp_block_token_mixing.fc2.bias f4 [10]
-0.17656265 -0.2660225 0.6774348 -0.57685304 0.7342942 -0.5321637 0.51904184 -0.050898083
0.7133053 -0.23717032
00000000: d7cc 34be 1a34 88be 5e6c 2d3f a4ac 13bf
00000010: b4fa 3b3f e13b 08bf eddf 043f 827a 50bd
00000020: 2d9b 363f c7dc 72be

Mixer_Block.0.mlp_block_token_mixing_DynaMixerOperation.fc_ND.weight f4 [1, 66]
-0.044988252 0.0045323498 0.055452626 -0.005204922 0.05845686 0.048193768 -0.08083693 0.06183499
0.036704242 0.062028755 0.023292879 0.017496217 0.013893846 -0.058370687 -0.07018928 0.023484562
0.025664523 -0.008398838 -0.0042373277 -0.033111658 -0.04188168 -0.0049619186 -0.0331177 0.024696209
-0.028608207 0.024177717 -0.09179038 -0.07896858 0.09456322 0.026750037 -0.057070017 -0.015976526
0.017134111 0.053009044 -0.017757565 -0.015535962 -0.04237496 -0.101018004 -0.029285906 -0.059892785
0.0041960883 -0.034998413 -0.09415154 -0.026498895 0.022755748 -0.0027927046 0.113196924 0.0012563524
-0.023033261 -0.07392942 -0.025041474 -0.009337178 0.015359603 0.05294602 -0.02366 -0.030551426
0.051258676 -0.0023847057 -0.07274627 -0.01144281 0.032356564 -0.014231888 -0.05725642 -0.088946864
0.0071242987 -0.02499631
00000000: 9a45 38bd 1b84 943b 4b22 633d 0d8e aabb
00000010: 7670 6f3d d466 453d d58d a5bd b046 7d3d
00000020: 3057 163d dd11 7e3d b5d0 be3c 3a54 8f3c
00000030: 04a3 633c 1a16 6fbd 66bf 8fbd b262 c03c
00000040: 683e d23c 489b 09bc 48d9 8abb 17a0 07bd
00000050: 208c 2bbd 9797 a2bb 6da6 07bd b44f ca3c
00000060: c25b eabc 5910 c63c 98fc bbbd 47ba a1bd
00000070: 5daa c13d e522 db3c 40c2 69bd 34e1 82bc
00000080: d65c 8c3c 0320 593d 5078 91bc 8c8a 7ebc
00000090: 5e91 2dbd 87e2 cebd ffe8 efbc 2352 75bd
000000a0: 577f 893b 7f5a 0fbd 86d2 c0bd 3614 d9bc
000000b0: 436a ba3c cf05 37bb cad3 e73d 31ac a43a
000000c0: 40b0 bcbc 4f68 97bd c723 cdbc f7fa 18bc
000000d0: d8a6 7b3c eddd 583d 9ed2 c1bc fc46 fabc
000000e0: 9ef4 513d b948 1cbb fffb 94bd a07a 3bbc
000000f0: 5188 043d dd2c 69bc b585 6abd c629 b6bd
00000100: f372 e93b 10c5 ccbc

Mixer_Block.0.mlp_block_token_mixing_DynaMixerOperation.fc_Nd.weight f4 [100, 10]
0.11586674 -0.117265984 -0.0039262525 -0.16962577 -0.056765664 -0.112179086 -0.020988172 -0.098451175
0.13356295 -0.0013881313 0.03126486 -0.17225206 0.09214803 -0.0728085 -0.023091786 0.017265983
0.020745922 0.01518102 0.11099675 0.022713289 0.6704368 0.4947941 0.5651646 0.18532486
-0.24240094 -0.17801797 -0.38211495 -0.28155583 -0.17009383 -0.042318106 -0.22024208 0.08848333
-0.034076054 0.051568538 0.16146335 0.054856338 0.082507715 0.02017757 0.13376598 -0.108743064
0.19639365 0.42308646 0.2613565 -0.29005918 0.16113216 -0.03653378 -0.14330271 -0.05413318
-0.07526078 0.046263166 -0.34320182 0.10268376 -0.17870872 0.080429226 -0.18089375 0.25374216
-0.010624809 0.20179221 0.16687909 0.12601474 0.037873328 0.08962906 -0.13829643 -0.021144768
0.008084388 -0.14695603 0.2518754 -0.1642598 -0.03758493 0.21633478 -0.4407042 -0.07165634
-0.13673547 -0.035930865 -0.12522459 -0.0069015124 -0.020860028 0.23428532 0.3788763 0.04132352
-0.22580338 0.05462817 0.0566819 -0.022602813 -0.010521615 0.030012475 -0.058690067 -0.21340261
0.5560178 0.11910717 -0.17873706 0.062335245 -0.03398245 -0.13316275 -0.10205824 0.029105116
0.0690676 0.14148487 -0.02577319 0.25821957 -0.11802207 -0.18210872 -0.16984028 0.034940653
-0.13918196 -0.069253504 -0.006771227 0.028303921 -0.0018211172 -0.03308758 -0.23794986 -0.16246952
-0.19660331 -0.06453389 -0.20574443 -0.2867279 -0.2659295 -0.34642997 -0.14168006 -0.20735215
-0.014673276 -0.20314147 0.038318634 -0.27404267 -0.2285487 -0.09921257 0.0462855 0.27226943
-0.02576875 -0.2701897 0.5810664 0.22596623 0.17955482 0.43395734 0.2539957 -0.08151312
-0.5057022 -0.4013463 -0.49654716 -0.4714785 0.28977558 0.18310508 0.34187487 -0.16064833
0.51487064 0.1405882 0.11525182 0.22303392 -0.06396612 -0.05939424 0.09142342 -0.22243051
0.100826226 0.31914523 -0.2204372 0.3751626 -0.117264956 -0.034694918 0.02809951 -0.13704164
0.15808417 0.32426184 0.078191265 -0.03325948 -0.16738567 -0.038339667 0.50895506 0.19017066
0.2203534 0.08671115 -0.037804265 -0.11063236 -0.14752533 0.3970599 -0.18846266 -0.04292551
-0.108929195 -0.04533982 -0.025247633 -0.06462511 -0.060677815 -0.0575357 0.06305933 0.11018794
0.036405936 -0.09643108 -0.053751025 0.13241202 0.41725993 0.10236227 -0.04479034 0.0790373
0.057391006 0.13604532 -0.013568703 0.016685983 0.10449822 0.01884674 -0.11406407 0.13268726
0.101246424 0.20891502 0.043342885 0.10605289 -0.103686385 -0.14344977 -0.0134129105 -0.21288991
0.014284921 0.11096267 -0.2901707 -0.38154727 -0.157845 -0.047715854 -0.11850166 0.0050684367
0.01813309 -0.15636371 0.12545563 0.06806879 -0.1295881 -0.34103268 -0.3819029 -0.093658656
-0.25984505 -0.16451898 -0.06000664 -0.21834926 -0.032854963 -0.043060474 0.203055 0.08461595
-0.30244187 -0.49165422 -0.17512308 -0.0035224573 0.17937751 -0.14595886 0.15495631 -0.07019229
0.29420292 0.5053409 0.44444752 0.39937425 0.57641315 0.27591488 -0.06372974 -0.0735486
-0.06982304 -0.19831787 0.17515601 0.24988653 -0.10777123 0.03563189 -0.045595106 -0.06642185
00000000: 8b4b ed3d 2629 f0bd cba7 80bb 61b2 2dbe
00000010: 1d83 68bd 26be e5bd 63ef abbc c5a0 c9bd
00000020: bac4 083e f5f1 b5ba 950f 003d d862 30be
00000030: 1bb8 bc3d 9f1c 95bd fc2a bdbc 6471 8d3c
00000040: 5af3 a93c d0b9 783c 4452 e33d 3811 ba3c
00000050: bfa1 2b3f a755 fd3e a1ae 103f cdc5 3d3e
00000060: f437 78be 584a 36be 92a4 c3be 1628 90be
00000070: 142d 2ebe c055 2dbd 2487 61be c036 b53d
00000080: 5593 0bbd 8839 533d a656 253e 0ab1 603d
00000090: cef9 a83d 6e4b a53c f3f9 083e afb4 debd
000000a0: 6b1b 493e ca9e d83e 85d0 853e a382 94be
000000b0: d4ff 243e 72a4 15bd f2bd 12be c1ba 5dbd
000000c0: 5322 9abd 727e 3d3d 26b8 afbe dd4b d23d
000000d0: 6bff 36be 14b8 a43d 363c 39be 7eea 813e
000000e0: ae13 2ebc 9ea2 4e3e 5ae2 2a3e 020a 013e
000000f0: 1021 1b3d 718f b73d 949d 0dbe cb37 adbc
00000100: 6274 043c a47b 16be d0f5 803e b933 28be
00000110: a8f2 19bd dd86 5d3e fba3 e1be 8fc0 92bd
00000120: 6204 0cbe 3e2c 13bd e03a 00be 1526 e2bb
00000130: a6e2 aabc 7ee8 6f3e 13fc c13e da42 293d
00000140: 0039 67be cac1 5f3d 482b 683d 8929 b9bc
00000150: da62 2cbc b9dc f53c ff64 70bd 3786 5abe
00000160: 2f57 0e3f 76ee f33d d906 37be 3e53 7f3d
00000170: 2e31 0bbd d15b 08be e903 d1bd da6d ee3c
00000180: 5073 8d3d 69e1 103e 4c22 d3bc 5b35 843e
00000190: 8eb5 f1bd b57a 3abe 9cea 2dbe ee1d 0f3d
000001a0: b785 0ebe c8d4 8dbd 2be1 ddbb a0dd e73c
000001b0: 8eb2 eeba d886 07bd 21a9 73be 695e 26be
000001c0: 6152 49be 582a 84bd abae 52be 00ce 92be
000001d0: e927 88be 455f b1be 9414 11be 1f54 54be
000001e0: 2e68 70bc 5104 50be 00f4 1c3d 524f 8cbe
000001f0: ac08 6abe f62f cbbd dd95 3d3d e666 8b3e
00000200: fc18 d3bc 4e56 8abe c5c0 143f b163 673e
00000210: 38dd 373e a82f de3e b90b 823e 5af0 a6bd
00000220: b375 01bf 437d cdbe 6e3b febe a165 f1be
00000230: 775d 943e e67f 3b3e 390a af3e ff80 24be
00000240: 90ce 033f 5af6 0f3e 2509 ec3d 0163 643e
00000250: ab00 83bd 6047 73bd 343c bb3d d3c4 63be
00000260: fb7d ce3d 0167 a33e 4aba 61be 5015 c03e
00000270: 9c28 f0bd 421c 0ebd f230 e63c a554 0cbe
00000280: d1e0 213e a605 a63e be22 a03d 183b 08bd
00000290: 2667 2bbe 0e0a 1dbd e14a 023f 19bc 423e
000002a0: 52a4 613e 9e95 b13d a5d8 1abd 3893 e2bd
000002b0: e110 17be 6f4b cb3e 5bfc 40be a9d2 2fbd
000002c0: 4516 dfbd 3fb6 39bd 20d4 cebc 2b5a 84bd
000002d0: 4d89 78bd 8eaa 6bbd 4025 813d 37aa e13d
000002e0: 641e 153d a87d c5bd 092a 5cbd 0497 073e
000002f0: 18a3 d53e 4fa3 d13d 1376 37bd 4fde a13d
00000300: d512 6b3d 774f 0b3e 444f 5ebc 0bb1 883c
00000310: 2a03 d63d 7a64 9a3c 6c9a e9bd 2bdf 073e
00000320: 495a cf3d d2ed 553e 4f88 313d 4232 d93d
00000330: 8759 d4bd 7fe4 12be d3c1 5bbc d0ff 59be
00000340: 4d0b 6a3c 6540 e33d 4191 94be 2a5a c3be
00000350: 1fa2 21be b371 43bd 00b1 f2bd 2115 a63b
00000360: d98b 943c cf1d 20be 7177 003e a667 8b3d
00000370: beb2 04be d69b aebe c788 c3be 1cd0 bfbd
00000380: 690a 85be aa77 28be 86c9 75bd f396 5fbe
00000390: ed92 06bd 2e60 30bd a6ed 4f3e 214b ad3d
000003a0: a9d9 9abe 1aba fbbe 7753 33be 07d9 66bb
000003b0: bdae 373e 3d76 15be deac 1e3e fac0 8fbd
000003c0: c4a1 963e 055e 013f a08e e33e c87a cc3e
000003d0: d08f 133f b744 8d3e bd84 82bd a6a0 96bd
000003e0: 62ff 8ebd d713 4bbe 195c 333e 41e2 7f3e
000003f0: 2ab7 dcbd bff2 113d efc1 3abd 2e08 88bd

Mixer_Block.0.mlp_block_token_mixing_DynaMixerOperation.fc_Nd.bias f4 [100]
0.05942171 0.58423936 -0.89826125 0.183731 -0.40793973 0.31191713 -0.33033508 -0.22823384
-0.121424094 -0.11489787 0.55008584 -0.0670641 -0.21128853 -0.08720177 -0.4893019 0.09453062
-0.58818525 -0.30994335 -0.41122127 -0.05053392 -0.32722148 0.2776329 0.32138118 -0.26470506
0.22104557 -0.077833004 0.10810073 -0.44137812 -0.03183279 -0.030653829 0.32818383 -0.26135814
0.5364556 -0.22597533 0.045604017 -0.63624793 -0.17137119 -0.057260696 -0.2556521 -0.3150951
0.6033748 -0.13828796 -0.50581115 0.2480945 0.23236947 0.16293947 -0.17172885 0.07963225
0.13542698 -0.22857551 0.19239928 -0.05795027 -0.13618751 -0.58003956 0.20133 0.477052
-0.033740535 -0.56619895 0.21304278 -0.17476873 -0.3977988 0.14824243 -0.5563527 -0.038191605
-0.59742355 0.22854516 0.25130442 -0.18046057 0.039591294 0.04808993 -0.6040481 0.3724122
0.018526467 0.29907358 0.27075765 -0.201696 0.11336025 0.18592913 0.18081765 0.13139796
0.1747518 -0.65077955 -0.010453596 -0.1732197 0.042774808 -0.21535602 0.074335285 0.070977785
0.42064056 0.06576601 -0.52288115 -0.2703001 0.11542794 -0.3081218 -0.16907474 -0.03001283
0.033061326 -0.038710423 -0.18548267 -0.14637211
00000000: 2e64 733d b690 153f 73f4 65bf fb23 3c3e
00000010: 7add d0be 9ab3 9f3e ae21 a9be 22b6 69be
00000020: 32ad f8bd 934f ebbd 6dd2 0c3f e758 89bd
00000030: 055c 58be d796 b2bd c785 fabe 4599 c13d
00000040: 4f93 16bf e5b0 9ebe 988b d2be a8fc 4ebd
00000050: 9389 a7be e625 8e3e 138c a43e 6c87 87be
00000060: c559 623e e966 9fbd ea63 dd3d 50fc e1be
00000070: 1963 02bd bd1d fbbc b607 a83e bcd0 85be
00000080: 2755 093f 1466 67be 47cb 3a3d 25e1 22bf
00000090: ee7b 2fbe 318a 6abd d5e4 82be 2554 a1be
000000a0: c576 1a3f 5c9b 0dbe d77c 01bf 7c0c 7e3e
000000b0: 43f2 6d3e 9bd9 263e b0d9 2fbe 3c16 a33d
000000c0: 5fad 0a3e b30f 6abe 5104 453e 435d 6dbd
000000d0: bd74 0bbe 797d 14bf 7429 4e3e 2940 f43e
000000e0: 8433 0abd 6af2 10bf e327 5a3e 93f6 32be
000000f0: 49ac cbbe ddcc 173e 216d 0ebf cd6e 1cbd
00000100: c0f0 18bf be07 6a3e f9aa 803e a8ca 38be
00000110: 7b2a 223d f2f9 443d e5a2 1abf d0ac be3e
00000120: d1c4 973c 2c20 993e bfa0 8a3e 6589 4ebe
00000130: 6b29 e83d 3564 3e3e 4328 393e 308d 063e
00000140: 23f2 323e 7d99 26bf 8f45 2bbc 8160 31be
00000150: a334 2f3d 4a86 5cbe 193d 983d cd5c 913d
00000160: 335e d73e 54b0 863d 8adb 05bf c664 8abe
00000170: 7c65 ec3d 24c2 9dbe ee21 2dbe 77dd f5bc
00000180: 506b 073d d28e 1ebd 2bef 3dbe 92e2 15be

Mixer_Block.0.mlp_block_token_mixing_DynaMixerOperation.fc_out.weight f4 [66, 66]
-0.8055313 0.075559296 -0.036526576 0.16124424 0.2571649 0.012724848 -0.028157303 0.25172895
-0.14675006 0.15341479 0.09561233 0.02460542 0.045452263 -0.033496242 -0.17215155 0.06992933
-0.07778213 0.29293066 0.005000786 0.020575596 0.02058352 -0.030826716 -0.21750715 0.17090258
0.18921182 0.14079422 -0.09930054 0.29412892 0.022948137 -0.26031756 -0.2679904 0.1888897
-0.20943475 0.06731934 -0.2053275 -0.025139572 0.014672401 -0.12822096 0.21130452 -0.050661895
0.074662015 -0.15409277 -0.20754594 0.34655166 0.011850902 0.18657777 0.05021488 0.10063828
-0.24276142 -0.21870199 -0.37254277 -0.13301216 -0.10253187 0.17791238 0.29304522 -0.15952471
0.14369471 0.0032551845 0.13176258 -0.22523613 0.04908197 0.037670802 0.0103603555 0.03543504
0.06347573 0.04617958 -0.23718393 -0.47808722 0.10269847 0.08395579 0.010370454 0.03801363
-0.007231914 -0.28037766 0.110706516 0.10731392 0.27555656 -0.051789545 0.23565033 0.10238979
0.039429005 -0.0041671237 -0.24801636 -0.040318403 -0.013615401 -0.13286997 0.065708816 -0.18300243
-0.24435203 -0.10909951 0.041919626 -0.22810332 -0.025320675 0.041637287 0.0014170873 0.076499484
-0.2542677 0.20610629 0.109325916 0.16738774 0.092418216 -0.01898946 -0.07821662 0.19798213
0.12834597 0.0011798111 0.012192908 0.16202071 -0.08457904 -0.15668423 -0.15535784 -0.14548665
-0.027753547 -0.053759992 -0.24186036 0.17259534 0.19323134 0.04932612 0.01570202 -0.07965193
0.022749167 0.2423449 -0.10820697 0.14518858 0.11085464 0.13922119 0.058092806 0.057640903
0.061717395 0.118014 -0.24457389 -0.3490465 0.087016694 0.10578425 -0.5738851 -0.09952304
0.02387069 -0.17030662 -0.10546098 -0.19014344 0.00810644 -0.02102074 -0.065319665 -0.21681926
0.1209154 -0.18563882 0.17317875 -0.25297192 0.08551878 0.1127465 0.08405655 0.14169188
0.0079338215 0.1278991 0.061952632 0.32673362 -0.1693713 -0.077390835 0.18193938 0.05965981
-0.01072819 -0.1516507 0.21203764 0.053319607 0.1083057 -0.12690328 -0.2134991 0.18209176
0.04840592 -0.045392405 0.16551347 0.05490808 0.039282423 0.13174702 -0.14919284 0.22204797
-0.028470894 -0.18180428 0.011846633 -0.06415936 -0.19766329 0.111231476 -0.17864509 0.16980296
0.20109211 0.02609923 0.18269777 0.082093835 -0.053242426 0.0372968 -0.051499803 -0.10190225
-0.018983299 0.16621913 -0.0627499 -0.041659564 0.12249675 0.19285756 0.20681725 -0.119549096
-0.2471388 -0.5191985 -0.09771658 -0.28216904 -0.014179218 0.1893438 0.008129537 -0.06570696
-0.30604774 -0.023019807 0.06214994 0.042723414 -0.04553211 -0.1952096 -0.05846653 -0.0013796905
0.17023157 -0.013522787 0.14325888 0.19980581 0.39514914 0.122908406 0.097054794 0.07703069
0.39380985 0.059400752 0.045123838 -0.057431504 0.14517382 -0.19076107 0.038321268 0.0490334
-0.09905868 0.05530558 0.2689838 0.18498273 -0.010170647 -0.13498442 -0.26295194 0.11040065
-0.12993176 0.07759606 -0.060582355 0.019071255 -0.05629529 0.07024132 -0.051113695 0.19002491
0.058395226 -0.00079666724 -0.11212445 0.19820218 -0.109478146 0.020183383 -0.11513056 -0.018405782
00000000: 4d37 4ebf d5be 9a3d e49c 15bd 361d 253e
00000010: 1eab 833e e27b 503c 25aa e6bc 9ee2 803e
00000020: a645 16be c418 1d3e 66d0 c33d 4e91 c93c
00000030: 272c 3a3d 5b33 09bd 7f48 30be 1c37 8f3d
00000040: 3d4c 9fbd 02fb 953e a2dd a33b 278e a83c
00000050: c59e a83c 4f88 fcbc 32ba 5ebe 1601 2f3e
00000060: bec0 413e 5c2c 103e 155e cbbd 1198 963e
00000070: bbfd bb3c 5848 85be 0a36 89be 4d6c 413e
00000080: 1076 56be b9de 893d 5f41 52be 81f1 cdbc
00000090: 8364 703c 5b4c 03be 3660 583e d982 4fbd
000000a0: 66e8 983d 7fca 1dbe ec86 54be 386f b13e
000000b0: 492a 423c 3e0e 3f3e 1eae 4d3d 711b ce3d
000000c0: 7396 78be 6af3 5fbe edbd bebe 5734 08be
000000d0: 3bfc d1bd aa2e 363e 060a 963e 725a 23be
000000e0: b524 133e ef54 553b c5ec 063e 4da4 66be
000000f0: 2d0a 493d b34c 1a3d 7bbe 293c 5524 113d
00000100: 90ff 813d cd26 3d3d 58e0 72be d9c7 f4be
00000110: 9353 d23d 03f1 ab3d d6e8 293c 2eb4 1b3d
00000120: b1f9 ecbb a98d 8fbe 19ba e23d 67c7 db3d
00000130: c015 8d3e 4621 54bd 524e 713e bdb1 d13d
00000140: 4f80 213d 5e8c 88bb 00f8 7dbe e924 25bd
00000150: 2213 5fbc 110f 08be 5892 863d fd64 3bbe
00000160: 6b37 7abe 906f dfbd eab3 2b3d eb93 69be
00000170: 4e6d cfbc dc8b 2a3d 8fbd b93a c3ab 9c3d
00000180: 602f 82be 870d 533e 44e6 df3d b167 2b3e
00000190: c345 bd3d c98f 9bbc 0930 a0bd d4bb 4a3e
000001a0: 206d 033e e4a3 9a3a c3c4 473c c2e8 253e
000001b0: c737 adbd d571 20be 2016 1fbe 74fa 14be
000001c0: 685b e3bc 7033 5cbd 3eaa 77be d5bc 303e
000001d0: 70de 453e 300a 4a3d 86a1 803c 8d20 a3bd
000001e0: 765c ba3c 4329 783e 9e9b ddbd 51ac 143e
000001f0: c207 e33d 0090 0e3e b9f2 6d3d de18 6c3d
00000200: 61cb 7c3d 53b1 f13d 9471 7abe 39b6 b2be
00000210: cf35 b23d 6aa5 d83d 22ea 12bf bcd2 cbbd
00000220: 778c c33c dc64 2ebe edfb d7bd f6b4 42be
00000230: e0d0 043c b033 acbc 51c6 85bd de05 5ebe
00000240: 7ea2 f73d 1a18 3ebe c555 313e 8985 81be
00000250: 7824 af3d a3e7 e63d d725 ac3d ad17 113e
00000260: dcfc 013c fbf7 023e 0bc2 7d3d a149 a73e
00000270: ac6f 2dbe 167f 9ebd 514e 3a3e d85d 743d
00000280: 4ac5 2fbc 524a 1bbe 6520 593e a965 5a3d
00000290: 61cf dd3d eff2 01be 829f 5abe 4376 3a3e
000002a0: 4945 463d 63ed 39bd 5d7c 293e 4be7 603d
000002b0: 9be6 203d b1e8 063e 02c6 18be 8b60 633e
000002c0: cb3b e9bc e72a 3abe 6118 423c fc65 83bd
000002d0: 3f68 4abe 54cd e33d bdee 36be d4e0 2d3e
000002e0: 17eb 4d3e 0dce d53c 2015 3b3e d020 a83d
000002f0: bb14 5abd 88c4 183d 75f1 52bd 20b2 d0bd
00000300: dd82 9bbc 5935 2a3e 0583 80bd 38a3 2abd
00000310: 93df fa3d 747c 453e e7c7 533e 28d6 f4bd
00000320: f411 7dbe 31ea 04bf a11f c8bd 7678 90be
00000330: f34f 68bc 57e3 413e c031 053c 5f91 86bd
00000340: 4ab2 9cbe 0994 bcbc ef90 7e3d bffe 2e3d
00000350: e17f 3abd 06e5 47be 9a7a 6fbd bbd6 b4ba
00000360: 2f51 2e3e ae8e 5dbc 75b2 123e e599 4c3e
00000370: fd50 ca3e 67b7 fb3d aac4 c63d 44c2 9d3d
00000380: 72a1 c93e 344e 733d c6d3 383d 4c3d 6bbd
00000390: 72a8 143e df56 43be c3f6 1c3d 3fd7 483d
000003a0: 47df cabd 1b88 623d 3fb8 893e 1d6c 3d3e
000003b0: c9a2 26bc 5b39 0abe a3a1 86be bc19 e23d
000003c0: d50c 05be afea 9e3d 3425 78bd 523b 9c3c
000003d0: e495 66bd aeda 8f3d 985c 51bd e495 423e
000003e0: d52f 6f3d 6fd7 50ba 81a1 e5bd 83f5 4a3e
000003f0: 1436 e0bd 9f57 a53c 92c9 ebbd b9c7 96bc

Mixer_Block.0.mlp_block_token_mixing_DynaMixerOperation.fc_out.bias f4 [66]
0.15969089 0.3200567 0.3177505 -0.35214162 -0.25793272 -0.359803 -0.22545564 0.17228737
0.10830109 0.05250663 0.084727 0.25204653 -0.049939677 -0.28377596 0.19770607 0.13635431
-0.023147453 -0.29342848 -0.27830118 -0.22632752 -0.24825743 0.22231877 -0.22227827 -0.11822665
-0.03913224 -0.0066224555 0.5451562 0.104108326 0.34427547 -0.15961422 -0.21490048 0.43892825
-0.27736437 0.045468297 0.5320592 -0.050825525 0.13128279 -0.103905685 -0.055249497 -0.17771128
-0.3888615 0.18375218 0.23296262 -0.07645418 -0.36042845 0.027650066 0.27876055 0.42101675
0.09222037 -0.2643943 0.048219655 -0.46373403 -0.35277125 0.085927 -0.23733906 -0.06289618
0.13975525 -0.06549527 -0.25282493 0.41942006 -0.2835555 0.13894378 -0.18800595 -0.05818567
-0.42851847 0.09632173
00000000: 0286 233e 79de a33e 32b0 a23e e84b b4be
00000010: c20f 84be 1938 b8be d8dd 66be 1a6c 303e
00000020: f6cc dd3d 3111 573d 5985 ad3d 3e0c 813e
00000030: 8c8d 4cbd 154b 91be 7673 4a3e 77a0 0b3e
00000040: ba9f bdbc 423c 96be 7e7d 8ebe 67c2 67be
00000050: 3237 7ebe 88a7 633e ea9c 63be d020 f2bd
00000060: 2149 20bd 2f01 d9bb 5b8f 0b3f bf36 d53d
00000070: e044 b03e e971 23be df0e 5cbe 34bb e03e
00000080: b402 8ebe f73c 3a3d 0835 083f 6d2e 50bd
00000090: ff6e 063e 81cc d4bd 4c4d 62bd f2f9 35be
000000a0: db18 c7be 8829 3c3e c18d 6e3e 0294 9cbd
000000b0: 148a b8be 6482 e23c b4b9 8e3e 828f d73e
000000c0: 09de bc3d b15e 87be f981 453d 8c6e edbe
000000d0: 6f9e b4be 7ffa af3d 0309 73be b6cf 80bd
000000e0: 001c 0f3e 6222 86bd 4572 81be 3abe d63e
000000f0: 302e 91be 4747 0e3e a284 40be 1954 6ebd
00000100: c666 dbbe 5444 c53d

Mixer_Block.0.mlp_block_token_mixing_DynaMixerOperation.LN.weight f4 [10]
1.5362529 1.4058969 1.103469 0.92792124 0.88133657 0.5988413 0.7008321 0.82304573
0.9097219 0.7837901
00000000: efa3 c43f 6ef4 b33f 793e 8d3f 3f8c 6d3f
00000010: 469f 613f aa4d 193f bc69 333f 20b3 523f
00000020: 89e3 683f 78a6 483f

Mixer_Block.0.mlp_block_token_mixing_DynaMixerOperation.LN.bias f4 [10]
0.29442713 0.30121267 0.06423112 0.23502645 -0.08244455 -0.35927743 -0.37606716 -0.048674647
-0.22487497 0.19475766
00000000: 27bf 963e 8c38 9a3e 9b8b 833d c6aa 703e
00000010: b0d8 a8bd 36f3 b7be e08b c0be 115f 47bd
00000020: a045 66be 8d6e 473e

Mixer_Block.0.mlp_block_channel_mixing_DynaMixerOperation.fc_ND.weight f4 [1, 10]
-0.636678 -0.30556992 0.14023545 0.11719979 0.25852454 0.110904954 0.026130488 -0.10589933
0.12710664 -0.034758184
00000000: 54fd 22bf a973 9cbe e299 0f3e 7206 f03d
00000010: 545d 843e 2322 e33d 9b0f d63c bfe1 d8bd
00000020: 3e28 023e 995e 0ebd

Mixer_Block.0.mlp_block_channel_mixing_DynaMixerOperation.fc_Nd.weight f4 [484, 22]
-0.17277017 0.13005757 -0.03266579 0.15732613 0.2503682 -0.16890854 -0.072907075 -0.1276042
-0.17698418 0.31741196 -0.20539674 0.01452112 0.3437311 -0.36069143 0.06383806 0.14111036
0.11926716 -0.25551924 -0.16944622 0.07140128 -0.24857755 -0.036289416 -0.33512184 0.036463365
-0.18950638 0.21847971 0.23759297 0.090792306 0.06315809 -0.24781235 0.009102301 0.08834842
0.12633649 -0.32484403 0.11570377 -0.048831437 0.036106914 -0.37932432 0.16810866 -0.27125418
-0.10726256 -0.033600155 0.17932041 0.15533955 -0.0371383 0.13023585 -0.16771844 0.049886543
-0.015346837 -0.08650647 0.11448503 0.15415244 -0.05706445 -0.16937484 0.06148416 -0.47545376
0.13453774 0.1518147 0.27834946 0.2868851 -0.04339404 0.059092227 0.33232382 0.0727951
-0.2540822 0.19961788 0.31031084 0.29839304 0.189061 -0.07506935 0.03993969 -0.1250428
0.019352067 -0.01020612 -0.23019268 0.1593071 0.04786796 0.31093857 0.32340267 -0.047214624
0.10134228 0.06913282 0.10291632 0.026451144 0.13715449 -0.19242895 -0.08968616 -0.19471514
-0.007394342 0.23858395 -0.30713654 -0.11064171 -0.08250962 -0.15495959 -0.019340886 0.104810886
0.105246745 -0.22742063 0.25521186 0.07556434 -0.32085928 0.012731939 -0.13340048 0.25917467
0.39496613 -0.15116581 -0.19416052 0.03775004 0.16319562 -0.15615818 0.061804783 0.15915108
-0.11005395 -0.14103949 0.09349124 0.13964458 -0.316073 -0.3895742 0.0009427067 -0.11159324
-0.06309261 -0.1735121 -0.10187647 0.10720962 -0.06941331 -0.350147 0.3265806 -0.077542484
-0.45740792 -0.10558397 -0.049611688 0.1683518 0.3669638 0.28503525 -0.23643623 0.008147187
0.13282931 0.14001372 0.17095828 0.112195 0.12682487 -0.14076981 -0.4170092 -0.29489195
0.07758815 0.23253928 -0.27738664 0.37365046 -0.27063125 0.29289794 -0.049485452 0.02625445
0.07046929 0.062261242 0.17500053 0.02451927 0.22150446 -0.15414216 0.21226835 0.19690597
-0.12592328 -0.40613067 -0.11187868 -0.16160648 0.052903358 -0.09833561 0.12853271 -0.36249307
-0.10133021 -0.21930104 -0.17044896 -0.10257249 -0.17499395 -0.16875294 0.32350075 -0.0696022
0.04068387 0.06999608 -0.1297918 -0.06576008 0.10709721 -0.35889608 0.15725762 0.40815654
-0.23829448 0.09433753 -0.17964609 0.16464081 -0.06600457 0.14106278 -0.15485395 0.019736782
0.0740498 0.08847483 0.17938955 -0.109940946 0.17833205 -0.026127977 -0.06432892 0.061684277
-0.06540651 -0.24877428 0.0103231035 -0.02937523 0.0362384 0.12810859 -0.12224164 0.3416257
0.12074249 -0.10801042 -0.31703046 -0.10115974 -0.12951311 -0.21518025 0.07655691 0.3019695
-0.20474261 0.08127131 -0.4565587 0.20830047 -0.18499526 -0.3583334 -0.16962086 0.10970038
-0.031053824 0.2557061 0.2059099 -0.054404125 0.18093832 0.112606 0.029182931 -0.039264094
0.17223346 0.29372695 -0.30093303 -0.030702021 -0.060518693 -0.17040369 -0.10578469 -0.078028016
-0.11426843 -0.15276092 0.27152967 0.19488408 -0.10565858 -0.05878938 0.05543751 -0.038706213
0.32011667 0.30796298 -0.009836923 -0.050961535 -0.08121623 -0.0084688915 0.031228555 0.10255736
00000000: aaea 30be d02d 053e 90cc 05bd 1a1a 213e
00000010: 4330 803e 5cf6 2cbe 4e50 95bd adaa 02be
00000020: 573b 35be d283 a23e 8653 52be fee9 6d3c
00000030: 86fd af3e 8cac b8be 87bd 823d 3c7f 103e
00000040: 5742 f43d 6bd3 82be 4f83 2dbe d63a 923d
00000050: 1d8b 7ebe 36a4 14bd 1795 abbe 9c5a 153d
00000060: f60d 42be 25b9 5f3e 924b 733e 51f1 b93d
00000070: 0759 813d 85c2 7dbe d121 153c 04f0 b43d
00000080: 5a5e 013e f551 a6be 19f6 ec3d 7903 48bd
00000090: d8e4 133d cc36 c2be ad24 2c3e d4e1 8abe
000000a0: 79ac dbbd 51a0 09bd c59f 373e 5511 1f3e
000000b0: 541e 18bd 8c5c 053e 62be 2bbe d555 4c3d
000000c0: 4d71 7bbc 4e2a b1bd 2177 ea3d 23da 1d3e
000000d0: 6abc 69bd 9970 2dbe d1d6 7b3d ad6e f3be
000000e0: 43c4 093e 5075 1b3e d283 8e3e 9be2 923e
000000f0: f3bd 31bd b10a 723d 5926 aa3e 9915 953d
00000100: 1017 82be a168 4c3e 10e1 9e3e f9c6 983e
00000110: 3599 413e f6bd 99bd cd97 233d 380b 00be
00000120: 3a88 9e3c 9237 27bc a1b7 6bbe 6721 233e
00000130: 3211 443d 5733 9f3e 0995 a53e 1f64 41bd
00000140: 8b8c cf3d 8295 8d3d cbc5 d23d 12b0 d83c
00000150: 3a72 0c3e 180c 45be 61ad b7bd 6863 47be
00000160: 3d4c f2bb 5a4f 743e 0041 9dbe 1f98 e2bd
00000170: cefa a8bd baad 1ebe c770 9ebc 17a7 d63d
00000180: 9b8b d73d f4e0 68be 21ab 823e 7ac1 9a3d
00000190: ab47 a4be 9f99 503c 239a 08be 8bb2 843e
000001a0: 0039 ca3e 36cb 1abe 04d2 46be c99f 1a3d
000001b0: c11c 273e eee7 1fbe 0327 7d3d 80f8 223e
000001c0: f763 e1bd a86c 10be 5678 bf3d fdfe 0e3e
000001d0: 52d4 a1be 4576 c7be fa1f 773a ff8a e4bd
000001e0: b336 81bd 28ad 31be 9ca4 d0bd b890 db3d
000001f0: 9128 8ebd 7846 b3be 9335 a73e 98ce 9ebd
00000200: 5f31 eabe 693c d8bd a035 4bbd 6a64 2c3e
00000210: aee2 bb3e 24f0 913e 571c 72be c77b 053c
00000220: 6804 083e c25f 0f3e b00f 2f3e 7ec6 e53d
00000230: 61de 013e f625 10be 3b82 d5be 14fc 96be
00000240: 89e6 9e3d c71e 6e3e 9f05 8ebe 1d4f bf3e
00000250: 2e90 8abe b8f6 953e 42b1 4abd 9313 d73c
00000260: 3452 903d a505 7f3d 5733 333e a3dc c83c
00000270: 11d2 623e 71d7 1dbe e05c 593e b8a1 493e
00000280: 08f2 00be 5cf0 cfbe a620 e5bd 2b7c 25be
00000290: 31b1 583d 2e64 c9bd 149e 033e b198 b9be
000002a0: 3786 cfbd 7490 60be 2c8a 2ebe 8711 d2bd
000002b0: 9d31 33be 92cd 2cbe e4a1 a53e 998b 8ebd
000002c0: 21a4 263d 1b5a 8f3d 24e8 04be 39ad 86bd
000002d0: c855 db3d 3ac1 b7be 2408 213e e5f9 d03e
000002e0: 7803 74be 0934 c13d 25f5 37be 9a97 283e
000002f0: 672d 87bd c372 103e 0992 1ebe 08af a13c
00000300: 6ca7 973d 4b32 b53d e5b1 373e b828 e1bd
00000310: ad9c 363e 570a d6bc e1be 83bd a7a8 7c3d
00000320: d9f3 85bd afbe 7ebe 3c22 293c 53a4 f0bc
00000330: b76e 143d e62e 033e d359 fabd 90e9 ae3e
00000340: d747 f73d 9134 ddbd d151 a2be d62c cfbd
00000350: 169f 04be 3658 5cbe dfc9 9c3d bf9b 9a3e
00000360: 0ca8 51be 9371 a63d 10c2 e9be b84c 553e
00000370: 666f 3dbe 7a77 b7be 17b1 2dbe 98aa e03d
00000380: 9764 febc e9eb 823e 0bda 523e dcd6 5ebd
00000390: e547 393e f99d e63d 0b11 ef3c 63d3 20bd
000003a0: f85d 303e 6163 963e e513 9abe ce82 fbbc
000003b0: 73e2 77bd 4e7e 2ebe a5a5 d8bd 27cd 9fbd
000003c0: 9105 eabd 5c6d 1cbe f005 8b3e b18f 473e
000003d0: 8763 d8bd 22cd 70bd 7112 633d 688a 1ebd
000003e0: 55e6 a33e 53ad 9d3e 0c2b 21bc 0bbd 50bd
000003f0: b254 a6bd 1bc1 0abc 07d3 ff3c 9809 d23d

Mixer_Block.0.mlp_block_channel_mixing_DynaMixerOperation.fc_Nd.bias f4 [484]
-0.033286322 -0.082172394 0.25135332 -0.21323842 -0.04254791 0.06079164 0.115777604 -0.23129839
0.08628522 0.090110265 0.13157658 0.35181314 -0.29234755 0.16051759 0.022570355 0.1392729
0.19565022 0.28756842 0.33896208 0.07416386 0.18512118 0.092635594 -0.030714449 0.2361015
-0.2884399 0.24337345 0.13454823 -0.26810434 0.22918294 0.16555911 0.31050712 -0.061038043
-0.26708692 0.3152245 -0.034923475 -0.13611513 0.015765399 -0.04308401 -0.22149831 0.026574431
-0.2744486 0.35486436 -0.28436452 -0.16335346 -0.016855141 -0.17206754 0.17505175 -0.3061357
-0.052474756 -0.032527797 -0.3059827 -0.31282008 0.011687683 0.23149207 -0.023575893 0.1501684
-0.29402244 0.064327925 -0.40571955 0.23905228 0.1988453 0.028628059 0.047198594 0.017774753
0.52530545 0.22639997 0.20746045 0.35591024 -0.013109471 0.17640336 0.23785576 0.013106044
0.06732729 -0.014900276 -0.20839795 -0.20712033 0.23079929 -0.32238504 0.3532796 0.053145852
0.009141943 -0.014918077 -0.27542323 0.2643333 -0.010674819 -0.26797828 -0.21888502 -0.63305616
-0.07256542 -0.23711926 -0.21029565 -0.12264095 -0.03770941 0.085391656 0.058201645 -0.2756729
-0.12316219 -0.06948555 -0.05091273 0.17211273 -0.29036698 0.1136099 0.085324734 0.036932964
0.011703756 -0.12905376 -0.11288488 0.2350668 0.15845111 0.03311144 0.10823879 0.20396076
0.22073314 0.22921515 -0.04874203 -0.12487702 0.23073679 -0.02263017 0.2629142 0.07029875
-0.3671114 -0.02046864 -0.10569981 0.12408922 0.13197064 0.31989008 -0.14665778 0.22346644
0.112596974 0.11393337 0.06422817 0.09576585 0.026224213 -0.114916325 -0.072975606 -0.35769537
-0.1583077 -0.07219557 -0.30001992 -0.13286468 0.064377286 -0.014676002 0.00575839 -0.0041722204
-0.07351445 -0.0985299 -0.13295159 0.34251708 0.3416473 0.014842448 0.13440685 0.18625969
0.070905104 0.24929689 -0.23629229 -0.037541647 0.08676796 -0.3405107 0.08826377 -0.17880733
0.00983765 -0.1740652 0.27535883 0.14520991 0.28004345 0.12330298 -0.23460649 0.07760264
-0.33880088 0.32648677 0.38828614 0.1378615 0.050063804 -0.16186875 0.2567338 0.34390944
-0.09790075 0.008139181 0.20879573 0.07293199 0.19876765 -0.03432114 0.31492874 0.16313444
0.19761899 -0.13688454 -0.05590205 0.017312877 0.18173184 0.110991016 -0.0796957 0.12123048
-0.15499176 -0.04230983 0.20587233 -0.24307823 0.14954126 -0.3883576 -0.13365477 0.09531652
0.039711468 -0.48739707 -0.29047027 -0.07313754 -0.24638103 -0.30280173 0.044244576 0.24065152
0.13148138 0.24070415 -0.20987995 -0.12095882 -0.27285498 0.35531923 0.254195 0.15123975
0.59183186 0.043500427 0.2203639 0.27326292 0.2901418 0.43071106 -0.17422251 -0.26582617
0.024187904 -0.14365059 0.115765974 0.0113078505 0.0355641 0.08620828 0.039240275 0.15172441
0.27900144 -0.10983416 -0.003669657 0.08122947 -0.03938668 0.032843772 -0.10450429 0.1782842
-0.1760254 -0.10118523 -0.124749035 0.18921933 -0.29882035 0.1475083 0.0122761885 -0.35801283
0.11476393 0.041967575 -0.1433048 0.023009414 0.0076049166 0.12415618 0.016458154 -0.2597756
00000000: 3d57 08bd 004a a8bd 62b1 803e 2c5b 5abe
00000010: b846 2ebd a800 793d cf1c ed3d 7cd9 6cbe
00000020: 4eb6 b03d bb8b b83d 03bc 063e da20 b43e
00000030: 94ae 95be b95e 243e 77e5 b83c 8e9d 0e3e
00000040: 8858 483e 2b3c 933e 708c ad3e 39e3 973d
00000050: 6890 3d3e bbb7 bd3d de9c fbbc 97c4 713e
00000060: 65ae 93be e436 793e 03c7 093e f944 89be
00000070: efae 6a3e 5488 293e cafa 9e3e 0703 7abd
00000080: 9ebf 88be 1b65 a13e eb0b 0fbd c461 0bbe
00000090: 7026 813c dc78 30bd 74d0 62be 9fb2 d93c
000000a0: 8784 8cbe c8b0 b53e 3a98 91be 2146 27be
000000b0: cb13 8abc 7932 30be c440 333e d2bd 9cbe
000000c0: c5ef 56bd de3b 05bd c4a9 9cbe f429 a0be
000000d0: b27d 3f3c 420c 6d3e 3b22 c1bc bfc5 193e
000000e0: 1c8a 96be 5cbe 833d 79ba cfbe 1fca 743e
000000f0: 1a9e 4b3e 6485 ea3c 5053 413d 5c9c 913c
00000100: 6b7a 063f 65d5 673e 8370 543e de39 b63e
00000110: 1bc9 56bc 15a3 343e 7690 733e bcba 563c
00000120: e4e2 893d 4a20 74bc 4666 55be 5a17 54be
00000130: a656 6c3e a70f a5be 10e1 b43e 77af 593d
00000140: 17c8 153c f36a 74bc 4604 8dbe b256 873e
00000150: 70e5 2ebc 7334 89be 6523 60be f80f 22bf
00000160: 2e9d 94bd 64cf 72be be57 57be 2e2b fbbd
00000170: 2f75 1abd d2e1 ae3d d964 6e3d 0025 8dbe
00000180: 753c fcbd 714e 8ebd de89 50bd 523e 303e
00000190: fbaa 94be 4fac e83d bcbe ae3d 0547 173d
000001a0: 1cc1 3f3c ab26 04be 3030 e7bd 5ab5 703e
000001b0: 0241 223e dc9f 073d 4cac dd3d 17db 503e
000001c0: de07 623e 60b7 6a3e b9a5 47bd 86bf ffbd
000001d0: 4446 6c3e e862 b9bc b19c 863e cbf8 8f3d
000001e0: 07f6 bbbe d9ad a7bc 2479 d8bd 7d22 fe3d
000001f0: 5023 073e a2c8 a33e 752d 16be 63d4 643e
00000200: 3e99 e63d e655 e93d 0f8a 833d e320 c43d
00000210: 29d4 d63c 4059 ebbd 3c74 95bd d923 b7be
00000220: 6a1b 22be 45db 93bd 369c 99be ae0d 08be
00000230: 3dd8 833d 9d73 70bc e0b0 bc3b 1fb7 88bb
00000240: be8e 96bd 0bca c9bd 7624 08be 665e af3e
00000250: 65ec ae3e bd2d 733c f3a1 093e dcba 3e3e
00000260: b236 913d af47 7f3e 9bf6 71be 45c5 19bd
00000270: 66b3 b13d 6b57 aebe a3c3 b43d 4519 37be
00000280: 182e 213c 263e 32be d5fb 8c3e e8b1 143e
00000290: db61 8f3e 4686 fc3d af3c 70be 22ee 9e3d
000002a0: 4f77 adbe 4629 a73e 71cd c63e 912b 0d3e
000002b0: b40f 4d3d ecc0 25be 9d72 833e e614 b03e
000002c0: 3080 c8bd 335a 053c 8cce 553e 5e5d 953d
000002d0: bf89 4b3e 5394 0cbd 573e a13e b70c 273e
000002e0: a25c 4a3e 762b 0cbe 8cf9 64bd bcd3 8d3c
000002f0: e917 3a3e 424f e33d 8037 a3bd b047 f83d
00000300: 29b6 1ebe 134d 2dbd 32d0 523e 80e9 78be
00000310: 5821 193e cfd6 c6be ccdc 08be 4f35 c33d
00000320: 7ea8 223d 1c8c f9be 85b8 94be 22c9 95bd
00000330: 4f4b 7cbe d408 9bbe cd39 353d 5a6d 763e
00000340: 0ea3 063e 267b 763e c5ea 56be 42b9 f7bd
00000350: a6b3 8bbe 67ec b53e d925 823e 98de 1a3e
00000360: 4b82 173f 812d 323d 13a7 613e 1ee9 8b3e
00000370: 778d 943e 2986 dc3e 6367 32be 5e1a 88be
00000380: b625 c63c 2419 13be b616 ed3d 9044 393c
00000390: a9ab 113d f78d b03d 69ba 203d a55d 1b3e
000003a0: 47d9 8e3e bbf0 e0bd a17e 70bb a35b a63d
000003b0: ed53 21bd 3187 063d 5806 d6bd 2290 363e
000003c0: 0140 34be 343a cfbd 6c7c ffbd b6c2 413e
000003d0: fbfe 98be 6a0c 173e 1122 493c 754d b7be
000003e0: 5a09 eb3d 31e6 2b3d 7ebe 12be 3d7e bc3c
000003f0: aa32 f93b 9845 fe3d 40d3 863c 4f01 85be

Mixer_Block.0.mlp_block_channel_mixing_DynaMixerOperation.fc_out.weight f4 [10, 10]
-0.072741374 -0.09867706 -0.0015591667 0.27302828 0.05671512 0.28449225 0.20527075 0.38964036
0.32165256 0.22099486 -0.1386566 0.3738469 -0.07212712 0.13255069 -0.0067069614 0.2054916
0.28875864 0.14474612 -0.05890799 0.09737799 0.621727 0.5173595 0.12732928 -0.11883385
-0.17827474 -0.089268714 -0.13328646 0.2147884 -0.33674672 0.17182252 -0.047806542 0.6809642
-0.009737641 0.19074745 -0.08805021 -0.012831897 -0.022537403 0.10966819 -0.2369831 -0.030924767
-0.21798418 -0.27449325 0.4685963 0.16873072 0.3528917 0.027881825 -0.052332085 -0.26040927
0.062181957 -0.29078913 0.5338018 0.06322589 0.1696885 0.05574723 0.12365916 0.08751816
-0.25114655 -0.14904878 0.32121056 -0.021400869 -0.03834692 -0.03373908 0.038607888 -0.21608888
0.078676604 -0.0861149 -0.07902552 -0.21079335 0.23363075 0.038885448 -0.46565348 0.7240949
-0.087691136 0.12988527 -0.2345529 -0.052977882 -0.44822747 0.13787371 -0.23461321 -0.04839018
0.14967135 -0.3706396 0.32490644 -0.12027587 0.18259741 0.06973068 0.10185089 0.078129396
0.0059351013 0.31374666 0.5754056 -0.50888914 -0.25694466 -0.28654286 -0.16372539 -0.23774579
-0.24973242 -0.3180751 -0.19939983 0.1143019
00000000: 6ef9 94bd 3317 cabd f45c ccba 5dca 8b3e
00000010: 1d4e 683d f8a8 913e 7f32 523e f17e c73e
00000020: a5af a43e 7a4c 623e fffb 0dbe dc68 bf3e
00000030: 62b7 93bd 5ebb 073e 12c6 dbbb 646c 523e
00000040: 2cd8 933e 5438 143e 8149 71bd 1d6e c73d
00000050: 8029 1f3f ac71 043f 9b62 023e 295f f3bd
00000060: a78d 36be 84d2 b6bd 3f7c 08be 7ef1 5b3e
00000070: 116a acbe 3ef2 2f3e cbd0 43bd ab53 2e3f
00000080: a08a 1fbc 4d53 433e ab53 b4bd e03c 52bc
00000090: 5ca0 b8bc b799 e03d b3ab 72be f055 fdbc
000000a0: 3f37 5fbe 618a 8cbe dbeb ef3e bfc7 2c3e
000000b0: 39ae b43e 6d68 e43c 2b5a 56bd 5d54 85be
000000c0: 82b2 7e3d 50e2 94be 3ca7 083f 937c 813d
000000d0: d2c2 2d3e 3557 643d 0441 fd3d b93c b33d
000000e0: 4896 80be 3ea0 18be b675 a43e e050 afbc
000000f0: a911 1dbd fd31 0abd 4e23 1e3d 6746 5dbe
00000100: 3321 a13d 025d b0bd 22d8 a1bd 36da 57be
00000110: e63c 6f3e 5946 1f3d 226a eebe 495e 393f
00000120: 6997 b3bd a500 053e a32e 70be 56ff 58bd
00000130: 127e e5be c42e 0d3e 723e 70be c834 46bd
00000140: 7243 193e 79c4 bdbe 235a a63e 3253 f6bd
00000150: d1fa 3a3e f5ce 8e3d 3397 d03d 4e02 a03d
00000160: 3d7b c23b 67a3 a03e c84d 133f 8f46 02bf
00000170: 408e 83be bfb5 92be a1a7 27be a273 73be
00000180: dbb9 7fbe bdda a2be 782f 4cbe 1d17 ea3d

Mixer_Block.0.mlp_block_channel_mixing_DynaMixerOperation.fc_out.bias f4 [10]
-0.26594895 -0.5117011 0.044689003 0.15646663 -0.009872927 0.21652922 0.21562904 0.27062118
-0.44821116 -0.16782077
00000000: 762a 88be d8fe 02bf d10b 373d ca38 203e
00000010: 0fc2 21bc d6b9 5d3e dccd 5c3e dc8e 8a3e
00000020: ef7b e5be 35d9 2bbe

Mixer_Block.0.mlp_block_channel_mixing_DynaMixerOperation.LN.weight f4 [22]
0.99716014 0.8568709 1.2371941 1.1453756 1.1487886 1.0717092 1.0888455 1.0906665
1.1651095 1.1591833 1.256515 1.0363032 0.9566246 1.0984081 1.038005 0.9238685
1.1044834 1.1254263 1.0142382 1.2061425 1.0111103 1.1355424
00000000: e345 7f3f e45b 5b3f 605c 9e3f ab9b 923f
00000010: 810b 933f c42d 893f 4a5f 8b3f f69a 8b3f
00000020: 4f22 953f 1e60 943f 7cd5 a03f 95a5 843f
00000030: 5ae5 743f a398 8c3f 59dd 843f a582 6c3f
00000040: b65f 8d3f f80d 903f 8fd2 813f e162 9a3f
00000050: 106c 813f 7459 913f

Mixer_Block.0.mlp_block_channel_mixing_DynaMixerOperation.LN.bias f4 [22]
-0.023153732 0.06009488 -0.024361765 0.08108826 -0.057443164 -0.22428705 0.08248075 -0.05708609
0.19610949 0.09860834 -0.07928721 0.14080225 -0.16265756 0.054200444 -0.1335756 0.10239714
0.16043869 0.00945719 0.03675121 0.24262674 0.13621135 0.118903585
00000000: e5ac bdbc 0d26 763d 5392 c7bc 9a11 a63d
00000010: 8649 6bbd 81ab 65be abeb a83d 1bd3 69bd
00000020: edd0 483e 2bf3 c93d 5561 a2bd 772e 103e
00000030: b48f 26be 4901 5e3d 0bc8 08be 97b5 d13d
00000040: 0a4a 243e 54f2 1a3c 7088 163d 2573 783e
00000050: fd7a 0b3e b983 f33d
