M_2_AST/MotionMixer-main/h36m/run_for_longging/exp274/model.pt (torch, 871322 bytes, 184 tensors)

Mixer_Block.0.mlp_block_token_mixing.fc1.weight f4 [20, 10]
000000 32 a9 16 3e 53 41 81 be 61 73 09 3e 8e 12 e6 bc
       0.1471298 -0.2524515 0.1342292 -0.02808502
000010 50 1a 82 3e b5 c2 35 be 0d ce 81 3e 99 c9 be be
       0.254107 -0.17750056 0.25352517 -0.37263182
000020 96 42 ea 3e 5b c2 22 be 3f be 92 3c 58 cd a5 be
       0.45753926 -0.15894453 0.017912982 -0.32383227
000030 be 62 1d 3e 38 d6 a6 be f9 db fb 3d 6c 7d a4 be
       0.15369698 -0.3258531 0.12297816 -0.3212694
000040 40 9b 9e 3e d3 78 2b be 03 08 07 3f 71 65 59 3e
       0.3097782 -0.1674531 0.527466 0.21230103
000050 84 13 da be d4 b9 77 be aa 93 d0 3e 0f b4 d0 3e
       -0.42593014 -0.24191982 0.4073766 0.40762374
000060 16 96 01 3f 26 2a fb 3c 09 ec 39 be f3 01 5b be
       0.5061964 0.030659746 -0.18156447 -0.21387462
000070 d6 9f af be ad ca 3b 3e 1a 7b 3b be a2 9d d6 3e
       -0.34301633 0.18339033 -0.18308678 0.4191714
000080 bb 66 8f be 1a ba c3 3e da 47 6a be 61 61 4f be
       -0.28008065 0.38227922 -0.22878972 -0.20251991
000090 54 b0 25 be cc cf e1 3e d5 fc ac be 73 a1 5d 3d
       -0.16180545 0.4410385 -0.33786646 0.054109048
0000a0 44 56 39 be 09 44 ec 3d 9c 51 b3 be ef c9 a2 3e
       -0.18099314 0.11536414 -0.350232 0.31794688
0000b0 43 09 f8 be 94 a6 da 3e ae 6d c9 be 4f a4 8f 3d
       -0.48444566 0.42705214 -0.3934149 0.07013761
0000c0 c6 0e 63 be b1 4a da 3e b9 d8 d0 3e ad 60 ea 3e
       -0.22173604 0.4263511 0.40790346 0.45776883
0000d0 9c e9 0a bf 56 d9 2d be 83 ca 07 bf d1 2d d7 3e
       -0.5426271 -0.16977438 -0.53043383 0.42027143
0000e0 de ea b7 be ae 5f 83 3e 92 1e da be c5 5c 02 3e
       -0.35921377 0.25658935 -0.42601448 0.12730701
0000f0 78 db 6a be e7 62 8d 3d bd c0 af 3e d1 7e 7d 3d
       -0.22935283 0.0690363 0.34326735 0.06188852
000100 ac 9a 01 bf 66 6e af 3e f8 cc da be 40 91 df 3e
       -0.50626636 0.34263915 -0.42734504 0.43665504
000110 ec c3 35 bf 40 87 cc bd a4 07 46 3e 75 76 73 be
       -0.7100208 -0.099867344 0.19338852 -0.23775657
000120 a8 36 05 3f 95 cf 09 bd 30 34 45 bd 2b f3 0b bf
       0.52036524 -0.03364523 -0.048145473 -0.5466792
000130 10 41 09 be e7 57 3d 3e f1 9b 03 3f f9 86 ba be
       -0.13403726 0.18490563 0.5140982 -0.364311
000140 97 ff 83 3d 76 63 94 be 55 c7 04 3f 2f 4b f3 be
       0.06445234 -0.28982133 0.51866657 -0.47518298
000150 35 c5 a0 3c 57 6f d1 3d ce 14 cd be 83 41 60 3e
       0.019625286 0.102263145 -0.40054935 0.2189999
000160 4a ec 65 be 7a 04 ad 3e c3 7f 8f be 64 e9 d7 be
       -0.22453418 0.33792478 -0.28027162 -0.4217025
000170 4e 84 c0 3e e7 2b ad 3e 84 cc c2 3e c9 f7 c3 be
       0.3760094 0.33822557 0.38046658 -0.38274983
000180 a1 60 bc 3d d4 66 fa bd b1 77 a4 be 4f 22 7a 3d
       0.09198118 -0.12226644 -0.32122567 0.061067875
000190 7f b3 49 3e 18 85 31 bd 53 c1 04 be 6f f3 4c bf
       0.19697379 -0.04333982 -0.12964372 -0.8005895
0001a0 95 34 2f be 11 b1 30 3e de 6a 7f 3e 43 ed df be
       -0.17109902 0.17255045 0.2494311 -0.43735704
0001b0 b7 d2 41 3e b5 d7 57 be f2 77 68 3e 2d e7 07 bc
       0.18928038 -0.2107838 0.22702006 -0.008294863
0001c0 f0 7f b4 3e cf 46 c5 bd 8b a0 e4 3e 9d 94 70 be
       0.3525386 -0.09632646 0.44653735 -0.23494191
0001d0 bf 85 36 3e bc 59 0b bf e1 f1 be 3e 1e 84 37 be
       0.17824458 -0.544338 0.37293914 -0.17921492
0001e0 70 4b 5e 3d 14 99 fd be 61 17 f6 3e 4c 5e 82 3d
       0.05427116 -0.49530852 0.48064712 0.06365642
0001f0 0e e9 81 3e a1 b9 90 be 75 35 bd 3e b7 01 f3 be
       0.2537312 -0.28266624 0.36954847 -0.47462246
000200 6e 26 36 3e 21 6a 94 be 52 c6 b1 3e d4 f3 08 be
       0.17788097 -0.2898722 0.3472162 -0.13374263
000210 1e 2e 55 be 38 cf ac bc 77 eb a9 3e 55 70 12 be
       -0.20818374 -0.021094903 0.33187458 -0.14300664
000220 bf 0c a8 3e 42 c4 ca 3d 39 91 f3 bc 18 b0 fd be
       0.32822224 0.099007145 -0.029732333 -0.4954841
000230 d0 b2 9c be 7f 5e 90 3e 99 d8 e8 be 7e 75 f8 3e
       -0.30605173 0.28197095 -0.4547775 0.4852714
000240 1a 76 c8 be 3f 2b 02 3d 6e f2 fe 3c 02 af 1a 3e
       -0.39152604 0.031779524 0.031121459 0.15105823
000250 c3 22 40 3e b8 29 9e bc 43 66 c5 3e 8d 56 89 be
       0.1876326 -0.019307002 0.38554582 -0.26823846
000260 79 94 bd 3e 19 da ca be 58 83 8c 3e 25 0c ba be
       0.37027338 -0.3961952 0.27443957 -0.3633739
000270 b6 48 e3 3e 88 f0 66 be 42 9f a7 bb 17 3f 99 ba
       0.44391412 -0.22552693 -0.0051154206 -0.0011691776
000280 d0 e9 bb bd db 32 f6 bd 97 28 d6 3e f3 55 fb be
       -0.091754556 -0.12021419 0.41827843 -0.49089012
000290 b9 b8 bd 3e 6a ed 16 3d 24 00 5b 3d ed b0 d2 3e
       0.37054995 0.03684751 0.05346693 0.4115061
0002a0 ad 91 1b 3e a6 f3 98 be 90 87 85 be 60 44 a1 3e
       0.1519229 -0.2987339 -0.26079988 0.31497478
0002b0 fc 3e 5c 3d 02 d1 b8 3e e5 22 1d be dc 5e 62 bd
       0.053771004 0.3609696 -0.15345342 -0.055266246
0002c0 98 ca 01 bf 8a a8 b9 3e 36 db 6b be 41 30 23 be
       -0.5069976 0.36261398 -0.23032841 -0.15936376
0002d0 ba 2a c0 3d b3 a4 1a bf 57 83 b7 bb d7 11 5c be
       0.093831494 -0.6040756 -0.0056003737 -0.2149118
0002e0 09 fd f3 3e d7 e5 a3 3d 64 2e db bd d0 01 1f bc
       0.47653988 0.08002823 -0.10702208 -0.009705022
0002f0 dc 1b ab 3d 0e 30 ba be c6 87 d2 be cf 28 ca 3e
       0.08354923 -0.36364788 -0.41119212 0.3948426
000300 0b b2 04 bf c6 64 b8 3e dc 77 2c bd b5 9a ae 3e
       -0.5183417 0.36014384 -0.042106494 0.34102407
000310 51 b2 b9 be 98 15 ba bc 9a 16 24 3d a9 6b 8e bd
       -0.36268857 -0.022715375 0.040060617 -0.06954128

Mixer_Block.0.mlp_block_token_mixing.fc1.bias f4 [20]
000000 30 e2 f3 3e d7 1a df 3e 2c 63 ae 3e 9e 3e 9d 3e
       0.47633505 0.43575165 0.34060037 0.30711836
000010 03 a5 83 3e ad 67 e4 3e 2a ec fa 3e 2f 0d 8f 3e
       0.2571183 0.44610348 0.49008304 0.27939746
000020 fc 93 c0 3e 3a a5 28 3f f1 9e 03 3e d2 95 d8 3e
       0.37612903 0.65877116 0.128536 0.42301804
000030 4a ff d7 3e ac 79 96 3e 21 a1 83 3e 58 a0 92 3e
       0.42186958 0.29389703 0.2570887 0.28637958
000040 82 8a 25 3e 81 8e 8a 3e 61 b9 62 3e 24 4a a4 3e
       0.16166118 0.27061847 0.22141029 0.32087815

Mixer_Block.0.mlp_block_token_mixing.fc2.weight f4 [10, 20]
000000 9e 38 e8 3d 6c 94 84 3d 89 eb 32 3f 75 0b 11 be
       0.11338924 0.06473622 0.6989065 -0.14164527
000010 fc 05 cb be 70 2f 54 bf ee ac 05 3f dd ef 6e 3d
       -0.39653003 -0.82884884 0.52216995 0.05833422
000020 01 8d fe 3e b1 d2 58 3f f3 13 9c be a8 f8 86 3e
       0.49716952 0.8469649 -0.3048397 0.26361585
000030 9d 08 ed 3e 94 5b 7e be 73 ec d7 be 40 0d 98 3e
       0.46295634 -0.24839622 -0.42172584 0.2969761
000040 3f ac c9 3e 8c d8 89 3d 3f ac cf 3e 36 40 58 be
       0.39389226 0.06730756 0.405611 -0.21118245
000050 09 c4 5f be d4 ad 8d be 83 cf 7f 3e 87 ff ec 3d
       -0.21852125 -0.27671683 0.24981503 0.115721755
000060 a6 94 37 3e 2c 40 75 be 37 38 e3 bd 32 3c e1 be
       0.17927799 -0.23950261 -0.110947065 -0.43991238
000070 d3 64 1e bf 46 2f 12 3e 3e 9c c5 be f9 20 f4 be
       -0.61872596 0.14275846 -0.38595766 -0.47681406
000080 f0 5a 2f be 92 8e ce bd 18 c3 16 3f 8c 12 4b bf
       -0.17124534 -0.10085787 0.5889144 -0.79325175
000090 4e 97 26 be a3 9b be 3d 59 0b 7d be cc ea 13 3f
       -0.16268656 0.09307029 -0.2471136 0.57780147
0000a0 e6 fc 93 3e f1 21 2c 3e 4a 5c 29 bd 1d 04 c7 be
       0.28903884 0.16809823 -0.04134778 -0.38870326
0000b0 ec 72 95 be 5e a2 8c be 78 1c 15 bf 0f 84 c2 bd
       -0.2918924 -0.27467626 -0.58246565 -0.094978444
0000c0 f7 f0 5a 3d e0 e9 0a 3e dd 13 da 3d c7 d8 20 3e
       0.05345246 0.13565779 0.1064832 0.15707694
0000d0 a0 5b 21 3d c6 23 23 3e 10 cc 78 be 35 a2 95 3e
       0.03939402 0.15931615 -0.24296594 0.29225317
0000e0 c7 e9 2a 3e 46 14 6f be fb 9a fa 3e 14 a6 d4 be
       0.16690741 -0.23347577 0.48946366 -0.41532958
0000f0 fa 85 37 bf 2c f3 a3 be b9 9f d8 bd 01 e8 eb 3d
       -0.71688807 -0.32021463 -0.1057734 0.115188606
000100 38 26 56 3e 2b 1b 9d 3e c3 53 1d 3e 39 61 d8 be
       0.20913017 0.3068479 0.15363984 -0.42261675
000110 04 d6 49 3e 11 10 92 be 80 c9 6b 3e 07 06 c6 be
       0.19710547 -0.28527883 0.23026085 -0.38676473
000120 6f 3a 1d bf b9 08 bf be 37 fc 60 bc 1f 36 19 bf
       -0.6141729 -0.37311342 -0.013732008 -0.5984821
000130 2a 91 d2 3d db 9f 8d 3e e2 01 10 be d5 a9 ed 3d
       0.10281594 0.27661023 -0.14063218 0.116046585
000140 d0 5f b1 3e a6 24 0c 3f 18 5a 82 be 95 ef 75 be
       0.34643412 0.5474342 -0.2545936 -0.24017175
000150 f1 7d 1e bd 6e a5 04 be 39 04 18 be 4c 54 de 3c
       -0.038694326 -0.12953731 -0.14845361 0.027139805
000160 4e 88 c3 3d de d0 3e be 13 ed 41 3e a9 ef 8b 3d
       0.095474824 -0.18634364 0.18938093 0.06832821
000170 ce 09 39 3e 17 29 54 bd 63 5a b7 bd ef 0e a9 3e
       0.18070146 -0.051797 -0.08952787 0.33019206
000180 0d da cf 3d c4 7c 9c be 34 37 0e be a9 50 f2 be
       0.10149012 -0.3056394 -0.13888246 -0.47327164
000190 0a 18 95 be ca 25 68 be fc 8c 05 be ba 05 28 3f
       -0.29119903 -0.22670665 -0.13042063 0.6563374
0001a0 f1 bd e1 3e 5b 4f 91 3c 70 48 d2 3e 5a 2d e8 3d
       0.44090226 0.017738035 0.4107089 0.11336775
0001b0 83 da 26 3e 64 5c 58 3e 62 b9 bc be 4a 9a 08 be
       0.16294293 0.21128994 -0.36860186 -0.13340107
0001c0 d7 33 1a be 5e 46 1b be 6f f3 d9 3e b1 47 ae be
       -0.15058838 -0.15163562 0.42568538 -0.3403907
0001d0 c4 d3 4a be 94 15 f7 3e 84 1b fd bc f6 ca 0a 3c
       -0.19807345 0.4825865 -0.03089691 0.008471241
0001e0 72 43 c7 3e 15 df 6f 3e 12 2a bb 3d ee a6 2b be
       0.38918644 0.23424943 0.09138884 -0.16762897
0001f0 5b 0a 30 be 73 9d ae be 72 06 6a be a7 ef b3 3d
       -0.1719145 -0.341045 -0.22854021 0.087859444
000200 93 dd 8d 3e 88 78 53 bd 0a 3c 20 bd f7 00 86 3e
       0.2770811 -0.05162862 -0.039119758 0.2617261
000210 7a e9 2c 3e 8d e6 19 bd 30 9b db bc e0 4a 94 3d
       0.16885939 -0.037573386 -0.026807398 0.07240844
000220 6c 38 8c 3e 20 da 26 3b 1f 1c 87 3e f5 7b 05 be
       0.27386796 0.0025459602 0.26388642 -0.13035567
000230 db 1a 70 3e 45 9c 3a be 44 16 27 3e e4 fd cb be
       0.23447745 -0.18223675 0.16317087 -0.3984214
000240 01 04 cb 3e 85 0a 99 3b 29 ec a1 bd a7 72 1d be
       0.39651492 0.0046704435 -0.07906372 -0.15375768
000250 8b 97 00 bd 0f 52 b9 3d 99 19 3e 3e de 3d 1f 3f
       -0.031394523 0.090488546 0.18564452 0.62203777
000260 9e de 02 3f d1 31 cb bd 88 53 a4 bd a5 5f 0a 3e
       0.51120937 -0.09921611 -0.08023745 0.13513048
000270 ae 2b da be fe dc 50 be 9c 19 b8 3d aa 16 27 be
       -0.4261145 -0.20396802 0.089892596 -0.1631724
000280 80 48 83 bc e6 b4 45 be 25 26 a8 3c 65 4f 2c be
       -0.016025782 -0.19307289 0.020526001 -0.16827162
000290 c5 57 1b 3e 19 7e b2 3e 0c 58 b0 3e 6d 54 0d bf
       0.151702 0.3486183 0.34442174 -0.5520695
0002a0 08 5d 65 3e d4 51 5d 3c ab c1 0c 3e dc 03 7d be
       0.2239877 0.013508279 0.13745753 -0.24708503
0002b0 7b 51 d2 3d 35 6a 45 3e 7f 55 a2 be 6b 58 c5 3c
       0.102694474 0.19278796 -0.31705853 0.024090013
0002c0 d0 26 c0 3d 41 ff 65 be 93 62 f9 3d 71 e6 2d be
       0.09382403 -0.22460653 0.12177005 -0.16982438
0002d0 7d 69 84 3e a0 0d 93 be 36 60 69 3d a9 c1 b6 be
       0.2586173 -0.28721333 0.05697652 -0.35694626
0002e0 6f b5 04 bf 0f ef 3e bd b2 43 8e 3e 6b 51 7d 3e
       -0.51839346 -0.046614703 0.27786022 0.2473809
0002f0 35 b0 98 be f6 f2 cf 3c 42 6d 91 3e 75 48 8a 3d
       -0.29821935 0.025384407 0.2840367 0.06752101
000300 ee 28 c8 3e 5a 90 f5 3e 70 cc 82 be d8 1b d9 bd
       0.39093727 0.47961694 -0.25546598 -0.10601014
000310 fb a5 a4 3e bd 10 11 3e a6 94 05 3f 76 3c 89 be
       0.32157883 0.14166541 0.52179945 -0.2680394

Mixer_Block.0.mlp_block_token_mixing.fc2.bias f4 [10]
000000 b3 01 d2 be e5 f7 10 be f8 7b 87 bd e2 67 0d be
       -0.4101692 -0.14157064 -0.06615442 -0.1380916
000010 32 35 ed bc 4f 9e 21 3e 84 fd 93 3c ed f6 0d 3e
       -0.02895603 0.15783046 0.018065222 0.13863726
000020 b5 3e 3b 3e 20 08 26 bc
       0.1828564 -0.010133773

Mixer_Block.0.mlp_block_token_mixing_DynaMixerOperation.fc_ND.weight f4 [1, 66]
000000 6f c6 ba bc 03 3e 1a 3d b9 b8 18 3d f2 20 00 3c
       -0.022799699 0.037656795 0.03728554 0.007820355
000010 a1 cb 00 bd 72 5b ea 3c 36 15 7a 3d f3 77 82 3d
       -0.031444196 0.028608058 0.061055385 0.06370535
000020 78 ce 07 3d d7 96 04 3d 1c e0 53 bc 91 72 91 bd
       0.03315589 0.032370415 -0.01293185 -0.0710193
000030 d3 0a d1 3d f7 77 36 bc 0a 4e 02 bd 1e 1a c6 bd
       0.10207143 -0.011137 -0.031812705 -0.0967295
000040 f2 49 03 bd a1 8b 3b 3c 8b 88 06 bd 97 f2 1f bd
       -0.03205294 0.011446864 -0.03284506 -0.03904971
000050 9b 92 04 bd 3f cf d9 bb 58 44 cf 3d fc 97 a3 3d
       -0.032366376 -0.00664702 0.101204574 0.07987973
000060 36 3a c2 3d a1 e3 af 3a db dc e0 3b 19 cb 85 bc
       0.09483759 0.0013419279 0.0068622655 -0.016332196
000070 ec 67 31 3d 43 dc b1 ba 3e 84 5b bd 91 8d 08 3d
       0.043312 -0.0013569671 -0.053592913 0.033338133
000080 26 87 01 bd 38 b2 f5 bc 3f e3 f7 bd e2 75 76 3d
       -0.03162303 -0.029992208 -0.12103891 0.060171016
000090 93 4c 8b 3c 0c 7d a9 3d c6 f4 f0 ba 44 a3 3b bd
       0.017004287 0.08275804 -0.0018383495 -0.04581
0000a0 f8 ac 81 bc c4 0d 98 bd eb 20 ef bb 31 88 7a bd
       -0.015829548 -0.074245006 -0.0072976253 -0.06116504
0000b0 e0 c7 b2 3d 91 4d b9 3c 2d 03 56 3c 0e 78 99 3d
       0.087295294 0.022619994 0.013062281 0.07493602
0000c0 88 03 45 bb 35 5e cb 3d e8 cc f7 bc f5 0f 52 3d
       -0.003006192 0.09930078 -0.030249074 0.05128475
0000d0 77 8f 42 bb bb 75 f0 3c 3d b3 a7 3d 54 47 38 bd
       -0.0029687562 0.029353013 0.08188484 -0.0449899
0000e0 0a 12 1c 3d 5e 56 a2 bd f9 13 67 3c 34 2e 09 3c
       0.03810314 -0.079266295 0.014103883 0.008372832
0000f0 34 d6 4d 3d d0 bb ed 3b 1e 32 0e 3d c0 a1 c4 3c
       0.05025311 0.007255055 0.034715764 0.02400291
000100 22 92 87 3d e5 81 51 3d
       0.066196695 0.051149268

Mixer_Block.0.mlp_block_token_mixing_DynaMixerOperation.fc_Nd.weight f4 [100, 10]
000000 02 80 79 3e c9 11 db 3c e1 a3 02 3e b1 bc 38 3e
       0.24365237 0.026741879 0.12757827 0.1804073
000010 a9 ec 3a 3e a1 43 a3 bc 0d 6f da bd 7f 7d 43 be
       0.18254341 -0.019929709 -0.106657125 -0.19090842
000020 0c e7 2b bb 63 a5 44 be 1d 4a 8c be 09 23 84 3d
       -0.0026230244 -0.19203715 -0.27400294 0.06451995
000030 ac 84 43 be 09 a5 bf bd 10 32 2c 3e be 06 87 3d
       -0.19093579 -0.0935765 0.16815972 0.06593083
000040 09 b5 11 be f6 ec e6 bc 42 69 ed bc 79 c9 ec 3d
       -0.14229216 -0.028189164 -0.028980855 0.11561865
000050 19 0b 0e be 07 10 48 3e bb af f3 3e 5a b8 b1 3e
       -0.13871421 0.19537364 0.4759501 0.34710962
000060 8c 94 ed 3d 8f 87 64 3e 32 0f 49 bd eb 5b 83 3b
       0.11600599 0.22317336 -0.049086757 0.00400876
000070 bf 48 4c be 00 3c 5c bd 3d 3b 44 bc 00 de 0e be
       -0.19949625 -0.053768158 -0.011977014 -0.13951874
000080 95 fb 1b 3e 4d dc 66 3e 4b 4d e6 bc 43 88 f7 3d
       0.1523269 0.22544976 -0.028113028 0.12086537
000090 d2 49 5f bd db 14 48 be 1f bd 6f 3d 7c cc 84 3d
       -0.05451376 -0.19539206 0.05852997 0.06484315
0000a0 b2 93 fa 3d 77 a4 b6 bc f6 31 30 be ba 09 4d be
       0.12235202 -0.02229522 -0.17206559 -0.20023242
0000b0 3c 66 a9 3d 57 b0 8c 3d 87 76 4a 3e d5 17 a1 3e
       0.08271453 0.06869572 0.19771777 0.31463495
0000c0 a2 5b b4 3d e7 74 f5 bc 62 5a 77 bd f1 51 0b bd
       0.0880654 -0.02996297 -0.06038893 -0.034013692
0000d0 f9 23 86 be 25 99 38 bd 97 e4 ee bd c4 d2 6b 3e
       -0.2619932 -0.045067925 -0.11664694 0.2302962
0000e0 b7 3e 8f bd 0e 35 c0 bd 14 33 62 bd 3c 0b 31 3e
       -0.06994384 -0.093851194 -0.055224493 0.17289442
0000f0 12 07 bf 3e 26 08 86 3e 15 9f 18 bd 94 53 f5 bd
       0.37310082 0.26178092 -0.037261087 -0.11978832
000100 cc a8 09 3e 4d b0 a3 3e dd a3 15 be 96 16 5d 3e
       0.13443297 0.31970444 -0.1461329 0.21590647
000110 ce e7 f9 bc 68 76 ae 3e e1 28 a7 3d 3a ec 0f bd
       -0.03050604 0.34074712 0.08162094 -0.035137393
000120 3f fd c2 be 1f 38 4c 3e ca b5 a6 3c 06 2a c3 bb
       -0.38083836 0.19943283 0.020350356 -0.0059559373
000130 4e f8 d6 bd bc 76 75 3e bd 5c 8e 3e 9c 70 90 bd
       -0.10496579 0.23971075 0.2780513 -0.070527285
000140 83 d3 83 bd 5f ae 01 be 27 d7 09 bd 8e 17 c5 3c
       -0.06436827 -0.12664174 -0.03365245 0.024059083
000150 68 90 fd 3d 0b 96 fc 3d 9f 2b fb bd 63 5e 9e bd
       0.12381059 0.12333306 -0.122641794 -0.077328466
000160 1a 9b f6 bd 23 92 29 3e a6 7d ad bd ea 76 19 be
       -0.12041302 0.16559653 -0.08471231 -0.14986768
000170 c0 81 8b be 16 a4 69 be d7 a6 85 3c a5 11 f7 3d
       -0.2724743 -0.228165 0.016314907 0.12063912
000180 94 ee 09 3e 91 ae c8 bc 1f 2e b0 3e 27 f9 a4 bc
       0.13469917 -0.024497302 0.34410188 -0.020138336
000190 b2 3e 0f be 00 e1 cd be f9 6e 5b be e7 66 24 3e
       -0.1398876 -0.40210724 -0.21429051 0.16054879
0001a0 33 8d c8 bd 4a 75 81 3e e7 5f 19 bd cd 55 19 bd
       -0.097925566 0.25284797 -0.037444975 -0.03743534
0001b0 61 f1 78 3e 5d 54 90 bd 05 0e 8a 3e 77 53 8d 3e
       0.24310829 -0.07047341 0.2696382 0.2760274
0001c0 f4 a7 51 bd 88 62 0f 3e 3d 78 68 be 17 73 ab 3e
       -0.051185563 0.1400243 -0.22702117 0.33486244
0001d0 9e a1 aa be 51 9b d4 bc 69 fe f6 3b 32 ab 4f 3e
       -0.3332643 -0.025952967 0.0075376523 0.2028015
0001e0 0d 30 2f be 9f 78 2c be c3 ad b4 3e 94 6e 54 3e
       -0.17108174 -0.16842888 0.3528882 0.20745307
0001f0 2c 12 e2 3e a7 8a 64 3d 1e 2d de bd 6a a1 64 3e
       0.4415449 0.05579629 -0.10848449 0.223272
000200 c1 14 e3 bd f6 93 a7 3d 6a af ba bc 8a 58 98 bd
       -0.11087943 0.08182518 -0.022788722 -0.074387625
000210 d1 7c e3 3d 9d d7 80 3d 44 d0 f8 bd 86 54 79 be
       0.11107791 0.06291125 -0.121490985 -0.2434865
000220 47 dc 4a be db 92 66 be 5a 78 1e 3e 60 fd 81 be
       -0.19810592 -0.22516958 0.15475598 -0.25388622
000230 2e 31 94 be 40 b6 1e 3e 04 fa 29 be d0 54 08 3e
       -0.2894377 0.1549921 -0.1659928 0.13313603
000240 3d 84 07 bc 66 65 0c be 7c 6c b9 3e 61 72 9a 3d
       -0.008271274 -0.13710555 0.3621558 0.07541347
000250 91 56 41 be 4f ab e6 3d 2d 5e 81 3e 62 8b 39 be
       -0.18880679 0.11263143 0.25267163 -0.18119577
000260 74 13 b8 3c b8 a5 cf 3d ea 9a 07 be 1b 98 71 3c
       0.022470213 0.1013903 -0.13242689 0.014745737
000270 ae 10 9f be 4a 85 f9 bc f9 cd d6 3d c0 8e 2a be
       -0.31067413 -0.030459065 0.10488505 -0.16656017
000280 3b 59 df 3d 7d b3 cd 3d 77 d9 e4 3d 63 09 b6 3d
       0.10905691 0.10044 0.111742906 0.08888509
000290 83 77 6b be 1a 81 07 be 04 1e 86 3d 0d 18 f5 3d
       -0.22994809 -0.13232842 0.06548694 0.11967478
0002a0 e4 8c 27 3d 6d ba 05 3e 4e 32 24 3b 96 2a 14 be
       0.04090585 0.13059397 0.0025054398 -0.1446937
0002b0 e7 22 f4 3d 54 4e 28 be 16 d8 79 3c 51 72 2d be
       0.119207196 -0.1643613 0.015249273 -0.1693814
0002c0 31 48 73 bd bb fa 45 be 46 85 65 3c a7 10 70 be
       -0.05939502 -0.19333927 0.014008826 -0.23443852
0002d0 81 55 9d bd d3 15 c9 bd 16 b9 4d be 94 6f ac be
       -0.07682324 -0.09818616 -0.20090136 -0.33678877
0002e0 3b 3c f4 3d ec b2 97 be d7 73 f1 3d e9 54 65 be
       0.119255506 -0.29628694 0.11789673 -0.22395672
0002f0 1b d6 93 be 56 55 8e bd 8c 23 3d be 2b 03 51 3d
       -0.28874287 -0.0694987 -0.18470591 0.05102841
000300 b0 8f 44 be c2 56 aa be 52 f2 9c be 01 fd b1 be
       -0.19195437 -0.33269316 -0.30653626 -0.3476334
000310 60 30 4d 3e 2f 65 71 be a3 92 c4 3d 98 b7 0c be
       0.20037985 -0.23573755 0.09598281 -0.1374191
000320 81 54 0c be 56 8d 5a be 9b 0a 3f 3c 2a 47 4b be
       -0.1370411 -0.21342978 0.011660243 -0.19851366
000330 0a 52 da 3d 68 0f 1d be 67 e5 0c 3e 29 d7 1c bd
       0.10660179 -0.15337908 0.13759385 -0.03829113
000340 62 28 73 bd a9 d5 f4 3c c3 e0 3b 3e 45 b5 1f bd
       -0.059364684 0.029887037 0.18347459 -0.03899123
000350 c6 f1 b5 3d 90 20 54 3e 32 40 68 bc b2 67 94 3e
       0.08884005 0.20715547 -0.014175462 0.28985363
000360 f6 c4 8e 3d 09 2b 4a 3e 86 a3 f6 3c ea 77 bc bc
       0.06971161 0.19742979 0.03010727 -0.023006398
000370 b0 ac 03 3e 0c 67 79 be a2 5b 74 3e b1 61 5b 3d
       0.12858844 -0.24355716 0.2386308 0.053559963
000380 60 53 90 3e 16 0f e5 bc f0 02 e9 3d cd de 0c 3c
       0.2818861 -0.027961295 0.113775134 0.008598042
000390 ea 03 bb bd c8 92 53 3e 1c ce b0 be 4c b6 41 3b
       -0.09131606 0.20661461 -0.3453225 0.002955812
0003a0 96 e4 47 be 77 c7 ec be aa 5e b5 be 26 b4 ca be
       -0.19520792 -0.4624593 -0.35423785 -0.39590567
0003b0 e1 25 b3 be 97 7f 5f be 8a d4 16 be 99 39 2d be
       -0.34989837 -0.21826015 -0.14729515 -0.16916503
0003c0 f5 54 a9 3d a1 5f a4 bd 3d ce 1a be 81 b0 11 3f
       0.082681574 -0.08026052 -0.15117736 0.5690995
0003d0 ea e8 5a bd ad 6f 38 be e5 e9 36 be 29 e4 76 be
       -0.05344478 -0.18011351 -0.17862661 -0.24110474
0003e0 0c d1 6b be 30 37 0a be 9f 76 68 3e 3c 14 3b 3e
       -0.23028964 -0.13497615 0.227015 0.18269438
0003f0 ce d1 6e 3d a0 ff 81 3e 8b 33 39 3e e9 3e f1 bc
       0.058305554 0.2539034 0.18086068 -0.029448943

Mixer_Block.0.mlp_block_token_mixing_DynaMixerOperation.fc_Nd.bias f4 [100]
000000 74 38 f0 be 5c 43 44 3d e1 4a 80 3c d3 c6 57 3e
       -0.4691807 0.0479158 0.015660705 0.21071939
000010 fe ae 90 bd 49 17 13 3e 2c 4e 73 3e 54 e0 29 3e
       -0.07064627 0.14364351 0.23760289 0.1658948
000020 d9 79 0e 3d 90 d6 06 be ba ed 7d be 3b e4 de be
       0.03478417 -0.13167787 -0.24797717 -0.435335
000030 a8 dc 24 3e 87 0a 91 be 07 79 bc bd 92 62 9a bd
       0.16099799 -0.28328344 -0.09202772 -0.07538332
000040 e3 15 d2 3e 41 56 89 3e eb 87 48 be ba 55 a4 3e
       0.41032323 0.2682362 -0.19583099 0.32096654
000050 b4 e7 83 3e c7 f6 ca 3d b1 58 c3 3d bb f2 97 3c
       0.25762713 0.0991035 0.09538401 0.01854836
000060 50 d4 d2 3b a3 77 ff 3d f7 08 91 3e 37 34 ff be
       0.006434001 0.12473991 0.28327152 -0.49844524
000070 0f c5 78 3e e6 16 91 3e 12 69 04 3e 15 f3 bc 3e
       0.24293922 0.28337783 0.12930706 0.36904207
000080 7b 00 64 3d df 83 50 3e 63 85 f8 be 5c 25 c5 3e
       0.05566452 0.20362805 -0.48539266 0.38505065
000090 96 bd 0b be 64 0b 27 be e1 03 62 3c 45 17 4e be
       -0.1364654 -0.16312939 0.01379487 -0.20126064
0000a0 11 5c 6b bd d2 aa 22 be f5 e9 a6 3e 65 8a 79 bd
       -0.05746085 -0.15885475 0.3260037 -0.060923
0000b0 45 87 20 be 62 90 8f 3d da e2 9a bd 60 56 90 3e
       -0.15676601 0.07009961 -0.075628 0.281909
0000c0 43 2b 6f bd 91 fb 44 3d b3 07 83 bd 9c 53 83 be
       -0.058390867 0.048091475 -0.06397953 -0.25649726
0000d0 5d 48 a3 3e 50 ca 56 be 16 7f 5a 3e b7 ae 14 be
       0.31891146 -0.20975614 0.21337542 -0.14519773
0000e0 69 dd 6f 3e d4 9f 49 be 46 70 89 3e 90 7b 82 bc
       0.23424305 -0.19689876 0.2684347 -0.01592806
0000f0 b5 5a 0f 3f 50 3a 05 bf 3a 06 2d be 9d 3e 33 be
       0.5599778 -0.520421 -0.16896906 -0.17504354
000100 aa 0a 73 be 3e e4 e7 bc 9e 34 1e 3d 05 c4 b3 3d
       -0.23734537 -0.028307077 0.0386244 0.08777622
000110 ed ac c1 3d f9 7b 59 be 3b 43 a8 3d 80 f9 9c 3e
       0.09456811 -0.21238698 0.08215948 0.30659103
000120 21 9b 7e be 8c 2f 80 be db 90 84 be 2c 7c 9c be
       -0.24863864 -0.25036275 -0.25891766 -0.30563486
000130 60 7b 9c be e4 79 09 3e df 11 5a 3d 2b b3 79 bd
       -0.30562878 0.13425404 0.0532397 -0.060961884
000140 f4 ff f8 3e 35 85 6d be 82 61 ad 3e 65 b5 91 bc
       0.48632777 -0.23195346 0.33863455 -0.017786691
000150 f7 8c 41 be 74 03 67 bb f0 b1 13 be df cb 12 be
       -0.1890143 -0.003524986 -0.14423347 -0.14335583
000160 78 b0 06 bd 8c 90 a3 3d f6 0b c1 3d e6 4a 0e be
       -0.032883137 0.079865545 0.094261095 -0.13895759
000170 98 48 ff be 7a 77 46 be 0f 5f 25 be 76 64 21 bb
       -0.49860072 -0.19381514 -0.16149543 -0.002462653
000180 6a ca d3 bd 9c 3c cf 3e 95 a1 a3 3d 13 14 80 bd
       -0.10341342 0.4047593 0.07989804 -0.06253829

Mixer_Block.0.mlp_block_token_mixing_DynaMixerOperation.fc_out.weight f4 [66, 66]
000000 10 b7 1f 3e eb d2 44 3c 5a 48 f8 bb 67 18 a6 bc
       0.15597177 0.012013177 -0.0075769844 -0.020275308
000010 b0 c7 fe bd 50 e9 03 3e 34 2c a5 bd 8b 1c 9b 3d
       -0.12440431 0.1288197 -0.08065072 0.075738035
000020 8e 1a 74 3d c5 c3 1c 3c a8 0f 78 bd bf 53 55 3c
       0.059595637 0.0095681595 -0.060561806 0.013020455
000030 64 4a 18 3e 64 59 11 3d 69 8d f2 3d 6b a5 25 3d
       0.14872128 0.03548564 0.11843378 0.040440958
000040 29 38 a8 bc 21 b4 a1 bd 9b ef cb 3d 44 6c eb 3c
       -0.020534592 -0.07895685 0.099578105 0.028738149
000050 a1 03 ad bc 3d 49 d5 bc 18 84 3f 3d 31 df 85 bd
       -0.021119894 -0.0260359 0.046756834 -0.06536711
000060 40 18 6d 3d 8d 13 4a bd 42 14 f2 bc 03 83 28 3e
       0.057884455 -0.04933505 -0.029550675 0.16456227
000070 02 4a 42 3d f5 4d 8b bd 76 bc a6 bc 22 8d df 3c
       0.04743386 -0.068019785 -0.020353537 0.027288977
000080 6b dc ee 3c 0c 96 87 bb db 57 8f 3c d2 0e b5 bc
       0.029157838 -0.00413776 0.017497947 -0.022101793
000090 2f 4c a6 3c c8 f5 a8 ba ad 4b 07 be e5 da c9 bd
       0.020299999 -0.0012890631 -0.13212462 -0.09856204
0000a0 7e 4a 6d bc a8 d4 43 3d 91 10 e9 3d fb ce 59 bd
       -0.014483092 0.047810227 0.11380113 -0.053175908
0000b0 f9 25 d1 3d 44 0c 4b 3d f7 d6 a3 3d 81 01 8f bc
       0.10212321 0.049572244 0.07999986 -0.017456772
0000c0 31 af b8 3d c9 4b ae 3d 31 3d 2c bd 39 35 f7 bd
       0.0901779 0.085105486 -0.042050544 -0.12070698
0000d0 1b 6b 45 bc 47 7b 37 3d 2f 21 7c bd ed 85 c5 bc
       -0.012049462 0.0447953 -0.061555084 -0.024111712
0000e0 c3 c0 09 bd 67 7a 12 3e f2 97 c8 3d 02 ac b3 3d
       -0.033631098 0.14304505 0.09794606 0.08773042
0000f0 4a ab 6c bd 73 6a 72 bd 37 f5 f2 bd d6 01 dd 3d
       -0.05778054 -0.05918355 -0.11863177 0.10791366
000100 59 4f 90 3d 9a 43 90 3d f1 eb a0 3d 50 fb b1 3d
       0.07046384 0.07044144 0.07857502 0.08690512
000110 79 2e c8 3d 1d 96 b1 bc 92 0c 8c 3d 7d c7 53 be
       0.09774489 -0.021678025 0.06838335 -0.20681567
000120 1c 04 36 3e 50 c5 50 bc bf cd 1d 3e 86 31 95 3d
       0.17775005 -0.0127423555 0.15410517 0.072848365
000130 f2 7d 82 3d c1 fb f9 3d 2f c9 f8 bc e5 86 14 3d
       0.063716784 0.12206221 -0.03036937 0.036261458
000140 29 d6 85 3d 34 63 5d bc 2a c5 92 3c 1c 67 85 3d
       0.065349884 -0.013512421 0.01791628 0.06513807
000150 3b 5f 41 bd 38 ac bc bb 37 0d eb bd 0a 9c 81 bc
       -0.04720996 -0.0057578348 -0.1147713 -0.015821476
000160 37 4f 12 bd 2e d1 ba 3d e7 23 34 3c 62 f4 78 3c
       -0.035720076 0.09121929 0.010994888 0.015194984
000170 fe cf 91 3c 74 71 ac 3d f2 e3 28 be 88 f8 63 bd
       0.017799374 0.08420077 -0.16493204 -0.05565694
000180 45 62 42 3c 1f b7 e5 3d 8c d1 c6 3c 82 e4 fe 3c
       0.01186425 0.11216568 0.024269842 0.03111482
000190 5e de 3c 3d 19 0c 02 bd 8f e4 14 be a8 c5 87 3d
       0.046110503 -0.03174982 -0.14540313 0.06629497
0001a0 5c 73 57 3d a3 31 0e bd e4 c1 c0 3d 95 31 89 bc
       0.05260025 -0.034715306 0.09411982 -0.016747275
0001b0 3f 2c 42 3d f1 a2 84 bd 90 c0 84 3c 83 4e e5 bb
       0.047405478 -0.06476391 0.016205102 -0.0069978847
0001c0 85 28 54 3d 35 a2 2a 3e 71 e3 d0 3c 8c 9a 9a bc
       0.051796455 0.1666344 0.025499078 -0.018872522
0001d0 95 8a c2 bb 02 2e 9e bb 94 de 5c 3d 17 0b b8 3d
       -0.0059369304 -0.004827262 0.053923205 0.0898649
0001e0 19 58 8b bd cf f9 39 3b 51 b3 95 bb f5 71 b4 3d
       -0.06803913 0.0028377657 -0.0045684953 0.08810798
0001f0 e2 03 24 3d 77 14 e1 3c ab 5b df 3d 10 c1 8b bd
       0.040042765 0.027475579 0.10906156 -0.06823933
000200 e6 75 8f bd 46 cd ad bd cd 80 f7 bd 3d 0a f7 3c
       -0.07004909 -0.084864184 -0.12085114 0.03015625
000210 c3 c9 93 3d 54 bc 6a bd 91 a8 00 be e8 6e 8a be
       0.07216217 -0.05730851 -0.12564303 -0.2703774
000220 bd 88 35 3e 14 7d c4 3d 58 d8 10 bd 38 83 70 bd
       0.17727943 0.09594169 -0.03536257 -0.05871889
000230 6f 8f 5b be ce 67 9b bd 49 bc a6 3c 92 9e b5 bd
       -0.21441434 -0.075881585 0.020353453 -0.088681355
000240 a9 bf 1e bd 6d 59 c0 3c 16 dc 23 3d 66 8e 05 be
       -0.038757 0.023480142 0.040004812 -0.13042602
000250 c8 9f 3e 3e 7b a3 e3 3d 38 0c 55 bd c3 83 02 3e
       0.18615639 0.11115166 -0.052013606 0.12745576
000260 73 ff 14 3d 06 41 13 3e 32 16 79 bd d3 a8 30 3d
       0.036376428 0.14380273 -0.060812183 0.043129753
000270 b5 b4 72 3c ed 85 a4 3c 02 9c 87 bd 3c 48 3e bc
       0.014813592 0.020083392 -0.06621553 -0.011613902
000280 b4 0d 36 3c 95 d8 91 3d 1a 6c 8a bc 4a fe b0 3d
       0.0111116655 0.07121388 -0.01689725 0.08642252
000290 34 54 bf bd b9 a0 23 bd aa ec a8 bd f2 8f 2e bd
       -0.09342232 -0.0399482 -0.08248265 -0.042617746
0002a0 4a b5 97 bd 3b 22 55 be 6a 83 45 3d 98 1d 6d 3e
       -0.07407625 -0.20813839 0.04822103 0.2315582
0002b0 7f f0 0f 3d 8c 8f 97 3d be 5b 86 3e 6b 48 9d 3d
       0.035141464 0.07400426 0.2624187 0.07679828
0002c0 9d 95 2d 3e d9 6a 60 bd 9a 22 5e 3c d0 55 2c 3e
       0.16951604 -0.054789398 0.013558054 0.1682961
0002d0 39 f2 28 be bc 13 23 be d6 84 6d 3d b5 3f 23 3d
       -0.1649865 -0.15925497 0.05798801 0.039855678
0002e0 b7 b3 20 3d 33 f4 65 3d 30 db df bd f3 40 2f be
       0.03923389 0.05614109 -0.109304786 -0.1711462
0002f0 ce 5a 2b 3d 76 b5 6e bb da 3c f3 3d 38 40 67 3d
       0.041834645 -0.0036424077 0.11876841 0.05645773
000300 3d 65 ef bd 08 21 4c bc 76 05 14 3e da 5d 42 be
       -0.116892315 -0.012459047 0.14455208 -0.18981114
000310 b1 af d8 3d 42 6e c4 3d 74 b8 19 3d 65 c9 60 bd
       0.105803855 0.095913425 0.037529424 -0.054879565
000320 7a dc 38 3e 8a 2c 64 3d c9 4a a3 bc 4a 71 27 be
       0.18052855 0.05570654 -0.019933121 -0.1635181
000330 63 fb 88 3c 9e 02 a3 bc 07 06 4b 3c 4b 3e 34 3c
       0.016721433 -0.019898709 0.012391574 0.01100118
000340 23 c3 4c be 8b c3 8c 3c d1 f3 ce bd 4c 02 0d be
       -0.19996314 0.017183086 -0.10105098 -0.13770407
000350 22 68 93 3c 70 6a 32 3e 53 50 e1 bd 79 b1 15 be
       0.01799399 0.17423415 -0.11001649 -0.14618482
000360 24 ad 2a 3d 20 68 93 bd b7 58 71 be 6d a1 10 3d
       0.041669026 -0.07197595 -0.23568998 0.035310198
000370 c6 41 2c bd e4 94 1e be 3e 41 8a bc 1d 1a d6 3d
       -0.042054914 -0.15486485 -0.016876813 0.104541995
000380 60 bf 91 3d 8e a5 15 3d 49 a9 a5 3c 31 f8 0a 3e
       0.0711658 0.03653484 0.020222323 0.1357124
000390 2f 08 88 bd e5 1f b6 bd 4a 16 27 3d e9 74 62 bc
       -0.06642186 -0.08892802 0.04079274 -0.013821819
0003a0 da 78 ba bc 96 db 63 3c 6a c6 db bd dd 66 c1 bd
       -0.022762705 0.013907334 -0.10731204 -0.09443448
0003b0 2d 86 06 bb a2 2a 40 be 33 5c a3 bd c4 b5 a4 3d
       -0.0020526752 -0.18766263 -0.0797657 0.080424815
0003c0 df e1 0b be 44 b2 08 be 5c 29 03 3d d5 76 af bd
       -0.13660382 -0.13349253 0.032021865 -0.08567587
0003d0 a6 45 9d bd 8c b3 e5 3c a6 90 b3 3d 2a 2c f8 3c
       -0.076793 0.028039716 0.08767824 0.030294497
0003e0 be 9e 50 be 95 c4 38 be 8c f3 8e 3d cf 16 60 bd
       -0.20373055 -0.1804374 0.06980047 -0.054709252
0003f0 f0 2b ae 3d ab 87 1e be 44 42 d8 3d 20 c4 fd bd
       0.08504474 -0.1548144 0.10559514 -0.123909235

Mixer_Block.0.mlp_block_token_mixing_DynaMixerOperation.fc_out.bias f4 [66]
000000 f1 a3 24 3e 32 68 5b bd 32 7d c2 3d 26 4e 9a 3d
       0.16078164 -0.053566165 0.09496535 0.07534437
000010 30 ae a1 bd 7b 66 82 bd 2a 69 5a be 20 c1 f4 3d
       -0.07894552 -0.06367203 -0.2132918 0.11950898
000020 00 b7 e3 bd 5f 91 46 bd 2b d5 61 bd cc 28 8d 3e
       -0.11118889 -0.04847848 -0.055134933 0.27570188
000030 c5 78 fa bd d3 54 1c 3d 49 57 69 3d e0 2d 7b 3e
       -0.12230066 0.038166832 0.056968007 0.24529219
000040 76 9b e0 bd 67 4c d8 3d 25 06 a8 bd 83 86 d9 bc
       -0.10967152 0.105614476 -0.08204297 -0.026553398
000050 2d 25 6a bd ed 3f 02 3d 7a ff a9 bd df ad c8 bc
       -0.05716436 0.031799246 -0.083006814 -0.02449697
000060 3c ad c1 bd 3c 99 3b 3c 98 71 3f 3d 45 b9 3c 3e
       -0.0945687 0.011450108 0.04673919 0.1843005
000070 bd 58 95 bb f9 74 e6 3d 34 1c d5 bb 3f 26 fd 3b
       -0.0045576976 0.112527795 -0.006503606 0.0077255066
000080 20 32 ee bd f1 61 86 bd 80 bc d2 bb d2 0c 50 bd
       -0.11630654 -0.065616496 -0.0064311624 -0.050793476
000090 3b 2c f0 3c 7a e9 92 3d a8 3e fe bd fd 15 97 3c
       0.029317966 0.07173438 -0.124142945 0.018443102
0000a0 75 2a 4a 3d cb e4 11 bd ba cd 4b bb bc 93 50 3d
       0.049356896 -0.035618585 -0.0031097964 0.05092214
0000b0 b5 15 8b bd e8 b1 1f 3e 07 9c 58 bc 2e 5c ae 3d
       -0.0679125 0.1559521 -0.013220794 0.08513676
0000c0 0a d2 69 3e 3b a1 92 3d 7a 55 81 3d be 3c 35 bc
       0.2283403 0.071596585 0.063151315 -0.011061845
0000d0 c2 6f 79 bd a5 21 63 bd 6b 69 09 be 90 77 55 3d
       -0.060897596 -0.055452008 -0.1341912 0.052115977
0000e0 6f 7f 5e 3c f1 71 8f bd 40 a5 5b be 14 07 71 3c
       0.013580187 -0.070041545 -0.21449757 0.01471116
0000f0 84 b6 ca bd 98 13 2c 3e 63 4b 52 be 73 e4 1e bd
       -0.09898093 0.1680435 -0.2053657 -0.038792085
000100 2d 19 a7 bd 84 46 71 3d
       -0.08159099 0.05890514

Mixer_Block.0.mlp_block_token_mixing_DynaMixerOperation.LN.weight f4 [10]
000000 95 cf a2 3f 29 e7 95 3f 30 ce 53 3f a6 94 2f 3f
       1.2719599 1.171117 0.8273649 0.68586195
000010 e5 ac fc 3e 68 db 3f 3f 82 1d 00 3f 66 b9 dd 3e
       0.49350658 0.7494416 0.50045025 0.4330551
000020 22 c5 fb 3e 08 54 1d 3f
       0.49173838 0.61456347

Mixer_Block.0.mlp_block_token_mixing_DynaMixerOperation.LN.bias f4 [10]
000000 18 01 3b 3e 2a 80 16 be 77 41 e1 3d 88 d7 13 3d
       0.18262136 -0.14697328 0.109988146 0.03609422
000010 23 4b 1b 3e a7 15 e9 bc d3 d5 67 3d 6d b7 52 bd
       0.15165381 -0.028452707 0.056600403 -0.05144446
000020 f0 66 97 bc 29 8e 49 3d
       -0.018481702 0.04920784

Mixer_Block.0.mlp_block_channel_mixing_DynaMixerOperation.fc_ND.weight f4 [1, 10]
000000 76 e2 cb bd b9 3c 15 3e e2 05 7d 3c da 01 b0 3d
       -0.09955303 0.14573945 0.015443297 0.08594103
000010 c7 af 83 3e 29 dc 9a be a2 10 7a 3d 04 ed 45 3e
       0.25720045 -0.30246094 0.06105102 0.19328696
000020 4f 1f 95 be 50 bd 0c be
       -0.2912545 -0.13744092

Mixer_Block.0.mlp_block_channel_mixing_DynaMixerOperation.fc_Nd.weight f4 [484, 22]
000000 eb 91 4c 3e 7f 37 4d be 8b 2a 30 be 5b 0b 53 bd
       0.19977538 -0.20040701 -0.17203729 -0.0515245
000010 56 49 6c bd 02 42 1e be 15 31 1a be 82 54 2d bd
       -0.057687126 -0.15454867 -0.15057786 -0.04231692
000020 8d 5b 55 3e 77 98 f5 bd 41 8c 6b bd 0e 3a 10 3e
       0.20835705 -0.11991971 -0.057506803 0.14084646
000030 51 76 ea 3d 04 36 cc bd cd 4e 57 3e c6 a8 1c be
       0.11448348 -0.0997124 0.21026154 -0.15298757
000040 19 b8 2e 3d 67 c9 4c 3e 9f 1a e2 3d 54 42 ed 3b
       0.042656038 0.19998704 0.11040234 0.007240573
000050 6d 33 2a be 0a 13 1c 3e a2 52 00 3e 8e 00 a7 bd
       -0.1662118 0.15241638 0.12531522 -0.08154403
000060 66 b2 b0 bd 9c 03 36 3e 86 53 34 3d 72 da 28 bc
       -0.08627777 0.17774814 0.044024967 -0.010305988
000070 ac 4a 59 3e 4f ae 09 be 19 e9 4e 3e f1 a3 2d be
       0.21219891 -0.134454 0.20206107 -0.1695707
000080 b8 2b be 3d 61 6a 6a bd 79 67 4c 3e c3 38 ce 3d
       0.092856824 -0.057230357 0.19961347 0.1006942
000090 eb cc fd 3b 15 4a 07 be 0f 6d ed bd 74 16 5a be
       0.0077453754 -0.13211854 -0.11593067 -0.21297628
0000a0 c1 dd 2d 3d 4e 67 0d be d8 ef 46 bd ed d0 f9 bd
       0.04244781 -0.13808939 -0.048568577 -0.121980526
0000b0 27 8f 20 bd ff 11 53 3e a8 10 50 3d 74 54 04 be
       -0.03919902 0.20612334 0.050797135 -0.12922841
0000c0 3b de 84 bd 8f 15 2d 3e 7f b6 98 bd a1 f3 93 bd
       -0.064876996 0.16902755 -0.07456683 -0.07224203
0000d0 b6 7c 54 3e 6d ca c9 3d 6e 58 24 3e 8a 75 61 bd
       0.20750698 0.09853063 0.16049358 -0.055043735
0000e0 8c b5 ca 3d 3c 23 33 3e d2 48 ab bd 70 90 48 3d
       0.098979086 0.1749391 -0.08363499 0.04896587
0000f0 d3 e5 42 3e 18 2d 1f 3e 23 48 49 3d 75 5f 09 bc
       0.19032983 0.15544546 0.04914106 -0.008384575
000100 2c 84 49 be 03 ef 4c 3e 48 b7 ed bd c0 af 36 be
       -0.19679326 0.2001305 -0.11607224 -0.17840481
000110 18 77 f0 3d 9e 32 3b bd b5 f0 56 3d b3 23 27 3e
       0.11741465 -0.04570257 0.05247565 0.16322212
000120 d2 8e 3b 3e af 56 19 be 90 13 53 bd f5 45 ae bc
       0.183162 -0.14974473 -0.051532328 -0.021273592
000130 55 04 e7 3c 1e 54 98 bb 53 88 0f be 1b 70 42 3e
       0.028200308 -0.0046486994 -0.14016847 0.18988077
000140 bc d2 3f 3c a8 51 0d 3d 2b e6 a3 bc 0a f1 10 3e
       0.011707958 0.0345017 -0.020007214 0.14154449
000150 b2 48 04 bd a9 ff 1c 3e 3b d8 1d be bd 4e 53 be
       -0.03229589 0.15331902 -0.15414517 -0.20635505
000160 01 93 18 3e 65 59 0a 3e 39 76 1f 3e c0 4b 97 3d
       0.14899828 0.13510664 0.15572442 0.07387495
000170 5d 46 48 3e fd 58 07 be 22 27 86 3d 3f 2b 6e bd
       0.19558091 -0.1321754 0.06550433 -0.05814671
000180 72 a4 e3 3d 9e 29 e5 3d 6f cf 27 3e cb 34 bd bd
       0.1111535 0.111895785 0.16387723 -0.09238585
000190 1a 2d 06 3e e1 9c 0f be 05 3f a2 bc f9 43 b2 3d
       0.13103142 -0.14024688 -0.01980544 0.08704371
0001a0 10 59 aa bd c9 87 57 bd 81 62 59 be d9 34 f7 bc
       -0.083177686 -0.05261973 -0.21228983 -0.030176567
0001b0 e3 b6 e3 3d 07 85 4f 3e e2 de 3b bc 3f 53 93 bd
       0.11118867 0.2026559 -0.011466714 -0.07193612
0001c0 6d 08 90 bc a5 f6 73 bd 7a fa 6a bd d7 95 9f 3d
       -0.017582143 -0.05956139 -0.05736778 0.077922516
0001d0 50 8c 50 3e ae 31 59 3d 38 1a 6e 3d fe 75 3f 3c
       0.20366025 0.053025894 0.058130473 0.011685846
0001e0 80 d6 1b 3e 9c 47 54 3e 4c 1f 16 be 17 29 4a 3c
       0.15218544 0.20730442 -0.14660376 0.012338898
0001f0 df 26 d3 3d af a4 4a be c2 0b 11 bd ab b6 18 3d
       0.103101484 -0.19789384 -0.035411604 0.03728358
000200 88 33 fb 3d 80 86 aa 3d 52 93 8a 3b d9 36 33 3d
       0.12265688 0.08326435 0.0042289877 0.04375348
000210 e5 2e 17 3e 45 fd d0 bd a5 8d 2f 3e 97 76 54 3e
       0.14763983 -0.10204557 0.17143877 0.20748363
000220 19 73 45 be 0c 9c bc 3c f8 ea 6d bc 15 d8 fa bd
       -0.19282188 0.023023628 -0.014521353 -0.122482456
000230 77 f1 e7 3c 44 be 59 3e cb a8 25 be c7 36 f1 bd
       0.028313382 0.21263987 -0.1617767 -0.11778026
000240 36 6a 3c 3d de f7 4c bd a3 4b 58 bc 3c 63 19 be
       0.04599973 -0.050041072 -0.013201627 -0.14979261
000250 ef 76 eb bd 10 db 4f be 18 6f 4e be dc d2 3e 3e
       -0.11497294 -0.2029841 -0.20159566 0.18635124
000260 30 1e a6 3d b9 f0 1c be 43 41 f1 3d 8c cf 09 3e
       0.081112266 -0.15326203 0.11780026 0.13458079
000270 6f 06 44 be 38 88 bd 3a b8 48 c6 bd 2d cd 3c be
       -0.19143079 0.0014460152 -0.09681839 -0.18437643
000280 45 c1 80 3d cb 68 c6 bd 2d be 48 3e be 66 4f be
       0.06286863 -0.096879564 0.19603796 -0.20254037
000290 96 63 17 be 32 6e 71 bd a3 bc 03 3e 9c d5 de 3d
       -0.14784083 -0.05894298 0.12864928 0.108805865
0002a0 75 c4 26 3e 64 36 d1 3d 23 c8 54 3e ca 2d 18 be
       0.1628588 0.10215452 0.20779471 -0.14861217
0002b0 13 e0 2d be ce 54 1c be 77 80 e0 bd 53 cc 2b bb
       -0.16980009 -0.15266725 -0.10962003 -0.0026214316
0002c0 dc 04 53 3e d2 9c 98 3b fd ce f0 3c 33 75 94 bd
       0.20607322 0.0046573663 0.029395575 -0.072489165
0002d0 ae b3 01 3e a4 09 27 3d 0c c1 39 be 99 77 da bd
       0.12666199 0.04078068 -0.18140048 -0.10667343
0002e0 f7 31 71 3d ff 79 38 3e 19 bc 0f 3e 5d 27 20 3e
       0.05888554 0.18015288 0.14036597 0.15640016
0002f0 33 77 03 bd 25 54 ad bd bd 00 23 be 3b 8e d1 3d
       -0.0320961 -0.08463315 -0.1591825 0.102322064
000300 f3 59 da bd 98 90 08 3e 2f cb 31 3d 44 f9 83 3d
       -0.10661688 0.13336408 0.04340666 0.06444028
000310 f0 21 c0 3c b0 67 23 3d 21 67 b7 bd 88 ca 24 3e
       0.023453683 0.039893806 -0.08955217 0.16092885
000320 3e b0 56 3e bb 78 5b bd 65 b0 23 be 3e 8c 43 be
       0.20965669 -0.053581934 -0.15985258 -0.19096467
000330 71 95 c4 bd 4e 47 e8 bd 67 c6 ea bc 99 80 3d be
       -0.09598816 -0.11341725 -0.028659059 -0.18506087
000340 11 af 10 bd 08 f2 a6 bd ca 11 0a 3e ac f9 37 3e
       -0.035323206 -0.081516325 0.13483348 0.17966336
000350 3a 59 d6 3c 2a 23 bf 3d b2 89 54 3e eb 21 48 3d
       0.026165593 0.09332879 0.20755652 0.04886047
000360 74 71 4f 3e d4 bd 52 3e 06 e6 16 3d db 74 1d 3e
       0.20258123 0.20580226 0.03684046 0.15376608
000370 a7 18 4c 3e a1 cc 56 be b3 d9 18 3e e0 ef 1c 3e
       0.19931279 -0.20976497 0.14926796 0.1532588
000380 72 15 25 be ee f3 21 3e 30 7e 50 3e 11 b8 16 3e
       -0.16121462 0.15815708 0.20360637 0.14718653
000390 a4 ea f5 bd e1 1d 4c be 27 79 0f bd b7 6c bd bd
       -0.12007645 -0.19933273 -0.03502765 -0.09249251
0003a0 9c 0d 10 be 6e 03 22 3d f4 9c df bd 45 29 b0 bd
       -0.14067692 0.039554052 -0.10918608 -0.086016215
0003b0 55 35 47 3e ac f5 01 be ea 28 1e be 06 0f 36 be
       0.19453938 -0.12691373 -0.15445295 -0.17779168
0003c0 df db ca bd d1 67 54 be 5f 28 a8 3c 61 89 4f 3e
       -0.09905218 -0.20742728 0.020527063 0.2026725
0003d0 36 0b c8 bd 49 3e e7 3d 9a 58 a0 3c 2e 3a 46 3e
       -0.09767763 0.11291177 0.019573499 0.19358131
0003e0 04 16 0d bc f0 5f 56 3e e1 a5 20 be 16 aa 26 be
       -0.008611206 0.20935035 -0.15688278 -0.1627582
0003f0 be ef 50 3d e7 e4 07 3e ad 83 2e bc 60 20 a8 3d
       0.051009886 0.13270913 -0.010651511 0.082093

Mixer_Block.0.mlp_block_channel_mixing_DynaMixerOperation.fc_Nd.bias f4 [484]
000000 19 71 4a be 1d 04 45 3e cc b9 35 be ab d7 22 bd
       -0.19769706 0.1923985 -0.17746657 -0.03975646
000010 f5 40 3b 3e ed 42 30 3e a5 1d a8 3d bb 40 4e bd
       0.18286498 0.1721303 0.08208779 -0.0503547
000020 1f d5 e5 bd b3 24 32 3c 69 30 d4 bd b1 69 99 3d
       -0.1122229 0.010873008 -0.10360796 0.07490862
000030 94 7e 3c be 0a 63 38 be f8 c0 dd 3d c4 1e d0 3d
       -0.1840766 -0.1800653 0.108278215 0.10162118
000040 6f c2 26 3d 21 79 35 3d 0d 89 b3 3d d3 cb 90 3d
       0.04071277 0.04430497 0.08766375 0.070701264
000050 28 b8 d6 3d 8d 99 a6 3d 4c 28 b1 3d fd 6e 24 3c
       0.10484344 0.08134756 0.08650264 0.010036227
000060 d3 1f 47 be fe 09 4f be 8b 4d 21 3d c5 2d 3f 3d
       -0.19445734 -0.20218655 0.03938059 0.04667451
000070 1b a1 1e be 75 8c be bd ee df 57 3e 98 e2 33 3e
       -0.15491144 -0.09304134 0.21081516 0.17566907
000080 cb f9 8c bd 82 10 50 3e 2f 45 52 3e 96 1c 2c be
       -0.06883582 0.20318797 0.20534204 -0.1680778
000090 41 86 2d 3e c6 94 9c bd 88 fe 3b be d6 aa 16 be
       0.16945745 -0.07645564 -0.18358815 -0.14713606
0000a0 91 6d 03 be 22 83 44 3e b9 2c 2d 3e 3d 1d 09 be
       -0.12834765 0.19190648 0.16911592 -0.1339006
0000b0 be ed a9 3d 62 e1 d4 bd 91 26 00 3e ed 6f 08 be
       0.08297299 -0.10394551 0.12514712 -0.13323946
0000c0 ce 3c 68 bd 52 4a a8 3d 12 1c c9 3d 5d 9d 2a 3d
       -0.056698613 0.082173005 0.09819807 0.04165398
0000d0 e1 f7 38 bb 1f e4 86 bc 57 50 2b 3e 5a 34 08 be
       -0.002822392 -0.016466198 0.16729866 -0.1330122
0000e0 c0 1f ee 3d dc 27 68 3d 54 ed bd bd 83 d4 d5 bc
       0.116271496 0.056678638 -0.09273782 -0.02610231
0000f0 57 72 9b 3a 9a c8 fe bd 2b b8 69 bd df 7d f9 bd
       0.0011859637 -0.124406055 -0.057060402 -0.12182211
000100 64 56 13 be f1 1e 32 3e bf a3 15 be 74 98 49 be
       -0.14388424 0.17394616 -0.14613245 -0.19687063
000110 f3 59 a5 bd da a7 17 be 5d f6 99 bc 38 01 36 3e
       -0.08073797 -0.14810124 -0.018794233 0.17773902
000120 8d b7 3d 3e 74 19 55 bd cd f8 06 3e 94 fd 0f be
       0.1852705 -0.052026227 0.13180847 -0.14061576
000130 0c 60 f6 bd b9 08 4a be b2 3c 63 3d 47 fc 41 be
       -0.12030038 -0.1972989 0.055477805 -0.18943892
000140 90 7c b1 bd 5e d0 f7 bd 8c 32 fd bd eb d0 40 be
       -0.086663365 -0.1210029 -0.12363157 -0.18829696
000150 66 ce 54 be dc 49 1d 3d 62 b0 4a 3e d8 de 06 3e
       -0.2078186 0.038400516 0.19793847 0.13170946
000160 46 cd 25 be f2 fd 4d bd 59 f9 85 3d ac 91 56 3d
       -0.16191587 -0.05029101 0.065417 0.052385017
000170 94 79 42 be 4a 74 b0 3d 4c 08 df 3d 89 28 74 bd
       -0.18991691 0.086159304 0.108902544 -0.05960897
000180 a0 28 10 3e 3d f6 eb 3d ac 5b cb 3d a0 0f 42 be
       0.14077997 0.115215756 0.099295944 -0.18951273
000190 c4 3f 15 3e d6 4e 56 bc 07 37 aa 3d 26 f6 15 be
       0.14575106 -0.013080319 0.08311277 -0.1464468
0001a0 9d 2b 65 bd f1 7d 36 3e 85 f6 b7 3d aa 66 cc 3d
       -0.055949796 0.1782148 0.08982567 0.09980519
0001b0 af a5 54 be 83 44 03 3d b4 ec 4c bc bd 60 be 3d
       -0.20766328 0.03204776 -0.012507606 0.09295795
0001c0 f5 d8 0c bd a2 bd 08 3e bb bc 83 bb b5 80 52 be
       -0.034386594 0.13353589 -0.004020301 -0.2055691
0001d0 d3 97 12 be f6 5a 25 be 2c 63 a5 3d 51 d4 49 3e
       -0.14315729 -0.1614798 0.08075556 0.19709899
0001e0 2e 8c 42 be e9 2c c9 bd cc 92 5d 3c ab bf ad bd
       -0.18998787 -0.09823019 0.013523769 -0.084838234
0001f0 ce 73 ba 3b e6 8a 10 be 39 c7 d0 3d 42 46 ca 3d
       0.0056900745 -0.14115486 0.10194249 0.09876682
000200 86 f9 3d be 21 0e b2 3d 23 37 56 3e 23 c7 ff bd
       -0.18552217 0.08694101 0.2091947 -0.12489154
000210 cd db c6 3d 20 51 10 3e c2 80 40 bd 0b ee 90 3c
       0.097098924 0.14093447 -0.046997793 0.017691633
000220 38 2c a6 bd 09 c5 d0 3d de 7c 4e 3e 76 bf ff 3d
       -0.08113903 0.101938315 0.2016482 0.1248769
000230 c8 88 ae 3d 02 2a 5b 3d 87 0d c6 3d 92 03 0c 3e
       0.08522183 0.05350686 0.09670549 0.13673237
000240 a3 ba ca 3d fe 05 06 bd b8 f7 49 3e dc 11 11 3c
       0.098988794 -0.03272056 0.19723403 0.008854356
000250 7a 7f b9 bc 02 3d 02 3e 67 9b 2c 3e 8e 1f f4 3d
       -0.022643793 0.12718585 0.16856156 0.11920081
000260 fd 06 16 3d 40 20 8e 3c 77 3d 4e 3e 97 bb 31 bb
       0.03662776 0.017349362 0.20140634 -0.002711987
000270 11 30 d4 bd 20 56 02 3d c9 1f 4d 3e 5e 57 52 3e
       -0.103607304 0.031820416 0.20031656 0.2054114
000280 c3 37 de 3d bb de 8f bd 16 d6 37 3e 02 5d d1 3d
       0.108504795 -0.07024904 0.17952761 0.10222818
000290 5c b2 6a bd 77 a0 b6 bd db c6 14 3e 5c ed 3f be
       -0.057299003 -0.08917325 0.14528982 -0.18742889
0002a0 8f 2b 3f 3e 44 fb bc bd 35 b6 e5 bd 5d 10 f7 bd
       0.1866896 -0.092276126 -0.11216394 -0.12063668
0002b0 11 1a 1f be 1a 25 1a be b8 de 0f 3d de 10 bc bd
       -0.15537287 -0.15053216 0.03512451 -0.09182905
0002c0 c7 82 e9 3d c9 52 4d be 0c 12 00 3e 55 9b 66 3d
       0.11401897 -0.20051111 0.12506884 0.05630048
0002d0 dc 33 bd 3d bb 34 23 3c 70 49 44 3e f6 76 33 3e
       0.09238407 0.009961302 0.19168639 0.17525849
0002e0 bb 1f 34 be f0 10 af 3d 4d 14 48 3c c2 6c ac 3c
       -0.17590229 0.085481524 0.012211871 0.021047954
0002f0 34 66 30 3d e8 dd 50 3e d4 6a 2e 3e c7 1a a7 bd
       0.04306622 0.2039715 0.17032939 -0.08159404
000300 29 8a 48 3e cf 53 03 bd 37 5e a6 bd 94 22 3e bd
       0.19583954 -0.032062348 -0.08123439 -0.046419695
000310 98 24 d6 3d 47 c1 08 3e 22 50 56 be e1 34 12 bc
       0.104561985 0.1335498 -0.20929006 -0.00892374
000320 09 58 56 be 54 c2 04 be e3 fc fa bc 50 7c 06 3e
       -0.2093202 -0.12964755 -0.030638164 0.13133359
000330 05 b0 32 3e 0f cd 64 3d 9c 05 04 be 95 25 58 3d
       0.17449959 0.05585962 -0.12892765 0.052770216
000340 2f 85 2f 3e 5b ba b7 bd e0 4c e5 3c 7e d1 29 be
       0.1714065 -0.08971091 0.027990758 -0.16583821
000350 ef 21 4d 3e a3 5c 55 bc 78 12 ae 3c 3a 8d 4a be
       0.20032476 -0.013022575 0.021249041 -0.19780436
000360 06 32 c2 bd e5 c3 3d be a3 56 34 be 80 4f 33 bd
       -0.094821975 -0.18531759 -0.17611174 -0.04377699
000370 3b b8 1d 3e 01 9b 17 be d1 bb c1 3d 64 12 91 3c
       0.1540231 -0.14805223 0.09459651 0.017708965
000380 99 9f 8f 3d 63 d8 b1 bd 6e 12 07 3e 1f 30 44 bc
       0.07012863 -0.086838506 0.13190624 -0.011974364
000390 02 aa 27 3e d2 d9 ca bd 63 09 7a bd d8 e9 f8 3d
       0.16373447 -0.09904827 -0.061044108 0.12153977
0003a0 d4 ba 02 3e cc 4e 95 bd 87 52 46 bd c7 1f 99 3c
       0.12766582 -0.0729042 -0.048418548 0.01869191
0003b0 57 10 fa bc 4d 09 42 be 31 04 39 bd 27 f5 35 be
       -0.03052537 -0.1894886 -0.045170013 -0.177693
0003c0 ea ea 36 3e 99 b7 80 3d de 40 51 3d fd f8 ab bc
       0.1786305 0.062850185 0.051087253 -0.02099275
0003d0 d6 4d 4d be 01 57 1a be f0 8d 34 be 1f 21 cb 3d
       -0.20049223 -0.15072252 -0.1763227 0.09918427
0003e0 25 3b 94 bd 18 a7 2a 3d 7a ae ab 3b 91 50 31 bc
       -0.072378434 0.04166326 0.005239305 -0.010822431
0003f0 9f ff 41 be 92 54 98 bd 6d 03 43 bd 4d b8 b4 3d
       -0.18945168 -0.074380055 -0.04761069 0.08824215

Mixer_Block.0.mlp_block_channel_mixing_DynaMixerOperation.fc_out.weight f4 [10, 10]
000000 84 14 0e bc 6a dc 48 bd fd 2e 37 3e ca ae 03 be
       -0.0086718835 -0.04903833 0.17889018 -0.12859645
000010 78 05 5a be b0 fe 1d be f2 b8 8c 3d f3 f7 61 be
       -0.21291149 -0.15429187 0.06871213 -0.22067241
000020 f8 57 64 bd 54 d0 c3 3d 50 84 85 3e 71 7f 40 3e
       -0.055747956 0.0956122 0.2607751 0.18798615
000030 07 db 31 be 57 dd be bd b8 fd 4a 3e 69 5d 18 be
       -0.17368709 -0.09319561 0.19823349 -0.14879383
000040 62 56 0e be ed df 44 be f6 70 31 3e bf 7f 97 3e
       -0.1390014 -0.19226046 0.17328247 0.2958965
000050 2c 57 80 be 3c 40 a0 be 00 cd f9 bc a9 1d b0 bd
       -0.25066507 -0.31299007 -0.03049326 -0.08599407
000060 68 63 c3 3c 5d 0a 3c 3d 01 69 64 bd 0f c8 42 bc
       0.023851112 0.04590832 -0.055764202 -0.011888518
000070 65 7d 36 3d 8d bf 80 be 1b 6d 83 be 98 a2 8e 3e
       0.04455318 -0.25146142 -0.25669178 0.27858424
000080 77 45 1e 3e 12 54 c3 bc 81 83 5d bd bf 34 2a be
       0.15456186 -0.023843799 -0.05408049 -0.16621684
000090 7a 8f 4c 3c 66 ab 81 3e 34 49 7e be b0 73 15 3e
       0.012485379 0.2532608 -0.24832612 0.14594913
0000a0 10 69 3d be 82 1b 5c 3e 56 2f d8 3b 6a 48 64 3e
       -0.1849711 0.21494868 0.0065974398 0.22293249
0000b0 28 44 24 3e 59 05 23 be f5 10 21 be ec e6 2f 3e
       0.16041625 -0.15920009 -0.15729125 0.17177933
0000c0 fb eb d7 3d 2a a3 66 3d 88 2c db 3c 62 b1 59 be
       0.105430566 0.05630795 0.026754633 -0.21259072
0000d0 13 89 7b 3e 11 ba 00 3e 45 92 7a be 9f bd a8 bd
       0.24564008 0.12570979 -0.2446986 -0.08239292
0000e0 8f 32 1e 3e b3 8d 09 bd 4f 4a ba 3c b8 98 81 3c
       0.15448974 -0.0335824 0.022740511 0.015819892
0000f0 f9 9e 94 be 7e 87 9b 3e ee d6 e7 3d 13 01 99 be
       -0.29027537 0.3037681 0.113202915 -0.29883632
000100 35 52 2f 3b 74 77 6e 3d 18 33 f2 3d 10 1c 81 be
       0.002675188 0.058219388 0.118261516 -0.25216722
000110 e7 c3 94 3d 1a 6f bc bd f6 24 0e bc 44 e8 54 3d
       0.07263928 -0.092008784 -0.008675804 0.05197932
000120 37 22 60 3e e5 8a 81 be f3 70 99 3e d4 b0 7e 3d
       0.21888052 -0.2530128 0.29968986 0.062180355
000130 ea 77 64 be 28 f3 0d bc 29 84 05 3e f9 02 76 3e
       -0.22311369 -0.00866393 0.13038696 0.24024571
000140 c8 51 6e bd 16 8a 9e 3e b1 52 6e 3d 5e 72 f0 3a
       -0.05818346 0.30964726 0.05818433 0.0018344631
000150 d0 bf 21 bd f0 2c 9d be 83 7e 36 3e 24 1e 0c be
       -0.039489567 -0.30698347 0.17821698 -0.13683373
000160 0f a9 a0 3d e0 ca 85 be 9c a2 8d be 5b 2d 79 3e
       0.07844745 -0.26131344 -0.27663124 0.24333708
000170 57 38 8d be fd db cd bb f0 92 f0 3b c1 4a 25 3e
       -0.27582046 -0.006282328 0.007341735 0.16141798
000180 bf 06 52 bd fe 41 6b 3e b4 8f 27 bd df f7 86 3e
       -0.051275965 0.22974393 -0.04090853 0.26360986

Mixer_Block.0.mlp_block_channel_mixing_DynaMixerOperation.fc_out.bias f4 [10]
000000 a9 00 83 be 12 3a 90 be a8 3a 8d 3e 85 9f f5 bc
       -0.2558644 -0.28169304 0.27583814 -0.029983291
000010 1e ce 74 3e 44 cf 5c be 44 57 42 3e 24 a5 85 be
       0.23906752 -0.2156344 0.18978602 -0.26102555
000020 14 13 95 be 9b 15 c5 bd
       -0.29116118 -0.096232615

Mixer_Block.0.mlp_block_channel_mixing_DynaMixerOperation.LN.weight f4 [22]
000000 00 00 80 3f 00 00 80 3f 00 00 80 3f 00 00 80 3f
       1.0 1.0 1.0 1.0
000010 00 00 80 3f 00 00 80 3f 00 00 80 3f 00 00 80 3f
       1.0 1.0 1.0 1.0
000020 00 00 80 3f 00 00 80 3f 00 00 80 3f 00 00 80 3f
       1.0 1.0 1.0 1.0
000030 00 00 80 3f 00 00 80 3f 00 00 80 3f 00 00 80 3f
       1.0 1.0 1.0 1.0
000040 00 00 80 3f 00 00 80 3f 00 00 80 3f 00 00 80 3f
       1.0 1.0 1.0 1.0
000050 00 00 80 3f 00 00 80 3f
       1.0 1.0
