M_2_AST/MotionMixer-main/h36m/run_for_longging/exp203/model.pt (torch, 875533 bytes, 192 tensors)

Mixer_Block.0.mlp_block_token_mixing.fc1.weight f4 [20, 10]
00000000: 03a2 4bbb d06c 30bd 8300 04be fdf7 1a3e
00000010: 3a1f 293f 3a57 1bbf 13e5 55be 10d4 5ebe
00000020: e184 793e 06c1 503e af87 d73e b761 8d3e
00000030: 1ef0 2d3f c2dc d2be ccd4 dbbe f552 14bf
00000040: 8a53 edbe 832b a8be 5dee a13e d646 4cba
00000050: 5dcd 683e 8d23 a2be 68ec 723e 5f13 c9be
00000060: a089 a33e 2f62 cbbd 6029 a23d 7c9e 2f3e
00000070: 6bf9 203e d323 23bf e657 b03c a692 8f3e
00000080: b6be e2bd bcbd c43e ea6c 53be e8e9 0a3f
00000090: 05d0 e6bd 931e efbe a23b 98be 4ed2 e23d
000000a0: 08d8 973e fd7e a2be 6ec0 e63e f93d 60be
000000b0: 108d 023f 4e1f 11be 6a5b 213e e1d3 46be
000000c0: 1474 f63d 93ba a1bd 8174 d23e e755 f6be
000000d0: 358a 9a3e 5132 d63e 7b57 903e a024 93bd
000000e0: ab0d b33e 9573 57be c44b 753e 343b e8be
000000f0: c742 6dbe 5995 ee3d 12c4 2cbf 4b55 8c3e
00000100: c13c 4ebe dac5 c43e b649 42be be5f e4bb
00000110: 92a2 a5be 4dc8 c63d 8547 87bd c3b4 c73e
00000120: ce0a 603d 818b 323d 4edb 1abf 907d 473e
00000130: d032 bdbd 97f5 b9bd e5c6 91be 8f7e 4cbe
00000140: 9440 773e f865 58be 29ec 8e3e 3999 a03d
00000150: 1299 603f ccc2 30be 56b7 81bd 766d c5be
00000160: 622e e13e 797f 34be 1658 eabe 1116 613e
00000170: b5ad 02be 22f5 9bbd 0ba3 32bf 28f9 5b3e
00000180: 4dd9 0fbe 9368 44bd 8ae1 c0be 00c2 0d3e
00000190: baeb 66bd a6d8 abbe 4528 01be 3e6c 0fbf
000001a0: 39f9 f13c ea4d 20bf 4470 6abd 2377 453e
000001b0: 4073 843e c7a6 2b3f 9a49 82be 795d 013e
000001c0: cb8e f9be 3503 00be 331c 12bf eb92 b93e
000001d0: 13d6 4e3d 19ff a53e cf91 99bd c603 e83e
000001e0: 90b3 5a3e 13b8 5cbe 8394 c33e 50c7 babe
000001f0: 104f c8be d89a f0be a0ae 943e 3e12 073e
00000200: 1ffc d73e b7c7 06be 9dd7 b23e ec22 9cbe
00000210: 8c70 ee3d fe1f 14bc d1ba 583d 1f22 18bf
00000220: 1e5b 173e 2d56 8bbd f413 c03e 63c2 e8be
00000230: e8cd 523e fbe8 c5bd e983 11be 6a46 a5bd
00000240: 8e13 183f c69f d1be 7a83 b53e e0d9 063e
00000250: 8ef3 993d f418 c3be bd2e 523d 0f5a c7bd
00000260: a970 3e3e 6fcc 3c3e 5447 8f3e 831e bcbe
00000270: 5dc1 8f3c ddaa d23e 233f 053f c8e7 d6bd
00000280: 625e e23e 7a36 e13d d9f9 fc3e ef0b 56bc
00000290: 61e0 3cbf fbb4 13bf e80c 693e 68cd edbe
000002a0: fb68 8b3c 6c1b 91bd 1f4a e33e 832a d3bd
000002b0: bb93 94be bda6 5fbd 39d2 1a3f b605 23be
000002c0: de41 55bd 16ea 473f 944c b23d 6b69 f43d
000002d0: 5d58 b73c 175a c23e fb5e 8cbe 42e3 21be
000002e0: 3396 84be 0e49 303f 64ea bbbe e029 f3be
000002f0: f5f1 1b3e fd5d db3e bd83 98be e5f7 483e
00000300: 92a5 4cbe 6eef 5f3d 54a0 dabe c580 0d3f
00000310: 473f afbe 3234 cb3e 5abf 33bf e655 903d
-0.0031071908 -0.04307252 -0.1289082 0.15133663 0.6606327 -0.6067997 -0.20888166 -0.21760583
0.24367096 0.20386133 0.42095706 0.27613613 0.67944515 -0.4118405 -0.4293579 -0.5793908
-0.46352798 -0.32845697 0.3162717 -0.0007792538 0.2273459 -0.31667748 0.23722994 -0.3927259
0.31940937 -0.099308364 0.07918048 0.171503 0.15720145 -0.6372654 0.021526288 0.2804157
-0.110715315 0.38426006 -0.20647016 0.5426316 -0.11270145 -0.46703014 -0.29732996 0.11075269
0.29657006 -0.3173751 0.45068687 -0.2189864 0.50996494 -0.14172098 0.15757528 -0.19416763
0.12033859 -0.07896914 0.4110451 -0.48112413 0.3018357 0.41835263 0.28191742 -0.0718472
0.34971365 -0.21040185 0.23954684 -0.45357668 -0.23170005 0.116495796 -0.6748668 0.27408823
-0.20140363 0.384322 -0.18973431 -0.006969421 -0.32350594 0.09706173 -0.06605438 0.39005098
0.054697804 0.043590073 -0.6049088 0.19481492 -0.09238207 -0.09080046 -0.28472057 -0.19970153
0.24145728 -0.21132648 0.2791455 0.07841725 0.87733567 -0.17261809 -0.06333797 -0.38560075
0.439807 -0.17626752 -0.4577033 0.21981074 -0.12761576 -0.07615115 -0.69780034 0.21481764
-0.14047737 -0.047951292 -0.37672073 0.13843536 -0.05637715 -0.33563727 -0.12613018 -0.5602454
0.029537784 -0.6261889 -0.05723597 0.19283728 0.2586918 0.6705136 -0.2544678 0.12633313
-0.48741755 -0.12501223 -0.5707428 0.36244902 0.050497126 0.32421187 -0.07498514 0.4531538
0.2135756 -0.21554594 0.38199243 -0.36480188 -0.3912282 -0.46993136 0.29039478 0.13190553
0.4218454 -0.13162123 0.34930125 -0.30495393 0.1164256 -0.009040831 0.052912537 -0.59427065
0.14780852 -0.06803546 0.37515223 -0.45460805 0.2058636 -0.09663578 -0.14210476 -0.08070071
0.5940484 -0.4094221 0.3545187 0.1316905 0.075171575 -0.38104975 0.051314104 -0.09733974
0.18597664 0.1843736 0.27984107 -0.3674203 0.017548257 0.41145983 0.52049464 -0.104934275
0.44212633 0.10996719 0.4940937 -0.013064369 -0.73779875 -0.5769803 0.2275883 -0.46445775
0.017017832 -0.070853084 0.44392487 -0.10310843 -0.2901896 -0.054602373 0.60477024 -0.15920147
-0.05206477 0.7809156 0.08706012 0.119341694 0.022381002 0.37959358 -0.27416214 -0.15809348
-0.25895843 0.6886147 -0.36702263 -0.47492886 0.15229018 0.42845145 -0.29788008 0.19625814
-0.19985035 0.054671697 -0.42700446 0.5527461 -0.34227964 0.3968826 -0.70213854 0.07047634

Mixer_Block.0.mlp_block_token_mixing.fc1.bias f4 [20]
00000000: 1272 c13e 156d ef3e bf36 d93e 363d 8c3e
00000010: 93f0 963e e0b6 db3e 8e45 163f f971 a63e
00000020: 8027 143f cb43 c63e b97b 0f3f ee91 f03e
00000030: becf 113f ad0b ea3e bbcd 2e3e c5e2 7d3e
00000040: 59b5 b63e 8569 263f c4da 103f f192 383f
0.3778234 0.4676291 0.4242458 0.2739045 0.2948042 0.4291296 0.5869988 0.3250883
0.5787277 0.38723597 0.5604816 0.46986336 0.56957614 0.45712033 0.17070667 0.24793537
0.35685232 0.6500476 0.5658381 0.72099215

Mixer_Block.0.mlp_block_token_mixing.fc2.weight f4 [10, 20]
00000000: fe08 3b3d 4ddd 7abc e420 de3d 24a1 32be
00000010: 643e d73e cc4c 703d 4334 cfbe 3a0c 0a3c
00000020: 9534 543e 7710 373e c909 b7bb 0abb 85be
00000030: 867f bd3d d05f a8bd 8b15 b9bd c9fa 38bd
00000040: 620b dbbd 3661 90be 81ba b2bd b8d6 8dbc
00000050: b9a4 2b3e 3085 a2be 5b96 36be 79b5 cebd
00000060: 09a7 cdbd 4266 b33d 41ef 263e 0182 5ebe
00000070: 0b38 383e 1a06 0b3e 8614 f9bb 325b 3bbc
00000080: 50df 41be eb7a bfbd 5013 cb3c 5d31 4d3d
00000090: ba3c b0be 7f33 12be 4a56 04be e42d e4bc
000000a0: ff20 7d3d ff9f 35bf baba 343e 0390 08be
000000b0: bdbf b43e ed05 2b3e ae2b 963e d64e 22bf
000000c0: 3a56 153e 4b95 f2be bdf9 923e 768a 743e
000000d0: 79ce 89be 6687 6cbd f858 a13e ded6 3d3c
000000e0: d8a5 22bf 7897 0c3f da59 903c 5dfc 0abe
000000f0: bad5 eabe af41 83be a4de a13d fd1e 113d
00000100: b902 e5be 4d59 ffbe e092 083e ca6d 353e
00000110: f636 cebe 6e4c 953e 1768 a6bd fde6 0c3f
00000120: f980 03be 2b5c 1bbf d070 58be 4dc8 82bc
00000130: e0a9 1abf 78df 6a3e 9d3b e33e 8360 183f
00000140: a953 e7be 1fc3 a23e aaf5 853d 7e82 39be
00000150: 3173 0dbd 4e24 d33d 634b c5be 2fde 383e
00000160: befb f9be 3aef a83e 8064 7e3e f7e4 b83e
00000170: ec8a 653f 165b e33d 1472 7bbe 6f42 58bd
00000180: 45b8 333f 6b59 23bf cc90 d639 f142 0abe
00000190: 7e52 993e 4f13 dfbd 3d79 47be 4315 e3be
000001a0: 45be e6bd ee42 8abd 47b7 adbe 0e39 98be
000001b0: 0479 40be bf69 e5be e6e5 093f 45c4 233e
000001c0: 9a83 ba3e 9688 a83e 5d30 043e ba4c 3c3f
000001d0: 843f b13d e2e4 293f dffa 15bf 65b8 a3be
000001e0: 3e56 113f f333 b33e 21c6 393e b2da d9bd
000001f0: 9284 ed3e 3e87 053e 8fd3 bdbe d708 a0be
00000200: 26b5 313f 0e2b cebe eedc 1e3e 28e5 babe
00000210: 2c0d f1bd 7884 703d c776 e63c 00ab eb3e
00000220: 37b0 4cbe 3d17 0c3e 8e8c 8c3e 93b4 d5be
00000230: 0602 933d 9329 19be 7cdc e9be ee62 243f
00000240: d560 8fbe dc74 e33d 9723 c13e 90a0 dc3c
00000250: 6cc3 933d 89b7 873d 6739 14bf c175 a43b
00000260: 224d e3be b8a5 acbe 1445 8fbe ad58 bcbe
00000270: a3d8 3a3e 4483 a2be f0c1 143f 4e51 89bd
00000280: 3855 29be 019b 38be 1e06 2dbe 24b2 be3e
00000290: bfbc 6cbe 8d09 59be 4628 083e 588d b93e
000002a0: e39c e3be fd6d 4c3e d306 e6be 12b3 b5bb
000002b0: 0dea 03bf 0218 f6be a382 6cbe a169 f1be
000002c0: 9acd dc3c 5898 4dbe a342 61be c251 1c3f
000002d0: a8a1 e2be 913d 32be bf06 333f fc3b c63b
000002e0: 1c42 7a3e 753d 593f 2341 a0bd 9315 a33d
000002f0: d993 973e 5ebb babe 6c70 87bf 6b78 e9be
00000300: 84d1 213b 67d7 113f 41df aa3e 8478 853e
00000310: 641f 29bc e7f9 513e 8f62 09bf 9a8b f83c
0.045662872 -0.015311551 0.10846117 -0.17444283 0.42039788 0.05866699 -0.4046956 0.008425767
0.20723183 0.17877375 -0.0055858833 -0.26119262 0.09252839 -0.082214 -0.09037312 -0.045161042
-0.106955305 -0.28199166 -0.08726979 -0.0173143 0.16762055 -0.3174224 -0.17830794 -0.10093207
-0.10041625 0.087597385 0.16302206 -0.2172928 0.17990129 0.13576546 -0.0076013235 -0.011435317
-0.18932843 -0.093496166 0.024789482 0.050095905 -0.3442133 -0.14277457 -0.12923542 -0.027853914
0.061799046 -0.7094726 0.17649356 -0.13336186 0.35302535 0.1670148 0.293302 -0.63401544
0.14583674 -0.47379526 0.2870616 0.23880944 -0.2691534 -0.057746314 0.3151319 0.011586873
-0.6353431 0.5491862 0.01762097 -0.13572831 -0.45866185 -0.2563605 0.079037935 0.035429943
-0.4472864 -0.4987282 0.13337278 0.17717662 -0.40276307 0.29159874 -0.08125322 0.5503996
-0.12842168 -0.6068751 -0.21136785 -0.015964651 -0.6041546 0.22936809 0.4438142 0.59522265
-0.45181015 0.3178949 0.06540997 -0.18116185 -0.034533683 0.10309659 -0.38534078 0.18053506
-0.48824877 0.32995015 0.24843025 0.36112186 0.896651 0.11101358 -0.24555236 -0.05279773
0.7020305 -0.63808316 0.00040925143 -0.13502099 0.2994575 -0.10892355 -0.19479842 -0.4435216
-0.1126676 -0.06751047 -0.33928892 -0.2973103 -0.18796164 -0.4480724 0.5386642 0.1599284
0.3642853 0.32916707 0.12909074 0.73554575 0.08654693 0.6636487 -0.58585924 -0.3197662
0.5677222 0.35000572 0.18141986 -0.10637416 0.46390206 0.13039872 -0.3707547 -0.31256744
0.69417036 -0.40267223 0.15513965 -0.36502957 -0.117700905 0.058720082 0.02813281 0.460289
-0.19989096 0.1368074 0.27450985 -0.4173933 0.0717812 -0.14957266 -0.4567603 0.64213455
-0.28003564 0.111062735 0.37722465 0.02693203 0.07215008 0.066268034 -0.5790009 0.00501892
-0.44394785 -0.33720183 -0.2798239 -0.36786404 0.18246703 -0.31740773 0.58108425 -0.06704961
-0.16536415 -0.1802788 -0.16896865 0.37245286 -0.23118876 -0.2119505 0.13296613 0.3624065
-0.44455633 0.19963832 -0.4492708 -0.0055450285 -0.5152901 -0.48065192 -0.23096709 -0.471509
0.026953507 -0.20077646 -0.21998076 0.6106225 -0.4426396 -0.17406298 0.6993217 0.006049631
0.24439281 0.848594 -0.07824924 0.07963099 0.29604986 -0.36471075 -1.0581183 -0.45599684
0.0024691531 0.569693 0.33373454 0.2606851 -0.0103224255 0.20505486 -0.53666013 0.030340005

Mixer_Block.0.mlp_block_token_mixing.fc2.bias f4 [10]
00000000: 5453 a73e 12fb b63e eb33 9b3e a052 c33e
00000010: fb57 1ebe 16b9 913d 40fe febd a994 9d3e
00000020: ac5c db3e 8bd9 6c3e
0.32680762 0.35738426 0.30313048 0.38148975 -0.1546325 0.071153805 -0.12450838 0.3077748
0.4284414 0.23129861

Mixer_Block.0.mlp_block_token_mixing_DynaMixerOperation.fc_ND.weight f4 [1, 66]
00000000: bc8a 743d 0492 43bc a721 c73d ede7 4d3b
00000010: d343 043d 1b38 9abc 2a3f a3bc a110 ba3d
00000020: 9121 903a 4b14 1e3d bffd 763d 5f9a 1f3d
00000030: aef6 fe3b d33e 753d da35 903c 27c2 1c3c
00000040: 4376 68bd 6b93 243d d8cc 483c dfdc 4a3c
00000050: b683 b4bb 929b fbbb f44e d1bb a1c4 72bd
00000060: aa06 3abd acbb 043a 0fed aebb 7ee5 713b
00000070: b364 843c 7355 bfbc 476d 153d 25b2 1a3d
00000080: b936 a6bc 9165 98bc 7e5f 323d e0fe 423d
00000090: 6eec f2bc 2fad 9b3d 5fbb 543d ed13 0d3d
000000a0: d868 c83c 65cb d1bb 33d4 78bc 0e32 32bd
000000b0: d116 8e3c 734d 59bc dba8 24bc 00ee b23d
000000c0: f6b1 b8bc 2724 dabc 6341 813c 750f 1abd
000000d0: 684c 10bd fdfe 04bd 6474 4d3d f7c9 c63c
000000e0: 012d 49bd 3b91 03bd cf0f 1b3c 0796 ed3c
000000f0: 97a6 2dbd 8fa1 bf3c 5817 ba3b aa0c 153d
00000100: 6170 353d 7d43 703d
0.05970262 -0.011936668 0.097232156 0.0031418756 0.032291245 -0.018825581 -0.01992758 0.09085203
0.0010996332 0.03859357 0.060300585 0.03896558 0.0077808714 0.059874367 0.017603803 0.009567774
-0.05675341 0.04017965 0.01225587 0.012381761 -0.005508865 -0.0076784575 -0.006387586 -0.05926955
-0.04541651 0.00050633657 -0.005338318 0.003691047 0.016161298 -0.023356175 0.036481168 0.037767548
-0.020289766 -0.018603118 0.0435481 0.04760635 -0.029653754 0.076013915 0.051936503 0.03444283
0.024464056 -0.0064024203 -0.015187311 -0.043504767 0.017344864 -0.013263094 -0.010050024 0.08736801
-0.022545796 -0.026628567 0.01577825 -0.037612397 -0.035229117 -0.03246974 0.050159827 0.024266226
-0.049115185 -0.032120924 0.009464218 0.029002203 -0.0423952 0.023392467 0.0056790523 0.03638903
0.044296626 0.05865811

Mixer_Block.0.mlp_block_token_mixing_DynaMixerOperation.fc_Nd.weight f4 [100, 10]
00000000: 1630 a2be 59a4 2abf bfa6 2dbf 0cf3 2fbf
00000010: 928c debe 078f 34bf 685d 80be 72f0 87be
00000020: 6f43 91be ee2d f5be 276f 7bbd 9d3f ce3d
00000030: 8693 19be 77b4 4fbe 69cd ff3d 4752 ee3d
00000040: c05e 13bd a07d 04be a70a d43d 564e 3fbc
00000050: d574 623d 7e34 a23c b5a3 443e 439a 1f3e
00000060: 4b8f a0bd 2524 7cbe fea4 fe3d ca03 333e
00000070: 05b9 5ebd 3ac2 6b3e 8f9d 77bd 36b3 8abd
00000080: ade2 243d 3d57 be3c d275 4ebe ee2b eebc
00000090: 7272 eb3d b509 12bd 5362 1abd 5069 393e
000000a0: f0df 363e ef69 65be 51cc 2b3e 9fef 363e
000000b0: e70a 273e 22d3 2a3d 5bb1 bc3d 77a6 b2bb
000000c0: aefa 8abd 4538 7f3e 3dcd 0abe cb2d 9bbd
000000d0: 167c 693e 8b68 0e3c 2bfc b53d 646b 653e
000000e0: 612d 953d 0c75 26be 41ae 333d 9a85 94be
000000f0: aa29 c23d bd0c e53d 8c84 003e 6320 1abe
00000100: 75e9 c9bd 1a31 c03e db65 703e 4a09 48bd
00000110: 339e 003d 4537 093e 48d3 64be b230 e3bd
00000120: 7f95 ad3e 39df 0b3e fd61 adbd c7b1 773e
00000130: fe85 ccbd 396c 82be 0fd2 c4bd e9cb f6bd
00000140: 0d98 79be 090f bbbe d67c 3dbe 8612 46be
00000150: 363a abbd 2604 393b ffea a63e abfa 103e
00000160: 8009 35be 0f64 2a3d dafb 01be f923 50bd
00000170: d3a7 e43d a3b3 14be dd51 d0bd fc0b 71be
00000180: fffc 4cbe 10af 7fbd 33b6 a23d 3364 613e
00000190: a4d8 d33e 0d86 48be e5dd 5dbe a7c1 183c
000001a0: 7894 69be f1a8 8fbe 2a74 46be f600 62bb
000001b0: ce0e 2cbe 0f22 223e fbed 35ba 06a2 aebe
000001c0: 03e6 2bbf c821 5ebe 5980 01bf b39e a4be
000001d0: a0e7 6abd 3e2a debe 87ad fbbe 38d0 37bd
000001e0: 433c 01be 80dc 8d3e 8ddc 783e 2943 05be
000001f0: ec62 76bd 7f71 33be 5dc0 febd 0823 ad3e
00000200: 74b8 cf3d dca8 ea3d c70c 68bd 6acf 14be
00000210: b62d afbd 1ceb 2abe 29c7 a2bc d39b 69bc
00000220: dd27 813e 5846 4abd 059c efbd 6e0d 323e
00000230: ae9e c63d 4a75 c23e b4ab 143e 5e2e 9f3d
00000240: 0029 a23e d484 8b3c 653a 3ebd 1792 dbbc
00000250: eecc 8abd a858 413e e610 ae3d 9390 71be
00000260: 278b 31be aab1 70be 1533 b1bd 7268 96bd
00000270: 49b1 353e bcd8 5b3d 1cdc 50bd f4af 6cbe
00000280: d1b2 cb3d 0c94 d33e 4687 433e d354 443e
00000290: 8069 2c3e 85e2 183e cca7 e0bc af64 b3bd
000002a0: e6ec 873d 995b 56be 7983 a43d 77fa 94be
000002b0: c2ae 9fbe f248 7ebe 57a0 16be 1605 a9bd
000002c0: 636c 1dbe 6504 0abe b3a3 693e ae3e 423e
000002d0: 4ec4 313e fc33 9dbc d3c7 b83c 54fc 09bb
000002e0: 8a4a 453e f83b 05be 27a6 8f3e 2657 8b3e
000002f0: d985 923d 4f18 c0bd f137 a33e 75f8 463e
00000300: 203c 6c3e 4e1f c7bd 1ab6 37be 46a6 a0be
00000310: fda5 bbbd 77fa b2bd 6f8f c7bd 6e0c 2bbd
00000320: 190a 88be abf4 fe3b 9b81 a6bd b827 2c3e
00000330: 65b6 5a3e c3f5 1b3e d9ff 103e 2f75 133e
00000340: b7a2 b63d 6d73 a63d eb98 513e 6ae8 8cbe
00000350: 5dd9 c13d 947e cc3c 5d2b 98bc 8602 eabd
00000360: 88db 913c 7f50 b1bc bdb5 5cbe 894a 97be
00000370: 97cf 1fbe 479f e7be 6a2b 3abf 33f1 283e
00000380: 5ae7 b83d 3fe2 243d 2868 16be 4840 ffbd
00000390: 0ef1 abbd 8c47 a0bd 54b6 3c3d 3da4 1a3e
000003a0: 26ea 8cbe edd6 0ebe ac03 db3d ea5c ebbe
000003b0: cbee 823e 81f6 a4be 8f47 98be 46de 3abe
000003c0: f7b8 72be 8ceb d33d d1e9 e9bd 64f6 5e3d
000003d0: 62d8 52be 7ee9 75bb b10a 3f3e db2d 523c
000003e0: 76e0 dabd d02c 783e 578e d0bd e288 be3b
000003f0: 6e27 0e3e 7cfa ae3e 362b 1d3e f94e dcbd
-0.31677312 -0.66657025 -0.6783256 -0.68730235 -0.43466622 -0.7053074 -0.25071263 -0.26550633
-0.2837176 -0.47886604 -0.0613853 0.10070727 -0.14997682 -0.20283686 0.12490351 0.11636787
-0.035979033 -0.12938547 0.10353594 -0.011676392 0.0552872 0.01980042 0.19203074 0.1558619
-0.07839831 -0.24623163 0.124338135 0.17481914 -0.054375667 0.2302331 -0.060452994 -0.06772463
0.040255237 0.023234958 -0.20162132 -0.029073682 0.11496438 -0.03565379 -0.037691426 0.1810658
0.17858863 -0.22403692 0.1677716 0.17864846 0.16312753 0.04170526 0.09213515 -0.005451973
-0.067860946 0.24923809 -0.13554855 -0.07577094 0.22801241 0.008691917 0.08885988 0.22404248
0.07284046 -0.16255587 0.043867353 -0.2900818 0.09480603 0.1118407 0.12550563 -0.15051417
-0.098589815 0.37537462 0.23476355 -0.048836984 0.03140087 0.1339999 -0.22346222 -0.11093272
0.3390312 0.13659371 -0.084659554 0.2418891 -0.099864945 -0.25473192 -0.09610378 -0.120506115
-0.24374409 -0.36534908 -0.18504652 -0.19343004 -0.08360712 0.0028231232 0.32601163 0.14158122
-0.17679405 0.04159933 -0.1269373 -0.050815556 0.111648224 -0.14521651 -0.10171864 -0.23539728
-0.20018385 -0.062422812 0.07944908 0.22010879 0.4137622 -0.19582386 -0.21666677 0.009323514
-0.22810543 -0.2805858 -0.1938025 -0.0034485436 -0.16802523 0.15833305 -0.0006940064 -0.3410799
-0.67147845 -0.21692574 -0.5058647 -0.32152328 -0.0573498 -0.43391603 -0.49155828 -0.044876307
-0.12620644 0.2770729 0.24302883 -0.13013901 -0.060152933 -0.17523764 -0.12439034 0.3381579
0.101426035 0.114579886 -0.05665281 -0.14532247 -0.085536405 -0.1669125 -0.019870358 -0.014258343
0.25225726 -0.04938349 -0.1169968 0.17387936 0.096982345 0.3798011 0.14518625 0.07772516
0.31671906 0.01703111 -0.046442408 -0.02680306 -0.067773685 0.18881476 0.08499317 -0.23590307
-0.17338239 -0.23505273 -0.08652321 -0.0734414 0.1774341 0.05367349 -0.050991163 -0.23113996
0.09946216 0.41323888 0.19094571 0.19172983 0.1683712 0.1493016 -0.027423762 -0.08759438
0.06636982 -0.20933379 0.08032889 -0.2909734 -0.31188017 -0.24832514 -0.14709602 -0.08252923
-0.15373378 -0.13478239 0.22816353 0.18969223 0.1736004 -0.019189827 0.022556221 -0.002105494
0.19266716 -0.13011158 0.28056452 0.27214926 0.07154436 -0.093796365 0.31878617 0.19430716
0.23069811 -0.09722768 -0.1794056 -0.31376857 -0.09162519 -0.08739179 -0.09744155 -0.0417599
-0.26570204 0.0077806315 -0.08130189 0.16812027 0.2135864 0.1523047 0.14160098 0.1440017
0.08917754 0.081274845 0.2046849 -0.27521068 0.09465287 0.0249627 -0.018575365 -0.114262626
0.017804876 -0.021644829 -0.21553703 -0.29549053 -0.15606533 -0.45238706 -0.72722495 0.1649826
0.09028502 0.040254828 -0.1468817 -0.124634326 -0.08395587 -0.078261465 0.04607232 0.15101714
-0.2752239 -0.13949175 0.1069406 -0.45969325 0.2557281 -0.32219318 -0.29742095 -0.18248853
-0.23703371 0.103476614 -0.1142155 0.054434195 -0.20590356 -0.0037523205 0.18656422 0.012828316
-0.10687344 0.24235845 -0.10183399 0.0058146575 0.13882229 0.3417548 0.15348515 -0.1075725

Mixer_Block.0.mlp_block_token_mixing_DynaMixerOperation.fc_Nd.bias f4 [100]
00000000: d078 2fbf f23e 06be a6a8 f23e 4537 bd3d
00000010: 604e f33d 283e f83c 0adb c8bd 3f6c f03c
00000020: a2b6 9f3e e95e 9a3d daf6 9b3e 1995 05bf
00000030: cba4 c0be d91a 033e 6475 19bc 384c 073e
00000040: a6f2 823e 081e 043c eae5 9c3c a82f 313d
00000050: 7891 8e3e 53b0 323d b781 463e 77aa 703c
00000060: a447 503e d771 4f3e 142b 973d 1eb2 943e
00000070: 6fa4 7ebe 6ab0 1abc 036e b7bd 8b4c d83d
00000080: 3f2a 97be f334 813e de2a 1dbf 5c4c cc3e
00000090: 8054 e9bd c85f 2d3e 2d45 993d ecb1 c5bd
000000a0: 110b d03e b88d 8fbd 0552 1d3e 302f 47be
000000b0: 517a 4f3e 3ae4 2d3c aa08 0d3d 2c80 d4bc
000000c0: 73f0 853e e83c 0bbd 2ad9 e6bd 1f71 bebe
000000d0: cde4 013e 28ab 243e de03 15be bdb2 d6bd
000000e0: 6e58 3e3e 1a67 013d f8c3 ddbd 3d2d 5b3e
000000f0: a39a bb3d 3718 22bc 413e e13d 1a96 2c3d
00000100: 710c f53d 5223 04be e1bc 1dbe cc2e 853e
00000110: 3dd8 703e e9d5 153e 4b1d c83e c6a2 993e
00000120: 9f99 98be ffe0 603e bc3a eabe fbf4 983e
00000130: 52da e9be 7d9d 823d ae1b 47be 2470 413e
00000140: 62a7 843e 8ed7 963d 7758 8cbe 1800 95be
00000150: 6099 e4bd 025a 543c 4af4 c5bc 935d 57be
00000160: d175 cfbe ddba 253c b7ef 7b3b 2948 bfbe
00000170: 0949 ae3e 1168 debd b978 1c3d 859a 43be
00000180: e287 293e 5867 36be febf f8bc d446 da3d
-0.6854372 -0.13109949 0.47394294 0.092390575 0.11880183 0.030303076 -0.098074034 0.02934849
0.31194025 0.07537634 0.3046177 -0.5218063 -0.37625727 0.1280321 -0.009366367 0.13212669
0.2557575 0.008063801 0.0191526 0.04325834 0.2784536 0.043625187 0.1938542 0.0146890795
0.20339829 0.2025827 0.073812634 0.29042143 -0.24867414 -0.009441474 -0.0895653 0.105614744
-0.2952442 0.2523571 -0.61393535 0.39902008 -0.1139307 0.16931069 0.07483897 -0.096530765
0.40633443 -0.070094526 0.15363319 -0.19451594 0.20261504 0.0106134955 0.03443209 -0.025940023
0.2616001 -0.03399363 -0.112718895 -0.3719568 0.12684937 0.16080916 -0.14552256 -0.1048331
0.18588421 0.031592466 -0.10828394 0.21403976 0.09160354 -0.009893469 0.10998202 0.042135336
0.11965264 -0.12904099 -0.15404083 0.26012266 0.23519988 0.14632381 0.3908485 0.30007
-0.29804704 0.21960829 -0.45747936 0.29874405 -0.45674378 0.06377695 -0.19444153 0.18890435
0.25908953 0.073653325 -0.27411243 -0.29101634 -0.111620665 0.012960913 -0.024164338 -0.2103179
-0.40519574 0.010115352 0.0038442442 -0.3735974 0.34040096 -0.10859693 0.038201068 -0.19101913
0.16555741 -0.1781286 -0.030364987 0.10658041

Mixer_Block.0.mlp_block_token_mixing_DynaMixerOperation.fc_out.weight f4 [66, 66]
00000000: 46d1 3b3e ef81 7c3d 0109 ea3c da14 31bd
00000010: b487 9bbc 1e26 703e 26cf c6bd 569a 813e
00000020: 32b8 54be 7909 7a3d 3b35 603c 4969 043e
00000030: 648a e4bc 012f 233c a4ee 11bd e9af bfbb
00000040: 8875 33be ae2f 97bd 38b4 043e 79c8 f8bd
00000050: eae8 1a39 3e9a d1bd c4cd 063e 1925 703d
00000060: add5 dcbd 2ebe 813e ec90 49bd 28b6 8d3d
00000070: eaa6 30be f9b6 813c a690 9ebd 3ea0 903d
00000080: 2b00 8bbd bd82 50bd 9e08 053e fca9 a63d
00000090: 1457 34bd ff1a 8f3d 34c3 54bd ab7b 4fbd
000000a0: fe64 44bc d01a 2dbe b551 2dbe 2ad6 0dbe
000000b0: 5b79 853a 9d7c 9a3e bdfc 79bd c993 8b3e
000000c0: 70ed b7bc 9c69 483d 36f3 38bd 8297 9d3d
000000d0: d58a 253c a148 8a3c b3b1 0d3c b111 47bd
000000e0: 7001 fabd 05dc 91bd a739 11be 0e54 223e
000000f0: bb45 a13d 38ce 3abc c3d5 b2bd 4735 27bd
00000100: 5db3 803d 45ba 8a3c 60ef 123e 1c6f f03e
00000110: 54f9 c3be 744a 0f3e c0c7 18be 2b42 523e
00000120: 7a48 0abe eca5 81bd 8291 efbd 640d e73b
00000130: bab0 853d 82cf bcbc fc38 563d d12c 773b
00000140: 24ec 7bbd c161 4abd 2ca4 eb3d bb38 813b
00000150: 567d f73d 054f 1e3e a8ea 10bd 39f7 293e
00000160: c747 893d 53b6 2abe c3b1 debd e2cc b33c
00000170: b426 3abe dd3a 40be ee22 123e 457e a63d
00000180: 3200 dabd 8079 af39 aa85 e43d b157 bcbd
00000190: 2ac0 21bb 8cc8 bebc 38d2 f43d 49e5 743c
000001a0: 085e d5bd ec5c 733d b056 443d c2ef 6d3e
000001b0: 3f47 1e3d e0e7 6ebd 1b1f 3c3e 5cc8 1abd
000001c0: 9998 613d 5ef3 933d a12c cfbd d17f ae3d
000001d0: 82e9 04be 5037 4bbc 0554 b43d c0ae d13c
000001e0: f689 56be 0fb8 a43d b801 85bc 16c8 8ebd
000001f0: d4eb a1bd 0bc0 823d 0f17 0e3e 0566 963c
00000200: 2464 1abe 2f94 c53d 0536 c23e 7ca1 04be
00000210: a413 813c db57 7ebe 4970 903e a4a1 4f3d
00000220: b7ac 863e d1a2 8bbe 5fd3 403d 1dba b63c
00000230: 20da 89bd 3835 32be e65d 8dbd 5f55 563d
00000240: 9349 07be 0e43 7abd dca2 28bb 8bbe 443e
00000250: d69b 033e e960 6f3d 823a 3ebd 7856 48be
00000260: 9042 febd b1f9 023e aa59 7c3d 496d d4bc
00000270: 1049 cfbc 7a8b 82bd e8ac 253d 7364 373e
00000280: 18e4 533e 2d92 c83d 49d3 99bd 16f4 80bb
00000290: 90dc b0bd 1dcf 6b3e 744a 82bd c1e4 71bc
000002a0: dced 133e 935d 0cbd defb 6f3e fd0c a73d
000002b0: f71c 1b3d adda 253e d65e 973c 0d93 90bd
000002c0: e216 a9bd ef6a acbe 8278 51be aa9d 253e
000002d0: 139f 373c 8e71 67be 2855 3b3e 160d 84bd
000002e0: 2cc7 053d 28dd 973c f51f d53a 84f2 58be
000002f0: 2e83 913a 448c 36bd 61d4 16bd 97c3 1ebd
00000300: e244 893c f88f 90be 31f4 193e b7c5 943e
00000310: 2863 20be 45b8 2a3e a780 a2be 8715 18bc
00000320: c245 cf3d d488 b23e 0e3b afbd 9815 1c3c
00000330: d7fb e23d 0aba 583c 730a fc3c 0ee0 0ebc
00000340: f54b 643e 96e9 963d a08d 22bd c0e6 0bbd
00000350: 2725 033e b94a 9fbe 2cf4 263d bec6 b83d
00000360: c3fb 883d eaac d93d e46a 21be 36e3 cc3d
00000370: 0316 b63d 8c48 5bbc f024 223c 63ee c9bd
00000380: 38ec eabd bac1 033e 79d8 8ebe c3c0 ba3d
00000390: 6ec7 b9bd 4b6b d1bd 70c3 3a3e 16e1 10bd
000003a0: f576 26bc f6a1 973d 2495 1d3d a94c 1e3c
000003b0: 909c dfbc 186b 9c3c 1022 0e3e 094f 1ebc
000003c0: 7dd8 063e 3d76 cfbc 8986 14be 78b5 9b3d
000003d0: ac19 20bd 8f30 b4bd c245 373e 996f 063e
000003e0: b270 803e 4f3e 56bd 16fc d6bd c40f 5e3c
000003f0: bd63 ecbc a2dd aa3d b7d4 f5bb f900 0ebc
0.1834155 0.06164735 0.028568747 -0.043232776 -0.018985607 0.2345204 -0.09707479 0.2531306
-0.2077339 0.06104419 0.013684566 0.12930788 -0.027898021 0.009959937 -0.035627976 -0.0058498275
-0.17525303 -0.07382141 0.12959373 -0.12147612 0.00014773352 -0.102344975 0.13164431 0.05862913
-0.10782943 0.25340408 -0.049210474 0.06919509 -0.17251173 0.015834318 -0.07742433 0.07061814
-0.067871414 -0.05090593 0.12991568 0.08137891 -0.044028357 0.06987571 -0.051943973 -0.05065505
-0.011986969 -0.1690476 -0.169257 -0.13851228 0.0010183261 0.30173197 -0.061032046 0.2726119
-0.022452086 0.048928842 -0.04515382 0.076949134 0.010103901 0.016880335 0.008648324 -0.048600856
-0.122073054 -0.071220435 -0.14182149 0.15852377 0.07874628 -0.011401705 -0.08732178 -0.040822294
0.06284211 0.016934523 0.14349127 0.4695977 -0.3827616 0.13993245 -0.14919949 0.20533054
-0.1350421 -0.06330475 -0.11697675 0.007051157 0.065278485 -0.023048166 0.05230044 0.0037715922
-0.061504498 -0.04940963 0.11505923 0.0039435304 0.12084453 0.15459831 -0.035380036 0.16598214
0.067031436 -0.16671114 -0.10873749 0.021948282 -0.18178827 -0.18772455 0.14271137 0.08129553
-0.106445685 0.00033469126 0.11158307 -0.09196413 -0.002468119 -0.023288988 0.119541585 0.014947244
-0.10418326 0.05941479 0.047934234 0.23235992 0.038642164 -0.058326602 0.18371241 -0.037788734
0.05507717 0.07224153 -0.10115934 0.08520473 -0.12979701 -0.012403324 0.08805088 0.025596023
-0.20951065 0.08042919 -0.016236171 -0.06971757 -0.07906309 0.063842855 0.13875984 0.018359194
-0.15077263 0.096474044 0.3793184 -0.12952226 0.015756436 -0.24838202 0.28210667 0.050691262
0.26303646 -0.27272657 0.04707658 0.022305543 -0.06731057 -0.17403114 -0.06902675 0.05232751
-0.1321166 -0.061099105 -0.0025731837 0.19213311 0.12852415 0.05844203 -0.046442516 -0.19564235
-0.124150395 0.12790562 0.061608948 -0.025931017 -0.025303394 -0.06374259 0.0404481 0.17909412
0.2069248 0.09793506 -0.075110026 -0.0039353473 -0.08635819 0.23028226 -0.06361857 -0.014764012
0.14446205 -0.034268927 0.23435923 0.08156774 0.03786942 0.161967 0.018477838 -0.07059298
-0.08256318 -0.33675334 -0.20456126 0.16173425 0.01120736 -0.22601911 0.18294203 -0.064478084
0.03266065 0.018538073 0.0016260134 -0.21186262 0.0011101717 -0.04456736 -0.036823634 -0.038760748
0.016756479 -0.2823484 0.15034558 0.29057094 -0.15662825 0.16671856 -0.3173878 -0.009282476
0.10120727 0.34870017 -0.08556186 0.009526633 0.11083191 0.013227949 0.030766701 -0.008720411
0.222946 0.07368772 -0.039685845 -0.034155607 0.12807141 -0.31111696 0.040760204 0.09022282
0.06688645 0.10628684 -0.15763432 0.100042745 0.08890917 -0.013383996 0.009896502 -0.09859922
-0.114708364 0.1286687 -0.2789953 0.09118798 -0.09071241 -0.10225543 0.18238616 -0.03537091
-0.0101601975 0.074039385 0.03847231 0.009661832 -0.027296335 0.019094035 0.13880181 -0.009662398
0.13168521 -0.025324935 -0.14504446 0.07602972 -0.039086983 -0.08798324 0.17897704 0.13128509
0.2508598 -0.052305516 -0.104973 0.0135535635 -0.028856153 0.08343054 -0.007502164 -0.008667224

Mixer_Block.0.mlp_block_token_mixing_DynaMixerOperation.fc_out.bias f4 [66]
00000000: 41c2 303e e9cf 37bd 1719 803e a92b 8cbd
00000010: ae0f 293e 113c 77bd 805e b4bd 477d 4c3e
00000020: 1cdc 7abd 875f ce3d 0973 433e 4c23 6b3e
00000030: 62a2 98bd 0b99 283e 442e 923d 0a76 23be
00000040: 24cc aebe 85d9 fe3d b64a 36be 9f6b 75bd
00000050: 880b 5b3e 59d9 31be 3130 b7bd 5d67 70be
00000060: 1f1c a8bd cac6 1ebe 3e3c 6fbd ab3a 0cbe
00000070: 6825 0e3d a339 aebe 55fe 293e d9be 77bd
00000080: b63c 513e e989 59be af6e 493e a031 b03d
00000090: 7a46 6dbd 86a2 903e 4ccc ccbd 602b a73d
000000a0: dfbc 0b3e a63e 6fbe b528 aebe 1363 abbe
000000b0: 8a47 693e ca04 69be 35ad f8bd 9412 2e3e
000000c0: efd6 1ebe 66e7 4b3d 2c3b b23e 76f6 54be
000000d0: d1af fcbd 5051 59bc 4467 883e 4e1f 053c
000000e0: a5e2 eabd a626 42be f21a 5fbd f920 bfbd
000000f0: 1758 7c3d 7b45 19bd e0e7 9f3d 65e1 6b3e
00000100: f383 5f3d 2f8f 7bbd
0.17261602 -0.044876013 0.25019142 -0.06844265 0.16509888 -0.06036002 -0.08807087 0.19969665
-0.06124507 0.10076814 0.19086851 0.22962683 -0.07452847 0.16464631 0.07137731 -0.15962997
-0.34140122 0.12443832 -0.17801937 -0.05991709 0.21391118 -0.17368068 -0.08944739 -0.2347693
-0.08208489 -0.1550552 -0.05840706 -0.13694255 0.034703642 -0.34028348 0.16600926 -0.06048474
0.20433316 -0.21244015 0.19671129 0.08603215 -0.05792854 0.28248996 -0.09999904 0.0816257
0.13646267 -0.23363742 -0.34015432 -0.33474025 0.22781196 -0.22755733 -0.121424116 0.16999274
-0.15511678 0.049781226 0.3481077 -0.20797142 -0.12338222 -0.013264015 0.26641285 0.008125139
-0.1146901 -0.18960056 -0.054469056 -0.09332461 0.061607447 -0.037419777 0.078078985 0.230352
0.054569196 -0.061415847

Mixer_Block.0.mlp_block_token_mixing_DynaMixerOperation.LN.weight f4 [10]
00000000: 9505 bb3f 5ccf 9e3f 78c6 973f 4634 763f
00000010: 9139 973f 4d99 983f 613f 903f 6c10 7b3f
00000020: d247 6d3f 0705 413f
1.4611079 1.2407031 1.1857443 0.9617351 1.1814443 1.1921784 1.1269342 0.9807193
0.92687714 0.75398296

Mixer_Block.0.mlp_block_token_mixing_DynaMixerOperation.LN.bias f4 [10]
00000000: 1681 c3bd 0d57 1cbe 7fcf cb3e 6809 1b3e
00000010: 2498 5f3e 12c7 c83d a1f6 913d 19b6 f5bc
00000020: f698 643d 93ce bc3d
-0.095461056 -0.15267582 0.39806744 0.15140307 0.21835381 0.09803595 0.07127119 -0.029994057
0.055809937 0.092190884

Mixer_Block.0.mlp_block_channel_mixing_DynaMixerOperation.fc_ND.weight f4 [1, 10]
00000000: 6944 1f3f 6fce ccbe 9bd4 173e 1fc8 3fbe
00000010: 29ef 38bd bb51 263d 5db9 d73d 56a5 f7bd
00000020: a625 1abe 1d7e 913d
0.6221376 -0.40001246 0.14827196 -0.18728684 -0.045149956 0.040605288 0.10533402 -0.12092082
-0.15053424 0.07104132

Mixer_Block.0.mlp_block_channel_mixing_DynaMixerOperation.fc_Nd.weight f4 [484, 22]
00000000: 0ed8 12be 8717 64bd 1c58 d33d c7a8 eebd
00000010: 863c f3bc b797 7f3d a879 1fbd b412 03bd
00000020: baa6 7fbe c462 703c 2f13 9ebb 4b97 5b3d
00000030: 78b7 09be 79b5 e23d 0a16 b8bb 1228 9abe
00000040: c45c 1d3e 988c 5c3d e798 3f3c 3beb fe3d
00000050: 7ad2 9bbd 49b1 083d ee13 ecbd 0c79 aa3d
00000060: 1bc5 1c3d 900e 8c3e ca80 5dbe 7e25 91be
00000070: 3e2e 173e c257 9ebe 0834 a03e d000 fdbc
00000080: e0ee 953d fb99 863e 877f 413e b5f9 dabd
00000090: 8720 5fbe f2dc 343e 4d14 e0bd 3d6a 2ebd
000000a0: a476 fb3d 76ff 2bbe a8f6 613e 0a6f 843e
000000b0: 7b8f 6d3e e25f 94ba eb6b ff3d 9c0a 8dbd
000000c0: 97be 4bbe 7876 5fbe 5825 15bc 100a 663d
000000d0: 9158 68be 0fcf d9bd dc95 cabc 5986 083d
000000e0: d005 8dbd 1b66 e53d eee5 be3d 5dbb a33d
000000f0: d68b 113e ea3a 033d a567 b83d cc7d b3be
00000100: e22d 873e e496 48be 0c8a a63d fd21 193e
00000110: adfd b0be 2a1e 00be d161 0a3e 7c1a 093e
00000120: 3021 e8bd 5a39 a53c 66a8 1bbd a0e0 0ebe
00000130: 3ecc d0bd 8ece 2dbe 9679 913c f20f 12bc
00000140: 8656 d1bd 5a1c 253d 77f2 573c 26a8 b43d
00000150: f825 30be 6431 2bbe 640f a8be 6de7 4bbe
00000160: dda3 793c bde6 06be 9eda 0c3e d11d c4bd
00000170: bdc6 533e a8ae d43d d216 6fbd a28d 9cbd
00000180: 1291 253c c580 a53d 8056 7d3e 39c6 4ebd
00000190: ceac c7bd 8251 33be 5e8e 953e 7083 943d
000001a0: 24a6 d9bc a201 ec3d 145a bd3e 24a5 853c
000001b0: 9624 d43d 32ba 4e3d 9634 3cbc b84d 83be
000001c0: 3c2f df3d 1161 7dbd 61d8 ae3d f3bb 9e3c
000001d0: 0085 743e 8528 013e 98ee 21bc 21b0 1abe
000001e0: ed17 4fbe a6cf 75be 95e3 41be 2a75 41be
000001f0: 987b 023e d6f8 11be 93dd 233d b67a babd
00000200: 647b c1bd fe02 513e 63a2 f6bd 92ee 183e
00000210: 2dbb e83c 9940 533e a4e7 ccbb c879 aebb
00000220: 568f 75be bcac c1bd a31d f4bc dff8 edbd
00000230: a331 5f3d 7845 fa3d 3657 9c3e 75ea 1c3e
00000240: e8dc da3d bb75 973d de84 9c3e ffe6 88be
00000250: baf1 eebd 11fe 37be 734f 79be d669 e3bb
00000260: 0375 9e3e 81d2 6cbc 94c0 503e 5318 323b
00000270: 3c1c 8f3d c3ae 703c 0c75 f23d c187 8a3d
00000280: 3153 9b3d 1aa9 0a3e 16b9 79bb a46f bc3d
00000290: e880 113e 9b5d 693d b0be 083e 622b 3abc
000002a0: d1dd eb3d 4de0 343e b014 e3bd cce4 51be
000002b0: 9fdb 95be feec 30be 6432 333e 4edb 6fbe
000002c0: 3205 b23d d2a0 913e 0b02 1f3c 975d 13be
000002d0: 0778 a13d 11d4 e43d 640c 493d 9d3b ecbd
000002e0: 165c abbd 0b2f 393e 591f a8bd abb4 7fbe
000002f0: e696 9a3d a333 43be c68f 5fbd ba0d 49bd
00000300: 78bb 6cbc 7847 91bc 4fdb 03bd 3b96 173c
00000310: 2fd7 883d c84f 093c 33e0 b1bc dfdd ad3d
00000320: be1f 163e 8102 153e e0ad 11bd c1ab 27be
00000330: fbcb 353e 9abb 91bc 9b50 1d3e 23c5 45be
00000340: b846 563e 26b6 b5bd 8851 0fbe 0c41 1e3e
00000350: 01fd 61bd 8b9f 843e 8d90 2e3e da6c 2abe
00000360: 0e40 463e 1b1a 58bd b395 053d b9c0 093e
00000370: 87b8 713e 0e7b 38bd 7e01 583e d7c4 07be
00000380: 0f4b 15be 6687 4f3c d048 84be dd4a 623e
00000390: a7e2 85be 2fc9 99bd 50be aa3d bac4 1abc
000003a0: 65ec 34be 0638 26bc 06d1 e6bd 60bf 30be
000003b0: cf85 133e d13a 7a3e 5450 d93d 5f82 2c3d
000003c0: 073c 4fbe c1df 583d da2b f43c 3d79 383e
000003d0: 38c8 953d ce16 d4bd df49 35be 160f 08be
000003e0: ccb8 2abe bb32 0cbd fcad 823e 3731 53bd
000003f0: 4a33 0d3c 183d c33d 3ede 40be e891 db3d
-0.14340231 -0.0556865 0.1031954 -0.116532855 -0.029691946 0.062400546 -0.03893438 -0.03200026
-0.24965945 0.014671985 -0.004824064 0.05361108 -0.13448894 0.110697694 -0.0056178616 -0.30108696
0.15367419 0.05384502 0.01169417 0.124472104 -0.076085046 0.033372197 -0.11527239 0.08323869
0.038273912 0.2735486 -0.2163116 -0.28348917 0.14763734 -0.3092633 0.31289697 -0.030884176
0.073209524 0.26289353 0.18896304 -0.10692159 -0.21789752 0.17662409 -0.10941372 -0.042581785
0.12278488 -0.1679667 0.22066748 0.25865966 0.23199265 -0.0011320079 0.124717556 -0.06886789
-0.19896923 -0.21822536 -0.009103142 0.05616194 -0.22690035 -0.106351964 -0.024729662 0.03333125
-0.06885874 0.11201116 0.09321199 0.07994721 0.142135 0.032038607 0.090041436 -0.35056913
0.26402193 -0.1958881 0.08131799 0.14954372 -0.3456854 -0.12511507 0.13513876 0.13389009
-0.11334455 0.020168949 -0.038002394 -0.13952875 -0.10195206 -0.16973326 0.017758172 -0.0089149345
-0.10221581 0.04031024 0.013180367 0.08821134 -0.17201984 -0.1671806 -0.32824242 -0.199125
0.015236822 -0.13173957 0.13755271 -0.095759995 0.20681281 0.103848755 -0.058371373 -0.07644202
0.010105388 0.080812015 0.24740028 -0.05048201 -0.09749757 -0.17511562 0.2921018 0.07251632
-0.02656848 0.11523749 0.36982787 0.016314097 0.10358541 0.05047054 -0.011487147 -0.25645232
0.10897681 -0.061860148 0.08537365 0.01937673 0.2387886 0.12613113 -0.009883545 -0.1510625
-0.2022397 -0.24004993 -0.18934472 -0.18892351 0.1274246 -0.1425508 0.04000623 -0.091054365
-0.09447363 0.20411298 -0.120426916 0.14934757 0.028409565 0.20630111 -0.0062531997 -0.005324576
-0.2398046 -0.094567746 -0.029799288 -0.11619734 0.054490697 0.12220281 0.30535287 0.15323813
0.10686666 0.07395502 0.3057012 -0.26738736 -0.116671994 -0.17968012 -0.24346714 -0.006940107
0.30948648 -0.014454485 0.20385963 0.0027175143 0.06987807 0.014690104 0.11838731 0.06764174
0.07584227 0.1354107 -0.0038104705 0.09200981 0.1420933 0.056974035 0.13353992 -0.011362882
0.115169175 0.17663689 -0.1108793 -0.20497435 -0.2926912 -0.17277905 0.17499691 -0.23423502
0.08692397 0.2844301 0.009705077 -0.1439117 0.078842215 0.11173261 0.049084082 -0.11534808
-0.083671734 0.18084352 -0.08209104 -0.24971263 0.07548313 -0.19062667 -0.054580472 -0.049085356
-0.014448993 -0.017734274 -0.03219157 0.009252126 0.06681668 0.008380838 -0.021713352 0.08489584
0.14660546 0.14551736 -0.03556621 -0.16374113 0.17753594 -0.01778965 0.1536278 -0.19313483
0.20925415 -0.08872633 -0.13995945 0.15454501 -0.055172924 0.25902972 0.17047329 -0.16643086
0.19360372 -0.05275927 0.032613467 0.13452424 0.23605548 -0.04503923 0.21094319 -0.13258682
-0.14579414 0.012666559 -0.25836802 0.2209887 -0.26149485 -0.07509076 0.083370805 -0.009446317
-0.17668302 -0.010145193 -0.11270337 -0.17260504 0.14406513 0.24436499 0.106110245 0.04211652
-0.20237742 0.052947763 0.029806066 0.18014999 0.07313579 -0.10355912 -0.17703961 -0.13287005
-0.16672057 -0.034228068 0.25523365 -0.051560607 0.008618185 0.09533137 -0.18834779 0.10721189

Mixer_Block.0.mlp_block_channel_mixing_DynaMixerOperation.fc_Nd.bias f4 [484]
00000000: dab1 1a3d c1c0 f13c ce5d 5b3d 5c11 6cbe
00000010: fa9d 50bd f712 a6be d168 98bd 1422 dabd
00000020: 18a8 8ebc 9af7 0a3e 135c 11bd 05ef aa3e
00000030: 687c cc3d 130b 0bbe 8f96 2f3e 83eb 713c
00000040: a7a2 4abc 02ac 963e de29 af3c f7b9 753e
00000050: 0e5e 3fbe c52c e7bd 45bd 313e 4751 7ebe
00000060: 551e e93e 9901 9a3c a8aa 753d e4d5 893e
00000070: 264e 5b3c e29c 04be c8dc b5bc f31e 93be
00000080: 9847 cb3d 46e6 073e ece2 f337 2d7e c63d
00000090: b331 b7bd df03 65be 75b7 20be dd24 793d
000000a0: 5ca3 90bd 1a09 ad3d b722 3e3d 8e3c 0fbe
000000b0: de88 93be 5021 3b3d 5f71 953e 4f96 a3be
000000c0: 53d9 473d 1c40 bb3d f3c3 6dbc 2b19 0f3e
000000d0: 1efb 48be 2c3c 9d3d e2f8 9cbe 4e74 743e
000000e0: 8570 793e f144 23be 8cd7 dc3e 2f54 a83d
000000f0: a3b1 debd a0d0 033e 877d 78bd 1693 293e
00000100: 02f1 98bd 2970 d6bd e50b 7ebe a4c8 63bd
00000110: ba1b babd cc19 abbe d3de 5a3c 2771 67be
00000120: 4cb4 413c 3478 ad3c bf69 27bc 8ff8 bd3e
00000130: adad 7a3a 4a5d 8c3e 33c3 a9bc 2050 5ebe
00000140: 2003 12bc d1af 52bd 08e9 773e ebac 29bc
00000150: de10 793d 1952 423e 32ec 54bc 45ab 8a3d
00000160: e1f9 233e 43f2 173e 009a 223e 7ac7 893d
00000170: 4a66 f3bd 5b20 7ebe 25e1 663e dca1 91be
00000180: 4b83 4b3d 7a03 123d 68a8 a63d 3810 933d
00000190: a156 a83e 590a 42bd 6aff 10be 131f 533d
000001a0: 4c81 a73e d73b 563d 5c17 6f3e 31d0 e3bd
000001b0: be48 d33c 3fe1 cf3c d919 96be 1332 b0bd
000001c0: f200 b6bd a97c 74bc 00cc 403d 9f16 6ebe
000001d0: 8f9d 0f3d edb8 28be 8fc7 07be 1e97 9c3e
000001e0: 5ff6 8abe c621 423e 9768 e43e 8fa2 16be
000001f0: 5e2d d83d 492f fc3d 7e38 97bd e9e4 593c
00000200: 5ba7 673e 8e26 69bd 3af6 69be 8c38 b1bc
00000210: e732 703e 51de 9dbd 06c8 78be 9ba4 ab3e
00000220: c0ed 66bd 1dc3 1abe c5f1 2bbd 6062 dfbd
00000230: c399 543e f0e8 43be cef5 f93d 01f3 1abd
00000240: f8c8 5bbc 6515 5fbc 27e1 e0bd a6f4 00bc
00000250: aa87 4cbc b65e c23b 50b6 86be 5827 4e3d
00000260: 5f10 f13d 8715 883e 6f21 b8be de9a d33c
00000270: 5034 13bb 5af7 ef3d 2eeb 80bd dca8 a43d
00000280: cdb4 17bd e3bd 98bd d13f 43be b1da 083e
00000290: 1232 e7bd aaf2 ed3d 53af e03b eccc 50bd
000002a0: ad82 2c3c 7aac abbd a642 4d3e 52c2 093e
000002b0: f771 883b c48c 253e 8958 7e3d 9c74 c63d
000002c0: 3293 b53c 45e6 89bd f943 9bbd cca8 243e
000002d0: 6d09 863c 6a3b 483d 05ca 573e ebf2 b7bd
000002e0: 8437 3abe 7b37 1a3e 8cd9 92be 4018 d3bd
000002f0: ca23 563e e234 95be 3571 483e b38a 203e
00000300: ee8d ee3c 9bee 1f3e d1e5 50be 8632 4a3e
00000310: 7bd7 a0be 1321 8ebe 4959 c9bb c3c0 30bd
00000320: d23c 0fbe 61fe 6cbd 97bd 243e ad8a 723e
00000330: 2652 053e 6f2a 303e 488e 10bc 79aa dfbd
00000340: 35f7 45be 188c 8b3e 7431 bf3d b255 913e
00000350: 744d c83b 001f 4b3e e4f0 9dbe 168f f6bd
00000360: 5841 243e 46b4 2cbe ef68 1abe 042e 7fbe
00000370: 6ff4 8b3e 90cf 163e 8761 7e3d 8c6b 913d
00000380: 46ad cc3d e428 48bd b5e9 76bd 7ec7 3bbd
00000390: b090 963e 1862 10bb 3f1e 753e 865a 0b3d
000003a0: ec71 933d b831 b83d d206 27be 52bc 373d
000003b0: 1e33 a0bd 8497 8ebe ea4a 5cbe 983f 1e3e
000003c0: 1c02 243e 0a56 f53d 59aa b2bd 71d3 533d
000003d0: ec2c 883e 31a2 3bbc 8fa2 b8bc 5b7a 2ebd
000003e0: 3f36 493d 9f13 0e3e f9bb babc 9963 edbc
000003f0: 8d26 b63d 301c 413e 19d4 b53e f95e a2bc
0.03776727 0.029510858 0.053556256 -0.23053497 -0.05093191 -0.32436344 -0.07441867 -0.10651031
-0.017414138 0.13571015 -0.0354882 0.33385482 0.09984666 -0.13578443 0.17147277 0.014765623
-0.012367881 0.29428107 0.021382269 0.23996721 -0.18688223 -0.11287836 0.17357357 -0.24835692
0.45530954 0.01879959 0.059977204 0.26920998 0.013385331 -0.12950471 -0.022200003 -0.2873455
0.09925765 0.13271436 2.9073526e-05 0.09692035 -0.08945026 -0.22364758 -0.15694983 0.06082617
-0.07062408 0.084490016 0.046419825 -0.13987944 -0.2881536 0.045686066 0.29188058 -0.31950614
0.04879124 0.09143087 -0.01451205 0.13974445 -0.19627044 0.076774925 -0.30658633 0.23872492
0.24359329 -0.15944268 0.431332 0.08219182 -0.10873725 0.12872553 -0.060666587 0.16560015
-0.074678436 -0.104706116 -0.24809225 -0.055611268 -0.0908732 -0.3341812 0.0133587895 -0.22601758
0.011822771 0.021175481 -0.010218083 0.37103698 0.0009562623 0.27414924 -0.020722961 -0.21710253
-0.008911878 -0.051437203 0.24209988 -0.010356168 0.0608071 0.1897663 -0.0129957665 0.06770948
0.1601329 0.1483851 0.15879059 0.067275 -0.118847445 -0.2481703 0.22546823 -0.284438
0.049685758 0.035647847 0.0813759 0.07180828 0.32878593 -0.04737315 -0.14159933 0.051543307
0.32715833 0.05230316 0.23348755 -0.11123694 0.025791522 0.02537596 -0.29316595 -0.08603301
-0.08886899 -0.014922299 0.04706955 -0.23250817 0.03506237 -0.16476794 -0.1325972 0.30584043
-0.2714109 0.18958196 0.44611046 -0.14710449 0.10555528 0.123137064 -0.07383822 0.013299205
0.22622435 -0.056921534 -0.22847834 -0.021633409 0.23456918 -0.07708419 -0.24295053 0.33524022
-0.05637908 -0.15113492 -0.041978616 -0.109074354 0.2076178 -0.19131827 0.12205087 -0.037829403
-0.013414614 -0.013615941 -0.109804444 -0.007870829 -0.012483517 0.0059317006 -0.26310968 0.05033049
0.11770701 0.26578924 -0.35963008 0.025830682 -0.00224616 0.117171004 -0.06294857 0.0804002
-0.03703766 -0.07458093 -0.19067313 0.13364674 -0.11288847 0.1161855 0.006856838 -0.05097668
0.010529202 -0.08382507 0.20044956 0.13453034 0.0041639763 0.16166979 0.062096152 0.0969021
0.022164915 -0.067333736 -0.07581324 0.16080016 0.016361916 0.048884787 0.21073158 -0.0898188
-0.1818524 0.15060227 -0.286816 -0.1030736 0.2091209 -0.2914191 0.19574435 0.1567791
0.029120412 0.15618365 -0.20400168 0.19745836 -0.314144 -0.2775961 -0.006144677 -0.043152582
-0.13988045 -0.057859782 0.16087948 0.23685713 0.13019618 0.17203687 -0.008822985 -0.10921187
-0.19332583 0.2725532 0.09335604 0.28385693 0.0061127488 0.19836044 -0.30847847 -0.1203901
0.16040552 -0.16865644 -0.15079091 -0.24919897 0.27334926 0.14727616 0.062104728 0.07100591
0.09993987 -0.04886712 -0.060281474 -0.045844547 0.29407263 -0.0022031125 0.23937319 0.034021877
0.07199463 0.08993858 -0.16311195 0.04485733 -0.0782225 -0.27849972 -0.21512952 0.15453947
0.1601643 0.11979301 -0.087238975 0.051715318 0.26596773 -0.011452244 -0.022538451 -0.042597156
0.049124 0.13874672 -0.02279471 -0.028978156 0.08894072 0.18858409 0.3551338 -0.019820677

Mixer_Block.0.mlp_block_channel_mixing_DynaMixerOperation.fc_out.weight f4 [10, 10]
00000000: 5623 bfbe 4bd4 43be 3ed3 07be c839 e2bd
00000010: 084c 3ebe a641 c93a 95a8 143c 74d0 47be
00000020: 5cde babd f273 a6bd 1998 103c 712f b8be
00000030: 3123 a53d 8a36 87be d9ae de3a 31b1 8b3d
00000040: 12e1 3dbc a03b 22be b30f 29bd d38f a33d
00000050: 0576 f1be b407 923e e20d 663e bf40 17be
00000060: 41d0 32be 3fc7 42be 0721 023d ed5b 63bd
00000070: 686e 36be c046 03be 3f5f 01bf 00a2 cbbd
00000080: b5e7 72bd 63b7 38bd 0b3b 6fbc 827b d83d
00000090: bb19 3b3e 04ba 88be 6748 8539 5c1a 373e
000000a0: d222 31bc 727e f0be ef6b bfbe 266d ffbc
000000b0: fb7d 023e cee6 a83d 1812 663e 899c 96bd
000000c0: ea48 b5bc f339 23bd eba2 4dbf 0bd3 fbbd
000000d0: 0919 25bd 1f35 b93d def7 603c a927 2d3d
000000e0: 9e3a b13d f3dd 5e3e 77f4 1d3e 1737 8dbe
000000f0: 0f3c 0fbf 07c4 e73d 2ff6 e5be e7c4 663e
00000100: 1525 64be ec9b 683e 0a2f b6bd f0b9 443e
00000110: 748d f73c 304c f3bd 6e0c 3ebf 0a73 d1be
00000120: c82f e3bd 4290 88be 0669 b13c 7d43 e63d
00000130: ce39 a53e 43de 433e 5f29 23be 3591 85bc
00000140: 9854 96be fff3 06be 8904 1fbe 937b cebe
00000150: d99d 1d3e 6be9 8dbe 3e32 c4bd bee9 59be
00000160: 3e52 0cbe e2d8 34bd e984 fc3d 300a 4dbe
00000170: 62bd 2b3d f4d2 04be 68d0 da3c 82fc cebc
00000180: 099a a33e 1597 84bd bc1b 063e 939e 833d
-0.37331647 -0.19123952 -0.13264176 -0.11046177 -0.18583691 0.0015354648 0.009073396 -0.19513112
-0.09124443 -0.081275836 0.008825325 -0.35973695 0.08063353 -0.26408798 0.0016989365 0.06820906
-0.0115893055 -0.15843058 -0.041274738 0.07986417 -0.47160354 0.28521502 0.22466233 -0.14770792
-0.17462255 -0.19021319 0.03176978 -0.05550759 -0.17815554 -0.12819958 -0.5053596 -0.099430084
-0.059303004 -0.045096766 -0.014601479 0.10570432 0.18271534 -0.2670442 0.0002542168 0.17881149
-0.0108115245 -0.4697147 -0.37387034 -0.031179976 0.1274337 0.082471475 0.2246784 -0.073540755
-0.022129495 -0.039850187 -0.8032672 -0.122961126 -0.04030708 0.09043335 0.013730971 0.04227415
0.086537585 0.21764354 0.15425287 -0.27581093 -0.5595102 0.11316686 -0.44914386 0.2253605
-0.2227977 0.2271573 -0.08895691 0.19211555 0.030218817 -0.11879766 -0.74237716 -0.4090808
-0.11093098 -0.2667256 0.021656524 0.11243341 0.32270664 0.19127755 -0.1593375 -0.016304592
-0.29361415 -0.13179015 -0.15529074 -0.40328655 0.15392245 -0.27717146 -0.095798954 -0.21280572
-0.13703248 -0.044152148 0.12330038 -0.20023417 0.041928656 -0.12971097 0.026710704 -0.02526689
0.31953457 -0.06474129 0.13096517 0.0642673

Mixer_Block.0.mlp_block_channel_mixing_DynaMixerOperation.fc_out.bias f4 [10]
00000000: 353d 78bd 4554 b73e e0b7 4ebe 4fef 213e
00000010: 29c1 8f3e 0b2d 27be d178 2dbe 2985 183d
00000020: 8621 9cbd af00 76be
-0.060605247 0.3580648 -0.2018733 0.15813945 0.28077057 -0.16325776 -0.16940619 0.037236366
-0.076235816 -0.24023698

Mixer_Block.0.mlp_block_channel_mixing_DynaMixerOperation.LN.weight f4 [22]
00000000: 0690 973f 98d9 843f 2787 733f 08ad 7b3f
00000010: 673c 7f3f 312a 903f b600 5e3f 0658 893f
00000020: 2808 763f 8c6f 923f 233d 903f 8ca4 943f
00000030: 4940 833f ffa8 803f 09c3 873f c581 7e3f
00000040: 8819 8a3f 257d 843f 5a25 863f 67d8 7b3f
00000050: ecfd 903f 9fdd 873f
1.1840827 1.0378904 0.951281 0.983109 0.9970154 1.1262876 0.86719835 1.0729988
0.96106195 1.1440291 1.1268657 1.1612716 1.0253993 1.0051574 1.0606395 0.9941676
1.0789042 1.0350691 1.0480149 0.9837708 1.1327491 1.0614508

Mixer_Block.0.mlp_block_channel_mixing_DynaMixerOperation.LN.bias f4 [22]
00000000: 1900 23bc 72d2 633d 9247 69bc 41b6 123e
00000010: 6910 6cbd 53ea 1bbc d2a0 7f3d 5713 5dbd
00000020: 014e 013e 7373 8dbc e6a5 bfbc ce52 903c
00000030: 794d 033e fc68 e83d ab5b e4bd df4b 943d
00000040: 6b0c cc3d b3b2 373d 698f 8abd ac2d dbbb
00000050: 0f5e 4b3d fa84 9b3d
-0.009948754 0.05562062 -0.014238255 0.14327337 -0.057632837 -0.0095163165 0.06240923 -0.053973522
0.12627412 -0.017266965 -0.023394536 0.01761761 0.12822522 0.11348149 -0.11150297 0.07241034
0.09963306 0.044848155 -0.067656346 -0.006688794 0.04965025 0.07593723
