M_2_AST/M_2_AST/h36m/run_for_longging/exp275/model.pt (torch, 871322 bytes, 184 tensors)

Mixer_Block.0.mlp_block_token_mixing.fc1.weight f4 [20, 10]
00000000: ba39 173e 0f19 4dbe e6e3 363d ee89 2fbd
00000010: 5f67 b83e 9228 9ebe fa67 e43e e892 32bf
00000020: 2777 363f 48c1 8cbe bae7 bf3d 94ca 77be
00000030: 464c 5a3d a730 efbe 7e26 a73d 34a8 2bbf
00000040: 7f5a fd3e c7c7 f7be 3f8d 0f3f 637c b73d
00000050: 21fa 3bbe 4037 40be f776 823e 5bec 683f
00000060: ef97 0c3f d9fd 183f 1cd2 98be 0da2 2fbf
00000070: 2e74 b1be f8b3 11be 5330 81be d6a4 b33e
00000080: ca6d b4be 1cc0 853e 3f6e b4be 355d 0bbe
00000090: 701d d9be f790 383f 964d fdbe 2bdb a33e
000000a0: 30a5 92be 9a5e 563e aa6f babe d702 db3e
000000b0: 795b 11bf c29e 0b3f 9fa0 14bf f928 b73e
000000c0: 4118 03bf ffed 2a3f f1f8 4f3e 99d2 233f
000000d0: affd 01bf e190 75be 4ab9 0dbf db36 df3e
000000e0: f328 f7be 07ed cd3e 3e2c 1dbf 1c23 3b3e
000000f0: aa12 3ebe 212f 943d b1c5 6b3e 659f 683e
00000100: 3b80 3bbf 372c 093f 1052 14bf ee5c 343f
00000110: 3785 5dbf 0b04 a93d db0d af3e 4f6b 86be
00000120: ef7a f23e d238 4abe fdf5 a7bd 519b 4abf
00000130: d8e3 ccbd da8d f93d c858 3b3f 2fd4 0dbf
00000140: 2051 a43e a2c6 e5be 0aea 353f 7b12 23bf
00000150: 2722 d3bc 1179 f63d 42e3 03bf 0618 a63e
00000160: 67a3 05bf 6089 0e3f ae69 06be ff36 4fbf
00000170: 814b a33e 002e c33e cc8f 9d3e 6c30 02bf
00000180: eecc c13e 3a77 d63c 128b f0be a483 5b3e
00000190: 5086 ca3e d6d8 283d 7b35 05bd 4889 90bf
000001a0: 6ea4 8ebe 8846 353f a7dc b43e 748e 20bf
000001b0: 520d 3d3e 23b9 80be 2c78 8f3e ca5a b0bd
000001c0: 819e a03e 71a5 33be 7602 053f b10c 86be
000001d0: 293a d43e 80f0 63bf 914f 3c3f eb0e 1abe
000001e0: 3af8 293d 3536 f2be e1e0 0f3f 1958 e43d
000001f0: 417a b43e 3ecd 5ebe 1050 293f 149e 38bf
00000200: 41b6 fc3e b783 acbe 78af af3e 69f2 50be
00000210: 57a7 29be a9d9 3cbe c581 143f 2f70 f0be
00000220: 5446 fb3e 3bc6 7b3d 92ad 8b3d b988 0abf
00000230: 1a96 fabe 8808 c93e f7d0 29bf 9442 103f
00000240: fb59 bcbe 9202 ccbb e95a 1b3e 8a35 603b
00000250: 9cd4 cf3e 033a 08be 8165 ca3e 8e64 51be
00000260: 28be cd3e 2964 03bf 2e5f b83e e131 fbbe
00000270: 8e51 013f 9600 ddbe c19a 9dbd 81e8 9c3c
00000280: 0f4a ba3d 52b4 89be c269 fa3e 339d 36bf
00000290: bdcb d73e b4b9 9c3c cc3a 5fbd 57e3 0b3f
000002a0: 6700 dabd 48f2 eebe 6000 5bbe 2692 3a3e
000002b0: 0982 a1bd 5efe b43e 6414 aabe b726 213e
000002c0: 5a40 40bf 3e99 373f d23b 2cbe 72bd 1abe
000002d0: a874 a53e 8004 3abf c3b4 1bbb 98f0 c1be
000002e0: d294 473f c2ad 5f3e 727e c7be a3c8 0d3e
000002f0: 1c4c 013d b472 6bbe b0db 0cbf c84c ef3e
00000300: 5a90 25bf 6d67 c33e fa5c f03c ff5b 0a3f
00000310: d7bb 2cbe bb9a c7be 1a0e 0c3e 5330 8ebe
0.14768115 -0.2002909 0.044650935 -0.04285615 0.36016366 -0.30890328 0.44610578 -0.6975541
0.7127556 -0.27491212 0.0937037 -0.24198371 0.053295396 -0.46716806 0.08161639 -0.6705353
0.49483106 -0.48394606 0.560749 0.08959272 -0.18357135 -0.18771076 0.25481388 0.9098565
0.5491933 0.5976234 -0.298478 -0.68606645 -0.3465895 -0.14228809 -0.2523218 0.35086697
-0.35240012 0.2612313 -0.3524036 -0.13609774 -0.42405272 0.720962 -0.49473256 0.3200315
-0.28641653 0.20934525 -0.36413318 0.42775604 -0.567802 0.5453912 -0.5805759 0.35773447
-0.51208884 0.66769403 0.20309807 0.6399322 -0.50777715 -0.23981048 -0.55360854 0.4359654
-0.4827343 0.402199 -0.61395633 0.18275112 -0.18561807 0.072355516 0.23024632 0.22717054
-0.7324254 0.5358309 -0.5793772 0.704543 -0.86531395 0.08252724 0.34190258 -0.26253745
0.47359416 -0.19748238 -0.082012154 -0.79143244 -0.10004395 0.12185259 0.73182344 -0.5540189
0.32093143 -0.44878107 0.7106024 -0.63700074 -0.025773121 0.1203481 -0.5151864 0.32440203
-0.5220246 0.5567837 -0.13126251 -0.8094329 0.31893542 0.38121033 0.3077377 -0.50855136
0.3785166 0.026179899 -0.46981102 0.21436936 0.39555597 0.041222416 -0.032521706 -1.1291895
-0.27859825 0.7081075 0.35324594 -0.62717366 0.18462113 -0.25141248 0.2802137 -0.08611067
0.3137093 -0.1754358 0.5195688 -0.26181558 0.41450623 -0.8903885 0.7355891 -0.15044753
0.041496493 -0.47306982 0.5620251 0.11149616 0.35249522 -0.21757981 0.6613779 -0.7211621
0.493578 -0.3369424 0.3431356 -0.20404972 -0.16567741 -0.18442406 0.5801051 -0.4696059
0.49077094 0.061468344 0.06820215 -0.5411487 -0.48942643 0.3926432 -0.6633448 0.5635159
-0.367874 -0.0062258923 0.15171398 0.00342116 0.40591896 -0.1330338 0.39530566 -0.20448515
0.4018414 -0.5132471 0.36010116 -0.49061492 0.5051507 -0.4316451 -0.076955326 0.019153835
0.09096157 -0.26895386 0.48908812 -0.71333617 0.42147627 0.019131519 -0.054499432 0.5464377
-0.10644608 -0.4666922 -0.21386862 0.18219814 -0.0788613 0.35350317 -0.33218682 0.15737425
-0.7509819 0.71718204 -0.16819695 -0.1511133 0.32315564 -0.72663116 -0.0023758865 -0.3787887
0.77961457 0.21843627 -0.38963658 0.13846068 0.031566724 -0.22992975 -0.55022717 0.46738267
-0.6467339 0.38164845 0.02934121 0.54046625 -0.1686853 -0.38985237 0.13677254 -0.27771243

Mixer_Block.0.mlp_block_token_mixing.fc1.bias f4 [20]
00000000: c341 7b3e 4c6d bd3e 0d3d 133f 669f b03e
00000010: 8fa4 783e 8b8a bd3e b21d 123e 7797 b63e
00000020: c771 fd3e 5082 033f 1716 103f 8bb3 ab3e
00000030: c48c a13e d50c af3e b778 db3e 1fff 3e3e
00000040: 114d be3e 9f37 aa3e aef8 ef3e 56d5 d53e
0.24536805 0.3699745 0.5751503 0.3449661 0.24281524 0.37019762 0.1426914 0.35662434
0.49500868 0.51370716 0.56283706 0.33535418 0.31552708 0.34189478 0.42865536 0.18652008
0.37168172 0.3324556 0.46869415 0.41764325

Mixer_Block.0.mlp_block_token_mixing.fc2.weight f4 [10, 20]
00000000: fbe1 fc3d 771f 823d 1385 193f d42d abbe
00000010: f33b c0be 49ee 55bf 7288 f13e ba84 023e
00000020: 476b 113f c04e 5f3f 5950 57be fcde 153e
00000030: 52e9 123f 7d24 15be 6540 fbbe 94e0 723e
00000040: 6b17 ad3e 6df7 c4bd 03e7 ca3e 0eb3 a5be
00000050: 7368 83bd 4dc7 77be fb61 043f 8ade 1a3e
00000060: 8530 323e cbcd a3be fc07 81be 64ae 30bf
00000070: e9d9 83bf 1c1a 833e 3af5 ebbe ec8a 0abf
00000080: 20a5 05be 6c91 32be ad4a 623f ef94 82bf
00000090: 8231 d5be 5cba b83d 3458 31be 0ce2 433f
000000a0: a040 2f3e 5b82 7d3e c45c 35be bd5c f7be
000000b0: f309 21bf d552 cfbe 9b2a 89bf 38fd 3abe
000000c0: 3721 593e aa03 8b3e 9e4c 6f3e 0c15 8dbd
000000d0: 81c6 10be 6983 0b3f 6470 5ebe a558 4b3e
000000e0: a744 ff3e 3928 34bf e967 423f e1a0 92be
000000f0: 270c 87bf 6de1 e0be 6386 1ebe 9624 35bc
00000100: 7205 2c3e 379b c33e 3176 f23d 6add f7be
00000110: 3a07 013f 6442 18bf 3c3c 2d3f d010 23bf
00000120: 1883 66bf 2aa9 11bf fcef 8a39 276c 47bf
00000130: 0918 913e b9aa 0e3e c732 c63d a0e8 103e
00000140: 468a 583f 77fa 8d3f df2a 1bbf 1641 91bd
00000150: 1683 d03b 6726 82bd 46e0 d9bd 1615 ae3e
00000160: cef6 b5be b824 66be 294f 973e 65f5 d53e
00000170: 9e24 d83e 2a38 213e a2ad f13d 646f bf3e
00000180: 24d2 1ebe 421b 94be e79d 47bf 4ef5 05bf
00000190: 15e3 57be bb62 52bd a6f5 bdbe a918 8b3f
000001a0: 22e7 3b3f fad1 68bd e005 253f 37c9 c83e
000001b0: c6e8 8c3e 2bfa ac3e 0070 5bbf d43d 44be
000001c0: 61a1 b0bd 5d9c 7bbd f464 fb3d 4399 2ebe
000001d0: e476 21be d664 5a3f 5e3a 2c3d 4c1b 3bbf
000001e0: d771 023f 6c7c 763c 6973 c73e 1001 81be
000001f0: 3c5f 18be 0da3 d3be d9b6 ffbe 806f 4d3e
00000200: c4d1 153e 959e 63be 3935 9bbe 1664 063f
00000210: c6ab 70bc 0396 3e3c 42a7 9dbd 8fe2 93be
00000220: 4f8e 3b3e fd11 7b3e 6330 153f bed9 3a3e
00000230: f641 253f 2c33 1bba 121e 003f 7ce6 0fbf
00000240: 6f9d 3d3f 675b 47bb 353d 8dbb 0819 e8be
00000250: 83fd 1fbe 9567 b63d 5984 173e 054b 853f
00000260: 00ad 4f3f a9bc 51be c9de 19be b1cc 8a3e
00000270: eb3f 2bbf 55ca 96be 9642 593c 504c 7fbd
00000280: 2c93 41be e128 b8be 99de cf3d 3f45 1dbc
00000290: e515 353e 43e2 b63e a32c de3e a129 2bbf
000002a0: c2b9 9a3e 3a13 963e a435 d1bd 20d9 f9bd
000002b0: d53d 213e 09db c53e 942c 17bf 5370 703e
000002c0: 646f 3e3e 27a1 36be 0eca 953d a59a a0be
000002d0: b007 85bc 1990 33bf 91bc ad3e 0dad 14bf
000002e0: 2b21 74bf fa45 b4be d45a 793e 9d90 bb3e
000002f0: 1323 e0be 3821 603d 0f26 003e 569d 77be
00000300: 7304 753e 935f ca3e 25f8 41bd 3b3a 0dbf
00000310: 66b0 f23e 5338 993e 9279 093f 7692 05be
0.1234779 0.06353658 0.5996868 -0.33433402 -0.37545738 -0.8356672 0.47174412 0.12745944
0.5680432 0.8722954 -0.21026744 0.14635843 0.5738727 -0.145647 -0.49072567 0.23718482
0.3380693 -0.09617505 0.39629373 -0.3236317 -0.064164065 -0.24197121 0.51712006 0.15123954
0.17401321 -0.31992945 -0.25201404 -0.690161 -1.0300876 0.25605857 -0.4608553 -0.5411823
-0.13051271 -0.17438287 0.88395196 -1.0201701 -0.41639334 0.0901992 -0.17318803 0.76516795
0.17114496 0.24756758 -0.17711169 -0.4831294 -0.62905806 -0.40492883 -1.0716127 -0.18260658
0.21204077 0.27151233 0.23369071 -0.0688878 -0.14138223 0.5449739 -0.21722561 0.19858034
0.49857065 -0.70373875 0.75939804 -0.28638366 -1.0550584 -0.43921986 -0.15480952 -0.011056086
0.16798952 0.38204357 0.118389495 -0.48411113 0.5040165 -0.59476304 0.67670035 -0.6369753
-0.90043783 -0.5689875 0.00026500213 -0.778994 0.2833865 0.13932313 0.09677654 0.1415124
0.8458599 1.1092061 -0.6061229 -0.07092492 0.006363283 -0.06354981 -0.1063848 0.34000462
-0.3553986 -0.22474945 0.29552582 0.41788784 0.42215437 0.15744081 0.11800696 0.37389672
-0.1550985 -0.28927046 -0.77975315 -0.5232743 -0.21082719 -0.051363688 -0.37101477 1.0866901
0.73399556 -0.056840874 0.6446209 0.39216015 0.27521342 0.33784613 -0.85717773 -0.1916421
-0.086245306 -0.061428417 0.12275115 -0.17050652 -0.1576801 0.85310113 0.04204785 -0.73088527
0.50954956 0.015044313 0.38955238 -0.25196123 -0.14880079 -0.41335335 -0.4994419 0.20062065
0.146308 -0.22228463 -0.30314043 0.5249647 -0.0146893915 0.011632445 -0.076979175 -0.28883788
0.18316005 0.2451858 0.5827696 0.18247125 0.64553773 -0.0005920406 0.50045884 -0.56211066
0.7406835 -0.003041947 -0.004310275 -0.45331597 -0.15624051 0.089064755 0.1479658 1.0413519
0.8112335 -0.20482124 -0.15026392 0.27109292 -0.66894406 -0.29451242 0.013260504 -0.062328637
-0.18903798 -0.35968688 0.10149879 -0.009599029 0.17684133 0.357195 0.4339343 -0.66860396
0.30219847 0.29311544 -0.10215309 -0.121996164 0.15746243 0.38643673 -0.59052396 0.23480348
0.1859718 -0.17834912 0.073139295 -0.31367984 -0.016239017 -0.7014175 0.33932927 -0.58076555
-0.9536311 -0.35209638 0.24351054 0.3663377 -0.4377676 0.05471918 0.12514518 -0.24181113
0.23927478 0.39526042 -0.04735579 -0.5516698 0.47400206 0.29925784 0.53701127 -0.13044152

Mixer_Block.0.mlp_block_token_mixing.fc2.bias f4 [10]
00000000: 8b18 73bf ba7e 883d b06f 413e 1755 b73c
00000010: bd3a da3c 4ca5 283d e1f7 9a3b 036e a83d
00000020: d2a5 ec3d 55df f9bc
-0.94959325 0.06664796 0.18890262 0.022379441 0.026639337 0.041173264 0.0047292565 0.08224108
0.11555065 -0.030502

Mixer_Block.0.mlp_block_token_mixing_DynaMixerOperation.fc_ND.weight f4 [1, 66]
00000000: 2483 41bd 36d1 3d3d 596e b83d 6832 293c
00000010: f9a4 9ebb 8bfd 8f3d bf3f 723d b451 a73d
00000020: aab9 343c 4a6d 303d cf78 ba3c 6595 a1bd
00000030: a240 b13d 58ab e6bc 26aa 63bd c8dc f8bd
00000040: 725e bbbc 6fb8 453d 3eaf 2bbd fdc5 813c
00000050: 7ca5 32bd e058 f83a 1315 f53d bcbd a33d
00000060: 88ad d43d 7814 883c 39c7 d23c c7a6 adbd
00000070: e2a9 063d 7fa1 1abd f0fb a4bd c2bc da3c
00000080: aef0 403b d72a a0bc c3cd 84bd e784 8c3d
00000090: e676 a03a db93 e33c 49df d0bc 9939 b4bc
000000a0: 6cea 9b3c 2441 a7bd 68ca 78bc 687a bcbd
000000b0: 6bb2 853d 96fb 46bb 4cf8 9f3d e423 6d3d
000000c0: 85bb 543c 1dc9 c23d 7669 2abd f376 933d
000000d0: 7abc aabc cd04 ff3b 4845 b13d b6d0 0bbd
000000e0: 46a7 d03c bf36 96bd a012 173c 745f 69bc
000000f0: 9cf7 2e3c 07b6 16bd bb41 933c 8063 43bc
00000100: 18f7 843d 63f4 663d
-0.047244206 0.046342097 0.09005422 0.010326959 -0.0048414436 0.07030781 0.059142824 0.081698805
0.011030594 0.043072976 0.022762684 -0.07889823 0.08654906 -0.028157875 -0.055582188 -0.12151486
-0.022872183 0.048271593 -0.04191517 0.015841478 -0.04361485 0.0018947385 0.1196691 0.07995173
0.10384661 0.016611323 0.025729762 -0.08479076 0.032876857 -0.03775167 -0.08055866 0.026701335
0.0029440331 -0.019551678 -0.064845584 0.068612866 0.0012242466 0.027780464 -0.025497096 -0.022000121
0.01903268 -0.081667215 -0.015184976 -0.09203035 0.06528171 -0.003036236 0.07811031 0.057895556
0.012984161 0.095110156 -0.04160448 0.07200422 -0.020841826 0.0077825547 0.086557925 -0.03413459
0.025470387 -0.07334661 0.009220749 -0.014243949 0.010679152 -0.03679469 0.017975679 -0.011925578
0.06492442 0.05638541

Mixer_Block.0.mlp_block_token_mixing_DynaMixerOperation.fc_Nd.weight f4 [100, 10]
00000000: 4e63 a23e b00a bd3d ba52 aa3d 9966 55bd
00000010: 729c 873d dd41 d9bd 7e14 3abe c09e 8abe
00000020: a15e 003c aa69 9fbd 90fb 84be fd3f d43d
00000030: 2a37 d8bd 2951 a9bd 9929 fc3d 3bc0 b93d
00000040: 2e12 b3bd dd07 893c e482 af3c 49d6 6f3d
00000050: 3f19 4cbd 2ff6 87bc ac82 403f 2f40 8f3e
00000060: 14b2 f23d be4a 4d3e e577 f7bd 02b9 e93d
00000070: b8b3 2abd 9005 053e cd7c 1f3b 1c32 d4bd
00000080: 57f4 0e3c 5721 e63e 1ee0 e83d 1542 1d3e
00000090: f7c8 0ebe dae4 64bd 91bf 0bbc b68b 213d
000000a0: d752 e13c 784f 143e 67f7 25be dd80 bcbc
000000b0: b660 bb3e e3f3 483d b9b7 3b3e 41bc 283e
000000c0: f2a5 a23d 4e34 07bd 7bb6 9dbd 34cd 88bd
000000d0: 8012 8fbe bab3 42bd 285d a13c 7bc6 953e
000000e0: f28c 3cbe 9840 dcbd 8f48 9abd 3181 923e
000000f0: 6e88 eb3e bb4a a33e 66a5 09bd 6208 e43d
00000100: a582 783e 1a89 643e d51a 7f3c c0a9 823d
00000110: b466 bdbd 6ebb 833e 12f0 8e3d af04 82bc
00000120: 43fe d3be 21e4 733d 8904 94bd f0d1 233e
00000130: 33eb b3bd eda4 903e e6aa 1a3e 5114 24be
00000140: 4de7 90be 7365 a8be 813f 42be 0341 a53c
00000150: 2c37 463d 2402 0e3e 85a2 be3d e5a7 83bd
00000160: 5989 2abe 1e53 ffbd 33b7 85be 0e11 01be
00000170: cc74 b7be 0119 52be 3be4 97bd c7aa c83c
00000180: 8fed ea3d 89b2 c1bd 548d b93e e884 643d
00000190: 6688 e53d 37b4 03bf d687 84be a036 0c3e
000001a0: 2081 77bd 6e22 1f3e e666 4f3d 4be1 ee3d
000001b0: e1f8 353e 4cd3 653d 3180 733e f800 b13e
000001c0: e6d2 1ebe ef12 533e bb3c 8bbe 8b40 8a3e
000001d0: 898e 92be 2537 a6bc 2dd9 35be 61b5 54bd
000001e0: b3e8 f7be 20dc afbe 0f68 ce3e 9aa0 9a3e
000001f0: 550b 1d3e e259 253e fef9 15bd 5c74 ee3d
00000200: e5dc 383d a79b 053e 5353 c93d 0b13 dbbd
00000210: a78f 23be ba3e 023e 5988 44be 82d2 a8be
00000220: ca1d 8cbe 605c 83be 92bb d13b cb58 9bbe
00000230: 7214 0dbe d855 22be 00d5 04be 5174 223d
00000240: 82b9 433e eef2 633e cdd4 b33e 252b 5b3d
00000250: 2652 32bd 27b0 ca3b 8586 953e 55d5 aa3b
00000260: 6246 b93d 4173 6bbd 3d25 e9bd c480 88bd
00000270: e936 c4be 4e60 5ebd 63ca ab3d 739e bc3d
00000280: 0bf1 e63d a4a9 1a3e 5e18 913e 934b a73c
00000290: b277 20be e94a c4bc c29d de3d 7fd4 0f3e
000002a0: 3721 813d cbd0 183d 47b2 04be 77d1 0e3d
000002b0: 037a a03c faa6 cabd 79ac afb7 ad7f a8be
000002c0: d708 9ebe c974 bebe c6d6 1a3e 4d90 dabd
000002d0: 2383 02be 364d 2f3d e549 07bd 7064 c1be
000002e0: 3d41 313e 4a17 b9be 4499 c03d 2ea1 01be
000002f0: d10c 74be aed6 1f3e 38a1 cabe b1f6 f13d
00000300: a0f2 bfbd 0fbf a3be a59c 8abe 0478 8ebe
00000310: 8490 073e 8209 9abe e321 563e 20d3 da3c
00000320: a163 f1bd 69b8 89be 23ee 13be 74d9 f5bd
00000330: c912 c83d 9b2d b4bd 8a05 a83d b6d5 483d
00000340: 4bea e4bd 3989 f73d 6b4e 8b3e 490b aa3d
00000350: 5b75 fb3d d2c8 003f 8e48 2c3d 8b9e e03e
00000360: 430b d13d 7731 903e e073 89bd dc22 1abd
00000370: 6ca1 84be 59b8 17be 163d 713e 8776 d1bc
00000380: 2f38 3a3e 046c ffbd b358 15be ddc8 7ebe
00000390: 77dc 2cbe 590c ce3c 7249 b3bd eee3 8abd
000003a0: 7bc7 9abe 3d57 0ebf 6d42 cdbe b498 edbe
000003b0: 454a 6fbe c058 2cbe a437 4abc 62b9 c5ba
000003c0: d9cb 993e 6866 6bbd ce78 8d3d 94f5 073f
000003d0: 50d9 a4bd 8a4d 93be 6e51 84be 9d80 87be
000003e0: 2cd9 a1be 8f00 51be f702 983e e7d9 f4bc
000003f0: 7095 253e d66d 013e 4fc3 333e 7f1f 93be
0.31716388 0.09230554 0.0831656 -0.052099798 0.066216365 -0.106082655 -0.1817188 -0.27074242
0.007835061 -0.07783826 -0.25973177 0.10363767 -0.10557397 -0.08267433 0.123126216 0.09069868
-0.08743702 0.016727382 0.021424718 0.058553968 -0.049828764 -0.016596882 0.7519939 0.27978656
0.11850372 0.20048043 -0.12083415 0.114122406 -0.0416753 0.12990403 0.0024335862 -0.1036112
0.008725247 0.4494731 0.11370872 0.1535724 -0.1394385 -0.055882312 -0.00852956 0.03943988
0.027505321 0.1448344 -0.16207658 -0.023010666 0.36597222 0.049060713 0.18331803 0.16478063
0.07941808 -0.033008866 -0.07700821 -0.066797644 -0.27943802 -0.04753468 0.01969774 0.2925299
-0.18413141 -0.10754508 -0.07533371 0.2861419 0.46002525 0.31892952 -0.033605002 0.111344114
0.24268587 0.22317925 0.015570362 0.063800335 -0.09248105 0.25728935 0.069793835 -0.015871374
-0.41404924 0.059543733 -0.072274275 0.15998054 -0.08785095 0.28250828 0.15104255 -0.16023375
-0.28301468 -0.328899 -0.18969537 0.020172602 0.04839246 0.13868004 0.09308342 -0.06428508
-0.16653956 -0.12467025 -0.26116332 -0.12604162 -0.35831296 -0.2051735 -0.074165784 0.024495495
0.11471092 -0.09457881 0.36240637 0.05579081 0.112076566 -0.5144686 -0.25884885 0.13692713
-0.060425878 0.15540478 0.05063524 0.11664065 0.17770721 0.05610971 0.2377937 0.34571052
-0.15510139 0.20612691 -0.2719477 0.27002367 -0.2862437 -0.020289967 -0.17758627 -0.05193079
-0.48419723 -0.3434763 0.40313765 0.30200654 0.15336354 0.16147569 -0.036615364 0.116432875
0.045132536 0.13047658 0.09830346 -0.106969915 -0.15972768 0.12719241 -0.19192638 -0.32973105
-0.27366477 -0.25656414 0.006400534 -0.3034118 -0.1377733 -0.1585306 -0.12971878 0.03966171
0.19113734 0.22260639 0.35123292 0.053507943 -0.043535374 0.00618555 0.29204193 0.0052134194
0.090466276 -0.05748296 -0.11384056 -0.06665185 -0.38323143 -0.054291062 0.083882116 0.09209909
0.11276444 0.15103775 0.28338903 0.020421779 -0.1567066 -0.023961501 0.10869934 0.14045905
0.06305163 0.037308495 -0.12958632 0.03486773 0.01958943 -0.098951295 -2.094194e-05 -0.3290991
-0.3086612 -0.37198475 0.15120992 -0.106720544 -0.12745337 0.042798243 -0.033029456 -0.3777194
0.17310043 -0.3615058 0.09404233 -0.12659141 -0.23833014 0.15609238 -0.39576125 0.11814631
-0.09372449 -0.31981704 -0.27072635 -0.2782594 0.13238722 -0.3008538 0.20911364 0.026712
-0.11786581 -0.26898506 -0.1444631 -0.120043665 0.09769208 -0.08797761 0.082041815 0.049031936
-0.111775 0.1208672 0.27208266 0.08302934 0.12278243 0.5030643 0.04206138 0.4387096
0.10207226 0.2816274 -0.067115545 -0.0376309 -0.25904405 -0.14816417 0.23558459 -0.025569214
0.18185495 -0.12471774 -0.14584617 -0.24881311 -0.16880976 0.025152372 -0.08754243 -0.067817554
-0.30230317 -0.55601865 -0.4008974 -0.46405566 -0.23368175 -0.1683073 -0.012342367 -0.0015085156
0.30038336 -0.05747071 0.06907807 0.531091 -0.080492616 -0.28770095 -0.25843376 -0.26465312
-0.31611001 -0.2041037 0.29689762 -0.02988906 0.16170287 0.12639555 0.17554973 -0.28734967

Mixer_Block.0.mlp_block_token_mixing_DynaMixerOperation.fc_Nd.bias f4 [100]
00000000: 9a69 83be 3376 113e 463b ebbd 788d 8f3e
00000010: 93ef b3be 89e7 7a3e 71e3 603e e14c 8f3e
00000020: 9623 f7be db8a 9abe 20b5 5fbe e421 edbe
00000030: ab0e ad3e a773 b0be f0e5 41be 16b8 31be
00000040: 90e4 bc3e 8665 9d3e 0d4e 92be 2069 d23e
00000050: eb24 803e c256 763d 5de3 19bd 4e0f d6ba
00000060: 2d6a b1be 3e93 8c3e 7b35 4a3e 09a9 35be
00000070: 15e6 003f 5331 ab3e 1018 783e f24a b33e
00000080: 8090 99bd 827a 2e3e 5614 fbbe d427 ba3e
00000090: 0e00 a1be ed7f 47be 5533 983e bc25 86be
000000a0: 9e63 01bd 10eb 4ebe 361e bf3e 07b7 1cbd
000000b0: 2b4c 79be b3c4 583d f86f f7bd b4b7 db3e
000000c0: 986c 8bbe 0a75 063e bd98 36be 79f1 9dbe
000000d0: a3ca b33e 6ac9 a9be 5447 673e dc77 66be
000000e0: 7787 903e a3b1 89be 3271 0e3f a67a c93d
000000f0: 5e06 473f 9656 40bf 9e5b aabd b660 87be
00000100: b829 9abe d95d 093d 29b9 0c3d 1380 763d
00000110: f87e b7bd 3cf7 a4be ec61 a23d 5eae 323f
00000120: 0dca 9fbe 1916 b7be a058 0cbf 1db9 6bbe
00000130: e94f d1be 0279 c9bc 44c6 b9bd e483 56be
00000140: fbe5 103f 1c2b 3bbe 1d46 813e 572e 1d3e
00000150: 2ac1 75be c7c5 a73d 77f4 6fbe fc17 97be
00000160: fea8 2cbe 31a1 d7bd 5278 543e 1d1d 5abd
00000170: 1f61 7abf 196a f9bd 4ce9 b2be ab45 1abd
00000180: 6133 78be e357 c93e b005 9dbd 06bd 08bd
-0.25666505 0.14205246 -0.11485915 0.2803762 -0.35143718 0.24502386 0.21961762 0.2798834
-0.48269337 -0.30184063 -0.21846437 -0.4631492 0.33800253 -0.34463236 -0.1893537 -0.1735538
0.3689313 0.3074152 -0.28575173 0.4109583 0.25028166 0.060141332 -0.037570346 -0.0016331465
-0.34651318 0.27456087 0.19746964 -0.17740263 0.5035108 0.3343607 0.24227929 0.35018116
-0.07498264 0.1703892 -0.49038953 0.3635851 -0.31445354 -0.19482394 0.29726663 -0.26200664
-0.031589143 -0.20206857 0.37327737 -0.038260486 -0.24345462 0.052921962 -0.12081903 0.42913592
-0.27231288 0.13130584 -0.17831703 -0.30848292 0.35115537 -0.3316148 0.22585803 -0.2250666
0.2822835 -0.2689334 0.5564147 0.098378465 0.7774409 -0.7513212 -0.08318256 -0.26440972
-0.30109954 0.033536766 0.03435627 0.060180735 -0.08959764 -0.32219875 0.07928833 0.69797313
-0.3120884 -0.35759047 -0.5482273 -0.23019834 -0.4088128 -0.024593834 -0.09071019 -0.2094875
0.5660092 -0.18278164 0.25248805 0.15349708 -0.23999467 0.0819202 -0.234331 -0.29510486
-0.1686134 -0.10528792 0.20749024 -0.05325042 -0.97804445 -0.1217844 -0.34943616 -0.037664097
-0.2423835 0.39324865 -0.076671004 -0.03338339

Mixer_Block.0.mlp_block_token_mixing_DynaMixerOperation.fc_out.weight f4 [66, 66]
00000000: 8612 a0bd 201b b53b 8e26 a53d 2ad1 84bd
00000010: a897 00bd 4508 533e ebcd b73d 6d95 be3d
00000020: cb7a 94bd 5c41 00bd 6674 0e3e 1eb2 373a
00000030: e49b 583e 2523 e83d df1c 023e a458 e5bd
00000040: 2e70 c2bb 7932 11bd faa8 bd3d da12 61bc
00000050: b510 b0bc 0c7c a23d ab96 163e 9d2c bb3d
00000060: 473c 9e3d b4d8 c1bd b8e4 3ebe b49c 213e
00000070: 164d 073d 3973 6dbd c83f be3e 7900 70bd
00000080: 974b b53c 0ff1 c03c d4be 743c 49a1 a0bd
00000090: 3e84 19be 2167 e23c 496c 313b 5f49 77be
000000a0: ae4b bdbc cc5a ae3d b37a cc3d 66ad 1bbe
000000b0: b7e1 7e3d 532c d03d 6f56 733e 34a0 42bd
000000c0: 7b67 dc3d 80fb 143d 6fcf b4bd 3b86 1b3d
000000d0: c7fe ba3c 7bee 3f3e 1b82 21be ad31 1abe
000000e0: 0cf7 9bbd 42e1 c7bd c05b b3ba adaa 86bd
000000f0: b51f 823d 492f 0fbe e132 90be 3e82 4e3e
00000100: 5eb3 c53d 220d 4f3e aa89 8cbd 02fd 113e
00000110: ed3d 203e 0577 3ebe 98c0 2f3e be74 94be
00000120: 98d5 15be a921 6b3d de23 613e 0a90 dd3d
00000130: 70e2 0d3e 9024 4d3e bc24 afbd 4c7e c7bd
00000140: 62c8 d43d c4ec a0bd aeb4 c43d cd57 013e
00000150: 6296 1dbe 9181 26bd 98d9 0b3d df79 43be
00000160: 0b5e 173e 33ec 8c3c a1d0 d73d 06d8 113e
00000170: fabf 7e3d fa25 203e d52b 69be 82ce 10be
00000180: f9fd 05be ba16 7c3e ff58 fa3d a43f 313e
00000190: 48df d63d ad24 58bd 06e7 1abe 9e00 22be
000001a0: f271 853d 9815 05be f9db f63d 582c dfbd
000001b0: 1708 2b3d cca1 aebd dab2 893d 4378 36be
000001c0: 97ec 9e3d 5749 e53e df60 34be 18a0 ae3d
000001d0: 09cc 3ebe 74cb c8bd 208f 9e3d 394a 523d
000001e0: 8803 35be 3bae e13d 4d04 be3d bdf3 503c
000001f0: bccd c1bd 16c7 ca3d 283a 333e 13ca c43d
00000200: 2932 50bd d2b4 27be 7fd3 17be 9d5a 943e
00000210: 6896 e73d 2e41 6cbe 9a27 e9bd 2c1b fcbe
00000220: 99ec 433e 4e92 293e 6f17 a4bd b2b0 1c3d
00000230: 8fd4 9bbe ec62 c5bd 3b2f a1be c0cb 12be
00000240: 0a42 893d 92fd e4ba 1da4 d73d 9d67 bdbe
00000250: abf8 813e 04ea e23d e8f8 66bd 62b2 333e
00000260: ad8f 103e a7a9 b23e 78a4 65be 6c6e 1d3d
00000270: bf8c 4d3e d0e0 013e ea9f cfbc cca8 53be
00000280: 8c0f 153b 1eb5 193e 7814 10be 7edd e93d
00000290: ce40 26be 13ad 5bbd 34eb b13c 7aa3 24be
000002a0: 253f 85bd 8654 12be 57ef 55bd 80f5 da3e
000002b0: 8299 593d bf0c 3c3e 260e 8d3e 21ab 813d
000002c0: 0752 953e 9d55 b7bd 33c3 04bc e136 4d3e
000002d0: 5ae0 cebd 561e 16be 3ff6 693e 163f 363b
000002e0: 400c 623e fb86 323d b596 d6bd 79c7 9fbe
000002f0: ae67 8e3e 64a1 2dbd 8f7e eb3d d6c1 92bd
00000300: 6a84 19be 3c66 35be fb6a 113e 756f 90be
00000310: 58fb 423e f767 033d cdc4 50be 0831 393c
00000320: 3ad5 953e e5c6 d4bc 020b 0f3e ca2a 35be
00000330: 7c2d 423d 715a ea3d 9073 d4bd 5056 a13c
00000340: 57dc 6ebe 6842 b7bc 933e b33c 11fc 583c
00000350: 0cca 443d 1285 7b3e 2129 e2bd 1838 94be
00000360: 3391 4b3e 2308 ddbb b177 8cbe 2c67 9cbd
00000370: 46e1 c8bd 4c21 84be 8619 053e 2a24 f23d
00000380: 88de 4abc 245b 343d 9f53 cc3d 28a1 d83c
00000390: 33e3 bb3c 46b5 6abe 9d23 1b3e 20c4 323d
000003a0: 4739 413e 8463 fb3c 4ca7 53be 8524 d0bd
000003b0: 1a51 1bbd 7ebd adbe 990b 9fbe 000e 113e
000003c0: 363b 30be 7cee 4fbe a19c 893d c8f8 2abe
000003d0: 7c1b 14be 02e6 6b3d a49f c43d 98a1 92bc
000003e0: f578 87be 2eb7 4abe 3038 873d 54ee dfbd
000003f0: 3bf0 29bc f29c d6bc 5a9f 8d3e 5cb4 f3bd
-0.07816033 0.005526915 0.08063994 -0.064852074 -0.03139463 0.20608623 0.089748226 0.093058445
-0.072499834 -0.03131233 0.1391159 0.00070074375 0.21153218 0.11334828 0.12706326 -0.111985475
-0.005933783 -0.035448525 0.09260745 -0.013737405 -0.021492342 0.07933816 0.14705913 0.09139369
0.07726341 -0.09465161 -0.18641937 0.15782434 0.0330325 -0.057971213 0.37158036 -0.0585942
0.02213077 0.023552446 0.014938075 -0.07843263 -0.14991853 0.027637066 0.00270726 -0.24149083
-0.023107376 0.08513412 0.099843405 -0.15202865 0.062226977 0.10164704 0.2376344 -0.047516063
0.10761925 0.03637266 -0.08828627 0.03796981 0.022826565 0.18743317 -0.15772288 -0.15058012
-0.0761548 -0.097597614 -0.001368396 -0.065755226 0.06353704 -0.13982882 -0.28163818 0.20166871
0.09653352 0.20219854 -0.06862195 0.14256671 0.15648623 -0.1860009 0.17163312 -0.28995317
-0.14632261 0.057405148 0.21986338 0.10818489 0.1385591 0.20033479 -0.085519284 -0.09740886
0.103897825 -0.078576595 0.096047744 0.1263115 -0.15389398 -0.040650908 0.03414306 -0.19089459
0.14781968 0.017202472 0.1053784 0.14242563 0.062194802 0.15639487 -0.22770627 -0.14141276
-0.13085164 0.24618044 0.12224006 0.17309433 0.10491806 -0.05276935 -0.15127191 -0.15820548
0.06515874 -0.12996519 0.12053675 -0.1089713 0.041755762 -0.08526954 0.06723566 -0.17819314
0.0775997 0.44782516 -0.17615078 0.08526629 -0.1863252 -0.098044306 0.07742143 0.051340315
-0.17677128 0.1101956 0.09278164 0.012753424 -0.09463069 0.09901254 0.17502654 0.09608855
-0.050829086 -0.16377571 -0.14826773 0.28975382 0.113079846 -0.23071739 -0.113845065 -0.4923948
0.19133224 0.16559717 -0.08012282 0.038254447 -0.30435607 -0.096380085 -0.31481346 -0.14335537
0.06702049 -0.0017470589 0.10529349 -0.36993113 0.2538503 0.11079791 -0.05638972 0.17548516
0.14117308 0.3489506 -0.22426021 0.038435385 0.20073222 0.12683415 -0.025344808 -0.2066986
0.0022744862 0.15010497 -0.14070308 0.114191994 -0.16235659 -0.053631853 0.021718599 -0.16077986
-0.065061845 -0.14290056 -0.052230205 0.42765427 0.053124912 0.18364237 0.27549857 0.063314684
0.29164144 -0.08951876 -0.00810318 0.20040466 -0.101013854 -0.1466001 0.22847842 0.0027808598
0.22074986 0.04358576 -0.10477964 -0.31206873 0.27813476 -0.042390242 0.114987485 -0.071658775
-0.14991918 -0.1771478 0.14200966 -0.28210035 0.19041193 0.03208157 -0.20387574 0.011303194
0.2926424 -0.025973747 0.13969043 -0.17692104 0.04740666 0.114430316 -0.10373604 0.019694477
-0.2332624 -0.022370532 0.021880424 0.013243691 0.04804425 0.24562481 -0.11043001 -0.28949046
0.19879608 -0.0067453547 -0.27435067 -0.07636866 -0.098085925 -0.25806653 0.12998018 0.11823304
-0.012382157 0.04403223 0.09976887 0.026444033 0.022935485 -0.22920713 0.15150304 0.04364407
0.18869506 0.030687101 -0.20669287 -0.101632155 -0.03791914 -0.33933634 -0.31063536 0.14165497
-0.17210087 -0.20305818 0.06719328 -0.16696465 -0.1446361 0.0575924 0.096007615 -0.01789932
-0.2645947 -0.1979644 0.06602514 -0.10934129 -0.010372217 -0.026197884 0.27660638 -0.11899635

Mixer_Block.0.mlp_block_token_mixing_DynaMixerOperation.fc_out.bias f4 [66]
00000000: c5be c43e 29f9 7abe 9c88 1a3e 5fb8 303e
00000010: b272 99be 25ff 15be f83b 01bf dd97 bd3d
00000020: 2a11 f2bd 5a4b e6bd 9349 dabd 6ad9 013f
00000030: 0f92 7fbe ad1b 673e 1eff fd3c a325 173f
00000040: bfc0 4cbe 8da8 b0bd 40bf 9abe b2c4 173e
00000050: f89b 9dbd 2e6b 60ba 1dbb f13a e023 0d3e
00000060: 736d c0be d0ec 9c3c 7758 36bd fa21 153e
00000070: 3382 12be e1f8 a43d 0312 f3bc 28c2 d1bc
00000080: ffa5 e5bd e4c5 14bc 94da f5bd c709 97bc
00000090: 466e 7b3c b67f bfbd cf77 45be b3f3 093c
000000a0: 5b20 f93b 2825 383d f80d 2e3c 716d a03d
000000b0: d261 a3bc 29d9 d83e 5f36 d43d 1b19 383e
000000c0: 08f6 103f 0c32 73bd aaf8 5c3d acf8 aa3d
000000d0: c156 4dbe 01d5 18be f229 01bf fc58 3f3e
000000e0: 939d 02bc 72f2 853c f313 84be d5e9 453e
000000f0: 1da9 96be 1a05 323e 1cfe 00bf c4f8 84bd
00000100: 37e5 b53c 5bb6 f0bb
0.38426796 -0.2450911 0.15091175 0.17257832 -0.29970318 -0.14648111 -0.5048213 0.09257481
-0.1181968 -0.11244841 -0.106585644 0.5072237 -0.2495806 0.22569151 0.031005438 0.59041804
-0.19995402 -0.086258985 -0.30224037 0.14821127 -0.07695764 -0.0008560893 0.0018442605 0.13783216
-0.37583503 0.01915589 -0.04451796 0.14563742 -0.1430748 0.080552824 -0.029671675 -0.025605276
-0.11213302 -0.009080384 -0.12004581 -0.01843728 0.015346115 -0.09350531 -0.19283985 0.008419919
0.007602734 0.04495731 0.010623448 0.07833374 -0.019944105 0.4235318 0.10361933 0.17978327
0.56625414 -0.0593739 0.053948082 0.08348212 -0.20052625 -0.14925005 -0.5045463 0.18686289
-0.007972139 0.016350958 -0.2579647 0.19327481 -0.29425898 0.17384759 -0.5038774 -0.06492761
0.022204025 -0.007345957

Mixer_Block.0.mlp_block_token_mixing_DynaMixerOperation.LN.weight f4 [10]
00000000: 56e4 aa3f 9669 b03f 013c 5c3f b5e0 343f
00000010: 2752 d83e 4336 ed3e 729d bc3e 67ad 873e
00000020: 1670 6a3d f786 d03e
1.3350933 1.3782222 0.8602906 0.70655376 0.42250177 0.4633046 0.3683887 0.26499483
0.0572358 0.4072797

Mixer_Block.0.mlp_block_token_mixing_DynaMixerOperation.LN.bias f4 [10]
00000000: e8aa c53e 69a4 1ebe 456f 3e3e be5d 8b3d
00000010: ab84 3a3e 00cd 95bd 0cc4 223d 05c4 ecbc
00000020: 87e6 c6bc c207 c63d
0.38606954 -0.15492405 0.18597133 0.06804989 0.18214671 -0.07314491 0.039737746 -0.028902063
-0.024279846 0.096694484

Mixer_Block.0.mlp_block_channel_mixing_DynaMixerOperation.fc_ND.weight f4 [1, 10]
00000000: 76e2 cbbd b93c 153e e205 7d3c da01 b03d
00000010: c7af 833e 29dc 9abe a210 7a3d 04ed 453e
00000020: 4f1f 95be 50bd 0cbe
-0.09955303 0.14573945 0.015443297 0.08594103 0.25720045 -0.30246094 0.06105102 0.19328696
-0.2912545 -0.13744092

Mixer_Block.0.mlp_block_channel_mixing_DynaMixerOperation.fc_Nd.weight f4 [484, 22]
00000000: eb91 4c3e 7f37 4dbe 8b2a 30be 5b0b 53bd
00000010: 5649 6cbd 0242 1ebe 1531 1abe 8254 2dbd
00000020: 8d5b 553e 7798 f5bd 418c 6bbd 0e3a 103e
00000030: 5176 ea3d 0436 ccbd cd4e 573e c6a8 1cbe
00000040: 19b8 2e3d 67c9 4c3e 9f1a e23d 5442 ed3b
00000050: 6d33 2abe 0a13 1c3e a252 003e 8e00 a7bd
00000060: 66b2 b0bd 9c03 363e 8653 343d 72da 28bc
00000070: ac4a 593e 4fae 09be 19e9 4e3e f1a3 2dbe
00000080: b82b be3d 616a 6abd 7967 4c3e c338 ce3d
00000090: ebcc fd3b 154a 07be 0f6d edbd 7416 5abe
000000a0: c1dd 2d3d 4e67 0dbe d8ef 46bd edd0 f9bd
000000b0: 278f 20bd ff11 533e a810 503d 7454 04be
000000c0: 3bde 84bd 8f15 2d3e 7fb6 98bd a1f3 93bd
000000d0: b67c 543e 6dca c93d 6e58 243e 8a75 61bd
000000e0: 8cb5 ca3d 3c23 333e d248 abbd 7090 483d
000000f0: d3e5 423e 182d 1f3e 2348 493d 755f 09bc
00000100: 2c84 49be 03ef 4c3e 48b7 edbd c0af 36be
00000110: 1877 f03d 9e32 3bbd b5f0 563d b323 273e
00000120: d28e 3b3e af56 19be 9013 53bd f545 aebc
00000130: 5504 e73c 1e54 98bb 5388 0fbe 1b70 423e
00000140: bcd2 3f3c a851 0d3d 2be6 a3bc 0af1 103e
00000150: b248 04bd a9ff 1c3e 3bd8 1dbe bd4e 53be
00000160: 0193 183e 6559 0a3e 3976 1f3e c04b 973d
00000170: 5d46 483e fd58 07be 2227 863d 3f2b 6ebd
00000180: 72a4 e33d 9e29 e53d 6fcf 273e cb34 bdbd
00000190: 1a2d 063e e19c 0fbe 053f a2bc f943 b23d
000001a0: 1059 aabd c987 57bd 8162 59be d934 f7bc
000001b0: e3b6 e33d 0785 4f3e e2de 3bbc 3f53 93bd
000001c0: 6d08 90bc a5f6 73bd 7afa 6abd d795 9f3d
000001d0: 508c 503e ae31 593d 381a 6e3d fe75 3f3c
000001e0: 80d6 1b3e 9c47 543e 4c1f 16be 1729 4a3c
000001f0: df26 d33d afa4 4abe c20b 11bd abb6 183d
00000200: 8833 fb3d 8086 aa3d 5293 8a3b d936 333d
00000210: e52e 173e 45fd d0bd a58d 2f3e 9776 543e
00000220: 1973 45be 0c9c bc3c f8ea 6dbc 15d8 fabd
00000230: 77f1 e73c 44be 593e cba8 25be c736 f1bd
00000240: 366a 3c3d def7 4cbd a34b 58bc 3c63 19be
00000250: ef76 ebbd 10db 4fbe 186f 4ebe dcd2 3e3e
00000260: 301e a63d b9f0 1cbe 4341 f13d 8ccf 093e
00000270: 6f06 44be 3888 bd3a b848 c6bd 2dcd 3cbe
00000280: 45c1 803d cb68 c6bd 2dbe 483e be66 4fbe
00000290: 9663 17be 326e 71bd a3bc 033e 9cd5 de3d
000002a0: 75c4 263e 6436 d13d 23c8 543e ca2d 18be
000002b0: 13e0 2dbe ce54 1cbe 7780 e0bd 53cc 2bbb
000002c0: dc04 533e d29c 983b fdce f03c 3375 94bd
000002d0: aeb3 013e a409 273d 0cc1 39be 9977 dabd
000002e0: f731 713d ff79 383e 19bc 0f3e 5d27 203e
000002f0: 3377 03bd 2554 adbd bd00 23be 3b8e d13d
00000300: f359 dabd 9890 083e 2fcb 313d 44f9 833d
00000310: f021 c03c b067 233d 2167 b7bd 88ca 243e
00000320: 3eb0 563e bb78 5bbd 65b0 23be 3e8c 43be
00000330: 7195 c4bd 4e47 e8bd 67c6 eabc 9980 3dbe
00000340: 11af 10bd 08f2 a6bd ca11 0a3e acf9 373e
00000350: 3a59 d63c 2a23 bf3d b289 543e eb21 483d
00000360: 7471 4f3e d4bd 523e 06e6 163d db74 1d3e
00000370: a718 4c3e a1cc 56be b3d9 183e e0ef 1c3e
00000380: 7215 25be eef3 213e 307e 503e 11b8 163e
00000390: a4ea f5bd e11d 4cbe 2779 0fbd b76c bdbd
000003a0: 9c0d 10be 6e03 223d f49c dfbd 4529 b0bd
000003b0: 5535 473e acf5 01be ea28 1ebe 060f 36be
000003c0: dfdb cabd d167 54be 5f28 a83c 6189 4f3e
000003d0: 360b c8bd 493e e73d 9a58 a03c 2e3a 463e
000003e0: 0416 0dbc f05f 563e e1a5 20be 16aa 26be
000003f0: beef 503d e7e4 073e ad83 2ebc 6020 a83d
0.19977538 -0.20040701 -0.17203729 -0.0515245 -0.057687126 -0.15454867 -0.15057786 -0.04231692
0.20835705 -0.11991971 -0.057506803 0.14084646 0.11448348 -0.0997124 0.21026154 -0.15298757
0.042656038 0.19998704 0.11040234 0.007240573 -0.1662118 0.15241638 0.12531522 -0.08154403
-0.08627777 0.17774814 0.044024967 -0.010305988 0.21219891 -0.134454 0.20206107 -0.1695707
0.092856824 -0.057230357 0.19961347 0.1006942 0.0077453754 -0.13211854 -0.11593067 -0.21297628
0.04244781 -0.13808939 -0.048568577 -0.121980526 -0.03919902 0.20612334 0.050797135 -0.12922841
-0.064876996 0.16902755 -0.07456683 -0.07224203 0.20750698 0.09853063 0.16049358 -0.055043735
0.098979086 0.1749391 -0.08363499 0.04896587 0.19032983 0.15544546 0.04914106 -0.008384575
-0.19679326 0.2001305 -0.11607224 -0.17840481 0.11741465 -0.04570257 0.05247565 0.16322212
0.183162 -0.14974473 -0.051532328 -0.021273592 0.028200308 -0.0046486994 -0.14016847 0.18988077
0.011707958 0.0345017 -0.020007214 0.14154449 -0.03229589 0.15331902 -0.15414517 -0.20635505
0.14899828 0.13510664 0.15572442 0.07387495 0.19558091 -0.1321754 0.06550433 -0.05814671
0.1111535 0.111895785 0.16387723 -0.09238585 0.13103142 -0.14024688 -0.01980544 0.08704371
-0.083177686 -0.05261973 -0.21228983 -0.030176567 0.11118867 0.2026559 -0.011466714 -0.07193612
-0.017582143 -0.05956139 -0.05736778 0.077922516 0.20366025 0.053025894 0.058130473 0.011685846
0.15218544 0.20730442 -0.14660376 0.012338898 0.103101484 -0.19789384 -0.035411604 0.03728358
0.12265688 0.08326435 0.0042289877 0.04375348 0.14763983 -0.10204557 0.17143877 0.20748363
-0.19282188 0.023023628 -0.014521353 -0.122482456 0.028313382 0.21263987 -0.1617767 -0.11778026
0.04599973 -0.050041072 -0.013201627 -0.14979261 -0.11497294 -0.2029841 -0.20159566 0.18635124
0.081112266 -0.15326203 0.11780026 0.13458079 -0.19143079 0.0014460152 -0.09681839 -0.18437643
0.06286863 -0.096879564 0.19603796 -0.20254037 -0.14784083 -0.05894298 0.12864928 0.108805865
0.1628588 0.10215452 0.20779471 -0.14861217 -0.16980009 -0.15266725 -0.10962003 -0.0026214316
0.20607322 0.0046573663 0.029395575 -0.072489165 0.12666199 0.04078068 -0.18140048 -0.10667343
0.05888554 0.18015288 0.14036597 0.15640016 -0.0320961 -0.08463315 -0.1591825 0.102322064
-0.10661688 0.13336408 0.04340666 0.06444028 0.023453683 0.039893806 -0.08955217 0.16092885
0.20965669 -0.053581934 -0.15985258 -0.19096467 -0.09598816 -0.11341725 -0.028659059 -0.18506087
-0.035323206 -0.081516325 0.13483348 0.17966336 0.026165593 0.09332879 0.20755652 0.04886047
0.20258123 0.20580226 0.03684046 0.15376608 0.19931279 -0.20976497 0.14926796 0.1532588
-0.16121462 0.15815708 0.20360637 0.14718653 -0.12007645 -0.19933273 -0.03502765 -0.09249251
-0.14067692 0.039554052 -0.10918608 -0.086016215 0.19453938 -0.12691373 -0.15445295 -0.17779168
-0.09905218 -0.20742728 0.020527063 0.2026725 -0.09767763 0.11291177 0.019573499 0.19358131
-0.008611206 0.20935035 -0.15688278 -0.1627582 0.051009886 0.13270913 -0.010651511 0.082093

Mixer_Block.0.mlp_block_channel_mixing_DynaMixerOperation.fc_Nd.bias f4 [484]
00000000: 1971 4abe 1d04 453e ccb9 35be abd7 22bd
00000010: f540 3b3e ed42 303e a51d a83d bb40 4ebd
00000020: 1fd5 e5bd b324 323c 6930 d4bd b169 993d
00000030: 947e 3cbe 0a63 38be f8c0 dd3d c41e d03d
00000040: 6fc2 263d 2179 353d 0d89 b33d d3cb 903d
00000050: 28b8 d63d 8d99 a63d 4c28 b13d fd6e 243c
00000060: d31f 47be fe09 4fbe 8b4d 213d c52d 3f3d
00000070: 1ba1 1ebe 758c bebd eedf 573e 98e2 333e
00000080: cbf9 8cbd 8210 503e 2f45 523e 961c 2cbe
00000090: 4186 2d3e c694 9cbd 88fe 3bbe d6aa 16be
000000a0: 916d 03be 2283 443e b92c 2d3e 3d1d 09be
000000b0: beed a93d 62e1 d4bd 9126 003e ed6f 08be
000000c0: ce3c 68bd 524a a83d 121c c93d 5d9d 2a3d
000000d0: e1f7 38bb 1fe4 86bc 5750 2b3e 5a34 08be
000000e0: c01f ee3d dc27 683d 54ed bdbd 83d4 d5bc
000000f0: 5772 9b3a 9ac8 febd 2bb8 69bd df7d f9bd
00000100: 6456 13be f11e 323e bfa3 15be 7498 49be
00000110: f359 a5bd daa7 17be 5df6 99bc 3801 363e
00000120: 8db7 3d3e 7419 55bd cdf8 063e 94fd 0fbe
00000130: 0c60 f6bd b908 4abe b23c 633d 47fc 41be
00000140: 907c b1bd 5ed0 f7bd 8c32 fdbd ebd0 40be
00000150: 66ce 54be dc49 1d3d 62b0 4a3e d8de 063e
00000160: 46cd 25be f2fd 4dbd 59f9 853d ac91 563d
00000170: 9479 42be 4a74 b03d 4c08 df3d 8928 74bd
00000180: a028 103e 3df6 eb3d ac5b cb3d a00f 42be
00000190: c43f 153e d64e 56bc 0737 aa3d 26f6 15be
000001a0: 9d2b 65bd f17d 363e 85f6 b73d aa66 cc3d
000001b0: afa5 54be 8344 033d b4ec 4cbc bd60 be3d
000001c0: f5d8 0cbd a2bd 083e bbbc 83bb b580 52be
000001d0: d397 12be f65a 25be 2c63 a53d 51d4 493e
000001e0: 2e8c 42be e92c c9bd cc92 5d3c abbf adbd
000001f0: ce73 ba3b e68a 10be 39c7 d03d 4246 ca3d
00000200: 86f9 3dbe 210e b23d 2337 563e 23c7 ffbd
00000210: cddb c63d 2051 103e c280 40bd 0bee 903c
00000220: 382c a6bd 09c5 d03d de7c 4e3e 76bf ff3d
00000230: c888 ae3d 022a 5b3d 870d c63d 9203 0c3e
00000240: a3ba ca3d fe05 06bd b8f7 493e dc11 113c
00000250: 7a7f b9bc 023d 023e 679b 2c3e 8e1f f43d
00000260: fd06 163d 4020 8e3c 773d 4e3e 97bb 31bb
00000270: 1130 d4bd 2056 023d c91f 4d3e 5e57 523e
00000280: c337 de3d bbde 8fbd 16d6 373e 025d d13d
00000290: 5cb2 6abd 77a0 b6bd dbc6 143e 5ced 3fbe
000002a0: 8f2b 3f3e 44fb bcbd 35b6 e5bd 5d10 f7bd
000002b0: 111a 1fbe 1a25 1abe b8de 0f3d de10 bcbd
000002c0: c782 e93d c952 4dbe 0c12 003e 559b 663d
000002d0: dc33 bd3d bb34 233c 7049 443e f676 333e
000002e0: bb1f 34be f010 af3d 4d14 483c c26c ac3c
000002f0: 3466 303d e8dd 503e d46a 2e3e c71a a7bd
00000300: 298a 483e cf53 03bd 375e a6bd 9422 3ebd
00000310: 9824 d63d 47c1 083e 2250 56be e134 12bc
00000320: 0958 56be 54c2 04be e3fc fabc 507c 063e
00000330: 05b0 323e 0fcd 643d 9c05 04be 9525 583d
00000340: 2f85 2f3e 5bba b7bd e04c e53c 7ed1 29be
00000350: ef21 4d3e a35c 55bc 7812 ae3c 3a8d 4abe
00000360: 0632 c2bd e5c3 3dbe a356 34be 804f 33bd
00000370: 3bb8 1d3e 019b 17be d1bb c13d 6412 913c
00000380: 999f 8f3d 63d8 b1bd 6e12 073e 1f30 44bc
00000390: 02aa 273e d2d9 cabd 6309 7abd d8e9 f83d
000003a0: d4ba 023e cc4e 95bd 8752 46bd c71f 993c
000003b0: 5710 fabc 4d09 42be 3104 39bd 27f5 35be
000003c0: eaea 363e 99b7 803d de40 513d fdf8 abbc
000003d0: d64d 4dbe 0157 1abe f08d 34be 1f21 cb3d
000003e0: 253b 94bd 18a7 2a3d 7aae ab3b 9150 31bc
000003f0: 9fff 41be 9254 98bd 6d03 43bd 4db8 b43d
-0.19769706 0.1923985 -0.17746657 -0.03975646 0.18286498 0.1721303 0.08208779 -0.0503547
-0.1122229 0.010873008 -0.10360796 0.07490862 -0.1840766 -0.1800653 0.108278215 0.10162118
0.04071277 0.04430497 0.08766375 0.070701264 0.10484344 0.08134756 0.08650264 0.010036227
-0.19445734 -0.20218655 0.03938059 0.04667451 -0.15491144 -0.09304134 0.21081516 0.17566907
-0.06883582 0.20318797 0.20534204 -0.1680778 0.16945745 -0.07645564 -0.18358815 -0.14713606
-0.12834765 0.19190648 0.16911592 -0.1339006 0.08297299 -0.10394551 0.12514712 -0.13323946
-0.056698613 0.082173005 0.09819807 0.04165398 -0.002822392 -0.016466198 0.16729866 -0.1330122
0.116271496 0.056678638 -0.09273782 -0.02610231 0.0011859637 -0.124406055 -0.057060402 -0.12182211
-0.14388424 0.17394616 -0.14613245 -0.19687063 -0.08073797 -0.14810124 -0.018794233 0.17773902
0.1852705 -0.052026227 0.13180847 -0.14061576 -0.12030038 -0.1972989 0.055477805 -0.18943892
-0.086663365 -0.1210029 -0.12363157 -0.18829696 -0.2078186 0.038400516 0.19793847 0.13170946
-0.16191587 -0.05029101 0.065417 0.052385017 -0.18991691 0.086159304 0.108902544 -0.05960897
0.14077997 0.115215756 0.099295944 -0.18951273 0.14575106 -0.013080319 0.08311277 -0.1464468
-0.055949796 0.1782148 0.08982567 0.09980519 -0.20766328 0.03204776 -0.012507606 0.09295795
-0.034386594 0.13353589 -0.004020301 -0.2055691 -0.14315729 -0.1614798 0.08075556 0.19709899
-0.18998787 -0.09823019 0.013523769 -0.084838234 0.0056900745 -0.14115486 0.10194249 0.09876682
-0.18552217 0.08694101 0.2091947 -0.12489154 0.097098924 0.14093447 -0.046997793 0.017691633
-0.08113903 0.101938315 0.2016482 0.1248769 0.08522183 0.05350686 0.09670549 0.13673237
0.098988794 -0.03272056 0.19723403 0.008854356 -0.022643793 0.12718585 0.16856156 0.11920081
0.03662776 0.017349362 0.20140634 -0.002711987 -0.103607304 0.031820416 0.20031656 0.2054114
0.108504795 -0.07024904 0.17952761 0.10222818 -0.057299003 -0.08917325 0.14528982 -0.18742889
0.1866896 -0.092276126 -0.11216394 -0.12063668 -0.15537287 -0.15053216 0.03512451 -0.09182905
0.11401897 -0.20051111 0.12506884 0.05630048 0.09238407 0.009961302 0.19168639 0.17525849
-0.17590229 0.085481524 0.012211871 0.021047954 0.04306622 0.2039715 0.17032939 -0.08159404
0.19583954 -0.032062348 -0.08123439 -0.046419695 0.104561985 0.1335498 -0.20929006 -0.00892374
-0.2093202 -0.12964755 -0.030638164 0.13133359 0.17449959 0.05585962 -0.12892765 0.052770216
0.1714065 -0.08971091 0.027990758 -0.16583821 0.20032476 -0.013022575 0.021249041 -0.19780436
-0.094821975 -0.18531759 -0.17611174 -0.04377699 0.1540231 -0.14805223 0.09459651 0.017708965
0.07012863 -0.086838506 0.13190624 -0.011974364 0.16373447 -0.09904827 -0.061044108 0.12153977
0.12766582 -0.0729042 -0.048418548 0.01869191 -0.03052537 -0.1894886 -0.045170013 -0.177693
0.1786305 0.062850185 0.051087253 -0.02099275 -0.20049223 -0.15072252 -0.1763227 0.09918427
-0.072378434 0.04166326 0.005239305 -0.010822431 -0.18945168 -0.074380055 -0.04761069 0.08824215

Mixer_Block.0.mlp_block_channel_mixing_DynaMixerOperation.fc_out.weight f4 [10, 10]
00000000: 8414 0ebc 6adc 48bd fd2e 373e caae 03be
00000010: 7805 5abe b0fe 1dbe f2b8 8c3d f3f7 61be
00000020: f857 64bd 54d0 c33d 5084 853e 717f 403e
00000030: 07db 31be 57dd bebd b8fd 4a3e 695d 18be
00000040: 6256 0ebe eddf 44be f670 313e bf7f 973e
00000050: 2c57 80be 3c40 a0be 00cd f9bc a91d b0bd
00000060: 6863 c33c 5d0a 3c3d 0169 64bd 0fc8 42bc
00000070: 657d 363d 8dbf 80be 1b6d 83be 98a2 8e3e
00000080: 7745 1e3e 1254 c3bc 8183 5dbd bf34 2abe
00000090: 7a8f 4c3c 66ab 813e 3449 7ebe b073 153e
000000a0: 1069 3dbe 821b 5c3e 562f d83b 6a48 643e
000000b0: 2844 243e 5905 23be f510 21be ece6 2f3e
000000c0: fbeb d73d 2aa3 663d 882c db3c 62b1 59be
000000d0: 1389 7b3e 11ba 003e 4592 7abe 9fbd a8bd
000000e0: 8f32 1e3e b38d 09bd 4f4a ba3c b898 813c
000000f0: f99e 94be 7e87 9b3e eed6 e73d 1301 99be
00000100: 3552 2f3b 7477 6e3d 1833 f23d 101c 81be
00000110: e7c3 943d 1a6f bcbd f624 0ebc 44e8 543d
00000120: 3722 603e e58a 81be f370 993e d4b0 7e3d
00000130: ea77 64be 28f3 0dbc 2984 053e f902 763e
00000140: c851 6ebd 168a 9e3e b152 6e3d 5e72 f03a
00000150: d0bf 21bd f02c 9dbe 837e 363e 241e 0cbe
00000160: 0fa9 a03d e0ca 85be 9ca2 8dbe 5b2d 793e
00000170: 5738 8dbe fddb cdbb f092 f03b c14a 253e
00000180: bf06 52bd fe41 6b3e b48f 27bd dff7 863e
-0.0086718835 -0.04903833 0.17889018 -0.12859645 -0.21291149 -0.15429187 0.06871213 -0.22067241
-0.055747956 0.0956122 0.2607751 0.18798615 -0.17368709 -0.09319561 0.19823349 -0.14879383
-0.1390014 -0.19226046 0.17328247 0.2958965 -0.25066507 -0.31299007 -0.03049326 -0.08599407
0.023851112 0.04590832 -0.055764202 -0.011888518 0.04455318 -0.25146142 -0.25669178 0.27858424
0.15456186 -0.023843799 -0.05408049 -0.16621684 0.012485379 0.2532608 -0.24832612 0.14594913
-0.1849711 0.21494868 0.0065974398 0.22293249 0.16041625 -0.15920009 -0.15729125 0.17177933
0.105430566 0.05630795 0.026754633 -0.21259072 0.24564008 0.12570979 -0.2446986 -0.08239292
0.15448974 -0.0335824 0.022740511 0.015819892 -0.29027537 0.3037681 0.113202915 -0.29883632
0.002675188 0.058219388 0.118261516 -0.25216722 0.07263928 -0.092008784 -0.008675804 0.05197932
0.21888052 -0.2530128 0.29968986 0.062180355 -0.22311369 -0.00866393 0.13038696 0.24024571
-0.05818346 0.30964726 0.05818433 0.0018344631 -0.039489567 -0.30698347 0.17821698 -0.13683373
0.07844745 -0.26131344 -0.27663124 0.24333708 -0.27582046 -0.006282328 0.007341735 0.16141798
-0.051275965 0.22974393 -0.04090853 0.26360986

Mixer_Block.0.mlp_block_channel_mixing_DynaMixerOperation.fc_out.bias f4 [10]
00000000: a900 83be 123a 90be a83a 8d3e 859f f5bc
00000010: 1ece 743e 44cf 5cbe 4457 423e 24a5 85be
00000020: 1413 95be 9b15 c5bd
-0.2558644 -0.28169304 0.27583814 -0.029983291 0.23906752 -0.2156344 0.18978602 -0.26102555
-0.29116118 -0.096232615

Mixer_Block.0.mlp_block_channel_mixing_DynaMixerOperation.LN.weight f4 [22]
00000000: 0000 803f 0000 803f 0000 803f 0000 803f
00000010: 0000 803f 0000 803f 0000 803f 0000 803f
00000020: 0000 803f 0000 803f 0000 803f 0000 803f
00000030: 0000 803f 0000 803f 0000 803f 0000 803f
00000040: 0000 803f 0000 803f 0000 803f 0000 803f
00000050: 0000 803f 0000 803f
1.0 1.0 1.0 1.0 1.0 1.0 1.0 1.0
1.0 1.0 1.0 1.0 1.0 1.0 1.0 1.0
1.0 1.0 1.0 1.0 1.0 1.0

Mixer_Block.0.mlp_block_channel_mixing_DynaMixerOperation.LN.bias f4 [22]
00000000: 0000 0000 0000 0000 0000 0000 0000 0000
00000010: 0000 0000 0000 0000 0000 0000 0000 0000
00000020: 0000 0000 0000 0000 0000 0000 0000 0000
00000030: 0000 0000 0000 0000 0000 0000 0000 0000
00000040: 0000 0000 0000 0000 0000 0000 0000 0000
00000050: 0000 0000 0000 0000
0.0 0.0 0.0 0.0 0.0 0.0 0.0 0.0
0.0 0.0 0.0 0.0 0.0 0.0 0.0 0.0
0.0 0.0 0.0 0.0 0.0 0.0
