M_2_AST/M_2_AST/h36m/run_for_longging/exp184/model.pt (torch, 955837 bytes, 212 tensors)

Mixer_Block.0.mlp_block_token_mixing.fc1.weight f4 [20, 10]
0	0xbeddeaec	-0.43343294
1	0x3ef671dd	0.48133746
2	0xbe8e880a	-0.27838165
3	0x3de5e5d3	0.11225476
4	0xbd9a832c	-0.0754455
5	0x3e3042f0	0.17213035
6	0xbeaf0b08	-0.34188104
7	0xbe14f8c6	-0.14548025
8	0xbe4bf2ac	-0.1991679
9	0xbe8ff085	-0.2811319
10	0xbe8f3ec3	-0.2797757
11	0x3e7823e8	0.24232447
12	0x3d4872ed	0.048937727
13	0x3e9ea0b2	0.30981976
14	0xbea40658	-0.3203609
15	0x3ebc2c8b	0.36752734
16	0x3dc3f0f8	0.095674455
17	0x3e90eaee	0.28304237
18	0xbd7eadfb	-0.06217764
19	0xbe172db4	-0.14763528
20	0xbe815dc1	-0.2526684
21	0x3ead6ed5	0.3387362
22	0xbdbdf946	-0.09276061
23	0x3ed90a8f	0.42390868
24	0xbe10fdd8	-0.14159334
25	0x3e9e7df2	0.30955464
26	0xbe265e7d	-0.16246982
27	0x3e34abe0	0.1764369
28	0xbeb6e7d2	-0.3572374
29	0x3e6bff49	0.23046602
30	0xbec78eab	-0.38976035
31	0xbe187812	-0.14889553
32	0x3f107127	0.56422657
33	0xbeb9234f	-0.3615975
34	0xbed929d6	-0.4241473
35	0xbeaee45f	-0.34158608
36	0x3ef5b1c5	0.4798719
37	0x3d2faea6	0.042891167
38	0xbe507bbf	-0.20359705
39	0x3ea14b92	0.31502968
40	0xbd7a3242	-0.061083086
41	0xbeb454e4	-0.35221016
42	0xbda61b58	-0.08110684
43	0x3f0b9eab	0.54538983
44	0x3e4d5f13	0.20055799
45	0xbe9eaba2	-0.3099032
46	0xbf218207	-0.6308903
47	0xbdaad54b	-0.08341464
48	0x3ee51daa	0.44749194
49	0xbeb0b34c	-0.34511793
50	0xbed8bc31	-0.4233108
51	0xbe16f141	-0.14740469
52	0xbdfda200	-0.12384415
53	0x3e616654	0.22011691
54	0x3f4cae18	0.79953146
55	0x3b5b8227	0.0033494325
56	0xbea6624f	-0.32496879
57	0xbe0f9d78	-0.14024913
58	0x3e1c7f18	0.15282857
59	0x3e966aea	0.29378444
60	0x3d569582	0.052388676
61	0xbdcff0c0	-0.10153341
62	0x3d304eb2	0.0430438
63	0xbd099945	-0.033593435
64	0x3f40f655	0.7537587
65	0xbd3d20a0	-0.04617369
66	0x3ebf6e8e	0.37389034
67	0xbe3b291f	-0.18277405
68	0x3e209386	0.15681276
69	0xbe9b3b70	-0.30318785
70	0x3e8092aa	0.25111896
71	0x3edca26e	0.43092674
72	0xbecd1ee0	-0.40062618
73	0x3d0835e2	0.03325451
74	0xbeec4a2e	-0.46150345
75	0xbe46415b	-0.19360869
76	0x3e53ecf5	0.2069586
77	0x3e555f2b	0.20837085
78	0x3e2457c2	0.16049102
79	0xbc954b03	-0.018224245
80	0x3cf6fc00	0.03014946
81	0x3f19833f	0.5996589
82	0xbdad5fa1	-0.084655054
83	0xbf03710d	-0.51344377
84	0x3dfa443f	0.12220048
85	0x3de306dd	0.110852934
86	0xbec713f4	-0.3888241
87	0x3eef6540	0.46756935
88	0x3d73ba2b	0.059503715
89	0xbe689513	-0.22713117
90	0xbe300f5d	-0.1719336
91	0x3d6c5bc1	0.05770469
92	0x3efd234c	0.49440992
93	0xbe385f0f	-0.18005012
94	0xbf085329	-0.5325189
95	0xbe324440	-0.17408848
96	0xbe954482	-0.2915383
97	0x3f0b1303	0.54325885
98	0xbd5c35f4	-0.05376239
99	0xbde9b784	-0.11411956
100	0xbccc5d61	-0.02494687
101	0xbdcc547d	-0.09977052
102	0xbd44ab1b	-0.04801474
103	0xbdd3c56f	-0.10340392
104	0xbeb78186	-0.35841006
105	0x3f0fa809	0.56115776
106	0xbe5debec	-0.21672028
107	0x3e9640c5	0.2934629
108	0x3c9afde0	0.018919885
109	0xbd0b1ac2	-0.033961065
110	0x3e045262	0.12922052
111	0xbec21cb2	-0.37912518
112	0x3e2f1e15	0.17101319
113	0xbeecc023	-0.4624034
114	0x3e6c4c5d	0.23076005
115	0x3f5e1370	0.8674841
116	0x3e411c29	0.18858398
117	0xbe2e4571	-0.17018677
118	0x3bc3189d	0.005953862
119	0xbee66f5d	-0.45006838
120	0xbe594830	-0.21218944
121	0x3f10a5db	0.56503075
122	0x3e015849	0.12631334
123	0xbbb10bb6	-0.0054030074
124	0xbed8c0ad	-0.423345
125	0xbd8e7dca	-0.06957586
126	0xbe28d60c	-0.16487902
127	0x3e63c0f7	0.22241579
128	0xbe8ab7b9	-0.27093294
129	0x3ed9a66c	0.42509782
130	0xbef7e739	-0.48418596
131	0x3c72960a	0.01480628
132	0xbf03cf3d	-0.51488096
133	0x3c2a0cc3	0.010379019
134	0x3d04dbb9	0.032436106
135	0x3ef0b6ff	0.47014615
136	0xbe025a35	-0.12729724
137	0x3f108e8e	0.5646752
138	0xbe9ee924	-0.31037247
139	0x3ef92777	0.48662922
140	0x3e26ddfb	0.16295616
141	0x3ecd0f4e	0.4005074
142	0xbee467a6	-0.44610327
143	0x3eabcaa7	0.3355305
144	0x3e199598	0.14998472
145	0xbe174455	-0.1477216
146	0xbecd6029	-0.40112427
147	0x3dc118d9	0.094285674
148	0x3f11c406	0.56939733
149	0xbe8dcf24	-0.27697098
150	0xbf005d7d	-0.5014265
151	0x3d3acc84	0.045605198
152	0xbe453daf	-0.19261812
153	0x3ebbbd55	0.36667886
154	0xbe81c9cf	-0.2534928
155	0xbec26926	-0.37970847
156	0xbe437e89	-0.19091238
157	0xbe43e69f	-0.19130944
158	0x3e2ed4cd	0.17073365
159	0x3e95ec45	0.29281822
160	0xbec6ff2b	-0.38866553
161	0x3ee8eecd	0.4549469
162	0x3dee9a01	0.11650468
163	0x3c582da6	0.013194477
164	0xbe700955	-0.2344106
165	0x3a64c916	0.0008727474
166	0xbe06ae3f	-0.13152407
167	0xbd7147e4	-0.05890645
168	0xbe929e7e	-0.28636545
169	0x3cc0dee2	0.023543779
170	0x3e181a3c	0.14853758
171	0x3ead7f4b	0.3388618
172	0xbea1e751	-0.31621793
173	0x3ed8fae6	0.4237892
174	0xbed77e2e	-0.42088455
175	0xbe827d99	-0.25486448
176	0xbeb6b1d6	-0.35682553
177	0x3eaa0b2c	0.33211648
178	0xbe11c7d7	-0.14236389
179	0x3b33cc7c	0.0027435115
180	0xbe565361	-0.20930244
181	0xbee0708b	-0.43835863
182	0x3eaeabfd	0.34115592
183	0x3e7a613e	0.24451157
184	0x3e0ac699	0.13552321
185	0x3ec1495c	0.3775128
186	0xbed7b637	-0.42131206
187	0xbf3f9e36	-0.74850786
188	0xbd536f3d	-0.051619757
189	0xbeb551d1	-0.35413983
190	0x3e2c913d	0.16852279
191	0x3de76324	0.112982064
192	0xbec665f7	-0.38749668
193	0xbe141d83	-0.14464383
194	0xbe4a0228	-0.19727385
195	0x3e676deb	0.22600524
196	0xbf0098e8	-0.50233316
197	0xbe80b812	-0.25140435
198	0xbdc34c76	-0.09536068
199	0xbd11272d	-0.03543775

Mixer_Block.0.mlp_block_token_mixing.fc1.bias f4 [20]
0	0x3da3e0d0	0.08001864
1	0x3e750618	0.23928106
2	0x3e9f2907	0.3108599
3	0x3f092c69	0.5358339
4	0x3e5c6771	0.21523835
5	0x3f096e36	0.53683794
6	0x3e534a71	0.20633866
7	0x3ec8d652	0.39226013
8	0x3ea821fe	0.32838434
9	0x3e8c257b	0.27372345
10	0x3dc391d0	0.09549296
11	0x3f3956b0	0.723979
12	0x3dc8189a	0.097703174
13	0x3f273c86	0.65326726
14	0x3e6f67e3	0.23379473
15	0xbce1ba3f	-0.02755463
16	0x3eb9c38c	0.36282003
17	0x3ecc0a02	0.39851385
18	0x3f07c599	0.53035885
19	0x3e634231	0.22193219

Mixer_Block.0.mlp_block_token_mixing.fc2.weight f4 [10, 20]
0	0x3ebb9cb3	0.3664299
1	0x3c04f440	0.008114874
2	0xbde99c60	-0.11406779
3	0x3f08dba0	0.5346012
4	0x3e540d28	0.20708144
5	0x3f24bcb7	0.64350456
6	0xbd13f17f	-0.03611898
7	0xbeea2760	-0.45733166
8	0xbdf60fab	-0.12014707
9	0x3e9c5485	0.30533233
10	0xbeda0f75	-0.42589918
11	0xbd14bf0b	-0.036315005
12	0x3e8064a0	0.2507677
13	0xbe296161	-0.16541053
14	0xbe940734	-0.28911746
15	0x3f06211a	0.5239426
16	0x3f12c264	0.57327867
17	0xbf160812	-0.58606064
18	0x3ea7b0e5	0.32752147
19	0xbf15f06e	-0.5856999
20	0xbe07f5ab	-0.13277309
21	0x3e716530	0.23573756
22	0x3d22e186	0.039765857
23	0x3ddfc262	0.109257475
24	0x3ea0a4b4	0.3137566
25	0x3eb8e6f2	0.36113697
26	0x3da2565a	0.079266265
27	0xbe79e895	-0.24405129
28	0xbee3266b	-0.44365248
29	0xbe059ed1	-0.13048865
30	0x3e83ac27	0.2571728
31	0xbcae91dc	-0.021309786
32	0xbe91ef73	-0.28502998
33	0x3ec46652	0.38359314
34	0xbc90c077	-0.0176699
35	0x3ec074c4	0.37589085
36	0xbe641e07	-0.2227708
37	0xbdd85077	-0.105622225
38	0x3ed2554a	0.41080695
39	0xbe8277a0	-0.25481892
40	0xbecf64fd	-0.40506735
41	0xbe843ce8	-0.25827718
42	0xbeb4cd0c	-0.35312688
43	0xbd885e16	-0.066585705
44	0xbbb9008c	-0.005645817
45	0x3e42ef7e	0.19036672
46	0x3f066119	0.5249191
47	0x3db53fe9	0.088500805
48	0xbdf87209	-0.121311255
49	0xbecfc8c7	-0.40582868
50	0xbc73ff96	-0.014892479
51	0x3e48cea1	0.19610073
52	0xbec4adb5	-0.38413778
53	0x3e983f27	0.2973568
54	0x3e2b9be5	0.16758688
55	0xbe95e89e	-0.29279035
56	0xbebdeb25	-0.37093464
57	0xbe3ef284	-0.186472
58	0xbe8e212b	-0.2775968
59	0xbde61a96	-0.112355396
60	0xbd15a9be	-0.036538832
61	0x3eb56ece	0.354361
62	0xbd567c07	-0.052364375
63	0x3cf0dc9e	0.029402073
64	0xbec3fd85	-0.38279358
65	0xbdc3557a	-0.09537788
66	0xbe5a05ee	-0.21291324
67	0xbd32b161	-0.043626193
68	0x3e83c6e3	0.25737676
69	0x3e330908	0.17483914
70	0x3f2e2e6f	0.680396
71	0x3ecc3aa1	0.3988848
72	0x3e43a1d1	0.19104697
73	0x3ee11aea	0.43965846
74	0xbe2b4016	-0.16723666
75	0xbebeb140	-0.37244606
76	0x3e21c53d	0.15797897
77	0xbea88453	-0.32913455
78	0xbe60decd	-0.21959992
79	0x3e337bd1	0.17527701
80	0xbef3fe4b	-0.47654948
81	0x3d5f11eb	0.054460447
82	0xbed67eb6	-0.41893548
83	0x3f02fd78	0.5116801
84	0xbe05cca2	-0.13066342
85	0xbed37246	-0.4129812
86	0xbdc30bc1	-0.09523726
87	0x3c6e8303	0.014557603
88	0xbe2600a0	-0.16211176
89	0x3ea2d43c	0.31802547
90	0xbc9cc2f2	-0.019135926
91	0x3dd495a4	0.10380104
92	0x3d5b53a4	0.053546563
93	0xbe86f1e8	-0.26356435
94	0xbe9f4fa4	-0.31115448
95	0xbd8c981c	-0.0686495
96	0xbe3da91f	-0.18521546
97	0xbe9cd960	-0.30634594
98	0xbdd6a7aa	-0.10481198
99	0xbef29d3d	-0.47385588
100	0xbd789080	-0.06068468
101	0x3e7334f5	0.2375067
102	0x3ed40891	0.41412786
103	0xbdb0f24a	-0.08639963
104	0x3e4c3b63	0.19944529
105	0xbc6c7c26	-0.014433896
106	0xbea4e298	-0.32204127
107	0x3e1ba6c2	0.15200332
108	0xbc8dbd5b	-0.017302206
109	0x3e9cfe15	0.306626
110	0xbcd18682	-0.025576834
111	0xbedeae9e	-0.43492597
112	0x3e5f06fb	0.21780007
113	0x3e02766d	0.12740488
114	0x3eab9b3c	0.33516872
115	0x3e3c0da3	0.18364577
116	0x3db26c55	0.08712069
117	0x3f1ed0af	0.62037176
118	0xbef3b7db	-0.47601208
119	0xbe4f2ed0	-0.20232701
120	0xbe8175b0	-0.252851
121	0xbe883b73	-0.26607856
122	0xbebad503	-0.3649064
123	0xbea4281a	-0.32061845
124	0x3ebc30be	0.36755937
125	0x3ee315f6	0.44352692
126	0x3eb40ce8	0.35166097
127	0xbe9be85c	-0.30450714
128	0x3d8675cb	0.06565436
129	0xbda6a268	-0.08136445
130	0xbe8311de	-0.2559957
131	0x3bffadb2	0.0078026885
132	0xbe965cf7	-0.29367802
133	0x3cc73a46	0.02431978
134	0x3e896f45	0.26842704
135	0xbbdb1bb6	-0.006686653
136	0xbdcd69db	-0.10029956
137	0xbe5beebb	-0.21477787
138	0x3e1f4b02	0.15555957
139	0x3de70028	0.11279327
140	0xbed7f39e	-0.42178053
141	0xbe7b2ec7	-0.24529563
142	0xbeb1f238	-0.3475511
143	0xbdb45e13	-0.08807006
144	0x3d912854	0.0708777
145	0x3e570d72	0.21001223
146	0x3dfd5597	0.123698406
147	0xbedf0614	-0.43559325
148	0xbf059281	-0.5217667
149	0xbee0f52c	-0.4393705
150	0xbdd9e3ec	-0.10639176
151	0x3ed0c170	0.4077258
152	0xbf0b9e7c	-0.545387
153	0xbe9fa0b9	-0.3117731
154	0xbdbb9e1a	-0.09161015
155	0xbda76fb8	-0.081756055
156	0xbe9dc286	-0.30812472
157	0xbeda415f	-0.42628
158	0x3f1dcaea	0.6163775
159	0x3eccfe6e	0.40037864
160	0xbe3dd5d3	-0.18538599
161	0xbe70a9f6	-0.23502335
162	0xbb6928a9	-0.0035577214
163	0x3e666e31	0.22502972
164	0xbeb75065	-0.35803524
165	0x3dc2c315	0.09509865
166	0x3e4fc470	0.20289779
167	0xbe9ddd10	-0.3083272
168	0x3cc56093	0.024093902
169	0x3d490075	0.0490727
170	0x3d253971	0.040337984
171	0x3df1d185	0.11807541
172	0x3d32e69b	0.043676954
173	0x3e22a075	0.15881522
174	0xbf0b3ea7	-0.54392475
175	0xbe9fcc98	-0.3121078
176	0x3d41608a	0.047211207
177	0xbe861376	-0.26186723
178	0x3de64c1b	0.11244985
179	0xbe9c2bdc	-0.30502212
180	0xbb4934d3	-0.0030701652
181	0x3cc3fcc7	0.023924245
182	0xbf0ea848	-0.55725527
183	0xbea57f8a	-0.32323867
184	0x3efe8504	0.49710858
185	0xbe39daa9	-0.18149818
186	0x3edf5008	0.43615746
187	0xbc91febe	-0.017821666
188	0x3dd2e111	0.10296834
189	0x3e7e1528	0.24812758
190	0x3e7e72b3	0.24848442
191	0x3f1ba809	0.60803276
192	0xbf1fa85e	-0.6236628
193	0xbee6b4a9	-0.45059708
194	0x3e15d942	0.14633659
195	0xbf285ad3	-0.65763587
196	0xbeaf4746	-0.34234065
197	0xbe828b8d	-0.25497094
198	0x3e4c925b	0.19977705
199	0xbde90677	-0.11378186

Mixer_Block.0.mlp_block_token_mixing.fc2.bias f4 [10]
0	0x3e4481c2	0.19190124
1	0xbe11751d	-0.14204831
2	0x3dfa0374	0.1220769
3	0xbe8b8b23	-0.2725459
4	0x3e48cda6	0.19609699
5	0xbda4c6fd	-0.080457665
6	0x3e258d76	0.16167244
7	0x3e8c1cc7	0.27365705
8	0xbdd7d89c	-0.10539362
9	0xbdd91e00	-0.10601425

Mixer_Block.0.mlp_block_token_mixing_DynaMixerOperation.fc_ND.weight f4 [1, 66]
0	0xbd12fa8c	-0.03588347
1	0x3bea2ad3	0.0071462183
2	0x3c81db27	0.01585157
3	0xbcb7e774	-0.022449233
4	0x3d8e1eaa	0.069394425
5	0x3c5ed948	0.013601609
6	0xbda6e283	-0.081486724
7	0x3c724474	0.014786828
8	0x3dbbc326	0.09168081
9	0xbb1d3478	-0.0023987573
10	0x3c20ab9e	0.009806542
11	0xbd5ccb1d	-0.05390464
12	0x3d29fc41	0.041500334
13	0xbd2a1c4c	-0.041530892
14	0xbd008b74	-0.031382993
15	0xbd523b48	-0.051326066
16	0x3bbc3b94	0.005744407
17	0x3cb8a538	0.02253972
18	0xbc3c9640	-0.011510432
19	0xbceff5c4	-0.029291995
20	0xbd462d3f	-0.048382994
21	0xbcf5ba3d	-0.029996032
22	0xba39df6f	-0.0007090484
23	0x3d3d1be3	0.046169173
24	0xbd8c5789	-0.068526335
25	0xbd1ddf32	-0.038542934
26	0x3ca2fecd	0.01989689
27	0xbd0cb9cd	-0.03435688
28	0x3c3f362b	0.0116706295
29	0xbcd84dd2	-0.026404295
30	0xbdbfd5b0	-0.093669295
31	0xbd5404ef	-0.051762518
32	0x3d79a823	0.060951363
33	0x3c69a59a	0.014260674
34	0xbd147653	-0.036245655
35	0x3da4acbd	0.0804076
36	0xbd246da1	-0.040143613
37	0x3b7d45ca	0.0038646334
38	0xbd34b234	-0.04411526
39	0x3d8b0d09	0.06789596
40	0xbc72961a	-0.014806295
41	0xbc22320d	-0.009899628
42	0xbd66a5c8	-0.056310445
43	0x3b2b9328	0.0026180241
44	0xbb30d112	-0.0026980084
45	0xbd0ebf52	-0.034850426
46	0x3a388db7	0.000704016
47	0x3c7e354e	0.0155156385
48	0xbd425ed4	-0.047453716
49	0xbc227f3c	-0.00991803
50	0xbb88148f	-0.0041528414
51	0x3c635bea	0.0138768945
52	0xbcaba463	-0.02095241
53	0x3db1c8c5	0.08680872
54	0xbd32c742	-0.04364706
55	0xbcbf7b68	-0.023374274
56	0xbcbae720	-0.022815287
57	0x3cb25fcd	0.021774197
58	0x3d6635df	0.05620372
59	0xbd49b370	-0.04924339
60	0xb990b6c3	-0.00027601988
61	0xbd4aaa7b	-0.04947899
62	0xbc63b816	-0.01389887
63	0xbc57659c	-0.013146784
64	0x3d46fb5f	0.04857957
65	0x3d86b693	0.06577792

Mixer_Block.0.mlp_block_token_mixing_DynaMixerOperation.fc_Nd.weight f4 [100, 10]
0	0x3c813e6b	0.015776834
1	0xbf0fd102	-0.56178296
2	0xbdd7356e	-0.10508238
3	0xbe17b7cf	-0.14816211
4	0x3c4232bb	0.011852915
5	0xbe746281	-0.23865701
6	0x3d102770	0.03519386
7	0xbe49992a	-0.19687334
8	0x3dd4d29e	0.103917345
9	0xbe462009	-0.19348158
10	0x3eeb3a32	0.45942837
11	0x3ea7e181	0.32789233
12	0xbd51b6ef	-0.05119985
13	0xbe48546a	-0.19563451
14	0xbe803480	-0.25040054
15	0x3e01812b	0.1264693
16	0xbdd0bd24	-0.10192326
17	0x3d3339bc	0.04375623
18	0x3d068219	0.032838915
19	0x3dd71191	0.105013974
20	0x3d5edd73	0.05441041
21	0x3e06e0c5	0.1317168
22	0x3e8ebfe2	0.2788077
23	0x3eafa283	0.34303674
24	0xbd5c4141	-0.05377317
25	0x3ed5e8a7	0.41779062
26	0x3dc00d57	0.093775444
27	0x3e820162	0.2539168
28	0x3ec34c9a	0.3814438
29	0x3ef95c6b	0.48703322
30	0xbe90b389	-0.28261974
31	0x3f0288ad	0.509898
32	0xbc36b13a	-0.011150653
33	0xbc9c1dce	-0.01905718
34	0x3b93af32	0.004506969
35	0x3de5f969	0.11229212
36	0xbe36f2d0	-0.17866063
37	0xbe440a06	-0.19144449
38	0xbdb2237d	-0.08698175
39	0xbdeaf818	-0.114731014
40	0x3e575d8a	0.21031776
41	0x3e675995	0.22592767
42	0x3e362d78	0.17790782
43	0xbd89be57	-0.067257576
44	0x3e8590d8	0.2608707
45	0x3db78805	0.089614905
46	0x3e7c8d02	0.24663165
47	0xbd8538b2	-0.065049544
48	0xbe36f60b	-0.17867295
49	0xbdf3751c	-0.11887571
50	0xbe9d67dc	-0.307433
51	0x3e690929	0.227574
52	0x3d020b18	0.03174886
53	0x3b82d396	0.003992508
54	0xbe0d49ef	-0.13797735
55	0xbe73e732	-0.23818663
56	0x3c36d751	0.011159734
57	0x3e1ae2b1	0.15125538
58	0x3e849a51	0.25898984
59	0xbe2bde99	-0.16784133
60	0xbd395f81	-0.045257095
61	0x3d90b5de	0.070659384
62	0x3d9a5977	0.07536595
63	0xbdf61d81	-0.12017346
64	0x3e8aa209	0.27076748
65	0xbd820c00	-0.06349945
66	0xbd59d2ad	-0.05317943
67	0x3e102912	0.14078167
68	0xbda66926	-0.08125524
69	0x3e782126	0.24231395
70	0xbebb7e15	-0.3661963
71	0xbdc8a564	-0.09797171
72	0xbe221fdc	-0.15832466
73	0x3e093756	0.13400015
74	0xbcea57e4	-0.028606363
75	0x3e060302	0.13087085
76	0xbd153c7e	-0.036434643
77	0xbe9e1e57	-0.30882522
78	0x3e7245e9	0.23659481
79	0xbb0fc04d	-0.0021934689
80	0xbe94bc5c	-0.29049957
81	0xbd0011fb	-0.031267148
82	0x3e531a2d	0.20615454
83	0x3d7363f3	0.05942149
84	0xbe0c39bd	-0.136939
85	0x3da94a85	0.082661666
86	0xbe70e5b0	-0.23525119
87	0x3d95299a	0.072833255
88	0x3e452763	0.19253306
89	0x3e770a14	0.24124938
90	0xbd30fcc9	-0.043209825
91	0x3e12852e	0.14308617
92	0xbdf129e4	-0.11775568
93	0xbe5d556d	-0.21614619
94	0xbe0d1619	-0.13777961
95	0xbd6130b5	-0.05497809
96	0x3d8dabc3	0.069175266
97	0x3e277cce	0.16356203
98	0x3db43171	0.08798493
99	0x3e273b6a	0.16331258
100	0x3accb754	0.0015618601
101	0xbea4df6c	-0.32201707
102	0xbd77d80b	-0.06050877
103	0xbce3c910	-0.027805835
104	0xbe332b55	-0.17496999
105	0xbe1183d6	-0.14210448
106	0xbebaf8c5	-0.3651792
107	0xbdb7e843	-0.08979847
108	0xbec129da	-0.37727243
109	0xbd72a8a4	-0.05924286
110	0x3c0ad748	0.008474179
111	0xbdf48360	-0.1193912
112	0x3cc36553	0.023852026
113	0xbe37022f	-0.17871927
114	0xbce6cdf4	-0.028174378
115	0xbe9bfb1d	-0.30465022
116	0xbd00431e	-0.031314008
117	0xbe3810f8	-0.17975223
118	0x3dc3f600	0.09568405
119	0xbe989eca	-0.29808646
120	0xbda48e75	-0.08034984
121	0xbe27ba88	-0.1637975
122	0xbc90e6fd	-0.017688269
123	0x3dc3af8a	0.09554966
124	0xbeb3f918	-0.3515098
125	0x3dc4ad4f	0.096033685
126	0xbe8184c5	-0.25296608
127	0x3e809fba	0.25121862
128	0xbe8d2824	-0.27569687
129	0xbe6dd4a2	-0.23225644
130	0x3ebee003	0.37280282
131	0x3deb549b	0.114907466
132	0xbdf88dd1	-0.12136424
133	0x3c86dac1	0.016461732
134	0x3e9dff57	0.3085887
135	0xbdd20131	-0.102541335
136	0x3e708119	0.23486747
137	0x3d509000	0.05091858
138	0x3e8ad1b4	0.27113116
139	0x3c40e37d	0.011772987
140	0x3e10fe47	0.14159499
141	0x3e78e5cd	0.24306412
142	0xbdf0d3ad	-0.11759124
143	0x3dfe65d5	0.12421767
144	0x3d1fbc52	0.038997956
145	0x3d0f4717	0.034979906
146	0xbe193903	-0.14963154
147	0x3e2ab388	0.16670048
148	0xbe96285c	-0.29327667
149	0xbdc57644	-0.09641698
150	0x3e60da49	0.21958269
151	0xbdcd1dcb	-0.10015448
152	0x3e4e32d2	0.20136574
153	0x3e4866c8	0.19570458
154	0xbcd168e4	-0.025562711
155	0xbc0e4e06	-0.008685594
156	0x3e091c53	0.13389711
157	0x3b87dd46	0.004146251
158	0x3e57c651	0.21071745
159	0xbeaf08f5	-0.3418652
160	0x3b1a8740	0.002357915
161	0x3e9e296f	0.30890986
162	0xbe6fec4a	-0.23429981
163	0x3dd3e912	0.10347189
164	0xbe83a968	-0.25715184
165	0x3e2221b6	0.15833172
166	0x3db3cc67	0.08779221
167	0x3e1d3ec7	0.15355979
168	0x3dba79d3	0.091052674
169	0x3e8317af	0.25604007
170	0xbde434ea	-0.11142905
171	0xbd8ad088	-0.067780554
172	0xbe56be1a	-0.20970955
173	0x3e478065	0.19482572
174	0xbe195268	-0.14972842
175	0xbe1f80c6	-0.15576467
176	0x3ec642ac	0.38722742
177	0xbe879d12	-0.26487023
178	0x3e6917e7	0.22763024
179	0xbc4e6fec	-0.012599926
180	0x3d378eda	0.04481397
181	0xbc9375eb	-0.018000564
182	0x3d199fd7	0.03750595
183	0x3e26178f	0.16219924
184	0x3e0e3827	0.13888608
185	0xbd648722	-0.055792935
186	0xbd8743fe	-0.06604765
187	0x3a92ad88	0.0011190632
188	0x3e70bb61	0.2350898
189	0xbe2289b6	-0.15872845
190	0xbe458bde	-0.19291636
191	0x3d0f3377	0.03496119
192	0x3e7f0c06	0.2490693
193	0x3e1ad41a	0.15119973
194	0x3d13eabf	0.036112543
195	0x3e01b05f	0.12664936
196	0x3e74635a	0.23866025
197	0xbc7b1fd3	-0.015327412
198	0x3dbc7671	0.092022784
199	0xbde52717	-0.111890964
200	0x3e8f43fd	0.27981558
201	0x3ec65d48	0.38743043
202	0x3e8ef813	0.2792364
203	0x3e3b6fdc	0.1830439
204	0x3e435741	0.19076253
205	0x3ed31f94	0.4123503
206	0x3e8e79cb	0.27827296
207	0x3d07877b	0.03308819
208	0x3db10b92	0.08644785
209	0x3df6fdaf	0.12060105
210	0xbeaa587d	-0.33270636
211	0x3e38b30c	0.18037051
212	0xbd519ba1	-0.05117381
213	0xbdae54ad	-0.085122444
214	0xbe604b98	-0.21903837
215	0xbe5fa422	-0.21839955
216	0xbda2066b	-0.079113804
217	0xbea6474c	-0.3247627
218	0x3e31ed63	0.17375712
219	0x3e51cae4	0.20487553
220	0x3e736a8f	0.23771118
221	0xbe88ba37	-0.2670457
222	0xbe4f46f1	-0.20241906
223	0xbdf68c56	-0.12038486
224	0xbe999578	-0.29996848
225	0xbe3ff177	-0.18744455
226	0xbd42fd17	-0.047604647
227	0x3ce849e9	0.028355556
228	0xbe124d74	-0.14287359
229	0xbe20083d	-0.15628143
230	0x3d8b68f6	0.06807129
231	0x3c9fc61c	0.019503646
232	0xbeadf63c	-0.33976924
233	0x3def305e	0.11679147
234	0xbd5c39cf	-0.053766068
235	0x3e08660c	0.13320178
236	0x3d96e525	0.073679246
237	0xbdcba54d	-0.09943638
238	0x3d023dfa	0.031797387
239	0xbd5a3674	-0.053274587
240	0x3dda9383	0.10672667
241	0xbd1fff12	-0.039061613
242	0xbd94463e	-0.0723996
243	0x3e21808d	0.15771694
244	0x3ebd51cd	0.36976472
245	0xbd9747d5	-0.07386748
246	0x3df4ef1f	0.11959671
247	0xbe748e23	-0.23882346
248	0x3e1705e9	0.14748348
249	0xbdd776cf	-0.10520708
250	0xbe22db7c	-0.15904039
251	0x3e36b61c	0.17842907
252	0xbd7e39be	-0.062066786
253	0x3e3c4801	0.18386842
254	0x3e650166	0.22363815
255	0x3dcb3c7b	0.09923645

Mixer_Block.0.mlp_block_token_mixing_DynaMixerOperation.fc_Nd.bias f4 [100]
0	0x3eaa9305	0.33315292
1	0x3d5ecfef	0.05439752
2	0x3b2de26e	0.0026532668
3	0xbd7266ef	-0.059180196
4	0xbe81b1a9	-0.25330856
5	0x3e2621cd	0.16223831
6	0xbddbc93f	-0.10731744
7	0xbe0143b4	-0.12623483
8	0xbdf612ed	-0.120153286
9	0xbe7818cc	-0.2422821
10	0x3e9da531	0.30790094
11	0xbdab86e2	-0.08375336
12	0xbe672603	-0.22573094
13	0x3d01d44a	0.031696595
14	0xbe8a5a22	-0.2702189
15	0xbe5031a6	-0.2033144
16	0xbe8338a6	-0.25629157
17	0xbe9bd0d5	-0.30432764
18	0xbeaabddc	-0.33347976
19	0x3d13b0c7	0.03605726
20	0xbeaf87c6	-0.34283274
21	0x3e38fb6a	0.18064657
22	0x3e325f6d	0.17419215
23	0xbd99ac10	-0.075035214
24	0x3e76c256	0.24097571
25	0x3e6092d2	0.21931008
26	0xbe2102d6	-0.15723738
27	0xbe7a2fbc	-0.24432272
28	0xbe8ef53f	-0.27921483
29	0x3e12f348	0.14350617
30	0x3ea46353	0.32107028
31	0xbee2505a	-0.44201928
32	0x3e6e748c	0.23286647
33	0xbdf05c96	-0.11736409
34	0x3cc0f7f1	0.023555728
35	0x3e2fc72b	0.1716582
36	0xbdda7c16	-0.10668199
37	0x3c8a3357	0.016870184
38	0xbd986553	-0.07441201
39	0xbe9917c9	-0.2990096
40	0x3ef7c1d5	0.4839007
41	0x3e4b439a	0.19850007
42	0xbec08241	-0.37599376
43	0x3e8f78cd	0.2802185
44	0xbcedf24b	-0.029046198
45	0xbd20e032	-0.03927631
46	0xbcf767ab	-0.0302008
47	0x3db7fcaf	0.089837424
48	0xbdb4c44e	-0.08826505
49	0xbe152e6d	-0.14568491
50	0x3e3fd5d0	0.18733907
51	0xbcefffb4	-0.029296733
52	0xbc86770b	-0.016414186
53	0xbee11277	-0.439594
54	0x3e8f7367	0.28017733
55	0x3cda173c	0.026622407
56	0xbe6bd8fd	-0.23031993
57	0xbe435869	-0.19076695
58	0x3e6b20ad	0.22961684
59	0x3e2b67dc	0.16738838
60	0xbdb8da77	-0.09026044
61	0xbe4b4fb4	-0.19854623
62	0xbe2e1ea2	-0.17003873
63	0xbe1bc515	-0.152119
64	0xbec34e5a	-0.38145715
65	0x3d04422a	0.03228966
66	0x3e4c1985	0.1993161
67	0xbe63dc8e	-0.22252104
68	0x3d2a7182	0.041612156
69	0x3dfddb01	0.12395287
70	0xbf0aa1bf	-0.54153055
71	0x3eb59427	0.35464594
72	0xbe74bc2e	-0.2389991
73	0x3ec345a7	0.38139078
74	0x3e28296d	0.16422053
75	0xbd4e1a7e	-0.050318234
76	0x3e2921b2	0.1651676
77	0x3dba2fce	0.09091149
78	0x3eb378a7	0.35052988
79	0x3dd3b404	0.1033707
80	0x3eb6ace7	0.3567879
81	0xbe9af7b6	-0.30267113
82	0x3e4c7ee9	0.19970287
83	0xbdd7e26a	-0.10541232
84	0xbd774bc2	-0.060374983
85	0xbec7ece4	-0.3904792
86	0xbe802b7a	-0.2503317
87	0xbcba6e84	-0.022757776
88	0x3e0f1cd5	0.13975842
89	0x3d2086d4	0.039191082
90	0xbf01f35e	-0.50761974
91	0xbd0d4890	-0.03449303
92	0xbe05ccb5	-0.13066371
93	0xbe1edd61	-0.15514137
94	0xbe0a68e1	-0.1351657
95	0xbe32c1e9	-0.17456783
96	0xbd23bf79	-0.039977524
97	0xbbc64ef4	-0.0060518924
98	0xbe17ee82	-0.14837077
99	0xbe965a61	-0.2936583

Mixer_Block.0.mlp_block_token_mixing_DynaMixerOperation.fc_out.weight f4 [66, 66]
0	0xbe17eb72	-0.14835909
1	0x3cb3c499	0.021944331
2	0xbdf3c481	-0.119027145
3	0xbd9072a3	-0.07053115
4	0x3e06fc34	0.13182145
5	0xbd7340b9	-0.059387896
6	0xbd75fcc6	-0.060055517
7	0x3e44be94	0.19213325
8	0xbdad07f9	-0.08448786
9	0xbdba0a31	-0.09083975
10	0x3c41c078	0.011825673
11	0xbc257e56	-0.010100922
12	0xbdf89501	-0.12137795
13	0xbc4612dc	-0.012089457
14	0x3d9aad70	0.07552612
15	0x3b0dd503	0.0021641857
16	0xbd231b08	-0.0398207
17	0x3dbb0cee	0.091333255
18	0xbcfec64a	-0.031100411
19	0xbce84002	-0.028350834
20	0x3e216f62	0.15765145
21	0x3e0b3c6f	0.13597272
22	0xbd6da656	-0.05801996
23	0x3e0008c4	0.12503344
24	0xbb18b13d	-0.0023299002
25	0x3dcfd946	0.101488635
26	0xbe1dc13e	-0.15405747
27	0x3e76c481	0.24098398
28	0xbda96be4	-0.08272532
29	0xbe2df489	-0.16987814
30	0xbd87fc8e	-0.06639968
31	0x3dfb896e	0.12282072
32	0xbdfc9e75	-0.12334911
33	0x3d49a704	0.049231544
34	0xbd83c329	-0.06433708
35	0x3e843c80	0.25827408
36	0x3d344761	0.044013385
37	0x3e528ebd	0.20562263
38	0x3e30b27d	0.17255588
39	0xbe10c2e8	-0.14136851
40	0xbd35e368	-0.044406325
41	0x3dd44c5f	0.10366129
42	0xbd7140ef	-0.058899816
43	0x3e4449f4	0.19168836
44	0xbc992cd3	-0.018698132
45	0x3d63672f	0.055518325
46	0xbe24d12b	-0.16095416
47	0xbc95d298	-0.018288895
48	0xbe035931	-0.12826993
49	0x3d707afe	0.058711044
50	0xbe24de71	-0.1610048
51	0xbe3d105e	-0.18463275
52	0x3d3a4fb7	0.04548618
53	0xbd3a6ebf	-0.045515772
54	0x3d2a7d81	0.041623596
55	0xbdb51498	-0.088418186
56	0xbd60cde2	-0.054883845
57	0x3dfcf913	0.12352195
58	0x3c69b258	0.014263712
59	0x3cba8e18	0.022772834
60	0xbde691a0	-0.112582445
61	0xbd5cdcbb	-0.053921442
62	0xbdb650ef	-0.089021556
63	0x3e4522c1	0.19251539
64	0x3a82241a	0.0009928972
65	0xbd62a26d	-0.055330683
66	0xbd796358	-0.060885757
67	0xbe2c0a73	-0.16800861
68	0xbc2cc551	-0.010545091
69	0x3d79c733	0.060980987
70	0xbb892e90	-0.004186459
71	0xbcf75214	-0.030190505
72	0xbdc52ea1	-0.096280344
73	0xbc3542f2	-0.011063324
74	0x3e089c2d	0.13340826
75	0x3d4048a1	0.046944264
76	0x3d92109d	0.07132075
77	0xbd548b6b	-0.05189077
78	0x3d8575d3	0.06516614
79	0x3c2a8e93	0.010409969
80	0xbd903a33	-0.070423506
81	0xbe4cceba	-0.20000735
82	0xbd8af8cd	-0.06785736
83	0xbe83b4e8	-0.25723958
84	0x3c9c7c11	0.019102128
85	0x3d2f6c7c	0.042828068
86	0x3da13ad9	0.078725524
87	0x3dd0d5b7	0.10197013
88	0x3d84e092	0.06488146
89	0xbc493704	-0.012281183
90	0xbe363a42	-0.17795661
91	0x3d58419f	0.052796956
92	0x3dbbc013	0.091674946
93	0x3d1d1691	0.0383516
94	0x3c8b0bcd	0.0169734
95	0xbba229d3	-0.0049488335
96	0x3de4e776	0.1117696
97	0xbdba3147	-0.0909143
98	0x3e26e185	0.16296966
99	0x3da708d6	0.08155982
100	0xbda92b1a	-0.08260174
101	0xbe4eea4a	-0.20206562
102	0xbd3dc99e	-0.046334855
103	0xb9ad1f6c	-0.00033020542
104	0xbd131503	-0.03590871
105	0x3d4e4862	0.050362
106	0x3d186c3e	0.037212603
107	0x3d0ae5f9	0.033910725
108	0xbdb64c47	-0.089012675
109	0xbca277f8	-0.019832596
110	0xbd2670f1	-0.040635053
111	0xbe05bff0	-0.130615
112	0xbe3aac4d	-0.1822979
113	0xbe03c4f2	-0.12868097
114	0xbcfbf409	-0.030756013
115	0x3dbfdf51	0.09368766
116	0x3d70ffbb	0.058837634
117	0x3dd27c22	0.10277583
118	0xbcb5e4e3	-0.022203868
119	0xbc1d44ff	-0.0095989695
120	0x3e13e472	0.14442614
121	0x3d13790a	0.036004104
122	0x3e5c91a7	0.21539937
123	0x3d039ac1	0.032130007
124	0xbdcce66f	-0.10004889
125	0xbdd6bc7a	-0.10485168
126	0x3e6a807f	0.2290058
127	0xbd8f32ed	-0.06992135
128	0x3bb528cb	0.0055285445
129	0xbd226229	-0.039644394
130	0xbdb34796	-0.08753888
131	0xbdbb8026	-0.09155302
132	0xbe038348	-0.12843049
133	0x3e2747b1	0.16335942
134	0x3c8aa7d1	0.016925724
135	0xbe654761	-0.2239051
136	0xbe4ec031	-0.20190503
137	0x3e19f5d0	0.15035176
138	0xbdca36c1	-0.09873725
139	0xbb4895df	-0.0030606908
140	0xbe0bd3c2	-0.13654998
141	0xbe27af6e	-0.16375515
142	0xbe2d5803	-0.16928105
143	0x3d391fb8	0.045196265
144	0xbe48b448	-0.19600022
145	0xbd3da6f0	-0.046301782
146	0xbd19c513	-0.03754146
147	0x3d88cd3c	0.0667977
148	0xbdb0c9f3	-0.08632269
149	0x3d30157e	0.042989247
150	0x3dd6ca5e	0.10487817
151	0x3de14581	0.10999585
152	0xbe0202d6	-0.12696394
153	0x3de8d9de	0.1136968
154	0x3e3b606c	0.18298501
155	0xbb18cf1b	-0.0023316804
156	0x3cc99d96	0.024611276
157	0x3c956fea	0.018241841
158	0xbe5871cb	-0.21137159
159	0xbd5b4835	-0.05353566
160	0xbdfa7e43	-0.12231114
161	0xbe00425d	-0.12525316
162	0x3e0f8bcb	0.1401817
163	0xbc82b492	-0.015955243
164	0xbb8bbd16	-0.004264484
165	0x3dda7f07	0.1066876
166	0xbc11c8ed	-0.008898002
167	0x3e5cceda	0.21563283
168	0x3d35409f	0.04425108
169	0xbd0af070	-0.033920705
170	0x3e2a203b	0.16613857
171	0xbd2be622	-0.04196752
172	0x3e051435	0.1299599
173	0x3e338d7a	0.17534438
174	0xbe4da310	-0.20081735
175	0xbdc6c3a7	-0.097052865
176	0xbdbba76f	-0.09162795
177	0xbe3cfbce	-0.18455431
178	0x3d5bc10b	0.053650897
179	0x3cae84c9	0.021303551
180	0x3d85486f	0.06507956
181	0x3dbf33d4	0.09336057
182	0xbd437a4d	-0.047724057
183	0x3deb73df	0.1149671
184	0x3e233335	0.15937503
185	0xbdff5360	-0.124670744
186	0x3d292c77	0.04130217
187	0xb9c26408	-0.00037077093
188	0x3e3524da	0.17689839
189	0x3d0ba41c	0.034092054
190	0xbdd998e6	-0.10624866
191	0xbcb8b771	-0.02254841
192	0x3d839b72	0.06426133
193	0x3e6d0700	0.23147202
194	0x3d1d26ba	0.03836701
195	0x3e632f80	0.22186089
196	0x3c630562	0.013856264
197	0xbda1ded5	-0.0790383
198	0x3e02cc65	0.12773283
199	0xbda98bdd	-0.0827863
200	0xbe41b809	-0.1891786
201	0xbe2d3877	-0.16916071
202	0x3d1a39db	0.03765283
203	0xbd41bd78	-0.047299832
204	0x3dbf608f	0.09344589
205	0x3d8eacd5	0.06966559
206	0xbd927c15	-0.07152573
207	0x3ded3b82	0.11583616
208	0xbd1d75b3	-0.038442325
209	0x3b0bf869	0.002135778
210	0xbe24e35d	-0.16102357
211	0xbd121ca2	-0.035671838
212	0xbd307842	-0.043083437
213	0xbe12ef5e	-0.14349124
214	0x3d1d0e46	0.03834369
215	0xbd6e503d	-0.05818199
216	0xbd59be85	-0.05316021
217	0xbc75e4b7	-0.015008143
218	0xbd160699	-0.036627386
219	0xbd0fc6e4	-0.035101786
220	0x3e1e3d65	0.15453108
221	0xbd42a5f1	-0.047521535
222	0x3db160c9	0.086610384
223	0x3da678c0	0.081285
224	0xbe11688b	-0.14200036
225	0xbd8ca449	-0.068672724
226	0x3de79bd5	0.113090195
227	0xbcdd62fc	-0.027024738
228	0xbc85183c	-0.016246907
229	0x3caf583f	0.021404384
230	0x3d834c9a	0.06411095
231	0x3e0fcc59	0.14042796
232	0x3d67c7a3	0.056586873
233	0xbd12417b	-0.03570698
234	0x3d49d6dc	0.04927717
235	0x3d2adfe3	0.04171742
236	0x3d473db1	0.048642818
237	0x3e0ad23a	0.13556758
238	0xbd89da94	-0.067311436
239	0xbe1fd89c	-0.15609974
240	0xbd89bcb1	-0.06725443
241	0x3dd73190	0.105075
242	0x3d477858	0.048698753
243	0xbdb63d7a	-0.088984445
244	0xbc07cadb	-0.008288111
245	0xbe19412d	-0.14966269
246	0xbd98775f	-0.07444643
247	0x3e32c397	0.17457424
248	0x3e7308ab	0.23733775
249	0xbd934d8f	-0.071925275
250	0xbd825afb	-0.063650094
251	0x3d15a43c	0.03653358
252	0xbc2790e5	-0.010227417
253	0x3df0d1d1	0.11758769
254	0xbd85c3f2	-0.06531514
255	0x3e8c4adf	0.27400872

Mixer_Block.0.mlp_block_token_mixing_DynaMixerOperation.fc_out.bias f4 [66]
0	0x3df4488e	0.11927901
1	0xbdee388e	-0.11631881
2	0x3d8cd965	0.06877402
3	0xbd69645c	-0.056980476
4	0xbcd76037	-0.026290996
5	0x3d90c367	0.0706852
6	0x3cfccd19	0.030859517
7	0xbdceefc4	-0.101043254
8	0x3cd0a000	0.025466919
9	0x3d6d9d28	0.058011204
10	0x3df8864e	0.121349916
11	0x3d58423e	0.05279755
12	0x3dfa3321	0.12216783
13	0x3de38e3b	0.11111113
14	0x3e634996	0.2219604
15	0xbe411903	-0.18857197
16	0xbdf807ac	-0.12110838
17	0xbd9bc2a5	-0.07605485
18	0x3d83814c	0.06421146
19	0xbdd7d40c	-0.105384916
20	0x3d4477b1	0.04796571
21	0xbd7daca9	-0.06193224
22	0x3e1b9fdc	0.151977
23	0xbd706362	-0.05868853
24	0x3e0066b1	0.12539174
25	0x3dc1ab4f	0.09456503
26	0x3da884ef	0.0822848
27	0x3df185d0	0.11793101
28	0xbd862209	-0.065494604
29	0x3e155e51	0.1458676
30	0x3e3d20cd	0.18469544
31	0xbe313f40	-0.17309284
32	0xbcc1b2a7	-0.023644758
33	0x3e09e494	0.13466102
34	0x3dbb349f	0.09140896
35	0xbdf72a9c	-0.12068674
36	0x3cfa0532	0.030520055
37	0x3e064019	0.13110389
38	0x3e494a0b	0.19657151
39	0x3e2ec664	0.17067868
40	0xbd22f6e8	-0.03978625
41	0xbe574d66	-0.21025619
42	0x3db86027	0.090027146
43	0x3e1cafa0	0.1530137
44	0x3da52f3f	0.08065652
45	0x3d63146f	0.05543941
46	0x3dbdfba4	0.09276512
47	0x3d18656c	0.0372061
48	0x3d81c33a	0.06336065
49	0x3e1d568c	0.15365046
50	0x3e06917b	0.13141434
51	0xbd7deca3	-0.061993252
52	0x3dcd7f14	0.10034004
53	0xbb3e411c	-0.0029030507
54	0xbd910497	-0.070809536
55	0x3c9045ee	0.01761147
56	0xbd4574e7	-0.04820719
57	0x3d0f9df9	0.035062764
58	0x3e185720	0.14876986
59	0x3e618404	0.22023016
60	0xbe697fb2	-0.22802618
61	0xbe83dc1f	-0.25753877
62	0x3c9df719	0.019282864
63	0x3c72f152	0.014828043
64	0xbd385d31	-0.04501075
65	0x3d731746	0.059348367

Mixer_Block.0.mlp_block_token_mixing_DynaMixerOperation.LN.weight f4 [10]
0	0x3fc6b808	1.5524912
1	0x3f93cd24	1.1546979
2	0x3f73be23	0.95212
3	0x3f408919	0.75209194
4	0x3f55f7de	0.8358134
5	0x3f47e2a7	0.7808022
6	0x3f240fa4	0.64086366
7	0x3f59e77d	0.8511885
8	0x3f26c39e	0.6514224
9	0x3ec0bb15	0.37642732

Mixer_Block.0.mlp_block_token_mixing_DynaMixerOperation.LN.bias f4 [10]
0	0x3d0fa25b	0.035066944
1	0x3da7c7fe	0.08192442
2	0xbd4341dd	-0.047670234
3	0x3e67e163	0.22644572
4	0xbddb52f7	-0.10709184
5	0x3d882ce2	0.06649186
6	0xbe2067cb	-0.15664594
7	0x3d83976f	0.06425368
8	0xbd25e048	-0.040497094
9	0x3d613817	0.054985132

Mixer_Block.0.mlp_block_channel_mixing_DynaMixerOperation.fc_ND.weight f4 [1, 10]
0	0xbe767c19	-0.24070777
1	0xbe55de50	-0.20885587
2	0x3de3e870	0.11128318
3	0x3e931f4b	0.28734812
4	0x3e907037	0.28210613
5	0x3d2a27fb	0.041542035
6	0xbe7b3edf	-0.24535702
7	0xbe6ae5f8	-0.22939289
8	0x3e0801e9	0.13281979
9	0x3df04085	0.11731056

Mixer_Block.0.mlp_block_channel_mixing_DynaMixerOperation.fc_Nd.weight f4 [484, 22]
0	0x3cfb0e0d	0.030646348
1	0x3de0db17	0.10979288
2	0xbe03241c	-0.12806743
3	0x3e23e5b5	0.16005595
4	0x3e448313	0.19190626
5	0xbe40aacb	-0.18815152
6	0x3d95d90c	0.07316789
7	0xbe26ac80	-0.16276741
8	0xbe448e43	-0.19194894
9	0x3e40da14	0.1883319
10	0xbe3a91da	-0.182197
11	0x3d907211	0.070530064
12	0x3d0fbb2a	0.035090603
13	0xbe179d0f	-0.14806007
14	0xba0d0171	-0.0005378938
15	0x3dd24347	0.102667384
16	0x3d5438a2	0.05181182
17	0xbcbb9f08	-0.02290298
18	0x3d0d64c4	0.034519926
19	0x3d2dc144	0.04242064
20	0x3d383e3c	0.044981226
21	0x3e06ce91	0.13164736
22	0xbd2c6434	-0.04208775
23	0xbd2a08ed	-0.04151242
24	0xbe493a69	-0.19651188
25	0x3e45122c	0.19245213
26	0x3e2c319a	0.16815796
27	0xbc250a6a	-0.010073284
28	0xbd766124	-0.060151234
29	0xbe30ee96	-0.17278513
30	0x3d0f98e5	0.03505792
31	0xbe39ef14	-0.18157607
32	0xbe10f56e	-0.14156124
33	0xbe3c5174	-0.18390447
34	0x3c3de4db	0.011590208
35	0xbd4e9fe6	-0.05044546
36	0xbd8732f4	-0.066015154
37	0xbe54dc74	-0.20787221
38	0xbc65b5e0	-0.014020413
39	0xbde6f025	-0.11276273
40	0x3df60628	0.12012893
41	0x3d5e6a81	0.05430079
42	0x3d9e2287	0.07721429
43	0x3cffdca5	0.031233141
44	0x3e2159ef	0.15756963
45	0x3db16dc6	0.08663516
46	0xbe2a29e4	-0.16617543
47	0x3ddbaabe	0.10725926
48	0xbd97ec98	-0.074181736
49	0xbd8aa079	-0.06768889
50	0xbd06131b	-0.032733064
51	0x3e572262	0.2100921
52	0xbe335626	-0.17513332
53	0x3e242070	0.16027999
54	0x3def320b	0.11679467
55	0xbdba731c	-0.091039866
56	0x3da89114	0.082307965
57	0x3e08cabb	0.13358586
58	0x3d70d813	0.058799814
59	0x3e41721f	0.1889119
60	0x3e10d656	0.14144263
61	0x3d4765b0	0.04868096
62	0x3dce821a	0.10083409
63	0x3d4e4565	0.05035915
64	0xbde14ae9	-0.11000616
65	0x3e5238f7	0.20529543
66	0x3e163dd8	0.14672029
67	0x3d4faeb7	0.05070373
68	0xbd2f10ca	-0.04274062
69	0x3dedeb4a	0.116171435
70	0xbd3379a2	-0.04381717
71	0xbbbdd9e0	-0.005793795
72	0x3dedd2be	0.116124615
73	0xbdad1237	-0.0845074
74	0xbd494874	-0.049141362
75	0xbe0741e3	-0.13208728
76	0x3e440862	0.19143823
77	0x3d47bb43	0.04876257
78	0x3e196a84	0.14982039
79	0xbd0c20ac	-0.034210846
80	0x3d4a9ac7	0.049464013
81	0x3dbaf69a	0.09129067
82	0x3e50cffa	0.20391837
83	0x3cb364b7	0.02189861
84	0x3e57f1f1	0.21088387
85	0xbd5ab6a4	-0.053396836
86	0x3e0ccd59	0.13750209
87	0x3d412280	0.047152042
88	0xbd2f27af	-0.042762455
89	0x3e5567a0	0.20840311
90	0xbe4b5e88	-0.1986028
91	0xbe285add	-0.16440912
92	0x3dff4d52	0.124659196
93	0x3d4388a0	0.047737718
94	0x3cbcdc2b	0.023054203
95	0x3cf62556	0.0300471
96	0xbc65602b	-0.013999979
97	0xbddd7960	-0.10814166
98	0x3e559fab	0.2086169
99	0x3c4452fa	0.011982674
100	0xbe15cf0a	-0.1462976
101	0xbd5424f0	-0.05179304
102	0x3d3560c5	0.04428174
103	0x3d0e2b0b	0.034709018
104	0x3e0e5f23	0.1390348
105	0xbd499bc3	-0.04922081
106	0xbe32541e	-0.174149
107	0xbe35668a	-0.17714897
108	0x3b7e33ae	0.0038788128
109	0xbe13100b	-0.14361589
110	0xbd2a900a	-0.041641273
111	0x3e580dbb	0.21098988
112	0xbdfaee1f	-0.12252449
113	0xbe0d8259	-0.13819255
114	0x3e1a55db	0.15071814
115	0x3de77a38	0.11302608
116	0x3c66c35c	0.014084663
117	0xbe5381c6	-0.20654973
118	0x3e05bf15	0.13061173
119	0xbe479b69	-0.19492878
120	0xbc8791e1	-0.016549053
121	0xbe0ef79a	-0.1396164
122	0xbcf6f535	-0.03014622
123	0xbddf5558	-0.1090495
124	0x3b9ea5e2	0.004841552
125	0xbd175bfa	-0.03695295
126	0x3e57c77d	0.21072192
127	0x3c78405d	0.015152064
128	0xbe363ee6	-0.17797431
129	0xbe2e33d7	-0.17011963
130	0xbdc41664	-0.09574583
131	0x3dad63c3	0.08466294
132	0x3e2e6367	0.17030106
133	0x3d9926c6	0.074780986
134	0xbe05c38e	-0.1306288
135	0xbe0626d5	-0.1310075
136	0x3d72c8dc	0.059273586
137	0xbca1e0a0	-0.01976043
138	0xbcf5b968	-0.029995635
139	0xbca606f3	-0.020266986
140	0xbc599a93	-0.013281482
141	0xbe01b0f8	-0.12665164
142	0xbdf69618	-0.12040347
143	0xbdc07934	-0.09398118
144	0x3dca2018	0.09869403
145	0x3df03e40	0.11730623
146	0xbe203299	-0.15644301
147	0x3df10ba5	0.11769799
148	0xbdef1816	-0.11674516
149	0x3dd0ffc6	0.10205035
150	0xbe27175c	-0.16317505
151	0xbd1be59a	-0.038060762
152	0x3ddcb2ce	0.10776292
153	0x3dcc1db2	0.099666014
154	0x3e321a05	0.17392738
155	0x3dcc0081	0.099610336
156	0x3e002667	0.1251465
157	0xbe312c27	-0.17301999
158	0x3e3f55ac	0.18685025
159	0x3e1439dd	0.14475198
160	0xbd82b04c	-0.06381282
161	0xbe5933d9	-0.21211185
162	0xbdcefd99	-0.10106964
163	0xbe2df429	-0.16987671
164	0xbdec5831	-0.11540259
165	0xbde0b9ec	-0.10972962
166	0xbdaf6fc2	-0.08566238
167	0xbdf971c6	-0.12179904
168	0xbe373e8a	-0.1789495
169	0xbe1d59df	-0.15366314
170	0x3d1785fa	0.036993004
171	0xbe1bd0ca	-0.15216365
172	0xbd81463e	-0.06312226
173	0x3dbb7013	0.09152236
174	0x3e40f5b2	0.18843725
175	0x3cd01ac1	0.025403382
176	0x3d1851fc	0.03718756
177	0x3d99d107	0.07510572
178	0xbdd4ee07	-0.103969626
179	0x3e183a50	0.14865994
180	0x3dd44e6f	0.103665225
181	0x3d2162f1	0.039401
182	0x3df8ee74	0.12154856
183	0x3e49523c	0.19660276
184	0xbe1be68b	-0.15224664
185	0x3d0a4bfa	0.033763863
186	0x3d77dd10	0.060513556
187	0x3dde7e5f	0.10863947
188	0x3df4d6e8	0.119550526
189	0xbe13d8cc	-0.1443817
190	0x3d8c7694	0.068585545
191	0xbe082307	-0.13294612
192	0xbbeb8ef8	-0.007188674
193	0x3e009f99	0.12560882
194	0x3cc02567	0.023455335
195	0xbe1f089c	-0.15530628
196	0x3e328c97	0.17436443
197	0xbcd56494	-0.026048936
198	0x3d536e77	0.05161902
199	0xbdd5a37d	-0.104315735
200	0x3d75a73b	0.059973937
201	0xbd8ad9a3	-0.06779792
202	0xbd9521e8	-0.07281858
203	0xbc91ca03	-0.017796522
204	0xbcdc733e	-0.02691042
205	0x3e4e2400	0.2013092
206	0x3d207f23	0.039183747
207	0x3d884362	0.06653477
208	0xbd3456d4	-0.04402812
209	0xbe0a4dcf	-0.13506244
210	0xbe493b37	-0.19651495
211	0xbe49954a	-0.19685856
212	0xbe06525f	-0.1311736
213	0x3d034cd3	0.032055687
214	0x3e161737	0.14657293
215	0x3e0dd705	0.13851555
216	0xbdae87a6	-0.08521967
217	0x3d5a6cf4	0.053326562
218	0xbe2c3294	-0.16816169
219	0x3d31c618	0.043401808
220	0xbcdf8040	-0.027282834
221	0xbe4dbfb1	-0.20092656
222	0x3d9786ac	0.073987335
223	0xbe1cf9df	-0.15329693
224	0xbcff684a	-0.031177659
225	0x3d161820	0.0366441
226	0x3db9e555	0.09076945
227	0x3e2ef91c	0.17087215
228	0x3db924c6	0.09040217
229	0x3e3bb5f8	0.18331134
230	0xbd9e2e8b	-0.07723721
231	0x3e11846f	0.14210676
232	0x3ddb2a4d	0.107014276
233	0x3dcc6a84	0.09981254
234	0x3e358c33	0.17729263
235	0xbd5cb977	-0.05388781
236	0xbdfe8c74	-0.12429133
237	0x3e312483	0.17299084
238	0x3d6abd95	0.057309706
239	0xbd3ba817	-0.0458146
240	0xbe524cdf	-0.20537136
241	0xbb8687ce	-0.0041055446
242	0x3e5a3ffb	0.21313469
243	0x3e226b99	0.15861358
244	0xbbec9af7	-0.0072206217
245	0xbe09f794	-0.1347335
246	0xbe0a3c10	-0.13499475
247	0x3e399db2	0.18126562
248	0x3db61fb8	0.088927686
249	0x3d91f943	0.07127621
250	0x3c2290c8	0.009922214
251	0x3e084bfd	0.13310237
252	0xbdb99be6	-0.090629384
253	0x3e0e2261	0.13880302
254	0xbcb52da8	-0.022116497
255	0x3e188239	0.14893426

Mixer_Block.0.mlp_block_channel_mixing_DynaMixerOperation.fc_Nd.bias f4 [484]
0	0x3da33cba	0.07970567
1	0x3d0b7254	0.03404458
2	0x3e45b9f3	0.19309215
3	0xbddbb115	-0.10727135
4	0x3e56845e	0.20948932
5	0x3e5857a5	0.21127184
6	0xbc0198ce	-0.007909967
7	0xbd3a5a02	-0.045495994
8	0x3c39fa47	0.011351175
9	0x3d229a00	0.039697647
10	0x3e40e656	0.18837866
11	0x3e4eed3c	0.20207685
12	0xbd8d1c4e	-0.06890164
13	0x3e336979	0.17520703
14	0x3e3803dc	0.17970222
15	0xbcaeed88	-0.021353498
16	0x3d38ab0c	0.045084998
17	0x3e115ff5	0.14196761
18	0xbc2e2d55	-0.010630925
19	0xbd67eedb	-0.056624275
20	0x3da4518e	0.08023368
21	0x3ce36e4b	0.027762553
22	0x3b8a6434	0.004223371
23	0x3d6ec8db	0.05829702
24	0xbe53bdec	-0.20677918
25	0x3dc8160f	0.09769832
26	0x3de7c415	0.113166966
27	0xbdab5725	-0.08366231
28	0x3d164ebb	0.036696177
29	0x3e2c1fac	0.16808957
30	0x3e563a18	0.20920599
31	0xbd75d20e	-0.060014777
32	0xbd22d4d1	-0.03975374
33	0x3e3bc5e3	0.18337207
34	0xbc5ae984	-0.0133613385
35	0xbe3ffd40	-0.18748951
36	0xbda264c1	-0.079293735
37	0xbd91324e	-0.07089673
38	0xbcdcff87	-0.026977314
39	0x3d62f088	0.05540517
40	0xbe59c943	-0.21268182
41	0x3e52d5db	0.20589392
42	0xbc5ceacc	-0.013483714
43	0x3bf6f876	0.007536943
44	0x3e466e21	0.19377948
45	0xbd0fde73	-0.035124253
46	0xbde2451a	-0.11048336
47	0x3c165905	0.009176497
48	0x3d93db86	0.07219605
49	0x3d8f8b13	0.07008948
50	0xbe0bc0c6	-0.13647756
51	0xbd41dcdd	-0.047329772
52	0x3d9deacd	0.077108
53	0x3e315e0e	0.17321035
54	0xbe0e743b	-0.13911526
55	0x3d90f78b	0.07078465
56	0xbdb763da	-0.08954592
57	0x3e236a14	0.15958434
58	0xbe16f3f1	-0.14741494
59	0x3c1f4b39	0.009722524
60	0xbdd53443	-0.10410359
61	0x3e0f6dbf	0.14006709
62	0xbd9adbcb	-0.075614534
63	0x3e39d91f	0.18149231
64	0x3e3466e8	0.1761738
65	0x3d785fbb	0.06063817
66	0x3c86156c	0.016367637
67	0x3e2752d1	0.16340186
68	0xbca42d2a	-0.020041067
69	0x3db86510	0.09003651
70	0x3db6b352	0.089209214
71	0xbdf88ae0	-0.12135863
72	0xbd735992	-0.059411593
73	0xbe186d56	-0.14885458
74	0xbe100f96	-0.14068446
75	0x3e1ef103	0.15521626
76	0x3dc24f3f	0.09487771
77	0xbe53f4c0	-0.20698833
78	0x3dcc09f6	0.099628374
79	0x3c999b7d	0.0187509
80	0xbdf83dfa	-0.12121196
81	0x3db191ac	0.08670363
82	0xbe2f2288	-0.17103016
83	0x3e38a94f	0.18033336
84	0x3d1b93e5	0.03798284
85	0x3cdb3260	0.02675742
86	0xbdf34488	-0.11878306
87	0xbe3b5ff5	-0.18298323
88	0xbc2f363c	-0.010694083
89	0xbe2b7a15	-0.1674579
90	0xbe456e98	-0.1928047
91	0xbccd7e7a	-0.025084723
92	0x3e06e847	0.13174544
93	0xbb0142e2	-0.0019723703
94	0x3e131422	0.14363149
95	0xbe3c5f8d	-0.18395825
96	0xbe35cd1b	-0.17754023
97	0xbe213142	-0.15741447
98	0x3d41affc	0.047286972
99	0x3e57a0b4	0.21057397
100	0xbcee4fc2	-0.029090766
101	0x3db888f3	0.09010496
102	0x3e278d5f	0.16362523
103	0xbd7d2174	-0.06179948
104	0xbe3c5915	-0.18393357
105	0xbe543244	-0.207223
106	0xbe230676	-0.15920433
107	0x3e192fde	0.14959666
108	0xbd4f66c3	-0.05063511
109	0xbde8a4cf	-0.1135956
110	0x3e180827	0.1484686
111	0x3e25a9ea	0.16178098
112	0x3d725126	0.05915942
113	0x3df920ff	0.12164497
114	0x3d231ef5	0.039824445
115	0x3ddc99c1	0.10771514
116	0x3c987b59	0.018613504
117	0xbc328b76	-0.010897508
118	0x3d9600b3	0.07324352
119	0x3d9d78b3	0.07689037
120	0xbe46d6ce	-0.19417879
121	0x3b766e85	0.0037602496
122	0x3bf678c1	0.007521719
123	0x3e3a256d	0.1817834
124	0x3e38de92	0.18053654
125	0x3e0fe454	0.14051944
126	0xbe03902d	-0.12847967
127	0x3e2a93f2	0.16657999
128	0x3e2ddf88	0.16979802
129	0x3dcd9e34	0.100399405
130	0x3d9c7450	0.07639372
131	0x3c2d3e1f	0.010573893
132	0x3e37276f	0.17886136
133	0x3d520fa5	0.05128445
134	0xbdd67236	-0.10471003
135	0xbe0f1944	-0.13974482
136	0x3db60f3c	0.088896245
137	0x3d2a82d9	0.041628692
138	0xbdfde406	-0.12397008
139	0x3e16f303	0.14741139
140	0xbd0939b9	-0.033502314
141	0xbe2b0099	-0.16699447
142	0xbd7af293	-0.061266493
143	0xbe184bff	-0.1487274
144	0x3e2f5479	0.17122068
145	0xbd2b81ad	-0.041871715
146	0x3d64b1ee	0.05583375
147	0x3dd0b95d	0.10191605
148	0x3e204ff2	0.15655497
149	0xbd871fdf	-0.06597876
150	0x3c4dba1f	0.012556582
151	0x3e100e0b	0.14067857
152	0x3bbb05d8	0.0057074837
153	0x3d7b4ed6	0.06135448
154	0xbe163c20	-0.14671373
155	0x3e18e60c	0.14931506
156	0x3d3d5736	0.04622575
157	0xbe197bd2	-0.1498864
158	0x3e25d6f7	0.16195284
159	0xbdaeb12b	-0.08529886
160	0xbd000ec1	-0.03126407
161	0x3e397e9e	0.18114707
162	0x3df3fe07	0.11913686
163	0x3e1b6ca7	0.15178166
164	0x3e339285	0.17536362
165	0xbe0bbc5d	-0.13646074
166	0xbd80ae19	-0.062832065
167	0xbde6e109	-0.11273391
168	0xbdf287fe	-0.11842345
169	0x3e48653b	0.19569866
170	0x3e4a2669	0.19741215
171	0x3e476dc7	0.1947547
172	0xbd3916a2	-0.0451876
173	0xbd92b6a0	-0.07163739
174	0x3cdfba67	0.027310563
175	0x3e472c55	0.19450505
176	0xbdb1278d	-0.08650122
177	0x3dbc9d57	0.09209698
178	0x3d84a873	0.06477442
179	0x3de70bd9	0.11281557
180	0x3e4a1306	0.1973382
181	0xbe2bcaf0	-0.16776633
182	0x3e240a7c	0.16019624
183	0x3e598512	0.21242169
184	0x3deaf21c	0.1147196
185	0xbe2b444b	-0.1672527
186	0xbe30c92b	-0.1726424
187	0x3d2225c1	0.039586786
188	0xbcecf0b9	-0.02892338
189	0x3d56a1aa	0.05240027
190	0x3dee500a	0.1163636
191	0x3de0c9b3	0.10975971
192	0x3c81209d	0.015762622
193	0xbba2aba5	-0.0049643093
194	0x3e520b2b	0.20512073
195	0xbe56240e	-0.20912191
196	0x3e491199	0.19635619
197	0xbe46c586	-0.19411287
198	0x3cb0bc64	0.021574207
199	0x3e456563	0.19276957
200	0x3c8b4565	0.017000863
201	0xbe39c7a0	-0.18142557
202	0xbe05ed6d	-0.13078852
203	0x3c1884f1	0.009309039
204	0x3deba07e	0.11505221
205	0x3db62aa9	0.088948555
206	0xbda99d53	-0.0828196
207	0x3e026e4e	0.1273739
208	0x3e1a7612	0.15084103
209	0x3e3b71b1	0.18305089
210	0x3d784655	0.06061395
211	0xbe1951c2	-0.14972594
212	0xbced88e5	-0.02899594
213	0x3e166fe4	0.1469112
214	0x3dd85a9a	0.10564156
215	0x3e3146e7	0.17312203
216	0x3e46e2b4	0.19422418
217	0xbccbba3a	-0.024869073
218	0x3dc59afd	0.09648702
219	0x3e472908	0.19449246
220	0x3e514735	0.2043732
221	0x3e106955	0.14102681
222	0x3dff8e22	0.124782816
223	0xbe45318c	-0.19257182
224	0xbc7414de	-0.014897553
225	0xbdcccaa5	-0.09999589
226	0x3e0ad80a	0.13558975
227	0xbd60bf77	-0.054870095
228	0x3da6b76a	0.08140452
229	0x3dd15229	0.10220749
230	0x3d59d661	0.053182963
231	0x3e2dd254	0.16974765
232	0x3e17fd6d	0.14842768
233	0xbe2263b5	-0.15858348
234	0xbcd93090	-0.026512414
235	0x3dd828cb	0.10554656
236	0xbc6d6cc1	-0.014491261
237	0x3be39c9c	0.0069461595
238	0xbdaf7d3b	-0.08568808
239	0x3d792da1	0.06083453
240	0xbdb541df	-0.088504545
241	0xbde0e290	-0.10980713
242	0xb9e415b5	-0.00043503722
243	0x3c3d70a9	0.011562505
244	0xbe149d57	-0.14513145
245	0x3da50e2c	0.08059344
246	0xbd795a29	-0.060877
247	0xbe09295c	-0.13394684
248	0xbca46d9b	-0.020071795
249	0x3e0f40e7	0.13989602
250	0xbe0161e7	-0.12635003
251	0x3dcc8dd0	0.09987986
252	0xbe255856	-0.16146979
253	0x3deae43d	0.11469314
254	0x3d91249c	0.07087061
255	0xbe22201e	-0.15832564

Mixer_Block.0.mlp_block_channel_mixing_DynaMixerOperation.fc_out.weight f4 [10, 10]
0	0xbdc3101e	-0.095245585
1	0xbe65bdd4	-0.22435695
2	0xbe50b4c4	-0.20381457
3	0x3e904123	0.28174695
4	0xbe166b71	-0.14689423
5	0x3e52de7e	0.20592687
6	0xbc089919	-0.008337283
7	0x3e83bda2	0.25730616
8	0x3e40caf6	0.18827423
9	0xbda22d2b	-0.07918771
10	0xbe8d9edf	-0.27660272
11	0x3df04131	0.11731184
12	0x3df1b6ea	0.11802466
13	0x3dd86b67	0.1056736
14	0x3b59f705	0.0033258807
15	0x3e991534	0.2989899
16	0x3ea1a0ca	0.31567985
17	0x3abea554	0.0014545121
18	0xbe9a7829	-0.301698
19	0x3c919f24	0.01777608
20	0x3e8e1cf5	0.27756467
21	0x3e8f4420	0.27981663
22	0x3d243261	0.040087108
23	0xbe3b29bc	-0.18277639
24	0xbd2d280f	-0.04227453
25	0xbe4a34c4	-0.19746691
26	0xbe0c64ba	-0.13710299
27	0x3ea08019	0.3134773
28	0xbe9de645	-0.30839744
29	0x3d528185	0.05139305
30	0xbd7d4776	-0.06183573
31	0x3e14aef1	0.1451986
32	0xbdbee30d	-0.0932065
33	0x3d7bcdf6	0.061475717
34	0xbd453f91	-0.048156325
35	0x3dc5b52f	0.09653699
36	0x3dc225cb	0.09479865
37	0x3df2c1c6	0.118533656
38	0xbe697c62	-0.22801355
39	0x3db29447	0.08719688
40	0xbde27bd9	-0.11058778
41	0xbddf8245	-0.10913519
42	0x3dfdf70b	0.12400635
43	0x3e9c85ee	0.3057093
44	0x3e964b14	0.29354155
45	0xbda27086	-0.079316184
46	0xbe688baf	-0.22709535
47	0xbe463f83	-0.19360165
48	0x3de5736d	0.11203656
49	0xbe5925e3	-0.21205859
50	0x3e512c29	0.20427002
51	0xbd923383	-0.07138731
52	0xbca716c9	-0.020396607
53	0x3da17974	0.078844935
54	0x3dff53fb	0.1246719
55	0x3e962ce3	0.2933112
56	0xbe6b2f7c	-0.22967333
57	0xbe39bbf3	-0.18138103
58	0x3e9b96c2	0.30388457
59	0x3985e208	0.00025536143
60	0xbda9af75	-0.08285419
61	0x3dd6dfd7	0.10491913
62	0x3dbf3b01	0.09337426
63	0xbe87dbdc	-0.26534927
64	0x3e151738	0.14559639
65	0xbe2addb4	-0.16686136
66	0xbe266c33	-0.16252212
67	0xbe290eda	-0.16509572
68	0x3ea16e9f	0.3152971
69	0xbb2b9919	-0.0026183783
70	0xbe6e13b4	-0.23249704
71	0x3dd7427c	0.10510728
72	0x3e026160	0.12732458
73	0xbe995daf	-0.29954287
74	0xbe29514d	-0.1653492
75	0xbe67a053	-0.22619753
76	0xbe57fb9b	-0.21092074
77	0x3e6457a9	0.22299065
78	0xbe7c9d3b	-0.24669354
79	0x3c51ea53	0.012812215
80	0xbc01eebc	-0.007930454
81	0xbdae94c9	-0.08524472
82	0x3e039416	0.12849459
83	0xbdea786b	-0.11448749
84	0x3cb727a5	0.022357771
85	0x3e2c5606	0.1682969
86	0xbe428868	-0.18997347
87	0x3de71b9b	0.11284562
88	0x3c711ac2	0.014715852
89	0x3e96abb7	0.29427883
90	0x3ea0e8c2	0.3142758
91	0xbe265a50	-0.16245389
92	0xbdc81521	-0.09769655
93	0xbe8e21d3	-0.2776018
94	0xbb019816	-0.0019774488
95	0xbe2fa4c0	-0.17152691
96	0xbe8e23e4	-0.27761757
97	0xbe9f2dfe	-0.31089777
98	0xbe0c80bc	-0.13720983
99	0x3e6e35d6	0.23262724

Mixer_Block.0.mlp_block_channel_mixing_DynaMixerOperation.fc_out.bias f4 [10]
0	0x3d28d0f3	0.041214895
1	0xbe10de0e	-0.14147207
2	0x3e303237	0.17206655
3	0x3d1afb29	0.03783718
4	0x3d42b983	0.0475402
5	0x3e5348af	0.20633195
6	0x3e4b28fb	0.19839852
7	0x3e623987	0.22092257
8	0xbe800b07	-0.25008413
9	0x3db4c31c	0.08826277

Mixer_Block.0.mlp_block_channel_mixing_DynaMixerOperation.LN.weight f4 [22]
0	0x3f800000	1.0
1	0x3f800000	1.0
2	0x3f800000	1.0
3	0x3f800000	1.0
4	0x3f800000	1.0
5	0x3f800000	1.0
6	0x3f800000	1.0
7	0x3f800000	1.0
8	0x3f800000	1.0
9	0x3f800000	1.0
10	0x3f800000	1.0
11	0x3f800000	1.0
12	0x3f800000	1.0
13	0x3f800000	1.0
14	0x3f800000	1.0
15	0x3f800000	1.0
16	0x3f800000	1.0
17	0x3f800000	1.0
18	0x3f800000	1.0
19	0x3f800000	1.0
20	0x3f800000	1.0
21	0x3f800000	1.0

Mixer_Block.0.mlp_block_channel_mixing_DynaMixerOperation.LN.bias f4 [22]
0	0x00000000	0.0
1	0x00000000	0.0
2	0x00000000	0.0
3	0x00000000	0.0
4	0x00000000	0.0
5	0x00000000	0.0
6	0x00000000	0.0
7	0x00000000	0.0
8	0x00000000	0.0
9	0x00000000	0.0
10	0x00000000	0.0
11	0x00000000	0.0
12	0x00000000	0.0
13	0x00000000	0.0
14	0x00000000	0.0
15	0x00000000	0.0
16	0x00000000	0.0
17	0x00000000	0.0
18	0x00000000	0.0
19	0x00000000	0.0
20	0x00000000	0.0
21	0x00000000	0.0
