M_2_AST/M_2_AST/h36m/run_for_longging/exp179/model.pt (torch, 955837 bytes, 212 tensors)

Mixer_Block.0.mlp_block_token_mixing.fc1.weight f4 [20, 10]
-0.16934532 -0.25855863 -0.232918 -0.0047780634 0.10052894 -0.30924687 -0.0921323 -0.4926925
0.5971223 0.49979576 0.4220536 0.0010779845 0.074584946 -0.39842665 0.40783963 -0.08144562
0.4367871 -0.5528914 -0.20928642 -0.321327 -0.035720725 -0.068495296 -0.29500976 0.2698705
-0.4208085 0.51545846 -0.034726586 1.0324966 -0.13490526 0.49701613 0.16705443 0.1174929
-0.10010633 0.053168796 0.1417684 -0.7538282 0.43040353 -0.53663343 -0.06630836 0.48235762
0.18503122 0.1391569 -0.31233355 0.040390927 -0.06989156 -0.05808774 -0.054476876 0.18310936
0.44667083 0.6548922 -0.25650436 -0.015524036 -0.3565601 0.34089154 0.09544794 0.2851329
-0.4179021 0.10612732 -0.6921627 0.20281222 0.10001201 0.19425602 0.13987581 -0.19223055
0.66216475 -0.046563204 0.050272636 -0.48872906 0.76311225 -0.5605997 -0.2576461 0.07785019
0.56397676 0.5497513 0.16180174 -0.12784868 0.37995046 0.12657128 -0.24612519 -0.46189177
0.04055434 0.018293897 -0.16042441 -0.6506606 -0.5606186 0.9895919 0.3638636 -0.045900177
-0.17664918 0.579223 -0.3469111 0.062470466 0.05249755 0.048501443 0.096082866 0.14146192
-0.4602334 -0.7221624 -0.67163205 0.19752274 -0.14842552 -0.13568862 0.22739717 0.114682525
-0.26307815 0.35116538 0.3509276 0.6390724 -0.6998054 -0.47023895 -0.13356464 -0.25170338
0.18569796 -0.08991172 0.13847929 -0.1025398 0.73794234 -0.22750525 0.6841866 -0.08940405
-0.052552678 -0.016529504 -0.57372856 0.4605624 -0.16373508 -0.233084 -0.08605476 0.41993037
0.4031781 0.13135727 -0.005700342 0.09267481 0.32591864 -0.08294288 -0.027431509 -0.17562318
-0.13771795 0.7246203 0.6213323 -0.2967923 0.050907522 0.06417454 0.6220386 -0.41650787
0.17368378 0.3076109 0.19031185 -0.23378597 -0.49517775 -0.40821818 -0.20809276 -0.66924846
0.35369048 0.15790588 0.5830774 -1.0700738 -0.14088415 -0.11570579 0.11092725 -0.18649086
-0.020933457 0.3220276 0.13728496 0.40905732 -0.947557 -0.051323865 -0.21208426 0.029257195
0.019336047 0.33225834 0.32963675 0.6740963 -0.23517582 -0.04046875 -0.40936533 0.5673878
-0.58224213 0.22646113 -0.3393572 -0.29136634 -0.3144994 -0.022508334 0.06525312 0.35081407
-0.43667045 0.046618212 -0.4122091 -0.14214012 0.6758626 0.055951886 0.38124612 0.54173344
0.21429747 -0.26965567 -0.040061306 -0.3087717 -0.10842684 0.57740384 -0.8422352 -0.17869896
00000000: dc68 2dbe cc61 84be 0e82 6ebe 4d91 9cbb
00000010: 1ee2 cd3d 9b55 9ebe dcaf bcbd 3142 fcbe
00000020: 02dd 183f 3be5 ff3e 6917 d83e 284b 8d3a
00000030: febf 983d 94fe cbbe 5bd0 d03e f6cc a6bd
00000040: 8fa2 df3e 4a8a 0dbf 2e4f 56be f984 a4be
00000050: e54f 12bd 4347 8cbd 850b 97be 772c 8a3e
00000060: 3674 d7be 16f5 033f 773d 0ebd d928 843f
00000070: 9b24 0abe e678 fe3e 5110 2b3e 1ea0 f03d
00000080: 8c04 cdbd 86c7 593d bc2b 113e e3fa 40bf
00000090: da5d dc3e cf60 09bf adcc 87bd 94f7 f63e
000000a0: d378 3d3e 257f 0e3e 2fea 9fbe f570 253d
000000b0: 4e23 8fbd 69ed 6dbd 2523 5fbd 0581 3b3e
000000c0: 0ab2 e43e 04a7 273f 8a54 83be 8758 7ebc
000000d0: 0c8f b6be 5689 ae3e 367a c33d f1fc 913e
000000e0: 44f7 d5be 4859 d93d 9331 31bf 02ae 4f3e
000000f0: 19d3 cc3d 0deb 463e 9b3b 0f3e 16d8 44be
00000100: a183 293f 0fb9 3ebd aeea 4d3d b23a fabe
00000110: 535b 433f 7683 0fbf 31ea 83be ec6f 9f3d
00000120: c860 103f 80bc 0c3f 5baf 253e c4ea 02be
00000130: de88 c23e e79b 013e 3e08 7cbe 147d ecbe
00000140: 4f1c 263d 15dd 953c 4c46 24be b191 26bf
00000150: b384 0fbf e555 7d3f 544c ba3e d301 3cbd
00000160: 86e3 34be f547 143f 559e b1be 08e1 7f3d
00000170: ac07 573d 73a9 463d 18c7 c43d 65db 103e
00000180: b6a3 ebbe a3df 38bf 14f0 2bbf 6743 4a3e
00000190: dcfc 17be f5f1 0abe ceda 683e acde ea3d
000001a0: 2eb2 86be f3cb b33e c8ac b33e 409a 233f
000001b0: 7226 33bf 29c3 f0be 2bc5 08be 44df 80be
000001c0: 9b27 3e3e a323 b8bd 84cd 0d3e 6300 d2bd
000001d0: cae9 3c3f 23f7 68be da26 2f3f 7819 b7bd
000001e0: 7a41 57bd e268 87bc e0df 12bf d6ce eb3e
000001f0: 2baa 27be 92ad 6ebe 7a3d b0bd 1d01 d73e
00000200: 5c6d ce3e 8582 063e efc9 babb 4acc bd3d
00000210: cfde a63e f5dd a9bd 0bb8 e0bc 90d6 33be
00000220: ef05 0dbe b780 393f a20f 1f3f 29f5 97be
00000230: 6884 503d f16d 833d ec3d 1f3f 8540 d5be
00000240: 29da 313e 2d7f 9d3e 1ce1 423e 9765 6fbe
00000250: f087 fdbe f901 d1be 4516 55be de53 2bbf
00000260: eb16 b53e 14b2 213e 8f44 153f 2ef8 88bf
00000270: ef43 10be 28f7 ecbd d32d e33d 76f7 3ebe
00000280: a47c abbc cde0 a43e 6e94 0c3e f66f d13e
00000290: 1893 72bf f938 52bd 9e2c 59be c9ac ef3c
000002a0: a166 9e3c c41d aa3e 26c6 a83e 9391 2c3f
000002b0: eed1 70be 8fc2 25bd 5598 d1be 5440 113f
000002c0: d20d 15bf 6de5 673e 3ac0 adbe f82d 95be
000002d0: 1106 a1be 6663 b8bc 6ea3 853d e79d b33e
000002e0: 4593 dfbe bdf2 3e3d 120d d3be 2e8d 11be
000002f0: 5505 2d3f ce2d 653d b132 c33e 0baf 0a3f
00000300: cc70 5b3e 4f10 8abe 5317 24bd 5317 9ebe
00000310: e40e debd bdd0 133f ba9c 57bf dcfc 36be

Mixer_Block.0.mlp_block_token_mixing.fc1.bias f4 [20]
0.14709526 0.36511713 0.7194601 0.4533181 0.18422657 0.64659953 0.6758984 0.16854848
0.534089 0.73962283 0.2976491 0.697581 0.5978612 0.6428048 0.05327723 0.5043678
0.6894556 0.3778862 0.75809276 0.15932678
00000000: 24a0 163e a2f0 ba3e 8a2e 383f 4f19 e83e
00000010: e4a5 3c3e 8c87 253f ad07 2d3f f997 2c3e
00000020: 0fba 083f ec57 3d3f 7665 983e ab94 323f
00000030: 6e0d 193f db8e 243f 3a39 5a3d 401e 013f
00000040: 2a80 303f 4d7a c13e 5e12 423f 8f26 233e

Mixer_Block.0.mlp_block_token_mixing.fc2.weight f4 [10, 20]
0.10948793 -0.09965832 -0.25040835 -0.102861315 -0.50164616 0.15043056 -0.123460904 0.38343918
-0.24793611 0.39357737 0.06803522 0.22780977 -0.34784222 0.1797481 0.54502654 0.6207694
-0.25778472 -0.6345842 0.17014755 -0.09614378 0.30160266 -0.36532515 0.031617228 0.029917886
-0.2480394 0.547851 -0.22758566 0.4359772 -0.23293284 0.14998367 0.13027167 0.3231574
0.27767566 -0.43835813 -0.28992024 0.27270842 -0.3295143 -0.30770764 0.15044415 -0.6884811
0.10622536 0.24875179 0.29895645 0.082559936 0.2410737 0.16028011 0.12512738 -0.42417923
0.1905817 -0.22654957 -0.0615569 0.29612038 0.37074196 -0.099789 -0.35742 -0.014898957
-0.8462873 -0.17379774 -0.6665621 -0.054321546 -0.53224766 -0.53629774 0.654004 -0.8028957
0.10831596 0.14206238 -0.20878904 -0.5754128 0.81915474 -0.12257385 0.20008089 -0.0995155
-0.06361182 0.17149003 -0.06426655 -0.77852917 0.010063365 0.34208944 0.06674684 0.020534437
0.060952485 -0.13735665 0.32210612 0.14460059 0.18550536 -0.75789034 -0.18164979 0.093368046
0.42644906 -0.57168835 0.2873244 0.79721206 -0.0019096874 0.24558637 -0.088629596 -0.19358411
0.3586541 -0.3248991 0.053534113 -0.29102546 -0.07658883 -0.75652766 0.45157063 0.16766272
0.4826756 0.18135788 -0.70688134 0.06164795 -0.45402825 -0.2957469 0.21343881 -0.35373417
0.5734957 0.39368862 -0.5815395 0.24155046 0.39675498 -0.010904208 0.035092413 0.38804987
0.52431244 0.013892338 -0.40428796 0.059583373 0.16018099 -0.18568377 0.73771626 -0.099952206
-0.47981036 -0.04694701 -0.7969017 0.14873247 -0.012265359 0.4805647 -0.13038738 0.29698297
-0.46192205 -0.1896242 0.18874258 -0.31231746 0.46625888 0.29878333 -0.59747124 0.35830498
-0.07848678 0.148924 0.41875738 0.10381777 0.09082019 0.5753587 -0.68530303 0.23715931
-0.3791648 -0.5654913 0.25731432 -0.03717088 0.14874265 -0.0021277773 0.18294212 -0.43241283
-0.5132414 0.44394833 -0.10289684 0.6415105 -0.20299512 0.45638233 -0.09529133 0.5866259
0.13499196 0.17929201 0.34170538 -0.053722687 -0.30766425 -0.39966843 0.4454725 0.028444093
-0.15476292 0.12554026 -0.8434198 0.7468519 -0.7046925 0.30140004 -0.1866796 -0.6046321
-0.75050604 -0.118803054 0.56378907 0.7150573 -0.4672179 -0.28065002 0.49381822 0.16083783
-0.0051164553 0.6125606 0.523854 0.1389308 -0.19306402 0.27412215 0.06029264 0.030114427
00000000: 353b e03d a919 ccbd 8635 80be f4a8 d2bd
00000010: e26b 00bf 780a 1a3e 12d9 fcbd 2452 c43e
00000020: f7e2 7dbe f982 c93e 0d56 8b3d f746 693e
00000030: 6018 b2be e30f 383e dc86 0b3f beea 1e3f
00000040: 5cfc 83be 1c74 22bf 293b 2e3e 08e7 c4bd
00000050: aa6b 9a3e e60b bbbe 1181 013d 5b16 f53c
00000060: 0afe 7dbe f73f 0c3f 370c 69be 6738 df3e
00000070: f285 6ebe 5295 193e f065 053e e374 a53e
00000080: 812b 8e3e 7a70 e0be 6d70 94be 70a0 8b3e
00000090: 19b6 a8be db8b 9dbe 080e 1a3e 4c40 30bf
000000a0: ae8c d93d cab8 7e3e d210 993e 2f15 a93d
000000b0: 06dc 763e 7820 243e 6421 003e 052e d9be
000000c0: d927 433e 9cfc 67be 1723 7cbd 179d 973e
000000d0: e4d1 bd3e 2d5e ccbd c1ff b6be c11a 74bc
000000e0: 49a6 58bf 09f8 31be d0a3 2abf 4580 5ebd
000000f0: 6241 08bf cf4a 09bf ce6c 273f 938a 4dbf
00000100: c2d4 dd3d cd78 113e cbcc 55be 414e 13bf
00000110: 20b4 513f 0008 fbbd 01e2 4c3e c8ce cbbd
00000120: ea46 82bd 159b 2f3e 2e9e 83bd b04d 47bf
00000130: d0e0 243c 5926 af3e 91b2 883d d637 a83c
00000140: 50a9 793d 39a7 0cbe 18eb a43e 2d12 143e
00000150: 1ef5 3d3e 1a05 42bf 6702 3abe bf37 bf3d
00000160: 8857 da3e 2b5a 12bf 2f1c 933e 1716 4c3f
00000170: 7a4e faba fe7a 7b3e 6f83 b5bd ea3a 46be
00000180: 83a1 b73e 2d59 a6be 9646 5b3d 4a01 95be
00000190: 9bda 9cbd ccab 41bf 4434 e73e c7af 2b3e
000001a0: 4221 f73e e1b5 393e 2df6 34bf 9082 7c3d
000001b0: 6476 e8be 236c 97be b48f 5a3e a51c b5be
000001c0: 9dd0 123f 8e91 c93e c6df 14bf 0159 773e
000001d0: 7823 cb3e 90a7 32bc 10bd 0f3d 79ae c63e
000001e0: 5739 063f b09c 633c d5fe cebe b20d 743d
000001f0: 7c06 243e e323 3ebe f9da 3c3f beb3 ccbd
00000200: b4a9 f5be 824b 40bd c001 4cbf 534d 183e
00000210: a5f4 48bc 940c f63e 4584 05be 270e 983e
00000220: 0c81 ecbe d92c 42be bc45 413e 13e8 9fbe
00000230: 7cb9 ee3e 21fa 983e e0f3 18bf c073 b73e
00000240: adbd a0bd 887f 183e 5e67 d63e 699e d43d
00000250: f0ff b93d b54a 133f 0570 2fbf e4d9 723e
00000260: e321 c2be 0ac4 10bf b4be 833e 7e40 18bd
00000270: fe4f 183e 2e72 0bbb 2e55 3b3e 3765 ddbe
00000280: ca63 03bf 324d e33e 94bb d2bd 083a 243f
00000290: f4dd 4fbe f2aa e93e 1a28 c3bd 1d2d 163f
000002a0: 553b 0a3e 5398 373e 02f4 ae3e 520c 5cbd
000002b0: 2b86 9dbe 57a1 ccbe f914 e43e 9603 e93c
000002c0: 2c7a 1ebe a08d 003e 5cea 57bf b031 3f3f
000002d0: ba66 34bf 1b51 9a3e f028 3fbe 2bc9 1abf
000002e0: 2a21 40bf 044f f3bd 7b54 103f ff0d 373f
000002f0: 2f37 efbe 5cb1 8fbe bed5 fc3e acb2 243e
00000300: f0a7 a7bb c5d0 1c3f 4c1b 063f e043 0e3e
00000310: 93b2 45be bd59 8c3e 6af5 763d 88b2 f63c

Mixer_Block.0.mlp_block_token_mixing.fc2.bias f4 [10]
0.09792941 -0.0045923535 0.19371997 0.11851972 -0.21934871 -0.32185766 0.21793297 0.045910478
-0.07979717 -0.1078202
00000000: 378f c83d 747b 96bb 875e 463e 78ba f23d
00000010: f39c 60be 87ca a4be d229 5f3e a00c 3c3d
00000020: b36c a3bd d6d0 dcbd

Mixer_Block.0.mlp_block_token_mixing_DynaMixerOperation.fc_ND.weight f4 [1, 66]
-0.013799659 0.035479832 -0.06064464 -0.05057525 -0.006906267 0.019793974 0.12150828 0.042167682
-0.0053225458 0.022905272 0.08620131 0.057835106 0.0003962736 -0.060155172 -0.029609475 -0.028713001
0.010578501 0.0173781 0.0021172024 -0.00035274975 0.012065682 0.00065968983 0.013165991 -0.0024026784
-0.021108633 0.039913435 0.028125381 0.08149537 0.011639755 0.020054739 0.013291839 -0.056281988
-0.013344144 0.05385087 -0.037616868 0.013961332 -0.0033062052 0.10002895 -0.08259059 0.044385582
-0.038611814 0.003668156 -0.022556301 -0.070418164 0.061322216 0.015182089 -0.014930537 -0.029083073
0.015073337 0.03565947 0.07402311 0.04572698 0.036230277 -0.0036130035 0.007766466 -0.047014467
0.016329223 0.030133411 0.029822115 -0.007903493 0.0008533991 0.010634007 -0.038171433 -0.11043667
-0.024367979 -0.035176884
00000000: f717 62bc 4d53 113d 8466 78bd fe27 4fbd
00000010: f74d e2bb f926 a23c 55d9 f83d 05b8 2c3d
00000020: c068 aebb d6a3 bb3c 508a b03d 81e4 6c3d
00000030: f1c2 cf39 4565 76bd 928f f2bc 8737 ebbc
00000040: 7351 2d3c 845c 8e3c c3c0 0a3b 45f1 b8b9
00000050: 23af 453c 09ef 2c3a 2bb6 573c 4176 1dbb
00000060: 03ec acbc 457c 233d 3367 e63c 0be7 a63d
00000070: acb4 3e3c d649 a43c 03c6 593c f187 66bd
00000080: 66a1 5abc bb92 5c3d 2514 1abd 12be 643c
00000090: ebac 58bb fadb cc3d 4125 a9bd a8cd 353d
000000a0: 6c27 1ebd 7265 703b fec7 b8bc 6637 90bd
000000b0: 012d 7b3d 4cbe 783c 369f 74bc a03f eebc
000000c0: 28f6 763c aa0f 123d 6e99 973d 374c 3b3d
000000d0: 3366 143d 24c8 6cbb d77d fe3b 3e92 40bd
000000e0: ddc4 853c 58da f63c 824d f43c a77d 01bc
000000f0: a5b6 5f3a 423a 2e3c a659 1cbd 9f2c e2bd
00000100: 5b9f c7bc a315 10bd

Mixer_Block.0.mlp_block_token_mixing_DynaMixerOperation.fc_Nd.weight f4 [100, 10]
0.32857147 -0.07708781 0.06455378 -0.018263215 0.31563544 0.24125746 -0.14878282 0.08727041
0.1545501 0.3109224 -0.3219687 0.47521263 -0.18248257 -0.16156764 -0.022263512 -0.274518
-0.19286 -0.1894898 0.053725846 -0.12706958 0.15417536 -0.08851294 0.2535706 -0.16413206
0.0012161433 -0.21891327 -0.3229221 -0.25345415 0.05108534 -0.31961206 -0.16217363 -0.23696811
-0.4211886 0.15372045 -0.05191295 -0.23802073 -0.22507012 -0.26200038 -0.006772161 -0.15673757
0.16391338 -0.2347273 -0.22796124 -0.012899216 0.31351212 -0.12363815 -0.21116668 -0.3165157
-0.10584124 -0.14165805 0.021179127 -0.15004405 -0.16805318 -0.061821494 0.09468827 0.25747928
0.15716407 -0.12826425 0.17269875 0.006116706 0.041361425 -0.14767945 -0.1776669 0.09025602
0.21926385 -0.09170759 0.17365979 -0.34212515 -0.20563672 -0.17040914 -0.16220579 -0.10614107
0.031249166 -0.10631721 -0.15605113 0.037933756 0.21485887 0.29488057 0.031603716 -0.28979254
0.330526 0.31703547 -0.28666666 -0.008624339 0.16350488 0.2672682 -0.30167568 -0.059470173
-0.046976104 0.08769941 0.19023041 0.5601399 0.06984539 0.48619187 0.21337277 0.14270079
0.25582364 0.13361093 0.04263378 -0.073705025 -0.28644663 -0.12197624 0.10113804 -0.25505334
0.054077417 -0.16691901 -0.0057806955 0.11829461 0.12569636 0.045684636 0.41133487 0.26952723
0.6736072 0.17265888 0.19618288 0.37953806 0.11866552 0.42962095 0.56600094 0.19922867
0.16815087 -0.038391467 -0.19972888 -0.14710812 -0.17351364 -0.080578856 -0.01260522 0.082925506
0.0011961781 0.021443048 -0.14121816 -0.20963106 -0.11109221 -0.27904117 0.008033488 -0.047198355
-0.10103351 -0.103550196 0.05360114 -0.017373644 0.17773457 0.21866295 0.20112565 0.042754687
0.01100687 0.2929739 -0.008250261 -0.11677192 0.1291179 -0.2134069 -0.058801625 -0.045138404
0.026424922 -0.11307727 -0.1820184 -0.19700669 0.10480001 -0.05693422 0.24751657 -0.026274214
-0.030914003 0.26639643 -0.0639625 0.17860597 0.05660871 0.049880747 -0.34853482 0.010099083
0.23392124 0.17513275 -0.18487976 -0.26180312 0.032254644 -0.11242622 -0.12996994 -0.01491677
0.10604383 0.07984714 -0.23547533 -0.1469491 0.045534424 0.08197041 0.048446223 -0.14938158
0.06378181 0.3235655 0.023135757 0.2131873 -0.27592525 -0.062189974 0.26334366 0.250334
-0.061293244 -0.022542026 -0.087822884 -0.20183422 -0.010341319 -0.014037022 -0.23992263 -0.07916611
-0.11060568 -0.026738785 -0.24219653 -0.07139154 0.0013342289 -0.24756074 -0.10828134 -0.22531527
-0.085693926 -0.056017634 -0.27593264 0.58743536 0.31270468 0.32202953 0.3551621 0.33525935
0.36626163 0.15230416 0.23647642 -0.23625606 0.022327917 -0.085005075 -0.28559357 0.016020935
-0.14201245 -0.20254704 -0.008453915 -0.2836436 -0.12508786 -0.0027350688 0.39094156 -0.007564124
0.1518363 0.13453588 0.17554502 0.36422268 0.27922803 0.1541369 0.3617524 -0.1911425
-0.14951529 0.14642917 0.1988046 -0.29739428 -0.2937575 -0.13451606 -0.124667585 -0.13911283
0.1179321 -0.049717616 0.1439404 0.20020841 0.07846073 0.10729749 -0.10463144 -0.046370566
00000000: 853a a83e 37e0 9dbd c634 843d bd9c 95bc
00000010: f89a a13e 320c 773e 865a 18be d4ba b23d
00000020: 6242 1e3e 3931 9f3e 15d9 a4be 124f f33e
00000030: b6dc 3abe fd71 25be f861 b6bc a08d 8cbe
00000040: 187d 45be 9d09 42be a20f 5c3d 871e 02be
00000050: 25e0 1d3e 4646 b5bd 01d4 813e 3c12 28be
00000060: ff66 9f3a cd2a 60be 0c56 a5be bec4 81be
00000070: dd3e 513d 31a4 a3be d810 26be c5a7 72be
00000080: 08a6 d7be e568 1d3e aca2 54bd b5bb 73be
00000090: c878 66be ea24 86be 01e9 ddbb d07f 20be
000000a0: e9d8 273e 5a5c 70be ac6e 69be 3c57 53bc
000000b0: a984 a03e 0036 fdbd 143c 58be 590e a2be
000000c0: 4bc3 d8bd cf0e 11be d97f ad3c 26a5 19be
000000d0: 2216 2cbe 8938 7dbd eceb c13d 53d4 833e
000000e0: 9eef 203e b457 03be f1d7 303e a66e c83b
000000f0: 996a 293d 4839 17be 50ee 35be 26d8 b83d
00000100: b486 603e 30d1 bbbd dfd3 313e 072b afbe
00000110: 6f92 52be bc7f 2ebe 4619 26be 7d60 d9bd
00000120: 40fe ff3c d6bc d9bd decb 1fbe 6d60 1b3d
00000130: f703 5c3e 96fa 963e e672 013d b05f 94be
00000140: b43a a93e 7952 a23e f9c5 92be 194d 0dbc
00000150: d36d 273e 61d7 883e 3c75 9abe ff96 73bd
00000160: 046a 40bd c09b b33d c3cb 423e 5465 0f3f
00000170: 1a0b 8f3d 24ee f83e 647e 5a3e 2820 123e
00000180: 51fb 823e 4ed1 083e c2a0 2e3d a9f2 96bd
00000190: 22a9 92be aece f9bd 7621 cf3d 5a96 82be
000001a0: 4880 5d3d d1ec 2abe fd6b bdbb 7244 f23d
000001b0: 8cb6 003e d01f 3b3d 7c9a d23e 79ff 893e
000001c0: 8571 2c3f 7dcd 303e 2ae4 483e d052 c23e
000001d0: e806 f33d 47f7 db3e 70e5 103f 9a02 4c3e
000001e0: be2f 2c3e 5f40 1dbd ba85 4cbe 83a3 16be
000001f0: 8fad 31be 8706 a5bd 2086 4ebc d9d4 a93d
00000200: 14c9 9c3a 55a9 af3c 7e9b 10be 86a9 56be
00000210: 5084 e3bd 7cde 8ebe e49e 033c 1053 41bd
00000220: a8ea cebd 2012 d4bd de8c 5b3d 2c53 8ebc
00000230: 0d00 363e 2ee9 5f3e e2f3 4d3e 8a1f 2f3d
00000240: 2956 343c ad00 963e 1a2c 07bc 1e26 efbd
00000250: 7c37 043e 5787 5abe f9d9 70bd 0ce3 38bd
00000260: 1479 d83c 0e95 e7bd 0863 3abe 1fbc 49be
00000270: 63a1 d63d db33 69bd fc74 7d3e 053d d7bc
00000280: 5d3f fdbc 1d65 883e c5fe 82bd 7ce4 363e
00000290: 89de 673d c14f 4c3d 2873 b2be a076 253c
000002a0: 0d89 6f3e 0056 333e 1f51 3dbe 0f0b 86be
000002b0: 721d 043d b83f e6bd d716 05be 7865 74bc
000002c0: 822d d93d e686 a33d 7220 71be d379 16be
000002d0: 4e82 3a3d 1ae0 a73d 8c6f 463d 7cf7 18be
000002e0: 0aa0 823d 61aa a53e 3387 bd3c c64d 5a3e
000002f0: 1346 8dbe eaba 7ebd fbd4 863e c72b 803e
00000300: a00e 7bbd 0eaa b8bc 7cdc b3bd a1ad 4ebe
00000310: a36e 29bc 8afb 65bc 47ae 75be d721 a2bd
00000320: 3b85 e2bd 4c0b dbbc 5e02 78be ba35 92bd
00000330: 4be1 ae3a 9080 7dbe 9bc2 ddbd 0cb9 66be
00000340: 4c80 afbd bf72 65bd 0b47 8dbe 2a62 163f
00000350: d41a a03e 0ee1 a43e cfd7 b53e 1da7 ab3e
00000360: a586 bb3e 9ff5 1b3e e026 723e 1ced 71be
00000370: 09e9 b63c 2417 aebd 5239 92be 563e 833c
00000380: b66b 11be 7e68 4fbe 4a82 0abc bc39 91be
00000390: 0817 00be d73e 33bb 7e29 c83e 79dc f7bb
000003a0: fa7a 1b3e c6c3 093e 13c2 333e 657b ba3e
000003b0: faf6 8e3e 10d6 1d3e 9c37 b93e dcba 43be
000003c0: 891a 19be 87f1 153e 6f93 4b3e 1044 98be
000003d0: 6267 96be 94be 09be b851 ffbd 9873 0ebe
000003e0: 6386 f13d b3a4 4bbd 1d65 133e 6f03 4d3e
000003f0: 05b0 a03d c9be db3d 0249 d6bd 10ef 3dbd

Mixer_Block.0.mlp_block_token_mixing_DynaMixerOperation.fc_Nd.bias f4 [100]
-0.18912534 0.2757896 0.22443537 -0.014413845 -0.19290128 0.26430643 -0.29114813 -0.16227107
-0.37287435 -0.14193209 0.30606848 -0.775546 0.1563458 -0.15220593 0.19371735 0.040194582
-0.21996619 -0.12471202 -0.14946535 0.09920069 0.33273873 -0.20007381 -0.019952603 0.07754474
-0.2591944 -0.23347488 -0.17977011 -0.20435861 0.024541747 0.53746855 0.42102116 0.396348
0.03337338 -0.027428227 -0.2861298 -0.32090774 0.0029216579 -0.07139051 0.10212164 0.11429203
0.4871488 -0.5684081 -0.030430876 -0.13146119 -0.25431994 -0.12980299 0.035151683 0.10528538
-0.16328909 0.23450164 -0.10215244 -0.6016759 0.21936117 -0.28379804 0.059291102 0.15477899
0.18543904 0.012881459 -0.06567327 0.010769214 0.13240314 -0.16481678 -0.19330783 0.02999503
0.20458472 -0.48745006 -0.0195565 -0.32083857 0.20852822 -0.5788595 -0.012759049 -0.32527333
0.42746285 -0.31591812 0.20782371 -0.3874288 0.18341814 -0.42530453 0.27239722 0.2388751
-0.38352928 0.46980456 -0.22842044 0.20382705 -0.08761567 0.079734586 -0.09425492 -0.14700443
0.033142917 0.14936103 -0.31412622 0.44068813 0.15819158 0.34299675 0.014183208 -0.25142294
-0.18979016 -0.2518468 -0.12539238 -0.062402204
00000000: 13aa 41be 4b34 8d3e 63d2 653e 0c28 6cbc
00000010: ea87 45be 2c53 873e 5e11 95be 632a 26be
00000020: 63e9 bebe a556 11be 02b5 9c3e 2f8a 46bf
00000030: 1d19 203e dfdb 1bbe d75d 463e 13a3 243d
00000040: d13e 61be 0469 ffbd 720d 19be bb29 cb3d
00000050: bb5c aa3e 26e0 4cbe a473 a3bc c7cf 9e3d
00000060: 21b5 84be 0a14 6fbe a815 38be 6243 51be
00000070: c60b c93c 8a97 093f 1690 d73e 20ee ca3e
00000080: 86b2 083d 29b1 e0bc 9b7f 92be 054e a4be
00000090: 4979 3f3b 3035 92bd 2725 d13d f111 ea3d
000000a0: 916b f93e 3183 11bf 2c4a f9bc c39d 06be
000000b0: 3936 82be 13eb 04be 36fb 0f3d dc9f d73d
000000c0: 4135 27be 3321 703e 4c35 d1bd 6f07 1abf
000000d0: 37a0 603e fa4d 91be 3adb 723d 627e 1e3e
000000e0: bbe3 3d3e c10c 533c b57f 86bd 5b71 303c
000000f0: b094 073e bbc5 28be 7df2 45be 23b8 f53c
00000100: a87e 513e 0e93 f9be f434 a0bc f444 a4be
00000110: 6c88 553e 2330 14bf 550b 51bc 3a8a a6be
00000120: 69dc da3e 05c0 a1be bdcf 543e 115d c6be
00000130: f7d1 3b3e 84c1 d9be a677 8b3e ad9b 743e
00000140: f35d c4be 398a f03e 0ce7 69be 0ab8 503e
00000150: d86f b3bd e34b a33d b908 c1bd 5488 16be
00000160: dec0 073d 19f2 183e 27d5 a0be e0a1 e13e
00000170: f9fc 213e 459d af3e b060 683c 82ba 80be
00000180: 5a58 42be 10f2 80be dc66 00be 7499 7fbd

Mixer_Block.0.mlp_block_token_mixing_DynaMixerOperation.fc_out.weight f4 [66, 66]
0.07813404 -0.034380205 0.17277053 -0.014341017 -0.06873951 -0.20110598 0.11676035 -0.066405304
0.060879827 0.13524365 0.049947772 -0.0452922 -0.019819036 0.09935827 -0.15295753 0.030630285
-0.25025797 -0.02245161 0.06115504 0.17937577 -0.08861236 0.004225114 0.009216345 -0.024740824
0.27067837 -0.30647793 0.17192079 -0.00613498 -0.11755758 0.14499536 0.30359116 -0.064263575
0.06751528 0.1479181 -0.18578638 0.080454975 -0.12167183 -0.13872507 0.12144478 0.18106106
-0.16786815 0.11949411 -0.15660183 -0.13713418 -0.027007861 0.037290357 0.185801 -0.17336953
0.00091586646 -0.15463433 0.21473509 -0.17806837 -0.13023542 0.085571356 0.070398934 -0.06922931
-0.17055112 -0.0338353 -0.040892977 -0.34142178 0.12660429 -0.08324311 0.01784746 0.16939272
0.045533847 0.056314062 0.17490335 -0.08719076 0.03933129 0.010113637 -0.0008843523 0.034475394
0.1572483 -0.0379655 -0.019301068 0.19280653 0.19596508 -0.05539921 -0.17735335 0.1802181
-0.044010323 0.12952474 -0.16394211 -0.0139336195 -0.39972016 -0.041855156 0.020532845 -0.351144
0.01251524 -0.14085375 0.12194804 -0.29125315 -0.09276427 -0.02912064 0.07743545 -0.24185634
-0.014230978 0.24275687 -0.17613384 -0.10511425 0.034287974 0.08876267 0.0024214145 0.11652816
0.11063415 -0.13656202 0.05656485 -0.13157389 0.102994435 -0.22638963 -0.055130534 0.24721865
0.10609467 0.23141555 0.07132034 -0.24384305 -0.15577729 -0.119057685 -0.0070750653 0.0071507697
0.12787308 -0.04002676 -0.2555642 0.03789886 -0.026695719 -0.047983963 0.14620149 0.0040219915
0.12946844 0.29040068 -0.015109336 -0.10272981 0.19546364 0.10142621 -0.048170395 0.12554923
0.084794894 -0.0840577 -0.16421266 0.15080024 -0.09356326 -0.057438184 0.091862366 0.18286668
-0.038762745 -0.08140654 -0.036373258 -0.19353646 -0.035806455 0.09971007 0.0061182105 -0.0035133387
0.19705446 0.07036076 0.101667084 -0.08633791 -0.33645442 0.0932569 0.15776551 -0.025252998
0.027073354 -0.14955465 -0.2255057 -0.13406464 -0.2817302 0.10262147 0.13330954 -0.10666311
-0.073243454 0.07205759 0.09873702 0.14604495 0.15947758 -0.15167132 -0.1954341 0.12577201
-0.034772806 -0.065879695 -0.15287735 -0.017972788 -0.03396455 -0.03670824 -0.056148082 0.20831311
-0.027735831 -0.19679578 -0.2109843 0.037549105 0.15754429 0.055639073 0.030419791 0.1251295
0.07060896 -0.0057685664 0.02483594 -0.15802804 -0.15254785 0.011173678 -0.1512102 -0.17012097
0.05587768 0.22850075 -0.21985288 0.14956875 0.21288946 0.1183308 0.033193164 -0.26616937
-0.14170101 0.13397808 -0.0070490646 -0.06916436 0.080336265 0.12322369 -0.14612216 -0.06391783
0.0046275933 0.016361015 -0.12871745 0.3506609 0.0370495 0.06504 0.21839224 -0.12547098
-0.024931114 0.16434394 -0.080163166 0.040046986 -0.24218613 0.114394456 -0.07417272 0.068708956
-0.21994661 0.09722324 0.12592201 0.07517811 0.14419411 -0.037489638 -0.12262785 -0.11859954
0.08667112 0.1542455 0.11809987 -0.0991136 0.058549512 0.031088734 -0.107928894 0.12305829
-0.031967 -0.13633941 0.19741061 -0.00022533364 0.15784818 -0.015920855 -0.24385661 0.021030346
00000000: bd04 a03d 42d2 0cbd c2ea 303e 96f6 6abc
00000010: 4dc7 8cbd baee 4dbe 0d20 ef3d 81ff 87bd
00000020: 205d 793d 507d 0a3e 0996 4c3d 5084 39bd
00000030: 885b a2bc 597c cb3d e6a0 1cbe 5dec fa3c
00000040: d021 80be 70ec b7bc b57d 7a3d 48ae 373e
00000050: 667a b5bd d372 8a3b 2700 173c 45ad cabc
00000060: 5b96 8a3e adea 9cbe 010c 303e f107 c9bb
00000070: 07c2 f0bd aa79 143e 4d70 9b3e 9f9c 83bd
00000080: 7345 8a3d d877 173e c93e 3ebe 94c5 a43d
00000090: 152f f9bd f20d 0ebe 0ab8 f83d 1268 393e
000000a0: a1e5 2bbe 54b9 f43d 3b5c 20be e76c 0cbe
000000b0: 973f ddbc c6bd 183d 9e42 3e3e c887 31be
000000c0: c216 703a 7658 1ebe 84e3 5b3e 8e57 36be
000000d0: 6f5c 05be 0940 af3d 512d 903d 19c8 8dbd
000000e0: f4a4 2ebe e296 0abd 657f 27bd d6ce aebe
000000f0: 8ea4 013e 5d7b aabd d634 923c 4975 2d3e
00000100: b381 3a3d 93a9 663d dd19 333e 1291 b2bd
00000110: d919 213d abb3 253c e1d3 67ba 1236 0d3d
00000120: b305 213e b681 1bbd 461d 9ebc 136f 453e
00000130: 12ab 483e 48ea 62bd 1e9c 35be 188b 383e
00000140: 2b44 34bd 22a2 043e 71e0 27be d649 64bc
00000150: 1fa8 ccbe 5070 2bbd 7f34 a83c 25c9 b3be
00000160: b90c 4d3c f73b 10be e5bf f93d 221f 95be
00000170: 32fb bdbd 698e eebc 7a96 9e3d 30a9 77be
00000180: 0c29 69bc 4295 783e 6e5c 34be 2446 d7bd
00000190: 8c71 0c3d 34c9 b53d 98b0 1e3b 51a6 ee3d
000001a0: 2894 e23d ead6 0bbe 8bb0 673d 4ebb 06be
000001b0: bfee d23d afd2 67be 8ed0 61bd e326 7d3e
000001c0: 2a48 d93d 33f8 6c3e 6610 923d feb1 79be
000001d0: 1584 1fbe 84d4 f3bd f3d5 e7bb 0151 ea3b
000001e0: 29f1 023e 1af3 23bd 50d9 82be d63b 1b3d
000001f0: fbb0 dabc d58a 44bd d8b5 153e e9ca 833b
00000200: 6093 043e 66af 943e 268d 77bc 0264 d2bd
00000210: 9f27 483e 8bb8 cf3d 524e 45bd fa8f 003e
00000220: f2a8 ad3d 7226 acbd 5d27 28be 616b 1a3e
00000230: 189e bfbd 4d44 6bbd 5622 bc3d 6741 3b3e
00000240: afc5 1ebd 79b8 a6bd 20fc 14bd 6c2e 46be
00000250: caa9 12bd cb34 cc3d 457b c83b 0b40 66bb
00000260: a5c8 493e 4d19 903d d536 d03d eed1 b0bd
00000270: c143 acbe 79fd be3d 488d 213e 60df cebc
00000280: f0c8 dd3c db24 19be f7ea 66be 3e48 09be
00000290: f13e 90be 352b d23d 4c82 083e 3072 dabd
000002a0: aa00 96bd ee92 933d a236 ca3d cf8c 153e
000002b0: 174e 233e ba4f 1bbe e01f 48be 61ca 003e
000002c0: ee6d 0ebd efeb 86bd e18b 1cbe ab3b 93bc
000002d0: 691e 0bbd 615b 16bd 88fb 65bd 0850 553e
000002e0: 4136 e3bc d584 49be 450c 58be 17cd 193d
000002f0: 4a53 213e cce5 633d ed32 f93c f321 003e
00000300: 6e9b 903d 3e06 bdbb be74 cb3c 1ad2 21be
00000310: 8135 1cbe cd11 373c d9d6 1abe 3134 2ebe
00000320: ffdf 643d 1afc 693e 1d21 61be 8d28 193e
00000330: b2ff 593e 6b57 f23d 8ef5 073d 5a47 88be
00000340: 121a 11be 8d31 093e d7fb e6bb 0ba6 8dbd
00000350: 5787 a43d b45c fc3d 0ca1 15be 5ae7 82bd
00000360: 11a3 973b 8907 863c 82ce 03be d389 b33e
00000370: 37c1 173d b133 853d 37a2 5f3e 777b 00be
00000380: 563c ccbc c749 283e 962c a4bd 4f08 243d
00000390: a4ff 77be a447 ea3d dee7 97bd 48b7 8c3d
000003a0: af39 61be fa1c c73d b3f1 003e fbf6 993d
000003b0: 9fa7 133e bc8e 19bd 4f24 fbbd 51e4 f2bd
000003c0: a180 b13d 88f2 1d3e 58de f13d 12fc cabd
000003d0: 9dd1 6f3d cdad fe3c d309 ddbd fc05 fc3d
000003e0: d4ef 02bd 8f9c 0bbe 0226 4a3e 8a47 6cb9
000003f0: f4a2 213e 746c 82bc 8cb5 79be d547 ac3c

Mixer_Block.0.mlp_block_token_mixing_DynaMixerOperation.fc_out.bias f4 [66]
0.38668716 0.32359117 0.07580111 0.4508736 -0.16247457 0.19349092 -0.27060443 0.2056363
0.272673 0.013151029 0.2732026 0.37358144 -0.184522 -0.16755092 0.031329606 0.30914772
-0.035518408 0.11655461 -0.07396341 0.21181092 -0.09842943 0.17270784 0.36752084 -0.057533085
0.31858087 0.16672157 0.18270348 0.15627679 0.19211644 0.22397068 0.18684839 -0.27061045
0.33219737 0.1996084 0.2810274 0.053561408 0.23216002 -0.07559613 -0.030755397 0.15753505
-0.1311228 -0.1672456 0.06346823 -0.20620413 -0.25526485 -0.2109514 0.39541194 -0.010750561
0.33190116 -0.23291354 -0.3323297 -0.46175253 -0.03501083 0.19102651 0.13409193 -0.3684107
-0.3373908 0.15951455 0.21987826 0.08993498 0.39985576 0.07879126 -0.044778652 -0.17541419
-0.41657317 -0.09511065
00000000: dcfb c53e bead a53e 9d3d 9b3d e8d8 e63e
00000010: bc5f 26be 7c22 463e aa8c 8abe 5292 523e
00000020: cc9b 8b3e 6a77 573c 36e1 8b3e 1146 bf3e
00000030: 56f3 3cbe 7892 2bbe 7953 003d 9c48 9e3e
00000040: c07b 11bd 2fb4 ee3d 217a 97bd f6e4 583e
00000050: 5e95 c9bd 53da 303e b12b bc3e d0a7 6bbd
00000060: 081d a33e 0fb9 2a3e 9f16 3b3e 0607 203e
00000070: 2cba 443e 9258 653e 2f55 3f3e 748d 8abe
00000080: c615 aa3e 2566 4c3e d3e2 8f3e 3563 5b3d
00000090: 5bbb 6d3e 25d2 9abd bef2 fbbc de50 213e
000000a0: 0e45 06be 6e42 2bbe a2fb 813d 2d27 53be
000000b0: 13b2 82be a503 58be 6f73 ca3e 1f23 30bc
000000c0: f3ee a93e e380 6ebe 1e27 aabe d46a ecbe
000000d0: 8467 0fbd 749c 433e 654f 093e 54a0 bcbe
000000e0: 7dbe acbe c857 233e c427 613e d52f b83d
000000f0: e5b9 cc3e 505d a13d d269 37bd c79f 33be
00000100: 1449 d5be 5fc9 c2bd

Mixer_Block.0.mlp_block_token_mixing_DynaMixerOperation.LN.weight f4 [10]
1.4136033 1.3826743 1.4089394 0.8986202 1.1894829 1.0455016 1.0391077 0.8326001
0.57194895 0.19059256
00000000: f4f0 b43f 79fb b03f 2058 b43f f90b 663f
00000010: fa40 983f ffd2 853f 7b01 853f 4825 553f
00000020: 3f6b 123f b22a 433e

Mixer_Block.0.mlp_block_token_mixing_DynaMixerOperation.LN.bias f4 [10]
-0.16067019 -0.3076318 0.002375424 -0.3467375 0.06699407 -0.120510206 0.05275271 -0.026528826
-0.001743216 -0.13128705
00000000: ba86 24be ea81 9dbe 00ad 1b3b 9487 b1be
00000010: 3034 893d 0ece f6bd 3a13 583d fb52 d9bc
00000020: 9f7c e4ba 1d70 06be

Mixer_Block.0.mlp_block_channel_mixing_DynaMixerOperation.fc_ND.weight f4 [1, 10]
-0.5193884 0.48843172 -0.12658422 0.10683822 -0.020733185 0.06074184 0.0051914714 0.11193292
-0.047576044 -0.05006029
00000000: a3f6 04bf b913 fa3e 4b9f 01be ffcd da3d
00000010: a4d8 a9bc 70cc 783d 381d aa3b 163d e53d
00000020: 19df 42bd 050c 4dbd

Mixer_Block.0.mlp_block_channel_mixing_DynaMixerOperation.fc_Nd.weight f4 [484, 22]
0.3839321 0.20919314 0.109693505 0.18171607 -0.08035483 0.08658375 0.083089635 0.13935539
-0.031894077 0.32514498 -0.0039567044 -0.058925044 -0.1303669 -0.06853743 0.21449251 -0.28642997
0.09334233 0.056707297 0.1638713 0.06423405 -0.1979592 0.19583671 -0.0042376104 0.09378379
0.064390846 -0.08941954 -0.063102596 0.23853374 0.17069626 0.07767895 -0.20556866 -0.22820343
0.23277687 0.32208985 0.058461618 -0.15153642 -0.151408 0.1135809 -0.23683283 0.06882739
0.10065081 -0.10718124 -0.08104008 -0.023061544 0.091950744 -0.0830918 0.03888691 0.016514605
-0.07155524 -0.33648455 -0.023422388 -0.33673954 -0.08466935 -0.16315517 0.047496606 -0.18691376
-0.17106576 0.21337926 0.07273626 0.26268923 0.21782057 0.027423441 -0.19308418 0.040588833
-0.123931676 0.0778262 0.31234753 0.1415283 -0.087789424 -0.19119674 -0.16209587 0.28415546
-0.29022455 0.073660925 -0.35365605 -0.15911649 0.18211465 -0.18262176 -0.16583233 -0.016077176
-0.11630004 -0.083236806 -0.12269898 0.05578492 -0.043838702 0.09497942 -0.01870053 -0.06479454
0.18492936 0.2901255 0.18661849 -0.08729272 0.059079986 0.15171196 0.36071053 0.031582836
0.0056101554 -0.13813046 0.05941339 0.19002531 -0.044992402 -0.15119092 -0.11500976 -0.22924657
-0.104249746 -0.15686333 -0.20948711 -0.12448618 -0.45152432 -0.35343388 -0.065569244 0.026475187
-0.0112907635 -0.027021825 0.42556614 -0.22109307 -0.103441924 -0.17050803 0.3790856 0.044397607
0.22346379 -0.13000062 -0.14981337 0.21290198 0.10938927 0.03300295 -0.028882675 0.045550186
-0.2638609 0.13257615 0.023187287 0.01746821 0.062184107 -0.43625477 -0.14189377 0.0061843456
-0.08720866 -0.16107185 0.11700352 -0.23664856 -0.10603077 0.04720553 -0.12792203 0.10441137
-0.06501172 -0.0103255855 -0.19914989 0.10757565 0.24136584 0.21245997 -0.07843267 -0.30993372
0.34452093 0.0853812 -0.2345619 -0.0072846147 0.11752776 -0.003981143 -0.110160574 -0.09513097
-0.1557972 0.03919769 -0.090870105 0.3490452 -0.04810634 0.2603707 -0.10056452 0.12736672
-0.0071729254 -0.018535182 -0.05905222 -0.21985318 -0.07487577 -0.098055236 -0.16971087 -0.09011368
0.006391323 -0.14029913 0.041175637 -0.10576751 0.051746324 -0.0065801353 -0.07583752 -0.30971992
-0.15296575 0.09052924 0.13519473 0.027859397 0.07495687 -0.11476568 0.06461315 -0.18185544
-0.014320195 -0.047442425 -0.06926384 0.059594397 -0.15338819 0.1870989 0.18943976 0.060115162
0.037385117 0.07779033 -0.38909832 0.23753172 0.16792561 0.06629154 -0.017362498 -0.032030147
0.1020901 -0.2656639 -0.044419028 0.13527912 0.22622201 0.15788077 0.10409933 -0.14572692
0.010377568 0.31474826 0.16162007 -0.016311007 -0.21234559 -0.13061404 0.030752944 -0.1888526
0.0030333204 -0.0765029 -0.12469321 0.0053869914 0.1250247 -0.32672694 -0.053828795 0.10177236
-0.23006758 -0.031390816 -0.17852166 0.3001965 -0.025112716 0.22410443 -0.15370813 0.017384961
0.29038435 0.16693673 0.07174372 0.13854586 0.15980376 -0.18605098 0.04152792 -0.24346094
-0.1086009 -0.072255805 0.2511292 0.29442924 -0.18530947 -0.0018583407 -0.11751545 0.027336424
00000000: c092 c43e ba36 563e fda6 e03d c713 3a3e
00000010: 1391 a4bd d252 b13d e62a aa3d 2eb3 0e3e
00000020: 5da3 02bd 6779 a63e 3ea7 81bb 635b 71bd
00000030: e77e 05be 5a5d 8cbd eda3 5b3e f3a6 92be
00000040: 432a bf3d e945 683d e1cd 273e 248d 833d
00000050: d1b5 4abe 6b89 483e a7db 8abb b711 c03d
00000060: 59df 833d 9721 b7bd ef3b 81bd 3042 743e
00000070: 00cb 2e3e 2416 9f3d 9780 52be 29ae 69be
00000080: 0f5d 6e3e f6e8 a43e 7375 6f3d 5d2c 1bbe
00000090: b30a 1bbe 1a9d e83d 4e84 72be 60f5 8c3d
000000a0: 0322 ce3d d781 dbbd 57f8 a5bd 90eb bcbc
000000b0: ac50 bc3d 092c aabd e147 1f3d a349 873c
000000c0: 8e8b 92bd b447 acbe 4fe0 bfbc 2069 acbe
000000d0: 2067 adbd 2612 27be cd8b 423d 5266 3fbe
000000e0: dd2b 2fbe 1880 5a3e c0f6 943d 347f 863e
000000f0: 5b0c 5f3e 20a7 e03c dcb7 45be 7a40 263d
00000100: e4cf fdbd 5863 9f3d 04ec 9f3e cbec 103e
00000110: f1ca b3bd 14c9 43be 76fc 25be d37c 913e
00000120: 5098 94be 8adb 963d 6812 b5be 6fef 22be
00000130: 437c 3a3e 3301 3bbe f3cf 29be 48b4 83bc
00000140: b72e eebd 0f78 aabd 9a49 fbbd ba7e 643d
00000150: 3690 33bd 9284 c23d db31 99bc 00b3 84bd
00000160: 1f5e 3d3e 548b 943e eb18 3f3e 87c6 b2bd
00000170: dbfd 713d 615a 1b3e 0daf b83e 015d 013d
00000180: 65d5 b73b 1272 0dbe 745b 733d ff95 423e
00000190: f449 38bd cbd1 1abe 3d8a ebbd 9dbf 6abe
000001a0: e480 d5bd c8a0 20be ca83 56be 9cf2 febd
000001b0: 322e e7be 49f5 b4be 2b49 86bd 7ee2 d83c
000001c0: e5fc 38bc e05c ddbc cee3 d93e 3966 62be
000001d0: 5cd9 d3bd a899 2ebe 8217 c23e 44da 353d
000001e0: b1d3 643e e21e 05be ad68 19be fa02 5a3e
000001f0: 7b07 e03d 1a2e 073d 5c9b ecbc d592 3a3d
00000200: c718 87be 0bc2 073e 44f3 bd3c 7e19 8f3c
00000210: c3b4 7e3d c95c dfbe 9a4c 11be 0da6 ca3b
00000220: 749a b2bd 05f0 24be 8b9f ef3d 0054 72be
00000230: a926 d9bd 965a 413d fefd 02be a1d5 d53d
00000240: dd24 85bd a52c 29bc f3ed 4bbe 9f50 dc3d
00000250: 9b28 773e 1b8f 593e 4fa1 a0bd a2af 9ebe
00000260: 0c65 b03e 57dc ae3d ff30 70be c7b3 eebb
00000270: 65b2 f03d 3f74 82bb de9b e1bd 07d4 c2bd
00000280: 4d89 1fbe c28d 203d 1b1a babd 0db6 b23e
00000290: 270b 45bd 4f4f 853e c5f4 cdbd 6c6c 023e
000002a0: dc0a ebbb 18d7 97bc bee0 71bd 3121 61be
000002b0: 7858 99bd 2fd1 c8bd b0c8 2dbe 858d b8bd
000002c0: 4e6e d13b 93aa 0fbe c9a7 283d a39c d8bd
000002d0: f4f3 533d 2d9e d7bb b450 9bbd 9c93 9ebe
000002e0: 0ea3 1cbe 6567 b93d 7d70 0a3e 6439 e43c
000002f0: fd82 993d 450a ebbd e653 843d 5038 3abe
00000300: 409f 6abc fd52 42bd 33da 8dbd 4119 743d
00000310: cb11 1dbe db96 3f3e 7ffc 413e 513b 763d
00000320: 2321 193d 8950 9f3d e537 c7be 843b 733e
00000330: b1f4 2b3e dcc3 873d cc3b 8ebc 0b32 03bd
00000340: 9d14 d13d 1905 88be baf0 35bd 9c86 0a3e
00000350: bea6 673e 7fab 213e 0832 d53d 7039 15be
00000360: ad06 2a3c af26 a13e bb7f 253e a99e 85bc
00000370: 1f71 59be b0bf 05be 99ed fb3c 9362 41be
00000380: acca 463b 8dad 9cbd 275f ffbd 5c85 b03b
00000390: 7a06 003e c148 a7be 957b 5cbd 076e d03d
000003a0: d696 6bbe a893 00bd 62ce 36be 5bb3 993e
000003b0: 2fb9 cdbc a27b 653e aa65 1dbe e86a 8e3c
000003c0: 42ad 943e 76f1 2a3e 5fee 923d f7de 0d3e
000003d0: 99a3 233e 2684 3ebe 2e19 2a3d d34d 79be
000003e0: 266a debd dafa 93bd 0294 803e 6ebf 963e
000003f0: c4c1 3dbe 9193 f3ba f1ab f0bd a3f0 df3c

Mixer_Block.0.mlp_block_channel_mixing_DynaMixerOperation.fc_Nd.bias f4 [484]
-0.0573115 0.22332881 0.11023393 0.057314903 0.05762558 0.05446567 0.31523263 0.06380986
-0.19068903 -0.0921059 -0.15001126 0.28791797 -0.26934606 0.08760648 0.030767392 0.008854824
0.2043554 -0.21163431 -0.26591995 -0.21075368 0.06924848 0.07898166 0.06659295 0.23758066
0.09569826 0.25279748 -0.028516673 0.27873024 -0.14723192 -0.025034862 -0.25920862 -0.053778328
-0.049260795 -0.000644949 -0.094877236 -0.12756039 0.29008627 0.013200906 0.25163117 0.06334665
-0.15157598 -0.11047425 0.09006171 0.07958712 0.209254 -0.018504428 0.017355924 0.044389486
0.15773803 0.04187721 -0.16938822 -0.035437666 -0.2196416 -0.26512593 -0.09260882 -0.5093386
-0.3311163 -0.15758397 0.01695927 0.062292367 0.049597472 0.09845053 0.32039627 0.05176385
-0.03818761 0.16981563 0.20974964 -0.1716424 -0.046786636 0.07722699 0.38393092 -0.03499555
0.06813455 -0.06176699 0.014092295 0.18164788 -0.34617555 0.012612846 0.11627486 -0.12330381
0.09985324 0.028068857 0.023951756 0.2005997 0.15141098 0.18312332 -0.021322038 -0.3469868
-0.08711834 0.3126092 -0.1331331 0.15172324 -0.009447447 0.061110497 -0.25671813 0.05345922
0.21135171 -0.02142774 -0.01344192 0.25372487 -0.12409365 0.12010969 -0.07616075 0.119187474
0.26590413 -0.11839955 -0.18484479 0.06682334 0.10258748 -0.1404213 0.25381762 0.023596978
0.0639788 -0.16650656 0.0956002 -0.16384016 0.14718701 -0.047668085 0.019705033 -0.08614123
0.19640906 0.0635365 -0.14759007 -0.15883964 -0.3118964 -0.11035095 -0.25873572 -0.20456214
0.17522663 0.122001365 -0.13228479 0.032266904 -0.11123299 -0.09287906 0.21719652 0.10635352
0.3807481 -0.22377245 0.04376851 -0.14390385 -0.004036567 -0.15129873 0.0106080845 -0.2742297
0.09586474 -0.08145146 -0.09979933 0.042317748 -0.18825892 0.26710418 0.14225239 -0.09448016
-0.14610916 0.059729714 -0.1745998 -0.32928172 0.17380397 0.10325484 0.010057325 0.0039265333
0.029924752 -0.28848624 -0.21903032 -0.07057334 0.07572378 -0.1361029 0.023863943 0.1907019
-0.1402507 0.0075720367 -0.15251176 0.016753525 0.14692354 -0.1079468 -0.073565364 0.15035056
0.12428306 -0.02945171 -0.0054201465 0.006743062 0.024777874 0.13837579 0.051123064 -0.2327029
-0.03768244 0.022027906 -0.1742152 -0.11514455 0.25054878 0.037620828 0.14444375 -0.09379171
-0.053737763 -0.13796668 0.12694992 0.30786657 -0.009408561 -0.13714224 -0.054295726 0.30960843
0.11276994 -0.0053717117 -0.08667988 0.1438374 -0.054063153 0.20726489 -0.011999859 0.08797389
-0.068581715 0.18259838 -0.21989611 0.14521532 -0.052635893 -0.01344075 -0.016446358 -0.083590515
-0.25579783 0.047147397 -0.16465457 -0.14397766 -0.2005195 -0.06197443 -0.1093602 0.019295841
-0.20252334 -0.22609799 0.006904822 0.17042543 0.082541175 0.10494472 -0.24497287 -0.10708846
0.012106003 0.027185638 -0.20119956 0.20710784 0.17768669 0.19351418 -0.16129957 -0.26356652
0.14592072 -0.12782046 -0.27870417 0.22461344 -0.25303674 -0.10010801 -0.26376098 0.1094428
-0.21068107 0.22677872 0.2013075 -0.1952834 -0.17520909 0.06836928 -0.07243021 -0.20583022
00000000: 77bf 6abd 4fb0 643e 54c2 e13d 08c3 6a3d
00000010: cd08 6c3d 6517 5f3d 2c66 a13e beae 823d
00000020: fc43 43be 05a2 bcbd 8d9c 19be fc69 933e
00000030: bae7 89be 076b b33d e60b fc3c d313 113c
00000040: 8b42 513e aab6 58be a926 88be d0cf 57be
00000050: 26d2 8d3d 23c1 a13d e261 883d 5848 733e
00000060: 73fd c33d ac6e 813e cc9b e9bc bbb5 8e3e
00000070: f7c3 16be e915 cdbc feb6 84be aa46 5cbd
00000080: b0c5 49bd cb11 29ba ff4e c2bd 319f 02be
00000090: 3086 943e 9d48 583c cdd5 803e e3bb 813d
000000a0: bc36 1bbe 5340 e2bd 4672 b83d 92fe a23d
000000b0: ae46 563e 9996 97bc 032e 8e3c c0d1 353d
000000c0: 1486 213e 7087 2b3d 1b74 2dbe 1627 11bd
000000d0: bae9 60be 96be 87be b1a9 bdbd 0464 02bf
000000e0: 1388 a9be b15d 21be 2bee 8a3c 4826 7f3d
000000f0: b826 4b3d 6ea0 c93d fb0a a43e 5506 543d
00000100: 9d6a 1cbd 26e4 2d3e 9cc8 563e 06c3 2fbe
00000110: 58a3 3fbd 2f29 9e3d 9892 c43e 7e57 0fbd
00000120: 208a 8b3d 62ff 7cbd 5fe3 663c e701 3a3e
00000130: ec3d b1be 1ca6 4e3c 8421 ee3d b586 fcbd
00000140: db7f cc3d a9f0 e53c 7936 c43c 026a 4d3e
00000150: 7b0b 1b3e ae84 3b3e 8eab aebc 41a8 b1be
00000160: 1a6b b2bd 500e a03e 0b54 08be 565d 1b3e
00000170: 77c9 1abc 004f 7a3d 8f70 83be 0ef8 5a3d
00000180: 956c 583e 3a89 afbc 803b 5cbc 3ae8 813e
00000190: d024 febd 12fc f53d 2bfa 9bbd 9018 f43d
000001a0: 9624 883e 777b f2bd f447 3dbe adda 883d
000001b0: 6219 d23d 9aca 0fbe 62f4 813e 734e c13c
000001c0: 5107 833d b280 2abe 0aca c33d b7c5 27be
000001d0: 31b8 163e 9c3f 43bd 736c a13c d06a b0bd
000001e0: 751f 493e 6d1f 823d da21 17be dca6 22be
000001f0: e3b0 9fbe aeff e1bd 0279 84be bd78 51be
00000200: 9c6e 333e dadb f93d aa75 07be 4d2a 043d
00000210: 1fce e3bd 6037 bebd c468 5e3e e0cf d93d
00000220: 6af1 c23e 9b24 65be 9c46 333d 885b 13be
00000230: 2e45 84bb 0eee 1abe 88cd 2d3c d667 8cbe
00000240: bc54 c43d 06d0 a6bd 9763 ccbd 6055 2d3d
00000250: f2c6 40be e1c1 883e 9caa 113e d07e c1bd
00000260: a49d 15be 25a7 743d 4aca 32be 9d97 a8be
00000270: abf9 313e 4677 d33d 7ac7 243c 26aa 803b
00000280: c124 f53c 78b4 93be 7c49 60be c188 90bd
00000290: 1215 9b3d 8f5e 0bbe 517e c33c 5c47 433e
000002a0: e19d 0fbe d91e f83b 0b2c 1cbe b03e 893c
000002b0: 2073 163e 3613 ddbd 70a9 96bd 7ff5 193e
000002c0: 1e88 fe3d b644 f1bc 7c9b b1bb e7f4 dc3b
000002d0: f8fa ca3c 62b2 0d3e 6b66 513d ab49 6ebe
000002e0: e758 1abd de73 b43c 7865 32be e8d0 ebbd
000002f0: ee47 803e 4c18 1a3d 10e9 133e de15 c0bd
00000300: 211c 5cbd 2347 0dbe 29ff 013e b0a0 9d3e
00000310: 5d26 1abc 046f 0cbe 3265 5ebd ff84 9e3e
00000320: edf3 e63d 2f05 b0bb 3985 b1bd 1d4a 133e
00000330: 5371 5dbd 3f3d 543e 0e9b 44bc a82b b43d
00000340: 9274 8cbd 12fb 3a3e 722c 61be 53b3 143e
00000350: bc98 57bd 9736 5cbc 83ba 86bc 8131 abbd
00000360: eff7 82be a11d 413d 359b 28be e16e 13be
00000370: fc54 4dbe e6d8 7dbd 3ef8 dfbd 5012 9e3c
00000380: 4762 4fbe 3b86 67be d841 e23b 0184 2e3e
00000390: 590b a93d 42ed d63d 2bda 7abe 3251 dbbd
000003a0: 4258 463c 6ab4 de3c 4207 4ebe 1414 543e
000003b0: 80f3 353e 9528 463e b72b 25be 31f2 86be
000003c0: 3e6c 153e 5ee3 02be 50b2 8ebe 1101 663e
000003d0: 088e 81be 6e05 cdbd ae0b 87be 8c23 e03d
000003e0: c7bc 57be ae38 683e 8e23 4e3e 5ff8 47be
000003f0: 036a 33be 3105 8c3d 4a56 94bd 28c5 52be

Mixer_Block.0.mlp_block_channel_mixing_DynaMixerOperation.fc_out.weight f4 [10, 10]
0.30570057 0.10160442 -0.21562123 0.022491315 0.010618734 0.060966186 0.031148095 0.06907667
0.029871602 0.16387834 -0.17434299 0.028672056 0.29491103 -0.22207272 0.1890031 -0.23975888
0.04685698 0.07327154 0.05281903 0.051958267 -0.32475325 0.31534755 0.33264893 -0.09814936
0.35430998 -0.116775475 0.08716604 -0.1795133 -0.0423234 -0.11218574 0.260384 -0.049963307
0.19637555 -0.031036813 0.061210718 0.2014976 0.07566063 -0.18246143 -0.10801393 -0.16501315
-0.44163185 -0.24125496 -0.18346937 0.19054666 -0.117577374 0.23628204 0.05763051 0.35805795
-0.22671285 -0.30362624 0.3657155 -0.58880824 0.34757218 -0.1782147 0.39009652 -0.11366061
0.19441062 -0.01627487 0.011310362 -0.2525498 0.035552483 -0.33953494 0.21534087 0.045717563
0.19844794 0.2547794 0.16600974 0.042448085 -0.013853136 0.12824094 0.81015664 -0.40212876
0.16747445 -0.12023627 -0.0008264584 -0.082162306 -0.06024111 -0.14209688 0.13085455 0.019224552
0.7616715 0.7629525 -0.1427762 0.17766607 -0.22640087 -0.12552957 -0.035254505 0.18910936
0.1703882 0.15830441 0.52806354 -0.10400438 0.054719016 -0.19118586 -0.09160228 0.0043058433
-0.087616324 -0.08783548 0.010475228 -0.04865393
00000000: c984 9c3e fa15 d03d d0cb 5cbe b53f b83c
00000010: 33fa 2d3c aeb7 793d 4a2a ff3c 1278 8d3d
00000020: 4ab5 f43c b9cf 273e f886 32be a9e1 ea3c
00000030: 94fe 963e 0867 63be 078a 413e 5a83 75be
00000040: 1bed 3f3d 640f 963d c458 583d 31d2 543d
00000050: 0f46 a6be 3c75 a13e f650 aa3e 8802 c9bd
00000060: 1e68 b53e fb27 efbd 1c84 b23d 56d2 37be
00000070: 4d5b 2dbd a3c1 e5bd 0d51 853e 53a6 4cbd
00000080: ac16 493e ea40 febc 17b8 7a3d 6355 4e3e
00000090: f6f3 9a3d 2bd7 3abe 6836 ddbd 35f9 28be
000000a0: 921d e2be 8a0b 77be 65df 3bbe aa1e 433e
000000b0: 68cc f0bd ebf3 713e f80d 6c3d 5f53 b73e
000000c0: 6a27 68be e674 9bbe 103f bb3e 23bc 16bf
000000d0: fbf4 b13e ea7d 36be bbba c73e e5c6 e8bd
000000e0: 9413 473e e052 85bc 194f 393c 354e 81be
000000f0: 7b9f 113d 86d7 adbe 5182 5c3e 5742 3b3d
00000100: f035 4b3e 7272 823e 75fe 293e 0bde 2d3d
00000110: 44f8 62bc 9851 033e 6d66 4f3f d2e3 cdbe
00000120: 6c7e 2b3e 6f3e f6bd afa6 58ba b644 a8bd
00000130: 62bf 76bd d881 11be bcfe 053e cf7c 9d3c
00000140: e7fc 423f db50 433f ed33 12be 18ee 353e
00000150: a1d5 67be d38a 00be 0767 10bd e2a5 413e
00000160: 3f7a 2e3e 8d1a 223e 2c2f 073f 4000 d5bd
00000170: 0c21 603d 3ac6 43be fa99 bbbd 0818 8d3b
00000180: 3070 b3bd 17e3 b3bd 4aa0 2b3c 5849 47bd

Mixer_Block.0.mlp_block_channel_mixing_DynaMixerOperation.fc_out.bias f4 [10]
0.12236932 -0.04992405 0.3398717 -0.16800176 0.14078225 0.07590875 -0.5547273 -0.5391889
0.14000335 -0.00015338158
00000000: c49c fa3d 297d 4cbd aa03 ae3e a708 2cbe
00000010: 3929 103e 0c76 9b3d 9c02 0ebf 4908 0abf
00000020: 0a5d 0f3e 0ed5 20b9

Mixer_Block.0.mlp_block_channel_mixing_DynaMixerOperation.LN.weight f4 [22]
1.1817211 1.0431262 1.1128094 1.1592954 1.0500356 1.0072595 1.0933527 1.1459359
1.0644295 1.1629908 1.1941947 1.0688733 1.280691 1.1350667 1.1744919 1.1288735
1.0044417 1.1756624 1.2592595 1.1229008 1.0042973 1.0342933
00000000: a342 973f 2985 853f 8a70 8e3f cb63 943f
00000010: 9167 863f e1ed 803f fbf2 8b3f 07ae 923f
00000020: 3a3f 883f e2dc 943f 5fdb 983f d7d0 883f
00000030: afed a33f de49 913f c055 963f ed7e 903f
00000040: 8c91 803f 1b7c 963f 6a2f a13f 37bb 8f3f
00000050: d08c 803f b963 843f

Mixer_Block.0.mlp_block_channel_mixing_DynaMixerOperation.LN.bias f4 [22]
0.043423574 0.0074319816 0.003161313 0.08845638 0.0025203263 0.044115365 -0.123126246 0.029251916
-0.10947749 0.03134278 -0.107570186 0.04942831 -0.008587544 0.020916218 0.12255948 -0.101442985
-0.0043332814 0.021984475 -0.008809828 -0.008228096 0.031640943 0.013266726
00000000: ebdc 313d fb87 f33b 082e 4f3b 9e28 b53d
00000010: 0f2c 253b 50b2 343d 9d29 fcbd b7a1 ef3c
00000020: bc35 e0bd 4961 003d c24d dcbd 5775 4a3d
00000030: c5b2 0cbc 7d58 ab3c 7700 fb3d 57c1 cfbd
00000040: 33fe 8dbb c918 b43c 1957 10bc 23cf 06bc
00000050: ef99 013d af5c 593c
