M_2_AST/MotionMixer-main/h36m/run_for_longging/exp198/model.pt (torch, 880237 bytes, 200 tensors)

Mixer_Block.0.mlp_block_token_mixing.fc1.weight f4 [20, 10]
-0.001365358 -0.04074074 -0.30785483 0.0069064447 0.16333123 -0.22878475 0.09638782 0.27773356
0.11633236 -0.091707356 0.30543575 0.2537651 0.1635171 -0.29789904 -0.09947398 -0.11568186
-0.17761974 -0.21164742 -0.103978544 -0.2538747 -0.0054331967 -0.22205417 0.0034605355 -0.23346548
0.21081032 0.008402122 -0.041665528 0.10357235 -0.06298934 -0.30753458 0.066843964 0.002732224
0.23414709 0.290288 -0.26065484 0.057610087 0.25449333 -0.13451274 0.31386995 0.16486317
0.18493357 -0.18460482 0.23033114 -0.25608492 0.15656652 0.16621506 0.09671213 -0.034464367
0.14376155 0.13805825 0.13603741 -0.22566187 -0.10020606 -0.080385394 -0.19086461 0.24068429
0.28543857 -0.18856952 0.19345957 0.1400548 -0.28988215 -0.016730923 -0.28981483 0.19749857
-0.12120296 -0.11637477 -0.09107789 0.08671484 0.064688094 -0.12102292 0.02248564 0.25945655
0.021280572 -0.17062463 0.0024328697 -0.1499215 0.0042504445 -0.04967319 0.055417463 -0.18075235
0.1234749 -0.08874808 0.039952792 -0.168884 0.17767082 0.095638774 -0.082379766 -0.084398985
0.23685052 0.12745084 -0.28349692 0.0003724492 -0.029183807 -0.20476899 -0.11739512 -0.2223149
-0.23851442 0.060339823 -0.23637956 -0.1795995 -0.000860516 -0.14358445 -0.13355546 -0.21412277
0.16407609 -0.21712683 -0.23969492 0.12982373 0.05589614 0.20236613 -0.1573271 -0.018770196
-0.27201802 -0.23483993 -0.048001274 0.29726452 0.024986064 0.216233 0.26255855 0.29788297
-0.01812561 -0.04685064 0.18328202 -0.2012095 -0.24572256 -0.29824463 0.013501962 0.2321955
0.0017068201 -0.043915264 -0.021121074 -0.18402621 -0.2118615 0.007408459 -0.23387314 -0.088188544
-0.06663237 -0.041447714 0.07559203 -0.13232419 -0.05429397 0.30809465 -0.18022569 -0.27296478
0.26761967 -0.21925391 0.21211682 0.037661023 -0.023116656 -0.2761185 -0.07393528 0.01933573
-0.03715882 0.24967942 -0.009664642 -0.07950961 -0.09693118 0.31310415 0.31501597 -0.049524885
0.062057197 -0.04962271 0.09747233 0.07308995 -0.24314965 0.0734175 0.21870783 -0.2594149
-0.14072028 -0.08533644 0.25383872 -0.13349141 0.285502 -0.17004304 0.117986664 -0.111621894
0.021886894 0.15328445 0.0028549663 0.040795173 0.2215724 0.24887376 0.031699497 -0.043876138
-1.9112524e-05 0.31599256 -0.23126905 -0.24132043 0.2639429 0.07813 -0.25680113 -0.049389742
0.111215405 -0.03562684 0.04350448 0.14068864 -0.28914088 0.109297365 -0.28105208 -0.15168838
00000000: d0f5 b2ba c3df 26bd 269f 9dbe 754f e23b
00000010: 4d40 273e 8d46 6abe fa66 c53d 1833 8e3e
00000020: a93f ee3d 11d1 bbbd 1362 9c3e 80ed 813e
00000030: 0771 273e 3986 98be 04b9 cbbd 9cea ecbd
00000040: f3e1 35be 1aba 58be b4f2 d4bd ddfb 81be
00000050: f508 b2bb 2b62 63be 27ca 623b 9311 6fbe
00000060: a9de 573e 0ea9 093c 79a9 2abd be1d d43d
00000070: 8e00 81bd 2c75 9dbe 7de5 883d 1d0f 333b
00000080: 41c4 6f3e a1a0 943e 8d74 85be 8ef8 6b3d
00000090: f34c 823e b5bd 09be 90b3 a03e e4d1 283e
000000a0: 3a5f 3d3e 0c09 3dbe eddb 6b3e 901d 83be
000000b0: f952 203e 4834 2a3e 0211 c63d 822a 0dbd
000000c0: 3a36 133e 245f 0d3e 644d 0b3e e813 67be
000000d0: d638 cdbd 19a1 a4bd 0372 43be f175 763e
000000e0: 0125 923e 5e18 41be 441a 463e 876a 0f3e
000000f0: 6f6b 94be 4a0f 89bc 9c62 94be 113d 4a3e
00000100: 4239 f8bd e555 eebd 0b87 babd 8d97 b13d
00000110: 317b 843d ddda f7bd ce33 b83c 7dd7 843e
00000120: 9854 ae3c 39b8 2ebe c870 1f3b 0685 19be
00000130: 5047 8b3b 1d76 4bbd 6cfd 623d 2517 39be
00000140: 69e0 fc3d 8ec1 b5bd 8aa5 233d edef 2cbe
00000150: 57ef 353e 43de c33d b9b6 a8bd 60d9 acbd
00000160: f188 723e 7982 023e 8226 91be 4945 c339
00000170: e112 efbc f6ae 51be da6c f0bd 84a6 63be
00000180: 203d 74be e426 773d 7c0d 72be eee8 37be
00000190: 4094 61ba cd07 13be c3c2 08be 0043 5bbe
000001a0: 9003 283e 7f56 5ebe 9672 75be 83f0 043e
000001b0: 5af3 643d 1139 4f3e 5b1a 21be f4c3 99bc
000001c0: f245 8bbe e179 70be fc9c 44bd 0e33 983e
000001d0: 93af cc3c 2f6c 5d3e 136e 863e 1e84 983e
000001e0: 297c 94bc 75e6 3fbd 48ae 3b3e dd09 4ebe
000001f0: b29e 7bbe 85b3 98be 5537 5d3c a8c4 6d3e
00000200: 61b7 df3a 7ee0 33bd 1a06 adbc 5e71 3cbe
00000210: 39f2 58be a9c2 f23b 717c 6fbe 329c b4bd
00000220: 8d76 88bd 14c5 29bd ffcf 9a3d fe7f 07be
00000230: 5b63 5ebd 95be 9d3e 158d 38be 0ac2 8bbe
00000240: 7205 893e 1984 60be 2735 593e 7242 1a3d
00000250: 245f bdbc 675f 8dbe 616b 97bd f765 9e3c
00000260: d933 18bd f6ab 7f3e 7258 1ebc efd5 a2bd
00000270: db83 c6bd 304f a03e c649 a13e 9bda 4abd
00000280: b02f 7e3d 2f41 4bbd 939f c73d 2fb0 953d
00000290: 39fc 78be ea5b 963d f2f4 5f3e 08d2 84be
000002a0: fa18 10be dfc4 aebd 26f7 813e f9b1 08be
000002b0: 512d 923e c31f 2ebe fea2 f13d 059a e4bd
000002c0: 254c b33c 99f6 1c3e 631a 3b3b d718 273d
000002d0: e0e3 623e c3d8 7e3e 55d7 013d 77b7 33bd
000002e0: d553 a0b7 c7c9 a13e cbd1 6cbe b41c 77be
000002f0: 8623 873e 9f02 a03d 707b 83be e64c 4abd
00000300: e7c4 e33d 73ed 11bd c131 323d af10 103e
00000310: 460a 94be 4cd7 df3d 0fe6 8fbe 3354 1bbe

Mixer_Block.0.mlp_block_token_mixing.fc1.bias f4 [20]
0.29143915 -0.027888868 0.08448561 -0.042448428 -0.033201057 -0.104523495 0.26751205 -0.06049653
-0.01733506 -0.0321634 0.26917744 -0.060244862 0.3101095 -0.024085475 -0.25749105 -0.051013816
-0.27330014 0.14778131 0.03125678 0.26404342
00000000: 8337 953e 3277 e4bc cb06 ad3d 67de 2dbd
00000010: d5fd 07bd 6a10 d6bd 57f7 883e 36cb 77bd
00000020: 4102 8ebc c5bd 03bd a0d1 893e 51c3 76bd
00000030: acc6 9e3e e74e c5bc ded5 83be ddf3 50bd
00000040: ffed 8bbe fc53 173e 1c07 003d b330 873e

Mixer_Block.0.mlp_block_token_mixing.fc2.weight f4 [10, 20]
0.1139411 -0.12580815 -0.15172157 -0.16754022 0.20106165 -0.012532216 -0.19783174 -0.023979718
-0.062452838 0.028254595 0.019169562 -0.083399475 0.094440445 -0.009656538 -0.17457867 0.051531687
-0.123366 -0.20163532 0.019123979 -0.062181402 0.029292366 0.12082481 -0.11351223 -0.16180193
-0.079278514 0.020136375 -0.04043503 0.14054148 0.21546315 0.101990335 0.009658831 0.032220956
-0.13260601 -0.09027142 0.13097432 -0.13639055 -0.21412578 -0.013739572 0.14704819 -0.13306287
-0.20211792 -0.13514604 -0.0564446 -0.013427803 0.0969056 -0.21639867 0.07322128 -0.15164547
-0.18685493 -0.059479043 0.06373601 -0.13905586 0.10262917 -0.11373892 0.011258164 0.07347081
-0.036884237 0.10213745 -0.015505719 0.0756614 -0.13788934 0.022481276 0.1918729 -0.05159177
-0.19323286 -0.121538945 -0.19167778 0.033923555 -0.028259633 0.124730684 0.0027286422 0.039870296
0.039068643 -0.09708451 -0.12219425 0.04312646 -0.16552687 0.17913924 0.12291671 0.10675232
0.1193442 0.039734058 0.1668378 -0.220569 -0.077958986 -0.15902676 -0.052247427 -0.10376891
-0.16981389 0.11541806 0.1618118 0.19307071 0.019663418 -0.21077384 -0.07981158 -0.07107499
-0.007705665 -0.19892813 0.12693849 0.13197339 -0.16246855 -0.11501078 -0.0452748 -0.18061799
0.020136507 0.13974662 -0.07541574 -0.010574038 -0.032282 -0.07280353 -0.08657559 0.14729582
-0.12452543 0.21909018 -0.033539362 0.13902597 0.16664658 0.1308219 -0.031440895 0.05915488
0.15644518 0.20930097 -0.011224125 0.17243475 0.14281198 0.17546192 -0.041327607 -0.07453899
0.06955568 -0.15350792 -0.19009168 -0.1670489 0.028696632 -0.029974014 -0.08939676 0.20228031
0.18972549 -0.103059456 0.08021944 -0.10409104 0.14791547 -0.086494535 -0.010905853 0.14955555
-0.0874779 0.16992418 0.05275946 -0.07724042 0.12337552 0.0037120888 -0.2007105 -0.0030333204
0.07063791 0.023850303 -0.01368642 -0.120849594 0.04656202 0.020353328 0.11640126 -0.18786608
-0.09447894 -0.061606616 -0.015009758 0.17300482 -0.029936561 0.06684809 -0.12757066 0.17474829
-0.1978677 -0.09374275 -0.029675253 0.15028606 -0.02611633 -0.019112865 -0.052171458 -0.07513158
0.06402149 0.16277575 -0.19405904 0.10209808 -0.122010864 -0.123570055 -0.0067739044 -0.02284769
0.07947129 0.1449059 0.05306182 0.1312464 0.11792711 -0.07106702 -0.20296212 0.031766284
0.057233755 0.119588524 0.07901397 0.0518482 -0.095732756 -0.13771684 -0.101421684 0.010914782
00000000: f459 e93d dad3 00be e65c 1bbe aa8f 2bbe
00000010: 1be3 4d3e ec53 4dbc 6794 4abe 1d71 c4bc
00000020: 8cce 7fbd 2e76 e73c 7c09 9d3c 58cd aabd
00000030: fe69 c13d 7536 1ebc c0c4 32be e412 533d
00000040: 50a7 fcbd 7d79 4ebe e4a9 9c3c edb1 7ebd
00000050: 8bf6 ef3c ff72 f73d 1a79 e8bd 68af 25be
00000060: c65c a2bd 0af5 a43c 349f 25bd 1bea 0f3e
00000070: 5fa2 5c3e 4fe0 d03d 1340 1e3c 1ffa 033d
00000080: dfc9 07be 39e0 b8bd 221e 063e f7a9 0bbe
00000090: ca43 5bbe f11b 61bc cd93 163e a241 08be
000000a0: 00f8 4ebe b963 0abe 7432 67bd 4a00 5cbc
000000b0: 7176 c63d 9d97 5dbe 0af5 953d f348 1bbe
000000c0: e656 3fbe 4ca0 73bd 0688 823d a964 0ebe
000000d0: 3e2f d23d f3ef e8bd 2a74 383c dd77 963d
000000e0: ed13 17bd 702d d13d b30b 7ebc 5df4 9a3d
000000f0: dd32 0dbe a72a b83c 547a 443e e451 53bd
00000100: d6de 45be 69e9 f8bd 2e47 44be 6df3 0a3d
00000110: bf80 e7bc cd72 ff3d 05d3 323b 094f 233d
00000120: 7106 203d 3ed4 c6bd fb40 fabd 5fa5 303d
00000130: e07f 29be 4770 373e c2bb fb3d f6a0 da3d
00000140: bb6a f43d 2ec0 223d 87d7 2a3e d7dc 61be
00000150: f6a8 9fbd e9d7 22be 6601 56bd cb84 d4bd
00000160: b1e3 2dbe 4e60 ec3d feb1 253e 54b4 453e
00000170: 2d15 a13c 19d5 57be 4174 a3bd c48f 91bd
00000180: ce7f fcbb d1b3 4bbe 2afc 013e 0824 073e
00000190: 285e 26be c68a ebbd 1272 39bd ecf3 38be
000001a0: 51f5 a43c bd19 0f3e 9173 9abd bb3e 2dbc
000001b0: 213a 04bd 041a 95bd 8b4e b1bd b7d4 163e
000001c0: 3007 ffbd 2d59 603e 9260 09bd d35c 0e3e
000001d0: 67a5 2a3e 2df6 053e 2bc8 00bd 634c 723d
000001e0: 2a33 203e fe52 563e 64e5 37bc bc92 303e
000001f0: 4e3d 123e 4aac 333e 2347 29bd e6a7 98bd
00000200: 3573 8e3d 2e31 1dbe 65a7 42be de0e 2bbe
00000210: 3315 eb3c 108c f5bc a615 b7bd 9222 4f3e
00000220: 6647 423e d610 d3bd 174a a43d af2d d5bd
00000230: 2777 173e 0c24 b1bd 76ae 32bc 1725 193e
00000240: 9d27 b3bd 9b00 2e3e 4e1a 583d 3a30 9ebd
00000250: 4eac fc3d 8446 733b 0e87 4dbe acca 46bb
00000260: 9caa 903d b661 c33c 023d 60bc fe7f f7bd
00000270: d1b7 3e3d 06bc a63c c963 ee3d f75f 40be
00000280: 2d7e c1bd 3857 7cbd 7deb 75bc 2d28 313e
00000290: 853d f5bc a7e7 883d e2a1 02be 37f1 323e
000002a0: d59d 4abe 33fc bfbd 8419 f3bc 97e4 193e
000002b0: eaf1 d5bc 9592 9cbc bdb1 55bd 96de 99bd
000002c0: b31d 833d b0ae 263e 6ab7 46be cc18 d13d
000002d0: d5e0 f9bd 4c12 fdbd a1f7 ddbb 142b bbbc
000002e0: d8c1 a23d 3662 143e 5a57 593d 7565 063e
000002f0: c583 f13d 968b 91bd 4dd5 4fbe 5d1d 023d
00000300: f16d 6a3d d4ea f43d 14d2 a13d c75e 543d
00000310: 890f c4bd a505 0dbe 2cb6 cfbd ead3 323c

Mixer_Block.0.mlp_block_token_mixing.fc2.bias f4 [10]
0.047746506 -0.13099338 0.069815256 0.15478738 0.14851405 0.07620616 -0.05296034 -0.16374783
0.17488335 0.17631082
00000000: d791 433d 2123 06be 4dfb 8e3d 9580 1e3e
00000010: 1114 183e fa11 9c3d f1ec 58bd 83ad 27be
00000020: 9f14 333e d38a 343e

Mixer_Block.0.mlp_block_token_mixing_DynaMixerOperation.fc_ND.weight f4 [1, 66]
0.046010267 0.020182254 0.017792767 -0.0041629877 0.021613596 0.0713444 -0.0021806804 0.08643117
0.040939804 -0.01643409 0.08396171 0.07309463 -0.08580058 0.054045264 0.091554955 0.1055725
0.02698198 -0.0015964783 0.032438155 -0.07996051 -0.08534994 0.10648582 -0.01827129 -0.043656204
-0.028632471 0.05979066 0.036261976 0.026164217 0.122212976 -0.12307432 0.04531249 0.10091895
0.03731073 -0.013084595 0.08153077 -0.009144119 0.011867622 0.089428924 -0.016464671 -0.012251293
0.06357828 -0.08532684 -0.05340344 -0.10818028 0.098541535 -0.06294492 -0.05552026 0.101979
-0.00797143 -0.09277445 -0.101631 -0.03303718 0.039292056 -0.064799584 -0.02159204 0.013432772
-0.047095794 -0.07150171 0.04714617 0.028569888 -0.07017966 0.028011043 -0.07592419 0.07100118
0.055398658 0.10354207
00000000: 4375 3c3d 4155 a53c 23c2 913c ac69 88bb
00000010: ff0e b13c 031d 923d bfe9 0ebb d302 b13d
00000020: 7fb0 273d c9a0 86bc 1ef4 ab3d a3b2 953d
00000030: 37b8 afbd 915e 5d3d 2a81 bb3d 6536 d83d
00000040: 5009 dd3c ec40 d1ba dfdd 043d 56c2 a3bd
00000050: f3cb aebd 3d15 da3d acad 95bc d9d0 32bd
00000060: a58e eabc 0de7 743d 7087 143d 5756 d63c
00000070: cc4a fa3d 640e fcbd 9799 393d 98ae ce3d
00000080: 23d3 183d c560 56bc 9bf9 a63d 37d1 15bc
00000090: 6a70 423c 8326 b73d ebe0 86bc a6b9 48bc
000000a0: 5435 823d d7bf aebd 91bd 5abd 9f8d ddbd
000000b0: 25d0 c93d 44e9 80bd 3669 63bd 5eda d03d
000000c0: 9a9a 02bc 8800 bebd ea23 d0bd fe51 07bd
000000d0: b5f0 203d a5b5 84bd cae1 b0bc 2115 5c3c
000000e0: 85e7 40bd 7d6f 92bd 581c 413d 660b ea3c
000000f0: 5bba 8fbd 6a77 e53c 247e 9bbd 1169 913d
00000100: b4e9 623d dd0d d43d

Mixer_Block.0.mlp_block_token_mixing_DynaMixerOperation.fc_Nd.weight f4 [100, 10]
0.16853689 -0.18469504 -0.22773685 -0.29862246 0.011640432 -0.2756561 0.27344927 0.22832021
0.19033918 0.13091865 -0.04029957 0.043269247 -0.1333957 -0.06715093 0.28032738 0.30144075
-0.053125996 -0.099234715 0.20026462 -0.049187724 0.014651804 -0.13946122 0.27748483 0.026395565
-0.29015192 -0.25789237 0.113269 0.23074366 -0.22840051 0.17523599 -0.27660334 -0.21561284
-0.09225966 -0.081949644 -0.26522318 -0.07436174 -0.16630961 -0.2647668 -0.288988 -0.16235
0.088105194 -0.28876948 -0.14368276 0.058347184 -0.033493172 -0.25207138 -0.006928724 -0.20057724
-0.20487238 0.27921695 -0.234637 0.09266434 0.29318157 -0.0073453165 0.2551883 0.30388433
0.2398033 -0.028333658 0.23861165 -0.2838287 0.042521372 0.19876565 0.15120775 -0.15149288
-0.14345099 0.19306198 0.10148743 -0.26771614 -0.15871923 0.121807925 -0.25439757 -0.12780201
0.233816 -0.021268621 -0.18393087 0.17031468 -0.0025516916 -0.21437135 -0.048411082 -0.14799611
-0.1861129 -0.24313273 -0.1909429 -0.09357812 -0.04897673 -0.031679668 0.22142127 0.049044926
-0.2138552 -0.038264215 -0.11567985 -0.12269253 0.14603612 -0.12219949 -0.11296497 -0.2798214
-0.2231558 -0.0889014 0.19416787 0.18776736 0.30792177 -0.2133899 0.057492774 0.20967434
-0.13353804 -0.18801557 -0.23914616 -0.039679598 -0.25235584 0.051030025 0.14446215 -0.13009089
-0.22966579 -0.085236885 -0.17549546 -0.101286426 0.23105896 -0.12329867 -0.15451157 0.2717403
-0.26272982 0.25263822 -0.20743363 -0.26192755 -0.0793874 -0.29187065 -0.1452032 0.3000303
0.18779628 0.16599333 -0.12098243 -0.02738919 -0.10284849 -0.24464008 -0.19141525 -0.1673689
0.28772745 -0.11638826 -0.19641809 0.1856787 -0.047360986 0.17156401 0.046968594 -0.15809111
0.23115781 0.04577819 -0.19085221 -0.15851034 -0.14380535 0.12288045 0.28078222 -0.044791162
0.06112762 0.013698968 0.011104754 0.042210784 0.30433592 0.07348833 -0.09263856 -0.16681992
0.047546268 0.25899446 -0.064707845 -0.075178266 -0.0051312414 0.17703132 -0.017319944 -0.024321422
0.21476755 -0.30183834 0.20178664 -0.19413812 -0.13326395 0.035345428 0.008612473 -0.030696336
-0.21623209 -0.19818093 0.19787973 0.25159746 0.30835474 -0.07025504 0.08748941 -0.09542001
0.12000667 -0.2945924 0.24829733 0.31280294 -0.0038097631 -0.11952675 0.29878345 0.1478474
0.13089968 -0.1170681 -0.104374215 -0.22936474 -0.07937567 -0.03026979 -0.065926336 -0.02475739
-0.24119873 -0.22999236 -0.25952193 0.010156705 0.07868679 0.1812582 0.09770485 0.16925663
0.116644494 0.18210511 0.23562878 -0.19377461 0.08376997 0.13006303 0.09369321 0.014924959
0.22047368 0.16758472 -0.080723315 -0.19666761 -0.13122505 -0.18499434 -0.1853588 0.2594169
0.19476402 0.17524666 -0.07893431 -0.008424816 -0.03997345 0.050595 0.17389284 0.23719223
-0.28243482 0.064852454 0.26606867 -0.2228856 0.31187588 -0.240524 -0.17956088 -0.12442404
-0.2792623 0.25707176 -0.10655968 0.13245432 -0.18237099 -0.1845519 0.10770963 -0.043762214
-0.2125738 0.17186134 -0.2332454 -0.24353202 -0.008105143 0.18352728 0.034580212 -0.23319417
00000000: ef94 2c3e b220 3dbe d933 69be 0be5 98be
00000010: 83b7 3e3c cc22 8dbe 8b01 8c3e c6cc 693e
00000020: 46e8 423e 8a0f 063e 2911 25bd 183b 313d
00000030: e298 08be 6d86 89bd 1287 8f3e 7156 9a3e
00000040: a59a 59bd 923b cbbd 2b12 4d3e 1179 49bd
00000050: 1f0e 703c ecce 0ebe 7e12 8e3e 833b d83c
00000060: cb8e 94be 780a 84be 94f9 e73d 1148 6c3e
00000070: d3e1 69be 1071 333e f49e 8dbe 9dc9 5cbe
00000080: a2f2 bcbd 37d5 a7bd 55cb 87be f84a 98bd
00000090: 114d 2abe 848f 87be 3cf6 93be 143f 26be
000000a0: 7f70 b43d 98d9 93be 9321 13be 75fd 6e3d
000000b0: 2330 09bd 800f 81be 590a e3bb 1f64 4dbe
000000c0: 11ca 51be 86f5 8e3e af44 70be cdc6 bd3d
000000d0: e51b 963e fbb0 f0bb 0aa8 823e ba96 9b3e
000000e0: ff8e 753e fd1b e8bc 9d56 743e ff51 91be
000000f0: e42a 2e3d 3989 4b3e 34d6 1a3e f320 1bbe
00000100: d1e4 12be 0ab2 453e a4d8 cf3d 1712 89be
00000110: 4b87 22be 6f76 f93d 6640 82be 88de 02be
00000120: 766d 6f3e 883b aebc 6058 3cbe f966 2e3e
00000130: 483a 27bb 2a84 5bbe b34a 46bd 4b8c 17be
00000140: 6194 3ebe c9f7 78be 8986 43be e3a5 bfbd
00000150: d39b 48bd 8ac2 01bd 42bc 623e 55e3 483d
00000160: dcfc 5abe f0ba 1cbd 8fe9 ecbd 3946 fbbd
00000170: 7e8a 153e ba43 fabd 2e5a e7bd c044 8fbe
00000180: f482 64be f011 b6bd f1d3 463e 1646 403e
00000190: eca7 9d3e e282 5abe 8b7d 6b3d dfb4 563e
000001a0: 32be 08be 2787 40be bbe2 74be 1387 22bd
000001b0: c934 81be dc04 513d e3ed 133e 8c36 05be
000001c0: 822d 6bbe ad90 aebd 15b5 33be 426f cfbd
000001d0: b89a 6c3e 0384 fcbd 4838 1ebe 8b21 8b3e
000001e0: 8684 86be cc59 813e 7b69 54be 5e1b 86be
000001f0: dc95 a2bd 1270 95be 26b0 14be 929d 993e
00000200: ab4d 403e 28fa 293e a3c5 f7bd 4b5f e0bc
00000210: 3ba2 d2bd ee82 7abe 5c02 44be c162 2bbe
00000220: 0351 933e f85c eebd d321 49be 8f22 3e3e
00000230: 98fd 41bd 7aae 2f3e 2462 403d a3e2 21be
00000240: a2b4 6c3e e981 3b3d c36e 43be 8950 22be
00000250: b641 13be bfa8 fb3d b0c2 8f3e f076 37bd
00000260: f560 7a3d a371 603c b7f0 353c 37e5 2c3d
00000270: ebd1 9b3e 0d81 963d 49b9 bdbd d7d2 2abe
00000280: e0bf 423d ec9a 843e 8c85 84bd 10f7 99bd
00000290: f923 a8bb b347 353e 8ee2 8dbc b83d c7bc
000002a0: 06ec 5b3e 8e8a 9abe 28a1 4e3e 25cc 46be
000002b0: 5876 08be 5ec6 103d 541b 0d3c e276 fbbc
000002c0: f26b 5dbe f1ef 4abe fca0 4a3e 62d1 803e
000002d0: ace0 9d3e e0e1 8fbd a62d b33d 916b c3bd
000002e0: 0fc6 f53d d1d4 96be a841 7e3e b527 a03e
000002f0: 38ad 79bb 71ca f4bd 25fa 983e 4f65 173e
00000300: 910a 063e 66c1 efbd 26c2 d5bd 97de 6abe
00000310: b68f a2bd 5af8 f7bc 6304 87bd 03d0 cabc
00000320: cdfc 76be 1e83 6bbe 0fe0 84be 4f68 263c
00000330: 8a26 a13d c09b 393e 7b19 c83d 9c51 2d3e
00000340: 4fe3 ee3d c379 3a3e ac48 713e da6c 46be
00000350: 978f ab3d 3e2f 053e 3ae2 bf3d d187 743c
00000360: dac3 613e 549b 2b3e 4452 a5bd 3c63 49be
00000370: dc5f 06be 286f 3dbe b3ce 3dbe 4bd2 843e
00000380: 3870 473e dc73 333e 50a8 a1bd 3d08 0abc
00000390: 33bb 23bd b43c 4f3d f710 323e 85e2 723e
000003a0: 4c9b 90be 5dd1 843d 273a 883e 1f3c 64be
000003b0: 32ae 9f3e ec4b 76be cfde 37be 08d2 febd
000003c0: 78fb 8ebe e99e 833e f63b dabd 1ba2 073e
000003d0: 76bf 3abe 2cfb 3cbe de96 dc3d 0240 33bd
000003e0: f2ac 59be 6bfc 2f3e e2d7 6ebe 7560 79be
000003f0: 6fcb 04bc 93ee 3b3e fba3 0d3d 74ca 6ebe

Mixer_Block.0.mlp_block_token_mixing_DynaMixerOperation.fc_Nd.bias f4 [100]
-0.13228457 -0.011261461 0.14022595 -0.16269983 0.25566328 0.1616592 -0.08179003 -0.22525267
0.30044386 -0.048007797 0.29752016 -0.27545908 -0.24802911 -0.061130937 -0.1257349 0.12481409
0.0966641 0.20696805 0.082049355 -0.07771853 0.18991248 0.18519686 0.28327435 0.22665761
0.09661362 0.2179112 0.034577046 0.00663951 -0.21516322 -0.013632621 -0.16136177 0.007995029
0.001611069 0.283261 -0.24358551 0.24636462 -0.006826828 0.21105787 0.1750921 -0.22362366
0.30789292 0.20960808 -0.1623207 -0.023986934 0.25060606 0.2600044 -0.10530865 -0.056950234
0.2748376 0.027879067 -0.013428151 -0.17329432 0.0528476 0.27561513 -0.27180076 0.025357872
0.12588681 -0.07660628 -0.2048764 0.13983537 0.27123678 -0.106369644 -0.13527796 0.15947208
-0.021932056 0.14585736 -0.13134146 0.30030146 0.30684155 0.19476074 0.19351932 0.25518692
-0.11481436 0.1458432 -0.2574811 0.16742572 -0.251243 0.17604406 -0.22504418 0.29726103
0.044198863 -0.03925264 -0.1742605 -0.31593165 0.077679105 -0.047219962 0.031895563 0.00011169706
-0.108393155 0.13617952 -0.13306513 -0.13362995 0.08425589 0.120123275 -0.056762878 -0.03679059
0.29353034 -0.31274334 0.004327611 0.30894077
00000000: 9b75 07be fe81 38bc 6497 0f3e c99a 26be
00000010: 4ce6 823e fd89 253e 8881 a7bd a3a8 66be
00000020: c7d3 993e d3a3 44bd 9054 983e f908 8dbe
00000030: 58fb 7dbe 6f64 7abd a6c0 00be 889e ff3d
00000040: d4f7 c53d 6fef 533e 7e09 a83d e52a 9fbd
00000050: 6b78 423e 3fa4 3d3e 5609 913e ef18 683e
00000060: 5ddd c53d 1d24 5f3e a9a0 0d3d 3f90 d93b
00000070: bf53 5cbe 5b5b 5fbc 053c 25be 95fd 023c
00000080: 812a d33a 9607 913e 7b6e 79be 0247 7c3e
00000090: 95b3 dfbb 8e1f 583e 584b 333e 9afd 64be
000000a0: 24a4 9d3e 80a3 563e 6637 26be 3f80 c4bc
000000b0: 704f 803e 4c1f 853e 10ac d7bd a644 69bd
000000c0: 84b7 8c3e a462 e43c bf01 5cbc 1174 31be
000000d0: ba76 583d 6d1d 8d3e 7829 8bbe 50bb cf3c
000000e0: 79e8 003e c1e3 9cbd 1ecb 51be 0131 0f3e
000000f0: 8cdf 8a3e 54d8 d9bd 4e86 0abe a64c 233e
00000100: dbaa b3bc a25b 153e 607e 06be 1dc1 993e
00000110: 561a 9d3e 5c6f 473e ee29 463e dca7 823e
00000120: cb23 ebbd eb57 153e 90d4 83be a671 2b3e
00000130: eca2 80be e544 343e fb71 66be 9932 983e
00000140: de09 353d 60c7 20bd 5871 32be cbc1 a1be
00000150: 3916 9f3d b869 41bd eca4 023d e73e ea38
00000160: 3bfd ddbd a572 0b3e 3a42 08be 4ad6 08be
00000170: 5a8e ac3d 3103 f63d 3180 68bd bbb1 16bd
00000180: 9c49 963e e51f a0be a2ce 8d3b 7c2d 9e3e

Mixer_Block.0.mlp_block_token_mixing_DynaMixerOperation.fc_out.weight f4 [66, 66]
0.04192611 0.05843069 0.0869486 -0.009532809 -0.04039023 0.09970928 -0.040039897 0.07568944
-0.06884323 -0.049485486 0.0553866 0.059900228 0.016650908 0.024843339 -0.11194292 0.006088713
-0.023590988 -0.029787125 0.06917673 -0.08737801 -0.122245625 0.041072775 -0.022340337 -0.034939162
-0.010580992 0.0792945 -0.012035929 0.08361784 -0.06739447 0.012876068 -0.1042777 -0.041974235
-0.06828316 0.07028345 0.08448364 0.095400035 0.008430701 -0.06370663 0.008519887 0.033442624
0.01858397 -0.063653 -0.10672716 -0.11811502 0.03170993 0.09393373 -0.06600702 0.11942359
0.117689565 -0.048970986 -0.0706464 0.11799702 0.11045076 -0.026976006 -0.05411395 -0.079200126
-0.10489219 0.024776237 -0.0100255655 0.109242275 0.120902166 -0.08335648 -0.1020583 0.09981132
0.06503919 0.07932878 0.0930885 0.025751725 -0.094347365 0.107440606 -0.07372637 0.06327765
-0.10564468 0.1173523 -0.07516367 0.11237428 0.02783625 -0.014588483 0.11817479 0.09477881
-0.038686194 -2.0499088e-05 0.034452833 0.0027918525 0.04848831 0.11384311 0.06925873 0.073643275
0.10656774 -0.06592165 0.0063416725 0.11742203 -0.06318412 -0.039428417 0.122683756 -0.069451846
-0.078058474 0.011854445 -0.028663594 0.016391668 0.012162752 0.042442005 0.101390556 0.0785546
0.058564674 -0.073217094 -0.046212822 0.022478387 -0.033101816 -0.08397194 -0.06810925 -0.006327747
-0.10921883 0.05903228 -0.09140355 0.03675156 -0.09806471 -0.044368096 0.11024468 0.013617571
0.005024199 0.101760685 0.03491771 0.053130906 -0.00816929 0.029738849 0.032936413 -0.05852855
0.016986215 -0.07357194 0.09241921 0.053996198 -0.022377344 0.018829608 -0.083707005 0.11010669
0.055720836 -0.1033483 0.07777625 0.05668266 -0.09971167 -0.09253656 -0.0069370116 -0.03782394
-0.040696763 0.04341629 -0.029161192 0.055750873 0.087834425 0.09647045 0.054670114 -0.07466546
-0.09791845 0.118389405 0.06005898 -0.036784448 0.010834817 -0.03706439 -0.10180741 0.08462675
0.11096326 0.098178096 0.031416636 0.027591815 -0.08478365 0.04946188 -0.12156653 -0.090960205
-0.009788909 -0.097537376 0.07918351 0.082352936 0.077682294 0.12228758 0.019948415 -0.032342866
0.04142945 -0.0908265 0.008838834 0.0633953 0.01225166 -0.098989934 0.10762994 -0.02421745
-0.11623304 -0.023814276 -0.07101114 -0.10803355 0.03447568 -0.042037394 0.010706584 0.08461849
-0.001265749 -0.09812256 0.11600321 0.06750294 -0.047109954 0.11291455 -0.12228935 -0.09972183
0.119634345 0.0034104348 0.12075775 0.073575966 0.06606954 0.074859984 -0.04734011 0.057943247
-0.00063149515 -0.0056674476 -0.0080539845 0.01790445 0.017438238 -0.11015934 -0.11327034 0.11221716
0.091582425 0.015371293 -0.027691113 0.08280908 0.089609995 0.023091687 -0.028832972 0.06072747
-0.05686432 0.102624364 -0.10785574 -0.038282786 0.023617415 -0.12023629 0.112788066 0.048003785
-0.028410107 0.10068329 0.0046843276 0.05673295 -0.049734205 -0.053014718 0.058010112 0.113499805
0.095288634 -0.023646366 -0.06575302 0.09742428 -0.09312504 -0.102968454 0.030567763 0.06904373
0.07663147 -0.08130758 -0.050650574 0.11261258 -0.0056943884 0.010281165 0.030327806 -0.063099936
00000000: b6ba 2b3d 0555 6f3d 1c12 b23d 802f 1cbc
00000010: 3a70 25bd 6134 cc3d e000 24bd 1103 9b3d
00000020: aefd 8cbd 4bb1 4abd 0fdd 623d f159 753d
00000030: 7c67 883c 4284 cb3c 5442 e5bd d483 c73b
00000040: e341 c1bc 2104 f4bc 88ac 8d3d 3ef3 b2bd
00000050: ea5b fabd ed3b 283d 1503 b7bc 5e1c 0fbd
00000060: e65b 2dbc 2865 a23d 5832 45bc d53f ab3d
00000070: 1d06 8abd 25f6 523c 8c8f d5bd 2ded 2bbd
00000080: 0bd8 8bbd c5f0 8f3d c205 ad3d 1861 c33d
00000090: ec20 0a3c 9f78 82bd ff96 0b3c 22fb 083d
000000a0: 693d 983c 815c 82bd c593 dabd 4ae6 f1bd
000000b0: 46e2 013d 5460 c03d b02e 87bd 5b94 f43d
000000c0: 3a07 f13d cd95 48bd 0faf 90bd 6ca8 f13d
000000d0: 0234 e23d c9fc dcbc 97a6 5dbd ad33 a2bd
000000e0: b7d1 d6bd 89f7 ca3c 4542 24bc 6aba df3d
000000f0: 8e9b f73d cdb6 aabd f103 d1bd e169 cc3d
00000100: 4433 853d 2177 a23d 2fa5 be3d 48f5 d23c
00000110: 3139 c1bd d209 dc3d dafd 96bd b697 813d
00000120: 3d5c d8bd 6756 f03d 69ef 99bd 7d24 e63d
00000130: d908 e43c 8804 6fbc a005 f23d 651b c23d
00000140: 6a75 1ebd 75f5 abb7 6a1e 0d3d 83f7 363b
00000150: ae9b 463d 9426 e93d 85d7 8d3d 49d2 963d
00000160: 3040 da3d ee01 87bd cecd cf3b f67a f03d
00000170: ad66 81bd b17f 21bd 9f41 fb3d c53c 8ebd
00000180: 1fdd 9fbd 2539 423c eacf eabc d247 863c
00000190: 4846 473c abd7 2d3d daa5 cf3d 3ce1 a03d
000001a0: 83e1 6f3d d8f2 95bd a849 3dbd 9824 b83c
000001b0: c595 07bd 7bf9 abbd dd7c 8bbd fd58 cfbb
000001c0: 1fae dfbd d5cb 713d c931 bbbd ce88 163d
000001d0: 27d6 c8bd 52bb 35bd f6c7 e13d 3c1c 5f3c
000001e0: 09a2 a43b e867 d03d df05 0f3d cb9f 593d
000001f0: 7cd8 05bc e39e f33c 55e8 063d a2bb 6fbd
00000200: ad26 8b3c e3ac 96bd 4846 bd3d 1e2b 5d3d
00000210: b150 b7bc 8d40 9a3c 946e abbd 9e7f e13d
00000220: 883b 643d 46a8 d3bd 2849 9f3d 142c 683d
00000230: a235 ccbd cf83 bdbd df4f e3bb 47ed 1abd
00000240: a6b1 26bd 48d5 313d 74e3 eebc 075b 643d
00000250: 89e2 b33d 4d92 c53d c5ed 5f3d 34ea 98bd
00000260: 7889 c8bd 2576 f23d 6800 763d 4aab 16bd
00000270: 8484 313c d4d0 17bd 6780 d0bd ca50 ad3d
00000280: b540 e33d 9911 c93d bbae 003d 3b08 e23c
00000290: 0da3 adbd 8a98 4a3d dff7 f8bd 5849 babd
000002a0: a961 20bc adc1 c7bd f72a a23d a8a8 a83d
000002b0: e517 9f3d e971 fa3d dc6a a33c f479 04bd
000002c0: edb1 293d 3e03 babd c2d0 103c 65d5 813d
000002d0: 30bb 483c 3cbb cabd 166d dc3d ac63 c6bc
000002e0: 970b eebd 2816 c3bc 4a6e 91bd b240 ddbd
000002f0: 5f36 0d3d 672f 2cbd ab6a 2f3c 754c ad3d
00000300: 7de7 a5ba 7bf4 c8bd 1793 ed3d fb3e 8a3d
00000310: 5ef6 40bd be3f e73d d772 fabd f53a ccbd
00000320: da02 f53d 9a81 5f3b d74f f73d ffae 963d
00000330: 784f 873d 3150 993d b4e7 41bd e655 6d3d
00000340: ec8a 25ba ffb5 b9bb dcf4 03bc 5aac 923c
00000350: a3da 8e3c 389b e1bd 48fa e7bd 1cd2 e53d
00000360: 918f bb3d e0d7 7b3c 79d8 e2bc cf97 a93d
00000370: 7285 b73d c72a bd3c 2033 ecbc 5ebd 783d
00000380: 90ea 68bd b92c d23d 78e3 dcbd 69ce 1cbd
00000390: 4f79 c13c 723e f6bd 6efd e63d 9e9f 443d
000003a0: 50bc e8bc 0a33 ce3d fd7e 993b cf60 683d
000003b0: 18b6 4bbd f625 59bd 039c 6d3d 9672 e83d
000003c0: b026 c33d 06b6 c1bc 85a9 86bd 6286 c73d
000003d0: 57b8 bebd 20e1 d2bd 3f69 fa3c cd66 8d3d
000003e0: f6f0 9c3d 9784 a6bd fa76 4fbd 6da1 e63d
000003f0: fe97 babb 5572 283c 0572 f83c 8a3a 81bd

Mixer_Block.0.mlp_block_token_mixing_DynaMixerOperation.fc_out.bias f4 [66]
-0.062165413 -0.10605298 0.0867243 0.09599275 0.112642504 0.052881848 0.06957753 0.0015245482
0.120808005 -0.055563252 0.053568754 0.063353054 -0.041080423 -0.061811615 0.085765615 -0.051171504
-0.069061264 0.026703635 0.005174633 0.021522664 0.11139822 -0.088527516 0.031540684 -0.10124661
-0.06925239 -0.025168903 -0.104861975 0.030129036 0.121342964 -0.0882447 0.023131158 -0.059190992
0.113668144 0.040815238 0.076099835 -0.0001621585 -0.040393826 0.07426953 -0.11740639 -0.006200233
-0.034191318 -0.06419291 -0.09112078 -0.11636518 0.114859775 -0.020812443 0.025523007 0.050191246
-0.0021489265 0.10714609 0.0054246574 -0.03855573 0.06586477 -0.026491027 -0.017779635 -0.045429002
0.10986855 -0.026898501 0.08295577 -0.022031369 -0.11525786 -0.11726555 0.10671796 0.016347634
-0.11858873 0.020820778
00000000: 29a1 7ebd 4e32 d9bd 839c b13d d997 c43d
00000010: 1db1 e63d a39a 583d aa7e 8e3d 59d3 c73a
00000020: 306a f73d 4b96 63bd e96a 5b3d 3fbf 813d
00000030: f243 28bd 2d2e 7dbd e2a5 af3d 3699 51bd
00000040: fe6f 8dbd 95c1 da3c f88f a93b 4c50 b03c
00000050: c024 e43d ea4d b5bd ce30 013d 625a cfbd
00000060: 32d4 8dbd 042f cebc e0c1 d6bd 2bd1 f63c
00000070: a982 f83d a3b9 b4bd 8e7d bd3c 4172 72bd
00000080: d8ca e83d e12d 273d 3bda 9b3d 1709 2ab9
00000090: ff73 25bd a01a 983d c372 f0bd 532b cbbb
000000a0: 320c 0cbd 9377 83bd 889d babd de50 eebd
000000b0: 9a3b eb3d db7e aabc a015 d13c 5695 4d3d
000000c0: 01d5 0cbb 696f db3d 53c1 b13b 9dec 1dbd
000000d0: 1ce4 863d b603 d9bc 99a6 91bc c313 3abd
000000e0: c302 e13d 3f5a dcbc b7e4 a93d 217b b4bc
000000f0: 500c ecbd ec28 f0bd f28e da3d 79eb 853c
00000100: a6de f2bd 5690 aa3c

Mixer_Block.0.mlp_block_token_mixing_DynaMixerOperation.LN.weight f4 [10]
1.0 1.0 1.0 1.0 1.0 1.0 1.0 1.0
1.0 1.0
00000000: 0000 803f 0000 803f 0000 803f 0000 803f
00000010: 0000 803f 0000 803f 0000 803f 0000 803f
00000020: 0000 803f 0000 803f

Mixer_Block.0.mlp_block_token_mixing_DynaMixerOperation.LN.bias f4 [10]
0.0 0.0 0.0 0.0 0.0 0.0 0.0 0.0
0.0 0.0
00000000: 0000 0000 0000 0000 0000 0000 0000 0000
00000010: 0000 0000 0000 0000 0000 0000 0000 0000
00000020: 0000 0000 0000 0000

Mixer_Block.0.mlp_block_channel_mixing_DynaMixerOperation.fc_ND.weight f4 [1, 10]
0.26146066 -0.28303382 0.22817421 -0.15697218 -0.30101883 0.057978842 0.2763423 0.02552506
-0.14855008 -0.00235936
00000000: 2cde 853e cfe9 90be 80a6 693e 51bd 20be
00000010: 241f 9abe 397b 6d3d bd7c 8d3e ee19 d13c
00000020: 831d 18be 7e9f 1abb

Mixer_Block.0.mlp_block_channel_mixing_DynaMixerOperation.fc_Nd.weight f4 [484, 22]
-0.11459577 0.061659973 0.15202229 0.048421953 -0.05308148 -0.018273622 -0.01148059 -0.17007186
-0.13780664 -0.036385752 0.15899481 0.059796613 0.14059645 -0.022022206 0.0051429295 -0.11619359
0.15759405 0.107701614 0.20419036 0.119248234 0.13698676 0.15500209 -0.18281218 0.014808523
0.07952103 0.21271175 -0.14786111 -0.18549447 -0.0022107677 -0.12640697 0.08608512 0.026215943
0.059658658 0.085219085 0.021343408 0.047684647 -0.1855515 0.13384207 -0.050330836 -0.047886066
0.14198235 -0.16617441 0.16413598 -0.0031093075 0.16986273 0.18305801 0.17159393 -0.1289271
-0.13659698 -0.14951108 -0.07597795 0.14697957 -0.1937041 -0.18428995 -0.12675732 -0.06951309
0.13595708 0.0010008118 0.078185774 -0.11271149 0.18939622 0.07057014 0.17732199 -0.20560822
0.12408351 -0.17657626 0.19952057 0.1520524 -0.14341165 -0.10871292 0.13038495 0.10807946
-0.0326419 0.028428845 0.08265397 -0.16553074 0.08037057 -0.1728075 0.20700671 -0.027336512
-0.1450105 -0.002923495 0.03494721 -0.009580705 -0.1228049 -0.20054707 -0.07025486 -0.12279314
-0.13685523 -0.09194662 0.011391484 -0.17035894 0.059996556 0.008115145 -0.09212641 -0.18413043
0.054946367 0.13622406 0.1886823 -0.08810519 -0.060059104 -0.081556685 0.20126687 -0.00065912574
0.090642445 -0.018315075 0.1928956 0.10707108 -0.16941702 0.068154424 -0.022173885 -0.1829753
0.1333897 0.018035632 0.062007736 -0.059108436 0.16158727 0.120099425 0.13176483 -0.033062626
-0.21072568 -0.15059923 -0.1618497 -0.14042845 0.08408639 -0.02735969 0.025362082 -0.08838296
-0.01795997 0.21045351 -0.1502079 0.09073112 -0.03294686 -0.018012427 -0.10621893 -0.012890288
-0.20247337 -0.044573307 -0.16121495 -0.17040932 -0.14032757 0.1324167 0.0849126 0.051747393
4.320636e-06 0.03724406 0.079759955 -0.11855078 0.043237012 -0.1344774 -0.18622854 0.012346624
0.18213949 0.027789848 0.0200187 0.03737261 -0.0010837426 -0.07940376 0.17601424 0.081697255
0.015049335 0.13043222 -0.06747382 0.20586474 -0.1193256 0.010017954 0.19161937 -0.117263615
0.10878172 0.20013903 -0.051205713 0.08641493 -0.1687306 -0.20970324 -0.062975205 -0.038029578
0.19675875 0.20456237 -0.016675876 -0.06527937 0.0011355903 0.12376896 0.08563005 -0.099802345
-0.03875491 0.15851352 0.15238449 -0.19103657 -0.15806368 -0.13150688 -0.064051345 0.03735096
0.07559771 -0.10459368 -0.06256243 0.0015326821 0.07887126 0.049424518 0.0016369619 0.017787626
0.10680628 0.11579188 0.069791995 -0.18371873 0.09248835 0.03388009 0.036126085 -0.03439501
0.1419291 -0.056594387 -0.18371642 0.18177709 -0.062646195 0.17945111 0.08359323 -0.05470431
0.1684373 -0.18858047 0.06968464 0.18063936 0.086341 0.19895057 0.13854764 -0.094736196
-0.116052665 0.028731238 -0.20040663 0.028830258 -0.12941664 -0.15819976 0.19063762 -0.14035627
-0.044765297 0.032468487 -0.040004767 -0.10240693 0.20073777 0.13526818 0.11749373 0.09598661
-0.14755455 -0.1321758 0.10710796 0.19009271 -0.014955348 -0.13586494 -0.17350131 -0.13363159
-0.08132258 -0.035329614 0.18901542 -0.15766239 -0.00050742057 -0.0038830827 -0.034715064 0.10233236
00000000: 30b1 eabd 2b8f 7c3d bbab 1b3e 1956 463d
00000010: f76b 59bd 90b2 95bc 1619 3cbc 5127 2ebe
00000020: 2f1d 0dbe 3a09 15bd 89cf 223e 4bed 743d
00000030: 84f8 0f3e ea67 b4bc 0586 a83b e8f6 edbd
00000040: 5660 213e aa92 dc3d 4717 513e 6b38 f43d
00000050: 4246 0c3e deb8 1e3e 1e33 3bbe 729f 723c
00000060: ecdb a23d 1cd1 593e e768 17be 43f2 3dbe
00000070: 87e2 10bb d470 01be 654d b03d d1c2 d63c
00000080: a35c 743d 5887 ae3d 5fd8 ae3c fa50 433d
00000090: 3601 3ebe e50d 093e b527 4ebd 2e24 44bd
000000a0: d263 113e a029 2abe 4313 283e 86c5 4bbb
000000b0: 7ff0 2d3e 8f73 3b3e 52b6 2f3e 7705 04be
000000c0: 14e0 0bbe 6f19 19be 549a 9bbd d081 163e
000000d0: 5e5a 46be 81b6 3cbe accc 01be e15c 8ebd
000000e0: 5538 0b3e ac2d 833a dd1f a03d 48d5 e6bd
000000f0: 15f1 413e 1487 903d e593 353e f68a 52be
00000100: 7f1f fe3d 68d0 34be 1f4f 4c3e a0b3 1b3e
00000110: 81da 12be e1a4 debd a283 053e c458 dd3d
00000120: 83b3 05bd 9ce3 e83c 7c46 a93d e480 29be
00000130: 5399 a43d 73f4 30be 91f9 533e d2f0 dfbc
00000140: a27d 14be 1b98 3fbb ce24 0f3d 64f8 1cbc
00000150: 2381 fbbd 365c 4dbe c8e1 8fbd f87a fbbd
00000160: c723 0cbe 824e bcbd 59a3 3a3c 9372 2ebe
00000170: f3be 753d 63f5 043c c5ac bcbd b08c 3cbe
00000180: 710f 613d 527e 0b3e ef35 413e 7e70 b4bd
00000190: 8900 76bd 3107 a7bd e718 4e3e 2ec9 2cba
000001a0: bfa2 b93d 7f09 96bc 6d86 453e 1548 db3d
000001b0: a87b 2dbe 8c94 8b3d 02a6 b5bc e15d 3bbe
000001c0: 4f97 083e 76bf 933c d3fb 7d3d b01b 72bd
000001d0: 2277 253e b0f6 f53d 5ced 063e ad6c 07bd
000001e0: 79c8 57be af36 1abe eebb 25be 7acc 0fbe
000001f0: 7c35 ac3d 6e21 e0bc 24c4 cf3c 2002 b5bd
00000200: c920 93bc 2081 573e 1ad0 19be 3dd1 b93d
00000210: 49f3 06bd cc8e 93bc 4f89 d9bd c931 53bc
00000220: 2e55 4fbe 8092 36bd 8815 25be c87f 2ebe
00000230: 08b2 0fbe 3e98 073e a8e6 ad3d 13f5 533d
00000240: fbf9 9036 3a8d 183d 3059 a33d c0ca f2bd
00000250: 4b19 313d 72b4 09be b2b2 3ebe 7f49 4a3c
00000260: c682 3a3e 89a7 e33c 42fe a33c 0614 193d
00000270: 5e0c 8eba 709e a2bd 143d 343e e450 a73d
00000280: 7c91 763c 0690 053e b72f 8abd 35ce 523e
00000290: fb60 f4bd 5822 243c de37 443e e827 f0bd
000002a0: f3c8 de3d 3ff1 4c3e 15bd 51bd 50fa b03d
000002b0: b7c7 2cbe 72bc 56be 25f9 80bd e7c4 1bbd
000002c0: 207b 493e cc78 513e d99b 88bc 31b1 85bd
000002d0: 16d8 943a 957a fd3d cf5e af3d 2c65 ccbd
000002e0: 78bd 1ebd 5e51 223e ae0a 1c3e 179f 43be
000002f0: 72db 21be bda9 06be 5a2d 83bd 52fd 183d
00000300: f9d2 9a3d 3635 d6bd bb20 80bd 47e4 c83a
00000310: 4187 a13d 5d71 4a3d 548f d63a 5bb7 913c
00000320: 40bd da3d 4b24 ed3d 1bef 8e3d c320 3cbe
00000330: 886a bd3d d9c5 0a3d f2f8 133d c8e1 0cbd
00000340: dd55 113e 84cf 67bd 2820 3cbe c623 3a3e
00000350: a64c 80bd 08c2 373e ed32 ab3d a011 60bd
00000360: d47a 2c3e 3d1b 41be d2b6 8e3d 86f9 383e
00000370: 8dd3 b03d b3b9 4b3e 6fdf 0d3e 0d05 c2bd
00000380: 05ad edbd c65d eb3c 6537 4dbe 6f2d ec3c
00000390: cc85 04be 1eff 21be 8236 433e 8eb9 0fbe
000003a0: d15b 37bd adfd 043d 0adc 23bd b9ba d1bd
000003b0: 348e 4d3e be83 0a3e 8da0 f03d a194 c43d
000003c0: 8a18 17be 1859 07be 6b5b db3d aaa7 423e
000003d0: 4707 75bc 2e20 0bbe 54aa 31be b8d6 08be
000003e0: 748c a6bd c9b5 10bd 428d 413e 4072 21be
000003f0: 6b04 05ba 517b 7ebb 6231 0ebd a193 d13d

Mixer_Block.0.mlp_block_channel_mixing_DynaMixerOperation.fc_Nd.bias f4 [484]
0.16509603 0.056911547 0.093766265 -0.1330671 -0.10369267 -0.17630406 -0.18315022 -0.205809
0.07709857 0.010648004 0.13615714 0.19247705 -0.07707771 -0.12777643 0.14315584 -0.15147212
0.031132039 0.18331389 -0.024290895 0.2029094 -0.14503992 -0.034078024 0.1456011 -0.19090503
0.16102329 -0.00976052 0.07619017 0.18291429 0.046003796 -0.1843392 0.09978921 -0.18039367
0.024975233 0.15097679 0.16522087 0.063601285 -0.13645084 -0.08722525 -0.05522632 0.088858046
-0.13511424 0.1584897 0.08672924 -0.069615334 -0.09841082 0.0469232 0.14213215 -0.2028572
-0.015828524 0.12673897 0.033348422 0.17021306 -0.032152064 0.011520772 -0.152715 0.145504
0.16949451 -0.13408162 0.15907373 0.16583793 -0.08504605 -0.06712637 -0.1605613 0.021202149
0.19788271 0.027044792 -0.07179885 0.043662008 -0.15095593 -0.13707508 -0.039153527 -0.054750644
-0.018636707 0.2079784 0.0030214207 0.19778052 0.12802817 0.121221446 -0.099877656 -0.16773002
-0.13681975 -0.14807095 0.18698366 -0.09313614 -0.09663186 0.10432303 0.09924928 0.027448263
0.20881845 0.15616538 0.16093323 0.143103 -0.080569185 -0.08496551 0.14595912 -0.15783085
-0.13489652 -0.02021351 0.13419054 -0.049014922 0.18724671 0.073058724 -0.09957691 -0.17750973
0.099022195 0.03070216 0.12473615 -0.14203215 0.08067921 0.05321936 -0.14574751 -0.06789117
-0.20675068 0.056861933 -0.0786076 -0.057041876 -0.12753175 -0.057380866 -0.10776332 0.19273356
-0.13133895 0.019295884 0.17928779 0.03514146 0.05487162 0.100201294 -0.14545158 -0.07500899
0.14326128 -0.14971048 -0.17172804 0.16172084 0.09919263 -0.111698605 -0.17581812 0.1692365
-0.036336195 -0.19136903 -0.13420828 -0.1359824 0.13986473 -0.035316244 0.08345517 0.056447357
0.046571296 -0.08677331 0.03534687 -0.04648656 -0.08597184 0.00605499 -0.13993491 0.20313913
-0.042125136 0.098355286 -0.20594716 0.015610306 -0.20357017 0.075877614 -0.11181229 0.18647799
-0.07181538 -0.037245203 -0.21139766 0.07143828 -0.105939634 0.19404103 -0.1673771 0.05792158
-0.106386796 -0.16183771 0.14124739 0.009727252 -0.07346576 0.2023531 0.12478851 0.15425912
0.019922122 -0.12428404 -0.083452195 0.21085073 0.028755689 0.18745814 0.16455841 -0.14702055
-0.18644787 0.05848479 -0.15780681 -0.18692192 0.07611459 -0.18834202 0.023721054 0.013344208
0.16280603 0.063889526 -0.14059566 0.08563437 -0.15715821 -0.10190769 -0.027805556 0.038477957
-0.06964024 0.02502027 0.014142154 0.19943893 0.13613412 0.1549231 0.047619585 -0.057422217
-0.18762237 0.12713301 0.20558222 0.19217698 -0.14342788 0.15352412 -0.21215148 -0.08606829
0.2103065 -0.1719314 -0.10593877 -0.11665613 0.20777465 0.04340923 0.053181235 -0.104556695
0.19557779 -0.004982329 -0.16058035 0.19713393 0.13944758 0.17156476 0.2032962 0.08389705
0.038892053 0.064923175 -0.10982797 -0.19268677 0.0042897817 -0.18761304 -0.12604001 0.16744757
-0.0054648677 -0.14944726 -0.025468193 0.089989975 0.12994185 -0.076385796 -0.042182725 0.099661395
0.03693938 0.1804795 -0.15715426 -0.076045 0.13922767 0.108490355 0.1552648 0.056585517
00000000: ef0e 293e 151c 693d 8708 c03d be42 08be
00000010: d35c d4bd 0d89 34be bb8b 3bbe 98bf 52be
00000020: dbe5 9d3d f774 2e3c c76c 0b3e b418 453e
00000030: ebda 9dbd d3d7 02be 7297 123e 821b 1bbe
00000040: 9e08 ff3c a3b6 3b3e b3fd c6bc 7bc7 4f3e
00000050: 5885 14be 6695 0bbd 7418 153e 9c7c 43be
00000060: 4ae3 243e 97ea 1fbc 9809 9c3d e24d 3b3e
00000070: 7a6e 3c3d 6ac3 3cbe 495e cc3d 1eb9 38be
00000080: dc98 cc3c a999 1a3e a92f 293e 6441 823d
00000090: c5b9 0bbe 27a3 b2bd fe34 62bd 35fb b53d
000000a0: 635b 0abe 204b 223e 1a9f b13d 7c92 8ebd
000000b0: 9d8b c9bd 8b32 403d 178b 113e ccb9 4fbe
000000c0: d2aa 81bc dcc7 013e 5b98 083d 554c 2e3e
000000d0: e2b1 03bd 9fc1 3c3c 5261 1cbe 00ff 143e
000000e0: f88f 2d3e b14c 09be 39e4 223e 6bd1 293e
000000f0: a02c aebd 8d79 89bd 2e6a 24be 21b0 ad3c
00000100: c4a1 4a3e 0a8d dd3c 470b 93bd efd6 323d
00000110: 3194 1abe 695d 0cbe 735f 20bd 3642 60bd
00000120: 02ac 98bc 4af8 543e 0703 463b fa86 4a3e
00000130: d119 033e f342 f83d a88c ccbd 6bc1 2bbe
00000140: 7a1a 0cbe e99f 17be a578 3f3e 29be bebd
00000150: ede6 c5bd 50a7 d53d 3543 cb3d 2edb e03c
00000160: 81d4 553e d1e9 1f3e aecb 243e 9889 123e
00000170: 7501 a5bd 6602 aebd 4f76 153e 699e 21be
00000180: 5022 0abe ce96 a5bc 3f69 093e dfc3 48bd
00000190: 9abd 3f3e d09f 953d fbee cbbd 1cc5 35be
000001a0: 26cc ca3d 1983 fb3c ab75 ff3d e070 11be
000001b0: 243b a53d 8bfc 593d d63e 15be 870a 8bbd
000001c0: 73b6 53be 0fe8 683d 05fd a0bd bea4 69bd
000001d0: af97 02be 3308 6bbd 04b3 dcbd f25b 453e
000001e0: b87d 06be 6712 9e3c 3897 373e 7ef0 0f3d
000001f0: 10c1 603d 5636 cd3d 42f1 14be 509e 99bd
00000200: 16b3 123e b44d 19be 7ad9 2fbe 269a 253e
00000210: 8125 cb3d 3dc2 e4bd aa09 34be 554c 2d3e
00000220: 43d5 14bd 3ef6 43be e56d 09be f83e 0bbe
00000230: b338 0f3e c4a7 10bd 8bea aa3d 5835 673d
00000240: 8bc1 3e3d 35b6 b1bd e1c7 103d b168 3ebd
00000250: 0112 b0bd f068 c63b 194b 0fbe b403 503e
00000260: 688b 2cbd 7f6e c93d d0e3 52be 5ec2 7f3c
00000270: b374 50be b965 9b3d d8fd e4bd 16f4 3e3e
00000280: f113 93bd 6d8e 18bd a178 58be 3c4e 923d
00000290: e1f6 d8bd b1b2 463e e764 2bbe 2e3f 6d3d
000002a0: 52e1 d9bd c9b8 25be 28a3 103e 0d5f 1f3c
000002b0: 3775 96bd a735 4f3e 1e91 ff3d 1af6 1d3e
000002c0: b833 a33c a188 febd fce8 aabd 41e9 573e
000002d0: 0d91 eb3c 07f5 3f3e 0082 283e 8e8c 16be
000002e0: 31ec 3ebe bf8d 6f3d 1c98 21be 7668 3fbe
000002f0: f7e1 9b3d bbdc 40be a852 c23c aaa1 5a3c
00000300: a0b6 263e 83d8 823d 4ff8 0fbe 1361 af3d
00000310: 15ee 20be fbb4 d0bd 7ac8 e3bc 109b 1d3d
00000320: 8b9f 8ebd 4ff7 cc3c 7eb4 673c b839 4c3e
00000330: be66 0b3e 29a4 1e3e c10c 433d 8f33 6bbd
00000340: 1420 40be 282f 023e 2584 523e 0bca 443e
00000350: c2de 12be 6d35 1d3e 3d3e 59be 9244 b0bd
00000360: 965a 573e c90e 30be 6df6 d8bd 69e9 eebd
00000370: e1c2 543e e0cd 313d 91d4 593d d221 d6bd
00000380: 8b45 483e ce42 a3bb 2d6f 24be 7add 493e
00000390: 59cb 0e3e acae 2f3e e12c 503e 37d2 ab3d
000003a0: 464d 1f3d 71f6 843d 7ded e0bd ae4f 45be
000003b0: 4c91 8c3b a21d 40be a210 01be 6077 2b3e
000003c0: a212 b3bb b408 19be aca2 d0bc aa4c b83d
000003d0: 7a0f 053e 2870 9cbd cbc7 2cbd 461b cc3d
000003e0: bf4d 173d 9ecf 383e 0ced 20be 7bbd 9bbd
000003f0: b391 0e3e 3130 de3d bcfd 1e3e 37c6 673d

Mixer_Block.0.mlp_block_channel_mixing_DynaMixerOperation.fc_out.weight f4 [10, 10]
-0.06890216 -0.0764026 -0.29284507 -0.15641041 -0.24721187 -0.04788313 0.06972075 -0.2651316
0.20535447 -0.060611054 0.060482733 -0.25359857 -0.2520247 -0.23570606 0.117554694 0.23956826
-0.047397178 -0.06493652 -0.008649416 0.11675106 -0.20618802 0.29199052 0.26318032 -0.30361897
-0.21530278 -0.10472133 -0.05922274 -0.08360964 -0.29131448 -0.16685687 0.014348681 0.15935929
-0.27582386 0.050524466 0.009014891 0.21279086 0.116820805 -0.16511846 0.22779576 0.28382167
0.13309306 -0.17152444 -0.19154893 0.07651426 0.10073952 -0.040824614 0.29646835 -0.15816025
-0.019255284 -0.07166729 -0.2587726 -0.055893615 0.10405635 0.14437345 0.11833778 0.08892379
0.25205752 0.2550309 0.2241933 -0.21422543 -0.2609103 0.078781225 -0.29257467 0.2459763
-0.18104608 0.15295602 -0.10689563 0.1507055 -0.08565487 -0.15897794 -0.23860207 -0.041119296
-0.31567916 -0.2822263 -0.08495868 -0.09235183 0.20270257 0.13744687 -0.24446853 -0.23442337
-0.083808385 0.14072262 -0.15352039 -0.25633606 0.22445576 -0.29160383 -0.13276619 -0.0968792
-0.25950336 -0.21219757 0.07326155 0.06300027 0.13237618 -0.2711509 -0.2603542 -0.047396496
0.30048776 -0.086621314 0.2092564 -0.1850674
00000000: 931c 8dbd f778 9cbd caef 95be 0d2a 20be
00000010: 1c25 7dbe 1a21 44bd c1c9 8e3d 54bf 87be
00000020: 7148 523e 4c43 78bd bebc 773d acd7 81be
00000030: 6209 81be ee5c 71be 84c0 f03d 6251 753e
00000040: 8b23 42bd 70fd 84bd 48b6 0dbc 2e1b ef3d
00000050: f422 53be c87f 953e 92bf 863e f273 9bbe
00000060: 5578 5cbe 2378 d6bd 8b93 72bd 883b abbd
00000070: 2c27 95be 87dc 2abe bb16 6b3c 152f 233e
00000080: c938 8dbe bef2 4e3d 32b3 133c d9e5 593e
00000090: bf3f ef3d d014 29be 4b43 693e 1351 913e
000000a0: 8c49 083e 1aa4 2fbe 6725 44be 82b3 9c3d
000000b0: 8550 ce3d b637 27bd b3ca 973e c3f4 21be
000000c0: 42bd 9dbc 4dc6 92bd d87d 84be b4f0 64bd
000000d0: 7f1b d53d a2d6 133e 145b f23d ad1d b63d
000000e0: af0d 813e 6993 823e ee92 653e e95d 5bbe
000000f0: 0996 85be 0d58 a13d 59cc 95be 36e1 7b3e
00000100: 2564 39be 81a0 1c3e 19ec dabd 8b52 1a3e
00000110: d26b afbd 1dcb 22be 1a54 74be b56c 28bd
00000120: b3a0 a1be f77f 90be d1fe adbd f522 bdbd
00000130: 4391 4f3e dfbe 0c3e f555 7abe ae0c 70be
00000140: bba3 abbd 9719 103e 7334 1dbe 7b3e 83be
00000150: bbd7 653e 194d 95be dcf3 07be 9a68 c6bd
00000160: a0dd 84be 524a 59be 270a 963d 4906 813d
00000170: 9f8d 073e 4ad4 8abe 254d 85be d422 42bd
00000180: 88d9 993e 8466 b1bd 4f47 563e 4f82 3dbe

Mixer_Block.0.mlp_block_channel_mixing_DynaMixerOperation.fc_out.bias f4 [10]
-0.14798763 0.25517294 -0.2912477 0.18380316 0.28931856 -0.10047703 -0.2717578 -0.039128087
0.0024223146 -0.26557532
00000000: 128a 17be 07a6 823e 6b1e 95be e536 3c3e
00000010: 9021 943e e7c6 cdbd d723 8bbe c644 20bd
00000020: b2bf 1e3b 7df9 87be

Mixer_Block.0.mlp_block_channel_mixing_DynaMixerOperation.LN.weight f4 [22]
1.0 1.0 1.0 1.0 1.0 1.0 1.0 1.0
1.0 1.0 1.0 1.0 1.0 1.0 1.0 1.0
1.0 1.0 1.0 1.0 1.0 1.0
00000000: 0000 803f 0000 803f 0000 803f 0000 803f
00000010: 0000 803f 0000 803f 0000 803f 0000 803f
00000020: 0000 803f 0000 803f 0000 803f 0000 803f
00000030: 0000 803f 0000 803f 0000 803f 0000 803f
00000040: 0000 803f 0000 803f 0000 803f 0000 803f
00000050: 0000 803f 0000 803f

Mixer_Block.0.mlp_block_channel_mixing_DynaMixerOperation.LN.bias f4 [22]
0.0 0.0 0.0 0.0 0.0 0.0 0.0 0.0
0.0 0.0 0.0 0.0 0.0 0.0 0.0 0.0
0.0 0.0 0.0 0.0 0.0 0.0
00000000: 0000 0000 0000 0000 0000 0000 0000 0000
00000010: 0000 0000 0000 0000 0000 0000 0000 0000
00000020: 0000 0000 0000 0000 0000 0000 0000 0000
00000030: 0000 0000 0000 0000 0000 0000 0000 0000
00000040: 0000 0000 0000 0000 0000 0000 0000 0000
00000050: 0000 0000 0000 0000
