M_2_AST/M_2_AST/h36m/run_for_longging/exp232/model.pt (torch, 870893 bytes, 184 tensors)

Mixer_Block.0.mlp_block_token_mixing.fc1.weight f4 [20, 10]
000000 6b d0 e1 be 3d 2e a5 3e 69 db 99 bc 18 76 a1 3e
       -0.44104323 0.3226184 -0.01878138 0.3153541
000010 ad 8d 55 3d 58 bf a3 3c 29 68 48 be e5 91 d8 be
       0.052137066 0.0199887 -0.19570984 -0.4229881
000020 c2 70 d2 bd 4b 32 24 bf 82 43 8a be 26 ec a5 3e
       -0.10275413 -0.6413924 -0.2700463 0.3240673
000030 59 e0 6c be c8 fd cd 3e c6 97 c8 be ac 48 14 3f
       -0.23132457 0.40232682 -0.39178294 0.5792339
000040 7d 99 53 bd 31 76 2e 3e 74 15 75 be 09 7c c6 bd
       -0.05166005 0.17037274 -0.23933965 -0.096916266
000050 21 dd 52 be 97 2c 57 3e ee a9 11 bd 43 14 82 3e
       -0.20592166 0.21013103 -0.03556245 0.25406083
000060 6a d5 37 be c3 60 af 3e c4 29 c3 be ce 49 9f 3e
       -0.17952505 0.3425351 -0.38117802 0.31110996
000070 48 34 25 bf 0b 9d e1 3e 7b 99 d2 3e b9 72 a3 be
       -0.645329 0.44065127 0.4113272 -0.31923464
000080 dc 94 0a 3e ec 54 a9 be 47 ea 49 3d 1a 94 74 bd
       0.13533348 -0.33072603 0.04929569 -0.059711553
000090 3c 41 11 3f df 0b 54 3e d4 40 fd be cf df ce 3e
       0.56740165 0.20707653 -0.49463522 0.40405127
0000a0 f2 8b 8b 3e 55 36 c4 be 29 6e 77 3d 62 27 e1 bd
       0.27255207 -0.38322702 0.06040779 -0.1099384
0000b0 8f bf d6 3e 14 f6 38 bf 4d 5f b2 3e 93 02 30 be
       0.41943023 -0.72250485 0.34838334 -0.17188482
0000c0 36 1e 34 3f 5a c1 50 be f8 0e bf 3d 16 b8 aa be
       0.703586 -0.20386258 0.09329027 -0.3334357
0000d0 a6 71 0b 3e 8a 80 88 be 7d e8 25 3f e8 7b 4a be
       0.13617572 -0.26660568 0.64807874 -0.19773829
0000e0 82 a0 6c 3d 5b 07 6b be 99 7e 33 3f 0b a7 83 3d
       0.05777026 -0.22952025 0.7011505 0.06428345
0000f0 ff 64 c2 3e 55 13 46 be 49 48 62 3d b2 9e 1e be
       0.3796768 -0.19343312 0.055244718 -0.15490225
000100 60 b8 0d 3f fd 5b 7c be b3 bc 2b 3f d4 51 5f be
       0.5535946 -0.24644466 0.6708481 -0.21808559
000110 98 75 ee 3d 85 cc f9 be 00 be d0 3d 60 52 f1 3e
       0.11643523 -0.4878885 0.101924896 0.4713316
000120 67 36 12 bf 11 63 95 3e 07 84 d3 be a3 88 96 be
       -0.5711426 0.29177144 -0.41311666 -0.2940112
000130 6d 16 27 3f e0 0c 64 bc 90 93 83 bd 9e 3f 1a bf
       0.65268594 -0.013919085 -0.0642463 -0.6025332
000140 a5 52 c2 be 02 cf c1 3e e6 ee 10 be 70 98 88 ba
       -0.37953678 0.37853247 -0.14153633 -0.0010421406
000150 3c 50 44 be ba 6a 46 3e f1 0d 05 bf 04 ad 9c 3e
       -0.19171232 0.1937665 -0.519744 0.3060075
000160 fc 49 1a 3e af 96 ac be f8 34 b6 3e a2 73 75 be
       0.15067285 -0.33708712 0.35587287 -0.23969892
000170 c6 33 92 3e 9d 4c 5f be 29 6b dd be bd 65 01 be
       0.28555125 -0.2180657 -0.4324582 -0.12636466
000180 10 8e 10 3d 21 07 48 3f 79 82 fd be 65 c1 3b bd
       0.03529173 0.7813588 -0.49513605 -0.045838732
000190 a6 fe f1 bd e8 ea 58 3e 63 f4 8c be 09 39 13 3d
       -0.118161485 0.2118336 -0.27530202 0.035943065
0001a0 10 13 0a bf 40 4e bc 3e 3d 87 6f be 4c 1d 4c 3e
       -0.5393534 0.3677845 -0.23391433 0.19933051
0001b0 cb 4d 83 be ff d8 a9 3e f2 90 aa be 0a 90 0e 3e
       -0.2564529 0.33173367 -0.3331371 0.13922134
0001c0 5d 19 29 be 24 42 b2 3d 6f 7f 47 be 19 37 d8 3e
       -0.16513582 0.087040216 -0.19482206 0.42229536
0001d0 cd 96 1d bf 18 64 fe 3e f2 be a8 be c5 fd 34 3e
       -0.6155823 0.4968574 -0.3295818 0.1767493
0001e0 c5 5c d3 bc 64 b8 8e 3e 0a 82 6c 3e f6 61 12 be
       -0.025801072 0.27875054 0.23096481 -0.14295182
0001f0 e6 ed 20 bf 11 73 70 3e 0d c3 c5 bd b9 11 3d 3e
       -0.62863004 0.23481394 -0.096563436 0.18463792
000200 2d 8d 38 bf 8e f0 e4 3e 2d 1a be 3e 0f ad 96 be
       -0.7209042 0.4471478 0.37129346 -0.29428908
000210 60 bc 24 be 7d d0 d1 be df 18 c5 bd 62 f1 19 3e
       -0.16087484 -0.40979376 -0.096238844 0.15033486
000220 8b 49 07 3f d7 2a cf 3e ab d1 3e bb 2e a7 34 3f
       0.5284659 0.40462372 -0.002911667 0.70567596
000230 f8 f7 8d be 98 75 bd 3e a1 59 5b be e8 5d a3 3e
       -0.27728248 0.3700378 -0.2142091 0.31907582
000240 24 32 58 3e e5 eb 09 3d 4e 9c a9 be 1a c5 4b be
       0.21112877 0.033672232 -0.33127064 -0.19899407
000250 b3 4a 32 3f 67 c6 0f bf 92 f8 f7 be 17 f1 88 3e
       0.6964523 -0.5616211 -0.48431832 0.26746437
000260 38 41 69 be 9d 10 99 3e 66 00 b2 be 2e 4e 88 bd
       -0.22778785 0.29895487 -0.3476593 -0.066555366
000270 f8 53 84 be 4b 93 42 be b6 80 c2 3e c7 98 c7 3e
       -0.25845313 -0.190015 0.37988824 0.38983747
000280 40 2f e5 be 9e b9 bc 3e db ba c4 3e d3 ff de 3d
       -0.4476261 0.36860365 0.3842381 0.10888638
000290 0d 38 09 be cd e4 d8 bd 26 42 55 be b4 0c 98 be
       -0.13400288 -0.10590515 -0.20826015 -0.29697192
0002a0 0a d7 c6 bc fa 93 b2 be 44 ce 29 bd 4f 13 94 3e
       -0.02427246 -0.34878522 -0.041456476 0.2892098
0002b0 2b 82 42 be 73 54 37 3f e4 9a fb be a8 c0 ed be
       -0.18994968 0.71613234 -0.4914161 -0.46436048
0002c0 27 70 87 be ad ff d3 3e 55 ec 88 be 01 bc 7a bd
       -0.26452753 0.41406003 -0.26742807 -0.06121445
0002d0 14 99 c7 bd 12 f6 8c be c1 89 db 3e 37 91 a3 3e
       -0.09745994 -0.27531487 0.42878535 0.31946728
0002e0 72 88 1e 3f c4 60 7e 3c b9 ef 89 be 23 70 04 bf
       0.6192695 0.015526 -0.26940706 -0.5173361
0002f0 ed 97 2b 3e cb a7 71 be af c5 87 be 34 11 f7 3d
       0.16757174 -0.23599164 -0.26518008 0.12063828
000300 36 b4 52 be 13 6d 76 bc 2f 40 bf be a7 e3 75 3e
       -0.20576558 -0.015040654 -0.37353656 0.24012624
000310 4c 47 4d bf 6c ee 1c be 5a 5d 69 3e 02 eb 81 3e
       -0.80186915 -0.15325326 0.22789517 0.2537461

Mixer_Block.0.mlp_block_token_mixing.fc1.bias f4 [20]
000000 09 fe a9 3e 8f 53 9e 3e a8 1a c1 3e 09 7e 85 3e
       0.33201626 0.30923125 0.3771565 0.2607272
000010 a7 37 ad 3e df 5e 07 3f 4a a4 8c 3e a2 d5 0a 3f
       0.33831522 0.52879137 0.27469093 0.5423223
000020 0a 48 42 3e 72 79 11 3f bf 06 b8 3e 10 ce 00 3f
       0.18972793 0.56825936 0.35942647 0.50314426
000030 10 e7 a9 3e 22 a6 1a 3f e2 e7 2f 3e 61 e8 58 3e
       0.331841 0.6040975 0.171783 0.21182396
000040 59 48 d0 3e 6b a6 a6 3e 44 bb a5 3e 6a e2 b0 3e
       0.40680197 0.32548842 0.32369435 0.3454774

Mixer_Block.0.mlp_block_token_mixing.fc2.weight f4 [10, 20]
000000 1e c8 cb 3e 40 67 14 be 63 ce 29 3d d0 00 28 3e
       0.39801115 -0.14492512 0.04145659 0.1640656
000010 96 c7 ae bd 7d 67 2d 3e 1a dc 07 bd a0 ff 1a bf
       -0.08534162 0.16934009 -0.03316889 -0.605463
000020 6c e7 03 be 9a cc 90 3e 75 62 23 bf 6b e8 ac bd
       -0.12881249 0.282811 -0.6382211 -0.08442768
000030 6a 12 04 3e e1 0c bc be 3a 82 7f be 22 42 55 be
       0.1289765 -0.36728576 -0.24952021 -0.20826009
000040 cd 86 07 3f 80 49 c7 be 3b 3f 14 3f ee 7f 9a be
       0.52940065 -0.38923264 0.5790898 -0.30175728
000050 10 7c 47 3e 29 3b a5 3e 64 92 51 3e 0c fa a1 3c
       0.1948092 0.32271698 0.20466 0.019772552
000060 bd 13 80 3c 68 d5 ee 3d c6 06 8a bd 04 c0 27 3e
       0.015634412 0.11661798 -0.06739573 0.16381842
000070 49 00 d3 bd 46 be c8 be 51 b8 03 3c 63 7c 15 3d
       -0.10302789 -0.39207667 0.00803955 0.036495578
000080 93 36 77 be a0 c8 e5 3c 46 06 d0 3d d3 14 bf 3e
       -0.24141912 0.028049767 0.101574466 0.37320575
000090 49 6f af 3c 99 a8 1a 3c 7e 6b ba 3e 6e 00 6f be
       0.02141537 0.009439611 0.36410135 -0.23340008
0000a0 f4 fe c3 be 59 88 4d be dc 70 82 be 7c 89 1b 3e
       -0.3828045 -0.20071544 -0.2547673 0.15189165
0000b0 ef 5a 66 3e 08 92 be 3e bb 5a f7 3e 6f bb 44 be
       0.22495626 0.37220788 0.4831141 -0.19212125
0000c0 12 e3 0d be cd 40 08 be 3d 10 ad bc 37 f7 12 3e
       -0.13856152 -0.1330597 -0.021125907 0.14352117
0000d0 00 78 15 bf 0d 7a e8 3e a9 52 06 be 05 c5 de be
       -0.5838623 0.45405617 -0.1311747 -0.4350969
0000e0 fa 22 18 bf 0a 7e 79 be ff d7 5b be ff b8 f7 bd
       -0.5942837 -0.24364486 -0.21469115 -0.12095832
0000f0 64 35 f5 bd 64 d1 b1 3e 05 fc b3 bd 8e 16 ac bd
       -0.11973074 0.34730065 -0.08788303 -0.084027395
000100 77 ef bd be 58 51 d1 bd ac 60 e3 bd 9f e7 1b 3e
       -0.3709676 -0.10220593 -0.11102423 0.15225075
000110 77 92 73 3e cc 43 aa 3a ff c5 0d 3f 22 f6 bc 3e
       0.2378634 0.0012990176 0.55380243 0.36906534
000120 87 43 26 3e d4 71 c3 3e c0 f0 d3 bd 3b 45 05 be
       0.16236697 0.3817278 -0.10348654 -0.1301469
000130 8c 3b f4 3b 28 0c d6 be de bd e1 be 47 18 55 3e
       0.0074533876 -0.4180615 -0.4409017 0.20810042
000140 a9 4f 91 be e9 e4 0a 3d 04 e2 0a bf 16 39 d5 3e
       -0.28381088 0.033909712 -0.5425112 0.41645116
000150 01 2a ff 3d e6 35 5a bd 2f 1a a2 3e 03 44 b2 3e
       0.124591835 -0.053274058 0.31660601 0.34817514
000160 d4 d9 18 be bd 4e 63 3e 40 70 99 3d 66 f6 81 be
       -0.14926845 0.22198005 0.07492113 -0.253833
000170 23 c8 9a 3d 6d f6 83 3e 8c 4e 88 be 88 8f da bd
       0.07557704 0.25773945 -0.26622427 -0.10671908
000180 b7 30 66 be 9e 09 64 be 3e 90 cf be 04 3a c8 be
       -0.2247952 -0.22269294 -0.40539736 -0.39106762
000190 2c 71 e9 bd 44 33 42 bd 70 d3 a9 3e 1e 29 db bd
       -0.11398539 -0.047412172 0.33169127 -0.10701202
0001a0 83 0a 72 3e 60 12 f7 bc 36 99 e3 be b5 90 4d be
       0.23636822 -0.03016013 -0.44452828 -0.20074733
0001b0 44 a3 7a 3e 3d 2e fd 3e 44 f0 92 bd b7 a7 70 3e
       0.24476343 0.4944934 -0.07174733 0.23501478
0001c0 d9 aa f0 3d 1b 30 0a be b0 9b 5d bd e0 cd 12 3e
       0.117513366 -0.13494913 -0.054103553 0.14336348
0001d0 6b e7 a6 3b 19 2a 00 3f 9e 6a 01 be 30 26 5e 3d
       0.005093505 0.50064236 -0.12638327 0.054235637
0001e0 bc ae 0e bd 6d 07 2d bf 02 36 30 bf e8 80 f2 be
       -0.03483461 -0.67589456 -0.6883241 -0.47363973
0001f0 cb b1 85 3f 3f dd 66 3f 80 d5 99 3e b5 80 ae be
       1.0444883 0.90181345 0.300457 -0.3408257
000200 f4 8b fd bd 50 6b 2d bf c6 cb f9 be a8 39 a3 be
       -0.123802096 -0.6774187 -0.4878828 -0.31879926
000210 db d7 5b bf 0d b2 0d be ec fa 15 3f a2 ce 36 3e
       -0.85876244 -0.13837452 0.58586 0.17852262
000220 73 7d 08 3d 4b 38 bf be 30 42 21 3f 50 c6 58 3e
       0.033322763 -0.37347636 0.6299162 0.211694
000230 aa 75 03 3e 2a 0f 62 3e e4 87 ce 3e 49 ed 26 be
       0.12837854 0.22076097 0.4033805 -0.16301455
000240 04 23 14 bf 42 2a ed bd 05 df 90 be ea 58 43 be
       -0.5786593 -0.11580326 -0.2829515 -0.19076887
000250 cc 00 21 3e 5c 89 91 be 83 a1 9b 3e 81 02 be 3e
       0.1572296 -0.2842511 0.3039666 0.37111285
000260 72 f3 8b 3e aa c3 d1 bd 67 30 bc 3d b3 76 81 3e
       0.27334172 -0.10242398 0.091889195 0.25285873
000270 18 0f cd bc 05 35 6c be 21 11 18 3e b6 2c 01 3f
       -0.025031611 -0.230671 0.14850284 0.5045885
000280 4e d6 88 be b0 f9 97 be 1c 56 84 3e ad d4 50 3f
       -0.26726002 -0.29682684 0.25846946 0.8157452
000290 47 db 5c be a5 3b df be 17 85 b4 3e 94 68 04 3e
       -0.21568023 -0.43600193 0.3525779 0.12930518
0002a0 6a 63 f4 be 2f fe c3 3e a5 e9 a9 3c 19 e2 89 be
       -0.47732097 0.38279864 0.020741293 -0.2693031
0002b0 11 88 b2 3e e9 9f a7 3e 44 49 62 bf 91 48 78 bf
       0.34869435 0.3273919 -0.88393044 -0.9698573
0002c0 8b ea a5 be c7 67 da 3d 81 03 fc bd da be 06 bf
       -0.32405505 0.10664325 -0.12305356 -0.52634966
0002d0 a2 ad 3a 3f 94 70 9d 3c 86 e5 9e be 38 9c cc be
       0.7292119 0.01921872 -0.31034487 -0.39962935
0002e0 e6 39 a7 3d 6b 60 96 be aa 4c 2f 3f d4 29 53 3f
       0.0816534 -0.29370436 0.68476355 0.824857
0002f0 b8 cf e7 3e 5e fd 70 3d 68 0c b7 be 7a 5e 0c be
       0.45275664 0.05883538 -0.35751653 -0.13707915
000300 47 94 b2 be 89 c9 1d bf ba b0 45 3f fd 03 bb be
       -0.34878752 -0.61635643 0.7722279 -0.3652648
000310 b2 a3 9f 3e ee b8 c3 3e cc 4b 18 3e dc 32 7b be
       0.31179577 0.38227028 0.14872664 -0.2453112

Mixer_Block.0.mlp_block_token_mixing.fc2.bias f4 [10]
000000 dd d8 c7 3e dc 77 95 be 9b d1 05 3f e3 28 6e be
       0.3903264 -0.29193008 0.5227296 -0.23257785
000010 64 8a ca 3e 38 89 c9 be 7e 5b a6 3e 52 f6 ad bd
       0.3955871 -0.39362502 0.32491678 -0.084942475
000020 72 fe b9 3e 39 f7 0a bf
       0.3632694 -0.5428348

Mixer_Block.0.mlp_block_token_mixing_DynaMixerOperation.fc_ND.weight f4 [1, 66]
000000 18 52 f9 bc b6 06 3f 3a 8f 99 17 3c 19 57 7d bc
       -0.030434653 0.0007287072 0.00925292 -0.01546266
000010 1a a9 83 3d 1f 38 a2 3c f9 83 fe bd 6d 94 e4 3c
       0.06428738 0.019802151 -0.124275155 0.027902806
000020 5b fe 93 3d 7a 4c 35 3d e8 37 04 3d 59 d2 0f 3d
       0.07226249 0.044262387 0.03227988 0.035112713
000030 22 c4 f2 3c 27 e7 1a bd 28 46 cb bd 0e 87 9c bb
       0.029634539 -0.0378181 -0.099254906 -0.004776842
000040 9f 8c 5c 3d 97 5c 08 3d 5e ee ae bc 18 02 bd bc
       0.053845044 0.033291426 -0.021353897 -0.023072287
000050 99 80 09 bc 58 bb 11 bc 31 74 58 bd 77 8f b6 3c
       -0.0083924765 -0.008894764 -0.052845184 0.022285206
000060 c4 bf 8d bd 3b 31 1e bc c0 ae 69 bd fe 03 89 bd
       -0.06921342 -0.009655292 -0.05705142 -0.066902146
000070 96 eb cb 3d 79 4d 58 3d cf 20 ad bd bc fc 07 bd
       0.09957044 0.05280826 -0.08453523 -0.03320001
000080 aa 62 8a 3c 70 d0 20 3d ba c3 54 bd bf 38 c7 bc
       0.01689275 0.03926128 -0.051944472 -0.02431905
000090 ac 10 08 bd 3f 46 89 bd f2 a7 17 bd fd c7 0c 3c
       -0.033219025 -0.067028515 -0.0370254 0.008592603
0000a0 e8 96 61 bd 99 02 8d bd 76 4c 39 bd e2 94 0b bb
       -0.055075556 -0.06885261 -0.045238934 -0.0021298458
0000b0 c9 85 be 3c e6 f7 6a 3c 55 b5 83 3d 1b 76 35 bd
       0.023257153 0.01434133 0.06431071 -0.044302087
0000c0 05 df 84 bc 8c b2 2f bd 8f 6d 12 bd 94 eb 03 3d
       -0.016219625 -0.042894885 -0.035749014 0.032207087
0000d0 49 09 34 3c 90 ef 91 3d ba 0c 41 bc 7a 38 39 bd
       0.010988542 0.07125771 -0.011782819 -0.045219876
0000e0 18 80 25 3d 71 a2 96 3d 8c e9 09 bd 94 e8 4f bd
       0.040405363 0.07355202 -0.033669993 -0.050758913
0000f0 b1 11 0a 3d 76 06 81 bd 03 b0 8d 3c 34 48 b4 bd
       0.033708278 -0.063000605 0.017295843 -0.08802834
000100 4f 90 a7 3b a6 36 95 bc
       0.0051136385 -0.018214535

Mixer_Block.0.mlp_block_token_mixing_DynaMixerOperation.fc_Nd.weight f4 [100, 10]
000000 12 aa fa be 02 7c 78 be df 48 ef 3c 48 d6 e5 bc
       -0.48957878 -0.24266055 0.029209552 -0.028056279
000010 8b ca ae 3d 2a 42 ad 3d 09 ce fe 3d 84 21 4b 3e
       0.08534726 0.084598854 0.12441642 0.19837004
000020 f7 63 86 3e 4b b0 0a 3e 2b 3f 84 3d 23 a4 43 3e
       0.26248142 0.13543813 0.06457361 0.19105582
000030 21 74 8d bb 3e a5 9a be 04 6f 88 be 2b c8 90 be
       -0.004316822 -0.30204195 -0.26647198 -0.28277716
000040 ec 31 32 be 53 f0 36 be 4e 12 98 bd c3 c7 97 bc
       -0.17401856 -0.17865114 -0.07425366 -0.018527871
000050 08 3d d3 3d dc 75 4d 3e 04 ed f5 3e 92 44 ca 3e
       0.10314375 0.20064491 0.4803239 0.3950544
000060 f1 cd 61 3e b7 fc 4a 3d 9a b9 57 bc e5 89 26 be
       0.22051217 0.049557414 -0.013166809 -0.1626354
000070 3d 13 cb 3d ab e2 d9 3d 96 7b 85 3e 7d ac 20 be
       0.09915779 0.106389366 0.2607085 -0.15690799
000080 6b bc c4 bd 22 d6 0b be 83 cf 7b 3d e8 33 fd 3d
       -0.096062504 -0.13655904 0.061477195 0.12363416
000090 20 d6 7c 3e d9 0d 01 bd f8 b9 a5 3b a7 4a 35 bd
       0.24691057 -0.031507347 0.0050575696 -0.044260647
0000a0 7a 39 24 3e 74 55 69 3e d4 72 89 3e 1d b7 e3 3c
       0.1603755 0.22786504 0.2684542 0.027797276
0000b0 44 9f a8 bd d6 67 2b 3e e7 b5 19 3e b2 34 9b 3e
       -0.082335025 0.16738829 0.15010796 0.3031364
0000c0 57 1f 97 3d 20 57 a2 3d 31 ea 1f 3e 41 1b a3 3c
       0.073790245 0.07926774 0.1561668 0.019910457
0000d0 82 e3 92 3c c1 8f 0c 3e d7 03 ac bb c2 0a 2f bc
       0.01793075 0.13726713 -0.005249481 -0.010683717
0000e0 8e 8f 7c bd 3c 40 09 3e c7 cb 74 3e 3f 0f 34 3d
       -0.061660342 0.1340341 0.2390586 0.043959852
0000f0 ef 5e 55 3d 10 7f 46 3e 73 ad 98 be 8c 97 0f be
       0.05209249 0.19384408 -0.2981983 -0.14022654
000100 bf 13 66 bd 03 14 9c 3d 9f 3a 84 be ed f9 33 be
       -0.056171175 0.076210044 -0.25825974 -0.17575808
000110 48 8e 85 3d 41 08 24 3e 9f 2c 24 be d4 6c 31 3b
       0.065212786 0.16018774 -0.16032647 0.0027072923
000120 2f e7 4a be d7 3b 00 be 77 d5 25 be d7 39 b8 3d
       -0.19814752 -0.12522827 -0.16194712 0.08995407
000130 dd 1e 7b bc 5e be 67 be ce ea 91 3e fe 68 13 3d
       -0.015327183 -0.22631213 0.28499454 0.0359888
000140 f1 e3 3e be 68 d9 94 3d 9b c3 79 bd a8 77 47 3c
       -0.1864164 0.072680295 -0.06097756 0.012174524
000150 e7 12 2f bd d1 6b d8 3d a7 f5 4b 3c b0 80 03 3d
       -0.042742636 0.10567439 0.012448705 0.032105148
000160 3d e3 a5 3e 47 a3 4b 3e 1a 50 01 3e 8b f7 97 3a
       0.32399932 0.19886504 0.12628213 0.0011594159
000170 75 19 a1 3d a8 a0 37 bd 04 34 0d be 4d 6d df 3d
       0.07866184 -0.044830948 -0.13789374 0.10909519
000180 53 29 d3 3d fc 84 e0 3c e9 8a 54 3e f0 75 24 bd
       0.10310616 0.027407162 0.20756115 -0.040151536
000190 ef 8b 24 be ee 0a 8b bd ec ae 39 be d9 3f b5 bb
       -0.16069005 -0.06789194 -0.18133134 -0.005531293
0001a0 bb 32 ba bd 7f fd 05 3c 17 c4 7e bd 50 d2 ae 3d
       -0.09091707 0.008178114 -0.062198725 0.08536208
0001b0 3f 53 0d 3b 08 b4 a9 3d aa 47 b3 be d8 f6 67 bd
       0.002156451 0.08286291 -0.35015613 -0.056631893
0001c0 9f 4d 98 be 1a 3e e5 bd ff d8 a9 be dc e5 b2 be
       -0.2974672 -0.111934856 -0.33173367 -0.34940994
0001d0 c3 da 9a be 5c f2 8f be 45 be 73 be b2 24 22 be
       -0.30245027 -0.28114593 -0.23803051 -0.1583431
0001e0 aa 98 3a be 1b d5 59 be 61 0a 16 be ce 07 2b be
       -0.18222299 -0.212727 -0.14652397 -0.16702196
0001f0 19 71 45 be ce b9 b7 bd 2c c6 89 3d 3d 5d 90 3e
       -0.19281425 -0.08970986 0.067272514 0.28196135
000200 f7 53 37 3d d8 c3 9d 3c 08 67 1a 3f f6 d8 6f 3e
       0.04475781 0.019258425 0.60313463 0.23422608
000210 3a f2 5c 3e 0b 7f ba 3e 22 37 91 3e 5b 1d 68 bc
       0.21576777 0.3642505 0.28362375 -0.014167155
000220 8e ad af 3d 90 53 86 bd d0 b5 51 bd 0c 5c 4a be
       0.08578025 -0.06558907 -0.05119878 -0.19761676
000230 1a b0 90 3e 87 d0 95 be cd 71 0a be 62 8b b5 bb
       0.28259355 -0.29260656 -0.13519974 -0.0055402974
000240 8a 73 03 bd 25 81 75 bd 44 0d 0d bd 34 2a 91 3d
       -0.03209261 -0.059937615 -0.03443648 0.07088128
000250 91 ab aa be 75 45 f2 bd 04 28 a4 3e 1c bf 08 be
       -0.3333402 -0.11829654 0.3206178 -0.13354152
000260 fd 6d 9d 3e 35 ab 45 3e 25 a7 30 3e b9 c1 51 3e
       0.30747977 0.19303592 0.1725126 0.20484056
000270 92 db 75 3d f1 ca bb bb 98 3d b4 3d 0e b2 bd be
       0.06002385 -0.0057309796 0.088008106 -0.37049907
000280 75 31 ce 3c 08 ef ec 3d 8a 63 80 be 9e 5a 41 be
       0.025170067 0.11569029 -0.25075942 -0.18882224
000290 7b d7 05 bf df ac 8d be 39 a9 0f 3e 3b 4c c9 bd
       -0.5228192 -0.27670953 0.14029397 -0.09828993
0002a0 72 58 8c bc ff a9 a4 3d 01 4b f8 ba 83 32 83 be
       -0.017132018 0.08040237 -0.0018943251 -0.25624475
0002b0 cf fa 11 be 0e ca 36 3e 48 25 36 be 7a 2b 1f be
       -0.14255832 0.17850515 -0.17787659 -0.15543929
0002c0 16 2d 7c 3c 11 7b d3 bd e1 f3 69 bd 02 9e ed bd
       0.015391609 -0.103262074 -0.057117347 -0.11602403
0002d0 67 cf 9c bd a8 50 3d be b4 b2 01 bc d4 49 b3 3d
       -0.07656746 -0.18487799 -0.007916141 0.08754316
0002e0 29 d8 41 be fc f4 0e be a8 80 90 be a0 aa 9f 3c
       -0.18930115 -0.13960642 -0.28223157 0.01949054
0002f0 cc f0 81 3e a3 d4 d1 3d ec 37 26 3e 4e bc 38 3c
       0.25379026 0.10245635 0.1623227 0.011275364
000300 46 ce cf 3e c3 3e 80 3e 44 2b 6d 3e 88 76 73 3e
       0.40587062 0.25047883 0.23161036 0.23775685
000310 fd da 07 3e 26 32 05 bc b9 46 7b 3d bb e2 40 3a
       0.13267131 -0.008129632 0.061346743 0.0007358004
000320 81 25 3b 3e 66 bb d6 3e 81 97 81 3d 7e 6e d7 3c
       0.18276025 0.4193985 0.06327725 0.026297804
000330 e6 ba 88 3d 3f 4a 1b bd bf 27 26 3e fd c9 5d be
       0.06676273 -0.037912603 0.162261 -0.21659084
000340 70 47 39 be d9 71 0d be 9f 8e 4b be ee 80 bd be
       -0.18093657 -0.1381296 -0.19878624 -0.37012428
000350 7d 24 e2 be 07 15 b5 3d 0b 5f 41 bd e0 c3 c8 bd
       -0.44168463 0.08841901 -0.04720978 -0.09802985
000360 21 48 72 bc 68 69 48 be b1 e0 37 3e 13 d9 1a 3e
       -0.014787705 -0.1957146 0.17956807 0.1512187
000370 c5 c4 08 be b1 1c 98 3d f9 fa 14 be 87 3f a8 3d
       -0.13356312 0.074273475 -0.14548863 0.08215242
000380 93 28 4d 3c 98 1c 27 3d 27 86 53 3e 06 04 10 bc
       0.012521881 0.040798753 0.20656644 -0.008790022
000390 b8 c0 21 3e ac e2 aa bc 59 a3 ba 3d e7 6f ff bd
       0.15796173 -0.020860039 0.09113187 -0.124725156
0003a0 7c fe 76 be c5 da cd be 9a 02 a6 3d b2 e9 a5 3c
       -0.24120516 -0.4020597 0.08105965 0.020253036
0003b0 04 98 78 3e b0 f5 8b bc 3a 5b 82 3e e8 fe 1f 3d
       0.2427674 -0.017084926 0.25460225 0.039061457
0003c0 13 55 ea 3d 93 18 be 3e 46 83 88 bd 0d c2 d3 3e
       0.11442008 0.37128124 -0.066656634 0.41358986
0003d0 4d 86 78 3e c6 1b 2e 3e 10 aa b8 bd 61 69 cb bc
       0.24269982 0.17002782 -0.09016812 -0.024830522
0003e0 be 65 1f bd 1b a7 ff bd 9b 48 42 3d 2f 9d 82 bd
       -0.03891539 -0.12483045 0.047432523 -0.06377637
0003f0 a6 a6 26 3e 6e 4e 49 3d 68 24 8b bd 83 a2 f6 bc
       0.16274509 0.049147062 -0.06794053 -0.030106789

Mixer_Block.0.mlp_block_token_mixing_DynaMixerOperation.fc_Nd.bias f4 [100]
000000 12 05 27 3f a0 90 3f 3e e0 db fb be db c0 8d bc
       0.6524211 0.18707514 -0.4919119 -0.017303875
000010 f9 c6 82 be 5c e9 a1 3c 5d 17 a7 be 96 ca 4d be
       -0.2554243 0.019764595 -0.32635012 -0.20096812
000020 3a f1 77 be 2b e9 e7 bd 36 8e 1c 3f 46 ac 43 3d
       -0.24213114 -0.1132377 0.61154497 0.047771715
000030 30 64 68 be fc 86 b6 bd 7d 12 cf be 22 4a 2d be
       -0.22694468 -0.08912465 -0.40443793 -0.1692281
000040 df f1 07 bf d7 12 ca be a8 b0 d1 be 51 3d 48 bd
       -0.5310344 -0.394675 -0.4095509 -0.0488866
000050 d2 e6 1c be bf 22 07 3d 97 78 27 3f 7d c9 99 be
       -0.15322426 0.03299212 0.6541838 -0.30036536
000060 40 bf cc 3d ec 52 b3 bd e8 e0 e1 3c e3 74 d3 be
       0.099974155 -0.087560505 0.027573064 -0.41300115
000070 e0 8b ae bd 8e 60 04 3c f2 ce 0d 3c 90 c1 dd be
       -0.08522773 0.008079661 0.008655297 -0.4331174
000080 d3 91 3a 3f de 66 1c be 88 15 dd 3e e5 10 e1 bd
       0.7287876 -0.15273616 0.4318049 -0.109895505
000090 da dd 10 be 14 60 ee 3d 75 f5 a5 be b6 1a b8 be
       -0.1414713 0.11639419 -0.3241383 -0.3595788
0000a0 a9 2e 2b 3f 49 2a c9 be 51 5e e1 be bb e9 77 3e
       0.6686807 -0.39290074 -0.4401727 0.24210255
0000b0 41 c4 cc 3e a0 e0 ac bd 52 95 a5 bd f5 27 fd 3d
       0.3999348 -0.08441281 -0.08085121 0.12361137
0000c0 72 d5 2a 3d c3 7c 98 be 3b 12 59 3b 5c ee 69 3d
       0.041707464 -0.29782686 0.0033122438 0.057112083
0000d0 68 3f 25 3e 04 6f ff be 1e ba 73 3e 27 09 96 3d
       0.16137469 -0.49889386 0.23801467 0.073259644
0000e0 ba 78 a9 bd 75 6b bf be 8b 4e 69 3d d8 29 72 3e
       -0.0827498 -0.3738667 0.05695967 0.23648775
0000f0 3f cf 1b bf d8 8c 0d 3e 12 12 6f be 54 80 f5 3d
       -0.6086311 0.13823259 -0.23346737 0.11987367
000100 a6 c8 0c bf 13 ac 65 3e 8e da 8b bd f8 b9 44 3b
       -0.54993665 0.22428922 -0.068287954 0.0030018073
000110 6e 13 53 be 66 3f 14 3e 45 2b 30 bf b2 09 88 3e
       -0.2061288 0.1447731 -0.68816024 0.26569897
000120 04 67 5d 3d c8 0e a1 3e 30 ce ba 3e 11 9e 8c be
       0.05405332 0.3145659 0.36485434 -0.27464345
000130 f6 1d ab 3e f9 3d 7d 3d 56 35 a7 3e 08 37 d0 bb
       0.33421296 0.06182668 0.3265788 -0.0063542165
000140 79 18 29 3f aa 92 3d bf 44 e6 bf 3d c1 4d b8 be
       0.6605297 -0.74051917 0.093700916 -0.35996822
000150 74 e4 09 be f7 ad a3 be 6e f3 dc bd af 74 79 be
       -0.13466054 -0.31968662 -0.10788618 -0.24360918
000160 7d 59 95 3e bd 28 a2 bc 89 e6 39 bf 47 c5 d0 bd
       0.29169837 -0.019794816 -0.72617394 -0.10193878
000170 11 a7 70 3d 2b 1c a4 be 3c 70 a1 be ba 55 3d 3d
       0.058753077 -0.3205274 -0.3153094 0.046224333
000180 6c ba e2 bc 16 ce b4 3d 8b c5 4d be 2a 1e 51 bc
       -0.027676784 0.0882837 -0.20094888 -0.012763539

Mixer_Block.0.mlp_block_token_mixing_DynaMixerOperation.fc_out.weight f4 [66, 66]
000000 34 9c 4d bf 97 0a 4c 3d ae 38 85 be 50 73 2a 3e
       -0.8031647 0.049814787 -0.26019806 0.1664555
000010 d6 7e 93 3e 28 e9 0a be c7 4a 89 be e3 73 ee bc
       0.28807706 -0.13565505 -0.26814863 -0.029107993
000020 76 bf b6 bc 61 d8 58 bd 70 c9 6f bc 4f 8a 2d be
       -0.022308093 -0.05294073 -0.014635429 -0.16947292
000030 eb 9e b1 3d 64 f1 7b be 3c 23 83 3d cf 50 91 bd
       0.08672889 -0.24603802 0.06403205 -0.07095491
000040 ad c9 0c be a6 95 82 3e 64 c0 27 3e 6c a2 f7 3d
       -0.13748808 0.25504798 0.16381985 0.120915264
000050 d3 45 7c 3e 99 12 65 be 89 b7 0e be ec 31 81 bd
       0.24636011 -0.22370376 -0.139372 -0.0630835
000060 b0 f9 0e bd bb c3 61 3e 3a b8 4d be ba 9b 78 3e
       -0.03490609 0.22047321 -0.20089808 0.24278155
000070 5e c6 3f bd 7d 59 23 3e 6a 83 5e be 23 2a 52 3e
       -0.046820037 0.15952106 -0.21729818 0.20523886
000080 5a 3f b6 3d 9d 77 30 3e 08 fe b3 be 95 0c 81 3e
       0.08898802 0.17233129 -0.35154748 0.25204912
000090 84 0b 10 3d 17 60 a9 3e eb 56 06 3e 40 d3 60 3e
       0.035167232 0.33081123 0.13119094 0.21955585
0000a0 5b 08 5a 3e d5 05 1b 3e bb e8 fc bd 4c e3 40 3e
       0.2129225 0.15138943 -0.12349077 0.18836707
0000b0 0d 1c 04 3e 19 46 27 3d 0a 2f fd 3c 76 eb f9 3d
       0.12901326 0.040838335 0.030906219 0.12203114
0000c0 24 00 a0 be f6 d2 04 be ed de 26 be 02 0b c5 bc
       -0.31250107 -0.129711 -0.16295977 -0.0240531
0000d0 1f 32 bb bd ac ec d2 3d c1 a3 95 3e 2b 60 f8 bd
       -0.09140419 0.10299048 0.29226497 -0.121277176
0000e0 16 7e 1d 3e c9 1f 0f 3e 88 7b 2c bc f9 39 c4 be
       0.15380129 0.13976969 -0.010527499 -0.3832548
0000f0 3c aa f1 bc 7d 8b fb bd e6 b5 17 3d b2 29 67 3e
       -0.02950012 -0.12282465 0.037038706 0.22574499
000100 32 d3 7a be 0a fd c2 be 21 e0 58 bd 25 e1 d0 be
       -0.24494627 -0.38083678 -0.05294812 -0.40796772
000110 8b 72 1d be 17 6b 04 be c9 28 2d be fc 6a 91 3d
       -0.15375726 -0.12931477 -0.1691009 0.07100484
000120 22 e7 18 3d a7 ee 24 be 38 91 16 3e 2c ef 2c bd
       0.0373298 -0.16106664 0.14703834 -0.04222028
000130 2b 74 6e 3e 71 28 18 3e 42 1d 2b 3e fe dd 37 3e
       0.23286502 0.14859177 0.1671038 0.17955777
000140 a2 8f 00 be 50 7c b2 be ac 2e 9a bd 75 1f 5a be
       -0.12554792 -0.34860468 -0.07528433 -0.21301062
000150 5b 9f 04 3e 0c 55 27 be 92 ef bb 3d a2 65 e2 3e
       0.12951414 -0.16341037 0.09176554 0.44218165
000160 7b 44 6f 3e 72 bf 85 3e 4a 5e 9e bb be 98 b1 be
       0.23365967 0.26122624 -0.0048330175 -0.34686846
000170 59 ad 27 3e ce 03 1b be 9c 81 14 be 7f 81 86 3d
       0.1637472 -0.1513817 -0.14502567 0.06567668
000180 99 ba 3d 3e de 44 08 bd 38 67 10 3e b0 08 7c 3e
       0.18528213 -0.033268802 0.14101875 0.24612689
000190 10 d5 80 3e 2f d7 09 be 62 6f 17 be 82 71 6c be
       0.25162554 -0.13460992 -0.14788583 -0.23090175
0001a0 d3 99 8d bd c1 3f 34 b7 10 f3 09 3e 1e 99 b1 3e
       -0.06914105 -1.074368e-05 0.13471627 0.34687132
0001b0 5c 9a 21 be d8 04 45 bb d7 18 f7 bc b9 f2 94 be
       -0.1578154 -0.0030062702 -0.030163212 -0.29091433
0001c0 52 10 d9 bd 76 4e ee 3b 20 07 5f bd 1d 8b 7a 3e
       -0.10598816 0.007272537 -0.054450154 0.2446713
0001d0 87 55 b5 3c b3 59 37 3e eb c8 9a be a3 6c 03 3e
       0.02213551 0.17905311 -0.30231413 0.1283441
0001e0 a2 dd 1a bd f4 41 82 3e 5e 6f 94 3e e0 05 fc bd
       -0.03780902 0.25440943 0.28991216 -0.12305808
0001f0 a7 9d 20 be 99 40 99 bd ba 45 86 3c 33 ca 84 bb
       -0.1568514 -0.07483024 0.01639067 -0.0040524243
000200 54 ab 20 3e 3f 78 54 be 60 90 73 be 25 34 6d 3d
       0.15690356 -0.20748995 -0.23785543 0.057911057
000210 e5 2d f7 3d 97 89 0a 3e ca 40 2a be 50 3c 54 be
       0.120693006 0.13529049 -0.16626278 -0.20726132
000220 23 1b b6 be 2d 0a af bc d6 2a e0 3c 7c 1b 39 3e
       -0.3556758 -0.021367157 0.027364176 0.1807689
000230 14 8d 07 3e 56 f4 63 3c 21 da ee bd a5 40 e1 bd
       0.13237411 0.013913235 -0.116626985 -0.10998658
000240 7d f1 5e bd d9 83 e0 bc 71 d3 28 3e 7d 93 a0 bc
       -0.05442952 -0.02740662 0.16486908 -0.019601578
000250 68 36 fc 3b bb b5 97 be a2 66 b8 3d 8b 37 10 bc
       0.0076969154 -0.29630837 0.09003951 -0.008802305
000260 08 1e 23 3e ac 9f 1c 3e 2d 54 87 bd 55 5e 09 3e
       0.15929425 0.15295285 -0.06607852 0.13414891
000270 35 f8 48 be 24 db 3f be 35 9f 50 3d 2d d5 27 3e
       -0.19625933 -0.1873594 0.05093308 0.16389914
000280 df 77 61 3e 4b de 9f 3d 9e 5f cf 3d b0 13 e3 bd
       0.22018383 0.07806071 0.101256594 -0.110877395
000290 c6 6c 02 3e 48 6e 90 3c 58 a6 48 3c b2 5a 94 bd
       0.12736806 0.017630711 0.012246691 -0.07243861
0002a0 da 2c 3f bc 07 e0 6f bd 57 6b 7e be 98 15 55 3c
       -0.011668408 -0.05856326 -0.24845634 0.013005637
0002b0 ab 79 f8 bd 91 e2 45 3e 7f 2a 70 3d 9b 1e 47 3d
       -0.12132581 0.1932471 0.058634277 0.048613172
0002c0 dc 8a 32 3b 8c 61 30 bd 40 e0 7e 3e 2b 03 1c be
       0.0027243411 -0.043061778 0.24890232 -0.15235583
0002d0 e9 06 80 be 79 48 c4 3d e6 d6 b4 bd 28 6e a9 3e
       -0.25005272 0.095841356 -0.08830051 0.33091855
0002e0 5a a9 1a 3e 92 97 8b 3e d3 3f 26 3d fd 91 c4 3c
       0.15103665 0.27264076 0.04058821 0.023995394
0002f0 8c f3 86 3d 33 3d 6b 3d c7 6f aa bd c9 0e 82 be
       0.06589422 0.05743141 -0.08322101 -0.25401905
000300 65 e9 80 3c a5 d8 0c 3d 23 9e 47 be 76 8c 61 bd
       0.015736291 0.034386296 -0.19493918 -0.055065595
000310 5d 94 87 3c 12 f0 00 3e 23 b0 e8 3d fe 5e 56 be
       0.016550237 0.1259158 0.113617204 -0.20934674
000320 8b e5 1a be 19 56 02 bf 28 79 41 3d 79 16 33 bd
       -0.15126626 -0.50912625 0.047234684 -0.043722603
000330 09 11 07 3e 25 fb 07 bc e5 1a 04 be a0 79 93 3c
       0.13190092 -0.008299624 -0.12900884 0.018002331
000340 c0 fa 03 3e 21 40 23 3e d1 0c b5 bc ae 0b e7 3d
       0.12888622 0.15942432 -0.022100838 0.112815246
000350 f5 55 66 3b 55 8d f4 bd ec 5f 3b 3e 18 21 bd 3d
       0.003514645 -0.119410194 0.1829831 0.09234828
000360 09 2d 32 be 3d 0e 1d bd 6d 79 b3 3d 12 5e 08 3e
       -0.17399992 -0.038343657 0.087633945 0.13317135
000370 e1 dc 36 3e 5b 15 6d bd 66 43 fb 3e f4 f5 17 3e
       0.17857696 -0.057881694 0.49074858 0.14839917
000380 51 7e f7 3d 98 73 11 be 2a 1b b5 3e d0 7a c8 be
       0.1208464 -0.14204252 0.35372287 -0.39156199
000390 ab 61 c8 bb 2c 70 a5 b9 c6 81 f0 bd 58 8c 1a 3e
       -0.0061151586 -0.00031554827 -0.11743502 0.150926
0003a0 12 01 95 3e 99 13 bf bd 63 15 62 3d fc 70 3d be
       0.2910238 -0.0932991 0.055196177 -0.18500131
0003b0 4f 91 d0 bd 43 91 2b 3e 9d 2a bd bc 8b c0 1f be
       -0.101839654 0.16754632 -0.023091609 -0.15600793
0003c0 bf 10 25 3e 31 db 5d 3e 64 89 1c be 49 3e 9b 3c
       0.1611967 0.21665646 -0.15286785 0.018950598
0003d0 3b 7e 00 3d ce 8b 90 be 2b 5c 22 be 30 00 90 3d
       0.031370383 -0.28231663 -0.15855472 0.07031286
0003e0 12 46 f2 3d fa 46 4f 3c 7a 25 9c be 4d 78 eb 3d
       0.11829771 0.0126511995 -0.30497342 0.11497555
0003f0 10 a7 dd bc 23 0a 0d be 36 71 78 be cb ca 32 3d
       -0.0270572 -0.13773398 -0.24261937 0.04365043

Mixer_Block.0.mlp_block_token_mixing_DynaMixerOperation.fc_out.bias f4 [66]
000000 da a6 96 3e 88 5b 88 3e 20 ed 53 be bd 40 43 bb
       0.29424173 0.26632333 -0.20695925 -0.0029793226
000010 e1 1f 60 be 6f df 25 be 62 13 99 be 9b 83 29 3e
       -0.21887161 -0.16198514 -0.298976 0.1655411
000020 ef 4d 23 3d 57 51 66 3e 47 c0 c7 3b d6 61 9e 3e
       0.039869245 0.22491966 0.0060959193 0.30934018
000030 5f 4e c9 3e 18 38 29 be b8 8d 4f be fc 9a 2d 3e
       0.39317605 -0.16525304 -0.20268905 0.16953653
000040 21 fd 92 3e 8c 51 68 be 9b 89 8e be 84 82 d0 bd
       0.28708747 -0.22687358 -0.2783936 -0.10181144
000050 c9 d4 c1 be 13 cd 8d 3e 09 a1 96 be 86 27 a3 be
       -0.37857655 0.27695522 -0.29419735 -0.3186609
000060 0a 77 f1 be f5 67 99 3c 41 02 5d 3e 1e 64 06 3e
       -0.47161132 0.018726328 0.21582891 0.13124129
000070 85 30 d7 3e 26 bb aa bd f0 57 97 be c1 62 67 bd
       0.42029205 -0.08336477 -0.29559278 -0.056490663
000080 41 dd 31 3d f1 e0 b7 3e 7b 5e c3 3e 85 a7 7c 3d
       0.043423895 0.35913804 0.3815802 0.061683197
000090 7b ad 5a bd 66 f5 38 be 20 f1 75 be d4 0a ab 3d
       -0.0533881 -0.18062362 -0.24017763 0.08351675
0000a0 48 7a 34 be 92 97 75 3c 00 46 5b be 38 9e 09 3e
       -0.17624772 0.01498975 -0.21413422 0.13439262
0000b0 7d de 6c be bf bd 20 bd f3 3b d5 3e b7 9a c1 3e
       -0.23131748 -0.039243456 0.416473 0.3781335
0000c0 59 a7 92 be 99 e9 93 be 54 68 9b be 24 0f ad be
       -0.286433 -0.28889158 -0.30353034 -0.33800614
0000d0 63 0a fd 3b 3a a9 65 3e 28 5f f3 be f3 6f 68 be
       0.0077221855 0.22427836 -0.47533536 -0.22698955
0000e0 3e c8 f6 3d ba 2e ce bc 36 51 9a be a0 6c 02 3f
       0.12049912 -0.025168765 -0.30140084 0.50947
0000f0 14 15 c6 3d ac e5 41 be 6a b2 2a be 4e 95 c9 be
       0.09671989 -0.18935269 -0.16669622 -0.39371723
000100 c7 18 5e 3e a7 fb 9e bd
       0.2168914 -0.077628426

Mixer_Block.0.mlp_block_token_mixing_DynaMixerOperation.LN.weight f4 [10]
000000 e1 c8 ed 3f 3d f1 a4 3f 9c 91 66 3f fb 2d 51 3f
       1.8576928 1.288612 0.9006593 0.81710786
000010 56 2b 21 3f 98 0c 40 3f 4c 69 e7 3e 6b 97 17 3f
       0.6295675 0.75019217 0.45197523 0.5921542
000020 3a 72 14 3f b3 e4 c6 3e
       0.57986796 0.3884636

Mixer_Block.0.mlp_block_token_mixing_DynaMixerOperation.LN.bias f4 [10]
000000 df 15 90 3e 1a 86 b3 3d 89 0b ad bd 00 20 19 3e
       0.28141686 0.08765812 -0.08449466 0.14953613
000010 79 d3 57 bd 2a a0 d2 3c f1 48 3e bd a9 7e be 3d
       -0.05269191 0.025711138 -0.04645628 0.09301502
000020 51 57 75 bd d5 fa 43 3d
       -0.059897725 0.047846634

Mixer_Block.0.mlp_block_channel_mixing_DynaMixerOperation.fc_ND.weight f4 [1, 10]
000000 54 b4 cc 3c d1 5d d5 be 2e 0f 75 3e a5 02 27 bd
       0.02498833 -0.4167314 0.23931572 -0.040774006
000010 d4 82 8f 3e b9 b6 f2 3b 91 69 ed 3c 43 37 d9 bd
       0.280295 0.007407036 0.028981002 -0.106062435
000020 ed 0e 92 3e 04 9a ab bd
       0.28527012 -0.083789855

Mixer_Block.0.mlp_block_channel_mixing_DynaMixerOperation.fc_Nd.weight f4 [484, 22]
000000 30 b4 d2 be 8c d4 53 3d 58 2a 39 be 22 7e 1f 3e
       -0.41153097 0.051716372 -0.18082559 0.1557546
000010 f2 ff 8c 3e 8e f7 f0 bd 41 3b 75 3e 84 e2 d1 be
       0.2753902 -0.11765967 0.23948385 -0.4099313
000020 3c 5b 12 be 58 fc 7e 3e 2f 13 0b bd 88 c6 31 bd
       -0.14292616 0.24900949 -0.03395384 -0.043402225
000030 4b 56 98 3d c0 b6 12 be ec 6f 12 bd 8f 42 15 3e
       0.07438334 -0.14327526 -0.03575127 0.14576171
000040 b8 9a 96 3d ac 57 e5 bc 4a 47 81 3c 31 70 ea bd
       0.07353729 -0.027995907 0.015781064 -0.1144718
000050 9f 51 28 3e c2 ab 91 3e 8c f4 88 bc dc 83 ea 3b
       0.16437386 0.28451353 -0.016718172 0.007156832
000060 60 a0 d6 be 77 da 16 be 3b 8c 7e 3e c6 b2 96 bb
       -0.4191923 -0.14731775 0.24858181 -0.004598948
000070 d4 fa e0 be de d4 73 bd c3 da d6 3d 70 58 21 bf
       -0.43941367 -0.059529178 0.10490944 -0.6302557
000080 f3 be 3f be ef e6 4e 3d 45 65 0a 3e fd 93 d1 bc
       -0.18725185 0.050513204 0.13515194 -0.025583262
000090 be 31 ca bd c6 f1 8a bd a4 21 db bd 2d 81 a5 be
       -0.09872769 -0.06784396 -0.10699776 -0.32325116
0000a0 8c 93 87 3c 57 7a aa ba 73 46 56 3e 01 a5 57 3e
       0.016549848 -0.0013006431 0.20925312 0.21059038
0000b0 85 71 e5 3e 04 c3 04 bd 9c c3 52 3e d1 ef 57 3e
       0.4481317 -0.032412544 0.20582432 0.21087576
0000c0 c4 ae 47 be 9a 77 b8 3d 1f 5d 93 be f0 68 0a 3f
       -0.19500262 0.09007187 -0.28781983 0.5406637
0000d0 21 cf 92 be 7a a3 c5 3d 59 60 a1 bd 10 a5 bf 3d
       -0.28673652 0.09650321 -0.07879705 0.09357655
0000e0 84 d6 74 3c 6a 8f e9 3e bb ca ac bc 9c 05 b4 3e
       0.014943723 0.4561723 -0.021092763 0.3516053
0000f0 72 7f f4 3e 1a cd e8 bd 08 7f 14 bd a6 5b a3 3e
       0.47753483 -0.11367245 -0.03625396 0.3190586
000100 42 48 32 be f1 02 a9 3e 97 7a 98 3e ff 61 cb bd
       -0.17410377 0.33010057 0.2978103 -0.09930801
000110 2c a4 85 bd 14 40 ab 3e f1 d1 af bd 1e 54 24 bb
       -0.06525454 0.33447325 -0.08584965 -0.0025074552
000120 41 a3 7d 3d 5b 8d 81 3d 84 97 85 3e 9d 2c d8 be
       0.06192327 0.063257895 0.2609216 -0.42221537
000130 ed 69 ba bd e9 00 81 3e e2 f7 ac 3e 58 36 09 3e
       -0.09102235 0.25196007 0.3378287 0.13399637
000140 bf 4d 0b bd 17 fa 72 3e 84 df 08 3e 34 4e 4f 3e
       -0.03400969 0.23728214 0.13366514 0.20244676
000150 ae f5 2b 3d a4 be 85 3d 95 b0 60 be b5 11 84 3e
       0.041982345 0.065305024 -0.2194236 0.2579476
000160 f4 72 dc bd db bf 23 3f 01 bb 96 be e8 ed 77 be
       -0.10764113 0.63964623 -0.29439548 -0.24211848
000170 4a d0 93 3a 19 10 94 bd fa 41 6c 3d df 0d 4e be
       0.0011277285 -0.07229633 0.057680108 -0.20122479
000180 99 71 e6 3d 5a 4d 8a be d5 22 87 3e 53 2d 90 3e
       0.11252136 -0.2701214 0.26393762 0.2815958
000190 f9 c5 28 3d 7f 64 82 3d fe 19 8d bb d4 8f 4a be
       0.041204426 0.06366824 -0.004306077 -0.19781429
0001a0 86 1d d0 3d d3 89 ea bb 35 e6 6a be 99 10 5e be
       0.10161881 -0.007157543 -0.2293938 -0.21686019
0001b0 d1 4f b0 3c 4b 93 48 be 0e ad 4a be 9e 61 92 3e
       0.021522434 -0.19587438 -0.19792578 0.285901
0001c0 9f 4f 52 3d 22 e3 28 bd 2f 63 06 bd 1a ca 70 be
       0.051345464 -0.041232236 -0.032809433 -0.23514596
0001d0 65 30 c1 3b ad 5f 76 be 84 0f dd bd a0 df 49 3d
       0.0058956617 -0.24059935 -0.10793975 0.04928553
0001e0 00 1d 5c bc 6e 1e c3 bc 5a 75 9a be d0 db b9 be
       -0.0134346485 -0.023818221 -0.30167657 -0.36300516
0001f0 74 5b e8 bd 4c be 45 be d1 e2 b3 3e 15 2e 38 3e
       -0.11345568 -0.19310874 0.35133985 0.17986329
000200 e9 c1 10 bd b5 a0 0c be d7 53 58 3d 39 f2 e6 bd
       -0.035341177 -0.1373318 0.05281433 -0.11276669
000210 a5 d8 cc 3e 60 42 84 3d a2 aa a5 bc ef 65 04 bf
       0.40009037 0.064579725 -0.020222966 -0.5171804
000220 be 21 59 be ca 93 3b be e6 fb bb bd 4f 15 ba bc
       -0.21204278 -0.18318096 -0.09178905 -0.022715239
000230 c1 71 84 3d 51 cf 80 3d a8 50 e0 bd 12 b5 5c be
       0.06467009 0.062895425 -0.10952884 -0.21553448
000240 71 d6 fb 3c 05 cb 01 3d 80 39 e4 bd b4 2b 64 3e
       0.030741902 0.031687755 -0.1114378 0.22282296
000250 03 19 a9 be 36 24 e3 bd b8 e7 d3 be 00 24 4e bd
       -0.33026895 -0.11090891 -0.41387725 -0.0503273
000260 a5 38 c3 3e 1d 8f ed 3d 00 d2 89 3e 82 c8 31 3c
       0.38129154 0.11599562 0.2691803 0.010851027
000270 bc eb 2c 3e 39 5f dc bd c4 c4 d4 3e 56 c7 8c 3e
       0.168868 -0.1076035 0.4155637 0.2749583
000280 6d ec 89 bd 6e 3c d0 be 47 56 47 be 35 b8 e1 bd
       -0.06734548 -0.40671104 -0.19466506 -0.11021463
000290 21 b1 f0 bc df fd a2 be c6 55 82 3c 90 d9 c9 bd
       -0.029381337 -0.31834313 0.01591004 -0.0985595
0002a0 45 75 e9 bd c6 64 95 be 7f 92 3f 3d ce 88 ff 3c
       -0.113993205 -0.29178447 0.04677057 0.031193163
0002b0 5b 6f 91 3d 06 ba a6 3d c8 1e 1a 3d 09 06 56 3d
       0.071013175 0.0814095 0.03762701 0.05225185
0002c0 09 7b a6 bd 2b 15 97 be a3 b9 a3 be d5 a6 74 bb
       -0.08128936 -0.29508337 -0.31977567 -0.0037330885
0002d0 ae 69 47 3e 95 b3 2e ba 06 2a 0f 3e 0a fe d1 3e
       0.19473907 -0.0006664333 0.13980874 0.4101413
0002e0 37 e8 92 be eb ce 57 3b 5e 5c 6a bd 73 47 00 bd
       -0.2869279 0.003292973 -0.057216994 -0.03131814
0002f0 41 2c 2e bd 0a 73 15 be 55 3e 14 3d 2e 29 76 3d
       -0.042522673 -0.14594665 0.036192257 0.060097866
000300 36 09 36 be ef 19 74 bd c1 9d 68 3e 8a 5d 83 be
       -0.17776951 -0.059595045 0.22716428 -0.25657302
000310 5c de 71 bc b7 50 48 bd ef 78 c4 bc d3 be a7 bd
       -0.014762487 -0.0489051 -0.023983447 -0.08190694
000320 f2 02 c3 bd 3e 64 d9 3d be bd 57 bd df 62 f7 bd
       -0.09522046 0.10614823 -0.052671187 -0.12079405
000330 df 5c 5a 3d e5 aa 97 3e d3 17 65 3e 1e 13 4f 3c
       0.053311225 0.2962257 0.2237237 0.012638835
000340 e2 c4 a5 3d 8a 69 b6 be a4 22 8b be bc 4a fb be
       0.08094193 -0.35627395 -0.27174866 -0.49080455
000350 ac 2f ca bd a6 e4 6d 3d e4 0b f2 bd 83 35 8e 3e
       -0.09872374 0.058079384 -0.11818674 0.277752
000360 4c 31 c2 3d 69 27 24 3e 87 92 b6 3d af c8 e8 3c
       0.09482059 0.16030659 0.089146666 0.028416006
000370 4f 00 12 bd 8b e4 35 bd 1c e9 8c 3e c5 6b f1 3d
       -0.035644826 -0.04440741 0.27521598 0.117881335
000380 6c 0b 9a 3d 23 15 ed bc e9 e8 e9 3d d5 b7 0e 3e
       0.0752171 -0.028940743 0.11421377 0.13937314
000390 a8 8a 4b 3e 2e 02 ff 3d e6 f0 4c be 36 22 85 3d
       0.19877112 0.124515876 -0.2001377 0.06500666
0003a0 65 ec 47 3e d7 be 59 39 f2 66 7d 3e 57 02 2e 3e
       0.19523771 0.00020765826 0.24746302 0.1699308
0003b0 4c 4e 89 3e 87 ec 39 be 97 e9 ba 3d d4 dc 89 3d
       0.26817548 -0.18156634 0.09126585 0.06731573
0003c0 a8 83 4a be 0a 46 05 bc e6 36 b3 3e 1f 3b d6 3e
       -0.19776785 -0.008134374 0.35002822 0.4184198
0003d0 44 63 aa 3d a0 21 a5 be 63 69 49 be c5 5b bc 3d
       0.08319715 -0.32252216 -0.19669108 0.09197191
0003e0 18 0f 8c 3e b8 55 36 3e b1 ed 66 be 60 39 7b bd
       0.27355266 0.17806137 -0.2255161 -0.061334014
0003f0 ac d4 57 bd 9b 12 d2 3d c7 01 63 3e 7d 04 52 3e
       -0.052693054 0.10257455 0.22168647 0.20509525

Mixer_Block.0.mlp_block_channel_mixing_DynaMixerOperation.fc_Nd.bias f4 [484]
000000 00 fa 4b be 38 2d 2b bc 57 a7 c8 3e f9 a6 f6 bd
       -0.19919586 -0.010447793 0.3919017 -0.12043566
000010 d9 48 8b 3e 44 60 46 be 53 32 27 3e 03 e3 3f be
       0.27204016 -0.1937266 0.16327791 -0.18738942
000020 dd 74 45 3d 07 57 85 3e d5 fd 61 3e 44 3e cf 3e
       0.048207153 0.2604296 0.22069485 0.40477192
000030 77 d1 43 be 46 3a ac bd d1 b4 18 be 61 ed 68 3e
       -0.19122873 -0.08409552 -0.14912726 0.22746803
000040 2d c4 4f 3e b2 55 c3 3e a0 3a 3e 3e dc 16 90 be
       0.20289679 0.38151318 0.18577051 -0.2814244
000050 33 e2 a2 bd f0 7e 65 3d c6 e4 cb be 61 a3 17 3e
       -0.079533 0.05602926 -0.39822978 0.14808418
000060 16 8d 81 be ce 16 12 3e 99 96 8a 3e df 2d 9f be
       -0.25302953 0.14266512 0.27068022 -0.31089684
000070 57 9f 22 3e c3 1b 13 be 73 72 9b 3e ac 88 20 3e
       0.15881096 -0.14366059 0.30360755 0.15677136
000080 63 d5 7e be 7b 94 9a 3e f3 49 00 be 03 ba bf be
       -0.24886088 0.30191407 -0.1252821 -0.37446603
000090 3c f6 a5 be 27 6d 18 3e aa 9c 2b 3e 85 bf 3b 3e
       -0.32414424 0.14885388 0.16758981 0.18334778
0000a0 0b d4 42 be 10 fe bc 3d e0 70 d7 bd 5b 73 ad 3d
       -0.190262 0.09228146 -0.10519576 0.08469268
0000b0 b6 da 3b 3e 88 84 09 be f1 ea a9 bc 18 41 96 ba
       0.1834515 -0.13429463 -0.020741912 -0.0011463491
0000c0 0e b8 2d 3e 12 76 ce bd 21 54 ad bd fc 41 7e be
       0.16964743 -0.10081114 -0.08463312 -0.24829859
0000d0 3a 93 0c 3e 85 4c aa 3e a9 b8 7f bb e7 79 02 3e
       0.13728037 0.33261505 -0.0039019978 0.12741815
0000e0 cd bb 12 be 41 47 f1 bd ac 70 9f be 29 11 81 3e
       -0.14329453 -0.11781169 -0.3114065 0.25208405
0000f0 66 f0 a7 bd 17 2e a8 3d f2 7a 8f bd cb f8 83 3d
       -0.08200149 0.08211916 -0.07005872 0.06443938
000100 2b cd 33 3e 2a c3 3a 3d e0 55 a6 bc b5 c4 2c 3e
       0.17558734 0.04559628 -0.02030462 0.16871913
000110 1c 00 3d bd de 88 94 bd 91 7f 67 3e 70 b4 37 bc
       -0.046142682 -0.07252668 0.22607256 -0.011212453
000120 83 3f 65 bc c4 1b 6a be 8b 92 00 be f7 4a 21 bc
       -0.013992193 -0.22862154 -0.12555902 -0.009844533
000130 14 f8 e1 3b a7 cf a6 be ea 02 3d 3e 80 cc 8f bc
       0.0068960283 -0.325803 0.18458143 -0.017553568
000140 66 45 02 3d 91 99 c2 3d a7 06 0b be a8 c9 7a 3b
       0.031804465 0.09501947 -0.13576756 0.003826717
000150 15 28 7a bd cd cd 55 3e e5 b2 65 be 50 1f 3a be
       -0.06107338 0.20879288 -0.22431524 -0.18176007
000160 ea d7 2f 3c 21 d7 64 bd 5f 02 7a be 91 5a 26 3c
       0.01073263 -0.055869225 -0.24414967 0.010153429
000170 11 fe 16 bd 15 39 00 be 0c 27 5d 3e 57 01 44 be
       -0.03686339 -0.12521775 0.21596926 -0.19141136
000180 67 3e 9e bd 5f 5b 76 be ef a0 eb 3b cd 2a 46 3e
       -0.07726746 -0.24058293 0.0071908156 0.19352265
000190 f2 c1 89 3d f0 d3 a0 3e b0 41 9d 3e 76 26 86 bc
       0.06726445 0.31411695 0.30714178 -0.016375761
0001a0 2e f7 1b be bd 79 c1 be bd 09 3f be 8b f1 68 bc
       -0.1523101 -0.3778819 -0.18656059 -0.014217745
0001b0 e2 7e 0f be 34 9f d6 bd 01 97 0d 3d df f6 ae 3e
       -0.14013246 -0.10479584 0.034567837 0.34172723
0001c0 80 ba 8a 3e 5f 72 20 3e d0 0d 05 3c 0a 74 41 bd
       0.27095413 0.15668629 0.008120969 -0.047229804
0001d0 ed ab 72 3e 62 bd 7a bd 89 22 25 3d e9 10 1a 3d
       0.23698397 -0.061215766 0.04031614 0.037613783
0001e0 4a 45 a2 be 9a ef e2 3d a9 8d 66 be 4f 85 02 3e
       -0.31693488 0.110808566 -0.22514977 0.12746166
0001f0 0f dd 72 3d 99 3f b5 3d 79 ef 95 3d 1a 9e d9 3e
       0.05929285 0.08850021 0.073210664 0.42503434
000200 6f fa 3f 3e b3 22 6c bd 0f db cb bd 82 8d 02 3e
       0.18747877 -0.05765028 -0.099538915 0.12749293
000210 ec 60 99 3d 5a a9 fb 3d 7a b0 a1 bc 3d 9b d0 bd
       0.074891895 0.122881606 -0.01973747 -0.10185859
000220 32 db 46 3d 91 0b 33 bc 62 f8 71 be b6 c3 5a 3e
       0.048548885 -0.010928051 -0.23629907 0.2136372
000230 30 8a cb 3c a3 55 90 be c1 92 bb bd 1d 3d 9a 3d
       0.024846166 -0.28190336 -0.091588505 0.07531188
000240 e9 ab 60 3b d4 6f 96 bd 19 f0 41 bd f3 6e f1 3c
       0.0034282154 -0.07345548 -0.047348116 0.02947185
000250 df a0 4f 3e 5c 13 71 bc b2 c2 47 3e 21 b1 9b 3d
       0.20276211 -0.014714088 0.19507864 0.07602144
000260 bc 19 8a bc 4b 60 6f 3e 2d 41 8b be f8 f7 a8 bb
       -0.016857974 0.23376577 -0.27198163 -0.0051565133
000270 93 96 e0 3d 50 a5 75 be c6 b5 a6 3e fe f5 a3 be
       0.1096622 -0.23988843 0.32560557 -0.32023615
000280 4e 1e 52 3d 77 a8 2c bc 3c 49 f9 3d 23 dd 74 3e
       0.051298432 -0.010538212 0.121721715 0.23912482
000290 5c dd 28 3c aa b7 11 bd bd 26 7e be 05 ea 8c be
       0.010306682 -0.035575546 -0.24819465 -0.27522293
0002a0 7a 73 eb be fb 13 bf 3e 87 a8 fd 3e e2 34 a7 3e
       -0.4598654 0.3731993 0.4954264 0.32657534
0002b0 b7 0f 78 3e df 95 98 be 84 7b 9f bd fa 9a 8d 3e
       0.24224745 -0.29801843 -0.077872306 0.276573
0002c0 62 98 ae be 3a 90 1e 3e c8 a5 6b 3e 21 21 c3 bd
       -0.34100634 0.15484706 0.2301246 -0.09527803
0002d0 91 de 9f 3e 56 d6 85 be 4f 4e 85 3e b8 36 33 bd
       0.31224492 -0.26140088 0.26036307 -0.043753356
0002e0 7b 86 d3 3d 6d 4a ae 3d 8e 58 42 bd 10 59 7b 3d
       0.103283845 0.08510289 -0.047447734 0.061364233
0002f0 f7 9a d5 bc 76 1f 85 bd b5 3a 29 be 76 c9 76 3e
       -0.02607487 -0.06500141 -0.16526301 0.24100289
000300 97 c0 e5 3d ac 14 d7 3e 05 cb a2 3e d7 3b 10 bf
       0.11218374 0.4200796 0.31795517 -0.5634131
000310 01 e5 55 3c de b8 78 bd b1 a7 4f be 89 62 a9 3e
       0.013055087 -0.060723178 -0.20278813 0.3308299
000320 bf b0 44 3e 19 94 69 be ed 94 bd 3c 74 bd 85 be
       0.19208048 -0.22810401 0.023142302 -0.26121104
000330 dd de 3e 3e 0d 6e 84 be 4b a3 5a 3e e2 23 cb 3e
       0.18639703 -0.25865212 0.21351354 0.39675814
000340 d2 38 da bd 3f db f3 3e 87 17 8f be 67 b4 c3 be
       -0.10655369 0.4762821 -0.27947637 -0.38223574
000350 7e 17 a0 be 05 b8 54 3e 29 46 30 3e 39 a6 a6 3e
       -0.31267923 0.20773323 0.17214264 0.32548693
000360 97 24 a6 3e f0 89 b7 bd 76 26 90 bd 2c 2d a7 3e
       0.3244979 -0.08961856 -0.07038586 0.3265165
000370 d1 88 c3 3e 63 b0 5c 3e c2 37 92 bd e0 b3 c8 bd
       0.3819032 0.21551661 -0.07139541 -0.097999334
000380 76 29 fe bd 25 a2 2d be 73 e4 8a 3e 5f 87 5d 3e
       -0.12410252 -0.16956384 0.27127418 0.21633671
000390 76 15 81 3e 99 d5 69 bd 1e 71 52 bd fc bb b6 3c
       0.25211686 -0.05708847 -0.05137741 0.022306435
0003a0 ff 9a 15 3e 12 a5 88 bd 8e 8e 97 bc 3a 48 b4 3c
       0.14609908 -0.0667211 -0.018500593 0.022007097
0003b0 14 1d 1a be 0f 98 35 bd bb d1 80 be 95 3a 50 3e
       -0.15050155 -0.044334468 -0.25160012 0.20334847
0003c0 8b 56 71 be ba fd 01 be b1 3c 7c 3e 7f 96 76 3c
       -0.2356817 -0.12694445 0.24632527 0.0150505295
0003d0 be ac 2a be 68 1a 0c 3e 9e c0 c9 be f1 bd 43 3e
       -0.16667458 0.13681948 -0.39404768 0.19115426
0003e0 57 fa 24 be 37 f1 bb 3e f6 a7 a9 be e2 62 0a be
       -0.16111122 0.3670747 -0.33135957 -0.13514283
0003f0 4a 97 3e 3d b0 06 6a be ca a5 85 3d c9 74 02 3e
       0.046531 -0.22854114 0.065257624 0.12739863

Mixer_Block.0.mlp_block_channel_mixing_DynaMixerOperation.fc_out.weight f4 [10, 10]
000000 99 49 48 3e fd 81 1a 3e 54 c2 8d 3c da b0 da 3e
       0.19559325 0.15088649 0.017304577 0.42713052
000010 b9 62 56 3e 05 38 ac 3e 33 f6 b0 3e ed 15 cb 3e
       0.20936097 0.3363649 0.34562835 0.39665166
000020 91 ff bb 3e 90 d1 5c 3e 28 cc 2a 3e 74 43 05 3f
       0.3671842 0.21564317 0.16679442 0.5205605
000030 c7 60 03 3e 43 31 44 3e e0 25 46 3e ed e7 6a 3e
       0.12829886 0.19159417 0.19350386 0.22940035
000040 c5 47 d1 3e 39 ae 8a 3e b8 86 4c bd 40 c6 5b 3e
       0.40875068 0.27086046 -0.049933165 0.21462345
000050 93 af 98 3d e7 ec 5a 3e 0b b3 8f be da a9 2a be
       0.07455363 0.21379434 -0.28066286 -0.16666356
000060 02 ee 80 be f2 40 20 be 3e e4 47 be 62 e2 82 3c
       -0.25181586 -0.15649775 -0.19520661 0.015977088
000070 aa 82 c0 be 21 65 84 3d 53 0e 96 be 0f 41 4a 3e
       -0.3759969 0.06464601 -0.29307804 0.1975138
000080 87 ed 4e be 0d 3e bc 3d 80 72 ca bd b4 94 b9 bd
       -0.20207797 0.09191523 -0.098851204 -0.09061566
000090 4c 3e 4a 3d 82 a5 7a 3c a7 a3 69 bd 20 3b 2a be
       0.049375817 0.015298249 -0.057040837 -0.16624117
0000a0 2a 8e a0 3e 09 b4 97 bd 2f 32 16 3f dc 1a 63 3e
       0.31358463 -0.07407386 0.58670324 0.22178215
0000b0 f0 54 fa 3e d8 88 9a 3d da b7 c0 3d fc 5b a5 bd
       0.48892927 0.07545632 0.09410067 -0.08074185
0000c0 bf 5b 47 3e d5 ab d8 bd 84 ff da 3e d9 24 82 3d
       0.19468592 -0.10579649 0.42773068 0.063546844
0000d0 f5 c3 90 3d 75 71 42 3e 1c 04 a0 3d 25 d8 48 3e
       0.07068626 0.18988593 0.07813284 0.19613703
0000e0 94 fc b8 bd 0c a3 f1 bd ce 1b d2 3e dc d9 f2 3d
       -0.090325505 -0.11798677 0.41036838 0.1185796
0000f0 a1 54 43 be ae 84 d4 bd d2 06 02 3e bd d9 88 be
       -0.19075252 -0.10376869 0.12697914 -0.2672862
000100 b6 8e 72 3b 67 d4 26 be 27 08 0b be 76 b8 ac be
       0.0037011332 -0.16291963 -0.13577329 -0.33734483
000110 71 bd a8 3e 6f dd 8d bd 90 ca 37 bf ea 29 8c 3e
       0.32957032 -0.06927001 -0.7179346 0.27375728
000120 57 21 a4 be d8 27 15 bd 14 83 94 be fb d1 03 be
       -0.32056686 -0.03641495 -0.29006255 -0.1287307
000130 df b3 9c be bd 2a e6 3d 6d a0 97 be 59 f1 2f be
       -0.3060598 0.112386204 -0.29614583 -0.1718191
000140 24 6e 27 3e 2e ef f4 be 0c fd 75 3e 5d 47 38 be
       0.16350609 -0.4783873 0.24022311 -0.17995973
000150 9a 9b 5c 3d f9 6b 07 3d f9 bd 0c 3e 43 0e 27 3d
       0.05385933 0.033061955 0.13744344 0.040785085
000160 5a f0 a7 3d 5a f9 a8 3e f7 a0 09 be a7 c8 20 3d
       0.0820014 0.3300274 -0.1344031 0.039253857
000170 9f 23 02 bf 78 fb 85 bd 67 65 87 be b0 29 03 be
       -0.50835603 -0.065421045 -0.2644455 -0.12808871
000180 34 5e 95 be 11 f2 21 be 2e aa ec bd b3 bd c1 3d
       -0.29173434 -0.15814997 -0.11555897 0.094600104

Mixer_Block.0.mlp_block_channel_mixing_DynaMixerOperation.fc_out.bias f4 [10]
000000 73 5d c0 be fe 9a 45 bf b4 a7 99 3e 92 49 0a bf
       -0.37571296 -0.77189624 0.3001076 -0.5401851
000010 79 d3 03 be ec 79 a1 3e e3 55 ee 3d db dc c3 3e
       -0.12873639 0.31538332 0.11637475 0.38254437
000020 07 98 d0 be 26 16 ac 3e
       -0.40740988 0.33610648
