M_2_AST/MotionMixer-main/h36m/run_for_longging/exp251/model.pt (torch, 870893 bytes, 184 tensors)

Mixer_Block.0.mlp_block_token_mixing.fc1.weight f4 [20, 10]
000000 49 06 97 3d 0e 6d ce bd 5c 6d 0b bc a9 2c 63 3c
       0.07374246 -0.10079394 -0.00850996 0.013865628
000010 d4 ac 08 3f 68 47 c0 be 87 21 09 3f 02 44 bf be
       0.53388715 -0.3755448 0.53566784 -0.37356573
000020 63 53 f9 3e 02 99 88 be 33 44 56 3d 0d ce f3 bd
       0.48696432 -0.26679236 0.052311134 -0.119045354
000030 20 a7 d5 3d 7c 1f 80 be 60 e3 c7 3e 7a 95 fc be
       0.10432267 -0.2502402 0.3904066 -0.49332792
000040 af 7a b5 3e 5b a2 d6 be b6 6e 1c 3f b1 40 63 3d
       0.35445163 -0.41920742 0.6110643 0.055481616
000050 8b dc 13 bf 92 58 c7 3e 80 da 06 bf f1 ce c6 3e
       -0.57758397 0.3893476 -0.52677155 0.3882976
000060 3d ad 98 bd d0 e6 18 be 42 68 93 be 76 f1 71 bf
       -0.074549176 -0.14931798 -0.2879048 -0.94509065
000070 e7 96 97 be b4 76 14 bf 1e 66 38 be c4 9d ae 3e
       -0.29607317 -0.57993627 -0.18007705 0.3410474
000080 7d 55 3d be 48 ee 4c 3d ef fd ab be c1 48 fe bd
       -0.18489642 0.05003193 -0.33592173 -0.124162205
000090 6c 43 35 bf 99 b9 42 3f 95 10 2b bf 78 7d 2d 3f
       -0.70806 0.7606445 -0.6682218 0.67769575
0000a0 5d f9 90 be 5a 19 59 3d c4 c3 c1 be e7 70 ce 3e
       -0.2831525 0.053002693 -0.3784467 0.40320513
0000b0 f8 a8 14 bf 8c 21 04 3f 57 ad e8 be 98 5f a3 3d
       -0.58070326 0.5161369 -0.45444748 0.079772174
0000c0 95 53 a5 be fe 7a e2 3e be ef 19 3e 6f 72 db 3e
       -0.3229033 0.4423446 0.1503286 0.42860743
0000d0 1f 9c a5 be cb f5 94 bc 9e 47 c7 be 9a b4 27 3f
       -0.32345673 -0.01818361 -0.38921827 0.6550995
0000e0 7e 62 1a bf f2 32 19 3f f3 ca fc be ba 65 3e 3e
       -0.6030654 0.5984336 -0.49373588 0.18593493
0000f0 5b 14 b8 be a4 95 86 3d 4e 30 95 3d 6b 71 76 bd
       -0.3595303 0.065715104 0.07284604 -0.060166758
000100 c8 50 33 bf cb 0e f5 3e cd d9 02 bf c2 1f c3 3e
       -0.7004514 0.4786285 -0.5111359 0.38110167
000110 67 9a 39 bf 93 1a 19 3e e4 87 1b 3e aa 84 6e be
       -0.72501224 0.14951544 0.15188557 -0.23292795
000120 82 b5 75 3e e4 96 a3 be 88 91 0e 3e 92 9c 3d bf
       0.23995021 -0.31951058 0.13922703 -0.7406703
000130 05 dd 09 be 8d 94 05 3d 94 7b 3e 3f db bc c9 be
       -0.13463219 0.032612372 0.74407315 -0.39401898
000140 03 ed cd 3e b4 17 14 bf ae f4 10 3f 06 89 4f bf
       0.40219888 -0.5784867 0.5662335 -0.81068456
000150 5b 8d b0 3d 00 09 c0 3e 73 7f 26 bf f8 8b 95 3e
       0.086207114 0.37506866 -0.6503822 0.2920835
000160 14 90 98 bd ca 78 49 3e 40 35 8e bd 9e 18 cd be
       -0.07449356 0.19674984 -0.069437504 -0.40057844
000170 95 72 b0 bd 4d ac 9b 3d 27 bc fd bd 9a f1 1e bf
       -0.08615605 0.07601223 -0.12389403 -0.62087405
000180 f6 72 45 be 77 96 c2 be cb 31 10 bf 88 90 24 be
       -0.19282135 -0.3800542 -0.5632598 -0.1607076
000190 03 6f 98 3e 73 e5 13 be 32 42 94 be 43 24 fc bd
       0.29772195 -0.14442997 -0.28956753 -0.12311604
0001a0 b6 93 70 be d5 0b b9 bd 7c 27 42 3f e6 99 84 bf
       -0.23493847 -0.0903546 0.758415 -1.0359466
0001b0 7a 9b 5e 3f 51 82 15 bf c8 42 90 3e b5 dc 83 bd
       0.8695599 -0.5840197 0.2817595 -0.06438581
0001c0 7d f0 79 3e c4 41 c1 bd b3 ff 0d 3f 39 16 96 be
       0.24408145 -0.09436372 0.5546829 -0.2931383
0001d0 e8 82 fa 3e 64 24 01 bf 3b 01 ac 3e 0a 22 f3 bd
       0.48928 -0.5044615 0.3359469 -0.11871727
0001e0 e0 87 83 3d 50 66 ea be 1e a8 22 3e 94 8d ad 3c
       0.064224005 -0.45781183 0.15884444 0.021185674
0001f0 4e d7 3a 3e 14 40 14 bf 15 ee 59 3f d8 59 3c bf
       0.18246195 -0.57910275 0.8512891 -0.7357459
000200 45 02 69 3e 71 19 ad bd ea 1b 3a be e5 ac b8 3e
       0.22754772 -0.08452118 -0.18174711 0.36069408
000210 f3 19 bb be 57 5c 79 3e 04 29 6e be 2c 01 a3 3e
       -0.36543235 0.24351631 -0.23257834 0.31836832
000220 d0 dc 92 3e 63 7b fe 3e 42 b6 39 bf 9d 19 e6 be
       0.28684092 0.49703512 -0.7254373 -0.44941416
000230 27 06 27 bf a8 46 43 3f 32 22 6e bf 50 75 0c 3f
       -0.6524376 0.7627969 -0.9302093 0.54866505
000240 cd 9c 3f bc d4 8f 92 be f4 fe d4 3e c6 d0 35 bd
       -0.011695099 -0.28625357 0.41600764 -0.044388555
000250 05 c2 1e 3f f7 f2 e2 3c f4 2a bb 3e e6 22 75 be
       0.620148 0.027703745 0.36556208 -0.23939094
000260 c7 33 79 3e 9e 0d e3 be e2 94 81 3e 3b 5f ec be
       0.24336158 -0.44346327 0.253089 -0.46166405
000270 dc ec 12 3f 30 94 60 be 60 32 31 be b3 fb 9a bc
       0.5739267 -0.21931529 -0.17304373 -0.018918848
000280 2e 7b 27 3d fd 58 c6 bd e8 be a2 3e b0 86 29 bf
       0.040888958 -0.09684942 0.31786275 -0.6622114
000290 47 4f 03 3f 65 79 33 3e 73 80 36 3e 37 7d 45 3f
       0.5129284 0.17526777 0.17822437 0.7714419
0002a0 59 f4 a3 3e 75 00 eb bd 2e a9 5a be d5 48 81 3e
       0.3202236 -0.114746965 -0.213536 0.2525088
0002b0 9a aa 4c bd 72 8b 63 3e a8 39 d2 be 40 98 b8 3e
       -0.049967386 0.22221163 -0.41059613 0.36053658
0002c0 fd 75 59 bf 6c 44 12 3f f8 12 41 be f5 fe bc 3d
       -0.8494566 0.57135653 -0.18854892 0.09228317
0002d0 19 59 97 3e 98 45 26 bf c2 e5 8c 3e 90 6e 35 bf
       0.29560164 -0.6494994 0.2751904 -0.7087183
0002e0 47 d7 37 3f 10 84 43 3c e0 7f 6a be 4f 45 2f 3e
       0.7181286 0.011933342 -0.22900343 0.17116283
0002f0 e9 c1 9a be 4a 17 04 be 1a 65 c0 be 7a a4 05 3f
       -0.30226067 -0.12899509 -0.37577134 0.52204096
000300 b1 92 25 bf 4f 31 08 3f fc 38 8d be 03 53 b1 3e
       -0.6467696 0.5320024 -0.27582538 0.34633645
000310 3c 4a be bd 80 91 a9 be a8 c4 98 3e 77 ab 20 be
       -0.09291503 -0.3311882 0.29837537 -0.15690409

Mixer_Block.0.mlp_block_token_mixing.fc1.bias f4 [20]
000000 d1 e0 74 3e 36 4a af 3e 88 ba 5c 3e 3a 55 ee 3e
       0.23913886 0.34236306 0.21555531 0.46549398
000010 b4 15 93 3e e2 7d c4 3e 07 d4 80 3e 59 34 cb 3e
       0.28727496 0.3837729 0.25161764 0.39688376
000020 83 31 32 3f 57 2b 05 3f 24 d7 43 3e 7f b3 a7 3e
       0.696068 0.52019256 0.19125038 0.32754132
000030 28 4d a1 3e 2f e9 1d 3f 13 b2 e5 3e 53 60 94 3e
       0.31504178 0.61683935 0.44862422 0.2897974
000040 c0 11 bf 3e f4 5c a0 3e 32 66 b5 3e d9 04 b3 3e
       0.3731823 0.31320918 0.3542953 0.34964636

Mixer_Block.0.mlp_block_token_mixing.fc2.weight f4 [10, 20]
000000 d1 f8 30 3d e2 b9 2f 3a a5 51 df 3e 7e 6a 75 be
       0.04320604 0.0006703419 0.43616977 -0.23966405
000010 c7 f8 ae be 24 0b 30 bf ae 78 c3 3e 53 86 3b 3e
       -0.34174177 -0.68767 0.3817801 0.1831296
000020 ee 3c c2 3e 77 92 3d 3f 04 0b 04 bd 9f 58 a7 3d
       0.3793711 0.7405161 -0.032237068 0.081712
000030 f1 3c fd 3e 2c d8 9b be bf aa c5 be df 2d d5 3e
       0.49460557 -0.30438364 -0.3860683 0.4163656
000040 d3 13 e4 bd 8a 30 33 be ff 9b bd 3e 6f 13 68 be
       -0.11136594 -0.17498985 0.37033078 -0.22663663
000050 23 c3 ed bc 1f 1d 27 be 9a 39 27 3f c6 d5 0c be
       -0.029023713 -0.16319703 0.6532227 -0.13753423
000060 c0 66 f6 3d 35 40 95 be d7 5f 08 be 54 bb 0b bf
       0.12031317 -0.2915055 -0.1331781 -0.54582715
000070 7d ce 07 bf 73 72 b4 3e cc ef 2c be b5 e5 ee be
       -0.5304945 0.35243568 -0.1688835 -0.46659628
000080 d8 a9 e7 bc d1 39 3b 3e b2 60 75 3f eb f8 31 bf
       -0.02827923 0.18283774 0.9585067 -0.69520444
000090 7d 8d 15 be d1 8b 6b bd e4 00 70 be 1a 6d 2c 3f
       -0.14604755 -0.057506386 -0.2343784 0.67353976
0000a0 23 a5 68 3e 59 d0 54 3e 53 0c a7 bd b7 e7 04 bf
       0.22719245 0.20782603 -0.081566475 -0.5191607
0000b0 bb d9 06 bf 54 1c ad be e8 a9 65 bf 81 e3 e4 bd
       -0.5267598 -0.33810675 -0.8971238 -0.111762054
0000c0 3b 04 cb 3e c8 27 04 3c df 5f de bd 68 fc 8e 3e
       0.39651665 0.008066125 -0.1085813 0.27926946
0000d0 aa 42 18 bd ef de ea bc 48 41 9a 3e d7 a8 c9 3e
       -0.03717295 -0.028670756 0.3012793 0.39386627
0000e0 85 83 f5 3e 64 61 44 bf 3c fa 4a 3f 62 b8 90 be
       0.47951904 -0.76711106 0.7928808 -0.28265673
0000f0 ca 97 54 bf d5 b6 f5 be 5f 02 1a 3c bf 60 a1 bd
       -0.8304411 -0.47991052 0.009399979 -0.07879781
000100 36 66 b7 3e 73 c5 ce 3e 9a 6f b7 3e ac ec 04 bf
       0.35820168 0.40385017 0.35827333 -0.5192363
000110 bd e8 40 3f 28 6b 9f be 55 5f 35 bd e4 cc 30 bf
       0.7535513 -0.3113644 -0.04428037 -0.6906264
000120 e5 21 36 bf dd 4d 35 bd a3 b4 18 be bb d5 15 bf
       -0.7114547 -0.04426371 -0.14912657 -0.5852925
000130 97 3a a6 3e 14 a9 a1 3e 97 14 be 3c 40 b9 37 3e
       0.32466576 0.3157431 0.023203177 0.17941761
000140 14 3b 4c 3f 26 3c 3c 3f e5 9f 87 be 0f 30 87 be
       0.79777646 0.7352928 -0.26489177 -0.26403853
000150 5d dc 0b be 13 e4 87 be be 0a 54 be 2d 30 31 3e
       -0.1365828 -0.26541194 -0.20707223 0.17303534
000160 4b 64 f8 be 76 80 87 be 74 4e 92 3f d9 82 fa 3e
       -0.48514017 -0.26465195 1.1430192 0.48927954
000170 90 ef 10 3f d9 29 d2 bd 69 6a 82 3e 65 cf f7 3e
       0.56615543 -0.10261888 0.2547181 0.48400417
000180 ce df 30 3d b2 03 d7 be b2 db 50 bf 53 81 d0 be
       0.043182187 -0.41995007 -0.8158523 -0.40723667
000190 2f 30 15 be 3f 40 04 be 0b 69 2a bf fa cc 97 3f
       -0.14569162 -0.12915133 -0.6656653 1.1859429
0001a0 7a 03 da 3e 59 09 5f 3e 61 be e8 3e 43 ba ee 3c
       0.42580777 0.2178091 0.45457748 0.02914155
0001b0 09 30 3d be 9e 3f 80 ba 1d 20 c6 be 09 1c 1d be
       -0.18475355 -0.0009784584 -0.38696375 -0.15342726
0001c0 f0 e8 eb bd 5d e6 b4 3d fb 4e 0e 3d 41 05 60 be
       -0.11519039 0.08833001 0.03474329 -0.21877004
0001d0 c5 2d ed bd 38 99 2a 3f c5 6d 0d be d4 9f f6 be
       -0.115809955 0.66640043 -0.13811405 -0.48168814
0001e0 ba 8d 76 3e 18 54 a9 3e 6c d7 db 3d 4d 72 68 bd
       0.24077502 0.3307197 0.10734448 -0.05674963
0001f0 a9 29 99 be cd 5d 90 be 03 cf 25 bf 33 b6 5e 3e
       -0.29914597 -0.28196564 -0.64769 0.21749191
000200 97 51 15 3f e0 c2 95 be 05 98 9c be ed da da 3d
       0.5832762 -0.2925024 -0.30584732 0.10686288
000210 b0 86 92 be 25 4f 0f bf 8c 80 33 3e cc 5a 7e be
       -0.28618383 -0.5598014 0.17529505 -0.24839324
000220 88 67 0b 3f 13 bc 12 3d bf 87 b7 3e b7 5d e1 3d
       0.5445485 0.035823893 0.35845754 0.11004203
000230 72 eb bc 3e 6f 26 10 3e b1 54 5b 3d d6 df 02 bf
       0.3689838 0.14077161 0.053547565 -0.51122797
000240 3e c2 05 3f b9 1c 21 be 57 29 84 bc 2b e0 76 be
       0.52249515 -0.15733613 -0.016132994 -0.24108951
000250 5b 60 8a be 1d 5d 23 bd 01 94 81 3f 49 fe 10 3f
       -0.27026638 -0.03988372 1.0123292 0.5663801
000260 7f c6 46 3f 61 30 a4 be 1e 93 6f be 2e 07 8f 3e
       0.7764663 -0.3206816 -0.23395965 0.27935165
000270 ce 20 22 bf 7a 0c bd be 6a c3 ef bc 96 cd 54 be
       -0.63331306 -0.3692358 -0.029267985 -0.2078155
000280 0b a0 8e be c6 85 06 bf 87 9c 61 be da e1 9e 3e
       -0.27856478 -0.5254787 -0.22032367 0.31031686
000290 11 01 75 3e ff 21 13 3f 6b 56 2b 3f f6 76 46 bf
       0.23926188 0.5747375 0.6692874 -0.7752527
0002a0 f3 5f 0f bd d2 bb 88 3c c3 e4 99 be a5 00 4f be
       -0.035003614 0.016691122 -0.30057344 -0.2021509
0002b0 0d 83 e1 bb 2c f3 40 3f 5d ae 32 bf bd f8 69 3e
       -0.0068820775 0.7537105 -0.6979731 0.22848792
0002c0 9a 96 ef 3d 39 0a b0 3d e5 6e 4c 3e 7f 63 ab be
       0.11698647 0.085957 0.19964178 -0.33474347
0002d0 d5 e4 92 3e 87 bc 11 be 32 22 bf 3e bc 88 6b bf
       0.2869021 -0.14232074 0.37330776 -0.92005515
0002e0 1a cf 4b bf b0 61 f9 be ba 70 9e bd cd e2 3e 3e
       -0.79612887 -0.48707342 -0.07736345 0.18641205
0002f0 a2 96 89 be 87 66 51 3b e5 8b e5 3e de 4f a4 bd
       -0.26872736 0.003195198 0.44833294 -0.08023046
000300 46 a2 a2 3e 3b 29 0d 3f e9 63 3a 3e df 1c 46 be
       0.3176443 0.5514104 0.18202175 -0.19346951
000310 07 88 39 3f c7 11 3e be 4f b8 b2 3e 1c 3c e4 bc
       0.72473186 -0.18561469 0.3490624 -0.027860694

Mixer_Block.0.mlp_block_token_mixing.fc2.bias f4 [10]
000000 9b 5e 14 bf 00 da 2a bd 8f 55 ef 3d 2c b4 ea 3d
       -0.57956856 -0.041711807 0.11686241 0.11460146
000010 53 cb 23 be 39 ea 46 3c 51 e4 60 bd 9a 4f d2 bc
       -0.15995531 0.012140804 -0.05490524 -0.025672723
000020 6a 0e a6 3d 10 03 04 3e
       0.08108218 0.12891793

Mixer_Block.0.mlp_block_token_mixing_DynaMixerOperation.fc_ND.weight f4 [1, 66]
000000 cc 73 03 3d be 0e bc 3c 34 91 9c bd 16 1e 8d 3d
       0.032092854 0.022956248 -0.07644883 0.06890504
000010 6c 06 22 bd 9e dd ea 3c 0c 40 1e bd f1 08 c1 3d
       -0.039556906 0.028670128 -0.0386353 0.094255336
000020 eb 6f 1a bd 4d 79 98 bc cc b6 bf 3b 9a be 83 bd
       -0.03770439 -0.018612528 0.0058506485 -0.06432839
000030 e5 94 61 bc 75 52 2b 3d 19 dd 05 be 52 e0 04 bd
       -0.013768409 0.041826684 -0.13072623 -0.03244049
000040 d3 5e 16 bc 34 1d 90 bc 4c 5e ce 3c bd a0 cd bc
       -0.009177881 -0.01759205 0.025191449 -0.02510106
000050 0f 1b b3 3c 2a 92 ee bb 45 a5 d3 39 fc 8c 08 bd
       0.021863488 -0.0072806077 0.00040368192 -0.03333758
000060 39 83 e7 bc 8e ba 58 bd 61 93 93 bc 00 c3 92 bc
       -0.028260814 -0.052912287 -0.018014612 -0.017915249
000070 28 d4 b6 3d fe d3 e4 3c 92 08 0e 3d 43 03 2a bd
       0.08927184 0.027933117 0.034676142 -0.041507017
000080 e8 07 07 bd ef 73 b1 bc 42 1c 00 3e 54 81 52 3d
       -0.032966524 -0.021661727 0.1251078 0.05139287
000090 cb 66 f2 bd f5 7e 0b 3e 26 11 91 3c 2e 44 e3 3b
       -0.118360125 0.13622649 0.017708372 0.006935618
0000a0 84 5d 65 3d ad b0 91 3d 08 e8 03 be de 8c 39 3d
       0.055997387 0.07113776 -0.12881482 0.045300357
0000b0 57 eb 98 3d 4a c3 d9 bd 6a 81 8c 3d 70 8a 02 3e
       0.074667625 -0.106329516 0.06860621 0.12748122
0000c0 39 d7 32 bc 2f 6a ca 3d 09 f6 71 b5 fe ee 33 bd
       -0.010915571 0.09883534 -9.0137524e-07 -0.043929093
0000d0 e0 fd 93 3d 93 5d c3 bc fc db dc 3d 8a 2f 3b bb
       0.07226157 -0.02384833 0.10784146 -0.002856227
0000e0 30 ac ab 3d 64 3f be 3d 10 71 89 3c 39 c6 96 bd
       0.083824515 0.092894346 0.016777545 -0.07362027
0000f0 73 ee 3e 3d f0 0a fc 3d f1 78 74 3d 44 44 a8 bd
       0.04661412 0.12306774 0.05968565 -0.08216146
000100 63 a6 21 bc 89 5c 23 3d
       -0.00986633 0.03988317

Mixer_Block.0.mlp_block_token_mixing_DynaMixerOperation.fc_Nd.weight f4 [100, 10]
000000 1b ca 41 3f f9 4e ab bd 92 db 96 3e d2 7d 17 3e
       0.75699013 -0.08364672 0.29464394 0.1479409
000010 45 8f bd 3e f9 62 5a 3e 18 b2 6b 3e cb 6f 33 3d
       0.37023368 0.21326818 0.23017156 0.043807786
000020 f5 0b 9b 3e 4f b6 30 3e 0b e1 1e 3c 0f 63 1b 3e
       0.3028256 0.17257045 0.009697209 0.15174507
000030 01 c3 94 be a8 a1 07 3f c0 9d 0a 3f ff 3f a6 3e
       -0.29055026 0.5298104 0.5414696 0.324707
000040 e6 15 9b 3e 4f 81 2f 3e 08 b1 6f 3e 31 26 32 3e
       0.30290145 0.17139171 0.23407376 0.17397381
000050 17 0e 9e 3d 1d 14 6e bd 9f aa 8d be cd bb b7 bc
       0.07717531 -0.05812465 -0.27669236 -0.022428418
000060 5f 6f a3 3d 8e d8 bd 3d e6 f9 2d bd 69 e3 1c bc
       0.07980227 0.0926982 -0.04247465 -0.009575703
000070 bb 6b b3 bc eb 17 fb 3c d8 d0 64 be c0 87 d3 3d
       -0.021901956 0.030651053 -0.22345293 0.10328627
000080 26 d0 67 3d e4 60 84 be 8f 6a d2 3d 0d 06 9c 3e
       0.05659499 -0.25855172 0.10274231 0.30473366
000090 b9 cb 3f bd 20 aa d7 3d b1 5f 82 bd cc 93 9d 3d
       -0.046825144 0.10530496 -0.06365908 0.07694206
0000a0 4a 3d a3 bd fb a7 59 bd 78 11 9a bd fc 3d 72 bd
       -0.07970674 -0.053138714 -0.07522863 -0.059141144
0000b0 36 69 bc be 27 bc aa 3d a4 5e 86 bd 80 58 5e bd
       -0.3679902 0.083366685 -0.0656102 -0.05428362
0000c0 4d bd 4b bd 11 e7 8f 3c c6 41 97 bc ff a3 a4 3d
       -0.04974108 0.017566236 -0.01846398 0.08039092
0000d0 88 eb d7 3c d2 60 96 3b 39 9b 57 3d 51 19 b6 be
       0.026357427 0.0045891786 0.052638266 -0.3556619
0000e0 a8 e8 8c bd 8a 79 a3 3d 73 c5 8c bd 22 ca 22 3d
       -0.06880313 0.07982166 -0.06873598 0.03974355
0000f0 30 8b dd bd 27 14 2a 3d 41 41 6f 3d 8e f2 5a bd
       -0.108175635 0.041523125 0.05841184 -0.053453974
000100 c1 67 d0 3d c5 21 35 3e 93 9b df be fb ea 0c 3e
       0.101760395 0.17688663 -0.4367338 0.13761513
000110 1d 32 14 bc 1e 8c 3f 3c 8f 0b 9c be 1b 48 ce bd
       -0.009045151 0.011691121 -0.30477569 -0.10072347
000120 4d 3f 85 bc 96 b6 8d bc b6 2d 99 bd 54 44 34 3e
       -0.016265536 -0.017298978 -0.07479422 0.1760419
000130 c3 52 aa bd ea 9d ba be 11 22 c8 3d e7 3e 15 3d
       -0.08316567 -0.36448604 0.09772123 0.03643694
000140 66 3f 13 bd d0 5e 6f bd 4f 66 0a 3e 27 c6 fd 3c
       -0.035949133 -0.05844003 0.1351559 0.030978275
000150 84 10 05 3e 93 28 d3 3d 6f 92 15 3d ca bf aa b8
       0.12994581 0.10310473 0.036516603 -8.141955e-05
000160 24 5f bd be b7 f2 94 3d ef f6 0a 3d 9b e8 04 3e
       -0.3698665 0.07272857 0.0339269 0.12979357
000170 5d 05 4e bd 4d 22 54 bd ac 32 79 3c e3 e6 3e 3d
       -0.050298084 -0.051790524 0.015209835 0.04660691
000180 d3 72 16 3b 09 1b ad bc 42 02 d5 3d 13 49 d8 be
       0.0022956624 -0.021131055 0.10400821 -0.4224325
000190 24 33 97 be 5d f6 04 be da d6 98 bd f9 15 6f 3e
       -0.29531205 -0.12984605 -0.07462855 0.23348226
0001a0 be ae 32 3e 49 05 a4 3e 46 b0 2f 3e 5a 6a 90 3c
       0.17449471 0.32035282 0.17157087 0.017628837
0001b0 fd 6b aa 3e dc 9d 2f 3e e6 8c d0 3e fc fa 4f bd
       0.33285514 0.17150062 0.40732497 -0.050776467
0001c0 fa 15 4b 3e ac ad fb 3d 6e d7 ab bc c6 31 46 3e
       0.19832602 0.12288985 -0.020976748 0.19354925
0001d0 b4 e0 ef 3d 1b 57 22 3e 86 7a 42 3e ca 94 8b 3d
       0.117127806 0.1585354 0.18992051 0.06815489
0001e0 2a 4f 67 3e 72 ae c0 3e ed 01 a1 3b aa d2 c8 3e
       0.22588792 0.3763309 0.0049135596 0.39223224
0001f0 37 20 5d 3e 1b e0 04 3e 7c 35 27 3e 44 d5 fc 3d
       0.2159432 0.12976114 0.16328996 0.12345365
000200 91 65 ef bc 61 83 c4 3d 46 3d 66 be 3d 1d a9 be
       -0.029223235 0.09595371 -0.22484311 -0.3303012
000210 be bb db bd b1 3d c8 be 05 56 80 be 61 ed cf be
       -0.10729168 -0.39109567 -0.25065628 -0.40610793
000220 2e a5 5f be 79 39 a7 be 65 78 e1 bd f1 93 13 be
       -0.21840355 -0.32661036 -0.110092916 -0.14411904
000230 d0 6c 0d be 6d e5 cf bc 7f 7e b0 bd 62 b0 4d 3e
       -0.1381104 -0.025377953 -0.08617877 0.20086816
000240 62 96 9a be c7 3e 93 bc 9c 07 d0 3d 80 87 c7 3d
       -0.30192858 -0.01797427 0.101577014 0.097426414
000250 14 c1 29 bd 91 e5 b0 bc 8d b2 82 3e 72 f4 d6 bd
       -0.0414439 -0.02159384 0.25526848 -0.10495843
000260 22 89 36 3e 13 5e a4 3c d5 11 77 be 11 56 df be
       0.1782575 0.02006439 -0.24127896 -0.4362035
000270 46 ed a2 be 75 55 ca bd a9 df 35 bc 9f 5b b5 bd
       -0.3182165 -0.09879581 -0.011100688 -0.08855366
000280 01 ff f3 3c 1c 1d 9c 3d 70 ee 80 3d c5 a4 6a 3d
       0.029784681 0.0762274 0.06295478 0.057286043
000290 bf 83 a8 bd ba 1f 73 3c 86 69 d8 be f4 d2 4e bc
       -0.082282536 0.014839107 -0.42268008 -0.012623537
0002a0 8a 4a 2f 3d 3d 7a 8b bd b6 d4 86 be c9 3b 7b be
       0.042795695 -0.068104245 -0.2633416 -0.24534525
0002b0 17 cd 8b bd 5a c9 41 3b 9a 6e 86 bd b0 26 ca bd
       -0.06826227 0.0029569478 -0.06564064 -0.0987066
0002c0 ae f2 9e 3d 99 2d 8d be 3f 18 9e bc cb b7 66 be
       0.07761131 -0.2757385 -0.01929867 -0.22531049
0002d0 a4 2d c0 3d 7e f9 29 be 27 99 97 3c 90 30 ed bd
       0.09383705 -0.1659908 0.018505646 -0.11581528
0002e0 8c a8 14 3e 36 0a 64 be 14 ec 87 3b ba 38 55 be
       0.1451742 -0.2226952 0.0041480158 -0.2082242
0002f0 4e d3 a2 be 97 21 5e be 22 16 88 3d ef 52 6d 3d
       -0.31801838 -0.21692501 0.066448465 0.05794042
000300 50 49 eb bd 2d e9 29 be 93 5d 37 be f9 15 3e be
       -0.114885926 -0.16592856 -0.1790679 -0.1856307
000310 56 17 ec 3d bc 24 3a 3d e4 89 38 3e 2b 7e 70 be
       0.115278885 0.04544519 0.18021351 -0.2348563
000320 51 dc 31 be 35 7d 56 bc 2b 00 ab bd de 33 35 be
       -0.173692 -0.013091375 -0.083496414 -0.17695567
000330 22 e9 14 be 54 ab 2d be e9 52 42 be a5 6f 45 be
       -0.14542058 -0.16959888 -0.1897694 -0.1928087
000340 6c 44 79 be 08 03 dc bd ea c3 6d 3e b9 8b 5c 3d
       -0.24342507 -0.10742766 0.23219267 0.053844187
000350 4d 00 c8 3d cb 6c e1 3e e4 b5 07 3e 1a aa 8a 3e
       0.09765682 0.44028315 0.1325298 0.27082902
000360 b1 b0 c1 bb c1 b0 c2 3e ea 79 6f 3e b3 28 be bd
       -0.005910956 0.38025478 0.2338635 -0.092851065
000370 0c ca 9c 3e 41 e7 b0 be e1 f8 0d 3f dd c9 da 3e
       0.306229 -0.34551433 0.55457884 0.42732134
000380 df df cf 3c 09 87 96 bd 45 a8 9f 3e 58 26 52 3c
       0.025375305 -0.07349975 0.31183067 0.012826525
000390 72 25 11 bd 81 58 53 3e b9 39 a3 be 58 da a0 bc
       -0.0354361 0.2063923 -0.31879976 -0.019635364
0003a0 85 43 37 be b4 2f 27 be f6 62 76 be 5f 75 8e be
       -0.1789685 -0.16326791 -0.24061188 -0.27823922
0003b0 11 66 38 be 9d 11 15 be cc 19 81 be ca ab 18 be
       -0.18007685 -0.145575 -0.25214994 -0.14909282
0003c0 36 db b3 bb d0 df 32 be d9 f0 84 3d 5e 8a 0a 3f
       -0.0054887785 -0.1746819 0.064912505 0.5411738
0003d0 f8 94 af 3e 55 10 ce bd a3 59 9d bb 29 f8 8f bd
       0.34293342 -0.10061709 -0.0048019453 -0.07029755
0003e0 83 a3 23 be 70 93 d1 bd 79 a4 a9 bc ba eb f1 3b
       -0.15980344 -0.102331996 -0.02070831 0.007382837
0003f0 e6 0d a7 bd 9f b9 79 3d ee ec b0 bd b7 52 49 be
       -0.08156948 0.060968038 -0.08638941 -0.1966046

Mixer_Block.0.mlp_block_token_mixing_DynaMixerOperation.fc_Nd.bias f4 [100]
000000 f7 1b 34 bf 47 3d 92 be 3a d1 3a 3e 90 c1 97 3e
       -0.7035517 -0.28562376 0.18243876 0.29639864
000010 d8 5b 12 3b da 84 1c 3d 54 70 a3 3e fb cc c1 3c
       0.0022332575 0.038212635 0.31921637 0.023657313
000020 44 03 16 3e 57 e5 13 be 56 bb e7 be 56 9c 67 bf
       0.14649683 -0.14442955 -0.45260113 -0.90472925
000030 09 3a 26 be ea 87 d0 3c 27 14 b0 bd d2 a1 9c 3e
       -0.16233076 0.025455434 -0.08597594 0.3059221
000040 68 81 b8 3e a8 96 a6 3e 53 0d 0c be 9f 68 33 3e
       0.3603623 0.32536817 -0.13676958 0.17520379
000050 6c c3 21 3f 7f b2 22 be d6 3a 63 bd fa 61 01 bd
       0.63188815 -0.15888403 -0.055476032 -0.03158758
000060 09 8c 95 be 22 b1 99 3e 2f cb f2 bd fd b8 61 bd
       -0.292084 0.30017954 -0.118551604 -0.05510806
000070 3d 14 e0 3d fe 7b 09 3e a1 c9 b6 bd 85 8b be 3e
       0.1094136 0.13426206 -0.089251764 0.3721582
000080 ec a3 72 be fa d6 8f 3d e4 f4 3e bf 16 b0 1e 3f
       -0.23695344 0.070234254 -0.74592423 0.61987436
000090 48 88 68 be fe 03 8c 3e e2 1e 97 be f9 5c fc bd
       -0.22708237 0.27346796 -0.2951575 -0.123224206
0000a0 cb b8 9b be 4b 21 ed 3d c3 35 5b be a0 3d 07 3e
       -0.30414423 0.11578616 -0.21407227 0.13207102
0000b0 2e dc cf be fc b1 33 3e 38 0f 10 bd b9 c9 a0 3e
       -0.4059767 0.17548364 -0.035170764 0.31403902
0000c0 2a 0d 62 3d e9 11 23 3e b3 45 eb bd 2c 55 7d be
       0.055188335 0.15924801 -0.114879034 -0.24739522
0000d0 0d 3d 24 3e e1 e4 88 3d eb 6b 3b 3e 6b 76 58 3d
       0.16038914 0.0668428 0.18302886 0.052847307
0000e0 d2 17 4e 3e 22 f0 d3 bb 64 05 b1 3d e4 71 28 be
       0.20126274 -0.006467835 0.08643606 -0.16449696
0000f0 ca 2c 98 3e 13 49 b9 bd 42 75 86 bd 76 8b 77 be
       0.2972167 -0.09047141 -0.06565334 -0.24174294
000100 71 1d 13 be 7e 17 db bb 3f 55 f6 bc 6b 06 9a 3b
       -0.143667 -0.00668615 -0.030069945 0.004700472
000110 ed c1 08 3e a5 0c 3b bd 09 65 1f 3e b4 dd 33 3d
       0.13355227 -0.045666356 0.15565886 0.043912604
000120 a5 ec 3b be 24 d8 4d be d7 82 ea bd f4 a2 60 be
       -0.18351991 -0.20101982 -0.11450737 -0.21937162
000130 4e f8 35 be 37 bc e9 3d c9 82 d4 3d d3 16 09 be
       -0.17770502 0.11412852 0.10376508 -0.13387613
000140 d0 bb ec 3e 2f f9 a1 bc c0 08 33 3e 34 b7 04 3b
       0.4623704 -0.01977214 0.17483807 0.00202508
000150 43 69 26 bd 03 d8 a0 bd ac 30 4f be 12 d5 1a be
       -0.04062773 -0.07853701 -0.2023341 -0.15120342
000160 c0 0a 9c 3d 43 d9 5a 3e 33 f8 92 3d 37 8d c2 3d
       0.07619238 0.21371941 0.071762465 0.09499591
000170 99 ad 54 bf fe 6b ba bc d9 02 e9 be 1a 5a 0d 3e
       -0.8307739 -0.022756573 -0.45509985 0.13803902
000180 df 92 fe bd bd 25 84 3e be 69 34 bd c2 77 65 be
       -0.12430357 0.25810042 -0.044046156 -0.22408965

Mixer_Block.0.mlp_block_token_mixing_DynaMixerOperation.fc_out.weight f4 [66, 66]
000000 8e 00 92 3e c0 6d 4a 3e f2 d2 a2 3d 55 1f 63 3e
       0.28516048 0.19768429 0.07950391 0.22179921
000010 7d 59 19 be 5a 7a aa 3e 55 8f 8a 3b 6f a7 d0 bd
       -0.14975543 0.33296472 0.0042285123 -0.101881854
000020 76 d4 df bd c5 a6 2b be 08 24 38 3e c0 ff 8a 3e
       -0.109291956 -0.16762836 0.17982495 0.27148247
000030 18 7e a5 3d 6f 46 6b bd 2e 56 a8 3d 26 d6 3a bd
       0.08080691 -0.057440218 0.082195625 -0.045614384
000040 29 35 cc bd 91 86 5b 3d c4 73 34 3e 94 fa 10 be
       -0.09971077 0.05359513 0.17622286 -0.14158088
000050 09 45 e0 bd ed 64 68 be ba f3 30 3e 3c 65 0c ba
       -0.109506674 -0.2269475 0.17280474 -0.0005355661
000060 31 a7 ac bc 37 65 2e be 0d 64 43 be 86 17 49 3e
       -0.021075817 -0.17030798 -0.19081135 0.1963788
000070 06 76 15 be 41 46 35 bd 08 33 1a bc 02 19 bb 3c
       -0.14595804 -0.044256452 -0.009411581 0.022839073
000080 ff f6 c1 3c 0a 5f 0a 3d 25 12 26 bd 09 e9 9e bb
       0.023677347 0.033782043 -0.040544648 -0.0048495573
000090 d2 e5 24 3e 58 35 27 bd da 2e e6 bd 6d 83 05 be
       0.16103294 -0.040822357 -0.11239405 -0.13038416
0000a0 e8 ec 5a bc ac 04 18 3d 46 10 66 3e 08 5a 0e be
       -0.013362147 0.03711383 0.22467145 -0.13901532
0000b0 39 05 82 3b c0 43 85 3e 0a a4 ce bd 27 af f5 bc
       0.0039679077 0.26028252 -0.10089882 -0.029990746
0000c0 1c e5 4d be b4 70 05 3e ea cb 8d 3e be 04 10 3d
       -0.2010693 0.13031274 0.27694637 0.035160773
0000d0 7a 06 df 3d 0c 64 eb bd f9 0f 3b bd 75 1e 01 bc
       0.10889907 -0.11493692 -0.04566953 -0.007880797
0000e0 95 10 4a 3e 0e 66 89 bd be d3 04 3e 4a d5 ff bc
       0.19732888 -0.067089185 0.12971398 -0.031229634
0000f0 63 21 05 be 97 aa 2c 3c 14 d0 6b bc c8 d4 22 3d
       -0.13001017 0.010538719 -0.014392871 0.039753705
000100 af 80 a0 bc a2 a3 10 3e 9f 2d 19 3e fd 70 b5 3e
       -0.019592611 0.14124921 0.1495881 0.35437766
000110 06 30 ee 3c 9b 9f 68 bd 05 60 a2 bd 69 18 17 3d
       0.029075634 -0.056792837 -0.079284705 0.036888514
000120 c0 cf e4 3c d9 88 e6 3d 3e 94 49 3e c0 f1 62 bd
       0.027931094 0.1125657 0.19685456 -0.055406332
000130 d7 e8 1d be 4d 04 f3 3c e7 19 87 3e 06 41 b6 3d
       -0.15420853 0.029665137 0.2638695 0.08899121
000140 00 d0 1b bb 43 a6 ac 3d 87 43 ff 3d b6 5c 1c bd
       -0.00237751 0.084301494 0.12464052 -0.038174354
000150 fc b2 ef 3d 6e bd 33 be 88 d2 e5 bd fe f0 02 3e
       0.117040604 -0.1755273 -0.11221796 0.12787244
000160 7d 34 54 bd 01 dd b9 bc 48 50 03 be 31 7a f4 bd
       -0.05180787 -0.02268839 -0.12823594 -0.11937369
000170 13 87 a9 3d 20 66 55 be bd dc 4f 3e ec 55 03 bd
       0.082777165 -0.20839739 0.20299049 -0.032064363
000180 bc 7c 06 3e 2a 17 0a be 50 25 93 be a9 38 64 be
       0.1313352 -0.13485399 -0.28739405 -0.22287239
000190 37 28 bb 3c ba fb 81 3c 5f c6 03 be 28 5a 2c 3e
       0.022846324 0.015867103 -0.12868641 0.16831267
0001a0 40 4a ef 3d dd 6b 6a 3e b9 9a 1c 3d 1e 61 f6 bc
       0.11684084 0.22892709 0.038233493 -0.030075606
0001b0 fa b0 06 3c 43 d8 09 bd 9a 2f 5b 3e 5f a0 f5 3d
       0.008220905 -0.03365351 0.21404877 0.11993479
0001c0 79 32 c3 bd d3 5b a9 bc 1e 3d d9 3c a0 f8 fd bd
       -0.09531111 -0.020673668 0.0265184 -0.12400937
0001d0 fe 8d de bb 86 05 90 3d 51 19 42 3e d4 ce 5b 3e
       -0.006791829 0.070323035 0.1895497 0.21465617
0001e0 0c 9f 66 be cc 03 52 3e 4d 58 4a 3e e2 f3 1b 3d
       -0.22521609 0.20509261 0.19760247 0.03807438
0001f0 b0 e3 30 bd 07 9d 93 be ac 4b 81 3e d9 32 3d 3d
       -0.04318589 -0.2883074 0.25253046 0.04619107
000200 9e ff 5f bb d7 82 ef bd 6e 96 35 be c1 0b 92 bc
       -0.003417946 -0.116948776 -0.17733166 -0.01782787
000210 f4 4a 78 3e 17 89 e9 bd 4f 8e 46 3d 6b 7b f5 bd
       0.24247342 -0.11403101 0.04847556 -0.11986431
000220 25 50 1f 3e a6 83 1d bd 76 70 fc bc 9b a7 0e 3c
       0.15557916 -0.038455628 -0.030815344 0.008706952
000230 cc 2c 59 be f7 b5 6c bd 31 b2 c6 3d 49 28 ee 3b
       -0.21208495 -0.057790723 0.09701956 0.007267986
000240 4f e9 d6 bd c2 5c 4c be 3a b5 25 3d 03 03 73 3e
       -0.10493719 -0.1995726 0.040456034 0.23731618
000250 10 dc bf 3d d8 89 13 3e 20 1a 08 be 69 f9 3b 3e
       0.093681455 0.14408052 -0.13291216 0.18356861
000260 62 35 2e 3e a1 67 c8 bd 90 fe c8 3c 15 43 02 be
       0.17012551 -0.09785391 0.024535447 -0.12720902
000270 52 c0 b7 bc 61 e4 b3 3d f4 dd bb bd a8 e4 ee 3d
       -0.022430573 0.08783794 -0.091731936 0.116647065
000280 1c ff d3 bd 8f 31 2a ba 4f 3b 0a bd f4 02 0e 3e
       -0.103513926 -0.000649237 -0.033747967 0.13868314
000290 ca 04 84 bc af c1 87 bc 91 07 54 bd cb 2f 53 3c
       -0.016115565 -0.016571848 -0.05176503 0.012889813
0002a0 bc f6 31 3d d1 38 f0 bd 68 5d e3 3d e3 e0 57 bc
       0.043448195 -0.11729587 0.111018 -0.013176176
0002b0 40 46 b8 3d 6b 6c 8f 3e 35 27 ba 3d 79 e5 2a be
       0.08997774 0.28012404 0.090895094 -0.166891
0002c0 ea d0 6a be e9 41 82 3e 31 54 4f 3b 72 14 38 3d
       -0.22931257 0.2544091 0.0031635875 0.044941373
0002d0 e1 01 09 be ae e3 53 be a4 34 fe 3c 53 23 a7 bd
       -0.13379623 -0.20692322 0.03103096 -0.081610344
0002e0 d9 01 24 3e 04 7b 90 bd 7c 17 74 be 04 c6 a7 bc
       0.1601633 -0.07054713 -0.23837084 -0.020480163
0002f0 bf 7a 96 3e e7 19 21 be 0f 17 51 3d 07 4d bf bd
       0.29390523 -0.15732537 0.05104738 -0.09340864
000300 ee a9 02 3e bc f5 fa bc f0 64 8f 3d 5d d6 36 bb
       0.12760136 -0.030634753 0.07001674 -0.0027898767
000310 b0 8c 9a bd 32 31 47 3e 2d 9b 84 3e 8e 07 19 3e
       -0.07546365 0.1945236 0.2589964 0.14944288
000320 9f e3 8c 3d 6e 2c 06 3e a4 8a 68 be 83 46 ba bd
       0.06879353 0.13102886 -0.22709137 -0.0909548
000330 fa cc 74 3d 2c 79 8c 3d d2 d0 25 3d 33 90 20 3e
       0.059765793 0.06859049 0.04048235 0.15680008
000340 0f 59 b3 bb eb b9 ff bd 24 4a c3 bd ea 86 a6 be
       -0.005473263 -0.12486633 -0.095356256 -0.32524806
000350 ef 24 b2 3c 5c b4 23 3e 84 7d 02 3e 5f 59 c1 bd
       0.021746127 0.1598677 0.12743193 -0.09440874
000360 98 39 58 3d 53 10 19 be 37 3f 9e bd b2 d7 6c bd
       0.0527893 -0.14947633 -0.07726901 -0.05782289
000370 d8 3e 64 bc a4 0a a9 be 86 fe 26 be 14 a0 46 3e
       -0.013930999 -0.3301593 -0.1630803 0.19397002
000380 0f 84 37 be f9 12 26 3e e2 f5 08 3e e6 de a2 bc
       -0.1792147 0.16218175 0.13375047 -0.019881677
000390 a6 ad 0c 3c 68 28 f6 bd c0 6d b8 3d 47 fc d4 be
       0.008586323 -0.12019426 0.09005308 -0.41598722
0003a0 d2 33 7f be 1d 8d a9 bd 27 71 c7 bd 93 89 67 bd
       -0.24922112 -0.08278868 -0.09738379 -0.056527685
0003b0 2a 11 66 3e 50 e2 0b be 07 be 84 3d c1 84 28 3e
       0.22467485 -0.1366055 0.06481557 0.16456892
0003c0 b8 46 41 be 95 18 48 3e 5b 46 a2 bd 8d f9 90 bd
       -0.18874633 0.19540627 -0.079235755 -0.07078848
0003d0 86 03 52 be a4 cf 57 bc 40 ce fc 3d f1 be 75 be
       -0.20509157 -0.013172064 0.123440266 -0.2399862
0003e0 27 cc 10 be 5c f2 0b be d0 72 2b 3e 5d c0 6a 3c
       -0.14140378 -0.13666672 0.16743016 0.01432809
0003f0 98 fb c8 bd 72 ea 7a 3d 36 b5 64 3d e5 db cd 3d
       -0.09813613 0.06125874 0.05583688 0.10051707

Mixer_Block.0.mlp_block_token_mixing_DynaMixerOperation.fc_out.bias f4 [66]
000000 33 78 05 3f d5 5c c1 3e a6 d0 e5 3e 00 6a 84 3e
       0.52136534 0.37766138 0.4488575 0.25862122
000010 5c b8 df 3d a9 67 3f bd 72 31 3e be f3 bc 97 3d
       0.10923836 -0.046729717 -0.1857355 0.07409086
000020 4a 09 91 3e 7e 5f 86 bd 93 ef 5b bd b3 41 a9 3e
       0.283274 -0.065611824 -0.053695273 0.33057937
000030 22 b2 8f bd 03 05 87 3e ac a4 24 3d f4 6e 9f 3e
       -0.07016398 0.2637101 0.040196106 0.31139338
000040 31 56 1a be 8f e3 cd 3e af 89 7e be 26 bc 75 be
       -0.15071942 0.40212676 -0.2485721 -0.23997554
000050 94 ee 29 bd 31 84 7f be 43 83 01 bf 6b a2 46 be
       -0.04148729 -0.24952771 -0.50590914 -0.19397895
000060 f3 60 49 bd d4 35 c9 3d 27 5a 54 3e a2 bd e3 3e
       -0.049164724 0.0982472 0.20737515 0.44480616
000070 91 f7 0c 3e 1c 23 89 3e 72 48 9c 3d 00 14 fa 3e
       0.13766314 0.267846 0.07631005 0.48843384
000080 1e 45 a0 3b 33 5f 20 3e 5b 80 f9 bc e8 ff 96 3d
       0.004891052 0.15661316 -0.030456712 0.07373029
000090 54 10 fa 3c a2 7f e9 bd 2b 59 01 be 57 58 c2 bd
       0.030525364 -0.11401297 -0.12631671 -0.09489506
0000a0 c1 67 f7 3e 1e 4e fa 3c 50 ae 02 be b5 e7 13 be
       0.48321345 0.030554827 -0.12761807 -0.14443858
0000b0 91 41 08 be df f0 28 3e f8 c2 0f be 76 52 60 3d
       -0.13306262 0.16498135 -0.14039218 0.05476614
0000c0 da 31 ab 3d a9 15 17 3d 01 20 95 3e a9 a9 88 3d
       0.08359118 0.03688589 0.2912598 0.06672985
0000d0 0e 46 61 bd 3d 71 a7 3e 8c b1 b9 3e 2d a7 80 b8
       -0.05499845 0.3270358 0.3626827 -6.1346545e-05
0000e0 f9 2c 85 3e 9c b5 0d 3e e4 2c b9 be 05 cb d8 3d
       0.26010874 0.1383881 -0.3616706 0.10585598
0000f0 1c a2 5f be 50 66 12 3e b0 6c 05 bf fb 54 ae be
       -0.21839184 0.14296842 -0.5211897 -0.3404921
000100 da 29 1b be 49 28 d9 be
       -0.15152684 -0.42413548

Mixer_Block.0.mlp_block_token_mixing_DynaMixerOperation.LN.weight f4 [10]
000000 a9 2f 75 3f 59 5e 86 3f ce 7e 60 3f 23 ae 3b 3f
       0.9577585 1.0497543 0.8769349 0.73312587
000010 a1 d0 51 3f 5a 7c 42 3f 49 53 59 3f b5 53 3d 3f
       0.8195897 0.75970995 0.8489271 0.7395585
000020 1d b5 71 3f 4c ef 6d 3f
       0.9441698 0.92943263

Mixer_Block.0.mlp_block_token_mixing_DynaMixerOperation.LN.bias f4 [10]
000000 0a f8 a5 bc dd 1b d7 3c 58 21 be 3e 57 55 d7 bd
       -0.020259876 0.026258403 0.37134814 -0.10514324
000010 67 a6 07 3e 31 38 19 be bd 6c 0a ba 61 c1 46 be
       0.13247071 -0.14962842 -0.00052804855 -0.19409706
000020 b2 bc 02 3e 1c d0 00 3e
       0.12767294 0.12579387

Mixer_Block.0.mlp_block_channel_mixing_DynaMixerOperation.fc_ND.weight f4 [1, 10]
000000 b5 69 5a bf 1c f6 5d 3e 48 02 00 3d 1f 50 61 3d
       -0.85317546 0.21675915 0.031252176 0.05500805
000010 de b5 11 3d e4 4b 38 3d 3c 2a 1d 3d d8 5b 19 3d
       0.035573833 0.04499425 0.038370356 0.037441105
000020 50 43 a8 3b 07 1a 66 3c
       0.0051349774 0.014044291

Mixer_Block.0.mlp_block_channel_mixing_DynaMixerOperation.fc_Nd.weight f4 [484, 22]
000000 ca 63 8e 3e 88 b5 47 be 67 d2 1e bd dc fc ee bd
       0.27810508 -0.19502842 -0.038774874 -0.11669323
000010 ad 48 03 bf 28 54 02 3e a5 25 a9 be 2e 99 b3 bd
       -0.5128277 0.12727416 -0.33036533 -0.08769451
000020 99 55 b4 3c 8a 7b e8 3d e4 12 c7 3d 11 60 23 3e
       0.022013472 0.11351688 0.097204 0.15954615
000030 6c 6b d5 3d 8a db 5c 3d f1 20 d7 3c 11 22 6d 3d
       0.1042088 0.053920306 0.026260825 0.057893816
000040 dc 43 45 3e 81 ce 12 bd b8 fc 08 3e 87 0f 01 3e
       0.19264168 -0.03584147 0.13377655 0.1260358
000050 18 5b f0 be ad ba ae 3e de 6e 41 3e d2 a5 19 3e
       -0.469445 0.34126797 0.18889949 0.15004662
000060 df e4 b0 3d 7a 0a 05 3e 58 10 25 3e 09 6f 4c 3e
       0.08637404 0.12992278 0.16119516 0.19964232
000070 7d 0e d2 3e 2e 9b fa bd e4 88 97 3e d3 cd e3 3d
       0.4102668 -0.122366294 0.29596627 0.11123242
000080 3e e3 43 3e 5e 52 63 bd cd 46 1f 3e ae c1 b4 3b
       0.19129655 -0.055498473 0.15554352 0.0055162525
000090 c2 ac 48 3d 78 ff 5b 3d 74 b5 7f bd 24 e7 14 bf
       0.04899288 0.05371043 -0.062428907 -0.5816519
0000a0 a7 20 6d 3e 9d 2e 51 be 36 db 5d 3b 5a 84 52 3d
       0.23156987 -0.20427938 0.0033852584 0.05139575
0000b0 0c 10 fb bd eb a8 07 3e 13 6a 1f 3e 1f 9c 91 3e
       -0.1225892 0.13248031 0.15567808 0.28439423
0000c0 b6 70 f5 bd 54 97 3a bd 4c d0 55 bd 91 97 54 3e
       -0.119843885 -0.045554474 -0.0522006 0.20760943
0000d0 1a 08 53 3e cb 40 36 be 2c c1 a8 3e aa aa 45 be
       0.20608559 -0.17798154 0.32959878 -0.19303384
0000e0 85 a2 7e bc 26 aa bc 3d 0c fb 7f bd 38 53 89 bb
       -0.015541677 0.09212141 -0.062495276 -0.0041908287
0000f0 85 9b c2 3c 85 ff e9 3d c2 66 3e 3e d6 35 20 3e
       0.023755798 0.114256896 0.18593886 0.15645537
000100 7b 99 b5 be e8 25 a4 bd 4c 6a 20 be 6f 11 22 be
       -0.3546866 -0.080150425 -0.15665549 -0.15826963
000110 e7 36 10 3e bd 9e 6b 3d 6a 74 11 be 26 03 b4 3e
       0.14083444 0.05752443 -0.14204565 0.35158652
000120 5b 55 9f 3e 2c c7 13 be 29 4e 4e 3d 47 0a 30 be
       0.3111981 -0.14431447 0.050367508 -0.1719142
000130 ce ff 20 3e 8e 2e 25 3e fb 52 98 bd 58 b7 02 3f
       0.15722582 0.1613104 -0.07437702 0.5106101
000140 cb c2 05 be 1b d2 ce bc 3b 1c f8 bd 4d 62 7f 3e
       -0.13062589 -0.02524667 -0.121147595 0.24939843
000150 9c 43 ed 3d 7a fc 99 3e c3 ec a4 be 5a 33 ad 3d
       0.11585161 0.30075437 -0.32211885 0.0845706
000160 e5 a1 00 3e fb 17 2d 3e fb 36 de 3d 62 13 71 3e
       0.12561758 0.16903679 0.108503304 0.2354255
000170 81 5f ca 3e 47 ab a2 be 66 a0 47 3c 1f c4 9a 3c
       0.3952599 -0.317713 0.012184238 0.018892346
000180 ac 84 00 3e f1 cf 21 3e a2 2c 9a 3e 21 d4 34 be
       0.1255061 0.1580198 0.30112177 -0.17659046
000190 c7 07 8a bd 64 61 70 be bd 34 dc bd db a4 bd 3d
       -0.06739765 -0.23474652 -0.107522465 0.09259959
0001a0 00 93 1c 3d 39 06 05 3e 60 90 46 bd 37 10 23 bd
       0.038226128 0.12990655 -0.04847753 -0.039810386
0001b0 f8 ba df 3e 72 9c 3d 3e f8 b1 13 3d 3d c2 99 be
       0.43697333 0.1851671 0.036058396 -0.30031005
0001c0 8f f0 b5 bd 60 b5 44 be 36 f8 31 3d 40 08 80 bd
       -0.088837735 -0.19209814 0.043449603 -0.062515736
0001d0 6d 86 a4 3e 0f d1 f1 bb d2 5e db bc 47 fa 00 3e
       0.3213381 -0.007379658 -0.026778612 0.12595473
0001e0 49 7a 86 3e 0d 97 5b 3e f8 21 28 be fe a6 00 3e
       0.2626517 0.2144434 -0.16419208 0.12563702
0001f0 b0 48 17 3e 58 22 4f be 5d 80 02 3c 0a 9b 53 bd
       0.14773822 -0.20227945 0.0079651745 -0.05166153
000200 91 08 29 be ed 04 3c 3e da 97 eb 3e 1c fe a7 bb
       -0.16507174 0.18361254 0.4601429 -0.0051267277
000210 84 62 dd 3d 59 6c 4e be 7e 73 a4 3e f2 a6 ad 3d
       0.10809806 -0.20158519 0.32119364 0.08479108
000220 a2 e9 8e be ed 73 3b be 63 e8 05 3e d8 7c b0 be
       -0.27912623 -0.18305941 0.1307693 -0.34470248
000230 2d 76 6f 3d e8 34 ba 3e 7f e9 24 bd 09 f3 16 3e
       0.05846231 0.3636849 -0.04026174 0.14741148
000240 cb e8 8b 3e 0b f7 79 bb 91 d8 01 bd 82 82 1e 3e
       0.27326044 -0.0038141634 -0.031700674 0.15479472
000250 87 74 87 be f8 38 bd ba b3 10 00 bf ff 04 cb 3d
       -0.2645609 -0.0014436534 -0.5002548 0.09913062
000260 2c e7 02 3e 5f 99 a2 be 17 8c 8e 3e e2 b2 b3 3e
       0.12783498 -0.31757638 0.27841255 0.35097414
000270 d3 a8 29 bc 55 49 0b 3d d9 67 d8 bd eb 70 44 bd
       -0.010355192 0.03400548 -0.10566682 -0.04795925
000280 4d bc 39 3e 9e 1c 97 3d a6 d2 39 bd ac f6 11 be
       0.18138237 0.07378505 -0.045366906 -0.14254254
000290 e8 61 df be 83 32 83 3e 00 d6 1b 3e 0f 3a c3 bd
       -0.43629384 0.25624475 0.15218353 -0.09532558
0002a0 be 7c 88 3e bf 9c 96 3e bf 23 08 3e 99 f6 d4 be
       0.2665767 0.29416463 0.13294886 -0.4159439
0002b0 0a ac 61 3d 5d 12 06 3e f4 41 a0 3c 97 fd 7e be
       0.05509571 0.13092943 0.019562699 -0.24901424
0002c0 4b 00 cf 3e 5b aa ce be d5 e3 9e be ce f6 08 3e
       0.4042991 -0.40364346 -0.31033197 0.13375399
0002d0 7d 1d cc 3e 6c cf 13 3c c1 cf 82 be e0 ba 53 3e
       0.39866248 0.009021621 -0.2554913 0.20676756
0002e0 ea 34 c2 bd db 3e fc 3e ee d0 81 3e 3e de a0 bc
       -0.09482749 0.49266705 0.25354713 -0.019637223
0002f0 d8 3b 43 3e 08 f2 62 be e4 d4 4f 3e ef b8 f4 3e
       0.19065797 -0.2216264 0.20296055 0.47797343
000300 35 ab 7f be c7 18 df bd e8 b7 3c 3e 04 9a 53 3e
       -0.24967654 -0.10893398 0.1842953 0.20664221
000310 a0 16 f3 bc a7 58 a3 3e d4 9d d9 bd c8 40 a4 3e
       -0.029673874 0.31903574 -0.106258065 0.32080674
000320 7d 48 3d 3d 97 c6 05 3e ff 5d 96 be 3e d4 ad be
       0.04621171 0.13064037 -0.29368588 -0.3395099
000330 88 87 88 bd 8d eb 3f be 20 63 0a bd 82 7d cf be
       -0.066664755 -0.18742199 -0.03378594 -0.40525442
000340 d6 cc 23 be 5a b9 90 bd 74 2b 76 3d e9 b0 0a 3d
       -0.15996107 -0.07066603 0.060100034 0.03386012
000350 04 05 7a be ba e9 c7 bd d1 3a 57 3e bd af 5b 3e
       -0.24415976 -0.09761377 0.2101853 0.21453758
000360 c7 4b 21 3d d2 10 97 bd 21 e4 75 be 1d c9 ef 3d
       0.039378908 -0.07376255 -0.24012806 0.11708281
000370 be 78 50 3d fd 2f a0 bd 75 64 aa 3e 37 2d bf 3d
       0.0508964 -0.07821653 0.33279768 0.09334796
000380 98 b2 c7 be 13 08 4e 3e bf 9c b8 3d 98 b7 85 3e
       -0.39003444 0.20120268 0.09014272 0.26116633
000390 03 cc 1c be 7d c7 de be f2 d5 3b be bf 61 ea 3c
       -0.153122 -0.43511572 -0.18343332 0.028611062
0003a0 d0 fa a2 be f9 9e 28 3e f0 54 c8 bc a8 91 16 be
       -0.3183198 0.16466893 -0.024454564 -0.14704001
0003b0 36 f2 8c 3e df c3 8f be b8 30 bb bd 5c f2 a7 be
       0.27528542 -0.28079125 -0.09140152 -0.32802093
0003c0 b8 dd 07 3e 21 78 90 be 9c 5d f0 3d 96 fc 51 bd
       0.13268173 -0.2821665 0.117366046 -0.051266275
0003d0 ec be 39 bd 1e e0 8e 3e 4d b6 bf be 78 36 35 3e
       -0.045348093 0.27905363 -0.37443772 0.1769656
0003e0 4f 9e 90 3d 71 db 7d 3e b6 25 7c be 99 8f 3f be
       0.07061445 0.24790742 -0.2462376 -0.18707122
0003f0 29 8a 9a 3e 84 c4 e8 bc 01 43 a3 3d 1a b3 0e 3d
       0.30183533 -0.028414018 0.07971764 0.034838773

Mixer_Block.0.mlp_block_channel_mixing_DynaMixerOperation.fc_Nd.bias f4 [484]
000000 54 e1 be be c0 25 a3 3e 16 68 33 be 94 39 05 3d
       -0.37281287 0.31864738 -0.17520174 0.032525614
000010 e4 4a ac 3e 37 70 75 3e 67 c2 8a 3e b0 1e 91 3d
       0.33650887 0.23968588 0.27101442 0.07085931
000020 61 ea f9 bd af 57 eb bd 89 c2 32 be 18 b1 a1 3a
       -0.12202907 -0.11491334 -0.17457022 0.0012336103
000030 95 aa 1d be 91 f3 97 bd 96 92 45 3e 38 3b ce bd
       -0.15397103 -0.074195035 0.192942 -0.10069889
000040 e8 1b bf bd 43 71 45 be c7 ec 01 3e e1 6c 11 3d
       -0.093314946 -0.19281487 0.1268798 0.035504226
000050 5c 2c 40 3e 0c e9 d1 bd 6b 40 50 3e 12 be 21 3d
       0.18766922 -0.10249528 0.20337074 0.039487906
000060 10 d5 9c be ee 54 33 be 37 83 63 be 2e cc 8a bc
       -0.30631304 -0.17512867 -0.22218023 -0.016943064
000070 8d c5 62 be 12 47 cb bc c9 71 09 3e 1d 5c 9e 3e
       -0.22145672 -0.024814162 0.13422312 0.30929652
000080 88 31 91 be bb ed 14 3e d2 92 de 3e 6f d2 2d be
       -0.28358102 0.14543812 0.4347139 -0.16974805
000090 25 88 8e 3e 09 90 c8 3a a9 6e 9f be 2e a2 cd bd
       0.27838245 0.0015301715 -0.31139114 -0.10040699
0000a0 54 68 eb 3d bc 11 c2 3e 2e e0 43 3d 87 94 6e be
       0.114945084 0.37904155 0.047821216 -0.23298846
0000b0 67 7e 70 be c9 42 ac be 24 b3 15 3d 2e 2f e0 bd
       -0.23485719 -0.33644703 0.036547795 -0.10946499
0000c0 5e b5 74 be a3 71 9a 3e 34 47 57 3e f5 9c 2d be
       -0.23897311 0.30164823 0.21023256 -0.16954406
0000d0 37 82 11 3c 64 b7 80 3e 72 05 23 3e 67 fa 63 be
       0.008881143 0.25139916 0.15920046 -0.2226349
0000e0 8f 88 b8 bd 62 7a 31 3d 89 4c 20 be 32 b8 68 3e
       -0.090104215 0.043329604 -0.15654196 0.22726515
0000f0 3f 38 02 3c 2c fc 12 be e3 2a cc 3c 4c 3f 09 bd
       0.00794798 -0.14354008 0.024922794 -0.03350763
000100 d6 9b cd bd 1c a1 a4 3e c3 39 a9 be e1 0e 00 be
       -0.10039489 0.32154167 -0.3305188 -0.12505676
000110 38 70 1d bc 58 84 69 be aa 90 08 3d 1f 68 05 3e
       -0.009609275 -0.22804391 0.033341087 0.13028
000120 86 31 90 3e cf 52 2a be e8 19 65 3d e2 e8 48 be
       0.28162783 -0.16633151 0.05593291 -0.19620088
000130 92 15 6d 3d 9d 74 39 be 9b 05 c9 3d ac a7 3d be
       0.0578819 -0.1811089 0.09815522 -0.18520993
000140 97 dc ab bd 98 e7 a7 bd 62 b8 ad bd ce 06 25 bc
       -0.083916835 -0.0819847 -0.08482434 -0.010072423
000150 04 5f 90 be bf b0 bf 3c 6f 9f e6 3d 91 67 62 3e
       -0.2819749 0.023399709 0.11260878 0.2210982
000160 b8 77 ae bd 68 09 93 3c b8 00 22 3e 1f 97 66 3e
       -0.08518928 0.017948821 0.15820587 0.22518586
000170 b9 63 c4 be 53 08 31 bd 55 0b 20 bd 00 09 ba 3d
       -0.38357332 -0.04322083 -0.039073307 0.09083748
000180 96 b1 00 3e 36 95 bb 3d 65 60 a0 3d 8e 63 76 be
       0.12567744 0.09159319 0.07830886 -0.24061415
000190 d6 ce 93 3e c7 75 e7 bd 55 38 9d 3d d5 4a 0f be
       0.2886874 -0.11301761 0.0767676 -0.1399339
0001a0 35 f1 a2 be 0e 01 1c 3e e1 93 22 3d 9a f4 ad 3e
       -0.3182465 0.15234777 0.03969181 0.3397568
0001b0 e4 04 dc be e2 b4 19 3e 16 fb 4e be 9c c4 e3 bd
       -0.4297248 0.15010408 -0.20212969 -0.11121485
0001c0 d9 be b4 3d 1a 34 84 3e de 85 fb 3d 11 fa 32 be
       0.08825464 0.25821 0.122813925 -0.17478205
0001d0 1e d5 f0 3d cb fe 30 be 70 3b ab bd e6 41 c8 3e
       0.11759399 -0.17284696 -0.08360946 0.39112777
0001e0 ac 73 56 bd 5d fa 24 bd b8 98 ab bd 6e a6 76 bd
       -0.052356407 -0.040277828 -0.08378738 -0.060217313
0001f0 c4 ba 43 be 04 4b e3 3c df 91 17 3e f0 d5 4b 3d
       -0.19114214 0.027745731 0.14801739 0.049764574
000200 16 76 92 be b6 25 01 be c5 bb b0 3e cf 67 b5 be
       -0.28605717 -0.12612042 0.34518257 -0.35430762
000210 f4 70 00 bd cd 84 16 3e 0c 4a 22 be 6f 43 ae 3d
       -0.03135772 0.14699097 -0.15848559 0.08508956
000220 d3 f7 b9 be 4f 64 a2 3e 2a 0d c9 3d e3 ed 1b 3e
       -0.36321887 0.31717154 0.09816964 0.15227465
000230 de 61 d2 3d 3b 12 52 bd 9b 4b f9 3d c7 2b b7 bc
       0.10272573 -0.051286917 0.12172624 -0.022359742
000240 16 61 3d 3e f6 ef 85 3d 76 35 76 3e 65 1f 19 be
       0.18494067 0.065399095 0.24043831 -0.14953382
000250 5c d6 b4 bc 07 2e 9c 3e 95 bc 88 3e 28 3b 68 3e
       -0.02207487 0.30503866 0.26706377 0.22678816
000260 f7 aa f5 3a 22 a6 0a 3e d7 ab c5 3e ed 88 db 3d
       0.0018742968 0.13539937 0.38607666 0.10719476
000270 d9 b2 8b be a6 46 8c bd 34 07 50 bd 2c b0 26 3d
       -0.27284887 -0.068494126 -0.05078812 0.040695354
000280 a4 b5 a8 bd 46 24 f7 bc 95 44 28 3e c6 c2 3d bd
       -0.0823777 -0.030168664 0.16432412 -0.04632833
000290 c9 ff 3a be 4b 35 32 be 46 b9 9e 3e ad f0 3a 3e
       -0.18261637 -0.17403142 0.31000727 0.18255873
0002a0 57 98 12 3e 95 8d 9c bc 42 90 1b bd 72 8c 8a 3c
       0.14315926 -0.01911048 -0.03797937 0.016912673
0002b0 d0 e6 bf bd 4a 36 01 bd 6c 73 0e 3d e6 50 3b bc
       -0.09370196 -0.031545915 0.034778044 -0.011432862
0002c0 58 7a 4e 3d bc 4e 97 bd 70 e8 ce 3e 78 c6 21 ba
       0.050409645 -0.07388064 0.4041171 -0.0006171237
0002d0 8a 16 ff 3e 41 fe 84 3d 66 63 3f 3e 3c 15 23 3e
       0.49821883 0.064938076 0.18690261 0.15926069
0002e0 94 8c 9c be 81 63 3a bc 03 74 2d 3e cb b3 91 3d
       -0.30576003 -0.011376263 0.16938786 0.07114371
0002f0 4c 6e d0 be 68 f0 36 3e cc b7 4e 3c 38 2c 4f be
       -0.4070915 0.17865145 0.012617063 -0.20231712
000300 24 11 b2 3e bc 52 4d be ab a1 7b be 04 4a 3a be
       0.34778702 -0.20051092 -0.2457339 -0.18192297
000310 2d fb 00 3e 10 f1 0e be 5c fb 09 be 75 ca 20 be
       0.12595816 -0.13959146 -0.13474792 -0.15702231
000320 b0 36 ba 3c 69 ba 54 be dc a7 17 3e c3 08 89 3e
       0.022731155 -0.20774235 0.14810127 0.26764497
000330 aa df 55 3e 7c 83 01 3c 4f 70 47 be 37 d0 df 3b
       0.20886102 0.0079048835 -0.19476436 0.006830241
000340 75 1f 9a 3e 38 ef f3 bd 9f 3b a3 be cd 1c 88 be
       0.30102125 -0.11910862 -0.31881425 -0.26584473
000350 1e 87 3d bb 5e 79 ea bc 04 d6 07 3e 98 36 9c bd
       -0.0028919647 -0.028622326 0.13265234 -0.076276004
000360 95 07 49 bd 17 36 7e be 92 ad b1 bd fb ff 3e be
       -0.049079496 -0.24825321 -0.08675684 -0.18652336
000370 57 a3 c8 3d 5d 5e 2e be 54 77 20 3c a7 3c 0e 3c
       0.097967796 -0.17028184 0.009794075 0.008681453
000380 95 20 77 3e 18 e5 99 be 43 a3 84 3e 67 e6 00 3d
       0.24133523 -0.30057597 0.2590581 0.03146973
000390 5f 7e ea bd af 77 bd 3d 36 29 5d bd 84 5c 81 3c
       -0.114498846 0.092513435 -0.05399438 0.015791185
0003a0 56 03 24 3e f5 8b 8e 3d 4e c4 07 be 7f f8 82 bd
       0.16016898 0.069602884 -0.13258478 -0.06395053
0003b0 06 53 11 3e 37 5b 53 bd ee 37 45 be 1e fb 18 be
       0.14191827 -0.05160066 -0.19259617 -0.14939544
0003c0 e2 64 6d 3e 7d e3 41 3b 60 80 61 3e 84 cc 71 be
       0.23183015 0.0029585056 0.22021627 -0.23613173
0003d0 b9 b9 a4 be e1 ec f4 bd e6 ed fe be ef c2 83 3d
       -0.32172945 -0.119592436 -0.49790877 0.06433665
0003e0 db 5c 04 be 18 87 a1 3d 6a 6c c9 3d 8d 81 8d bc
       -0.12926047 0.07887095 0.098351315 -0.017273689
0003f0 b0 d4 fe be d7 7c 12 be 11 8d e4 bc c8 bc 98 3d
       -0.49771643 -0.14305435 -0.027899297 0.07457882

Mixer_Block.0.mlp_block_channel_mixing_DynaMixerOperation.fc_out.weight f4 [10, 10]
000000 df 19 8d 3e 37 d3 4a be 79 2b 3f 3c fd ee 9a be
       0.275588 -0.19807135 0.0116680795 -0.3026046
000010 09 c8 71 be 19 72 c7 be c6 da 33 be 39 da ec be
       -0.23611464 -0.38954237 -0.17563924 -0.4626024
000020 ec c4 35 be 26 2b 07 be 7d 5a c3 3e 39 24 83 3d
       -0.17750901 -0.13200054 0.38154975 0.06403393
000030 12 b7 f5 bd 2e f8 bf bd 81 d8 c3 bd c0 d0 2d be
       -0.119978085 -0.093735084 -0.09562779 -0.16974163
000040 7f 1a 3c be d4 e2 88 be 5d f8 0d 3b 03 a5 91 bc
       -0.18369482 -0.26735556 0.0021662929 -0.017778879
000050 71 11 3a be b2 56 06 be 1c a1 18 3d aa c2 ba bd
       -0.18170716 -0.13119009 0.03726302 -0.091191605
000060 d4 98 1a 3d c6 92 44 bc 45 7e c0 3c 30 79 83 bc
       0.037743405 -0.011997884 0.02349771 -0.016048998
000070 4a e9 93 3c 22 8f 36 bd 6b e3 13 bf c8 66 9a 3d
       0.018055577 -0.044570096 -0.5776889 0.07539135
000080 42 96 4a bd 3a 9b a9 3d ce 4b b5 bd 5e c0 07 3c
       -0.049459703 0.0828156 -0.08852349 0.00828561
000090 ed 6b a1 bd 3a 53 6d 3e 9f e5 4a be ad a1 e1 3d
       -0.07881913 0.2317628 -0.19814156 0.11017165
0000a0 3e ab e3 be fd b0 80 3e 58 be dc bb 68 82 90 3e
       -0.44466585 0.2513503 -0.006736558 0.28224492
0000b0 a8 49 bd ba ed 34 96 3c 9f 00 8e bd b3 03 3d 3e
       -0.0014441507 0.018335784 -0.06933712 0.18458442
0000c0 88 3f ba bc 7c 06 cc 3d de 67 27 3f d7 1f e5 be
       -0.022735372 0.09962174 0.65392864 -0.44750854
0000d0 85 f4 9b 3e 38 ec 81 bd 52 47 d7 3d 7f 76 4f bd
       0.3045999 -0.06343883 0.1051165 -0.050650116
0000e0 69 38 1f 3e fa 31 ba bd ae 14 3d 3d 72 db 1d bd
       0.15548863 -0.090915635 0.0461623 -0.038539357
0000f0 d7 74 6d bf 46 47 5c 3e 90 ac 13 bc 78 ee c0 bd
       -0.9275641 0.21511564 -0.00901331 -0.09420484
000100 0f 6b 56 bd b7 fe 96 bc dd 07 c6 3d 0c 82 0c be
       -0.052348193 -0.018432004 0.096694686 -0.13721484
000110 43 dd ac 3d ec 4c a4 3d 9d e6 c5 3e 63 08 94 3e
       0.0844064 0.08022484 0.38652506 0.2891265
000120 af fa b5 3e 97 f4 60 3d 93 b6 7f 3e 1d 2d 49 3e
       0.3554282 0.05492076 0.2497199 0.19646116
000130 85 2a 0a 3e 81 c6 49 3e 0c f8 8f 3e 00 53 77 3e
       0.13492782 0.1970463 0.28118932 0.24152756
000140 f4 92 9f be 31 57 df 3e 54 6b c5 3d 83 ec bb 3d
       -0.31166804 0.4362121 0.09639612 0.091759704
000150 e6 0f 4c 3b c3 e3 ed bc e2 11 47 bc 09 9c 41 bd
       0.0031137406 -0.02903927 -0.01215026 -0.047267947
000160 a4 d6 41 3c 57 10 16 be c7 91 bd be 42 9e 8c 3c
       0.0118309595 -0.1465467 -0.37025282 0.017165307
000170 d4 6b 10 be fa 1b 01 3e 32 b8 1c 3e b3 1f 5c 3e
       -0.14103633 0.12608328 0.1530464 0.21496467
000180 dd cb 09 3d f1 aa 76 3e 03 ca 58 bd 7b d8 31 3e
       0.033641685 0.24088646 -0.05292703 0.17367737

Mixer_Block.0.mlp_block_channel_mixing_DynaMixerOperation.fc_out.bias f4 [10]
000000 78 16 3c bf 2c 70 bd be 6b a8 0a 3e 18 6b ad 3e
       -0.73471785 -0.36999643 0.13540809 0.3387077
000010 8e ba 86 bc 47 53 bb be 19 9b be 3e fd 8b 1d bf
       -0.016446378 -0.36586973 0.37227705 -0.6154173
000020 36 2c 90 be 08 55 e4 bd
       -0.2815873 -0.11149031
