M_2_AST/M_2_AST/h36m/run_for_longging/exp248/model.pt (torch, 870893 bytes, 184 tensors)

Mixer_Block.0.mlp_block_token_mixing.fc1.weight f4 [20, 10]
00000000: b54a 9c3d 3c71 4fbe 3414 a3bc f86f bf3d
00000010: ca98 033f 72ef b3be c927 e83e 0b83 efbe
00000020: 3484 1f3f b9ff 7fbe b371 0d3d b426 88be
00000030: 272c 0f3e 2ad4 78be 8661 d93e b29d e4be
00000040: 5892 163f e67c 90be 1e40 363f f83e 773e
00000050: 67e8 97be b851 653e 2f0d 85be 009f f73e
00000060: 8c2e 043c f544 a63e 5765 17bf 4b2c 7abf
00000070: 71d2 f7be 9882 08bf 9442 e5bd 7be6 9e3e
00000080: 48d3 80be b73f b33e 246c 57be c915 d1bd
00000090: 93bb fbbe 2b3d 473f 0070 23bf b985 f03e
000000a0: 35bc b4be d2f0 bc3d f476 81be 7e4f e43e
000000b0: e1d8 eabe e346 253f 148c 0bbf 0736 a23e
000000c0: 90cb 74be 26d6 f83e 6be2 98ba 0a3b e43e
000000d0: 5ec4 67be 6bf5 9b3d f82a d0be 0c03 4e3f
000000e0: 35fc e8be cd7b 173f 5e26 d7be ea31 3b3e
000000f0: 3ea8 c3bd e712 133e 20bf 1a3c 8b28 523d
00000100: 8c17 58bf 9030 ff3e 3bd9 0fbf 59c6 f23e
00000110: 6fab 62bf 6893 ab3d 6876 c83d 0159 77be
00000120: 0961 ac3e 7003 f1be fc3c 1b3e 4f1a 37bf
00000130: bfc7 86be d918 28bd a0c5 e73e cc60 d5be
00000140: 0ccc 9b3e e2d8 1abf 4b43 e63e 2ca4 39bf
00000150: 4995 96bd d856 473e 51b3 1dbf a287 4d3c
00000160: ffd2 1d3d 28af b83e b420 243e f529 ebbe
00000170: 12a7 82bd 3b1d 593e 27c0 813c b246 34bf
00000180: 1f78 1bbc c94e 27be c7e5 5ebf 5f4c af3d
00000190: 2139 2a3e 2dcc 88bd aab1 8bbc adbe d1be
000001a0: 5174 9d3d 2b48 88be ab89 6f3f 82bb 84bf
000001b0: 212c 303f 28ea 0fbf bca5 5e3e 0dc3 bbbd
000001c0: 7f0d 703e 3d68 14bd 32aa 1e3f 22b8 a2be
000001d0: a8fe 083f b212 0bbf 7674 ee3e 692e c6bd
000001e0: 99dd 503d 548e e7be 6f7d 1c3e 48d3 20be
000001f0: 29f8 b13d a9f5 1fbf b63f 103f 21f4 45bf
00000200: f1ae 963e 25e7 d4be 51a1 e9be 1f7f 0a3f
00000210: 7d18 fdbe 6c57 873e 4ff6 1f3e 488b 003e
00000220: 0c99 be3e 7490 f73e 6fed adbe cf6a 4bbf
00000230: 7bdf c4be c9a1 b43e 370e 22bf 1087 143f
00000240: a772 a5be 0e9f bbbd 78bb 223e 68e2 e2bd
00000250: 21b1 ae3e 671c 363e 5b60 973e 5d2a d1be
00000260: a9b3 9e3e 2a7f bcbe 8262 a03e 4d11 e4be
00000270: 4492 3c3f 4de1 12be 0b05 49be 8bb5 a43d
00000280: c503 d43d 5289 8ebe e101 f53e 42e7 54bf
00000290: 900f b13e 5610 1c3e 317a 36be 06e6 053f
000002a0: 47c0 013d c636 f5be 1939 25be afb7 983e
000002b0: 32aa 69bd 1e99 403e 5ee5 9bbe 9927 8e3e
000002c0: a6e7 7cbf 6167 383f ff72 21be ab91 e8bc
000002d0: 05b3 573e 9456 3dbf c549 003e bd4f d2be
000002e0: b778 053f 9239 bdbd c20e d0be 7928 263e
000002f0: 067b 2bbe 1c0f 9bbe 97a2 05bf 2e2a 143f
00000300: a79f 0dbf 34da 773e 7c9c 00bd 562e ba3e
00000310: e419 c7be b877 72be 88ac e43e 8d4c 39be
0.07631437 -0.20258039 -0.019907095 0.09347528 0.5140501 -0.3514362 0.45342854 -0.46779665
0.623111 -0.24999894 0.03453226 -0.26592028 0.13981687 -0.24299684 0.42457217 -0.44651562
0.5881705 -0.2822029 0.71191585 0.24145114 -0.29669496 0.22394454 -0.2598662 0.48363495
0.008067738 0.32474485 -0.5913901 -0.97723836 -0.48402742 -0.5332427 -0.111943394 0.31035218
-0.25161195 0.35009548 -0.21037346 -0.10209233 -0.49166545 0.7782771 -0.63842773 0.46977022
-0.3529984 0.0922562 -0.25286067 0.44591898 -0.4586859 0.6456129 -0.5451062 0.31681845
-0.23905778 0.48600882 -0.0011664158 0.44576293 -0.22633502 0.07615169 -0.40657783 0.804734
-0.4550492 0.5917328 -0.4202146 0.1828076 -0.09553574 0.1436268 0.009444982 0.051308196
-0.8441093 0.49841738 -0.5619084 0.47416952 -0.88542837 0.08377725 0.09788209 -0.24155046
0.33667782 -0.47072935 0.15159982 -0.7152452 -0.2632427 -0.04103932 0.45267963 -0.41675413
0.30429113 -0.60487187 0.44973215 -0.7251613 -0.07352693 0.19466722 -0.6160174 0.012544544
0.0385313 0.36071134 0.160281 -0.45930448 -0.063795224 0.21202557 0.015838696 -0.7042037
-0.009489088 -0.16338648 -0.8706936 0.085594885 0.16623355 -0.066795684 -0.01705249 -0.40965787
0.07688201 -0.2661756 0.9356944 -1.0369723 0.68817335 -0.5621667 0.2174291 -0.09168062
0.23442648 -0.036232222 0.6197845 -0.31781107 0.53513575 -0.543254 0.46573228 -0.09676821
0.050992582 -0.45225775 0.15282224 -0.15705597 0.08689911 -0.6248422 0.56347215 -0.77325636
0.29430345 -0.415826 -0.45630887 0.5410022 -0.49432746 0.26433885 0.15621303 0.12553132
0.3722614 0.48352396 -0.3397021 -0.7945985 -0.38451752 0.35279682 -0.6330294 0.5801859
-0.32314035 -0.09161197 0.15891826 -0.1107834 0.34119514 0.17784272 0.295657 -0.40852633
0.30996445 -0.36815768 0.31325155 -0.4454445 0.73660684 -0.14343758 -0.1963083 0.08042439
0.103522815 -0.27839142 0.47852996 -0.8316537 0.34582186 0.15240607 -0.1782005 0.5230411
0.03167751 -0.4789335 -0.16135062 0.2982764 -0.057047077 0.1880841 -0.3044843 0.27764586
-0.9879097 0.72032744 -0.15766524 -0.028389772 0.21064384 -0.7396023 0.12528141 -0.4107646
0.5213732 -0.09239496 -0.4063626 0.16226377 -0.16746148 -0.30284965 -0.5220122 0.5787686
-0.55321735 0.24204332 -0.031399235 0.36363477 -0.3888694 -0.23678482 0.4466288 -0.18095608

Mixer_Block.0.mlp_block_token_mixing.fc1.bias f4 [20]
00000000: 4200 933e 8012 bd3e 1cee b23e 1781 ec3e
00000010: 1910 923e 726f 483e a233 213e ea9f af3e
00000020: 02a0 133f 2df4 2a3f 27cf b93e f1b8 9f3e
00000030: 4d71 803e a7cd 0a3f f11c dc3e 0596 503e
00000040: b23b c63e 4654 a33e 66bd 433e 77be c13e
0.28711134 0.36928177 0.34947288 0.46192238 0.28527907 0.19573763 0.15742353 0.34301692
0.5766603 0.6677883 0.36290857 0.31195787 0.25086442 0.5422005 0.4299083 0.20369728
0.3871742 0.31900233 0.19115219 0.37840626

Mixer_Block.0.mlp_block_token_mixing.fc2.weight f4 [10, 20]
00000000: de03 fe3d f17f a6bd 89c2 f33e 9279 9cbe
00000010: b205 ecbe 407f 21bf a5f8 bd3e 90f2 793e
00000020: b890 f33e 9b64 4d3f aa26 c83c e879 f63d
00000030: 8a14 1d3f 36f8 c6be f821 23bf 1b9b f43e
00000040: ce1b 5a3e 7487 6dbe 571b 013f 50f0 adbe
00000050: 7eef abbc b7f7 1cbe 3a89 0b3f 8722 813b
00000060: e985 313d 35e1 92be 56da 10be bf32 18bf
00000070: 0523 5abf d749 9b3e 61c2 65be f96a c2be
00000080: ce82 99bb f973 d43e 4042 373f 0d99 4dbf
00000090: 58f1 fdbe d214 cbbc 818e e0be 3178 213f
000000a0: f641 103e fe2c 7d3e cc1c 1ebe 2b2d c8be
000000b0: 1178 1dbf b055 18bf cc35 92bf 487e 0dbe
000000c0: 1743 623e f456 0f3e 8e59 35bd 8295 183e
000000d0: cd87 16be 76d7 9f3e 825c 89bd 9320 a53e
000000e0: 7381 be3e db37 3abf 1ce4 273f 8558 09be
000000f0: 2441 8dbf 83cf 92be aa97 4fbd 3796 2bbe
00000100: 1990 d33e 68a5 033f 5126 ae3e a178 03bf
00000110: ebb1 613f f035 13bf 1ff3 c4ba cb07 5cbf
00000120: 1e71 6cbf a84d a9bd 773c 04be 49db d9be
00000130: 183b 2a3f b890 4f3e 4d41 7c3c d6c2 c53d
00000140: 89ba 6c3f 7411 8d3f c30d 1fbf 59b0 40be
00000150: e88c f4bc ae30 34be 39bf 23be a4ce 2d3e
00000160: 140f 15be ac73 bfbe e245 963f 3c29 223f
00000170: 4b36 193f 0e93 2abe 278c 7a3d a89f 373f
00000180: 136f 1a3d 31a3 e2be 1c93 1abf 0913 01bf
00000190: 4b77 26bd 990c e3bd 3c7a 28bf 30bb a43f
000001a0: 8a7a 133f ffe0 683e 19c1 123f 629e 913d
000001b0: 24c6 16be 330d 3c3e 2932 d5be 2bb5 75bb
000001c0: 2ef5 d2bd 5d19 3ebd 7804 a63e 4a69 c4bd
000001d0: 9f56 84be e3e3 523f 8876 61bd 5fe4 36bf
000001e0: db44 593e 2453 053d 210b 423e af04 edbb
000001f0: 2a83 c73d 2676 4bbe 38bc b5be 3069 033f
00000200: 9689 0f3f 6127 95be bb08 b8be 4225 553d
00000210: 99e4 3bbe 3342 c1be a93b a3bd 4ea8 12bf
00000220: c5ec 973e b9be 113f c3d8 d03e 34c1 163f
00000230: dc62 be3e f420 1b3e d799 1d3e f40f 28bf
00000240: b539 233f b847 4ebd 48b6 42bd 99b5 c6be
00000250: ceed cdbd 0f60 1bbe 2a97 693f cd85 1c3f
00000260: 7964 213f 3504 fabe 3165 ba3d 9afe 5d3e
00000270: 7409 19bf 953c 13bf dee1 75be 97b2 73be
00000280: dabe 2ebe b276 c2be 6d1f c73d 488f 6b3e
00000290: abaa 2b3e b8fd c53e fc24 3e3f 6789 d0be
000002a0: 4bbb 26bd 9f8b ca3e f2c4 36be 46ea 07be
000002b0: 2392 f43d f203 a63e 47f5 01bf fca4 ee3e
000002c0: f637 a13e 3c5f 1bbd 1134 323e cba3 eebe
000002d0: 4140 d6bc ddb5 0fbf ef8a 9a3e 88f2 acbe
000002e0: 3c17 fdbe a507 223e cf28 9e3e a209 423e
000002f0: 92ca e9be 2a47 8ebe 2d68 b73e 6246 37be
00000300: d0c9 6f3e 69a6 883f 02fe fdbd 35ee c9be
00000310: 74a4 3c3f 0391 913e fd5f f13e e663 923e
0.12403081 -0.08129872 0.47609356 -0.305615 -0.46098095 -0.63084793 0.37103763 0.24408937
0.4757135 0.80231637 0.024432499 0.120349705 0.61359465 -0.38861245 -0.6372371 0.47774586
0.21299669 -0.23196203 0.5043234 -0.33972406 -0.020988222 -0.1532887 0.54506266 0.0039408836
0.043340597 -0.28687444 -0.14145789 -0.5945243 -0.85209686 0.30329773 -0.22437431 -0.3797224
-0.0046847826 0.4149473 0.71585464 -0.8031166 -0.49598193 -0.024790201 -0.43858722 0.6307402
0.14087662 0.24724194 -0.15440673 -0.3909696 -0.6151133 -0.5950575 -1.1422668 -0.13817704
0.22095905 0.13998014 -0.04427486 0.14900783 -0.14700241 0.3121907 -0.067070976 0.32251415
0.37208137 -0.7274148 0.6558244 -0.13412674 -1.1035504 -0.28673944 -0.050681747 -0.16756521
0.41320875 0.51424265 0.34013608 -0.5135594 0.88162106 -0.5750418 -0.0015026069 -0.8594939
-0.92360103 -0.08266765 -0.1291369 -0.42550114 0.6649642 0.2027005 0.015396428 0.09656303
0.9247213 1.1020951 -0.62130374 -0.18817271 -0.029852346 -0.17596695 -0.15990914 0.16973358
-0.14556533 -0.37392938 1.1740077 0.6334417 0.5984847 -0.1665766 0.061168816 0.7172799
0.037703585 -0.4426513 -0.6038072 -0.5041967 -0.04064111 -0.11086387 -0.65811515 1.2869625
0.57608855 0.22742079 0.57325894 0.07110287 -0.14724022 0.1836441 -0.41639832 -0.0037492018
-0.103006706 -0.046410907 0.32425284 -0.09590395 -0.25847337 0.8237898 -0.05504468 -0.71442217
0.21217673 0.032549992 0.18949558 -0.0072332243 0.097418144 -0.19869289 -0.35495162 0.5133238
0.56069314 -0.29131606 -0.3594416 0.052037485 -0.18348922 -0.37745818 -0.07970364 -0.5728806
0.29672828 0.56931645 0.40790376 0.58888555 0.371848 0.1514929 0.15390716 -0.6564934
0.6375993 -0.050361365 -0.04753712 -0.38810423 -0.10055123 -0.15173362 0.91246283 0.61141664
0.63043934 -0.48831335 0.09101332 0.21679154 -0.5978005 -0.57514316 -0.24011943 -0.23798595
-0.17064992 -0.37981182 0.09722791 0.23003876 0.16764323 0.38670135 0.74275184 -0.4072983
-0.04070596 0.39559647 -0.17848566 -0.13272962 0.11941936 0.32424885 -0.5076489 0.46610248
0.31488007 -0.03793262 0.17402674 -0.4660934 -0.026153686 -0.56136876 0.30184123 -0.33778787
-0.4943179 0.15823229 0.3089051 0.18948987 -0.4566236 -0.2778867 0.35821667 -0.17897943
0.23416829 1.0675784 -0.12401964 -0.3943955 0.73688436 0.28430948 0.47143546 0.2859184

Mixer_Block.0.mlp_block_token_mixing.fc2.bias f4 [10]
00000000: 5c78 6abf 7ed9 83bb acab 253e 0bc6 bb3d
00000010: a929 05be 3bb5 243d 3a38 adbe 9581 b83d
00000020: 56e6 f73c 59dc b5bd
-0.91589904 -0.00402373 0.16178769 0.09168633 -0.13004173 0.040211897 -0.3383196 0.09009091
0.0302612 -0.088799186

Mixer_Block.0.mlp_block_token_mixing_DynaMixerOperation.fc_ND.weight f4 [1, 66]
00000000: 7bd0 6bbc 725f 8b3d f99c dcbd bfaa 633d
00000010: 40b5 d7bc b3dd 703d 6bd3 5c3d cfb7 ac3c
00000020: f0c2 a7bc 00ca b7bc 76ba a43a ea20 09be
00000030: 1a24 223d cb45 843d 98d6 cfbd 1679 2ebd
00000040: f12b 3ebd cb03 28bd 9e81 d03c d02f b9bd
00000050: 0dd8 1cbd 4291 a2bc d2a4 c93d 9c0a 3bbc
00000060: e3a4 b8bc ba59 8ebd acf0 a5bc c4a2 abbc
00000070: c26e 613d 417d f33c 8840 523d b3a1 70bd
00000080: 1da7 b0bd d026 5cbd 672d a43d f128 833c
00000090: 830f 10be a1fb 87bd 9859 023d c53f ba3c
000000a0: c897 d43d 06f2 cd3d 7323 febd 6c01 803d
000000b0: 2336 593c fe53 803d 46d2 3c3d b7fe 2c3e
000000c0: 1261 e4bc b9c1 f63d d95e 72bd acc3 1e3c
000000d0: 15a6 233d 551e 68bd b4d6 9f3d f219 59bd
000000e0: c222 17bd cacd ce3d 3c65 24bd 5541 4cbc
000000f0: f51e 863d 4cce bc3d 9452 2a3e f463 953d
00000100: 38b3 df3d bcb6 c83d
-0.014392967 0.06805314 -0.10772128 0.055582758 -0.026331544 0.05880518 0.05391256 0.02108374
-0.020478696 -0.022435188 0.0012567777 -0.13391462 0.03958521 0.064586245 -0.101483524 -0.042595945
-0.046428625 -0.041019242 0.025452431 -0.09042323 -0.03829198 -0.019844655 0.0984589 -0.011416104
-0.022539562 -0.06950708 -0.020256363 -0.020951636 0.055037268 0.029722812 0.051331073 -0.05874796
-0.08625624 -0.053747952 0.08016472 0.016010733 -0.14068417 -0.06639791 0.031823725 0.022735486
0.103805125 0.10055928 -0.12409105 0.06250271 0.013257536 0.0626602 0.04609897 0.16894041
-0.027878318 0.120486684 -0.059172485 0.0096902065 0.03995331 -0.056669552 0.07804623 -0.05300326
-0.036898382 0.10097845 -0.040135607 -0.012466748 0.06548873 0.092190355 0.16633064 0.07294455
0.10922855 0.09800479

Mixer_Block.0.mlp_block_token_mixing_DynaMixerOperation.fc_Nd.weight f4 [100, 10]
00000000: ebcf f73e 0da0 71be 74a4 013e d5a6 343e
00000010: 026f 283f 67ab 9d3e 56d8 e33e efa8 1a3e
00000020: ae65 b03e 1e3e 843e 1e18 a8be 54ec c53e
00000030: 4b24 58be 7f60 ed3d da0a 383e 8505 963e
00000040: 61d7 a93c 3689 dd3d 1c86 eb3d 1d14 473d
00000050: f497 2ebe a5a6 18be ba5e e5bd be3d 083e
00000060: 4e54 243e 25f7 043e a12b 24ba 1a07 db3c
00000070: 4970 f238 5601 a13d be95 1cbe 056c 28bc
00000080: a135 49be 227d 44be 5743 083e 4bcb 893e
00000090: 6add b6bc a8d1 ac3d 623b 08bc 263b 1b3d
000000a0: bc9c 53bd 17dd eb3d 5dcb 0dbd 4cdc c3bd
000000b0: 9202 b2be 6499 843e 8098 5b3d 2677 183d
000000c0: ee82 393d f2f1 113d ab43 293c 7bc0 873c
000000d0: 4699 0fbb c64f b83c fb76 51bd 6a76 bfbe
000000e0: 3328 91bd 61b8 ea3c 118a d3bb 2e29 fc3c
000000f0: a04c 46bc 114e b33d ad23 9c3d 9a86 a73d
00000100: f331 1f3e 83f5 243e bc4f e6be f467 1a3e
00000110: d30f 8e3d 28cb b23d c43a b8bc 59cb c1bd
00000120: 66e5 f1bd 8eff c3bd 4563 6bbd 0e8b 9c3d
00000130: 2a9b 27be f359 e7be 7064 373d d610 013e
00000140: ffe0 7bbb d9cb ecbc 19f3 933d b488 6f3d
00000150: 804a 033e 1826 e73d 2df8 a23d d147 253d
00000160: 2ec2 e5be 586a 1b3e a5fa f1bc 67c6 0cbb
00000170: 417a 78bd 3748 3ebd 03de 04bd c94c b83d
00000180: df49 abbd fe36 dc3a 436e 9a3c 267d 00bf
00000190: b547 7fbe cedd 1c3e a18d 55bd 25b4 943e
000001a0: 878a 683d 77ea a03e cb3b 2e3e ab39 64bd
000001b0: c491 883e e710 933c a314 163e c458 fdbe
000001c0: 81a3 0ebd 978b 15bd 53d7 19be c73a ce3c
000001d0: 3d7c 01be fe98 a9bb 1b63 5b3d 2560 50bd
000001e0: 3b47 47be 505b a73d e497 44be 14a4 283e
000001f0: be98 943e 7bf2 0dbc a2ff e63d bb55 903d
00000200: 21b0 683c 5f13 e838 3604 c9bd 5472 26be
00000210: 4b72 aabc 5639 1bbf 69ff 87be f39c 88be
00000220: d429 21be 9294 23be 00ce 9cbb 3b37 fabd
00000230: 344e d3bb f096 593d 5225 e73c fd02 593e
00000240: 6b55 cdbe 742c b43d c905 9b3e 1e4e a83d
00000250: 910c 493d 2681 b5bc e068 303e 63af ecbc
00000260: 5e3f ac3d b609 b63d 12b4 a4bd 2d4a 27bf
00000270: 6cfb 51be dc70 a23d 9b4b 4dbd b97f 44bd
00000280: 8494 bcbc 0037 df3d cf26 763e 52c2 1d3e
00000290: a4a1 463d fd22 633d 8485 ddbe 7895 423e
000002a0: 0445 1f3e 5c45 313d a982 683c a706 3dbe
000002b0: a81b 95bd 8b78 61bd 8991 c4bd b0bb 1abe
000002c0: 7dc7 85bd 0600 0cbf 64f7 9aba 736b 7f3d
000002d0: 99f1 9fbd c17a 2cbe 618e bfbb c375 c43c
000002e0: d3af 94bc 562b 48be c3f2 2f3c 583b 28bd
000002f0: 66d7 0dbf 5de5 e83d b862 3f3d d41b 83bd
00000300: 1966 29bc 5a2a b53b 367e bdbd c498 c9bd
00000310: 411c cd3d 3e10 b7bc c00f bc3d 3a06 37bf
00000320: 3b4e 08be 5ab8 5d3d 602b 71bd 62bb babc
00000330: f00d 4cbd 03cd 27be eb8f cfbc 7ea5 cdbd
00000340: 2381 ebbd bcff 5c3b 7883 bd3e fa9a 143e
00000350: 7140 a83d a1a6 083f 4e94 5c3d f4d5 9c3e
00000360: 0cb8 87bd cb9f e93e 6ba2 4e3e f298 3abe
00000370: 1c35 7b3e 2188 75be 7a24 1f3f 63ea 0d3e
00000380: b8fc 833e 2b63 8d3d 3629 503e 771d ce3d
00000390: 17ee 8d3d d5b7 053e ea5f 79be ad31 203e
000003a0: 4e31 52be af46 8abe e80e 97be 3a11 a6be
000003b0: 8c6d 21be 8516 1dbe 617c 4bbe d8df 3ebe
000003c0: fe66 af3d bf2f fbbd e437 063d a26a d23e
000003d0: 55de 4f3e dd03 eb3c fb76 8abc 4c6e 1cbe
000003e0: 1039 61be f91c 26be b3f4 97bd f520 e0bd
000003f0: 1112 e8bd 2db8 ee3d c9bc e2bd 704b 03be
0.48400816 -0.23596211 0.1266039 0.17641766 0.65794384 0.30794832 0.4450099 0.15103506
0.34452575 0.25828642 -0.328309 0.38656867 -0.21107595 0.11590671 0.1797289 0.29301086
0.020732583 0.108171865 0.11500189 0.048603166 -0.17050153 -0.1490732 -0.11199708 0.13304803
0.16047785 0.12984903 -0.0006262605 0.026736785 0.00011560374 0.07861583 -0.15291497 -0.01027966
-0.19649364 -0.1918836 0.13306938 0.26912913 -0.022322375 0.08438426 -0.008314939 0.037898205
-0.051663145 0.11516779 -0.03461777 -0.09563503 -0.34767586 0.25898278 0.053612232 0.037223004
0.04529088 0.035631128 0.010331075 0.016571274 -0.0021911426 0.022498976 -0.05113886 -0.3739503
-0.070877455 0.028652372 -0.006455668 0.030781355 -0.01210323 0.08755124 0.07623992 0.0817997
0.15546398 0.1610928 -0.44982708 0.15078717 0.06936612 0.08730155 -0.02248896 -0.094626136
-0.118113324 -0.095702276 -0.057467718 0.0764371 -0.16367784 -0.45185813 0.04477352 0.12604079
-0.0038433669 -0.028905796 0.072241016 0.05847998 0.12821388 0.11286563 0.07957492 0.040351693
-0.4487471 0.15177286 -0.029538462 -0.0021480562 -0.060663465 -0.04645559 -0.03243829 0.089990206
-0.08363699 0.0016801057 0.018851405 -0.5019096 -0.24929698 0.15318987 -0.05213702 0.2904369
0.056772735 0.31428882 0.17014997 -0.05571906 0.2667371 0.017952396 0.1465631 -0.49481785
-0.0348239 -0.036510076 -0.15023546 0.025174512 -0.1264505 -0.005175709 0.05356131 -0.05087294
-0.19460766 0.08171713 -0.19198567 0.16468841 0.29022783 -0.008663769 0.11279227 0.07047602
0.014202149 0.0001106623 -0.09815256 -0.1625455 -0.020806452 -0.6063436 -0.2656205 -0.26682243
-0.15738612 -0.15974644 -0.0047852993 -0.122175656 -0.0064485315 0.05312246 0.028216038 0.21192546
-0.4010423 0.08797541 0.3027785 0.08218025 0.04908425 -0.02215631 0.17227507 -0.028892225
0.08410524 0.08888571 -0.08042158 -0.6534756 -0.20506066 0.079316825 -0.05012093 -0.04797337
-0.023020037 0.10899162 0.24038242 0.15406159 0.048493996 0.05545329 -0.43265927 0.1900233
0.15553671 0.043279037 0.014191308 -0.18459569 -0.07280666 -0.0550466 -0.09598071 -0.1511066
-0.0653219 -0.54687536 -0.0011822996 0.06235833 -0.07809753 -0.16843702 -0.0058458303 0.023981934
-0.018150246 -0.19547781 0.010739031 -0.04107222 -0.55406797 0.113718726 0.046725005 -0.06401792
-0.010339283 0.0055287303 -0.092525885 -0.09843591 0.10015155 -0.022346612 0.091826916 -0.71493876
-0.13311093 0.05413089 -0.058879256 -0.02279443 -0.04981798 -0.163868 -0.02533718 -0.10041331
-0.1149924 0.0033721766 0.37014365 0.14512244 0.08215416 0.53379256 0.053852372 0.30631983
-0.06626901 0.45629725 0.20179145 -0.18222407 0.24531978 -0.2397771 0.62165034 0.13858943
0.25778747 0.069036804 0.2032822 0.10064214 0.06930178 0.13058408 -0.24352995 0.1564395
-0.20526621 -0.27007052 -0.2950356 -0.32435018 -0.15764445 -0.15340622 -0.19871666 -0.18640077
0.08564566 -0.12264966 0.032768145 0.4109698 0.20299657 0.028688366 -0.016902437 -0.1527645
-0.21994424 -0.1622199 -0.074197195 -0.10943786 -0.11331571 0.116562225 -0.11071164 -0.12821746

Mixer_Block.0.mlp_block_token_mixing_DynaMixerOperation.fc_Nd.bias f4 [100]
00000000: eda7 34bf 7dd2 04be ba25 cb3d 00ac b13e
00000010: 2675 ee3a 0ec3 953d a4cd 7c3e 4256 383d
00000020: 4f9b c23d 5b82 f8bd 3aaf f9be ab9b 0fbf
00000030: d106 aebd 65d3 203d 4190 78bd 80b4 843e
00000040: ebef 9f3e ce7b 993e 1f1b 2dbe d763 253e
00000050: e5c9 0d3e c61e 39be 50fb 10be f035 5b3e
00000060: b028 91be aab4 ca3e ec7e cfbd fa56 d33d
00000070: 45cc 4d3e 09a1 cf3e 1df6 6ebe 90f4 293e
00000080: efa9 f0bd 59fd 953e c8d4 f3be b842 eb3e
00000090: 5d7b babe f3f0 b23e 45d5 51be f9db e33d
000000a0: 2038 84be 8615 3ebd e806 2abd 44de 183e
000000b0: 13d4 fdbe cbff 733e e2b4 4dbe d993 ee3e
000000c0: 0f18 543c b6a4 813e ff77 783d 850e a3be
000000d0: 9f03 76bc 5f9a 833d 689d 0e3e f414 1b3e
000000e0: 9567 3d3e 50f6 8b3c 7eba 2e3e 0e6c 49be
000000f0: 2331 943e 5996 15be d873 2dbd 441d 2dbe
00000100: fae3 a9bd 680b 82ba 1f41 fdbc ed62 60bd
00000110: 3016 8d3d a527 cf3c 5a88 873e 34ad 02bd
00000120: 9819 e6bd d2fd 3dbe d75b 35be 1f93 85be
00000130: 4288 69be fe33 883d bc10 a13d fe23 8ebd
00000140: 4c03 d23e f87f 4ebd 14a3 723e 20c3 debc
00000150: ae8d d8bc 378a dbbd 319c 31be 9bd4 17be
00000160: cd2e e23c e1b6 913e 3d47 9f3e 05bb 77bd
00000170: 50d0 e8be 41ad 14be 0952 63be 9812 f7bc
00000180: e0a6 22be 0e0b e53d 7ac3 ea3c 02c8 84bd
-0.70568734 -0.1297092 0.09919305 0.34701538 0.0018192872 0.07312594 0.2468782 0.045004137
0.09502279 -0.12134238 -0.487665 -0.56096905 -0.08497394 0.0392641 -0.060684446 0.2591896
0.3123773 0.29977268 -0.16904877 0.16151367 0.13846548 -0.18078145 -0.14158368 0.21407294
-0.28351355 0.3959096 -0.1013163 0.10319324 0.20097454 0.40552548 -0.23336072 0.165972
-0.11751162 0.2929485 -0.47623277 0.4594934 -0.36422244 0.34949455 -0.20491512 0.11125941
-0.2582407 -0.046407245 -0.041510493 0.14928538 -0.49575862 0.23828046 -0.20088533 0.46597174
0.012945189 0.25320977 0.060661312 -0.31847015 -0.015015512 0.06425928 0.13927233 0.15144712
0.18496545 0.017085224 0.17063329 -0.19670126 0.28943738 -0.14608134 -0.042346805 -0.16905695
-0.08295436 -0.0009921612 -0.030914841 -0.054781843 0.068889976 0.025287459 0.26471215 -0.03190346
-0.1123535 -0.18553856 -0.17710815 -0.26088807 -0.22805884 0.06650542 0.0786452 -0.06940459
0.4101814 -0.05041501 0.23695022 -0.027192652 -0.026434746 -0.10719722 -0.17344739 -0.14827196
0.027610207 0.28459838 0.31109038 -0.06048109 -0.4547143 -0.14519216 -0.22199263 -0.030160233
-0.1588397 0.11183749 0.028657664 -0.06483461

Mixer_Block.0.mlp_block_token_mixing_DynaMixerOperation.fc_out.weight f4 [66, 66]
00000000: fafa 553d 5b05 863d d021 66be 3137 05be
00000010: a54a 34be 2701 953e f1e1 743c 5865 bf3e
00000020: e2fb c9bb 2b27 5f3d b764 c23a 1386 12be
00000030: 7b49 2b3e 9d0d 19be e52f 183e d46c 8ebe
00000040: 778b 973d 4e40 97be ff57 713d 9773 16be
00000050: b317 883e b361 013e 332b e9bd 3bc1 d13c
00000060: 502c 3c3e a5e9 fdbd 8307 30bd aa4b 8abd
00000070: bb00 85bd 64b7 4f3d a9fe 07bd 714c ea3c
00000080: de09 b13d b133 923e a95a 10be 8261 14be
00000090: e8e8 d1bc b234 bc39 4b7e 533d c97f 1cbe
000000a0: 15cd 303c a566 8a3d 085e 3f3e be45 f0bd
000000b0: ba7d 463d ca28 223e e26a 873e aed3 a73c
000000c0: eaa0 93bd c413 65bd ce01 323e 377a b2bd
000000d0: 8dfd a73e 2aec 4bbe 31d7 83be b7c3 323e
000000e0: 32c3 243e 4637 f63d 1e68 a83e 5c06 d6bc
000000f0: 2ba1 403e 892d b9bd 7bbf 62be 1ca3 4fbe
00000100: ab05 803e a40b 9d3d 9083 223d 65bd f33d
00000110: c9cb 46be 8166 b9bd 7f2c 1abd 5823 d1ba
00000120: cd7b 893e d33d 2dbd f5bf b43d c3ab c23d
00000130: f472 68be 343e c1ba da75 773e 3ee4 093d
00000140: 6b01 533d 4995 5fbd e038 033e 614c b4bd
00000150: 57ea f3bb 760c 61bd 859f 84be fa1f 5dbd
00000160: 3146 5cbd 9e37 6dbd 97c3 56bd 7bd9 573d
00000170: 4443 a0bc 6167 00be 6610 b33e e6a9 803d
00000180: adb3 873d fcae 83bb d975 33be 26ba 823e
00000190: 931a 62be cd1d 653e 5d82 e0bd 3f62 6dbd
000001a0: 60ea 283e 68f1 963e bd39 893e 3832 d2bd
000001b0: 273d 503e 9d12 26bc cd0c ec3d f825 a63c
000001c0: f6fa 77be 206e e23d 0fa1 63bd 5688 5c3d
000001d0: 3c2f f63d a72e b33e f675 8e3e 15fa 19bd
000001e0: 8d3f 16be 29c7 41bb 38cf 693b 5e87 88be
000001f0: 0b81 933e c9a6 96be 6479 63bc f9d9 46be
00000200: 998b 373e 980c 8abd 5b63 28be 424b 6a3d
00000210: 03d6 4e3e 4f33 79be 4d5a e9bd 9add 8bbe
00000220: 89b0 0f3e 0844 31bd 1ab8 e43c 8e46 f93d
00000230: 90a3 d53c dcf1 1c3d e71c a73e 5874 1fbd
00000240: a0df 4c3d 57f7 53be 98eb a83d d0ab 6fbb
00000250: 52ff 35be 07b6 17bd cbb2 313b 8f93 993e
00000260: c912 74bd 7880 c53d ff92 6d3c a158 7fbe
00000270: eab5 bd3d 5755 08bd 5a74 9ebc 3865 143e
00000280: 8d8e 133d 2c65 b13d 0272 81be 96f2 b7bb
00000290: 4a84 aabd 3238 2e3e 3a36 913d 3165 74bb
000002a0: db95 033b d3f2 ddbd f641 3d3d f15f 053d
000002b0: 503f afba 7987 8c3e 4c7b 373e bd3a 24be
000002c0: 547a b8bc b7ab d8bd 805d 7c3e 0393 593d
000002d0: 6864 b5bd 3f0f 17be b3a9 e33d 993d f13d
000002e0: 5038 d8bd b216 5e3d 7553 4cbd 0407 693c
000002f0: d6b4 ec3d 2b20 92bd bc92 fa3b 72f9 753e
00000300: 6bfb 12be 6ac8 65be 811d 0abe 6716 bcbd
00000310: 49ea 953b b359 3b3e 0815 313e eaaf e73b
00000320: 8a94 cd3d c46e dcbc 039f a2be 685a df3c
00000330: 0e5c 04bd 8548 193e 1752 693d 1207 a53d
00000340: 3838 6e3d db24 213d 540e e0bd ed03 99be
00000350: 2d17 733e 580e bc3d 00b9 f83d 852c 2dbd
00000360: 2e5a 86bd 7cad 03be dfc0 c2bd ad5a 13bd
00000370: b9df 263d ae89 27be 01a4 65ba 1fc6 f13d
00000380: 1dea 53be d24a e8bd ca2d eebd 2e58 3ebe
00000390: eee8 983c 42ce 5dbe c04d b73d f684 f3be
000003a0: 9d57 d5be 4808 193d 48d7 76be ca0b 34bb
000003b0: 8215 763d 7657 5dbe 814f 083d 1c5e 853d
000003c0: 8957 05bd bab1 673e 0023 693d 9053 be3d
000003d0: 1c51 8e3d f329 b43d e6b7 003e 8f30 34be
000003e0: ab32 963d d9c2 10be f2fa ab3c 4769 8dbd
000003f0: 63a2 8a3d 05f9 61be 4344 d1bc fa72 8dbd
0.052241303 0.0654399 -0.22473836 -0.13009335 -0.176066 0.29102442 0.014946447 0.37382007
-0.00616406 0.054480713 0.0014831041 -0.14308958 0.1672725 -0.149466 0.1486202 -0.27817404
0.07399648 -0.29541248 0.05892181 -0.14692532 0.2658058 0.12634926 -0.11385193 0.025604835
0.18376279 -0.1239808 -0.042975914 -0.06752713 -0.0649428 0.050712004 -0.033201847 0.028600903
0.0864446 0.28555062 -0.14097084 -0.14490321 -0.025623754 0.00035897415 0.051634114 -0.15283121
0.010791083 0.06757859 0.18688214 -0.11732052 0.048459746 0.15835872 0.26448733 0.020486679
-0.07208426 -0.055927053 0.17383501 -0.08714717 0.3281063 -0.19914308 -0.25750116 0.17457472
0.16090086 0.12022261 0.32891935 -0.02612608 0.1881148 -0.09041888 -0.22143357 -0.20277065
0.25004324 0.07668236 0.03967625 0.119013585 -0.19413675 -0.09052754 -0.03764009 -0.0015955968
0.26852265 -0.04229529 0.088256754 0.09505417 -0.22700101 -0.001474327 0.2416605 0.033664934
0.051515024 -0.05458573 0.12814665 -0.088036306 -0.007443707 -0.054943524 -0.25902954 -0.053985573
-0.053777877 -0.05791437 -0.052432623 0.05269764 -0.019563325 -0.12539436 0.3497345 0.062824056
0.06626067 -0.0040186625 -0.17525424 0.25532645 -0.2208045 0.2237465 -0.10962365 -0.057955023
0.16495657 0.29481053 0.26801863 -0.10263485 0.20335828 -0.010136274 0.11525879 0.020281777
-0.24216828 0.11056161 -0.05557352 0.053840958 0.12020728 0.3499653 0.27824372 -0.037592012
-0.1467268 -0.0029568172 0.003567649 -0.26665777 0.2880939 -0.29424122 -0.013883922 -0.19419087
0.17924346 -0.06740683 -0.16444151 0.057200678 0.20198826 -0.24335979 -0.11394177 -0.27317506
0.14032187 -0.04327777 0.027919818 0.1217166 0.02607897 0.038316593 0.32639238 -0.038929313
0.050017953 -0.20699821 0.08248061 -0.0036570914 -0.17773178 -0.03703883 0.0027114626 0.2999539
-0.059588227 0.09643644 0.014500379 -0.24936153 0.09263213 -0.03328451 -0.01934259 0.14491737
0.03602462 0.08661875 -0.25282294 -0.0056136353 -0.083260134 0.17013624 0.07090421 -0.003729176
0.0020078334 -0.10837331 0.046205483 0.0325622 -0.0013370309 0.27447107 0.17918128 -0.16038032
-0.022519268 -0.10579627 0.24645042 0.053118717 -0.088570416 -0.1475191 0.11116352 0.11779327
-0.10557616 0.054220863 -0.04988428 0.014222864 0.11557929 -0.07135042 0.0076468866 0.24020937
-0.14353721 -0.22439733 -0.13487817 -0.091839604 0.004575048 0.18295936 0.17293179 0.007070531
0.10038097 -0.026908286 -0.3176194 0.027264789 -0.032314353 0.1496907 0.056963053 0.08057989
0.058159083 0.03934179 -0.10940233 -0.29885808 0.2373931 0.09182423 0.12144661 -0.042278785
-0.06560169 -0.12859148 -0.095094435 -0.035975147 0.040740702 -0.16361114 -0.0008760095 0.11805367
-0.20694776 -0.11342396 -0.11629827 -0.18588325 0.018665757 -0.21660712 0.089503765 -0.4756238
-0.41668406 0.037361413 -0.24105561 -0.0027472847 0.060079105 -0.21615395 0.033278946 0.065120906
-0.032554183 0.22626391 0.056918144 0.09293282 0.06949064 0.08797064 0.12570152 -0.17596649
0.07333883 -0.14136828 0.020993683 -0.06904846 0.06769254 -0.2206765 -0.025545245 -0.06906696

Mixer_Block.0.mlp_block_token_mixing_DynaMixerOperation.fc_out.bias f4 [66]
00000000: 15f8 043f 0997 26be e2bb 143e 1548 b13e
00000010: 639d d7be 1742 673e d50a dcbe 4d63 c73e
00000020: 28e9 693e 1da6 c23d caac 37bf cf52 053c
00000030: e262 dabd 5aca b93e 14cb 1a3b 5a61 ce3d
00000040: 0295 41be 7bef 3fbe 5ddf 0ebe 0e76 6dbe
00000050: 8372 8f3e 2844 de3d 2489 77bd fa11 bfbe
00000060: 7f51 35be 8ff7 a63d dac1 45bd fa7c 883e
00000070: 69d8 4abd d0a2 343e 82b2 e63d 0936 2e3d
00000080: a054 80be 8e5f 0fbe 4245 1ebe 7cd2 293d
00000090: 7ced d13d 3db3 7c3e e0e8 673c 8824 ed3d
000000a0: 7f16 633e fac0 873e 5cf1 97bd f435 4fbc
000000b0: 59f0 443d fad3 eb3e ce4f 113e e6ee 033e
000000c0: 8ade 413e cac2 2ebd 291c 91be 2516 dc3d
000000d0: ccbe 4dbe c8bf 8a3d e7c5 973d a302 6539
000000e0: 890f 833d a9c3 573c 7440 64be 045b 053e
000000f0: e2fb 8bbe e477 9b3d 7e2f babe f055 09be
00000100: 4a21 c9ba b501 09be
0.51941043 -0.16268553 0.14524797 0.34625307 -0.42112264 0.22583805 -0.42977014 0.38942948
0.22842848 0.0950434 -0.7174803 0.008137419 -0.10663392 0.36287194 0.002361958 0.10077162
-0.18904498 -0.18743698 -0.13952394 -0.23189566 0.28017053 0.108528435 -0.060433522 -0.37318403
-0.1770687 0.08152687 -0.048280574 0.2665785 -0.04952279 0.17640233 0.112645164 0.042532
-0.25064564 -0.14001295 -0.15456107 0.0414605 0.10250375 0.24677749 0.014154643 0.115792334
0.2217655 0.26514417 -0.074190825 -0.012647141 0.048080776 0.46060163 0.141906 0.12884101
0.18932548 -0.042666234 -0.28341797 0.10746411 -0.20092314 0.067748606 0.07410794 0.00021840124
0.063994475 0.013169208 -0.22290212 0.13023001 -0.2734061 0.07591227 -0.3636436 -0.13411689
-0.0015345004 -0.13379557

Mixer_Block.0.mlp_block_token_mixing_DynaMixerOperation.LN.weight f4 [10]
00000000: 8c97 523f c4ed 303f 766b 593f d78e 353f
00000010: a604 5b3f 46b0 3b3f 6a8a 5d3f 572f 343f
00000020: 1f58 663f 54c0 5f3f
0.8226249 0.691128 0.849296 0.7092108 0.8555397 0.73315847 0.8653933 0.70384735
0.8997821 0.87402844

Mixer_Block.0.mlp_block_token_mixing_DynaMixerOperation.LN.bias f4 [10]
00000000: 24a7 bc3e d16b 8b3d 2b7e 2a3e e7d1 27be
00000010: ccec 2bbd ccdc 99be 79a9 debd fad4 bdbe
00000020: 92ab 8fbd bd97 48be
0.36846268 0.06807674 0.16649692 -0.16388665 -0.041973874 -0.30051267 -0.10872168 -0.3707655
-0.07015146 -0.19589134

Mixer_Block.0.mlp_block_channel_mixing_DynaMixerOperation.fc_ND.weight f4 [1, 10]
00000000: 181b 3abf f8ab d63e 59ff 60bb 2ab5 5d3d
00000010: ed6e 793c 984a 6b3d 202b 99bb ac5a 8d3d
00000020: bc24 b3bd 2d82 2dbd
-0.7269759 0.41928077 -0.0034331887 0.05412785 0.015224201 0.057444185 -0.0046743304 0.0690206
-0.08747241 -0.042360473

Mixer_Block.0.mlp_block_channel_mixing_DynaMixerOperation.fc_Nd.weight f4 [484, 22]
00000000: 25cf 533e 5ea4 a537 ea42 34be c1f5 21be
00000010: 28b9 37be 3177 31be 17e5 79be 913d 73be
00000020: 5e13 bfbe 020b c9be 793b 6a3e d4e0 49bc
00000030: bb46 373c a019 0f3b e11e 1a3e fd74 e7be
00000040: abb7 733e bfce e03e 3f73 cfbd 17b0 b33d
00000050: 06dc cbbe f82e 483e 25c3 0c3f 30f9 9dbe
00000060: dcce 6bbd 075d 9f3d eb9b bc3e 47b7 7abd
00000070: 1023 093e 33d1 0fbe b836 9f3e 7877 c6bc
00000080: 560c 34be 83ad eb3d 49c1 e33c 52bd e63d
00000090: dec3 683e 1b6b d13c 7041 aebd 1cb7 6bbe
000000a0: 3cf4 4d3e f308 3ebe 793b cfbd ad73 efbd
000000b0: dded cc3c eba4 903e a877 333e d588 21bc
000000c0: bfe8 a5bd 1c25 853e ec5e fdbd 586e e33c
000000d0: 9d9c db3e 0aa4 853e e29b 203e 521d 0dbc
000000e0: 8bba 0e3e c1b9 913e dfec 0a3d e3be a33d
000000f0: 9db3 293e 6a20 383d 98ac 8b3d ef35 d8bd
00000100: 5386 82bd a979 3f3e cf79 85be 2062 c3be
00000110: e024 0f3e dda9 e63d 7da9 8d3d a646 d13e
00000120: 84ae 833e 0ff8 7cbe c4cf f53b 2d2c f73d
00000130: 6d60 f3bd 7393 00be 7eb7 5bbc 5b2f 803e
00000140: c4da 01be c846 323e ec79 333e 1ab8 d23b
00000150: 48b7 ad3c 47e2 8a3d 27af b0bd 056c 52be
00000160: aa76 76bd 7f77 bf3e 1d35 ce3c 7355 3e3d
00000170: 0cec 883e 1ea9 d1bc 6d51 be3e 3854 2c3c
00000180: 90b8 e83d 0baa e1bc 9182 903e 00a6 f7bd
00000190: 4482 873e edba aebe b0f3 1d3e 14db 473c
000001a0: 81d9 523d 0706 163d b487 1fbe 88fe 2bbe
000001b0: bd60 c33d 36ba bb3e 394a a33d 0a46 913d
000001c0: 59d3 f63d 13e8 cf3d a4bf 9fbe eae7 82be
000001d0: cea7 9b3c 9188 5cbc 3beb 903e 607a 9abb
000001e0: ab51 053d 29ea a73e 7348 2ebe 5005 143e
000001f0: abd9 4bbe 153d dbbe 9a40 a1bd abfb 223e
00000200: 1d19 0bbd 137c 393e 41b5 c03d 45f4 eabe
00000210: ccd0 163e 6be1 b8be 6ff8 08be 9ad4 2bbd
00000220: 0ee3 d6be d4e1 a2bd 11d0 cebe 1e74 ffbe
00000230: 0463 343d d4d8 1abd 5130 13be 64a7 97be
00000240: 3a75 cc3c ea63 2fbe 8e79 1cbe 421d 4cbe
00000250: 652b cabe d2ca 32be b426 9ebe 96ee 873e
00000260: 9acf 81bd 503b 36be 864e 813c d80b 2cbe
00000270: 6435 603d 3933 86be cce4 25be 64e0 a0be
00000280: 751e 19be 23d1 8d3c 1dc2 8dbd e9f4 39bd
00000290: 8310 ec3d 2ef0 e83d 0c2b 34be 7d04 293e
000002a0: dc32 473e 5a4a 913e ed75 c63d 114d 35be
000002b0: 8259 10be f779 123d 9fbd 953b 3838 403e
000002c0: 562f ec3e aeeb 07bd 9202 5f3e 37d4 26bd
000002d0: 988e 893e b0d9 83bd 9fd4 3b3e c788 583d
000002e0: c1ff ab3e db66 ea3d 97e0 53be cd5a 063e
000002f0: fa41 803d 24aa fbbd 3491 17be 29c7 c03e
00000300: b8b4 c0be 8e78 103e e6d2 cf3c 5b95 233e
00000310: 703c 7a3e 51ce cabd 52d6 863d 961f 8dbd
00000320: 7325 123e f18f be3d c8e6 51be c253 e2bd
00000330: 5846 7dbe cb7b 06be 0082 8abd 0877 6cbe
00000340: 6cd9 29be 5025 9abe 3fea e8bd b76e a43e
00000350: d3c7 9f3d d500 a63e 0b51 2a3d 09fb bcbe
00000360: 67ff 083e f408 c03d 3ee9 433e b2ad d0ba
00000370: d13c a4bd 6493 57be 7e68 70be 12a5 b33e
00000380: 9953 35be b561 8a3e 2f34 5c3e cdeb 163d
00000390: 43ea babd 0518 48be a2ab 043c 2a18 34be
000003a0: 8f3b 753c 4093 f9bd a4e3 09bc fad4 8bbe
000003b0: 8382 3d3e 8315 a9be 3ba5 26be 9c3e b2be
000003c0: 972a 91be 70d9 093d 4f71 a43c 4df1 343e
000003d0: bfdd 12bb e538 723d 94a4 a0bd a190 753e
000003e0: 1d95 2ebd 3f4f 253e c34b a1be 81d2 03bf
000003f0: 1a73 bb3e 49f5 ba3d 7f55 313e 2d7f 7e3d
0.20684488 1.9746072e-05 -0.1760365 -0.15816404 -0.17941725 -0.17330624 -0.24403797 -0.23753954
-0.37319463 -0.3926621 0.2287425 -0.01232167 0.011186297 0.0021835342 0.15050842 -0.45206442
0.23800533 0.43907735 -0.10129403 0.08773821 -0.39816302 0.19549167 0.54985267 -0.30854177
-0.057570323 0.077814154 0.36837706 -0.061209943 0.13392282 -0.14044647 0.31096435 -0.024226889
-0.17582831 0.11507704 0.027802126 0.11266579 0.22730967 0.025563767 -0.08508575 -0.2301907
0.201127 -0.18558101 -0.101187654 -0.11691985 0.025015766 0.28250822 0.17526114 -0.009859283
-0.081010334 0.26004875 -0.123716205 0.027762577 0.42892924 0.26101714 0.15684465 -0.008612948
0.13938348 0.2846203 0.033917304 0.07995393 0.16572423 0.044952787 0.06820029 -0.10557162
-0.063732766 0.18698753 -0.26069495 -0.381608 0.1397891 0.112628676 0.06917093 0.40874213
0.25719082 -0.24704002 0.0075015742 0.12068973 -0.11883626 -0.12556247 -0.013410447 0.2503613
-0.12681109 0.17409813 0.17526978 0.006430638 0.02120556 0.0678144 -0.08627158 -0.20549019
-0.06017176 0.37395856 0.02517181 0.04646821 0.2674259 -0.025593337 0.37171498 0.010518126
0.113633275 -0.027546903 0.28224614 -0.12092209 0.26466572 -0.34126988 0.1542499 0.012198228
0.05147696 0.036626842 -0.1557911 -0.16796315 0.09539936 0.36665505 0.07973141 0.07093437
0.1205203 0.101516865 -0.31200898 -0.2556756 0.019000914 -0.013460294 0.28304467 -0.0047142953
0.032548588 0.32795838 -0.17019825 0.14455152 -0.19907252 -0.4282004 -0.0787365 0.15916316
-0.033959497 0.18113737 0.094095714 -0.45889488 0.14728087 -0.3610948 -0.1337602 -0.0419508
-0.41970104 -0.079532295 -0.40393117 -0.49893278 0.04403974 -0.03780444 -0.143739 -0.29619896
0.024958242 -0.17127958 -0.15280744 -0.19933036 -0.39486232 -0.17460182 -0.30888903 0.26549214
-0.06338425 -0.17796063 0.015784513 -0.16801393 0.054738417 -0.26210955 -0.1620056 -0.31421196
-0.14953025 0.017311638 -0.0692179 -0.04539958 0.11526587 0.11373936 -0.17594546 0.16505618
0.19452995 0.28377038 0.09690461 -0.1770518 -0.14096645 0.035760846 0.0045697237 0.18771446
0.46129864 -0.033183746 0.21778324 -0.040729728 0.26866603 -0.06438005 0.18342827 0.052864816
0.33593562 0.114453994 -0.20691143 0.13120575 0.06262584 -0.12288311 -0.14801484 0.37651947
-0.37637877 0.14108488 0.025369119 0.15974943 0.24437118 -0.09902633 0.06583847 -0.0689079
0.14272098 0.093047984 -0.20498192 -0.11051132 -0.24733865 -0.13133161 -0.06763077 -0.23092282
-0.16586846 -0.30106592 -0.11372804 0.3211572 0.07801785 0.3242251 0.041581195 -0.36910275
0.13378678 0.09376708 0.19131944 -0.0015920906 -0.08019412 -0.21052319 -0.2347736 0.35086876
-0.17707671 0.2702767 0.21504281 0.03684597 -0.09126713 -0.19540413 0.008097561 -0.17587343
0.014967813 -0.12186289 -0.00841609 -0.27310926 0.18506818 -0.33024225 -0.16273968 -0.34813392
-0.28352806 0.03365463 0.020073561 0.17670174 -0.0022410003 0.05913629 -0.07843891 0.23980953
-0.042622674 0.16143511 -0.31503114 -0.5149308 0.36611253 0.09128816 0.1731777 0.062133003

Mixer_Block.0.mlp_block_channel_mixing_DynaMixerOperation.fc_Nd.bias f4 [484]
00000000: 8787 b9be d455 ac3e 9d2a 83bd dc77 abbd
00000010: 662a 5d3e 6007 333e 3d5c 30be 2941 763d
00000020: 1d67 193d 53c6 33be ec90 aabe 3a89 123c
00000030: 2580 35be 87df 9abe 76b6 8d3d b97e b23e
00000040: 04fa db3c 806a 2fbe 412d ad3e 32a8 9c3b
00000050: 55b4 8e3d 958d 5f3d 2578 2e3d 18e1 1b3e
00000060: 5e27 89be aa6c b1be 8083 123d 94c0 ab3c
00000070: cc59 99be b438 17bd de31 123e c031 b73e
00000080: 627b 9abe b75e 603e 9dbb 9f3e 351c b4be
00000090: 69fa e93e e538 6abe c69f 4bbe d5d7 4bbe
000000a0: 228c 58bc 7ddc 963e 4784 9f3e 905c c3bc
000000b0: 491f 8c3e dc04 0bbe 87e3 1e3e b559 2fbe
000000c0: 184a b3be 3339 a93d 2795 883e aedd 18bd
000000d0: ca86 c1bd 1ddc 183e f041 813e 8f7a b1bd
000000e0: 8159 983d 337c 453e f12a 1abe d602 fa3d
000000f0: ed26 b5bd 23ee 74be 72bf 38be f39e 85bd
00000100: 48c4 0bbd 9c84 0c3d b8c4 523b 9ebe 9dbe
00000110: 5f4a abbd 60f5 18bc 57cd 2bbe d5ac 833e
00000120: 19d9 cf3e b989 67be acea d53c ccec ccbd
00000130: 6e98 49be 7bd0 2fbe c41b 913d 971d b83c
00000140: a89d f0bd 3519 6ebe d64e 42be 0a61 1fbe
00000150: fcc8 cabe a693 07bd a16e 753e 5231 8f3e
00000160: c7a1 8abe c3e8 913d 83f8 a1b9 b7f7 6dbd
00000170: d699 65be 585c ae3e be2f 39be 8765 66be
00000180: 1d4e f53e 83e1 303e bd62 513b c510 88be
00000190: f408 5bbd d0de 643d 3a4a 893d ec07 33be
000001a0: 2613 e5bd cb38 bb3d ad26 fdbb 7ed2 433e
000001b0: 1902 d6bd 7c02 2c3e 1ac7 2fbc 98c1 14be
000001c0: c0a5 bd3b 2454 873e e4a5 95bc f0f7 19be
000001d0: 7886 98bc dbb2 49be 9722 30be 1688 f03e
000001e0: b314 c0bd 33b0 3dbe bd6e 73bd 708c cb3d
000001f0: 81cc 44be 3f3a efbd ef6d 883c 0871 8bbd
00000200: 92e9 2bbe a00c 523e e2f6 ae3e 22dc 30bd
00000210: d8ea 263d 2e7f b83d c7c6 f0bd cb09 b2bd
00000220: 45ab 1abe 9183 753d 921e 223e d7b3 f73d
00000230: e23c a2bc 9075 ca3e 0518 4ebd 7f94 5fbd
00000240: f320 013e 3927 b7bd 4c2d d83e 8f73 403d
00000250: 5525 e5bd a293 423e d9d2 413e 7054 c53e
00000260: 8392 58bd 7a6f 663e 4e3f d83c 88b1 613d
00000270: b71a 863d e242 b23d 5cd3 613d e991 3a3e
00000280: fd0d 073e 90c1 93be 6e06 a13d 00d8 25b8
00000290: 39d1 a5be fdf8 4abc 5c42 673e 07ed 46b9
000002a0: e489 c33e 593e d6bc fba4 45bd 1b1c 1fbe
000002b0: 5378 a1bd 22ac b0bd b6f0 21bd df00 a2be
000002c0: 88a5 273e 48a8 4fbe d3e4 7d3d 8595 823d
000002d0: ba5f c13e 3911 82bd fec6 053e 180f e53d
000002e0: ca2c 52be bb9d babd def8 293c e986 a7bd
000002f0: 6b26 7cbe c9e3 8f3e 3b77 653e be81 adbe
00000300: df0e e83e 9a16 ae3d e094 95be df2b babd
00000310: 3fe0 1a3e d5bd 053e 5255 8c3d a246 c6bd
00000320: f661 ffbe 2548 a9bd a138 8a3d 19d4 723e
00000330: 0403 3a3e 471c f8bd 67a0 69be ec14 06be
00000340: 8c0f 993e 96aa b4bd 0504 e6bb 4fff 91be
00000350: a61e dd3c 97f8 41bd ae75 9abd 9f3a 123d
00000360: 44fc 71bc 9ab8 89be edbe f1be 4bf8 ab3e
00000370: 0185 e73d ed40 98be ef4f 5c3e faec 6e3e
00000380: 95f2 343e ba96 01be f3c9 16bc 3adc f7bd
00000390: d548 a83d ff92 1ebe 63be 8b3e 6dc8 b8bc
000003a0: 09b7 48bd 0af3 093d dff1 e7bd e010 efbd
000003b0: b798 f8bd 7192 c7be ac0f 1cbe 077f cfbe
000003c0: aeab 103f 65c7 efbc cb12 f43c f8e5 93bd
000003d0: 6de1 2bbd d4e1 babe f01c 7ebe 92bf 013e
000003e0: 4798 d6bd 61c5 9c3e cea1 393e e527 e03d
000003f0: 72f7 eebe e6b3 35bb 752e 4cbd f8bb 85bd
-0.36236212 0.33659232 -0.06404612 -0.08372471 0.21598205 0.17483282 -0.17222686 0.060120735
0.037451852 -0.17556123 -0.33313692 0.00894385 -0.17724665 -0.30248663 0.06919567 0.34862307
0.026852615 -0.1713047 0.33823588 0.0047807926 0.06967989 0.054578383 0.042595048 0.15222585
-0.26787847 -0.34653217 0.03576994 0.020965852 -0.29951322 -0.03691931 0.14276835 0.35780144
-0.3017226 0.21911131 0.31197825 -0.3517777 0.4569886 -0.22873266 -0.19885167 -0.19906552
-0.013217004 0.29465094 0.31155607 -0.023847848 0.2736762 -0.13576072 0.15516482 -0.17124064
-0.35017467 0.08262863 0.26676294 -0.037320785 -0.09449537 0.14927717 0.2524562 -0.08665954
0.074389465 0.1928566 -0.15055443 0.12207572 -0.08845315 -0.23918967 -0.1804178 -0.06524458
-0.034122735 0.034306154 0.003216071 -0.30809492 -0.083637945 -0.009335846 -0.1677755 0.25717798
0.4059532 -0.22611131 0.026112877 -0.10006103 -0.19687054 -0.17169373 0.07085374 0.022475047
-0.117488205 -0.23251803 -0.18975386 -0.15564361 -0.39606464 -0.033099793 0.23967983 0.27967316
-0.2707655 0.07124474 -0.0003089347 -0.058097567 -0.22421965 0.34054828 -0.18084618 -0.22499667
0.47911158 0.17273526 0.0031949722 -0.26575294 -0.053475335 0.055876553 0.06703611 -0.1748349
-0.11185293 0.09141692 -0.007725558 0.19123265 -0.10449619 0.16797823 -0.010728622 -0.14526975
0.005787581 0.26431382 -0.01826758 -0.15035987 -0.018618807 -0.19697134 -0.17200695 0.46978825
-0.09378948 -0.18524246 -0.05943178 0.09938896 -0.19218637 -0.116810314 0.016653983 -0.068086684
-0.16788319 0.20512629 0.34172732 -0.043178685 0.04075131 0.090086326 -0.11756664 -0.08693274
-0.15104397 0.059939925 0.15831974 0.120948486 -0.019804422 0.39542818 -0.050315876 -0.054584976
0.12610225 -0.08943028 0.4222206 0.046985205 -0.11188761 0.1900163 0.18928088 0.38540983
-0.0528741 0.22503462 0.026397374 0.055100948 0.06548064 0.08704163 0.05513321 0.18219723
0.1318893 -0.28858614 0.078625545 -3.954023e-05 -0.32386187 -0.012388465 0.22583908 -0.00018971051
0.3819114 -0.026152777 -0.04825304 -0.15538065 -0.07884278 -0.08626582 -0.0395362 -0.3164129
0.16371739 -0.20279038 0.061985802 0.06376175 0.37768346 -0.06350941 0.13064191 0.111845195
-0.20524898 -0.09112116 0.010374276 -0.08180029 -0.2462403 0.28103474 0.22408764 -0.33888048
0.45323846 0.08500405 -0.29215145 -0.09090399 0.15124606 0.13060696 0.06852211 -0.09681441
-0.49879426 -0.082657136 0.06749082 0.23713721 0.18165213 -0.121147685 -0.22815095 -0.13093919
0.29894674 -0.08821599 -0.007019522 -0.28515097 0.026992153 -0.047356214 -0.07541977 0.035700437
-0.0147696175 -0.26898652 -0.47215977 0.3358787 0.11304665 -0.29737034 0.21514867 0.23332587
0.17670663 -0.12655154 -0.009203422 -0.12102552 0.082170166 -0.15485762 0.2729369 -0.022556508
-0.04900268 0.033679046 -0.1132543 -0.116731405 -0.12138503 -0.38978913 -0.15240353 -0.40526602
0.5651196 -0.029269883 0.029794117 -0.072215974 -0.04196303 -0.36500418 -0.24815726 0.12670735
-0.10478263 0.30619338 0.1812813 0.10945109 -0.4667316 -0.0027725636 -0.049848992 -0.06529993

Mixer_Block.0.mlp_block_channel_mixing_DynaMixerOperation.fc_out.weight f4 [10, 10]
00000000: e855 463e 8712 babd ee00 e6bd 59ac 4abe
00000010: a1a1 5fbe 6a8b 97be ce0b 31be 0e64 acbe
00000020: 43b4 12be 6b8c c83c 78ad ba3e 2b5d f13d
00000030: ab2e febd 3f24 ebbd c81e fbbd 2327 f5bd
00000040: 2ac6 fabd adcc 69be 2ef3 b83d 17b7 b93d
00000050: ccf0 98be af0f 72be 873c ba3d d8fb 1dbd
00000060: e89b ab3d e6e5 0b3d 4e27 c23d 672b 323c
00000070: 9764 863d 462b 65bd 000e 0ebf 3ab2 253e
00000080: f86a 433c b0fa e23d 5ce9 0d3c 2b7a 89bc
00000090: 4129 afbd 3507 8c3e 3143 31be 3214 8b3d
000000a0: 9d3f b5be efd2 d43e 0f3f 90bd 043f 833e
000000b0: 707c ed3c 1365 e73c 40ee 6fbc fbbe 6a3e
000000c0: 0007 3d3d c6ef 273e 9db1 213f e8ff eebe
000000d0: 8fd1 103e 63f4 97bd 39d2 4f3d c1e7 d7bc
000000e0: b95e b03d d74f 93bd 8744 873c 1a7d 6fbd
000000f0: d483 6bbf 2be7 f53d ddc4 043e 7c7c 59bd
00000100: 6823 e13c 08f6 c43c aa54 db3d 382a 3cbe
00000110: 0c08 273d 3dc8 1abd 667e 8f3e 5083 ab3e
00000120: d33e 8b3e a3b4 4d3d a58e 133e 5d04 2f3e
00000130: 66a1 783c 004f aa3d c24c 433e 091f 853e
00000140: b6ad abbe 453d 093f 3290 27be 9020 2cbd
00000150: d4b6 7dbe ae31 e7bd 45d3 64be c81a b2bd
00000160: c4f7 06be c315 25be 2af5 43bf e682 0f3e
00000170: f390 9cbe ec60 423e b69c 08bd 9343 083e
00000180: 6f31 b7bd fa80 803e f868 fb3c 613f 673e
0.19368708 -0.09085565 -0.11230646 -0.19792308 -0.21839 -0.29598552 -0.1728966 -0.33670086
-0.14326577 0.024481019 0.3646047 0.117853485 -0.12411245 -0.11481523 -0.122617304 -0.11970355
-0.12244828 -0.22831984 0.09030758 0.09068125 -0.29871213 -0.23638795 0.09093576 -0.038570255
0.08379346 0.034154795 0.09480153 0.010874606 0.06562155 -0.055949472 -0.5549011 0.1618127
0.011927359 0.11082971 0.008661594 -0.016781887 -0.085527904 0.2734925 -0.17310788 0.06790961
-0.35400096 0.4156718 -0.070432775 0.25634015 0.02899 0.028246438 -0.014644206 0.22924416
0.046149254 0.1640006 0.6316164 -0.46679616 0.1414244 -0.0741966 0.050737593 -0.026355626
0.08611817 -0.071929626 0.016512169 -0.058468916 -0.9199803 0.120069824 0.12965722 -0.053097233
0.027482703 0.024043098 0.10709508 -0.1837548 0.04077916 -0.03778862 0.28026122 0.3349862
0.2719637 0.050221097 0.14409883 0.17091508 0.015175199 0.08315849 0.1907225 0.2600024
-0.33530968 0.53609115 -0.163636 -0.04202324 -0.24776775 -0.112887725 -0.22346218 -0.08696514
-0.13180453 -0.16121583 -0.76545966 0.14014778 -0.30579337 0.18982285 -0.033352576 0.13307028
-0.089449756 0.250984 0.030689701 0.22582771

Mixer_Block.0.mlp_block_channel_mixing_DynaMixerOperation.fc_out.bias f4 [10]
00000000: a5a2 38bf 7347 22bf ba18 943e fb80 893d
00000010: 4a77 283e 6e80 88be 5198 063e 01ea d0be
00000020: b450 b3be fb2a 03bc
-0.72123176 -0.6339027 0.28925115 0.06714054 0.16451755 -0.26660484 0.13144042 -0.4080353
-0.3502251 -0.008005853

Mixer_Block.0.mlp_block_channel_mixing_DynaMixerOperation.LN.weight f4 [22]
00000000: 9e5d 8b3f b866 8c3f d8fa 8c3f 2ded 753f
00000010: 1573 8f3f c091 933f 8c0f 833f bef4 993f
00000020: 34a7 803f c33b 7c3f 8cc3 8c3f e7af 943f
00000030: d162 9d3f 8d9d 963f ae54 853f 1a69 7c3f
00000040: 32fc 9e3f a996 943f d251 9b3f f2b7 7e3f
00000050: 47cc 953f 9f59 823f
1.0887945 1.0968847 1.1014051 0.96065027 1.1206995 1.1528854 1.023912 1.2027814
1.0051026 0.9852869 1.0997176 1.1616181 1.2295781 1.1766831 1.0416467 0.9859787
1.2420714 1.1608478 1.2134345 0.9949943 1.1702965 1.01836

Mixer_Block.0.mlp_block_channel_mixing_DynaMixerOperation.LN.bias f4 [22]
00000000: df02 bd3d d90d d33c 09a2 4bb9 b680 33be
00000010: 79b2 c83c 6b28 3ebe cb52 39bc fe3f 033d
00000020: c5eb 94bd 8ea6 0b3d b8d0 20bd d4b7 60be
00000030: 53a1 1f3d e94e f5bc 515b 393e c654 04bd
00000040: f6f8 a73c 66eb b23c ba79 4cbc 9b22 2c3e
00000050: 20e8 043e 03f5 123d
0.09229063 0.025763439 -0.00019419951 -0.17529568 0.024499165 -0.18570106 -0.011311243 0.03204345
-0.07271532 0.034094386 -0.03926155 -0.21945125 0.03897221 -0.029944854 0.1810124 -0.03230741
0.020504456 0.021840762 -0.012480194 0.16810076 0.12979174 0.035878193
