M_2_AST/M_2_AST/h36m/run_for_longging/exp236/model.pt (torch, 870893 bytes, 184 tensors)

Mixer_Block.0.mlp_block_token_mixing.fc1.weight f4 [20, 10]
0	0x3d9cad1a	0.07650204
1	0xbe4e845f	-0.20167683
2	0xbca0368a	-0.019557256
3	0x3dbe6833	0.09297218
4	0x3f03699c	0.5133302
5	0xbeb42499	-0.35184172
6	0x3ee7dd27	0.45285913
7	0xbeef26fe	-0.46709436
8	0x3f1f75ac	0.6228893
9	0xbe8030b0	-0.25037146
10	0x3d0d82c4	0.034548536
11	0xbe87d15c	-0.26526916
12	0x3e10734b	0.14106481
13	0xbe79caba	-0.2439374
14	0x3ed87378	0.42275596
15	0xbee5658d	-0.4480404
16	0x3f16a0a4	0.5883887
17	0xbe8fe69b	-0.28105626
18	0x3f35fe9f	0.71091646
19	0x3e77d479	0.24202146
20	0xbe976ecc	-0.2957672
21	0x3e641cd5	0.22276624
22	0xbe83da6c	-0.2575258
23	0x3ef7fbee	0.48434395
24	0x3c174837	0.009233526
25	0x3ea79048	0.32727265
26	0xbf16f368	-0.5896516
27	0xbf79fbf4	-0.97650075
28	0xbef68647	-0.4814932
29	0xbf086174	-0.532737
30	0xbde7e0c3	-0.11322167
31	0x3e9ee61e	0.3103494
32	0xbe80d6ab	-0.2516378
33	0x3eb306ed	0.3496622
34	0xbe560a7d	-0.20902438
35	0xbdd30173	-0.10303011
36	0xbefbec62	-0.49203783
37	0x3f475534	0.77864385
38	0xbf23822b	-0.63870496
39	0x3ef18cb1	0.47177652
40	0xbeb5387f	-0.35394666
41	0x3dc0916d	0.09402738
42	0xbe818d11	-0.25302938
43	0x3ee5371d	0.4476861
44	0xbeea2480	-0.45730972
45	0x3f251395	0.64483005
46	0xbf0b0e37	-0.54318565
47	0x3ea26d7f	0.31724164
48	0xbe7353e5	-0.23762472
49	0x3ef9e0e7	0.488044
50	0xbb270c59	-0.0025489538
51	0x3ee3a2b5	0.44460073
52	0xbe67b62e	-0.2262809
53	0x3d9e555f	0.07731127
54	0xbecfe338	-0.40603042
55	0x3f4dfd5f	0.8046474
56	0xbee94674	-0.45561564
57	0x3f17661b	0.59140176
58	0xbed74a17	-0.42048714
59	0x3e3b023c	0.18262571
60	0xbdc15c2a	-0.09441407
61	0x3e12511c	0.14288753
62	0x3c0322aa	0.00800387
63	0x3d5191e4	0.051164523
64	0xbf581638	-0.84408903
65	0x3efeb402	0.4974671
66	0xbf0f6c70	-0.5602484
67	0x3ef2c618	0.4741676
68	0xbf62b7b0	-0.88561535
69	0x3da99216	0.08279817
70	0x3dc95b9f	0.098319285
71	0xbe774a44	-0.24149424
72	0x3eac15bc	0.33610332
73	0xbef15343	-0.47133836
74	0x3e1a41cb	0.1506416
75	0xbf370653	-0.71494025
76	0xbe86d9c3	-0.26338014
77	0xbd29b779	-0.04143474
78	0x3ee8a044	0.45434773
79	0xbed60439	-0.41800097
80	0x3e9c5be6	0.30538863
81	0xbf1ad94b	-0.6048781
82	0x3ee5db85	0.44894043
83	0xbf39928e	-0.7248925
84	0xbd950384	-0.07276061
85	0x3e48a6e2	0.1959491
86	0xbf1dd837	-0.6165804
87	0x3c3f62f6	0.011681309
88	0x3d22231a	0.039584257
89	0x3eb84bcf	0.35995337
90	0x3e254648	0.16140091
91	0xbeeaadb7	-0.4583566
92	0xbd837f08	-0.06420714
93	0x3e5718ec	0.210056
94	0x3c881904	0.01661349
95	0xbf343e4e	-0.7040757
96	0xbbe52e52	-0.006994047
97	0xbe261020	-0.16217089
98	0xbf5e91a8	-0.86941004
99	0x3db2f833	0.087387465
100	0x3e2c64c8	0.1683532
101	0xbd891f85	-0.06695465
102	0xbc8f936e	-0.017526355
103	0xbed0f3f5	-0.40811124
104	0x3d95f8a3	0.07322814
105	0xbe87a3b1	-0.26492074
106	0x3f6f3500	0.93440247
107	0xbf84b9d7	-1.0369214
108	0x3f2ff7bd	0.68737394
109	0xbf102977	-0.5631327
110	0x3e5f6fd7	0.21820007
111	0xbdba4386	-0.0909491
112	0x3e706966	0.23477706
113	0xbd13494f	-0.035958584
114	0x3f1ecc1d	0.620302
115	0xbea27dcf	-0.3173661
116	0x3f093763	0.5360014
117	0xbf0b344d	-0.5437668
118	0x3eee3015	0.4652106
119	0xbdc38d3c	-0.09548423
120	0x3d57bc6a	0.05266992
121	0xbee7573b	-0.4518374
122	0x3e1c475f	0.15261601
123	0xbe22c6c9	-0.15896143
124	0x3dacf158	0.0844447
125	0xbf1fb47a	-0.6238476
126	0x3f103f69	0.56346756
127	0xbf45cab0	-0.772624
128	0x3e971cc0	0.29514122
129	0xbed5073f	-0.4160709
130	0xbee9cf78	-0.456661
131	0x3f09d3ce	0.53838813
132	0xbefd1d19	-0.49436262
133	0x3e86ac52	0.26303345
134	0x3e2081f6	0.15674576
135	0x3e00e78c	0.12588328
136	0x3ebf21f4	0.37330592
137	0x3ef7c9bc	0.483961
138	0xbeae32e2	-0.34023196
139	0xbf4b375e	-0.7938136
140	0xbec53b5f	-0.3852186
141	0x3eb42e6a	0.3519166
142	0xbf22134f	-0.6331071
143	0x3f145b39	0.57951695
144	0xbea50101	-0.32227328
145	0xbdbca544	-0.092112094
146	0x3e23b218	0.15985906
147	0xbde31a6b	-0.11089023
148	0x3eae6a9d	0.34065714
149	0x3e38b304	0.18037039
150	0x3e980e82	0.2969857
151	0xbed0bace	-0.4076752
152	0x3e9e4997	0.3091552
153	0xbebbcb75	-0.36678663
154	0x3e9fae53	0.31187686
155	0xbee385df	-0.44438073
156	0x3f3cbf28	0.7372918
157	0xbe11f2d8	-0.14252794
158	0xbe4b7a37	-0.1987084
159	0x3da49bb3	0.0803751
160	0x3dd3f15e	0.103487715
161	0xbe8e63b1	-0.27810434
162	0x3ef4b038	0.47790694
163	0xbf54ee3d	-0.8317602
164	0x3eb08261	0.3447447
165	0x3e1d72b9	0.15375794
166	0xbe37052e	-0.1787307
167	0x3f060336	0.5234865
168	0x3d00ca27	0.031442787
169	0xbef57c93	-0.47946605
170	0xbe250c0d	-0.16117878
171	0x3e981aad	0.29707852
172	0xbd68e30b	-0.05685715
173	0x3e40c3a1	0.18824627
174	0xbe9af4cd	-0.30264893
175	0x3e8e0097	0.27734825
176	0xbf7dc5de	-0.99130046
177	0x3f3860ec	0.7202289
178	0xbe1ef634	-0.15523607
179	0xbce878f6	-0.028377991
180	0x3e58158e	0.21101972
181	0xbf3d2462	-0.7388364
182	0x3dfe9ed4	0.12432638
183	0xbed295cc	-0.4112991
184	0x3f05aefd	0.52220136
185	0xbdbe0afc	-0.09279439
186	0xbed01433	-0.4064041
187	0x3e26c6cb	0.16286771
188	0xbe2b695a	-0.16739407
189	0xbe9ae137	-0.3024995
190	0xbf05ae75	-0.52219325
191	0x3f136012	0.57568467
192	0xbf0d336b	-0.5515658
193	0x3e7672ee	0.2406728
194	0xbcf96d47	-0.030447615
195	0x3eba7159	0.36414602
196	0xbec7e152	-0.39039093
197	0xbe7051fe	-0.23468778
198	0x3ee55f92	0.44799477
199	0xbe38744e	-0.18013117

Mixer_Block.0.mlp_block_token_mixing.fc1.bias f4 [20]
0	0x3e928c8c	0.28622854
1	0x3ebcbf9e	0.36864942
2	0x3eb28571	0.34867433
3	0x3eeca834	0.4622208
4	0x3e92191f	0.2853479
5	0x3e46a5f4	0.19399244
6	0x3e1e99c5	0.15488346
7	0x3eb059ee	0.3444361
8	0x3f133ba2	0.5751287
9	0x3f2a2b04	0.66471887
10	0x3eba5330	0.36391592
11	0x3ea00891	0.31256536
12	0x3e8077bd	0.25091353
13	0x3f0a8e62	0.5412351
14	0x3edb87be	0.42877
15	0x3e50ec23	0.20402579
16	0x3ec65781	0.38738635
17	0x3ea23b5c	0.31685913
18	0x3e435813	0.19076566
19	0x3ec16a7c	0.37776554

Mixer_Block.0.mlp_block_token_mixing.fc2.weight f4 [10, 20]
0	0x3dfd7352	0.12375511
1	0xbda5f988	-0.08104235
2	0x3ef262d8	0.47341037
3	0xbe9c304b	-0.30505595
4	0xbeeb8825	-0.46002308
5	0xbf21136e	-0.6292027
6	0x3ebe1e8f	0.3713269
7	0x3e7a1d54	0.2442525
8	0x3ef2ef45	0.47448173
9	0x3f4cc55e	0.7998866
10	0x3cd5357d	0.026026482
11	0x3df66ca0	0.12032437
12	0x3f1cda54	0.6127064
13	0xbec62f38	-0.387079
14	0xbf229d14	-0.6352093
15	0x3ef39bd3	0.47579822
16	0x3e59fcf3	0.21287899
17	0xbe6d7c2e	-0.23191902
18	0x3f00e30e	0.5034646
19	0xbead3a4e	-0.33833545
20	0xbc9f4531	-0.019442173
21	0xbe1b7633	-0.15181808
22	0x3f0b4b0c	0.5441139
23	0x3b87c6c4	0.0041435678
24	0x3d333e6b	0.0437607
25	0xbe924c3a	-0.2857378
26	0xbe10baeb	-0.14133804
27	0xbf17fd16	-0.59370553
28	0xbf59eff6	-0.85131776
29	0x3e9af569	0.30265358
30	0xbe65f9a7	-0.22458516
31	0xbec284a7	-0.3799183
32	0xbb81ec1f	-0.0039649154
33	0x3ed44f6b	0.4146684
34	0x3f373f95	0.71581393
35	0xbf4d1f87	-0.8012623
36	0xbefd6f49	-0.49498966
37	0xbcc8891b	-0.02447944
38	0xbedff811	-0.43743947
39	0x3f21437a	0.62993586
40	0x3e0ff7f4	0.1405943
41	0x3e7e5317	0.24836384
42	0xbe1de8cb	-0.15420835
43	0xbec7d21a	-0.39027482
44	0xbf1dec1f	-0.6168842
45	0xbf18e6ec	-0.5972736
46	0xbf9242f6	-1.1426685
47	0xbe0e86ca	-0.13918605
48	0x3e618635	0.22023852
49	0x3e0fd4c0	0.14046001
50	0xbd3924b4	-0.04520102
51	0x3e187922	0.14889959
52	0xbe1737a5	-0.1476732
53	0x3ea0a2c6	0.31374186
54	0xbd87cfc9	-0.06631429
55	0x3ea52248	0.32252717
56	0x3ebf09a6	0.3731205
57	0xbf3aaae7	-0.72917026
58	0x3f27d097	0.6555266
59	0xbe0943fa	-0.13404837
60	0xbf8d682d	-1.1047417
61	0xbe92bcef	-0.2865977
62	0xbd51a33f	-0.051181074
63	0xbe2c6072	-0.16833666
64	0x3ed3b720	0.4135065
65	0x3f042d1c	0.5163133
66	0x3eae32c7	0.34023115
67	0xbf03efe6	-0.5153793
68	0x3f61ec2f	0.8825101
69	0xbf1398bd	-0.57654935
70	0xbb034c86	-0.0020034625
71	0xbf5cb5b2	-0.86214745
72	0xbf6cde28	-0.92526484
73	0xbda92191	-0.082583554
74	0xbe03e949	-0.1288196
75	0xbed9fb2b	-0.42574438
76	0x3f2a7449	0.6658369
77	0x3e4f31ea	0.20233884
78	0x3c8468e0	0.01616329
79	0x3dc5cad3	0.09657826
80	0x3f6c2555	0.92244464
81	0x3f8cf201	1.1011354
82	0xbf1f31c7	-0.6218533
83	0xbe3fb0e9	-0.1871983
84	0xbced0053	-0.028930819
85	0xbe3449da	-0.17606297
86	0xbe225f97	-0.15856777
87	0x3e2f1392	0.17097309
88	0xbe15a8d6	-0.14615187
89	0xbebfa668	-0.37431645
90	0x3f962c9f	1.1732367
91	0x3f21cb80	0.6320114
92	0x3f19215d	0.59816533
93	0xbe292d2b	-0.16521136
94	0x3d7f54d2	0.06233675
95	0x3f37983d	0.7171667
96	0x3d1b407e	0.0379033
97	0xbee23440	-0.4418049
98	0xbf1b7586	-0.607262
99	0xbf00e31e	-0.50346553
100	0xbd1d4698	-0.0383974
101	0xbddeda8e	-0.1088153
102	0xbf28b71d	-0.6590441
103	0x3fa50987	1.2893533
104	0x3f134628	0.57528925
105	0x3e67e0f4	0.22644407
106	0x3f11fac0	0.5702324
107	0x3d956ae2	0.07295777
108	0xbe17cc9c	-0.14824146
109	0x3e3d63de	0.18495128
110	0xbed4bd91	-0.41550878
111	0xbb185e7b	-0.0023249674
112	0xbdcfeac6	-0.10152201
113	0xbd36a140	-0.044587374
114	0x3ea74223	0.32667646
115	0xbdbf6600	-0.09345627
116	0xbe846481	-0.25857928
117	0x3f52e13d	0.82374936
118	0xbd607ee1	-0.0548085
119	0xbf36ab4d	-0.71355134
120	0x3e593c71	0.21214463
121	0x3d007678	0.03136298
122	0x3e424a7d	0.18973728
123	0xbbeb363c	-0.007178096
124	0x3dc5d100	0.09659004
125	0xbe4e1145	-0.20123775
126	0xbeb68889	-0.35651043
127	0x3f040122	0.5156423
128	0x3f0fafa9	0.5612741
129	0xbe95419b	-0.29151616
130	0xbeb8cc43	-0.3609334
131	0x3d52410c	0.051331565
132	0xbe3c82e2	-0.18409303
133	0xbec2bbbe	-0.3803386
134	0xbda96987	-0.08272081
135	0xbf13a6cf	-0.57676405
136	0x3e97e112	0.29663903
137	0x3f12baf7	0.57316536
138	0x3ed13799	0.4086273
139	0x3f171de0	0.5902996
140	0x3ebf504d	0.37365952
141	0x3e1c8f66	0.15289077
142	0x3e1f17bb	0.15536396
143	0xbf282365	-0.6567901
144	0x3f238637	0.6387667
145	0xbd4d20c2	-0.05008007
146	0xbd481b36	-0.048854075
147	0xbec6f1a5	-0.38856235
148	0xbdceddfc	-0.10100934
149	0xbe1aeb61	-0.15128852
150	0x3f69de4a	0.9135481
151	0x3f1d15e2	0.61361516
152	0x3f21b92c	0.63173175
153	0xbef99840	-0.4874897
154	0x3dc1cc10	0.0946275
155	0x3e5f525e	0.21808764
156	0xbf19730e	-0.59941185
157	0xbf13807c	-0.57617927
158	0xbe7730f5	-0.2413977
159	0xbe70489f	-0.23465203
160	0xbe2effbe	-0.17089745
161	0xbec2eeb0	-0.3807273
162	0x3dc90739	0.09815831
163	0x3e6ceb68	0.23136675
164	0x3e2b974c	0.16756934
165	0x3ec4c47c	0.38431156
166	0x3f3e3dd2	0.7431308
167	0xbed10ca4	-0.40829957
168	0xbd2d8cf8	-0.042370766
169	0x3ecc68d0	0.39923716
170	0xbe364334	-0.17799073
171	0xbe06e311	-0.13172556
172	0x3df4d972	0.11955537
173	0x3ea62970	0.3245349
174	0xbf026ff6	-0.5095209
175	0x3eef8a52	0.46785218
176	0x3ea09d5f	0.31370065
177	0xbd21cd8c	-0.039502665
178	0x3e329bd9	0.17442264
179	0xbeef6e87	-0.46764013
180	0xbcdbbb62	-0.02682275
181	0xbf1020d0	-0.5630007
182	0x3e9a4838	0.30133224
183	0xbeae3ee4	-0.34032357
184	0xbefd765d	-0.49504367
185	0x3e21523f	0.1575403
186	0x3e9e1d0f	0.30881545
187	0x3e42e000	0.19030762
188	0xbee9c63d	-0.45659056
189	0xbe8ebdd8	-0.27879214
190	0x3eb74d9a	0.35801393
191	0xbe39459b	-0.18092959
192	0x3e6f729f	0.23383568
193	0x3f88673b	1.0656503
194	0xbe02fb80	-0.12791252
195	0xbecaaf1b	-0.3958672
196	0x3f3cb9ad	0.7372082
197	0x3e91ce3f	0.28477666
198	0x3ef1953b	0.47184166
199	0x3e92030d	0.28517953

Mixer_Block.0.mlp_block_token_mixing.fc2.bias f4 [10]
0	0xbf6ac6d0	-0.91709614
1	0xbb89f809	-0.0042104763
2	0x3e25da08	0.16196454
3	0x3dbc23aa	0.0918649
4	0xbe04947f	-0.12947272
5	0x3d277955	0.040887196
6	0xbeae71b7	-0.34071133
7	0x3dbb07c8	0.091323435
8	0x3cf6e0ed	0.03013655
9	0xbdbc2447	-0.09186607

Mixer_Block.0.mlp_block_token_mixing_DynaMixerOperation.fc_ND.weight f4 [1, 66]
0	0xbc5bdbdf	-0.013419121
1	0x3d8bcf33	0.068266295
2	0xbddbef18	-0.10738963
3	0x3d648b3f	0.055796858
4	0xbcd2b3da	-0.025720526
5	0x3d70912c	0.058732197
6	0x3d56ba1d	0.052423585
7	0x3cb437cb	0.02199926
8	0xbcad4602	-0.021151546
9	0xbcbfb69e	-0.023402508
10	0x39288b64	0.00016073656
11	0xbe088600	-0.13332367
12	0x3d21d892	0.03951318
13	0x3d847b02	0.064687744
14	0xbdce73f3	-0.10080709
15	0xbd2c0f6d	-0.0420069
16	0xbd405ff1	-0.046966497
17	0xbd2b3cbd	-0.04180597
18	0x3cc82ae6	0.024434518
19	0xbdb6d56d	-0.089274265
20	0xbd2575ef	-0.040395673
21	0xbc9c5b3b	-0.01908647
22	0x3dc84303	0.097784065
23	0xbc4e3d71	-0.012587891
24	0xbcad6377	-0.021165593
25	0xbd8f71ea	-0.07004149
26	0xbcae764f	-0.021296648
27	0xbcb02ac0	-0.02150476
28	0x3d5a34dd	0.05327307
29	0x3d013b89	0.031550918
30	0x3d50588a	0.050865687
31	0xbd6b5119	-0.057450388
32	0xbdaf3d37	-0.08556598
33	0xbd58909d	-0.05287229
34	0x3da4cb4e	0.0804659
35	0x3c857ac0	0.016293883
36	0xbe10b447	-0.1413127
37	0xbd82230f	-0.06354343
38	0x3d02cb47	0.03193214
39	0x3cba8a34	0.022770979
40	0x3dd161da	0.10223742
41	0x3dcedfef	0.10101306
42	0xbdfbe7b8	-0.12300056
43	0x3d824b19	0.0636198
44	0x3c61d687	0.013784057
45	0x3d7e8f71	0.062148515
46	0x3d3f13b0	0.046649635
47	0x3e2c47dc	0.16824287
48	0xbcd79ed8	-0.02632086
49	0x3df74a52	0.12074722
50	0xbd6f15db	-0.058370452
51	0x3c1fc5a6	0.009751713
52	0x3d256acc	0.040385053
53	0xbd686dc8	-0.05674532
54	0x3d9d63de	0.07685064
55	0xbd59a852	-0.05313904
56	0xbd147d4a	-0.036252297
57	0x3dccf077	0.100068025
58	0xbd2524ff	-0.040318485
59	0xbc464127	-0.0121004945
60	0x3d857f0f	0.06518375
61	0x3dbc6f0f	0.0920087
62	0x3e28718e	0.16449568
63	0x3d96639a	0.07343216
64	0x3ddc1ede	0.10748075
65	0x3dc65c72	0.09685601

Mixer_Block.0.mlp_block_token_mixing_DynaMixerOperation.fc_Nd.weight f4 [100, 10]
0	0x3ef89924	0.48554337
1	0xbe723cc0	-0.23655987
2	0x3e023112	0.12714031
3	0x3e33916e	0.17535946
4	0x3f280c06	0.65643346
5	0x3e9daf62	0.3079787
6	0x3ee317fa	0.4435423
7	0x3e1aea55	0.15128453
8	0x3eafb86e	0.34320396
9	0x3e83fbe9	0.2577813
10	0xbea82882	-0.32843405
11	0x3ec400c2	0.38281828
12	0xbe552f5f	-0.20818852
13	0x3ded4596	0.11585538
14	0x3e36ecfd	0.17863841
15	0x3e95e56c	0.29276597
16	0x3cb38d5f	0.021917997
17	0x3dddb60a	0.10825737
18	0x3dea3c9b	0.11437341
19	0x3d4628e4	0.04837884
20	0xbe2f187b	-0.17099182
21	0xbe197c03	-0.14988713
22	0xbde6d110	-0.11270344
23	0x3e089c9b	0.1334099
24	0x3e250242	0.16114143
25	0x3e04dcd7	0.12974869
26	0xba4cf24c	-0.00078180875
27	0x3cd3bfc3	0.025848275
28	0x3a067943	0.0005129764
29	0x3d9f84b5	0.07788984
30	0xbe1bd9bb	-0.15219776
31	0xbc2f7924	-0.0107100345
32	0xbe496dd0	-0.19670796
33	0xbe450675	-0.19240744
34	0x3e090075	0.1337908
35	0x3e89bffe	0.2690429
36	0xbcb6d4a7	-0.022318197
37	0x3dacd385	0.08438782
38	0xbc124853	-0.008928376
39	0x3d1b3f5c	0.03790222
40	0xbd5aaa42	-0.053385027
41	0x3dedbeac	0.116086334
42	0xbd103a37	-0.035211768
43	0xbdc3045a	-0.09522314
44	0xbeb28cdb	-0.3487309
45	0x3e84a079	0.2590368
46	0x3d577f6f	0.052611765
47	0x3d11a7cb	0.03556041
48	0x3d36972e	0.04457777
49	0x3d10c7ab	0.03534667
50	0x3c427b55	0.011870225
51	0x3c979b7c	0.018506758
52	0xbac0e4b0	-0.0014716592
53	0x3cb0fa27	0.021603657
54	0xbd52bb5b	-0.051448207
55	0xbebee00d	-0.37280312
56	0xbd903330	-0.07041013
57	0x3cf50cd7	0.02991335
58	0xbbcd5239	-0.006265905
59	0x3cfdba73	0.030972695
60	0xbc5e2ea3	-0.013560924
61	0x3db1e174	0.0868558
62	0x3d9a2f8a	0.075285986
63	0x3da68099	0.08129997
64	0x3e1f061c	0.15529674
65	0x3e23b426	0.1598669
66	0xbee748d3	-0.45172748
67	0x3e1b6625	0.15175684
68	0x3d8fc424	0.07019833
69	0x3db3c1b0	0.08777177
70	0xbcb7c922	-0.022434775
71	0xbdbf28bb	-0.093339406
72	0xbdf38acb	-0.11891707
73	0xbdc2425a	-0.09485312
74	0xbd6d7440	-0.057972193
75	0x3d9e91ff	0.0774269
76	0xbe25983f	-0.16171359
77	0xbee752d7	-0.4518039
78	0x3d39dddd	0.0453776
79	0x3e0190c4	0.1265288
80	0xbb95593c	-0.0045577567
81	0xbce90d60	-0.02844876
82	0x3d925827	0.0714572
83	0x3d710ca7	0.058849957
84	0x3e046eec	0.12932938
85	0x3de56ff9	0.11202998
86	0x3da44fc3	0.08023026
87	0x3d24ba0c	0.04021649
88	0xbee5ff31	-0.44921258
89	0x3e1c8b4e	0.15287516
90	0xbce2c0fb	-0.02767991
91	0xbaf327c3	-0.0018551279
92	0xbd7553ec	-0.059894487
93	0xbd3ce79b	-0.046119314
94	0xbd00f328	-0.031481892
95	0x3db8820e	0.09009181
96	0xbdab70b3	-0.08371105
97	0x3b15b42c	0.0022842987
98	0x3ca13ae0	0.019681394
99	0xbf00a33e	-0.5024909
100	0xbe8032eb	-0.25038847
101	0x3e1fe64c	0.15615195
102	0xbd4b60cd	-0.049652863
103	0x3e95b33d	0.2923831
104	0x3d6a7aa8	0.05724588
105	0x3ea186c1	0.31548122
106	0x3e307d54	0.17235309
107	0xbd65435c	-0.055972442
108	0x3e87b358	0.26504016
109	0x3c94fb2b	0.018186172
110	0x3e149696	0.14510569
111	0xbefe98a3	-0.49725828
112	0xbd158d43	-0.03651167
113	0xbd1bfcb0	-0.03808278
114	0xbe1a3b42	-0.15061668
115	0x3cbaae5b	0.022788217
116	0xbe01d269	-0.12677921
117	0xbc0a3432	-0.008435296
118	0x3d53e7b5	0.051734645
119	0xbd549685	-0.05190136
120	0xbe4807df	-0.19534253
121	0x3da726ae	0.081616744
122	0xbe4684e9	-0.19386639
123	0x3e275cfd	0.16344066
124	0x3e940bc9	0.2891524
125	0xbc26c0be	-0.010177789
126	0x3de4d838	0.11174053
127	0x3d8eb7c9	0.06968648
128	0x3c7c1c51	0.0153876105
129	0x3928a339	0.00016082534
130	0xbdc8e9a4	-0.098101884
131	0xbe24d094	-0.16095191
132	0xbca9de63	-0.020735925
133	0xbf1ab979	-0.6043926
134	0xbe879885	-0.2648355
135	0xbe87d720	-0.26531315
136	0xbe20ebe4	-0.15714985
137	0xbe230090	-0.15918183
138	0xbba245cc	-0.004952168
139	0xbdf9678f	-0.12177955
140	0xbbbef433	-0.0058274507
141	0x3d5199e2	0.051172145
142	0x3cec67ce	0.028858092
143	0x3e57e141	0.21082021
144	0xbecdca34	-0.4019333
145	0x3db0730f	0.08615696
146	0x3e9aaeb5	0.30211416
147	0x3da7da5d	0.08195946
148	0x3d4d12b7	0.050066676
149	0xbcb5e013	-0.022201573
150	0x3e2d9ebf	0.16955088
151	0xbce3496f	-0.027744977
152	0x3daa9d13	0.08330741
153	0x3db222f8	0.08698076
154	0xbda24a45	-0.07924322
155	0xbf274148	-0.65333986
156	0xbe50b4cd	-0.2038147
157	0x3da1b9eb	0.07896789
158	0xbd50ae62	-0.050947554
159	0xbd4834a9	-0.048878346
160	0xbcb824a6	-0.022478413
161	0x3ddad922	0.10685946
162	0x3e768f49	0.24078096
163	0x3e1e7268	0.1547333
164	0x3d4a63e4	0.04941167
165	0x3d61bd24	0.05511202
166	0xbede18cd	-0.43378296
167	0x3e44312f	0.19159387
168	0x3e1f483a	0.15554896
169	0x3d331c5a	0.04372821
170	0x3c820e3d	0.01587593
171	0xbe3bb8ed	-0.18332262
172	0xbd933c0d	-0.07189188
173	0xbd611e6c	-0.054960653
174	0xbdc42b7b	-0.09578606
175	0xbe19b123	-0.15008979
176	0xbd84e216	-0.06488435
177	0xbf0be359	-0.5464378
178	0xbabd408b	-0.0014438791
179	0x3d819399	0.0632698
180	0xbd9d94f9	-0.0769443
181	0xbe2ce55e	-0.16884372
182	0xbb95f33a	-0.004576114
183	0x3cc746f9	0.024325835
184	0xbca12de5	-0.019675205
185	0xbe478afb	-0.1948661
186	0x3c2972fb	0.010342355
187	0xbd275d32	-0.040860362
188	0xbf0d93ff	-0.5530395
189	0x3dea36dc	0.11436245
190	0x3d425fa3	0.047454488
191	0xbd82e054	-0.063904434
192	0xbc315ec1	-0.010825814
193	0x3bc3476c	0.005959442
194	0xbdbdbc5e	-0.09264444
195	0xbdc93623	-0.09824779
196	0x3dcd6e83	0.10030844
197	0xbcb34700	-0.021884441
198	0x3dbc9db0	0.09209764
199	0xbf3736b1	-0.7156783
200	0xbe09552e	-0.134114
201	0x3d60e87f	0.054909226
202	0xbd751943	-0.059838545
203	0xbcc53aa5	-0.024075815
204	0xbd4984d1	-0.04919893
205	0xbe2a4ff3	-0.1663206
206	0xbcdac1b8	-0.0267037
207	0xbdcfa120	-0.10138154
208	0xbdeb6289	-0.114934035
209	0x3b0a4095	0.0021095623
210	0x3ebdf4a6	0.37100714
211	0x3e13c46f	0.14430402
212	0x3daa7cfb	0.083246194
213	0x3f08dd7a	0.53462946
214	0x3d5af1bf	0.053453203
215	0x3e9e381a	0.30902177
216	0xbd8633a6	-0.0655282
217	0x3ee99f56	0.45629376
218	0x3e4e1ff3	0.20129375
219	0xbe3a229a	-0.18177262
220	0x3e7ac6f1	0.24489953
221	0xbe7556fd	-0.23958965
222	0x3f1e89d5	0.61929065
223	0x3e0f439e	0.13990638
224	0x3e83ef3f	0.25768468
225	0x3d8f9784	0.07011321
226	0x3e50e152	0.20398453
227	0x3dcfed31	0.101526625
228	0x3d8c3900	0.068468094
229	0x3e070177	0.13184153
230	0xbe79fb40	-0.2441225
231	0x3e1e32dd	0.1544909
232	0xbe52488c	-0.20535487
233	0xbe8a160e	-0.2696995
234	0xbe97ad60	-0.29624462
235	0xbea4991b	-0.3214806
236	0xbe2001ea	-0.1562573
237	0xbe1cc3fa	-0.15309134
238	0xbe4d419f	-0.20044564
239	0xbe3e9b34	-0.18613893
240	0x3daf3b80	0.085562706
241	0xbdfcba5b	-0.12340232
242	0x3d0cba5e	0.03435742
243	0x3ed2884a	0.41119605
244	0x3e4ffe5e	0.20311877
245	0x3cedeed9	0.029044556
246	0xbc9131d5	-0.017723957
247	0xbe1b34f2	-0.15156916
248	0xbe61c32c	-0.22047108
249	0xbe26c899	-0.1628746
250	0xbd996a8a	-0.07491024
251	0xbddf0c62	-0.10891034
252	0xbde7344d	-0.112892725
253	0x3def57d8	0.11686677
254	0xbde35b84	-0.111014396
255	0xbe037606	-0.12837991

Mixer_Block.0.mlp_block_token_mixing_DynaMixerOperation.fc_Nd.bias f4 [100]
0	0xbf344820	-0.70422554
1	0xbe05564b	-0.130212
2	0x3dcbe3e2	0.099555746
3	0x3eb188de	0.34674734
4	0x3b23d0ff	0.0024996398
5	0x3d9516b5	0.07279722
6	0x3e7d5359	0.24738826
7	0x3d37e5b3	0.044896793
8	0x3dc19305	0.0945187
9	0xbdf94d30	-0.121729255
10	0xbefac3ba	-0.48977453
11	0xbf0f02c7	-0.5586361
12	0xbdad0271	-0.08447731
13	0x3d1dea63	0.038553607
14	0xbd73bb38	-0.059504718
15	0x3e850f6f	0.25988337
16	0x3e9fc9dc	0.31208694
17	0x3e98e39c	0.29861152
18	0xbe2d6512	-0.16933087
19	0x3e25341e	0.16133162
20	0x3e0e6aa4	0.13907868
21	0xbe3a45db	-0.1819071
22	0xbe10f85e	-0.14157245
23	0x3e5b824f	0.21436428
24	0xbe91e9ca	-0.2849868
25	0x3ecb3f46	0.3969671
26	0xbdcdd57c	-0.100504845
27	0x3dd47e6c	0.103756756
28	0x3e4d23e4	0.20033222
29	0x3eceefc9	0.40417317
30	0xbe6edd11	-0.23326518
31	0x3e29ebeb	0.16593902
32	0xbdf25622	-0.11832835
33	0x3e97330a	0.29531127
34	0xbef43945	-0.47699943
35	0x3eea9120	0.45813847
36	0xbebae9b0	-0.36506414
37	0x3eb2bbff	0.34909055
38	0xbe50fbc7	-0.20408545
39	0x3de3900d	0.1111146
40	0xbe8504ab	-0.25980124
41	0xbd44b21c	-0.04802142
42	0xbd1dfe71	-0.038572732
43	0x3e197cb6	0.1498898
44	0xbefd9e24	-0.49534714
45	0x3e74975b	0.23885863
46	0xbe4d1c85	-0.2003041
47	0x3eed787c	0.46380985
48	0x3c52b7f1	0.012861238
49	0x3e828373	0.25490913
50	0x3d7911bb	0.060807925
51	0xbea293f0	-0.31753492
52	0xbc7f2e88	-0.015575059
53	0x3d8446bc	0.06458804
54	0x3e0ef477	0.13960443
55	0x3e1b2592	0.1515105
56	0x3e3c932f	0.18415521
57	0x3c8b5b64	0.017011352
58	0x3e2e4d3a	0.17021647
59	0xbe499a5a	-0.19687787
60	0x3e942d5b	0.28940853
61	0xbe16c984	-0.1472531
62	0xbd240b57	-0.040049877
63	0xbe2deb34	-0.16984254
64	0xbda78986	-0.081805274
65	0xbb0af0fd	-0.002120077
66	0xbcf27e65	-0.029601285
67	0xbd65ae22	-0.05607427
68	0x3d8be755	0.068312325
69	0x3cc7c254	0.024384655
70	0x3e87020d	0.26368752
71	0xbd01cc5e	-0.03168904
72	0xbde4921c	-0.11160681
73	0xbe3d175c	-0.18465942
74	0xbe34bcac	-0.17650098
75	0xbe85ad3c	-0.2610873
76	0xbe6b58ab	-0.22983043
77	0x3d862bb9	0.06551308
78	0x3da3549e	0.07975124
79	0xbd8d662c	-0.06904253
80	0x3ed18f6a	0.4092973
81	0xbd585f04	-0.05282499
82	0x3e734ee2	0.2376056
83	0xbcdfe40b	-0.027330419
84	0xbcd1b36d	-0.025598252
85	0xbdd9dc87	-0.106377654
86	0xbe2feab6	-0.17179379
87	0xbe173558	-0.14766443
88	0x3cd865d0	0.026415735
89	0x3e91b580	0.28458786
90	0x3e9ed005	0.3101808
91	0xbd77bed8	-0.060484737
92	0xbee889b7	-0.45417568
93	0xbe14aa44	-0.14518076
94	0xbe632202	-0.22180942
95	0xbcf0acae	-0.029379215
96	0xbe221281	-0.15827371
97	0x3de6ea62	0.11275174
98	0x3ce7cd7f	0.02829623
99	0xbd86c98f	-0.06581413

Mixer_Block.0.mlp_block_token_mixing_DynaMixerOperation.fc_out.weight f4 [66, 66]
0	0x3d52cec3	0.051466715
1	0x3d860892	0.065446034
2	0xbe65a166	-0.2242485
3	0xbe068104	-0.13135153
4	0xbe353825	-0.17697199
5	0x3e94fe7c	0.29100406
6	0x3c705515	0.014668723
7	0x3ebeeb58	0.37288928
8	0xbbde9385	-0.006792488
9	0x3d5dcd9f	0.054151174
10	0xb73c9771	-1.1240933e-05
11	0xbe13da24	-0.14438683
12	0x3e2c7050	0.16839719
13	0xbe17c400	-0.14820862
14	0x3e1837d0	0.14865041
15	0xbe8e7945	-0.27826896
16	0x3d954a39	0.072895475
17	0xbe978be8	-0.29598927
18	0x3d7259de	0.059167735
19	0xbe16ba9f	-0.14719628
20	0x3e889c27	0.26681635
21	0x3e01bf8e	0.12670729
22	0xbdeb954e	-0.11503087
23	0x3ce174d0	0.02752152
24	0x3e3aec4f	0.18254207
25	0xbdfba959	-0.1228816
26	0xbd323155	-0.043504078
27	0xbd8ba045	-0.06817678
28	0xbd852d24	-0.065027505
29	0x3d50e3cb	0.05099849
30	0xbd014f11	-0.031569544
31	0x3ce597bc	0.028026454
32	0x3db2db3e	0.087332234
33	0x3e9218f5	0.28534666
34	0xbe112700	-0.14175034
35	0xbe14eeea	-0.14544263
36	0xbcd5500d	-0.026039148
37	0x3afbd66e	0.0019213685
38	0x3d506bfb	0.05088423
39	0xbe1b0f5b	-0.15142576
40	0x3c487d41	0.012236894
41	0x3d89e124	0.06732395
42	0x3e3e2a2d	0.18570776
43	0xbdf004f5	-0.117196955
44	0x3d41530e	0.047198348
45	0x3e22bb56	0.15891775
46	0x3e87fd30	0.26560354
47	0x3cacaaeb	0.021077594
48	0xbd93e475	-0.07221309
49	0xbd61d833	-0.055137824
50	0x3e31de47	0.17369948
51	0xbdb5fe8b	-0.08886441
52	0x3ea889fc	0.32917774
53	0xbe4e1f4c	-0.20129126
54	0xbe831119	-0.25598982
55	0x3e340a6b	0.17582099
56	0x3e248387	0.16065799
57	0x3df63dfb	0.120235406
58	0x3ea858ac	0.3288015
59	0xbcde68ef	-0.027149646
60	0x3e41a5a0	0.18910837
61	0xbdb77336	-0.089575216
62	0xbe61b3ff	-0.2204132
63	0xbe4fbe14	-0.20287353
64	0x3e806420	0.2507639
65	0x3d9d3d3b	0.076776944
66	0x3d23abfa	0.03995893
67	0x3df311a5	0.118686
68	0xbe4618ad	-0.1934535
69	0xbdb870ff	-0.09005927
70	0xbd1af5d5	-0.0378321
71	0xbb219386	-0.0024654581
72	0x3e899c49	0.2687705
73	0xbd27f3d0	-0.041004002
74	0x3db6d153	0.08926644
75	0x3dc73311	0.09726537
76	0xbe677b04	-0.2260552
77	0xbadceaa7	-0.00168546
78	0x3e76a318	0.24085653
79	0x3d0c4a03	0.03425027
80	0x3d5523b7	0.052036013
81	0xbd5ea7e7	-0.054359343
82	0x3e057cf8	0.13035953
83	0xbdb71592	-0.08939661
84	0xbbfc7789	-0.0077046794
85	0xbd5d5488	-0.054035693
86	0xbe85a900	-0.261055
87	0xbd5ebcd3	-0.054379296
88	0xbd607949	-0.054803167
89	0xbd732d11	-0.05936915
90	0xbd546666	-0.051855467
91	0x3d56d918	0.05245313
92	0xbc9d388f	-0.019192008
93	0xbdfc0b47	-0.123068385
94	0x3eb3802f	0.35058734
95	0x3d81b37b	0.06333061
96	0x3d856ff3	0.06515493
97	0xbb87c857	-0.0041437554
98	0xbe32f19f	-0.17474984
99	0x3e82c140	0.25538063
100	0xbe626f9b	-0.22112887
101	0x3e65d612	0.22444943
102	0xbde220a8	-0.11041385
103	0xbd690cf1	-0.056897108
104	0x3e283b5b	0.16428892
105	0x3e962961	0.29328445
106	0x3e8949e5	0.2681419
107	0xbdd4b2d7	-0.103856735
108	0x3e509271	0.20368363
109	0xbc191e78	-0.009345643
110	0x3df07643	0.11741307
111	0x3c911e00	0.0177145
112	0xbe78f1c9	-0.24310984
113	0x3de15246	0.110020205
114	0xbd6429a1	-0.055703763
115	0x3d59c445	0.053165693
116	0x3df03ca5	0.11730317
117	0x3eb2b20e	0.3490147
118	0x3e8dba8b	0.27681383
119	0xbd1addcc	-0.03780918
120	0xbe14d47c	-0.14534181
121	0xbb813bee	-0.0039439118
122	0x3af4576a	0.0018641774
123	0xbe87e930	-0.26545095
124	0x3e943ef9	0.28954294
125	0xbe958d92	-0.29209572
126	0xbc4e762d	-0.0126014175
127	0xbe467e20	-0.1938405
128	0x3e36d4a5	0.17854555
129	0xbd8cab44	-0.06868604
130	0xbe28f01b	-0.16497843
131	0x3d6bff9f	0.057616826
132	0x3e4ec566	0.20192489
133	0xbe79d411	-0.24397303
134	0xbde8bab8	-0.11363739
135	0xbe8c9751	-0.27459195
136	0x3e0fca24	0.14041954
137	0xbd3357dd	-0.043784965
138	0x3cd79a0f	0.026318578
139	0x3dfa119b	0.12210389
140	0x3cd0b0a8	0.025474861
141	0x3d1b7ab0	0.0379588
142	0x3ea793a1	0.3272982
143	0xbd1850c2	-0.03718639
144	0x3d50cfe1	0.0509795
145	0xbe54e052	-0.20788696
146	0x3da9e422	0.08295466
147	0xbb58cc06	-0.0033080592
148	0xbe3524fa	-0.17689887
149	0xbd155ce5	-0.036465544
150	0x3b808fc6	0.003923389
151	0x3e9acfe2	0.30236727
152	0xbd77249c	-0.060337648
153	0x3dc737f9	0.09727473
154	0x3c825552	0.015909825
155	0xbe7f90b7	-0.24957548
156	0x3dbde85b	0.09272834
157	0xbd07ee80	-0.033186436
158	0xbc99c473	-0.018770432
159	0x3e14dfc0	0.14538479
160	0x3d19f2c1	0.037585024
161	0x3db4c4ec	0.08826622
162	0xbe813d2a	-0.25241977
163	0xbbb54499	-0.005531859
164	0xbda8e5a8	-0.082469285
165	0x3e2f1dd5	0.17101224
166	0x3d90e9ec	0.07075867
167	0xbafcef98	-0.0019297479
168	0x3b3f5e34	0.0029200437
169	0xbddc2e38	-0.10751003
170	0x3d3d48a2	0.046211846
171	0x3d03d192	0.032182284
172	0xbb427358	-0.00296708
173	0x3e8c14ee	0.27359718
174	0x3e392a4b	0.1808254
175	0xbe24ac47	-0.16081344
176	0xbcaf031d	-0.02136379
177	0xbddc0282	-0.10742666
178	0x3e7ae37c	0.24500841
179	0x3d53e2e5	0.051730055
180	0xbdb47f4f	-0.08813345
181	0xbe177b70	-0.14793181
182	0x3de52c3c	0.11190078
183	0x3df1f34c	0.11813983
184	0xbdd93031	-0.10604895
185	0x3d65045b	0.055912357
186	0xbd53ab56	-0.05167707
187	0x3c4d4d62	0.0125306565
188	0x3dec77f0	0.11546314
189	0xbd93afb2	-0.072112456
190	0x3bf07937	0.0073386687
191	0x3e7715a4	0.24129349
192	0xbe13a2f0	-0.14417624
193	0xbe682da6	-0.22673663
194	0xbe0b6343	-0.13612084
195	0xbdbdeab8	-0.09273285
196	0x3b2ef5e4	0.0026696855
197	0x3e3adfd7	0.1824945
198	0x3e31d057	0.17364632
199	0x3be4c83f	0.006981879
200	0x3dcb7e86	0.09936242
201	0xbccb1e87	-0.02479483
202	0xbea22335	-0.31667486
203	0x3ce9e904	0.028553493
204	0xbd0865d4	-0.033300236
205	0x3e1779d5	0.14792569
206	0x3d6a4445	0.057194013
207	0x3da5a916	0.08088891
208	0x3d78619e	0.06063997
209	0x3d22c48a	0.039738216
210	0xbdd89073	-0.105744265
211	0xbe97c608	-0.29643273
212	0x3e727101	0.2367592
213	0x3dba82f4	0.091070086
214	0x3df5404c	0.11975154
215	0xbd3b18d1	-0.045677964
216	0xbd87d7ee	-0.06632982
217	0xbe053c53	-0.13011293
218	0xbdc1a21c	-0.09454748
219	0xbd1e0711	-0.038580958
220	0x3d2b6f22	0.04185403
221	0xbe2714b0	-0.16316485
222	0x370446d5	7.884305e-06
223	0x3dee4b7e	0.11635493
224	0xbe563f65	-0.2092262
225	0xbde98b0f	-0.114034764
226	0xbdef9eb5	-0.11700193
227	0xbe3f949d	-0.18709035
228	0x3c9b5682	0.018962149
229	0xbe60b695	-0.2194465
230	0x3db4a2b4	0.08820096
231	0xbef2f077	-0.47449085
232	0xbed54266	-0.4165222
233	0x3d180ee2	0.03712357
234	0xbe752da7	-0.23943196
235	0xbba6e77f	-0.0050935145
236	0x3d71b3ac	0.05900924
237	0xbe599d9b	-0.21251528
238	0x3d0a9e91	0.033842627
239	0x3d88c8a5	0.06678895
240	0xbd0bc0a4	-0.034119263
241	0x3e696f50	0.22796369
242	0x3d5bdb35	0.05367585
243	0x3dc1d151	0.09463752
244	0x3d8bc594	0.068247944
245	0x3db74f56	0.08950679
246	0x3dffc864	0.12489393
247	0xbe34ed1e	-0.17668578
248	0x3d936cfa	0.0719852
249	0xbe0edbd8	-0.13951051
250	0x3cac95b4	0.021067478
251	0xbd8e6b13	-0.069540165
252	0x3d8c3366	0.06845741
253	0xbe6042c7	-0.21900474
254	0xbcbf50d2	-0.023353968
255	0xbd8da4f4	-0.06916228

Mixer_Block.0.mlp_block_token_mixing_DynaMixerOperation.fc_out.bias f4 [66]
0	0x3f054714	0.5206158
1	0xbe25d82e	-0.16195747
2	0x3e14cf7c	0.14532274
3	0x3eb02474	0.34402812
4	0xbed7b08b	-0.4212688
5	0x3e66eaad	0.22550459
6	0xbedbc623	-0.42924604
7	0x3ec7950c	0.389809
8	0x3e679666	0.22615966
9	0x3dc1358c	0.094340414
10	0xbf37fd77	-0.7187113
11	0x3c1f5062	0.009723755
12	0xbddb3cff	-0.107049935
13	0x3eb96ce9	0.36215904
14	0x3aeff2a0	0.0018306561
15	0x3dce2819	0.10066242
16	0xbe4075d3	-0.18794946
17	0xbe411b4c	-0.18858069
18	0xbe0f6499	-0.14003219
19	0xbe6ccfcd	-0.23126145
20	0x3e8f924f	0.28041312
21	0x3ddeda43	0.10881474
22	0xbd785aed	-0.06063359
23	0xbebf254f	-0.37333152
24	0xbe3617d8	-0.17782533
25	0x3da89ab6	0.08232634
26	0xbd3ee9e7	-0.046609785
27	0x3e87ef84	0.26549923
28	0xbd4c06df	-0.04981124
29	0x3e3561f1	0.17713143
30	0x3de6fb50	0.11278403
31	0x3d2ec819	0.042671297
32	0xbe7ff006	-0.24993905
33	0xbe0e393e	-0.13889024
34	0xbe1ea3d1	-0.15492178
35	0x3d289be7	0.041164305
36	0x3dd1d540	0.10245752
37	0x3e7dbcfb	0.24779122
38	0x3c6a1b57	0.014288745
39	0x3df0e538	0.1176247
40	0x3e60017e	0.21875569
41	0x3e882abc	0.26595104
42	0xbd9671b0	-0.07345903
43	0xbc412e12	-0.011790769
44	0x3d433fc4	0.047668234
45	0x3eeba609	0.46025112
46	0x3e130a8e	0.14359495
47	0x3e02758c	0.12740153
48	0x3e404c26	0.18779048
49	0xbd2d2d98	-0.04227981
50	0xbe90f434	-0.28311312
51	0x3dde5fdd	0.10858128
52	0xbe4e4299	-0.20142592
53	0x3d8b27ce	0.067947015
54	0x3d8e66d3	0.06953206
55	0x3a65e392	0.00087695674
56	0x3d7f745d	0.062366832
57	0x3c626ef5	0.0138203995
58	0xbe6444e9	-0.22291912
59	0x3e04167a	0.12899199
60	0xbe8b8810	-0.27252245
61	0x3d9db682	0.07700826
62	0xbeb93b3a	-0.36178
63	0xbe097e9b	-0.13427202
64	0xbb177312	-0.0023109359
65	0xbe096a34	-0.1341942

Mixer_Block.0.mlp_block_token_mixing_DynaMixerOperation.LN.weight f4 [10]
0	0x3f52fbce	0.82415473
1	0x3f313824	0.6922629
2	0x3f5a15ef	0.8518972
3	0x3f35c1ad	0.7099865
4	0x3f5afbb1	0.855403
5	0x3f3be4d1	0.7339602
6	0x3f5d91ac	0.865504
7	0x3f348669	0.70517594
8	0x3f669109	0.90065056
9	0x3f6008f0	0.8751364

Mixer_Block.0.mlp_block_token_mixing_DynaMixerOperation.LN.bias f4 [10]
0	0x3ebc8813	0.36822566
1	0x3d8d62fc	0.069036454
2	0x3e2b6907	0.16739284
3	0xbe2933a4	-0.16523606
4	0xbd2877aa	-0.041129746
5	0xbe9a2a8b	-0.30110583
6	0xbddd998d	-0.10820303
7	0xbebdd910	-0.37079668
8	0xbd90a914	-0.07063499
9	0xbe497857	-0.19674812

Mixer_Block.0.mlp_block_channel_mixing_DynaMixerOperation.fc_ND.weight f4 [1, 10]
0	0xbf3b1f1b	-0.7309434
1	0x3ed62b58	0.41829944
2	0xbb879e17	-0.004138719
3	0x3d5bac5c	0.05363117
4	0x3c6a35f0	0.014295086
5	0x3d692a99	0.05692539
6	0xbbb38c73	-0.0054793893
7	0x3d8cca9b	0.068745814
8	0xbdb30a4d	-0.08742199
9	0xbd2bb875	-0.04192396

Mixer_Block.0.mlp_block_channel_mixing_DynaMixerOperation.fc_Nd.weight f4 [484, 22]
0	0x3e5397ea	0.2066342
1	0x3b751bdb	0.0037400636
2	0xbe35141d	-0.17683454
3	0xbe240577	-0.1601771
4	0xbe35e351	-0.17762496
5	0xbe32a9ff	-0.17447661
6	0xbe7bfef4	-0.24608976
7	0xbe74482b	-0.23855655
8	0xbebf3d46	-0.37351435
9	0xbeca66cd	-0.39531556
10	0x3e6f352a	0.23360124
11	0xbc69a891	-0.014261381
12	0x3c2b421c	0.010452773
13	0x3b5227d1	0.003206719
14	0x3e17f82e	0.14840767
15	0xbee8bb4b	-0.45455393
16	0x3e73a928	0.23794997
17	0x3ee0c5d4	0.4390093
18	0xbdd5c8fe	-0.10438727
19	0x3db58cc6	0.08864741
20	0xbecc632b	-0.3991941
21	0x3e497e59	0.19677104
22	0x3f0c7edc	0.5488107
23	0xbe9f510e	-0.31116527
24	0xbd6e5686	-0.058187984
25	0x3da1b6a6	0.078961655
26	0x3ebbd965	0.36689296
27	0xbd791836	-0.060814105
28	0x3e093bfb	0.13401787
29	0xbe0f0386	-0.13966188
30	0x3e9f3183	0.31092462
31	0xbcc088b8	-0.023502693
32	0xbe355f3a	-0.17712107
33	0x3dec8fb6	0.11550848
34	0x3ced55bc	0.028971545
35	0x3de6bced	0.112665035
36	0x3e694463	0.22779994
37	0x3ccf33c1	0.025293233
38	0xbdab9f1b	-0.08379956
39	0xbe6b600d	-0.22985859
40	0x3e4f7cec	0.20262498
41	0xbe3bfe30	-0.18358684
42	0xbdceba36	-0.10094111
43	0xbdefb0ff	-0.11703681
44	0x3ccb3633	0.024806118
45	0x3e908c2f	0.28231952
46	0x3e3315e5	0.17488821
47	0xbbf765c5	-0.0075499737
48	0xbda7a9de	-0.081866965
49	0x3e84d03c	0.2594012
50	0xbdfc8193	-0.12329402
51	0x3cdfb845	0.027309546
52	0x3edc7f79	0.43066004
53	0x3e85888a	0.26080734
54	0x3e218d7a	0.15776625
55	0xbbac883f	-0.0052652652
56	0x3e0d687b	0.13809387
57	0x3e90c2d6	0.28273648
58	0x3d131584	0.03590919
59	0x3da09c32	0.07842292
60	0x3e28d1c0	0.16486263
61	0x3d33e115	0.043915827
62	0x3d8e512c	0.06949076
63	0xbdd6acf7	-0.10482209
64	0xbd811625	-0.06303052
65	0x3e3e796c	0.18601006
66	0xbe85502a	-0.26037723
67	0xbec2c0d0	-0.3803773
68	0x3e0ca099	0.13733138
69	0x3de2fed2	0.11083759
70	0x3d924d27	0.07143622
71	0x3ed14722	0.40874583
72	0x3e82d52b	0.2555326
73	0xbe7eb74b	-0.24874608
74	0x3c0a0d2b	0.008425991
75	0x3df060c2	0.11737205
76	0xbdf0bcba	-0.11754747
77	0xbe0186f8	-0.12649143
78	0xbc530cf3	-0.012881505
79	0x3e7ec990	0.24881577
80	0xbe02c838	-0.1277169
81	0x3e30ba57	0.17258583
82	0x3e334288	0.17505848
83	0x3bf13865	0.007361459
84	0x3c96b023	0.018394535
85	0x3d848736	0.06471102
86	0xbdb2886e	-0.08717428
87	0xbe50f372	-0.20405367
88	0xbd712801	-0.05887604
89	0x3ebe4eac	0.37169397
90	0x3ccbca6b	0.024876794
91	0x3d3a18ce	0.04543381
92	0x3e883075	0.2659947
93	0xbcd4b019	-0.025962876
94	0x3ebe606d	0.37182942
95	0x3c148faa	0.009067455
96	0x3de1f3a4	0.11032799
97	0xbcd60f5d	-0.026130373
98	0x3e8f2bfe	0.2796325
99	0xbdf6502a	-0.12027009
100	0x3e879f84	0.26488888
101	0xbeaef63e	-0.34172243
102	0x3e1efbd6	0.15525755
103	0x3c55dddc	0.013053384
104	0x3d4da530	0.050206363
105	0x3d191c78	0.037380666
106	0xbe1e20c8	-0.15442193
107	0xbe2bef7c	-0.16790575
108	0x3dc100ea	0.094240025
109	0x3ebbaddf	0.3665609
110	0x3da4d127	0.08047705
111	0x3d917e31	0.07104147
112	0x3df3a172	0.118960276
113	0x3dcee91c	0.10103056
114	0xbe9f34da	-0.3109501
115	0xbe82bab5	-0.2553307
116	0x3c97c9a5	0.018528769
117	0xbc6d7b16	-0.014494678
118	0x3e916fc2	0.28405577
119	0xbba9ef0b	-0.005185967
120	0x3d0b04cf	0.033940133
121	0x3ea815fb	0.3282927
122	0xbe2e44ec	-0.17018479
123	0x3e1468a6	0.14493045
124	0xbe4afb5b	-0.19822447
125	0xbedbb2d7	-0.4290988
126	0xbd9feba9	-0.078086205
127	0x3e20b491	0.1569388
128	0xbd0e7622	-0.03478063
129	0x3e39f2f5	0.18159087
130	0x3dc52dcd	0.096278764
131	0xbeebebcb	-0.46078333
132	0x3e187cc9	0.14891352
133	0xbeb82ebb	-0.35973153
134	0xbe0a29f9	-0.13492574
135	0xbd31b68e	-0.04338699
136	0xbed73062	-0.420291
137	0xbda51d8e	-0.08062278
138	0xbece4e4f	-0.4029412
139	0xbeff9f6c	-0.49926317
140	0x3d2ceb4d	0.042216588
141	0xbd1e7798	-0.038688272
142	0xbe133f85	-0.143797
143	0xbe98fed3	-0.29881915
144	0x3cbfeabe	0.023427363
145	0xbe2f3d8a	-0.17113319
146	0xbe1b1961	-0.151464
147	0xbe4b7384	-0.19868284
148	0xbecab30f	-0.39589736
149	0xbe311345	-0.17292507
150	0xbe9d1b70	-0.30684996
151	0x3e876178	0.2644155
152	0xbd83c50d	-0.06434069
153	0xbe358e62	-0.17730096
154	0x3c64c190	0.0139621645
155	0xbe2ad91f	-0.16684388
156	0x3d609435	0.05482884
157	0xbe85f9aa	-0.2616704
158	0xbe26142d	-0.16218634
159	0xbea156d0	-0.31511545
160	0xbe1a438d	-0.15064831
161	0x3c957ed6	0.018248957
162	0xbd8df4dd	-0.069314696
163	0xbd3bfd71	-0.045895997
164	0x3def86b8	0.116956174
165	0x3de9000d	0.11376963
166	0xbe33db83	-0.17564206
167	0x3e293673	0.16524677
168	0x3e480c27	0.19535886
169	0x3e91094b	0.28327402
170	0x3dc4fd05	0.09618572
171	0xbe3745e0	-0.17897749
172	0xbe11db73	-0.1424387
173	0x3d1362fa	0.035983063
174	0x3ba72875	0.0051012584
175	0x3e3ef9c6	0.18649969
176	0x3eecabb0	0.46224737
177	0xbd0c8955	-0.034310658
178	0x3e61e039	0.2205819
179	0xbd1fa2e5	-0.038973708
180	0x3e8926a5	0.26787296
181	0xbd896b5a	-0.06709929
182	0x3e3d1bbb	0.1846761
183	0x3d60684a	0.054786958
184	0x3eab4dab	0.33457693
185	0x3deadc25	0.114677705
186	0xbe565c43	-0.20933633
187	0x3e0680eb	0.13135116
188	0x3d80e18b	0.06293019
189	0xbdf3f81e	-0.11912559
190	0xbe15ae3b	-0.14617245
191	0x3ec0cd45	0.37656608
192	0xbec0a15d	-0.3762311
193	0x3e11369a	0.14180985
194	0x3cc01af4	0.023450352
195	0x3e22fba9	0.15916313
196	0x3e79e994	0.24405509
197	0xbdc988db	-0.09840556
198	0x3d8765f5	0.06611244
199	0xbd8d2d2d	-0.06893382
200	0x3e11dca8	0.1424433
201	0x3dc09cbb	0.09404894
202	0xbe518b2a	-0.20463243
203	0xbde83cc7	-0.11339717
204	0xbe7ec7ae	-0.2488086
205	0xbe052259	-0.13001384
206	0xbd8e5b30	-0.069509864
207	0xbe6c24c3	-0.23060898
208	0xbe2b30e3	-0.16717868
209	0xbe9aaed8	-0.3021152
210	0xbde62865	-0.112381734
211	0x3ea48b0b	0.3213733
212	0x3d9efc66	0.07762985
213	0x3ea65ad3	0.32491168
214	0x3d274218	0.040834516
215	0xbebc69b6	-0.367994
216	0x3e0a3985	0.13498504
217	0x3dc1b75a	0.094588
218	0x3e43ecf9	0.19133367
219	0x3afde9fb	0.00193721
220	0xbda0d231	-0.07852591
221	0xbe574ed0	-0.21026158
222	0xbe729b8a	-0.23692146
223	0x3eb5989b	0.3546799
224	0xbe343187	-0.17597018
225	0x3e8adb81	0.27120593
226	0x3e5dfe75	0.21679099
227	0x3d18ca15	0.037302095
228	0xbdb829a4	-0.08992317
229	0xbe4816aa	-0.19539896
230	0x3c031d96	0.008002659
231	0xbe30e0df	-0.17273282
232	0x3c8ac7a9	0.016940909
233	0xbdf88b05	-0.12135891
234	0xbc0bcf06	-0.008533245
235	0xbe8bd5cd	-0.27311555
236	0x3e3d16ca	0.18465725
237	0xbea9cb42	-0.33162886
238	0xbe28bbe2	-0.16477922
239	0xbeb1f44e	-0.34756702
240	0xbe91d7e3	-0.2848502
241	0x3d0d9c69	0.034572992
242	0x3c9c9d2a	0.01911791
243	0x3e3751b7	0.17902265
244	0x3a7905e5	0.00094994745
245	0x3d6dbbe6	0.058040522
246	0xbd9f8bc1	-0.07790328
247	0x3e748695	0.23879464
248	0xbd2d37cd	-0.042289544
249	0x3e264bae	0.16239807
250	0xbea13f93	-0.31493816
251	0xbf0424a0	-0.51618385
252	0x3ebb07ab	0.36529288
253	0x3db942cb	0.09045943
254	0x3e315be9	0.17320217
255	0x3d82cc76	0.06386654

Mixer_Block.0.mlp_block_channel_mixing_DynaMixerOperation.fc_Nd.bias f4 [484]
0	0xbeb945b4	-0.36185992
1	0x3eac0fed	0.336059
2	0xbd82f25f	-0.06393885
3	0xbdaccedb	-0.08437892
4	0x3e5aa388	0.21351445
5	0x3e342555	0.17592366
6	0xbe31df65	-0.17370375
7	0x3d772d72	0.060346074
8	0x3d1dd46b	0.038532656
9	0xbe3326cb	-0.17495267
10	0xbea9b1c9	-0.33143452
11	0x3c07adc2	0.008281173
12	0xbe366fde	-0.17816111
13	0xbe99a888	-0.30011392
14	0x3d89f866	0.06736831
15	0x3eb21f4a	0.34789497
16	0x3cdbfc80	0.0268538
17	0xbe2f883b	-0.17141812
18	0x3ead0897	0.33795616
19	0x3ba4256f	0.0050093452
20	0x3d9288ef	0.07155024
21	0x3d6800d7	0.056641426
22	0x3d2a386c	0.041557714
23	0x3e1bd17b	0.15216629
24	0xbe87f798	-0.26556087
25	0xbeb04b13	-0.34432277
26	0x3d14ca64	0.036325827
27	0x3ca78dd3	0.02045337
28	0xbe99c352	-0.3003183
29	0xbd1300d0	-0.035889447
30	0x3e0f9ffe	0.14025876
31	0x3eb859e0	0.3600607
32	0xbe99fb78	-0.30074668
33	0x3e5f977f	0.21835135
34	0x3ea000c1	0.31250575
35	0xbeb44835	-0.3521134
36	0x3eea25d5	0.4573199
37	0xbe6a6cdc	-0.22893089
38	0xbe4e924a	-0.20172992
39	0xbe4a9c8d	-0.19786282
40	0xbc784419	-0.0151529545
41	0x3e96bb18	0.29439616
42	0x3e9f07d0	0.31060648
43	0xbcb79d85	-0.022413978
44	0x3e8be69e	0.27324384
45	0xbe08dad4	-0.13364726
46	0x3e1bffb8	0.15234268
47	0xbe2dd8c6	-0.16977224
48	0xbeb2fa1c	-0.34956443
49	0x3daae7f6	0.08345024
50	0x3e889bf9	0.26681498
51	0xbd14f97b	-0.036370736
52	0xbdc0f3c2	-0.09421493
53	0x3e18337f	0.14863394
54	0x3e80dc4a	0.25168067
55	0xbdb356f6	-0.08756821
56	0x3d9616dd	0.073285796
57	0x3e4548a6	0.19265994
58	0xbe194dd0	-0.1497109
59	0x3dfb6621	0.12275339
60	0xbdb19810	-0.08671582
61	0xbe76cf7b	-0.24102585
62	0xbe3a7ae4	-0.18210942
63	0xbd80a8e2	-0.06282212
64	0xbd09863f	-0.033575293
65	0x3d058ca8	0.032604843
66	0x3b918057	0.004440348
67	0xbe9cd797	-0.30633232
68	0xbdb1a32b	-0.086737
69	0xbc2f966f	-0.0107170185
70	0xbe2a594e	-0.1663563
71	0x3e831493	0.25601634
72	0x3ed032d8	0.4066379
73	0xbe667a4e	-0.22507593
74	0x3cd0b87f	0.0254786
75	0xbdce8a5c	-0.10084984
76	0xbe4a6c21	-0.1976781
77	0xbe2e57e3	-0.17025714
78	0x3d9136d9	0.070905395
79	0x3caa0a91	0.020756992
80	0xbdec7c72	-0.115471736
81	0xbe6de6ca	-0.2323257
82	0xbe409ba6	-0.18809375
83	0xbe203aaf	-0.15647386
84	0xbec9f14f	-0.39441916
85	0xbd052c3f	-0.0325129
86	0x3e756b70	0.23966765
87	0x3e8ef90b	0.2792438
88	0xbe8a657b	-0.27030548
89	0x3d90c7b5	0.07069341
90	0x3a3924bf	0.00070626655
91	0xbd67861c	-0.05652438
92	0xbe673a96	-0.22580943
93	0x3eaefe48	0.34178376
94	0xbe39ca1a	-0.18143502
95	0xbe659bd4	-0.22422725
96	0x3ef53058	0.47888446
97	0x3e2fbf8e	0.17162916
98	0x3b88a8d5	0.004170517
99	0xbe88002d	-0.26562634
100	0xbd5cb109	-0.05387977
101	0x3d6711c9	0.056413446
102	0x3d8780d9	0.066163726
103	0xbe32a28a	-0.17444816
104	0xbde7dc43	-0.113213085
105	0x3dbc1509	0.091837
106	0xbc11879c	-0.008882429
107	0x3e42a3ac	0.19007748
108	0xbdd639b9	-0.104602285
109	0x3e2c3fbf	0.16821192
110	0xbc20cb5f	-0.009814112
111	0xbe146e85	-0.14495285
112	0x3b796d91	0.0038059691
113	0x3e86a507	0.2629778
114	0xbc951986	-0.018200647
115	0xbe1947b8	-0.14968765
116	0xbca41acc	-0.020032309
117	0xbe4a626c	-0.19764107
118	0xbe31f6ec	-0.1737935
119	0x3ef0e05a	0.47046167
120	0xbdc4a921	-0.09602571
121	0xbe3c9208	-0.18415082
122	0xbd70ba50	-0.05877143
123	0x3dcc5edf	0.09979033
124	0xbe4430af	-0.19159196
125	0xbdef4366	-0.11682777
126	0x3c9285c7	0.017886056
127	0xbd8e9343	-0.06961682
128	0xbe2b8584	-0.16750151
129	0x3e53906b	0.2066056
130	0x3eb0e9bf	0.34553334
131	0xbd341da4	-0.04397358
132	0x3d24fcf6	0.040280305
133	0x3db6def5	0.089292444
134	0xbdee6ee7	-0.11642247
135	0xbdaf9996	-0.08574216
136	0xbe1981b6	-0.14990887
137	0x3d74a634	0.059728816
138	0x3e21d788	0.15804875
139	0x3df8475b	0.12122985
140	0xbc93ef40	-0.01805842
141	0x3ecaf9d9	0.39643744
142	0xbd43383f	-0.047661062
143	0xbd660e2a	-0.05616585
144	0x3dfef0d8	0.12448281
145	0xbdb5227e	-0.088444695
146	0x3ed75956	0.42060345
147	0x3d43b71a	0.04778204
148	0xbde61bfb	-0.112358056
149	0x3e40b78b	0.18820016
150	0x3e41157b	0.1885585
151	0x3ec5111b	0.38489613
152	0xbd5bb8c1	-0.053642992
153	0x3e66c26e	0.22535107
154	0x3cd1f6b0	0.025630325
155	0x3d5ee1e8	0.05441466
156	0x3d8744f7	0.06604951
157	0x3db3444b	0.0875326
158	0x3d6215c6	0.055196546
159	0x3e3a7318	0.18207967
160	0x3e078430	0.1323402
161	0xbe93c186	-0.28858584
162	0x3d9f2e9d	0.07772563
163	0x39cd2473	0.00039127804
164	0xbea5698d	-0.3230709
165	0xbc2f50ca	-0.010700414
166	0x3e67601f	0.22595261
167	0xb9824a56	-0.00024850917
168	0x3ec36d92	0.38169533
169	0xbcddcad6	-0.027074259
170	0xbd4096f2	-0.047018953
171	0xbe20c8e0	-0.15701628
172	0xbda17c4b	-0.07885035
173	0xbdb2075c	-0.0869281
174	0xbd1f647f	-0.0389142
175	0xbea27d91	-0.31736425
176	0x3e29437d	0.16529651
177	0xbe4f062b	-0.20217197
178	0x3d734be4	0.059398547
179	0x3d85386b	0.065049015
180	0x3ec21235	0.37904516
181	0xbd80f816	-0.06297319
182	0x3e04e25d	0.12976976
183	0x3de52831	0.111893065
184	0xbe53eec7	-0.20696555
185	0xbdba2967	-0.09089928
186	0x3c1885ec	0.009309273
187	0xbda68b37	-0.08132022
188	0xbe7d5a05	-0.24741371
189	0x3e8ea67b	0.2786139
190	0x3e656db0	0.22405124
191	0xbead6024	-0.33862412
192	0x3ee96f27	0.45592615
193	0x3dac8aa6	0.084248826
194	0xbe93ca0b	-0.28865084
195	0xbdb7781a	-0.089584544
196	0x3e1a6435	0.15077288
197	0x3e03c3f4	0.12867719
198	0x3d8d52c5	0.06900553
199	0xbdc5abc1	-0.096519
200	0xbf000d94	-0.5002072
201	0xbdab1b0d	-0.08354769
202	0x3d8e07ed	0.069351055
203	0x3e734a23	0.2375875
204	0x3e387b21	0.1801572
205	0xbdf8686c	-0.12129292
206	0xbe6a5939	-0.22885598
207	0xbe073608	-0.13204205
208	0x3e98c58a	0.2983821
209	0xbdb8eb44	-0.09029248
210	0xbbf2db18	-0.007411372
211	0xbe9257ae	-0.2858252
212	0x3cd575df	0.026057182
213	0xbd3fbeda	-0.04681287
214	0xbd9a45a4	-0.07532814
215	0x3d1487ea	0.03626243
216	0xbc61ad82	-0.013774278
217	0xbe894b0c	-0.2681507
218	0xbef16ba5	-0.4715244
219	0x3eacd100	0.33753204
220	0x3de7c1a0	0.11316228
221	0xbe98c338	-0.2983644
222	0x3e5c7f5b	0.21532957
223	0x3e6e59f2	0.23276499
224	0x3e3463f7	0.17616259
225	0xbe01380b	-0.12619035
226	0xbc0fa56b	-0.008767466
227	0xbdf4aaa4	-0.119466096
228	0x3da369b6	0.07979147
229	0xbe1ea81f	-0.1549382
230	0x3e8bc68d	0.2729992
231	0xbcbf0f08	-0.023322597
232	0xbd4fffe8	-0.05078116
233	0x3d096e4b	0.03355245
234	0xbde3d8ee	-0.111253604
235	0xbdf068cb	-0.11738738
236	0xbdf73945	-0.1207147
237	0xbec8025a	-0.39064294
238	0xbe1a89aa	-0.15091577
239	0xbecf9652	-0.40544373
240	0x3f111283	0.5666887
241	0xbcf69b58	-0.03010337
242	0x3cfc8ad2	0.030827913
243	0xbd940856	-0.072281525
244	0xbd29efe3	-0.04148854
245	0xbebb1120	-0.36536503
246	0xbe800f07	-0.25011465
247	0x3e02d687	0.12777148
248	0xbdd9631e	-0.10614608
249	0x3e9cce19	0.3062599
250	0x3e3a85e6	0.1821514
251	0x3de57370	0.112036586
252	0xbef07303	-0.46962747
253	0xbb1fe099	-0.0024395345
254	0xbd4f3008	-0.050582916
255	0xbd86993a	-0.065721944

Mixer_Block.0.mlp_block_channel_mixing_DynaMixerOperation.fc_out.weight f4 [10, 10]
0	0x3e46c082	0.19409373
1	0xbdbaa6eb	-0.09113868
2	0xbde47c86	-0.111565635
3	0xbe4aa2d6	-0.1978868
4	0xbe5eb0f2	-0.21747187
5	0xbe97a376	-0.29616898
6	0xbe30757c	-0.17232317
7	0xbeac464d	-0.33647385
8	0xbe121ad2	-0.14268044
9	0x3cc8f9fc	0.024533264
10	0x3eba81a8	0.36427045
11	0x3deddc25	0.11614255
12	0xbdff4d8c	-0.12465963
13	0xbdec8a0f	-0.1154977
14	0xbdfa5543	-0.12223294
15	0xbdf713dc	-0.12064335
16	0xbdfaa7da	-0.122390464
17	0xbe6a47f2	-0.22879007
18	0x3db719e0	0.08940482
19	0x3db9dbe2	0.090751424
20	0xbe991c37	-0.2990434
21	0xbe6f65ca	-0.23378673
22	0x3dbbfe4b	0.09179362
23	0xbd1889dd	-0.03724085
24	0x3daaa338	0.08331913
25	0x3d0fefbe	0.035140745
26	0x3dc2e16b	0.09515651
27	0x3c44cd1f	0.012011795
28	0x3d888341	0.0666566
29	0xbd622eb2	-0.055220313
30	0xbf0e4b78	-0.55583906
31	0x3e24236c	0.16029137
32	0x3c357f37	0.011077694
33	0x3de0f246	0.1098371
34	0x3c062c6e	0.008189304
35	0xbc873afb	-0.016507616
36	0xbdaf45ed	-0.08558259
37	0x3e8c24cc	0.27371824
38	0xbe3159b2	-0.17319372
39	0x3d8aa762	0.06770207
40	0xbeb553ae	-0.35415405
41	0x3ed56085	0.416752
42	0xbd907c4d	-0.070549585
43	0x3e838027	0.2568371
44	0x3ceb3c81	0.028715374
45	0x3cf0589f	0.029339133
46	0xbc694b34	-0.014239121
47	0x3e6b287c	0.22964662
48	0x3d3cc0d4	0.046082333
49	0x3e280f83	0.16412167
50	0x3f21e41d	0.632387
51	0xbeefa4dd	-0.46805468
52	0x3e102e9d	0.14080282
53	0xbd9a0b0d	-0.07521639
54	0x3d5463fe	0.051853172
55	0xbcdd139f	-0.026986895
56	0x3db085b8	0.08619255
57	0xbd92355e	-0.07139085
58	0x3c8bec69	0.017080503
59	0xbd6bb009	-0.057540927
60	0xbf6b6df4	-0.9196465
61	0x3df69868	0.12040788
62	0x3e052e25	0.13005884
63	0xbd56cf00	-0.052443504
64	0x3cdbf634	0.026850797
65	0x3cc3abe9	0.023885684
66	0x3ddbbbfb	0.10729214
67	0xbe3c56e0	-0.18392515
68	0x3d270577	0.040776696
69	0xbd1ba40c	-0.037998244
70	0x3e90afeb	0.28259215
71	0x3eaa78c8	0.33295274
72	0x3e8abef6	0.27098817
73	0x3d4e8023	0.05041517
74	0x3e13c092	0.14428928
75	0x3e2f6869	0.17129673
76	0x3c82e818	0.015979812
77	0x3dabb9e8	0.08385068
78	0x3e43ad02	0.19108966
79	0x3e84e4e9	0.25955895
80	0xbeac2274	-0.33620036
81	0x3f0985a3	0.5371954
82	0xbe262f95	-0.16229089
83	0xbd29b41d	-0.041431535
84	0xbe7cd858	-0.24691904
85	0xbde6fe62	-0.112789884
86	0xbe646629	-0.22304596
87	0xbdb15cc0	-0.08660269
88	0xbe07cf95	-0.1326278
89	0xbe25373a	-0.16134349
90	0xbf43ea7c	-0.7652967
91	0x3e0eee39	0.13958062
92	0xbe9c8347	-0.30568907
93	0x3e41da72	0.18930987
94	0xbd0adc24	-0.03390135
95	0x3e0818bd	0.13290687
96	0xbdb8fb3a	-0.09032293
97	0x3e803376	0.25039262
98	0x3cf22fd9	0.029563831
99	0x3e651021	0.22369434

Mixer_Block.0.mlp_block_channel_mixing_DynaMixerOperation.fc_out.bias f4 [10]
0	0xbf38741b	-0.7205216
1	0xbf223964	-0.6336882
2	0x3e934380	0.28762436
3	0x3d8d8ccf	0.06911623
4	0x3e267c00	0.1625824
5	0xbe878fa1	-0.26476768
6	0x3e04e992	0.12979725
7	0xbecfe899	-0.40607145
8	0xbeb36211	-0.35035756
9	0xbc06c9ce	-0.008226825

Mixer_Block.0.mlp_block_channel_mixing_DynaMixerOperation.LN.weight f4 [22]
0	0x3f8b71fe	1.0894163
1	0x3f8c42b9	1.0957862
2	0x3f8d0ced	1.101957
3	0x3f75ccc2	0.9601556
4	0x3f8f6eb2	1.1205657
5	0x3f93a37a	1.1534264
6	0x3f82ee34	1.0228944
7	0x3f9a0c4b	1.2035002
8	0x3f807d41	1.0038224
9	0x3f7c884b	0.98645467
10	0x3f8ccf96	1.100085
11	0x3f94fc45	1.1639487
12	0x3f9d7ff3	1.2304672
13	0x3f96c18e	1.1777818
14	0x3f853ae0	1.0408592
15	0x3f7be1d4	0.9839146
16	0x3f9ee655	1.2414042
17	0x3f946af5	1.1595141
18	0x3f9b534c	1.2134795
19	0x3f7ed5d6	0.9954504
20	0x3f95e4f6	1.1710498
21	0x3f82536b	1.0181707

Mixer_Block.0.mlp_block_channel_mixing_DynaMixerOperation.LN.bias f4 [22]
0	0x3dbc18f1	0.09184445
1	0x3ccfc464	0.025362201
2	0x3a268d05	0.0006353411
3	0xbe33eae9	-0.1757008
4	0x3cd61117	0.026131196
5	0xbe3f164a	-0.18660846
6	0xbc39834f	-0.01132281
7	0x3d09a550	0.03360492
8	0xbd9440b6	-0.07238905
9	0x3d0e00cd	0.034668732
10	0xbd1fec81	-0.039043907
11	0xbe60b237	-0.21942984
12	0x3d1f75d6	0.038930736
13	0xbcfb8e19	-0.030707406
14	0x3e3a3b41	0.18186666
15	0xbd04e7f1	-0.03244776
16	0x3cb848bd	0.022495622
17	0x3ca206d3	0.019778645
18	0xbc2f5aba	-0.010702783
19	0x3e2d9196	0.16950068
20	0x3e04ae9d	0.12957235
21	0x3d105abb	0.035242777
