M_2_AST/M_2_AST/amass/run_for_longging/exp30/model.pt (torch, 999173 bytes, 233 tensors)

Mixer_Block.0.mlp_block_token_mixing.fc1.weight f4 [20, 10]
0	0xbca8ba98	-0.020596787
1	0x3dc9e877	0.09858792
2	0xbe60b7aa	-0.21945062
3	0x3ea48835	0.32135168
4	0x3e2f6854	0.17129642
5	0x3d825201	0.06363297
6	0x3d07126b	0.03297655
7	0xbe5b5cba	-0.21422091
8	0xbe7f4c8d	-0.24931546
9	0xbc9391c6	-0.018013846
10	0x38ee5fb8	0.000113665534
11	0x3d73ef87	0.059554603
12	0xbe9586b6	-0.2920434
13	0x3deb9f5d	0.115050055
14	0xbe953b89	-0.29146984
15	0x3e969edd	0.29418078
16	0xbbd2bd4d	-0.006431258
17	0xbe0129f1	-0.12613656
18	0x3e9668a9	0.29376724
19	0xbd3a13d4	-0.045429066
20	0x3df6408a	0.120240286
21	0x3cb73031	0.022361847
22	0xbc03375f	-0.008008807
23	0xbdbc5374	-0.09195605
24	0x3d98ec19	0.07466907
25	0x3e5b1985	0.21396454
26	0x3d2c4936	0.042062007
27	0x3daf06a6	0.0854619
28	0xbe61ea4e	-0.22062036
29	0xbbf367e7	-0.0074281576
30	0xbd1a33f5	-0.037647206
31	0x3e28ccb9	0.16484345
32	0x3e478c65	0.1948715
33	0x3e9fd83c	0.3121966
34	0xbe6f7798	-0.23385465
35	0xbe0260f9	-0.12732305
36	0x3cb91ba8	0.022596195
37	0xbe18b137	-0.14911352
38	0xbe9180af	-0.2841849
39	0x3db24259	0.08704061
40	0xbd0ccd34	-0.034375384
41	0x3e3a1888	0.1817342
42	0x3e0d2622	0.13784078
43	0x3e88528c	0.26625478
44	0xbe356e4e	-0.17717859
45	0xbe176fea	-0.14788786
46	0xbcdcb60a	-0.026942272
47	0x3dc6ffdb	0.09716769
48	0xbe4a86fc	-0.19778055
49	0xbe1c964d	-0.1529171
50	0x3cfe11c6	0.031014334
51	0x3e6db440	0.23213291
52	0x3d9c1dde	0.07622884
53	0x3dd875d8	0.10569352
54	0xbe691c26	-0.22764644
55	0xbe20b0e5	-0.1569248
56	0xbe0c8f8c	-0.13726634
57	0xbe24a905	-0.16080101
58	0x3eae0f6d	0.33996144
59	0xbcfec3e3	-0.031099265
60	0xbd1d8555	-0.038457233
61	0xbed7ce51	-0.42149594
62	0x3e3999f0	0.18125129
63	0x3e350ed0	0.17681432
64	0xbd7b24f3	-0.061314534
65	0xbdbd8a59	-0.09254903
66	0x3cfcbee5	0.030852744
67	0x3df373e0	0.11887336
68	0xbe4c7e7f	-0.1997013
69	0x3e59ea5e	0.2128081
70	0x3d2a6326	0.04159846
71	0xbdb49663	-0.088177465
72	0x3e696c11	0.2279513
73	0xbe4559d2	-0.19272545
74	0xbe9fdfa0	-0.312253
75	0x3e2bc1b6	0.16773114
76	0x3cca9a1f	0.024731694
77	0x3c1f67b7	0.009729317
78	0x3e0ef95b	0.13962309
79	0x3cf8782d	0.030330742
80	0x3e085a23	0.13315634
81	0x3e24d1df	0.16095684
82	0xbe944841	-0.28961375
83	0x3d8369e1	0.06416679
84	0xbdc1049d	-0.09424708
85	0x3e089c60	0.13340902
86	0x3e81be19	0.25340346
87	0xbe0e5d98	-0.1390289
88	0xbe626dd8	-0.22112215
89	0x3e46c1c9	0.1940986
90	0xb9198793	-0.00014641722
91	0xbe177f62	-0.14794686
92	0x3e9b265d	0.30302706
93	0xbeccbdae	-0.39988464
94	0xbcc64e24	-0.024207182
95	0x3d744679	0.05963752
96	0xbe68e753	-0.22744493
97	0x3e58a634	0.21157151
98	0x3c630f77	0.013858668
99	0x3e501c1b	0.20323221
100	0xbdb15dc4	-0.086604625
101	0xbdc7c86f	-0.097550265
102	0xbebf996d	-0.37421742
103	0xbe232d16	-0.15935168
104	0xbe1c1cc1	-0.15245344
105	0xbdf6609e	-0.12030147
106	0x3dee2792	0.11628641
107	0x3e87395b	0.26410946
108	0x3e644c8e	0.22294828
109	0x3e75a7f0	0.23989844
110	0x3cfa0016	0.03051762
111	0x3e8f8c01	0.28036502
112	0xbdf526dd	-0.11970303
113	0xbea52e69	-0.3226197
114	0x3e75c9b2	0.24002722
115	0x3d57b8b9	0.0526664
116	0x3e8dac1e	0.27670377
117	0x3e256635	0.1615227
118	0xbe82c0c3	-0.2553769
119	0xbe8cd21f	-0.2750406
120	0xbbefbea6	-0.0073164282
121	0x3e8c894c	0.274485
122	0xbeb85dcd	-0.36009064
123	0xbe245cf5	-0.16051085
124	0xbd44b5ed	-0.04802506
125	0x3e90adfd	0.28257743
126	0xbe09007b	-0.1337909
127	0x3d487c68	0.048946768
128	0xbdb2e428	-0.087349236
129	0x3e42f685	0.19039352
130	0xbd45ee86	-0.048323177
131	0x3e273b36	0.16331181
132	0x3e137aa1	0.14402248
133	0xbd941b28	-0.07231742
134	0x3c4c844d	0.012482715
135	0xbe44192a	-0.19150224
136	0xbd30f1b1	-0.043199245
137	0x3e8bf288	0.27333474
138	0xbdeab34f	-0.11459982
139	0xbe380803	-0.17971806
140	0x3e220c65	0.1582504
141	0xbd7a34ab	-0.061085384
142	0x3e7979d1	0.24362876
143	0x3e18d79d	0.14926
144	0xbe67a556	-0.22621664
145	0xbc9e79fb	-0.019345274
146	0xbd42d1a4	-0.04756321
147	0x3d85409f	0.06506466
148	0x3e923d72	0.28562504
149	0xbea38e06	-0.31944293
150	0xbcaa94d9	-0.02082293
151	0xbeba2362	-0.3635512
152	0xbd525c3d	-0.051357497
153	0x3e7e5575	0.24837287
154	0xbe3fb896	-0.18722758
155	0xbcd41451	-0.025888594
156	0x3cd5d4e1	0.026102485
157	0xbe77c09a	-0.24194565
158	0x3e316221	0.1732259
159	0x3ec102d2	0.37697464
160	0x3e36b29e	0.17841575
161	0x3e7366ff	0.23769759
162	0x3e80a4b8	0.2512567
163	0xbe3a32c2	-0.18183425
164	0xbd96365a	-0.073345855
165	0xbeaa7bd7	-0.33297607
166	0xbb3697bd	-0.002786144
167	0x3e461a97	0.1934608
168	0xba6aba66	-0.0008954167
169	0xbcff09ba	-0.031132568
170	0x3d045bec	0.032314226
171	0x3e3bfe4e	0.18358728
172	0x3e99dc8d	0.3005108
173	0xbd944124	-0.07238987
174	0x3dd598f3	0.104295634
175	0xbda87efa	-0.08227344
176	0xbe19d2d7	-0.15021835
177	0x3e63466b	0.22194831
178	0xbe3bad00	-0.18327713
179	0xbe92ffe6	-0.2871086
180	0x3d7fea24	0.062479153
181	0x3ea51a7b	0.32246765
182	0x3e2bc596	0.16774592
183	0x3e38a7d7	0.18032776
184	0xbdd1b266	-0.10239105
185	0xbe18aa1e	-0.14908645
186	0xbea03fbe	-0.3129863
187	0x3d8d5645	0.0690122
188	0xbe8ae440	-0.27127266
189	0x3e1c1ab3	0.1524456
190	0xbe53b5b2	-0.2067478
191	0x3d55b133	0.052170943
192	0x3d087c3c	0.033321604
193	0xbe00dea1	-0.12584926
194	0x3d506237	0.050874915
195	0xbe1406b6	-0.14455685
196	0x3e4da3aa	0.20081964
197	0xbd29740e	-0.041370444
198	0xbcf371cb	-0.029717347
199	0xbe0f1481	-0.13972665

Mixer_Block.0.mlp_block_token_mixing.fc1.bias f4 [20]
0	0x3ba49f4d	0.005023873
1	0x3a44d981	0.0007509217
2	0xbd8b5488	-0.068032324
3	0x3c98e0ec	0.018661939
4	0xbc120813	-0.008913058
5	0xbbc4fc73	-0.0060115396
6	0xbccbb363	-0.024865812
7	0x3bbaa0a8	0.0056954212
8	0xbb33da3c	-0.002744331
9	0xbac41cf6	-0.0014962244
10	0x3bdc2c14	0.0067191217
11	0x3c116b6d	0.00887571
12	0xbc28d831	-0.01030545
13	0xbb0a492f	-0.002110075
14	0xbc604e8d	-0.013690603
15	0xbc53af70	-0.0129202455
16	0xbe1d17b3	-0.15341072
17	0xbb2575df	-0.0025247259
18	0xbc1d9bbc	-0.0096196495
19	0x3e0c86c1	0.1372328

Mixer_Block.0.mlp_block_token_mixing.fc2.weight f4 [10, 20]
0	0x3e3ae304	0.18250662
1	0x3cec2c58	0.028829738
2	0x3e0f0351	0.13966109
3	0x3e774f08	0.24151242
4	0x3e3aeaa3	0.1825357
5	0xbe59d382	-0.2127209
6	0x3e96aa21	0.29426673
7	0xbe6309b1	-0.22171666
8	0xbe4f548c	-0.20247096
9	0x3df9b6e5	0.121930875
10	0xbb9c179b	-0.004763556
11	0xbe4b7cb2	-0.19871786
12	0xbe55e98a	-0.2088987
13	0xbd6cc53e	-0.057805292
14	0xbe2fb512	-0.17158917
15	0xbe0886a9	-0.13332619
16	0x3d28e61c	0.041235074
17	0xbe326ba8	-0.1742388
18	0xbe066340	-0.13123798
19	0x3e51ffb5	0.205077
20	0xbe310733	-0.17287903
21	0xbe54d04c	-0.20782584
22	0xbe06041c	-0.13087505
23	0xbe17b52b	-0.14815204
24	0xbd0f35d7	-0.034963455
25	0xbea66ee7	-0.32506487
26	0x3f0cdd80	0.5502548
27	0xbdb23d30	-0.08703077
28	0xbdb8f35f	-0.09030794
29	0x3cbc0509	0.02295162
30	0x3e7c31d1	0.24628378
31	0xbea60e00	-0.32432556
32	0xbef96fbb	-0.48718056
33	0xbd4dd1c7	-0.050248887
34	0x3d56cea0	0.052443147
35	0x3f07efc9	0.5310026
36	0xbdb27f6c	-0.0871571
37	0xbedc95b7	-0.43082973
38	0xbec44126	-0.38330954
39	0xbda3ee7b	-0.08004471
40	0x3ed26d58	0.41099048
41	0x3f3fd89f	0.7493991
42	0xbcc17daa	-0.023619492
43	0xbe9073c9	-0.28213337
44	0x3c494485	0.012284403
45	0xbe2c3718	-0.16817892
46	0xbde72580	-0.112864494
47	0xbe9b7387	-0.30361578
48	0x3df7178d	0.12065039
49	0xbe820510	-0.25394487
50	0x3ec7b8b0	0.39008093
51	0x3e0d1e83	0.1378117
52	0x3f006cfe	0.5016631
53	0xbd2ae875	-0.041725595
54	0xbe22b9a3	-0.15891127
55	0x3e47aa3a	0.1949853
56	0xbdb65e61	-0.0890472
57	0xbf10ede2	-0.5661298
58	0xbe0942c5	-0.13404377
59	0xbc6aeae4	-0.014338229
60	0xbe067328	-0.13129866
61	0xbe5ce8ab	-0.21573131
62	0xbc6090d0	-0.013706401
63	0xbdc8f526	-0.09812383
64	0xbdbc2bb3	-0.091880225
65	0xbdf040c6	-0.117311046
66	0xbd418e0b	-0.047254603
67	0x3d80289e	0.06257747
68	0xbd470974	-0.048593
69	0x3e8a20d6	0.26978177
70	0x3e2b7244	0.16742808
71	0x3e305a37	0.17221914
72	0x3dc74a6c	0.09730992
73	0x3dcc8fb6	0.09988348
74	0xbdbdd035	-0.09268228
75	0xbd019ba9	-0.03164259
76	0x3a866295	0.0010252768
77	0xbb8d53ef	-0.004312984
78	0xbdbf3621	-0.09336496
79	0x3d047f05	0.032347698
80	0xbb720cfd	-0.003693401
81	0x3cf717e9	0.030162768
82	0xbd876036	-0.06610148
83	0x3d59c175	0.05316301
84	0x3db873cc	0.090064615
85	0x3e26bb05	0.1628228
86	0xbc0659a2	-0.008200081
87	0xbd84faf2	-0.064931765
88	0x3d432f40	0.047652483
89	0xbe738e94	-0.23784858
90	0x3d9b773d	0.07591102
91	0x3810e998	3.4549827e-05
92	0x3c496267	0.012291527
93	0x3db0adeb	0.08626922
94	0x3d10600f	0.03524786
95	0xbc587b73	-0.013213026
96	0xbc37f752	-0.011228399
97	0x3c7ce24c	0.015434813
98	0x3d2273eb	0.03966133
99	0xbd47bf2e	-0.048766308
100	0xbd1ce844	-0.038307443
101	0xbc8d8566	-0.017275523
102	0xbcb6fafe	-0.02233648
103	0xbc9a9a8a	-0.018872518
104	0xbe03ceae	-0.12871811
105	0xbac70de5	-0.0015186636
106	0xbb913502	-0.004431368
107	0x3b4edc53	0.003156443
108	0xbd16ca9d	-0.03681432
109	0x3ca029f4	0.019551255
110	0x3d9d1edd	0.07671902
111	0x3c9e833d	0.019349689
112	0x3baf185d	0.0053434805
113	0xbd03156f	-0.032002863
114	0xbcbb3257	-0.022851152
115	0x3cdc4d39	0.026892291
116	0xbbf8386f	-0.007575087
117	0xbd5809a1	-0.052743558
118	0xbd18ce44	-0.037306085
119	0x3d12e63e	0.035864107
120	0x3d3a7dc0	0.04553008
121	0xbd403212	-0.04692275
122	0xbd4848c1	-0.04889751
123	0x3cd76102	0.026291374
124	0x3d4d5aec	0.050135538
125	0x3d17dcb7	0.037075724
126	0xbd17fd39	-0.037106726
127	0x3d78e704	0.06076719
128	0x3cc7372a	0.024318296
129	0x3ce766c2	0.02824724
130	0x3ce3b72e	0.027797308
131	0x3bf3fa48	0.0074456073
132	0xbcbd11fc	-0.023079865
133	0x3b852dcc	0.0040642973
134	0x3ce9cb2b	0.02853926
135	0x3ca6a5ef	0.020342795
136	0xbb8235cd	-0.0039736987
137	0xb9817f64	-0.0002469971
138	0x3c8ee868	0.017444804
139	0xbcc8b452	-0.024500046
140	0x3e224b7c	0.15849108
141	0x3e15b548	0.14619935
142	0xb9f960f4	-0.00047565217
143	0x3d9241d7	0.07141464
144	0x3e44a73f	0.19204424
145	0x3d31f3da	0.043445446
146	0x3b06f44b	0.0020592387
147	0xbe1e1615	-0.15438111
148	0x3d36c949	0.044625554
149	0xbdaf3b86	-0.08556275
150	0x3c9607cf	0.01831427
151	0x3da891ba	0.0823092
152	0xbba53f10	-0.005042918
153	0xbc009954	-0.007849056
154	0x3b299aea	0.002587969
155	0xbd8958b2	-0.067063704
156	0x3cab2f30	0.020896524
157	0x3d5e5228	0.05427757
158	0x3c73481b	0.014848734
159	0xbcc4a77d	-0.024005646
160	0x3d0eae1b	0.03483401
161	0x3e0b66ad	0.13613386
162	0x3d02f988	0.031976253
163	0x3d57f0c5	0.05271985
164	0xbe10e521	-0.14149906
165	0xbb78916c	-0.0037928475
166	0xbbea57b8	-0.00715157
167	0x3d41504f	0.04719573
168	0xbab9ebfc	-0.0014184709
169	0x3d175427	0.03694549
170	0xbcd40219	-0.025879906
171	0xbd04fc04	-0.032466903
172	0x3c8b8143	0.01702941
173	0x3d25f5bc	0.040517554
174	0xbb5ae69e	-0.0033401619
175	0x3ccfbda8	0.02535899
176	0xbc28af91	-0.010295765
177	0xbd880c1f	-0.06642937
178	0xbcaf6600	-0.021410942
179	0x3d055506	0.032551788
180	0x3cf0d98c	0.02940061
181	0xbd2e6e2b	-0.042585533
182	0x3c8ebe32	0.017424677
183	0x3d25b3f2	0.040454812
184	0xbd80ad38	-0.06283039
185	0x3d939f46	0.07208113
186	0x3b1f7f4a	0.0024337345
187	0xbd1b9a12	-0.03798873
188	0x3bb9d5f5	0.0056712576
189	0xbde728e1	-0.11287094
190	0x3cb79b2d	0.02241286
191	0x3cb723d8	0.022355959
192	0x3c09d34a	0.008412192
193	0x3d29f1e8	0.041490465
194	0x3c70f885	0.014707689
195	0xbb5ae8f6	-0.0033403016
196	0xbc33c52b	-0.0109723015
197	0xbbb6593e	-0.0055648377
198	0x3bb8f3ef	0.0056443135
199	0x3bbcbee6	0.0057600616

Mixer_Block.0.mlp_block_token_mixing.fc2.bias f4 [10]
0	0xbc7b2931	-0.015329645
1	0x3b85330e	0.004064924
2	0xbb8c655f	-0.0042845453
3	0xbb9dd33f	-0.0048164423
4	0xba9818e1	-0.0011604094
5	0xbafbfebb	-0.0019225696
6	0x3b4a1e8f	0.0030840968
7	0x39f69359	0.0004703056
8	0xbb82df83	-0.00399393
9	0xb9de405b	-0.00042391088

Mixer_Block.0.mlp_block_token_mixing_DynaMixerOperation.fc_ND.weight f4 [18, 54]
0	0x3c694447	0.01423747
1	0x3d8c2cec	0.06844506
2	0xbcde84a5	-0.02716286
3	0x3d6d26cd	0.05789833
4	0xbcc1ff78	-0.023681387
5	0x3daa7fa9	0.083251305
6	0x3ba0409a	0.0048905136
7	0xbe24b57a	-0.16084853
8	0xbd0a9e0c	-0.03384213
9	0x3a80848e	0.0009805129
10	0x3cd59441	0.02607167
11	0xbdb438bd	-0.087998845
12	0x3d83cd16	0.064356014
13	0xbde570c2	-0.112031475
14	0xbd66a8fd	-0.056313504
15	0xbd462647	-0.048376348
16	0x3d15bf2c	0.03655927
17	0x3b495a52	0.0030724
18	0xbdd23bb1	-0.102652915
19	0x3d91b273	0.071141146
20	0x3d06f300	0.032946587
21	0x3de36824	0.111038476
22	0x3e25fdac	0.1621005
23	0xbda9c04e	-0.08288632
24	0xbce519b8	-0.027966365
25	0xbd945a64	-0.07243803
26	0x3e039ec9	0.1285354
27	0x3d8f7a36	0.07005732
28	0xbdeb7a82	-0.11497976
29	0xbcd58147	-0.02606262
30	0xbcaf2784	-0.021381147
31	0x3de2a1ea	0.11066039
32	0x3cf7ac47	0.030233515
33	0xbd8f6672	-0.07001962
34	0x3dc7378e	0.09727393
35	0xbe022029	-0.1270758
36	0x3db10d91	0.08645166
37	0xbd5a9a0e	-0.053369574
38	0xbc8e5f5d	-0.017379457
39	0xbd86f3aa	-0.06589444
40	0xbd556e11	-0.05210692
41	0x3ddf1446	0.10892539
42	0x3e0223ba	0.12708941
43	0x3df55395	0.11978833
44	0xbde0ef4d	-0.10983143
45	0xbd4d78e6	-0.050164126
46	0x3bfdaa8e	0.007741279
47	0x3d98fb2b	0.074697815
48	0xbd7755f7	-0.060384717
49	0x3caee5fc	0.0213499
50	0xbdfa7d3a	-0.12230916
51	0xbd2f3eff	-0.042784687
52	0x3c8b7d48	0.017027512
53	0x3d3d6b7c	0.046245083
54	0xbd5ae4b1	-0.053440753
55	0x3d3a6364	0.045504943
56	0xbdd17d22	-0.10228945
57	0x3c620801	0.013795854
58	0xbd9e24c3	-0.077218555
59	0x3d6694cf	0.05629426
60	0xbdc48c5d	-0.09597085
61	0xbd27b8f2	-0.040947862
62	0xbd03ee54	-0.03220971
63	0xbd8ea4c7	-0.069650225
64	0xbdc674ac	-0.09690222
65	0x3dd0eae9	0.102010556
66	0x3c7e2a2a	0.015512982
67	0xbda8f4f6	-0.082498476
68	0x3cc3c986	0.023899805
69	0xbd9684f7	-0.0734958
70	0xbcf99de8	-0.030470803
71	0x3d3952a1	0.045244817
72	0xbde38fb6	-0.11111395
73	0xbc8ad408	-0.016946808
74	0x3e066a93	0.13126592
75	0x3af23887	0.0018479981
76	0x3dca27ea	0.09870894
77	0xbd3284c4	-0.043583646
78	0x3d45c5c5	0.04828431
79	0x3e011994	0.12607414
80	0xba142cb6	-0.00056524144
81	0xbdc915a1	-0.098185785
82	0x3bb0a016	0.0053901775
83	0x3d4e5cc6	0.050381444
84	0xbdafb5de	-0.0857961
85	0x3d6288ff	0.05530643
86	0x3d5d549b	0.054035764
87	0xbb9b7e71	-0.0047452976
88	0x3db3b70e	0.08775149
89	0x3ceb59e5	0.028729388
90	0xbd7e28b0	-0.06205052
91	0xbc391b2c	-0.011297982
92	0x3d6fdfa4	0.05856289
93	0x3dd6d291	0.10489381
94	0xbdc677c5	-0.09690813
95	0x3dd3ef14	0.10348335
96	0x3dd3e0ca	0.103456095
97	0xbd1bb958	-0.038018554
98	0x3d9928c7	0.07478481
99	0xbd4a07d4	-0.04932387
100	0xbdb4e223	-0.08832195
101	0xba0e1749	-0.000542034
102	0xbdacdab5	-0.084401526
103	0xbd8effd2	-0.069823876
104	0x3c5a4e62	0.013324352
105	0xbdb44884	-0.08802894
106	0xbd71bbd2	-0.05901701
107	0xbdf005e1	-0.11719871
108	0x3dfd4631	0.123669036
109	0xbd0fc1fc	-0.035097107
110	0xbcdae8e9	-0.026722388
111	0x3cfe8e22	0.031073634
112	0xbd8fa66e	-0.07014166
113	0xbdde3014	-0.10849014
114	0xbde269cc	-0.110553354
115	0x3e1108d5	0.14163525
116	0xbd921d52	-0.07134499
117	0x3d2887f2	0.041145273
118	0x3dd27aff	0.10277366
119	0x3d43e93d	0.047829855
120	0xbe093163	-0.13397746
121	0x3d9d5e5b	0.076840125
122	0x3d432d14	0.04765041
123	0xbd884884	-0.06654456
124	0x3dcd41f7	0.100223474
125	0x3d2d596a	0.0423216
126	0xbddbcdab	-0.107325874
127	0xbdc0383b	-0.09385725
128	0xbdbb19a0	-0.09135747
129	0xbdd5ce76	-0.1043977
130	0xbc0c5efb	-0.008567567
131	0x3d98165b	0.07426139
132	0x3d863141	0.06552363
133	0xbd9724fb	-0.073801
134	0xbcfa8fd4	-0.03058616
135	0x3c1c612f	0.009544655
136	0xbd112024	-0.035431042
137	0xbdf22eaf	-0.118253104
138	0xbdb6bf37	-0.0892319
139	0xbd5ffa18	-0.054681867
140	0x3d9b79d8	0.07591599
141	0xbd3986bb	-0.045294505
142	0x3db23a2e	0.08702503
143	0xbc89b91f	-0.016811905
144	0xbc91c607	-0.017794622
145	0xbd57801d	-0.052612413
146	0xbc514760	-0.012773365
147	0xbce26018	-0.027633712
148	0xbd9c5b74	-0.07634631
149	0x3cf6ec11	0.030141862
150	0x3db90d17	0.090357
151	0x3d3d57d0	0.046226323
152	0xbd9a0a43	-0.075214885
153	0x3d803d77	0.062617235
154	0xbd97aa79	-0.07405562
155	0x3d44ee38	0.048078746
156	0xbd348c32	-0.044079013
157	0xbcea6b3b	-0.028615585
158	0x3da3dcda	0.080011085
159	0xbda72218	-0.081608
160	0xbd425ced	-0.047451902
161	0x3cb22af5	0.021749
162	0xbea828c4	-0.32843602
163	0x3db616ed	0.088910915
164	0x3da5e298	0.0809986
165	0xbd675aa3	-0.056482922
166	0x3e155a40	0.14585209
167	0x3c1d99d5	0.009619196
168	0xbdb4efda	-0.088348106
169	0xbd063e53	-0.03277428
170	0x3dca8084	0.09887794
171	0xbe037706	-0.12838373
172	0x3dc309e4	0.09523371
173	0x3ddb3cfd	0.10704992
174	0xbbcc8f32	-0.006242656
175	0xbbaefe73	-0.0053403913
176	0xbe0e0b54	-0.13871509
177	0xbd1e82e0	-0.03869903
178	0x3d9d7768	0.076887906
179	0x3e21b864	0.15792996
180	0xbcb44732	-0.022006605
181	0x3da3c400	0.079963684
182	0x3dee5d4f	0.11638891
183	0x3df6162c	0.12015948
184	0x3b845e02	0.004039527
185	0x3d9dfd1b	0.07714292
186	0x3b95ca01	0.0045712
187	0xbc175292	-0.009235995
188	0xbde4f302	-0.111791626
189	0x3d118e96	0.03553637
190	0xbdcb953f	-0.09940576
191	0x3d850b33	0.06496277
192	0x3cec54d6	0.028849047
193	0x3dac1e8b	0.08404263
194	0xbc90dd1e	-0.017683562
195	0xbdf137df	-0.11778235
196	0xbdf4ed31	-0.11959303
197	0x3d2f6e4c	0.042829797
198	0xbc8f0fe6	-0.017463636
199	0x3dc00f4b	0.09377917
200	0x3e01caa4	0.12674958
201	0x3dac3642	0.08408786
202	0xbd918cc5	-0.07106928
203	0xbdfec66a	-0.12440188
204	0xbd51256e	-0.051061086
205	0xbdc9676c	-0.09834179
206	0xbdf1eb11	-0.118124135
207	0xbd7a59ea	-0.061120905
208	0x3d868326	0.06567983
209	0x3df47d32	0.119379416
210	0x3da527fc	0.08064267
211	0xbca6a0c2	-0.020340327
212	0xbcd96c07	-0.02654077
213	0xbc3e8a95	-0.01162972
214	0x3d567ffb	0.052368145
215	0xbdf39b50	-0.11894858
216	0xbbb97302	-0.005659462
217	0x3db47b9b	0.08812638
218	0x3d53af97	0.051681127
219	0xbdec1ad7	-0.11528557
220	0xbdbe588d	-0.092942335
221	0xbe05ebf9	-0.13078298
222	0xbe0add63	-0.13561015
223	0xbc72a1c9	-0.01480908
224	0xbbdc9b42	-0.0067323754
225	0x3d3fef67	0.04685917
226	0x3e00c0cd	0.12573548
227	0x3b924bcc	0.004464602
228	0xbce1846e	-0.027528968
229	0x3c88f5e7	0.016718818
230	0xbc54e80b	-0.0129947765
231	0x3dbe3fbe	0.092895016
232	0xbc905d7b	-0.0176227
233	0x3d052e0b	0.032514613
234	0x3dccad03	0.09993937
235	0xbd1d4ad1	-0.03840143
236	0x3d96b310	0.07358372
237	0x3e0896a1	0.1333871
238	0x3d5febb2	0.054668136
239	0x3ae29cb6	0.0017289135
240	0xbdc022d5	-0.09381644
241	0xbdb70a3a	-0.089374974
242	0xbda14b0b	-0.078756414
243	0x3d344a47	0.04401615
244	0xbc1090b6	-0.008823564
245	0xbdb24fbc	-0.087066144
246	0xbc5a7e6f	-0.013335808
247	0x3dc3f114	0.095674664
248	0x3d94b446	0.07260947
249	0x3d0c16e8	0.034201533
250	0xbbd19d4a	-0.006396924
251	0x3c0894c0	0.008336246
252	0xbd807acf	-0.06273424
253	0x3d2ea7b6	0.04264041
254	0x3dfaee8b	0.1225253
255	0xbd5dba4f	-0.054132756

Mixer_Block.0.mlp_block_token_mixing_DynaMixerOperation.fc_ND.bias f4 [18]
0	0xbc8a85e8	-0.016909555
1	0xbd838744	-0.06422284
2	0xbdda390e	-0.106554136
3	0x3d5295bf	0.05141234
4	0xbc66a5ca	-0.014077613
5	0xbdd610f7	-0.104524545
6	0x3de0e6e6	0.109815404
7	0x3e0ff560	0.14058447
8	0xbe004026	-0.1252447
9	0xbc4d09e8	-0.012514569
10	0xbdd41b2b	-0.103567444
11	0xbe016d0c	-0.12639254
12	0x3dc21dc2	0.09478332
13	0xbdc41106	-0.095735595
14	0x3d1c49c5	0.03815629
15	0x3e06977c	0.13143724
16	0xbd593f65	-0.053038973
17	0xbdc4476a	-0.09583934

Mixer_Block.0.mlp_block_token_mixing_DynaMixerOperation.fc_Nd.weight f4 [100, 180]
0	0xbba90280	-0.0051577687
1	0xbdaac162	-0.08337666
2	0xba52cac3	-0.0008041078
3	0xbca1784c	-0.019710682
4	0xbd449fe1	-0.048004035
5	0xbc450ebd	-0.01202744
6	0x3cbbc246	0.022919785
7	0x3d10cf25	0.0353538
8	0x3db2c76b	0.08729442
9	0x3d5ed3e0	0.05440128
10	0xbc8b9e4e	-0.017043259
11	0xbd8c37da	-0.0684659
12	0xbd1704eb	-0.036869925
13	0xbd453676	-0.04814764
14	0xbd2cf8ce	-0.042229466
15	0xbd3ec957	-0.04657873
16	0xbd039912	-0.0321284
17	0x3cacd8c7	0.021099461
18	0xbc715404	-0.014729504
19	0xbd80c1e1	-0.062869795
20	0x3d1d9cdc	0.03847967
21	0xbda05c46	-0.078301
22	0x3d82063a	0.06348844
23	0xbce062ee	-0.027390923
24	0xbcb66e91	-0.022269519
25	0xbd66d49d	-0.056355108
26	0x3d24c004	0.040222183
27	0xbd80c59f	-0.06287693
28	0x3cfad59d	0.030619437
29	0xbbcf7151	-0.006330647
30	0x3dab873a	0.08375402
31	0xbacd7ab6	-0.001567683
32	0xbca24417	-0.019807858
33	0x3d1c5d19	0.038174722
34	0x3d31cf15	0.04341038
35	0x3d5d5c5f	0.05404317
36	0xbd3553e2	-0.04426945
37	0xbc85d42f	-0.016336529
38	0x3a52171b	0.0008014307
39	0x3bdfad69	0.006826092
40	0xbd84b182	-0.064791694
41	0xbd6faedd	-0.058516372
42	0xbbb5680b	-0.0055360845
43	0x3d886a98	0.06660956
44	0x3c4e4ea8	0.012591995
45	0x3c8ae7be	0.016956206
46	0xbc84a5b2	-0.016192291
47	0x3d08bebb	0.03338502
48	0xbca62c90	-0.02028492
49	0xbd91a114	-0.07110801
50	0xbd828bae	-0.06374298
51	0xbdae9dfe	-0.08526228
52	0x3cbc61b6	0.022995811
53	0xbbeb448b	-0.007179802
54	0xbd084e53	-0.03327782
55	0xbd8b33b0	-0.06796968
56	0x3d1707be	0.036872618
57	0xbd6e0a10	-0.058115065
58	0x3d4db2d2	0.050219364
59	0x3ab96a33	0.001414603
60	0xbbcbaf66	-0.0062159775
61	0xbd299051	-0.041397396
62	0xba12e42f	-0.000560346
63	0xbd3a3560	-0.04546106
64	0xbc3daa96	-0.011576315
65	0x3c9a5a76	0.018841963
66	0x3dd9acae	0.10628639
67	0xbd50a407	-0.05093768
68	0x3d2f2383	0.042758476
69	0x3d68b287	0.056810882
70	0x3d642c73	0.055706453
71	0xbdac0cea	-0.08400901
72	0xbd839cd5	-0.06426398
73	0xbd822af4	-0.06355849
74	0x3d4a88c8	0.04944685
75	0x3c2bd8e3	0.010488722
76	0x3dac525b	0.084141456
77	0x3d0522ba	0.03250382
78	0x3d8c27c0	0.06843519
79	0xbcfa8382	-0.030580286
80	0x3c7af415	0.015316983
81	0xbd3d3924	-0.04619707
82	0xbcc39302	-0.02387381
83	0x3d5a47f8	0.05329129
84	0x3d5ba867	0.053627398
85	0xbc70f098	-0.0147057995
86	0xbcc5878c	-0.024112485
87	0xbd4bf123	-0.049790513
88	0x3c32904f	0.010898664
89	0xbd18ded3	-0.037321877
90	0xbce6f948	-0.028195038
91	0xbc6a41fc	-0.014297958
92	0xbc541024	-0.012943301
93	0xbcbf890e	-0.023380782
94	0x3d39ffaf	0.045409855
95	0xbc4a2c98	-0.012339734
96	0x3d9d1001	0.07669068
97	0x3da96377	0.082709245
98	0xbcd76d4c	-0.026297234
99	0xbc7c9a61	-0.015417666
100	0xbd13cdc0	-0.03608489
101	0xbc410dd2	-0.01178308
102	0x3ce16012	0.02751163
103	0x3bc0dbd5	0.005885581
104	0xbd3c11fd	-0.045915592
105	0x3d15555f	0.03645837
106	0x3cf51399	0.029916571
107	0x3d2ce20b	0.04220776
108	0x3c153b08	0.009108312
109	0x3d3363be	0.043796293
110	0x3cf740cb	0.030182263
111	0x3c7bb3cd	0.015362692
112	0x3bd254f5	0.006418819
113	0x3cc5c517	0.024141831
114	0x3d321096	0.04347285
115	0x3cca327b	0.024682274
116	0x3c985d4f	0.01859918
117	0x3c9e402f	0.019317714
118	0xbd4069ac	-0.046975777
119	0x3d9fb899	0.07798881
120	0x3d7b5907	0.0613642
121	0x3d5433b1	0.05180711
122	0xb9f72573	-0.00047139413
123	0xbccb420f	-0.024811773
124	0xbc6fea66	-0.014643287
125	0x3c162dc3	0.009166184
126	0xbd1a6516	-0.03769406
127	0x3c20ebd1	0.009821848
128	0x3d93f0f2	0.07223691
129	0xbc7b93c3	-0.015355053
130	0x3d3e2177	0.046418633
131	0xbd0d60a4	-0.03451599
132	0xbb3ba5ff	-0.0028632877
133	0xbd45e498	-0.048313707
134	0x3d8b545a	0.06803198
135	0x3d613673	0.054983567
136	0x3d82f262	0.06393887
137	0x3d6b01fa	0.057374932
138	0x3d3601c8	0.044435292
139	0x3d03896c	0.032113478
140	0xbd632111	-0.055451456
141	0xbd258c05	-0.040416736
142	0x3b588241	0.0033036622
143	0xbd93a7ed	-0.07209764
144	0x3d0cc268	0.034365088
145	0x3d1b082f	0.0378496
146	0x3bade9d3	0.005307415
147	0xbd8e67f8	-0.06953424
148	0x3d7c6f73	0.061629724
149	0x3cabd83a	0.020977128
150	0xbc2fb702	-0.010724785
151	0x3bb4fd87	0.005523387
152	0xba9da542	-0.00120274
153	0xbd9519c7	-0.07280307
154	0x3c43e161	0.01195559
155	0xbc23896d	-0.009981495
156	0xbd941099	-0.07229728
157	0xbd993634	-0.074810416
158	0x3d6d4dc0	0.057935476
159	0xbc924ff3	-0.017860388
160	0x3cd75548	0.026285782
161	0xbb8333d2	-0.00400398
162	0x3c9c327c	0.019067042
163	0xbdb73e9f	-0.08947491
164	0xbd5e004d	-0.054199506
165	0xbc64e188	-0.013969786
166	0x3d58441b	0.052799325
167	0xbc7a9f9a	-0.015296841
168	0xbccfd17b	-0.025368443
169	0x3c8abf52	0.016936932
170	0x3d96dd0f	0.07366382
171	0xbc757485	-0.014981394
172	0x3db6f40e	0.089332685
173	0x3da0154e	0.078165635
174	0x3b9a56ef	0.0047100703
175	0xbd3042b5	-0.043032367
176	0xbd5fd7d8	-0.054649204
177	0x3c695599	0.0142415995
178	0xbb04a10b	-0.002023759
179	0xbc8c934c	-0.01716008
180	0x3d782f8a	0.06059221
181	0x3d0a80a9	0.033814106
182	0x3d1355b5	0.03597041
183	0x3d1de9c7	0.038553026
184	0x3d207982	0.03917838
185	0x3cee914f	0.029122023
186	0xbc2156ab	-0.009847323
187	0x3e016ebf	0.12639903
188	0x3dd73a34	0.10509148
189	0x3d5d71ce	0.05406361
190	0x3d8e0bf8	0.069358766
191	0x3d9dc9b2	0.07704486
192	0xbc971a48	-0.018445149
193	0x3d60e590	0.054906428
194	0xbdb58396	-0.08862989
195	0x3d7da697	0.06192645
196	0x3d85d52f	0.06534802
197	0x3d64d25a	0.05586467
198	0x3c7c911b	0.015415455
199	0xbc7d614c	-0.015465092
200	0xbbdcdfad	-0.0067405314
201	0xbcd46422	-0.025926653
202	0xbd6804cf	-0.05664521
203	0x3cbfb52e	0.023401823
204	0x3c6a0249	0.014282771
205	0xbe333de4	-0.17504078
206	0x3db310ea	0.087434605
207	0xbcf7ecc9	-0.030264275
208	0x3cb6ddbf	0.022322534
209	0x3c85c854	0.016330875
210	0x3dac0ca1	0.08400846
211	0x3d72d1ab	0.059281986
212	0x3da2cd2b	0.07949289
213	0xbb1efe39	-0.0024260415
214	0x3dfbfbdb	0.12303897
215	0x3d517f78	0.051146954
216	0x3c796f94	0.015224356
217	0xbd5ce6c9	-0.05393103
218	0xbdb52b2d	-0.08846126
219	0x3ce2a8f6	0.027668457
220	0xbc644c2b	-0.0139341755
221	0xbe225d55	-0.15855916
222	0xbbf6a5f3	-0.007527107
223	0xbd7c2951	-0.06156284
224	0xbd2ceb7e	-0.04221677
225	0x3de167d2	0.1100613
226	0xbba92bba	-0.0051626833
227	0xbd8ab4e2	-0.06772782
228	0x3d3ea5f6	0.04654499
229	0x3d719e2c	0.058988735
230	0x3d251e20	0.040311933
231	0xbdb3dca8	-0.08782321
232	0xbe4f7ed0	-0.20263219
233	0xbd72ad9a	-0.05924759
234	0xbc09b610	-0.0084052235
235	0x3cb7a8e2	0.022419397
236	0xbd0b1542	-0.03395582
237	0xbabaff8f	-0.0014266836
238	0x3c62e0a7	0.013847507
239	0xbd1327fc	-0.035926804
240	0xbafac2e7	-0.0019131572
241	0x3ba49c69	0.0050235284
242	0x3dee0688	0.116223395
243	0x3d1ff88d	0.039055396
244	0xbd6ceb59	-0.057841633
245	0x3d0e8628	0.03479591
246	0x3e10e189	0.14148535
247	0xbd2d25c4	-0.042272344
248	0xbd84ffbc	-0.0649409
249	0xbc5457ec	-0.012960415
250	0x3c56443f	0.013077795
251	0x3d3d0b62	0.046153434
252	0x3cfa5655	0.030558744
253	0xbcc7a340	-0.024369836
254	0x3c821302	0.015878204
255	0xbd711c7c	-0.058865055

Mixer_Block.0.mlp_block_token_mixing_DynaMixerOperation.fc_Nd.bias f4 [100]
0	0xbd33f828	-0.043937832
1	0xbd673fcb	-0.056457322
2	0xbd96bbff	-0.07360076
3	0x3d97ef28	0.07418662
4	0x3c727542	0.014798464
5	0xbd98f3c8	-0.074683726
6	0xbd876251	-0.06610549
7	0xbc0b1320	-0.0084884465
8	0xbd3c476e	-0.04596656
9	0xbb9a2b92	-0.004704901
10	0xbcffddec	-0.03123375
11	0x3d18cbe3	0.037303817
12	0x3d7f0804	0.062263504
13	0x3af183d4	0.0018426129
14	0x3d91dc8e	0.071221456
15	0xbc07efe6	-0.008296942
16	0x3da35af6	0.07976334
17	0xbc652718	-0.013986371
18	0xba8fc04c	-0.0010967343
19	0xbba381ac	-0.0049898233
20	0xbc06696b	-0.008203845
21	0xbbe63d69	-0.0070263636
22	0x3d144584	0.036199108
23	0xbb658154	-0.0035019713
24	0xba993db3	-0.0011691361
25	0x3d2ec42a	0.042667545
26	0xbd879511	-0.06620229
27	0x3c9a8507	0.01886226
28	0x398f2d2c	0.0002730874
29	0xbd80ebea	-0.06294997
30	0x3d4d5365	0.05012836
31	0x3c787042	0.015163483
32	0x3bd3eee4	0.006467687
33	0x3c1f550b	0.009724866
34	0x3d098e1d	0.033582795
35	0xbd00c6b1	-0.031439487
36	0x3cc1aa8c	0.023640893
37	0x3dab5e61	0.08367611
38	0x3ce1937e	0.02753615
39	0x3cfae251	0.030625494
40	0xbc248219	-0.010040783
41	0xbd25527e	-0.040361874
42	0x3c3d1031	0.011539505
43	0xbd16e770	-0.03684181
44	0xbccdfb70	-0.025144309
45	0xbd15ec47	-0.036602285
46	0xbc0dac6c	-0.008647066
47	0x3d2ac9f3	0.0416965
48	0x3d87b821	0.06626917
49	0x3b1ff2a4	0.00244061
50	0xbcb75c5b	-0.022382906
51	0x3cad0ad3	0.021123325
52	0x3d252813	0.04032142
53	0x3ce446b5	0.027865747
54	0xbd5d93d1	-0.054096047
55	0x3d1359ce	0.035974316
56	0xba4b9d77	-0.00077672995
57	0x3d9a0ad3	0.07521596
58	0xbd883e21	-0.06652475
59	0xbd3d3b50	-0.046199143
60	0xbcd70773	-0.02624867
61	0x3d28afb4	0.04118319
62	0x3c12a55a	0.008950556
63	0x3d213a6e	0.039362364
64	0x3dc288b2	0.09498729
65	0xbbe66a21	-0.0070316945
66	0x3dbf54cc	0.093423456
67	0x3d0ee2da	0.03488431
68	0xbd0c8400	-0.034305573
69	0x3ca00d8d	0.019537712
70	0xbda78e4f	-0.0818144
71	0xbd0f8aaf	-0.03504437
72	0x3c4c4fce	0.012470199
73	0x3cee164c	0.029063366
74	0x3d3a44c6	0.045475744
75	0x3d98c0f7	0.0745868
76	0xbd8bac67	-0.068199925
77	0x3d7d93e9	0.061908636
78	0xbd5c28e2	-0.053749926
79	0xbd5d1534	-0.0539753
80	0xbd13b72a	-0.03606335
81	0x3d849df5	0.064754404
82	0x3d315ec8	0.04330328
83	0x3d80f207	0.06296163
84	0xbc691082	-0.014225127
85	0x3d4f5a0e	0.050622992
86	0xbce07235	-0.027398208
87	0x3dc5ee6e	0.096646175
88	0x3d2ddb61	0.042445544
89	0xbce81ede	-0.028335031
90	0xbd49ed1a	-0.049298383
91	0x3d88bade	0.06676267
92	0x3cf60de3	0.030035919
93	0x3c4af5c0	0.012387693
94	0x3c69cdfa	0.0142703
95	0x3d5878c5	0.05284955
96	0xbd072783	-0.032996666
97	0x3dbb1bac	0.09136137
98	0xbd6d1f2b	-0.057891052
99	0xbc3f7681	-0.011685968

Mixer_Block.0.mlp_block_token_mixing_DynaMixerOperation.fc_out.weight f4 [54, 54]
0	0x3e9b0d93	0.30283794
1	0xbdb231b2	-0.08700885
2	0x3d95e2ff	0.07318687
3	0x3b8d3cbc	0.0043102186
4	0xbaa7ab09	-0.0012792061
5	0x3e0502d5	0.12989362
6	0xbabba3d3	-0.0014315791
7	0x3dfe7916	0.12425439
8	0xbdb2b6ca	-0.087262705
9	0xbd81a3fa	-0.06330104
10	0xbdd4ae56	-0.103848144
11	0x3b258dac	0.0025261445
12	0x3d9e66fe	0.07734488
13	0xbd683d24	-0.056698933
14	0xbe1f7549	-0.15572084
15	0x3d84a4bd	0.06476734
16	0x3e17a4d7	0.14808975
17	0xbdb901f1	-0.090335734
18	0x3dd02669	0.10163576
19	0xbd8192c8	-0.063268244
20	0x3a948574	0.0011331276
21	0x3cb15daf	0.021651117
22	0x3ca944c1	0.020662667
23	0xbe96ce06	-0.29454058
24	0x3b40ccb1	0.002941888
25	0x3dd74b81	0.10512448
26	0xbcd4b2a7	-0.025964094
27	0xbdfa6813	-0.12226882
28	0x3d455fef	0.048187193
29	0xbd9a6fe3	-0.07540872
30	0x3dca6e60	0.098843336
31	0xbd0d6bf5	-0.034526784
32	0x3db6b445	0.089211024
33	0xbd10f8b6	-0.03539344
34	0x3d9f3d0a	0.07775314
35	0xbdfafa0b	-0.12254723
36	0xbe0163a5	-0.12635668
37	0x3de6b0e2	0.112642065
38	0xbc4afba0	-0.012389094
39	0x3c940ea9	0.018073397
40	0xbe1c6822	-0.15274099
41	0x3d776a1b	0.060403924
42	0xbda7d679	-0.08195204
43	0xbc919e8e	-0.0177758
44	0x3ddad905	0.106859244
45	0x3c3d7b2c	0.011565011
46	0xbd3e3d28	-0.046445042
47	0xbdbc1487	-0.09183603
48	0xbca67164	-0.02031774
49	0x3e0dd73e	0.1385164
50	0x3cd659f4	0.02616594
51	0x3c2c0621	0.010499508
52	0xbdad3edb	-0.08459254
53	0x3d7fc463	0.06244315
54	0x3d1b259b	0.03787766
55	0xbd93530c	-0.07193574
56	0xbe29a3b3	-0.16566353
57	0xbd7b325d	-0.061327327
58	0x3e31b14f	0.17352794
59	0xbd5e348c	-0.05424933
60	0x3e2239a5	0.15842302
61	0xbdcaf8ce	-0.09910737
62	0xbd90bf69	-0.070677586
63	0xbd344482	-0.044010647
64	0xbe37f88c	-0.17965907
65	0xbdcb972b	-0.099409424
66	0x3d2d3160	0.042283416
67	0xbddf4aac	-0.109029144
68	0x3e434240	0.19068241
69	0x3de6c653	0.11268296
70	0x3d34d3d4	0.044147328
71	0xbd97ce8b	-0.07412442
72	0x3dd7ab3a	0.10530706
73	0x3e1eac8c	0.15495509
74	0xbd867013	-0.06564345
75	0xbcbebba8	-0.02328284
76	0xbd839533	-0.06424942
77	0x3d8c7f63	0.068602346
78	0x3e01cfcd	0.12676926
79	0xbe1e81ca	-0.15479198
80	0xbdc385c3	-0.095469974
81	0xbd1214a2	-0.03566421
82	0xbdef72c9	-0.116918154
83	0x3e0dbe6a	0.13842168
84	0x3b859dcd	0.004077649
85	0xbd074398	-0.033023447
86	0xbd0a537d	-0.033771027
87	0x3bdc7e5f	0.006728932
88	0xbcc2f71f	-0.023799477
89	0xbccb9d8c	-0.024855398
90	0x3ccf4d90	0.02530554
91	0x3dc9b10b	0.098482214
92	0xbd9a7fa3	-0.07543876
93	0xbd8e5d3c	-0.06951377
94	0x3da756d5	0.08170859
95	0x3c0718f1	0.008245693
96	0x3aaaa486	0.0013019003
97	0xbdd98c3f	-0.10622453
98	0x3c7bb36d	0.015362603
99	0x3d9b5c7b	0.075859986
100	0xbcbe5041	-0.023231627
101	0x3b1a2a82	0.0023523872
102	0x3d3c7a79	0.046015237
103	0x3d72eb02	0.059306152
104	0xbc115c64	-0.008872125
105	0xbd968cfc	-0.073511094
106	0xbd89fb0e	-0.06737338
107	0xbc9565f7	-0.018237097
108	0x3c8c5d2f	0.017134277
109	0x3b578175	0.003288356
110	0x3e7a070d	0.24416752
111	0xbd7e31cb	-0.062059205
112	0x3da40fc3	0.08010819
113	0xbd9442ee	-0.07239328
114	0x3d35bb05	0.04436781
115	0xbbc80ff1	-0.006105416
116	0xbcb63960	-0.022244155
117	0xbdd22633	-0.10261192
118	0xbde32ef8	-0.11092943
119	0x3d730af4	0.059336618
120	0xbd40ab68	-0.047038466
121	0xbdc8b298	-0.09799689
122	0x3d9a5ece	0.07537614
123	0xbdd45cf6	-0.103692934
124	0x3e094dd2	0.13408592
125	0xbdfa4a1e	-0.12221168
126	0xbd7ce794	-0.061744288
127	0x3dd5ab89	0.10433108
128	0x3d5b6c81	0.053570274
129	0x3dfb1914	0.12260643
130	0xbe034a7b	-0.12821381
131	0xbdddd502	-0.10831644
132	0xbd1b0978	-0.037850827
133	0x3dcdd8f9	0.1005115
134	0xbe13668d	-0.14394589
135	0xbcd10d56	-0.025519054
136	0xbd5df0bc	-0.05418466
137	0xbd9fcf48	-0.07803208
138	0xbdf9fbe8	-0.122062504
139	0x3e003496	0.1252006
140	0xbd1ed799	-0.03877983
141	0x3c74b69d	0.0149361165
142	0x3e11c58b	0.14235513
143	0xbda649a5	-0.08119515
144	0x3e5e6f1c	0.21722072
145	0xbdb0527f	-0.08609485
146	0x3e088a15	0.13333924
147	0x3c7e90b7	0.015537432
148	0xbc844b07	-0.016149057
149	0xbe0a71be	-0.13519952
150	0xbdad7621	-0.08469797
151	0x3d3731f1	0.044725362
152	0xbe0ee41b	-0.13954203
153	0x3e41bb7f	0.1891918
154	0xbe0486cc	-0.12942046
155	0xbdcca36d	-0.099921085
156	0x3dd1348b	0.102151
157	0x3dc04cf9	0.09389681
158	0xbd0d0c1e	-0.034435384
159	0x3d0546d8	0.032538265
160	0x3d0a4aa3	0.033762585
161	0x3d6718ec	0.05642025
162	0x3bb4359a	0.005499554
163	0x3da26771	0.07929886
164	0x3db142cd	0.08655319
165	0x3c54164f	0.012944772
166	0x3d6a6f35	0.05723496
167	0x3d1ce5db	0.038305145
168	0xbdd60937	-0.10450976
169	0xbc944620	-0.018099844
170	0x3e4f0016	0.20214877
171	0xbe065677	-0.13118921
172	0xb9cd1023	-0.0003911267
173	0x3d19385e	0.03740727
174	0xbd011db4	-0.031522468
175	0xbd5636ef	-0.052298483
176	0x3dca184a	0.09867914
177	0x3d84e0ff	0.06488227
178	0x3e8e6b13	0.27816066
179	0xbc8a8d0f	-0.016912965
180	0xbd46153f	-0.048360106
181	0xbdfbed5f	-0.12301134
182	0xbe4c9a70	-0.19980788
183	0x3de01af0	0.10942638
184	0x3ba6ea21	0.0050938283
185	0xbbe4e63c	-0.006985454
186	0xbd743560	-0.059621215
187	0x3dcb9550	0.099405885
188	0x3b0e88e0	0.0021749064
189	0x3cb0012d	0.021484936
190	0x3a13549d	0.00056202133
191	0x3de9d7d8	0.11418122
192	0xbd7e7eed	-0.062132765
193	0xbdbd445a	-0.09241553
194	0x3de702d1	0.11279834
195	0x3d35474d	0.04425745
196	0xbde6aac3	-0.11263039
197	0xbdf62c60	-0.120201826
198	0xbe29c271	-0.1657808
199	0x3de9a2c6	0.11408
200	0xbceb7c2b	-0.028745731
201	0xbda9fd93	-0.083003186
202	0x3c8cdbdc	0.01719468
203	0xbcd7c7e6	-0.026340436
204	0x3cca1db2	0.024672363
205	0xbe2a6919	-0.16641654
206	0x3d09f9be	0.03368544
207	0x3e1f9074	0.15582448
208	0x3c143b0f	0.009047284
209	0xbe4a8bbe	-0.1977987
210	0xbe170d38	-0.14751136
211	0xbd0fb93a	-0.035088755
212	0xbd1639ea	-0.036676325
213	0x3e394f5b	0.18096678
214	0x3db74ddb	0.089503966
215	0xbd09f68c	-0.03368239
216	0xbdb8ee8c	-0.09029874
217	0x3e13e3cf	0.14442371
218	0xbe320f5f	-0.17388676
219	0x3de2fccb	0.11083373
220	0x3cbe52cb	0.023232838
221	0x3e2ea00c	0.1705324
222	0x3d56dac7	0.052454736
223	0xbdb22b89	-0.0869971
224	0xbb2de55b	-0.0026534412
225	0xbd03e8c3	-0.0322044
226	0x3dca8acc	0.09889755
227	0xbdfd3cbd	-0.123651005
228	0xbdb9382c	-0.09043917
229	0x3dd7fc80	0.105462074
230	0x3d6f74e7	0.058461096
231	0x3c7c89d5	0.015413721
232	0x3d567810	0.052360594
233	0x3d03fdbc	0.0322244
234	0x3d49e9ca	0.049295224
235	0x3d475762	0.04866732
236	0xbaec5cc6	-0.001803302
237	0xbe3231b4	-0.17401773
238	0xbde07e02	-0.10961534
239	0xbd30c560	-0.04315698
240	0xbc9f65ca	-0.019457716
241	0x3de67090	0.11251938
242	0xbd3cca11	-0.046091143
243	0x3dc3adc9	0.09554631
244	0xbdf9e947	-0.12202697
245	0xbdf650f3	-0.120271586
246	0xbe036257	-0.12830482
247	0x3c43156f	0.011906966
248	0xbd5741c8	-0.05255297
249	0x3e176f91	0.14788653
250	0x3d252a0b	0.0403233
251	0x3df535e5	0.1197317
252	0xbdd84fc9	-0.10562093
253	0x3e074324	0.13209206
254	0x3e0474f4	0.12935239
255	0x3e0b627d	0.13611789

Mixer_Block.0.mlp_block_token_mixing_DynaMixerOperation.fc_out.bias f4 [54]
0	0x3ad14515	0.0015966023
1	0xbe0a3202	-0.13495639
2	0xbd9b5bbb	-0.075858556
3	0xbd86ae83	-0.06576254
4	0xbd929901	-0.071580894
5	0x3cc30fb5	0.0238112
6	0x3e144a96	0.14481577
7	0x3c1a0748	0.00940115
8	0x3deaaf4b	0.11459216
9	0xbdd474fd	-0.10373876
10	0xbc9c797c	-0.019100897
11	0xbdd8e523	-0.10590579
12	0x3db91697	0.09037512
13	0xbdb30716	-0.08741586
14	0xbca420b8	-0.020035133
15	0xbd1c0e93	-0.038099837
16	0x3e05fef3	0.13085537
17	0x3ddb6783	0.10713103
18	0xbd2e4a68	-0.042551428
19	0xbe045e33	-0.12926559
20	0x3d48d69e	0.0490328
21	0x3cc62eb4	0.024192192
22	0xbd666ddf	-0.056257125
23	0xbd1b696c	-0.037942335
24	0x3e005232	0.12531355
25	0xbc935827	-0.01798637
26	0xbd20bc68	-0.03924218
27	0xbd07ca2d	-0.033151794
28	0x3d37d102	0.04487706
29	0x3d9625ec	0.07331452
30	0xbd5425d2	-0.05179388
31	0xbaf6ed13	-0.0018838964
32	0xbdbb3ea7	-0.09142809
33	0xbc41da96	-0.0118319
34	0x3e129650	0.14315152
35	0x3d608025	0.05480971
36	0x3d25f4a5	0.040516514
37	0x3c71dc48	0.014761992
38	0xbbb2b9a3	-0.0054542585
39	0xbd8d43c9	-0.068976946
40	0x3ca247b4	0.019809581
41	0xbd298e30	-0.041395366
42	0xbd154803	-0.03644563
43	0x3e1445f2	0.14479807
44	0xbd192f9f	-0.03739893
45	0x3df0ea0c	0.11763391
46	0x3d7dfac3	0.062006723
47	0x3dc8e8d7	0.09810036
48	0x3d9457f0	0.07243335
49	0x3dca7827	0.098861985
50	0xbd7437be	-0.059623472
51	0x3e0a971b	0.13534205
52	0x3dc24a4d	0.09486828
53	0x3dac9d07	0.08428388

Mixer_Block.0.mlp_block_token_mixing_DynaMixerOperation.LN.weight f4 [10]
0	0x3fae8bda	1.3636429
1	0x3f834404	1.0255132
2	0x3f935e21	1.1513101
3	0x3f5f8850	0.8731737
4	0x3f8bfdcd	1.0936829
5	0x3f846a5b	1.0344957
6	0x3f840a46	1.0315635
7	0x3f940758	1.1564741
8	0x3f838a08	1.0276499
9	0x3f709bd1	0.93987757

Mixer_Block.0.mlp_block_token_mixing_DynaMixerOperation.LN.bias f4 [10]
0	0x3dfbd549	0.1229654
1	0x3dd378de	0.10325788
2	0x3d9c099f	0.076190226
3	0x3d7fb64a	0.062429704
4	0x3d87f57c	0.06638619
5	0x3d579854	0.052635506
6	0x3d8c946f	0.06864249
7	0x3d6c86cb	0.057745736
8	0x3d89b71e	0.0672438
9	0x3d85bfea	0.06530745

Mixer_Block.0.mlp_block_channel_mixing_base_MLPmixer.fc1.weight f4 [54, 54]
0	0x3d2f1e3e	0.04275345
1	0xbda6a7db	-0.08137485
2	0x3cc5b713	0.024135148
3	0x3dfefd6c	0.1245068
4	0xbd875e1f	-0.06609749
5	0xbce576eb	-0.028010806
6	0xbd8e1e83	-0.069394134
7	0x3da68d3e	0.081324086
8	0x3de7c352	0.11316551
9	0xbd375832	-0.044761844
10	0x3d34b7f5	0.044120748
11	0x3da792d8	0.08182305
12	0xbe20fc8e	-0.15721342
13	0x3d0e1c8f	0.034695204
14	0xbcad871b	-0.021182587
15	0x3d4d305a	0.05009494
16	0xbd5b3b05	-0.053523082
17	0xbd6219e8	-0.055200487
18	0xbcac0623	-0.02099902
19	0x3dd38268	0.103276074
20	0x3d7d634b	0.06186227
21	0xbd9e53c3	-0.0773082
22	0xbda4bdd8	-0.08044022
23	0x3dbb4ea4	0.09145859
24	0xbd8ae128	-0.067812264
25	0xbdcb9f1b	-0.09942456
26	0x3e0fa65d	0.14028306
27	0x3d9086ee	0.07056986
28	0xbdb2ed6f	-0.08736693
29	0xbdb22afb	-0.08699604
30	0x3e08604a	0.13317981
31	0x3c826676	0.015917998
32	0x3ca1ed03	0.019766336
33	0xbe1d154d	-0.15340157
34	0x3ca2bcc5	0.019865403
35	0xbd33b0f8	-0.043869942
36	0x3ce4f602	0.027949337
37	0x3dd74370	0.105109096
38	0xbdbf0fd0	-0.09329188
39	0x3d9bc390	0.0760566
40	0x3da42b8a	0.08016117
41	0xbe003ff6	-0.12524399
42	0x3c889311	0.01667169
43	0xbde85ed6	-0.113462135
44	0x3b2bc1e1	0.002620809
45	0xbd1d513b	-0.038407546
46	0xbcabbbe1	-0.020963611
47	0xbcac8edc	-0.021064214
48	0xbd8acedd	-0.06777737
49	0x3da4323a	0.080173925
50	0x3d0ecd91	0.034864012
51	0x3d78d253	0.060747456
52	0xbd99ffdf	-0.07519507
53	0x3e05cbbe	0.13066003
54	0xbc31a4d2	-0.010842519
55	0xbdb92617	-0.09040468
56	0xbcf8748c	-0.030329011
57	0x3d51308f	0.0510717
58	0xbd6bfd0e	-0.05761438
59	0xbcfa9e91	-0.030593188
60	0xbd12f9d6	-0.035882793
61	0xbd3540c9	-0.044251237
62	0xbcf80190	-0.030274183
63	0x3e0099d0	0.12558675
64	0xbd82aefd	-0.063810326
65	0xbda72068	-0.08160478
66	0x3d55a6ac	0.052160904
67	0x3cc09d26	0.023512434
68	0x3db17215	0.086643375
69	0xbde7f1b2	-0.113253966
70	0x3d4b35f5	0.049612004
71	0xbda454d0	-0.08023989
72	0xbc9551e8	-0.018227533
73	0x3dec42e1	0.11536194
74	0x3c7c90de	0.015415398
75	0xbca306e1	-0.019900741
76	0x3da08fa2	0.07839896
77	0xbdc09b72	-0.09404649
78	0xbcdddbda	-0.027082372
79	0xbd9a8fe2	-0.07546975
80	0xbd97c31b	-0.0741026
81	0x3d0856a8	0.033285767
82	0x3d3be4a9	0.045872364
83	0xbdd5bfcc	-0.10436973
84	0xbe1227c5	-0.14272983
85	0x3daed03d	0.08535812
86	0xbd618aa4	-0.05506386
87	0x3d98fd9c	0.07470247
88	0xbe0ac2eb	-0.13550918
89	0xbc90a354	-0.017656006
90	0xbd9fbe81	-0.078000076
91	0x3d35208b	0.04422049
92	0x3d05ac76	0.032635175
93	0x3d9ba31e	0.075994715
94	0xbe2a53a3	-0.16633467
95	0xbd09602b	-0.03353898
96	0x3dc01ea9	0.09380848
97	0x3d62c3c6	0.055362485
98	0x3d945c91	0.07244218
99	0xbd8f2da9	-0.06991131
100	0xbd9719d6	-0.07377975
101	0x3cf9f13b	0.030510535
102	0x3db56651	0.08857406
103	0x3d9136d7	0.07090538
104	0x3dcd69c5	0.100299396
105	0x3d91cc3c	0.07119033
106	0x3d9c8e08	0.07644278
107	0xbd8a2c51	-0.06746734
108	0xbd516e56	-0.051130615
109	0x3dce4d7a	0.10073371
110	0x3db7000c	0.08935556
111	0xbdb8a4f8	-0.0901584
112	0xbcfacc6b	-0.030615052
113	0x3d26c747	0.04071739
114	0xbda25267	-0.07925873
115	0x3e04977f	0.12948416
116	0xbdbd23d3	-0.092353486
117	0x3e092e20	0.13396502
118	0xbdcd962c	-0.10038409
119	0xbdd64b28	-0.10463554
120	0xbdcce7bb	-0.100051366
121	0x3b89de01	0.004207373
122	0xbd8891ae	-0.06668411
123	0x3df0faeb	0.11766609
124	0x3bc36ccb	0.005963897
125	0x3d15f7c8	0.036613256
126	0xbde1e217	-0.11029451
127	0xbc7e9ca8	-0.015540279
128	0x3cfa6990	0.030567914
129	0xbdcbbbc0	-0.0994792
130	0x3dc98dd0	0.09841502
131	0x3d8964bb	0.06708666
132	0x3e10d864	0.14145046
133	0xbd5550f3	-0.052079152
134	0x3d14595a	0.036218025
135	0xbc9298e3	-0.017895168
136	0xbdf3e2b0	-0.119084716
137	0x3bc32c3b	0.0059562004
138	0xbddcef7b	-0.10787865
139	0x3cdf0a1d	0.027226502
140	0x3d32db33	0.043666076
141	0xbd86c7d8	-0.06581086
142	0xbc3d21ce	-0.011543704
143	0x3ab5da52	0.0013874269
144	0x3c30f746	0.010801142
145	0x3d4c5ab4	0.04989119
146	0x3dda0951	0.10646308
147	0xbd9b6c9a	-0.075890735
148	0x3dd6e77e	0.104933724
149	0xbe04daff	-0.12974165
150	0x3d4eea4e	0.05051642
151	0xbd0d4c5a	-0.034496643
152	0x3dcc6cdc	0.09981701
153	0x3df01752	0.11723198
154	0x3a445260	0.00074890815
155	0x3d52cc19	0.051464174
156	0xbd896419	-0.06708545
157	0xbe1060a7	-0.1409937
158	0x3c7259dd	0.014791933
159	0x3c63b9f0	0.013899311
160	0xbe0bdd9d	-0.13658758
161	0xb923036a	-0.00015546163
162	0xbd1e4be8	-0.03864661
163	0x3dc47d37	0.09594195
164	0x3dc80910	0.097673535
165	0x3e37633a	0.17908946
166	0xbcca2a5b	-0.0246784
167	0x3db70229	0.08935959
168	0xbd9ab290	-0.07553589
169	0x3d54edb4	0.051984504
170	0x3e12555b	0.14290373
171	0xbc6d5210	-0.014484897
172	0xbddeb19c	-0.1087372
173	0x3cc4de48	0.024031773
174	0x3d101059	0.03517184
175	0x3c835d3f	0.016035674
176	0x3d099b2d	0.033595253
177	0xbd02fbba	-0.031978346
178	0x3dc931d8	0.0982396
179	0x3e33e7a5	0.17568834
180	0xbcc3a576	-0.023882609
181	0xbc60d925	-0.013723646
182	0xbe09649b	-0.13417284
183	0x3de9c953	0.11415353
184	0x3e18319a	0.14862671
185	0x3d9720d1	0.07379306
186	0xbe378556	-0.17921957
187	0x3d4488d3	0.04798205
188	0x3dfb59bd	0.122729756
189	0xbe1c2fb0	-0.15252566
190	0x3d38740d	0.04503255
191	0x3d99adfc	0.07503888
192	0x3d72e930	0.059304416
193	0x3d3b498d	0.04572444
194	0x3d713f7b	0.05889843
195	0x3da11c15	0.07866684
196	0xbd355006	-0.04426577
197	0xbd92de10	-0.07171261
198	0x3b349460	0.0027554259
199	0x3d3ae482	0.04562808
200	0xbd983ae8	-0.074331105
201	0xbd44cce1	-0.04804695
202	0xbd88f367	-0.0668705
203	0x3dc0e1de	0.09418081
204	0xbd8c1030	-0.06839025
205	0x3d4f7b44	0.050654665
206	0x3d4e3cd7	0.05035099
207	0x3e2e0659	0.16994609
208	0xbdbe2c45	-0.092857875
209	0x3dbffd75	0.09374515
210	0x3af27110	0.001849683
211	0xbcd0e546	-0.025499951
212	0xbd95137e	-0.072791085
213	0xbe079135	-0.13238986
214	0xbd4e3e03	-0.050352108
215	0xbd59b42a	-0.053150333
216	0xbd68c2c1	-0.056826357
217	0x3d799fe7	0.06094351
218	0xbdb0fc3b	-0.08641859
219	0xbd0677ac	-0.03282897
220	0x3def6048	0.11688286
221	0xbd1aaefc	-0.037764534
222	0xbdbfcfb1	-0.09365786
223	0xbd0b67ba	-0.03403447
224	0x3c2efe01	0.010680676
225	0x3a8b3977	0.0010621984
226	0x3dc45775	0.095869936
227	0xbce50a0d	-0.027958894
228	0x3da08a22	0.07838847
229	0x3d303aab	0.0430247
230	0x3d8e0ff6	0.06936638
231	0x3dc363fd	0.095405556
232	0xbd864372	-0.06555833
233	0x3dc6cbd7	0.09706848
234	0xbcac48ca	-0.021030802
235	0x3da21f95	0.0791618
236	0x3c804ab2	0.015660618
237	0xbdece7b5	-0.11567632
238	0xbd87ed4c	-0.06637058
239	0x3cbf0f8f	0.023322849
240	0xbd9ae345	-0.075628795
241	0xbdf2473d	-0.11829994
242	0x3be519dd	0.0069916085
243	0x3dd63f2e	0.10461269
244	0x3deb9558	0.115030944
245	0x3d5f989a	0.05458889
246	0xbca06fa6	-0.019584488
247	0x3b06f06d	0.0020590082
248	0xbe0731c5	-0.1320258
249	0x3d401c57	0.046902027
250	0xbdbc4c89	-0.091942854
251	0x3d8148f0	0.0631274
252	0x3dc0bbf8	0.09410852
253	0xbe07194e	-0.13193247
254	0x3dfde914	0.12397972
255	0x3da08050	0.07836974

Mixer_Block.0.mlp_block_channel_mixing_base_MLPmixer.fc1.bias f4 [54]
0	0xbdcc4fbf	-0.09976148
1	0x3d1fc683	0.039007675
2	0x3d0ad0a5	0.033890385
3	0xbd4888c4	-0.048958555
4	0x3d534c68	0.05158654
5	0xbe2f8fbf	-0.17144679
6	0x3d1fc0cb	0.03900222
7	0xbece7aac	-0.40327966
8	0x3d413622	0.047170766
9	0xbd942873	-0.072342776
10	0x3db350e6	0.087556645
11	0x3da2f1a2	0.07956244
12	0x3dba81cf	0.0910679
13	0x3b85b466	0.004080343
14	0x3d38781f	0.04503643
15	0xbd7e3475	-0.062061746
16	0x3d87bced	0.066278316
17	0x3d8a3996	0.06749265
18	0xbcd94c09	-0.026525514
19	0x3d48e06d	0.049042154
20	0x3df0a2ec	0.11749825
21	0x3d01b2fa	0.031664826
22	0xbc68c60e	-0.014207376
23	0x3cad2f87	0.021140827
24	0xbd1259a2	-0.03573001
25	0x3cff1999	0.031140136
26	0xbe1af229	-0.1513144
27	0x3cb79855	0.022411505
28	0x3d3e4ef4	0.046462014
29	0x3b4c2de1	0.0031155276
30	0x3c7c1564	0.015385959
31	0xbe12054c	-0.14259833
32	0x3db86c41	0.09005023
33	0xbdd2ed6d	-0.102991916
34	0x3d0a8a3f	0.033823248
35	0xbd90a28d	-0.07062254
36	0x3e093c4b	0.13401906
37	0xbcb55bdc	-0.022138529
38	0xbdd2a9a7	-0.10286265
39	0xbdbcf63b	-0.09226652
40	0xbb9357e5	-0.004496562
41	0x3d071f2e	0.03298872
42	0xbd899762	-0.06718327
43	0xbdf81472	-0.12113275
44	0x3cd3b20c	0.025841735
45	0x3dba51d2	0.09097637
46	0x3d1aa693	0.037756514
47	0x3c8e4244	0.017365582
48	0x3dafbd32	0.08581008
49	0xbc267f6d	-0.010162217
50	0x3d2f67a0	0.042823434
51	0xbdc39831	-0.095505126
52	0xbce469ec	-0.027882539
53	0x3de7794e	0.11302434
