M_2_AST/M_2_AST/h36m/run_for_longging/exp240/model.pt (torch, 870893 bytes, 184 tensors)

Mixer_Block.0.mlp_block_token_mixing.fc1.weight f4 [20, 10]
00000000: 4783 1d3c 8c6a a5be 07e7 913e 2554 adbe
00000010: 32d2 073f d7f4 1dbe 1645 2f3e f2c3 22bd
00000020: 8a43 593e 56b5 4fbe c80d 1f3d 5d59 aebe
00000030: d463 823e d27b 95be 305d 8b3e f452 b1be
00000040: 13ca 573e 191b 80be 67dc de3e b20d 2b3e
00000050: b962 8e3e b0a9 1bbf 8c6d bcbe 01c1 e7be
00000060: 2fbb d8bd d5da 3c3e 166d be3d 0192 c93c
00000070: e78c 04be 64ef d63e e8f5 19bf 9d82 e03e
00000080: 09e8 073f 089a 8a3c 793a 00bf ba11 02be
00000090: f906 81bd 75ef fcbe 6afd 3abe d88a 3d3d
000000a0: b889 ca3e dbe2 9ebd 8ee9 de3e 5145 09bf
000000b0: c8da ea3c 372e fcbe 7987 ff3c aa6a a4be
000000c0: 503a 84be ef1b 66be 86dd 97be d55c e73e
000000d0: cab0 e4bd 6767 653e 720d d7be c88e 023f
000000e0: a776 dcbe 74ac bb3e 817d d5bb 2425 cfbd
000000f0: 68a9 553e 4539 fd3e c43e 21be d592 9e3e
00000100: b30a 3bbe 8307 183e 77b4 85be dcdf 213e
00000110: 4094 a0be e694 703e 1ecd c83d 6568 c9be
00000120: 9c96 863e deba e9be d065 a73e 46b2 a9be
00000130: 332a d33e 8c40 f5be 51d8 493e 3765 81be
00000140: 79dd c23d b619 fd3d b3f2 e8be dcef 033f
00000150: b2ba 89be 5412 c6bc d64c 4abe 7199 133e
00000160: f112 953e 1b44 85be 1da2 68be b6e4 e33d
00000170: a48a 09bf 9959 4d3e fb00 97be 73a4 5a3e
00000180: 28e9 c8be 782f 6c3e 5afc 82be 0a57 693e
00000190: 4035 e8be 789d 78be 6ac6 8cbe 7bba 043f
000001a0: 3cb2 9bbe 76a1 653e 8543 543e aea8 f13d
000001b0: 50ac cbbe 0b62 c23e d0a1 be3e 3285 ff3e
000001c0: 16af 53be 84b5 993e 85ce aa3d afe8 9c3e
000001d0: 6e24 ddbe 6939 4e3e db46 81be 502d 1e3e
000001e0: 4c5a da3e 7bf7 58be 870a 143e ceec f4bd
000001f0: eb2b fd3d 5fd6 9e3e a7f0 9d3e 5ba7 713e
00000200: 7dd8 bc3e 1393 873c 008d d73e dba6 9ebe
00000210: 4049 6bbd 56eb 67be c371 c73e 6603 36be
00000220: 9b36 ba3e 58eb a6be 73aa f13d a955 0d3e
00000230: b08f 9cbe 4fd1 06be bdf0 94be 7278 c63e
00000240: aa58 a0be 84b0 d0bd 8dff 1ebe 0369 b9bc
00000250: 5109 2ebf 7cd0 31be 55a7 a83e 4bd5 9b3d
00000260: 0b3f 03bf 5794 d13c 10a8 9b3e 1ef0 9a3e
00000270: fc2d f93e 2941 463e 160f d53e d4dc 4e3d
00000280: 6bfd 28bd cd56 dbbe 2710 5f3e 6f0d 9ebe
00000290: 82a1 da3e ae3b f0be c4ba a43e ea14 703d
000002a0: 643a 4a3d a143 41be fa56 2d3e 2b36 09bf
000002b0: d6ec 0c3f 2b24 013e 1be6 60bd 1313 02bf
000002c0: b171 3b3e cd50 91be bb63 4c3e 47ab 673e
000002d0: 2026 bdbe 7743 fb3e 84fa 71be cee7 4a3d
000002e0: 1c46 94be 26ae b03d b50b 42bf 0f41 573d
000002f0: 74a0 f4bd be0a 21be 7c3e 61bd d38d ed3e
00000300: 5491 f13d 3ec1 f53e aecf aabe f1e9 f33e
00000310: 3be7 babe ab81 cb3e adcc afbe ba10 b03e
0.0096138185 -0.3230785 0.28496572 -0.3385326 0.5305511 -0.1542543 0.17116198 -0.03973765
0.2121717 -0.20284018 0.038831502 -0.34052554 0.25466788 -0.2919603 0.27219534 -0.346336
0.21073179 -0.25020674 0.4352753 0.16704443 0.27809694 -0.608058 -0.36802328 -0.45264438
-0.105825774 0.18442853 0.0929815 0.024605753 -0.12944375 0.41979516 -0.6014085 0.4384965
0.5308843 0.016919151 -0.5008922 -0.12702075 -0.06300158 -0.4940144 -0.18260732 0.04627499
0.39558196 -0.07758113 0.43537563 -0.53621393 0.028668776 -0.4925401 0.031192528 -0.32112628
-0.2582574 -0.22471593 -0.29661196 0.45188013 -0.11166532 0.22402726 -0.42002445 0.50999117
-0.43059275 0.3665501 -0.0065152054 -0.10114506 0.20865405 0.49457756 -0.157466 0.309714
-0.182658 0.14846615 -0.26114246 0.15808052 -0.31363106 0.234943 0.09804748 -0.3933746
0.2628678 -0.4565038 0.32694864 -0.33143824 0.41243133 -0.47900808 0.19711424 -0.25272533
0.09514899 0.123584196 -0.45497665 0.5153787 -0.2690025 -0.024178661 -0.19755873 0.14414002
0.29116014 -0.26028523 -0.22718091 0.111276075 -0.53727174 0.2005371 -0.29492936 0.21351795
-0.39240384 0.23064983 -0.25583154 0.22787109 -0.45353127 -0.2427882 -0.27495128 0.51847047
-0.3040942 0.22424874 0.20728882 0.11799751 -0.39779902 0.37965426 0.37232828 0.49906307
-0.20672259 0.30021298 0.08340172 0.30646273 -0.43191856 0.20139088 -0.2524937 0.15446973
0.42647016 -0.21188156 0.14457141 -0.119592294 0.12361892 0.31022927 0.30847666 0.23598997
0.36883917 0.016549623 0.42099762 -0.30986676 -0.057442904 -0.22648367 0.3895398 -0.17774734
0.36369786 -0.32601428 0.11800089 0.13802208 -0.30578375 -0.13165782 -0.2908992 0.38763767
-0.31317645 -0.10189918 -0.15527172 -0.022633081 -0.67982966 -0.17364687 0.32940164 0.07609042
-0.5126807 0.02558343 0.3040166 0.3026132 0.48667896 0.19360794 0.41613072 0.050503567
-0.041257303 -0.4283966 0.21783505 -0.30869624 0.42701346 -0.46920532 0.3217374 0.058613695
0.049372092 -0.18873455 0.1692771 -0.5359828 0.5504888 0.12611453 -0.054906946 -0.50810355
0.18305089 -0.2838196 0.19959919 0.22623931 -0.3694315 0.4907491 -0.2363072 0.049537472
-0.2895974 0.08626966 -0.75799114 0.05255228 -0.119446665 -0.15726754 -0.05499123 0.46397266
0.11795297 0.47998995 -0.33361572 0.4763942 -0.3650454 0.39747366 -0.34335843 0.3438776

Mixer_Block.0.mlp_block_token_mixing.fc1.bias f4 [20]
00000000: e393 533e 28d4 e53e a859 cd3e 02bb 483e
00000010: 3a27 a93e 72b6 243f 5167 1c3e 3d73 103f
00000020: 87e7 5d3e 9904 c13e b0d0 263f e295 da3e
00000030: d60d dd3e 27de 003f 8754 923e 3547 ee3d
00000040: 00c5 e13e 1fe0 823e b0cf 233f da0f 3c3f
0.20661883 0.44888425 0.40107465 0.19602588 0.3303774 0.6434089 0.15273787 0.5642584
0.21670352 0.3769882 0.6516218 0.42692477 0.43174618 0.5033898 0.28580114 0.116346754
0.44095612 0.25561616 0.6398878 0.7346169

Mixer_Block.0.mlp_block_token_mixing.fc2.weight f4 [10, 20]
00000000: 48d9 f73e fc72 a03e 0328 79bd 89e8 d13e
00000010: 00a1 423f 0d3b f6bc a16f 9bbe fd33 a53e
00000020: fc9b d8be cbc1 90be 1d64 4fbe 473e cbbe
00000030: c3ea 9dbe 09a6 bdbd cffc 973e 1bf5 3fbf
00000040: 38f5 d03e 93f5 9a3e a34d 543e 466f 28be
00000050: 8c53 26be 0e60 85be 70a4 6dbd cf5b 5e3e
00000060: 6241 42bf 669f 993e 4c3e 31be b968 a5be
00000070: f9e3 7d3e 9427 c03e a573 143f 03fd 40be
00000080: db60 86be cab9 a1be 2a33 db3e f2df b83c
00000090: 0247 70be 0138 43be 93b9 823e b1ab 9d3e
000000a0: d037 be3e aab1 833e 3a32 fb3e 9741 0fbf
000000b0: 9186 50be 968a bcbe 3a88 7cbe 87ed 883d
000000c0: ccac e03d b220 dcbd f474 1bbe 8728 5f3d
000000d0: 412f 8c3e f37c 013f 5d84 9bbd 326e b83e
000000e0: cda3 573e a74e 05be 4203 cebe 4b3a c0be
000000f0: 9b37 b3be 4b7c 58be fc91 9f3e c517 d1bc
00000100: 02da 8bbe 58f7 063f 66d9 543b 5c34 0bbf
00000110: 69b2 36be c5c5 c93e 7ee0 62be ebcf 953d
00000120: 6307 eabb 1002 dfbe 766e 793d 039d 603d
00000130: 9e9d bfbe c143 14bf 9ab6 693e 1f21 d73e
00000140: f1b8 4cbc a874 df3e 4e09 17bd 4ed0 933e
00000150: d0ac c93d 7340 8fbe 858c bbbe 8d49 cb3e
00000160: df8d 09be 7a07 0abf 0fdc e7bc bc3f 07bf
00000170: 8b34 903e ef49 393e 88ba cabe 9a91 e53d
00000180: 9e31 2d3e e691 9d3e 31b0 fcbe 3835 a7be
00000190: ce95 0cbe 40ec 7fbe 5a67 94bd 6b57 983d
000001a0: 97b7 72be 52ed e53e b73b f83d 59d4 07bf
000001b0: 9c05 f73d 5c77 ce3e fabe c73e 6261 b93e
000001c0: cf90 51be 6bad b8bd 54e8 ea3d d5ae 01be
000001d0: 1613 2ebe 6778 803d 9044 0f3d 0528 1c3f
000001e0: b538 983e 2109 b53e da34 17be 7437 a3bd
000001f0: 65c2 12be abcb a93d a909 9cbb ad1c ca3c
00000200: df4f 2cbe 24e3 823d 2647 86be 9e54 523d
00000210: 1cce 693d 63ec 80bc 843c bbbe 27e1 08bc
00000220: 1e9b ac3e 5ae0 253d 0257 713e a7be ad3d
00000230: 33ce 98bd 18a6 6e3d 6b6f 423e 97ba dd3e
00000240: 870b dabd 8a77 39be 27f3 7bbe d8b1 3bbd
00000250: 3b6d 5fbe c669 87bd 19e8 1f3e 1acd adbe
00000260: e0ad ea3c 62dd 27be bce4 e23d 9ff3 f0bd
00000270: a967 d4bd 3169 073e f54c 08be 259d 9abe
00000280: ef89 a53e badf be3d 4167 2b3e 06df 31be
00000290: 9d8b 413e d44c 15bf e517 b1bd 4e41 933e
000002a0: 46d5 dbbe 9bcd 58be 02dc eb3e ef70 3dbe
000002b0: 3674 6abd e04a 883e b1c8 6f3e 2e1a 0b3e
000002c0: 25af c93e 78d8 243e b2a5 0abf ec1a 87be
000002d0: 951d b73c 2ed6 27bf b714 20bf de75 2e3e
000002e0: b394 83bd fcd7 b13e ed41 7ebe 6801 9fbe
000002f0: b0d7 a33e e222 2d3c 682d a4be 985d 8bbd
00000300: b417 6fbe 3c2a 22bf b6ed 3f3e a90d 33bc
00000310: f5ef 75bd 5f77 e7be cd90 fe3e b2e5 46be
0.4840796 0.31337726 -0.060829174 0.40997723 0.76026917 -0.030057454 -0.30358604 0.32266226
-0.42306507 -0.28272852 -0.20253034 -0.3969595 -0.3084317 -0.09260184 0.29685065 -0.74983376
0.40812087 0.30265483 0.20732741 -0.16448697 -0.16242808 -0.26049846 -0.058018148 0.2171471
-0.75881016 0.30004424 -0.1730892 -0.3230646 0.24793996 0.37530196 0.5798896 -0.18846516
-0.2624577 -0.31587058 0.42812473 0.022567723 -0.23464587 -0.19064333 0.25532207 0.30795053
0.37151957 0.25721484 0.49061757 -0.5595946 -0.20363833 -0.36824483 -0.24661341 0.0668593
0.109704584 -0.10748424 -0.15181333 0.05448201 0.27379802 0.5058128 -0.07593606 0.36021572
0.21058579 -0.13018285 -0.4023686 -0.37544474 -0.3500336 -0.21141164 0.31166065 -0.02552403
-0.27314764 0.52721167 0.0032478212 -0.5437677 -0.17841496 0.394087 -0.2215595 0.07315048
-0.007141994 -0.4355626 0.06089636 0.054837238 -0.3742494 -0.57915884 0.22823563 0.42017457
-0.012495265 0.4364369 -0.036874108 0.2886986 0.098474145 -0.27978858 -0.36630645 0.39704552
-0.13433026 -0.5391766 -0.028303174 -0.52831626 0.28165087 0.1809461 -0.39595437 0.11209412
0.16913459 0.30775374 -0.49353173 -0.3265779 -0.13729021 -0.24992466 -0.07246275 0.07438549
-0.23702846 0.44907624 0.12120765 -0.5305839 0.12061617 0.4032544 0.3901289 0.3620711
-0.20465396 -0.09017452 0.11470094 -0.1266435 -0.16999468 0.06272965 0.034977496 0.60998565
0.29730764 0.35358527 -0.14766255 -0.07969561 -0.14331968 0.082908 -0.004761894 0.024671877
-0.16827343 0.0639098 -0.26226157 0.05135023 0.057081327 -0.015737718 -0.36569607 -0.008354462
0.33712095 0.04049716 0.23568347 0.0848363 -0.074612044 0.058263868 0.18987815 0.4330642
-0.1064673 -0.18112007 -0.24604474 -0.045823902 -0.21819012 -0.066119716 0.15615882 -0.33945543
0.028647363 -0.16393045 0.11078784 -0.11765217 -0.10371334 0.13223721 -0.13310607 -0.30198017
0.32331797 0.09320016 0.16738607 -0.17370233 0.18900914 -0.58320355 -0.08647136 0.2876076
-0.42936152 -0.21172182 0.4606629 -0.18500112 -0.057239734 0.26619625 0.23416401 0.13584206
0.39391437 0.16098201 -0.5415908 -0.26387727 0.022352973 -0.6556119 -0.6253161 0.1703715
-0.064248465 0.34735096 -0.24829836 -0.3105576 0.32000494 0.010567399 -0.32065892 -0.06804961
-0.23348886 -0.63345695 0.18743023 -0.01092855 -0.060043294 -0.4520826 0.4971985 -0.1942356

Mixer_Block.0.mlp_block_token_mixing.fc2.bias f4 [10]
00000000: 7c5a 50be ffcb 713e d780 6bbd 6640 c8be
00000010: 8464 87be e32f 883e d4fa 7ebe 2aa9 a3be
00000020: 465e e43d 862b b1bc
-0.20347017 0.23612975 -0.057495918 -0.39111632 -0.26443875 0.26599035 -0.24900371 -0.31965
0.11150794 -0.021627199

Mixer_Block.0.mlp_block_token_mixing_DynaMixerOperation.fc_ND.weight f4 [1, 66]
00000000: de31 45bc a357 003d 359b 933d 677d 663d
00000010: edf7 90bd b5f9 a4bd d5b2 38bc b5ea bfbc
00000020: 1ffb 0cba c56d d03d 9fcc 033d 4d0c 5d3c
00000030: 695d 8ebd c82c 133c 5f71 0dbd a006 5a3d
00000040: 0631 c53d 66de aabd 86e2 993d 4653 38bd
00000050: c26f 3cbd c5ea b2bd d2de 653d 302f cdbc
00000060: d071 c93c 6cd6 21bd bab1 093e c608 ef3d
00000070: 31b7 a3bd 93c5 d7bc 06c1 6bbc 3f2b 923d
00000080: e0a2 f73b db74 9dbc 340b 80bd 24e0 05bd
00000090: 7525 a73d 9484 e5bc d54c 093e 7a5e 063c
000000a0: 7995 693a 0daa 443c 2fa1 61bd c04e 9fbd
000000b0: c170 443d b057 01be b2fc c3bb da9d 563d
000000c0: e8a7 e83c c7b8 03bd a344 8b3d 2417 b1bc
000000d0: f935 ca3c 873c 23bd 64a3 083e 9132 d7bd
000000e0: 159c 77ba e4f9 2a3d 48cb 15bd 3923 8c3d
000000f0: 1784 ffbc b786 a43d 6079 813d 3bd5 abbc
00000100: a7ea 093d b72c 9dbc
-0.012035815 0.031333577 0.07207338 0.056271937 -0.07078538 -0.0805544 -0.011273106 -0.023427347
-0.0005377996 0.10177187 0.032177564 0.013491702 -0.0695141 0.008982845 -0.034531947 0.053228974
0.09628491 -0.083432004 0.07513909 -0.04500129 -0.046005018 -0.08736185 0.0561207 -0.025046915
0.024590403 -0.03951113 0.13446704 0.11671595 -0.07993925 -0.026339328 -0.014389282 0.07137155
0.007557258 -0.01922076 -0.06252137 -0.03268446 0.08161441 -0.02801732 0.13408215 0.008201236
0.0008910518 0.012003434 -0.055085357 -0.07778692 0.047959093 -0.12631106 -0.0059810514 0.052396633
0.028400376 -0.03215864 0.06800201 -0.02161748 0.02468394 -0.039852645 0.13343579 -0.10507692
-0.000944556 0.04174222 -0.036570817 0.06842656 -0.031190915 0.08033507 0.063219786 -0.0209757
0.033671048 -0.01918636

Mixer_Block.0.mlp_block_token_mixing_DynaMixerOperation.fc_Nd.weight f4 [100, 10]
00000000: 8e11 50be 94c1 8a3e ccb1 753d b94a 823e
00000010: ec83 543e dedd cf3e ea01 9c3e 76a8 db3e
00000020: 3840 3ebd 425e b5bd cee8 a43e 84c5 0dbf
00000030: c098 61be 9ec8 2e3e a009 28bc 8c4b ec3d
00000040: ca04 943d 3225 c63d 88aa 6cbc 2e09 c4bd
00000050: 9111 a53d a7d5 013f 4549 91be 78f0 b43b
00000060: 7f8e 43be 3f73 d8bd 9c35 dfba 90e1 a43d
00000070: 78ca 23be b34f 3b3d 4f38 88bd f76d ee3d
00000080: 31a6 a0bd 1605 fa3c 0887 3cbd a59a 80be
00000090: c187 b8bd ac38 923d 0f3b 6dbd c762 fabd
000000a0: 8f18 ecbc 848b 223e f19b 6f3c 7e0f f0bc
000000b0: 44a5 5dbd 310a 57be 46d8 0bbe 2708 673d
000000c0: 93c3 90be a296 8fbe 4396 783d 05f7 a9bd
000000d0: 460e ab3e 7635 243e ad86 e63c 389a 6abe
000000e0: d4ae f1bd 067f f7bd 66ca 553e a508 04bc
000000f0: c362 c23c 5b7f 9f3e 3871 503e cbf8 01be
00000100: 6b6a 33bc db72 703d 5085 51be 2d93 983d
00000110: 7468 9f3c 9257 b5bd 3cfb 1abe d896 06be
00000120: 94c4 df3d 8001 643c c545 49bc 192e 433d
00000130: 7a31 b83d b197 85be e5f3 f7bd 80b4 f9bc
00000140: 1f1f 03be 4e07 493d 8aa7 2c3e ae2a 983d
00000150: 7200 823c da9f 0ebe ef59 c6bd 73b7 da3b
00000160: 31f9 b13d 7221 58bd 1cc5 4c3d 1f16 4ebe
00000170: 3bf4 8b3c 0669 58be 8460 e23d afb9 9abe
00000180: d48c 1b3e 6f8c 8dbd c2ab e3bd 8233 a9bd
00000190: ff49 44bc 88f4 883e b541 dcbd 7922 67be
000001a0: c197 813e 3c5d be3d 697c b6bd b0b7 42be
000001b0: ad7e 39bc 2b4e 85be 3377 b1bd 846a 6e3e
000001c0: 3edd ad3e 4455 e3bd 1b86 703e 6a44 bb3e
000001d0: 9b7e 8e3d 8157 4d3e 2d3a 9c3e 9b1e d83e
000001e0: 7e92 0ebc 2c75 673e 1402 8a3e a799 00be
000001f0: 67b3 23be 55ad 713e de0a e6bd 37e4 d63e
00000200: 99c2 bb3d 60a4 753e c621 6f3e 7394 e53d
00000210: 782e 7dbe 3940 493e c508 76be 76e0 ba3d
00000220: aee9 8f3e 6dee a03e 702f 0d3e c776 8b3d
00000230: 071d 183e c058 57be 9135 98be 84b1 87be
00000240: 9b99 2abe 125b d1be 8d2e 00be 048e 84bd
00000250: 50d4 9abe 0c36 b4bd 9c8d df3e 7d77 043e
00000260: 4ac3 9a3d 23ae a5be c7ae a9bd 3b40 9cbe
00000270: 51fb 47be 5177 abbd 9067 bf3e 4bb9 9cbd
00000280: 6d4f 70be 221f a23e a4cb 993d 5bf1 70be
00000290: dec8 ca3d 827d a3bd 89d1 d1be b416 8e3e
000002a0: 5200 99be 93c1 403d c985 cdbd 3b68 70be
000002b0: 80cc e7bc db6a 0c3e 115a 583d c32b 84bd
000002c0: 6a48 2cbe 3b8f 9a3d 2782 a33d 5b56 a2bd
000002d0: b632 8cbe cf77 943d a3be 533e ae23 48be
000002e0: 7c12 8fbc 85e7 06be 72df 41be d87d 45be
000002f0: 4b1c e63d 6472 0c3e e3e1 a2be 4b7f 79be
00000300: b8f2 8cbc fc73 15bc d438 2bbe 0b3d 59be
00000310: f423 cd3e 0101 0d3e 3280 0cbe 936c 84bd
00000320: 4682 8e3d 6da8 6d3e dbb1 04bd e863 64be
00000330: f477 27be cb12 2cbd f847 dfbe 63e9 b9be
00000340: 2ac4 83be 6ff8 e03d 6181 bdbe 9938 0a3e
00000350: a17c c0bc d2fb 64be 1b82 dabd eeca 23be
00000360: 81ef bcbd 95fb 143e aaa3 cabd 165c 433e
00000370: f86d 1b3b b7c4 773e 3103 4a3e 0528 f33c
00000380: 26e2 03bd da93 363e 6735 753d 944d 2e3e
00000390: 0d71 46be 4239 813e 8672 883d 98e6 583e
000003a0: f9fd 03bd 30ea 8d3e 1a4d 393e c694 ec3e
000003b0: 8a15 96bd e4ac 88bd 659e cc3e c470 533e
000003c0: f984 dc3e c72a 86be 368b babe cce5 a0be
000003d0: 5d9a 90bd 4d47 3ebe b10f 7abe f747 70bd
000003e0: 5064 46be fd00 a53d 0095 5abe 7c40 fe3b
000003f0: 8c79 0fbe 8846 3fbe cece 1b3e 5058 2c3d
-0.20319197 0.27100813 0.059984013 0.25447634 0.20753449 0.4059896 0.3047021 0.42901963
-0.046447963 -0.08855869 0.32208866 -0.5537951 -0.22030926 0.17068717 -0.010256201 0.11537847
0.07227476 0.09675063 -0.014444955 -0.095720634 0.08059991 0.5071663 -0.28376213 0.00552183
-0.19097327 -0.105688564 -0.0017029527 0.08050835 -0.15995204 0.045730304 -0.06651365 0.11642068
-0.078441985 0.030520003 -0.046027213 -0.25117984 -0.09010268 0.071397156 -0.05791765 -0.122258715
-0.028820304 0.15873533 0.014624582 -0.029304262 -0.054112688 -0.20999981 -0.1365672 0.05640426
-0.2827421 -0.2804461 0.060690176 -0.08299068 0.33409327 0.16036019 0.02814039 -0.22910392
-0.11800924 -0.12084775 0.2087799 -0.008058702 0.023728734 0.31151852 0.2035569 -0.12692563
-0.010950665 0.058703285 -0.20461011 0.074499466 0.019458987 -0.08854593 -0.15134901 -0.1314348
0.10926166 0.013916373 -0.012284701 0.047651384 0.08993812 -0.26092294 -0.12107066 -0.030481577
-0.1280484 0.049079232 0.16860786 0.074300155 0.015869353 -0.13928166 -0.09685122 0.006674701
0.086901076 -0.05276627 0.049992666 -0.20125626 0.017084232 -0.21133813 0.11053565 -0.3021979
0.1519044 -0.06911551 -0.111167446 -0.082617775 -0.011980533 0.26749063 -0.1075472 -0.22571744
0.25311092 0.09295127 -0.08910448 -0.19015384 -0.011321706 -0.260362 -0.086653136 0.2328282
0.33957857 -0.111002475 0.23488657 0.36575633 0.06957742 0.20052911 0.30513135 0.4221085
-0.008701919 0.22603291 0.2695471 -0.12558614 -0.15986405 0.23601277 -0.112325415 0.4197099
0.09167976 0.23988485 0.23352727 0.11209955 -0.24724758 0.19653405 -0.24026783 0.09124844
0.2810797 0.31431904 0.13787627 0.06809764 0.14854823 -0.21029949 -0.29728368 -0.2650262
-0.16660158 -0.40889794 -0.12517758 -0.064724 -0.30240107 -0.08799371 0.43662727 0.12936206
0.0755678 -0.32359418 -0.08285289 -0.30517754 -0.19529463 -0.08372367 0.373837 -0.07652529
-0.23467799 0.31664377 0.075095445 -0.2352957 0.099015936 -0.07982923 -0.40980175 0.27751696
-0.29883057 0.047059607 -0.10035283 -0.23477261 -0.028295755 0.13712637 0.05282027 -0.064536594
-0.16824499 0.0754685 0.07983809 -0.07926627 -0.2738244 0.07249414 0.20678191 -0.1954486
-0.017464869 -0.13174255 -0.18932894 -0.19286287 0.11235865 0.13715512 -0.31812963 -0.24364965
-0.017205581 -0.009121891 -0.16720897 -0.21214692 0.40066493 0.13769914 -0.13720778 -0.064660214
0.069584414 0.2320878 -0.03239618 -0.22303736 -0.16354352 -0.04201011 -0.43609595 -0.36310872
-0.257356 0.10984885 -0.3701277 0.13498153 -0.023496928 -0.22361687 -0.10669347 -0.1599538
-0.09225369 0.14549096 -0.09894498 0.19078097 0.002371667 0.24196135 0.1972778 0.029682169
-0.032198094 0.17829838 0.05986538 0.17021781 -0.19379063 0.25238997 0.066624686 0.21181715
-0.03222463 0.27717733 0.18095818 0.46207255 -0.07328327 -0.06673601 0.39964595 0.20648485
0.430702 -0.26204512 -0.36434335 -0.3142532 -0.070606925 -0.18581887 -0.24420048 -0.05866238
-0.19374204 0.08056829 -0.21345901 0.007759152 -0.1401121 -0.1867925 0.15215608 0.04207641

Mixer_Block.0.mlp_block_token_mixing_DynaMixerOperation.fc_Nd.bias f4 [100]
00000000: ce06 efbe 2f0d a13e f985 ca3e 9499 ddbd
00000010: 9592 983d 3d91 893e da89 403e ab5e 5bbd
00000020: be8a 5a3e 8f93 81bd 2978 9b3c 3317 87be
00000030: 1413 40be 2bd2 0f3d 81f0 773e 7546 433e
00000040: 64fc b0bd a34a 5dbd bb0c 98be 841a 8bbd
00000050: 8558 243e 1aa1 e4bd 7bc0 4e3e 5060 8cbe
00000060: e3db 1c3e 9cdf 18be ec73 823d e860 86be
00000070: 13fa 0bbe 5bf9 873e cf4f 093e 5674 6c3e
00000080: c47b 2ebe 7fe8 d53e 1867 b3be 74a7 813e
00000090: b328 af3d 3a9f 023e 3603 70bd c3e2 dc3d
000000a0: a633 a03d 2a80 703e 19ea b03e d73b 8cbe
000000b0: 2390 dc3d 2802 b7be 13d4 7f3e 8d6b b9be
000000c0: 4b29 76bb e6a1 023e d483 843e c050 d6bb
000000d0: 3963 65be 6bf3 993e f6f7 64bd 0e90 a93e
000000e0: 0128 8dbe 51f9 00bd ae8e ce3d a240 5e3e
000000f0: 95e4 edbc f742 963e c6cc 91be feb6 a43d
00000100: cfb7 f8bd 1155 c1bd 7063 15be cffa 593e
00000110: de66 00bd bb47 82bd f23e 23be 5cac 9c3d
00000120: dbad bf3e bec6 e63d 39f8 a5bd f290 e1bd
00000130: b0a2 8e3e 3913 e9be e22d 13bc 875d 94be
00000140: b6e3 613e 8228 05bd ccbe e53d 9ec0 a7be
00000150: 7fed 6cbd 707c 013d f4aa 213d fbb9 a2be
00000160: b701 2dbe 872e 933c c297 e6bd 60d5 9d3e
00000170: 2af4 e33d e1ce b83e 199d 6bbe 3781 bd3d
00000180: 5014 15bd b0c7 24be c757 aabe b93d 65bd
-0.4668488 0.3145537 0.39555338 -0.10820308 0.07449833 0.2686862 0.18802586 -0.05355708
0.21341988 -0.06326973 0.018978195 -0.26384887 -0.18757278 0.03511254 0.24212839 0.19069846
-0.0864189 -0.054026257 -0.29697213 -0.06792167 0.16049393 -0.1116354 0.20190613 -0.2741723
0.15318255 -0.1492905 0.063697666 -0.2624581 -0.13669614 0.2655743 0.13409351 0.23091254
-0.170394 0.41778943 -0.35039592 0.2532307 0.08552685 0.12756053 -0.058596812 0.10785439
0.07822351 0.2348639 0.34553602 -0.27389404 0.107696794 -0.35743833 0.24983244 -0.36214867
-0.0037561234 0.12757072 0.25881827 -0.006540388 -0.22401132 0.30068526 -0.055900536 0.33117718
-0.27569583 -0.031487767 0.10085808 0.21704343 -0.02903966 0.29347965 -0.28476542 0.080427155
-0.12144434 -0.09440053 -0.14588714 0.21287082 -0.0313481 -0.06361338 -0.1594198 0.076500624
0.3743733 0.11268376 -0.08103985 -0.11013974 0.27858496 -0.45522478 -0.008983107 -0.28977606
0.22059521 -0.032509334 0.11218032 -0.32764143 -0.05784368 0.031612813 0.039469674 -0.31782517
-0.16895185 0.017966522 -0.11259414 0.30826855 0.11130555 0.36095336 -0.23009147 0.092531614
-0.036396325 -0.160918 -0.33270094 -0.055967066

Mixer_Block.0.mlp_block_token_mixing_DynaMixerOperation.fc_out.weight f4 [66, 66]
00000000: a493 8e3e 2539 a03d 78a5 df3d d9cc e8bc
00000010: 2606 2a3e b8bf f2bd 5c1b 38bc d7c3 e4bd
00000020: 048c 0e3d a6cd 633d 8c60 f23c d9e2 31bc
00000030: afa7 9cbb 64b7 6abd e70f 463c b461 07bd
00000040: d460 fabc f473 1bbe af46 4dbc 6805 c73d
00000050: d0dd 293d 0fc8 113d 2845 f13d a2c2 263d
00000060: a295 e5bd bbe4 96bc de80 c53d bfdf 30bd
00000070: 5ca7 1b3c 768b 5c3e 5859 ff3d ac69 bb3d
00000080: cea4 f8bd f97d 653d 4c8a 58be 45b1 bcbc
00000090: 3a10 de3c 105c 73bc f5a6 69be b5f0 2dbd
000000a0: 119f 85bd a7a3 393d b7a5 113e 7318 61bd
000000b0: 1250 b5bc 651c 523e c17c 61bd f1ab dabc
000000c0: e9c3 26bd 5537 85bd 0364 adbd 4992 bd3d
000000d0: 180e ef3c cfdc 943c 1509 a0bd 1710 9c3c
000000e0: 2c1c 05bd 5dc8 3abd 60bb b4bd 7f66 23be
000000f0: 8c52 2b3e 37fc 3cbd bc33 323d 1dfe 99bd
00000100: 601c eebd 1ad3 95bd 90c8 9c3d 8c90 8a3d
00000110: e051 b5bd e8f0 dabd 0d85 b83c 4fc4 58be
00000120: a801 93bd 34ec 763d 38d7 07bd 2fce 813d
00000130: 73ff 7bbd b9d8 683d 783a 8e3d 7607 06be
00000140: 1a71 163e 87a7 133e bcb4 51be 3027 05bd
00000150: 58b5 c2bd f7ff 86bc 92c2 7dbd 9a0e 2d3e
00000160: 3e40 8f3d 9ef4 c53c 0517 eebd 990a 01bd
00000170: 921f c03d f36e ccbd ee66 38be 5a73 053e
00000180: ffa4 ffbd c4a9 1b3d 7bda b1bd 07c2 973d
00000190: 06aa c1bd e2b4 54be c994 fbbd 1266 d8bb
000001a0: 12bc fabc 9f73 553c 8a02 2bbd ba0b 9a3d
000001b0: ba89 ecbd a0c0 403e 6c90 9c3d 9a7e 35bc
000001c0: 69ce b83d 3b9d c73c a683 e7bd 37f9 4bbc
000001d0: 77db 193e bbfc d73c 1560 1cbc dcd8 3a3e
000001e0: 3281 ea3c 0112 c23a 17e9 ec3d b1e4 be3d
000001f0: 1b3a 973d c043 0abe e552 85bd c7fb 0dbd
00000200: 98d4 0d3e fb1a 0a3e eda1 483d 05ad 49ba
00000210: e5ab fd3d 1a42 cbbc 8e6f c73d 93e4 39be
00000220: b8a1 efbb d399 9f3b 6cc0 213c cebf e53d
00000230: f2aa c13d cbea d03a 8e28 20be 1548 f33d
00000240: 6fa5 a7bd a1e7 753d 7dc8 943c c5d4 3b3e
00000250: c8e8 a43e dcc6 073c 9ef4 44bd 3800 48bc
00000260: 21a2 2abd d654 3fbe ec64 473d 64a7 6f3c
00000270: 2ec4 743c cc05 183b dae8 6a3d da98 153e
00000280: 130d b63c 3e91 8bbc a080 863d b2d1 49be
00000290: 6877 f4bd ad0b 763d a47d a73c 8d98 0f3e
000002a0: 9ef5 9a3d e4c3 943d 0e5c 9ebd 09be d1bd
000002b0: e157 053e 4485 3c3e aa94 ccbd 1ada abbc
000002c0: bc67 d83d dc8f 95bc ea5b 92bd 4cba cabc
000002d0: aaaf 0d3d 8c26 7cbd cea5 d2bd 73b4 ea3d
000002e0: 7aa4 9d3d b60a 0c3e 52c0 8ebd 5726 c4bd
000002f0: 7b29 30bd c3f6 07bd af6d 93bd c244 a33d
00000300: 4f92 2cbe 636b a2bd 480f 67bd 7809 1dbe
00000310: 426c 1b3e c45b b9bd a80b 97bd 7220 343d
00000320: 13a0 82bd cf0d 193e 5c13 573d 1a79 0bbd
00000330: 0774 e23c b9ac 963d 8614 0b3e 142f 243d
00000340: 4f9b c5bd 0d24 f3bd 526c 85bc 1756 f0bd
00000350: 2669 cbbd 7a8e 5abd 850d 3d3d 7c60 9a3d
00000360: 69f2 643c 9cf0 be3d 10f4 c7bc 3409 903d
00000370: 27f5 383d 8f82 d93d 4865 853c 31b9 0fbe
00000380: 3318 0dbe 0129 b9bd 6483 bcbc c92a 873c
00000390: a02c abbd 7913 d93d 3901 b7bc d54f 303e
000003a0: b6e8 bebc b319 853d 30a0 c2bd e0a0 8f3d
000003b0: 75f3 133d ea40 b83c 5850 01be 5537 8fbd
000003c0: d620 933d f22f 9ebd 3fe5 883d 9824 ac3d
000003d0: dcc9 a33c a40f a2bd f186 dcbd 677b 1dbc
000003e0: 9c17 a6bd a994 20bd 8b55 903c 2e51 a83c
000003f0: 7589 94bc 2ac5 063e dffe 6d3d 9181 043d
0.27847016 0.078233995 0.109202325 -0.028417991 0.16603908 -0.11852974 -0.011236992 -0.11170166
0.034801498 0.055616044 0.029587053 -0.010857307 -0.0047807316 -0.0573038 0.012088752 -0.03305216
-0.03056375 -0.15180951 -0.012529059 0.09717828 0.041471303 0.03559118 0.11780769 0.04071296
-0.11210181 -0.018419614 0.0964372 -0.04318213 0.009500351 0.21537575 0.12468213 0.09151015
-0.12140809 0.05602834 -0.21146506 -0.023033747 0.027107347 -0.014853492 -0.22817595 -0.042465884
-0.0652448 0.045322087 0.14223371 -0.054954957 -0.022132907 0.20518644 -0.055050615 -0.026693316
-0.04071418 -0.06504694 -0.08466341 0.09256417 0.029181525 0.018171696 -0.07814232 0.019050641
-0.03249757 -0.045601238 -0.088248014 -0.15957068 0.16730708 -0.04613897 0.04350637 -0.075191714
-0.11626506 -0.07315655 0.07655442 0.067658514 -0.08853507 -0.106904805 0.022524381 -0.21168636
-0.0717805 0.060283855 -0.033164233 0.063381545 -0.061522912 0.056847308 0.06944746 -0.13088784
0.14691582 0.14419375 -0.20479101 -0.032508075 -0.09507245 -0.016479475 -0.061953135 0.16900101
0.06994675 0.024164494 -0.116254844 -0.031504247 0.093810216 -0.099820994 -0.18008015 0.13032284
-0.124826424 0.038003698 -0.0868425 0.07410055 -0.094562575 -0.20772126 -0.12284238 -0.0066039646
-0.030607257 0.0130280545 -0.04175047 0.07521768 -0.11549707 0.1882348 0.07644734 -0.011077547
0.090237446 0.024366966 -0.11304407 -0.012449554 0.15025125 0.026365628 -0.009544392 0.18246788
0.028626058 0.0014806391 0.11567896 0.09320963 0.073841296 -0.13502407 -0.065099515 -0.03466394
0.1385063 0.13486855 0.04898255 -0.00076933234 0.12386302 -0.024811793 0.09738074 -0.181536
-0.0073129795 0.004870632 0.009872537 0.112182245 0.09456433 0.0015939114 -0.1564047 0.11878983
-0.08185851 0.06003535 0.018162007 0.18342884 0.32208848 0.008287158 -0.048084848 -0.012207083
-0.041658524 -0.18684706 0.04868023 0.014627311 0.014939351 0.0023196815 0.05735097 0.1460909
0.022223031 -0.01703703 0.06567502 -0.19708899 -0.119368374 0.06006973 0.020445652 0.14023037
0.07566379 0.07263926 -0.07732402 -0.102413245 0.13021804 0.18410212 -0.09989293 -0.020978022
0.10566661 -0.018257074 -0.071464375 -0.024747036 0.034591354 -0.0615602 -0.10285531 0.11460199
0.07697387 0.13675961 -0.06970276 -0.09577625 -0.04300831 -0.033194315 -0.07198655 0.07972099
-0.16852687 -0.07930639 -0.056411058 -0.15335643 0.15178016 -0.09050706 -0.0737527 0.043976255
-0.06378188 0.14946674 0.052508697 -0.03405104 0.027643217 0.07357163 0.13582048 0.04008396
-0.096487634 -0.118721105 -0.016287003 -0.1173517 -0.09932165 -0.053358532 0.04615547 0.07537934
0.013973811 0.09323236 -0.02440837 0.07033005 0.04515567 0.10620605 0.016283646 -0.14035489
-0.13778763 -0.09041024 -0.02301187 0.016499894 -0.08358121 0.10599417 -0.02233945 0.17217954
-0.023304325 0.06499042 -0.095032096 0.07013106 0.03612085 0.022491891 -0.12628305 -0.069929756
0.07183997 -0.077239886 0.0668435 0.08405417 0.019993715 -0.079131395 -0.107679255 -0.009611941
-0.08109972 -0.039204273 0.017618915 0.020546522 -0.01813195 0.1316115 0.058104392 0.032350127

Mixer_Block.0.mlp_block_token_mixing_DynaMixerOperation.fc_out.bias f4 [66]
00000000: 53e1 3d3e c0c7 963d 28e9 53bc 563e a03d
00000010: 83d0 25be 9b04 b33d 138b c53d f197 823c
00000020: 0f56 08bd 5c77 9f3d dab1 13be 8df0 94bc
00000030: ac07 333e 29d2 a6bc 232f 18bc 3903 6f3c
00000040: ae4c a6bc 61f0 87bd 7348 22be 3594 8b3e
00000050: d4c7 8a3b 7c74 fcbc cb4a 35be 8979 1dbd
00000060: c9cc 063e d168 c7bd 464e 73be fa03 0e3d
00000070: 9cae 6f3e 67bb 9abd 3274 c5bc a04b c4bd
00000080: a505 62bd db94 b13d e0a3 053d fa9b 1b3e
00000090: bf06 1d3e fd27 19bd 4df7 2b3d 666c 66be
000000a0: 87d8 d53d 6202 f73a 35e1 95bc 1ace 333d
000000b0: eb2a 03be d2ef 0cbc 7337 3bbb f055 5cbe
000000c0: 0c14 613e 9080 af3c bf37 1dbe 870f 44bc
000000d0: 9bbb aabd 82b6 eabd 3977 d8bd 3f28 89bd
000000e0: e496 c33d c87f e2bc 4491 0cbe b871 f03d
000000f0: 0196 593d 8536 8bbe e12a 6ebe 42dd 16bc
00000100: c72e 903d fd17 28be
0.18542986 0.07362318 -0.012934007 0.0782439 -0.16192822 0.08741113 0.09645667 0.015941592
-0.033285197 0.07786438 -0.14423314 -0.01818111 0.17483395 -0.020363884 -0.009288582 0.014588171
-0.020300236 -0.066376455 -0.1584795 0.2726151 0.004235247 -0.030817263 -0.17704313 -0.038445983
0.13164057 -0.09736789 -0.23760328 0.03467176 0.23406452 -0.075552754 -0.024103258 -0.09584737
-0.055181164 0.0867097 0.032626987 0.15196219 0.15334605 -0.03739165 0.04198389 -0.22502288
0.1044169 0.0018845315 -0.018295864 0.043897726 -0.1280934 -0.0086020995 -0.0028566986 -0.21517158
0.21980304 0.021423608 -0.15353297 -0.011966593 -0.08336564 -0.11460592 -0.10569615 -0.066971295
0.095502645 -0.027648821 -0.1372729 0.1174044 0.05312157 -0.27190033 -0.23258545 -0.009208025
0.07040172 -0.16415401

Mixer_Block.0.mlp_block_token_mixing_DynaMixerOperation.LN.weight f4 [10]
00000000: bebb 883f 1250 a03f 39b0 8d3f 4939 853f
00000010: fd66 6f3f aeab 6e3f 44f5 683f 9199 4a3f
00000020: f90b 2e3f 32c8 1a3f
1.0682294 1.2524436 1.1069404 1.0408107 0.9351652 0.9323071 0.90999246 0.79140574
0.6798702 0.60461724

Mixer_Block.0.mlp_block_token_mixing_DynaMixerOperation.LN.bias f4 [10]
00000000: 78c0 3bbe 1982 6d3e 895a ddbd a34a 6abd
00000010: cf26 64be 0429 8cb8 e848 31bc f98f 12bd
00000020: 29dd ac3d 5c85 1abe
-0.1833514 0.2319416 -0.10808284 -0.057200085 -0.2228043 -6.68336e-05 -0.010820605 -0.035781834
0.084406205 -0.15089935

Mixer_Block.0.mlp_block_channel_mixing_DynaMixerOperation.fc_ND.weight f4 [1, 10]
00000000: db32 03bf 41b4 873e 8cfe c0bc 0837 2b3d
00000010: bc5c a53d e2ea 393c 292c 9d3d 1bb2 8b3c
00000020: dc01 80bd d350 a4bd
-0.51249474 0.2650471 -0.023558877 0.04180053 0.08074328 0.011347504 0.076744385 0.0170527
-0.06250355 -0.080232285

Mixer_Block.0.mlp_block_channel_mixing_DynaMixerOperation.fc_Nd.weight f4 [484, 22]
00000000: da57 f5bb 4996 b1bd bb86 6dbe 1498 0d3d
00000010: 5f23 613d aa17 bb3c 66ec 47be 1884 07bd
00000020: 0dcd 05bd c0d9 a7bc 80e8 6a3d b57c efbd
00000030: ec8c b63d 1413 01be 616d fd3d 0ee1 023e
00000040: ab83 ae3d 17d1 33be 5ea8 ab39 9f02 273e
00000050: 1f82 903e 1a88 f43d caad 89bc 306c 2f3e
00000060: bc8f 683e 21f7 903c b81f 05bd 9b01 883c
00000070: bfad 35be e08f 5b3e 083c 4e3e 4cdc 1e3e
00000080: 4679 0c3e 3fb1 783e 1704 a1bd fe14 903b
00000090: 1c6a b7bd fef8 8d3d 19f2 6abd 14fc af3d
000000a0: 38f9 cc3d 1622 45be e0c2 21be 6118 e8bd
000000b0: fb18 7fba ea32 253e f811 483e 7bf7 b5bd
000000c0: 7a57 63bd 3bc4 1d3e 207a 1abe 9a85 923c
000000d0: 221f 0cbe 1d6d 213e fff5 733d a512 d9bd
000000e0: 01b5 833e e64b 193e 6f85 393e dcd9 013e
000000f0: be12 89bd 38be 433d 1d35 5c3e 05bf 823b
00000100: b496 f3bc 3526 3e3b f652 adbc ad39 633d
00000110: a985 3d3e f218 3cbd adc1 a23d df73 1b3e
00000120: f1dc 103e e8d7 733e 230d 0c3e ae20 18bd
00000130: 042b 043e ec42 583e 8d8e 413c 3651 2d3e
00000140: 5fee a23d 38b6 f93b 2041 30bd 79e0 6c3e
00000150: 93b1 4f3e 58b1 9f3c fffe fb3c 3ee4 ad3d
00000160: 5a74 8a3e 9fb9 57bd 3b4c a8bc 089b 3b3e
00000170: 7e9a 4f3e f58f 813d 88a6 02be d741 9b3d
00000180: 4fe5 66be fccc cc3d a3c3 9b3e 3862 67bd
00000190: 52bb 083e ea0a 983c 9f82 78bd aaa6 eabd
000001a0: ea21 df3d beff 1dbe f3d6 b4be 3205 9f3e
000001b0: 2bf3 0a3e 2f91 173e 2885 88bc 2961 0ebe
000001c0: 10bf 133d 1f28 4cbd 2f7a b5bd ec70 bebd
000001d0: 86f1 543e 9a06 77be 2682 353e 37c9 823d
000001e0: 4803 623d fe88 e13d 8f14 5e3e ca80 29be
000001f0: 5553 a5bd 6897 55be cc83 2b3e 6075 ae3d
00000200: eb3c 1a3e 8b36 33bd 580c a4bd 7802 0d3d
00000210: ce30 71bd 4cf8 4a3e 0026 213e 4b50 323e
00000220: 43e0 90bc e4bd d6bd 56c2 923c 2d8e 0e3e
00000230: 4ee1 973c 86a9 80bd 9895 d23c 2c30 1cbe
00000240: ee42 e9bd 67f3 60be 8710 1bbe a0a5 5cbe
00000250: 726f 31bb 4867 5dbe 26a6 02bd f7a5 c83c
00000260: 939b 0e3e 12ba f7bd a7cb 0cbd 66af 8dbb
00000270: 64ae 96bd 3d59 49be 5303 513e 9c7d 43bd
00000280: 1ade febd 36f2 683d 5262 683e 4b65 29be
00000290: 3e70 9fbe df59 8fbd 55cb 57be cfcd 08be
000002a0: f8a5 1b3d 72e3 243e dbb6 10be 95d1 a93c
000002b0: ce1d b53d 780d 09be 3f07 c5bc 5069 a0be
000002c0: c827 9cbe d77b 5f3e 4477 4abc d4f8 2abe
000002d0: 58a6 31be a78e ed3d f2b2 6a3e 1322 1e3e
000002e0: 6491 863e 7599 973d 6593 873c 48fb 2a3e
000002f0: 1a1f 0b3d c735 72be 8434 8b3e 4095 0f3e
00000300: b396 6d3d 0887 26be c70b 733e f335 14be
00000310: 5b46 023d b9c8 5abe 1a64 833e 4ef6 06be
00000320: e51d 60be c74e e0bd 2989 3aba 732a 4c3e
00000330: 26d3 813e 8016 f0bd 01d9 e1bd 993b 143d
00000340: b891 5a3d 28a1 5e3e a1c5 05be c3f9 febd
00000350: 6033 c93d 3c35 51bc 87d3 c63d ab8b 22bc
00000360: 7e19 f3bc c1b4 0c3e 0600 63be 064d 153e
00000370: 6f85 31be d0ce 243d 4b8a 8cbe 7754 edbd
00000380: 1708 853e 3d76 90be 5ced c1bd 3663 3a3e
00000390: f698 42be dd89 4b3d 6189 eebd e384 083e
000003a0: 0a61 e43d a632 893c 43bb de3d 4d0b 283e
000003b0: 44cf 613d 0865 f4bd be44 83bd 3a2a eabd
000003c0: 0e0c d8bd 40e9 723b 7446 efbd 175e 423e
000003d0: a042 47be 0fb9 3dbb b788 4d3c 78f2 1fbe
000003e0: 2174 bbbc c682 14be 3156 36bd 5dea c83b
000003f0: a582 983d 3c50 d7bd 6c9a b33c e4f0 3bbd
-0.0074872794 -0.08671243 -0.23195927 0.03456886 0.054965373 0.022838432 -0.19523773 -0.03308496
-0.032666255 -0.020489573 0.057350636 -0.11693708 0.089135975 -0.12604934 0.12374378 0.12781164
0.085212074 -0.1756023 0.00032741105 0.16309594 0.28224275 0.11940022 -0.016806502 0.17131114
0.2271108 0.017695965 -0.032500952 0.016602328 -0.1774206 0.21441603 0.20140088 0.15513724
0.13718137 0.24286364 -0.07862108 0.0043970337 -0.08955786 0.06932257 -0.05735979 0.08593002
0.10008472 -0.19251284 -0.15796995 -0.11332775 -0.00097312004 0.16132703 0.19538105 -0.08885094
-0.055503346 0.15406887 -0.1508565 0.017885972 -0.13683751 0.1576428 0.059560772 -0.10599259
0.25724033 0.14970359 0.18117307 0.12680763 -0.06693028 0.04778883 0.21504636 0.0039900565
-0.029734947 0.0029014472 -0.021157723 0.055474926 0.18508019 -0.045922227 0.07947097 0.1518092
0.14146782 0.2381283 0.13676886 -0.03714054 0.12907034 0.21119279 0.011813772 0.16925511
0.07955622 0.007620599 -0.043030858 0.23132505 0.20282583 0.019493744 0.03076124 0.08490799
0.27041894 -0.052667256 -0.020544162 0.18320858 0.20273778 0.06326286 -0.12758839 0.07580917
-0.22548412 0.10000035 0.30422696 -0.056490153 0.13352707 0.018559892 -0.060671445 -0.1145757
0.108951405 -0.15429589 -0.35320243 0.3105865 0.13569324 0.14801477 -0.016665056 -0.13904251
0.036070883 -0.04984295 -0.08861195 -0.09298882 0.20795259 -0.24123612 0.17725429 0.06386035
0.05517891 0.11012457 0.2168753 -0.16553035 -0.08072535 -0.20858538 0.16749495 0.08518481
0.15062301 -0.043753188 -0.08010167 0.034426183 -0.058884434 0.1982128 0.15737152 0.17413442
-0.017685061 -0.104854375 0.017914932 0.13921423 0.01854005 -0.06282334 0.025706097 -0.15252751
-0.11389719 -0.2196785 -0.15143023 -0.21547556 -0.0027074483 -0.2162143 -0.031896733 0.0244932
0.13926534 -0.12096037 -0.034373906 -0.0043238876 -0.07357481 -0.19662948 0.20411424 -0.047727212
-0.12444706 0.056871615 0.22693756 -0.16542546 -0.31140321 -0.069995634 -0.21073659 -0.1335976
0.038000077 0.16102389 -0.14132254 0.02072982 0.088435754 -0.13384044 -0.024051307 -0.31330347
-0.304991 0.21824585 -0.012357537 -0.16696483 -0.17348611 0.115994744 0.22919825 0.15442686
0.262828 0.074023165 0.016549775 0.16697419 0.033965208 -0.23653327 0.27188504 0.14021778
0.058005046 -0.16262448 0.23734961 -0.14473705 0.031805377 -0.21365632 0.2566231 -0.13179895
-0.21886404 -0.109525256 -0.00071157754 0.19938068 0.25356406 -0.117230415 -0.11027718 0.03618965
0.053361624 0.21741164 -0.1306367 -0.12449982 0.09824252 -0.01276904 0.097083144 -0.009920995
-0.029675242 0.13740827 -0.22167978 0.14580163 -0.17336057 0.040236294 -0.2744926 -0.11588376
0.25982735 -0.2821521 -0.09469101 0.18201908 -0.19003662 0.049692024 -0.11647297 0.13331942
0.11151321 0.016747784 0.10875561 0.16410561 0.055129305 -0.11933333 -0.06409596 -0.11433835
-0.10549174 0.0037065297 -0.1168336 0.18981205 -0.19459009 -0.0028949415 0.012544802 -0.15619838
-0.022882523 -0.14503011 -0.044515792 0.006131454 0.074467935 -0.1051335 0.02192422 -0.045884028

Mixer_Block.0.mlp_block_channel_mixing_DynaMixerOperation.fc_Nd.bias f4 [484]
00000000: 1d64 db3d a146 023d 441e 523b 8ae9 bbbe
00000010: 990f eabd a851 fe3c 820d 39bd fef3 79bc
00000020: 67ba 393e 50b8 533e ce3a 1b3d c881 8bbd
00000030: f2e7 ea3d f16b 15be 190e d03c 4c43 813e
00000040: e151 24bd e6ba fbbd 1531 a63c 100a 7abe
00000050: 06ea 463e 31d0 1c3e bcda c6bc 38d1 303e
00000060: dbfe 15bd 4fec 2a3d 370f 08be da38 bebd
00000070: c687 1dbd b1f9 77bd 7296 97be 0cc6 ffbd
00000080: 1f67 d93d f50e cf3d 8a78 75bd 9468 1d3d
00000090: e514 fbbc e8e6 5d3e b0c7 413d 0e8c c5bd
000000a0: 9f2f 383e 256b ce3d 7e9b 6b3d ec10 27be
000000b0: 83fa b83d 3198 42bc db65 253d aedf 813d
000000c0: bedd d4bd dc2f 56be 802b 13be 6c50 ebbb
000000d0: 9e04 2c3c 4919 383e f2e5 63be 2248 533a
000000e0: e9ef 9a3d 976b 043e 8ad1 0fbe c379 5bbb
000000f0: bc63 473e 7858 c3bd 7411 033e 9bfc 053e
00000100: 9564 68bc 861c 01bd 0ffb 39be e755 1fbd
00000110: f70c 023e 6682 ef3d a022 5c3e 14b8 02be
00000120: 4731 03bd cdb4 993d c676 6ebe 7f79 9f3d
00000130: 2aed 21bd a05a 333e b9e2 2fbe 0a49 91bd
00000140: 4eb6 193e 2079 3cbd ba6a abbc 105e 543e
00000150: 8d96 373e d0e6 e5bd 610a 643e 83dd 203d
00000160: 2de2 2b3d 58ba 9d3e 7474 12be d0fd 543c
00000170: d0a3 88be 4018 9a3e 772f 5e3e c142 893c
00000180: 5302 cf3d 74a5 43be e985 43bd da29 463e
00000190: 98d0 85bd b1fb 663c 343a 91bd b337 56bc
000001a0: 1ead 023e 0574 1fbd 8230 bebd f877 e3bd
000001b0: ea37 7abc df5d 913c 9be0 843e fddb dc3d
000001c0: 9296 3bbe c480 4ebe d76c 593e 8d78 f8bc
000001d0: 49b3 c1bd 427e 44be 3e86 56bd 5ff7 993c
000001e0: 2392 393e b42d 55be f05d 543e 43fb 493e
000001f0: 6008 77be 9f36 8c3d 09bc 26be dd70 dcbc
00000200: 2aca 22be 5c65 cdbd 6212 f93c cf0c 06be
00000210: 00ad 25be d383 243e 030e 0f3e 5f51 98bd
00000220: a0cb 17be d3a7 4dbe 827f 70be 7439 783e
00000230: cbc7 f13d e4b2 de3d a1b1 433e c4f9 e23c
00000240: d3ab 053e 4d83 8ebc cdf3 d83b c548 5b3d
00000250: 7987 13be a803 03be cf01 87be 5c77 813d
00000260: e130 1a3e 8e1f 303e ed21 4fbe 48b5 343d
00000270: 4629 003e 020c 8d3d 378b edbd 9788 853c
00000280: ac69 51bd b515 8b3e 4aff 253d 69a9 b53d
00000290: 7b27 70be bfb5 933d b115 9e3e 88e9 18be
000002a0: f348 9c3c aa04 87bd 2d5e 8f3c f16b aebd
000002b0: c61d 21be e8d1 363e 51a2 73bd d6fc 8cbc
000002c0: 3003 9c3e b32d 44bd 3a01 7cbb c3d7 273e
000002d0: ef65 2fbe edd1 443d a0e6 313e b059 92bd
000002e0: 15ba 1b3d 6948 35be 6489 603e 8b1e 50be
000002f0: 0acd 5f3e 0972 193e 2d11 a0bd 0667 cc3c
00000300: 59c8 a03d ea03 173e 82a9 b43d f687 febd
00000310: b973 9a3d 4e4f 623e 88bd 193e eaa0 b5bc
00000320: 4b81 48be bce9 05bd be9e 8cbd 658e eabd
00000330: 893d 83bc fec2 133e ad57 dd3d 8d09 853d
00000340: d1af 60be 6eff 5ebe a1f7 893e a5bb 45be
00000350: 2044 e8bd 811b 963d 9596 f8bd ef9c 6b3d
00000360: b089 8f3d 49a7 023e 5b1b 98be e8db ecbd
00000370: 07b3 cbbc f308 3d3e 39ce 663e 5785 923e
00000380: bb34 2b3e 2fb5 2abe e6fd 68bd 32e0 583d
00000390: 771b bb3c a55e 25be 35d8 ef3d 9b0b 313e
000003a0: b711 aebb 9b45 06be e08b d0bd ee38 463e
000003b0: 0eaa 4f3d 85fe 243e 91aa 843c 3127 c3bd
000003c0: ca80 50be 7ab5 4a3e 56df 90ba 2d6a 3b3c
000003d0: 1df9 40be dfb8 e33d 1f36 fdbd 41e5 c7bc
000003e0: e38e 14be d86a 823e 76dc 223d 5333 78bd
000003f0: be85 1e3e 1721 2ebd 1ffd c6bc 0d4c cebd
0.107124545 0.03180564 0.0032061497 -0.36701614 -0.11428756 0.031044796 -0.045178898 -0.015255926
0.18137513 0.20675778 0.037897877 -0.06811863 0.11470021 -0.14591958 0.025397347 0.25246656
-0.04011715 -0.122915074 0.020287076 -0.24417901 0.1942521 0.15313794 -0.024274223 0.1726731
-0.036620002 0.041729268 -0.13287054 -0.09288187 -0.03845956 -0.06054086 -0.29606968 -0.12488946
0.10615372 0.10110275 -0.059929408 0.03842981 -0.030649612 0.21670115 0.047309577 -0.09645854
0.17986916 0.1007903 0.057521336 -0.16315049 0.09032156 -0.011877106 0.04038034 0.06341492
-0.103938565 -0.20916694 -0.14372063 -0.007181218 0.010499148 0.17978396 -0.22255686 0.000805976
0.075652905 0.12931667 -0.14044777 -0.0033489324 0.1947164 -0.095383584 0.12799627 0.13084643
-0.014184137 -0.031521343 -0.18162178 -0.038900282 0.12700258 0.116947934 0.21497583 -0.12765533
-0.032029416 0.07505188 -0.23287496 0.077868454 -0.039532818 0.1751504 -0.17176332 -0.07094009
0.1501095 -0.04601395 -0.020924915 0.20739007 0.17928524 -0.112256646 0.22269584 0.03927375
0.041963745 0.30806231 -0.14302236 0.012999967 -0.2668748 0.30096626 0.21697794 0.016755464
0.10107865 -0.19106084 -0.04773513 0.19351903 -0.06533927 0.014098094 -0.070911795 -0.013074803
0.12761351 -0.038929004 -0.09286596 -0.111068666 -0.01527212 0.017744957 0.2595261 0.10784147
-0.18319157 -0.20166308 0.21232925 -0.03033092 -0.09458024 -0.19188789 -0.052374117 0.018794714
0.18122153 -0.20818216 0.2073896 0.19724755 -0.24124289 0.06846356 -0.16282667 -0.026909286
-0.15897432 -0.100290984 0.030404273 -0.13090824 -0.16179276 0.16065912 0.13970189 -0.07437395
-0.1482377 -0.20083551 -0.2348614 0.24240667 0.118056856 0.108739644 0.19110729 0.027706988
0.13053827 -0.017396593 0.00662086 0.053536195 -0.14407147 -0.12794363 -0.26368567 0.06321594
0.15057708 0.17199537 -0.20227785 0.044118196 0.12515745 0.06887056 -0.11598819 0.016300483
-0.051126167 0.27165 0.040526666 0.08870203 -0.2345256 0.072124 0.30875924 -0.14932835
0.019077754 -0.065926865 0.017500961 -0.08516682 -0.15734014 0.1785351 -0.05948097 -0.017210405
0.30471182 -0.047895145 -0.003845288 0.163909 -0.17128728 0.048051763 0.17373133 -0.07146013
0.03801926 -0.17703404 0.2192741 -0.20324151 0.2185556 0.14984907 -0.07815776 0.02495147
0.07850713 0.14747587 0.088213935 -0.12428276 0.075416036 0.22100565 0.15013707 -0.022171456
-0.19580571 -0.03269361 -0.06866215 -0.11452941 -0.016020553 0.14429852 0.108077385 0.06495962
-0.21942069 -0.21777126 0.26946738 -0.19309862 -0.11341119 0.07329465 -0.12138096 0.05752271
0.07008684 0.12759127 -0.2970837 -0.11565381 -0.02486564 0.18460445 0.22539605 0.28617355
0.16719334 -0.16670679 -0.05688276 0.052948184 0.022840245 -0.16149385 0.1171116 0.17289583
-0.0053121704 -0.1311249 -0.10182929 0.19357654 0.050699286 0.16112716 0.016194614 -0.095289595
-0.20361629 0.1979579 -0.0011052887 0.0114388885 -0.18845029 0.11119246 -0.123638384 -0.024401309
-0.14507632 0.2547214 0.03976103 -0.06059582 0.15480706 -0.042512026 -0.02429062 -0.10073099

Mixer_Block.0.mlp_block_channel_mixing_DynaMixerOperation.fc_out.weight f4 [10, 10]
00000000: 1fc2 303e 92cc 913e bf15 98be 8f86 6a3e
00000010: 37fb 83be a2c3 4b3b 7926 de3d faa6 0cbe
00000020: 8a88 8abe 08cd 7c3e ae5a a5be 18bf 5f3e
00000030: 5a8e aabd 2d9a dcbd cd1a 1fbe a14b de3d
00000040: ce4d af3d d3e3 0c3e ba8e c73d 595a 973e
00000050: bb71 e13e 8c83 31be 890f 6abd b542 57be
00000060: a32e cbbb 4193 7abe 2a74 66bd f38e 55be
00000070: 5721 783d cfe4 853d ced8 89be e24a 35be
00000080: 882c 5fbe 03f0 393e 3526 7b3d f53b 4cbe
00000090: fd7f afbd e560 a4bd ab20 0abe 8fba fcbd
000000a0: 9f89 31be ccff 26bb d855 b13e 73c0 8e3d
000000b0: f736 d2bd ff9a a1bc cfdb 953d 47c2 853e
000000c0: 59c7 113e cf9d 4e3e 25bf d3be fb5a 8d3e
000000d0: 5340 323e 63e5 843d 57c5 a13d ccb5 d6bd
000000e0: 2fd5 9fbd 4f0e b4bd e60b f9bd a5a5 423e
000000f0: 638e f4bc 49af c7be 39ee 50be 1dad 97bd
00000100: c134 f83d 87cb 87be e90d 1d3e 71b5 a53d
00000110: f490 bc3c d2e7 a8bd 3f99 0bbe 61e5 a13e
00000120: df47 573e 73c5 ad3e e6c6 d53d d605 e03d
00000130: 7e11 19be 7758 463e 7a60 e5bd a768 f7bd
00000140: 2cde 103f 0e35 c2be 60ec bb3e ef5e 0c3e
00000150: 64d9 223e e576 76be 8936 8abd 4ec8 3dbe
00000160: 2ec8 193e 5a9c e2bc 5cb5 263e 1fd0 0f3f
00000170: 9898 02bf ca14 f1bd 2fc5 54be 20cc dc3b
00000180: 572e 053e 7135 8bbe 915d 77bc fca8 ffbc
0.17261551 0.28476387 -0.2970409 0.22902893 -0.257776 0.0031091948 0.10847182 -0.13735572
-0.27057296 0.24687588 -0.32295746 0.2185024 -0.08327933 -0.10771594 -0.15537567 0.10854269
0.08559762 0.13758783 0.0974402 0.29561117 0.44032082 -0.17335337 -0.05714372 -0.2102154
-0.006200628 -0.24470235 -0.056263126 -0.20855312 0.06057867 0.065377824 -0.2692322 -0.17704347
-0.21794331 0.18157963 0.061315734 -0.19944747 -0.08569334 -0.08026294 -0.13489024 -0.12340271
-0.17337655 -0.0025482057 0.34635806 0.069703005 -0.1026439 -0.019727228 0.07317316 0.26124784
0.14236201 0.20177387 -0.4135677 0.27608475 0.1740735 0.064890645 0.07898968 -0.10483894
-0.078043334 -0.08791792 -0.121604726 0.19008501 -0.029853052 -0.3900092 -0.20403375 -0.074060656
0.12119437 -0.26522467 0.15337338 0.08091248 0.023018338 -0.08247341 -0.13632677 0.31620315
0.2102351 0.33939704 0.104383275 0.10938613 -0.14948079 0.19369684 -0.11200042 -0.12080508
0.5658901 -0.37931103 0.36703777 0.1370809 0.1590324 -0.24068792 -0.06748683 -0.18533441
0.15017769 -0.027662445 0.1628012 0.5617694 -0.5101409 -0.11771543 -0.20778345 0.006738201
0.13005958 -0.2718921 -0.015097992 -0.031208508

Mixer_Block.0.mlp_block_channel_mixing_DynaMixerOperation.fc_out.bias f4 [10]
00000000: 5dd3 503e f82a 44be c506 1cbe f0d9 afbe
00000010: 8068 48be 5b74 57bd f3bd 13be 822b d33c
00000020: 5689 913d 96c3 583e
0.20393129 -0.19157016 -0.15236957 -0.3434596 -0.19571114 -0.0526012 -0.14427929 0.025777582
0.07106273 0.2116836

Mixer_Block.0.mlp_block_channel_mixing_DynaMixerOperation.LN.weight f4 [22]
00000000: 822a 853f b840 833f d1c8 813f 90d8 833f
00000010: 468b 863f 9bf8 863f de95 943f 4e02 683f
00000020: 00c3 6f3f d564 863f b4fd 833f 55dc 7f3f
00000030: b79a 803f a829 903f a5f6 833f 5dd1 9b3f
00000040: 17a7 963f da7b 803f d96b 8d3f bc16 8f3f
00000050: 185d 893f e622 8f3f
1.0403597 1.0254126 1.0139409 1.0300465 1.0511253 1.0544618 1.1608236 0.90628517
0.9365692 1.0499521 1.0311799 0.99945575 1.0047215 1.1262712 1.0309645 1.2173268
1.1769742 1.0037796 1.1048537 1.1178813 1.0731535 1.1182525

Mixer_Block.0.mlp_block_channel_mixing_DynaMixerOperation.LN.bias f4 [22]
00000000: d8df 12bd c10a 023b c4f7 f83c c955 fabc
00000010: d711 c6bd e69e 7ebd f0e4 b33b 2895 003d
00000020: d529 803d 2a42 daba f499 5dbd 76e3 66bd
00000030: 2bae 123d 3d69 d83c 4549 fabd 80d5 1bbe
00000040: 6fbd 0e3d 3078 8f3d a79c 033d 1efb 493b
00000050: 3754 72bc a66f ea3d
-0.035858005 0.0019842836 0.030391581 -0.030558484 -0.096713714 -0.062163256 0.005489938 0.031392246
0.06257979 -0.0016651799 -0.0541019 -0.056369267 0.03581063 0.026417369 -0.12221006 -0.15218163
0.034848627 0.07005346 0.032131817 0.0030819844 -0.014790586 0.114470765
